Archived Code/Maxwell/rowdy/ES_rowdy_high_2.pt (torch, 89696 bytes, 22 tensors)

omega1 f4 [9, 1]
0.96117777 0.9797088 0.98852587 0.97509205 0.97070616 0.9904998 0.97230977 0.9603127
1.5018114
00000000: bf0f 763f 32ce 7a3f 0810 7d3f a29f 793f
00000010: 3380 783f 6591 7d3f 4be9 783f 0ed7 753f
00000020: 5b3b c03f

alpha f4 [6, 9]
-0.2093458 -0.17958267 -0.072035395 -0.17161122 -0.19770686 0.005660561 -0.20812644 -0.3772806
3.1018279 -0.27874526 -0.20766488 -0.10754276 -0.2844991 -0.33176503 -0.27256736 -0.3266803
-0.50305146 5.3308454 -0.16352749 -0.080094025 -0.13070555 -0.2923442 -0.32985604 -0.12429657
-0.18258071 -0.28212595 6.315984 -0.0073484783 0.05179231 -0.14344802 -0.20663261 -0.21503294
-0.022455115 0.018694514 0.15191685 6.1056643 0.11062296 0.14445043 -0.1078104 0.011009103
-0.0069631003 0.049177144 0.15753232 0.30130917 5.063062 0.19502576 0.14439124 0.0153338825
0.41436514 0.26428518 0.10311399 0.18495129 0.47082454 3.7909622
00000000: bf5e 56be 85e4 37be 4b87 93bd daba 2fbe
00000010: ab73 4abe 3a7c b93b 191f 55be ec2a c1be
00000020: 5984 4640 b3b7 8ebe 1aa6 54be 613f dcbd
00000030: dea9 91be 1bdd a9be f38d 8bbe a442 a7be
00000040: fbc7 00bf 4996 aa40 c073 27be 5608 a4bd
00000050: add7 05be 24ae 95be e4e2 a8be 338f febd
00000060: 70f6 3abe d072 90be 8a1c ca40 81cb f0bb
00000070: 2c24 543d 0ae4 12be 8097 53be 9831 5cbe
00000080: caf3 b7bc 3d25 993c 1790 1b3e 9a61 c340
00000090: 4a8e e23d d0ea 133e b3cb dcbd 865f 343c
000000a0: b82a e4bb f96d 493d 2750 213e 3245 9a3e
000000b0: 9b04 a240 d5b4 473e 4cdb 133e f73a 7b3c
000000c0: ab27 d43e 6350 873e 6d2d d33d df63 3d3e
000000d0: ea0f f13e 209f 7240

omega f4 [6, 9]
0.2357721 0.16551235 0.18362379 0.16126333 0.1962419 0.20939285 0.21217169 0.2781869
0.31132296 0.12469315 0.09238085 0.13797857 0.09508159 0.15235363 0.1348116 0.09522546
0.0759323 0.11686784 0.024583716 0.09623206 0.09426334 0.08316067 0.07945906 0.119665936
0.13407879 0.013958462 0.08531447 -0.02211226 0.0896647 0.019586407 0.09969055 0.03770579
0.13636215 0.09072364 0.0770092 0.061757725 0.022919314 0.026198661 0.0016087721 0.039476667
0.05355174 0.04057247 0.08826256 0.049405113 0.049564984 0.04387308 0.0028238688 -0.050327513
0.04896683 0.056374192 0.04941138 0.02771545 0.051195957 0.041542657
00000000: 3e6e 713e 127c 293e e007 3c3e 3722 253e
00000010: a3f3 483e 146b 563e 8943 593e 836e 8e3e
00000020: b965 9f3e 1f5f ff3d 2c32 bd3d 414a 0d3e
00000030: 23ba c23d 9702 1c3e 0d0c 0a3e 9105 c33d
00000040: 6582 9b3d 6858 ef3d ca63 c93c 5015 c53d
00000050: 230d c13d 2450 aa3d 6fbb a23d 6a13 f53d
00000060: f34b 093e 08b2 643c 5ab9 ae3d c524 b5bc
00000070: 20a2 b73d ac73 a03c 8f2a cc3d 6371 1a3d
00000080: 85a2 0b3e 51cd b93d 00b7 9d3d abf5 7c3d
00000090: 49c1 bb3c 939e d63c 6fdd d23a 49b2 213d
000000a0: 1259 5b3d 512f 263d 00c3 b43d 045d 4a3d
000000b0: a704 4b3d 42b4 333d a810 393b 3924 4ebd
000000c0: 7191 483d a0e8 663d 9663 4a3d 830b e33c
000000d0: dab2 513d a228 2a3d

linears.0.weight f4 [50, 2]
0.24617511 -0.07521906 -0.28261346 0.3926435 0.045168895 -0.0336835 0.21970132 0.055818107
-0.020996366 -0.069901876 -0.23671423 0.21165994 -0.1412919 0.04221606 -0.0028218348 -0.0038680858
-0.08277208 0.52496386 0.20435949 0.0676716 0.017638378 0.06580766 -0.2301709 0.23388803
-0.54795974 0.0539132 -0.03772618 -0.27739888 -0.23743181 0.19990364 0.0091524115 -0.4410764
0.12736829 0.12689544 -0.07033855 0.1471333 -0.53243244 -0.09906439 -0.02920521 0.056175504
-0.052191895 0.0621422 -0.10446886 0.024260275 0.13504988 -0.07743604 -0.13394389 0.0918975
0.04483573 0.006586919 0.26844326 -0.18722291 -0.11579434 -0.32189393 0.14828129 0.014882636
0.029487254 -0.14341792 0.0947008 0.28698182 -0.040811904 -0.01335976 -0.12080157 -0.14342283
0.124293365 -0.27927008 -0.38409984 0.076247476 -0.11797479 0.012914806 0.004899338 -0.027950566
0.14658137 -0.011615663 -0.5098395 -0.13324949 -0.2873639 0.09448147 -0.07664932 -0.036745522
0.1074513 -0.21664532 -0.23829931 0.06449734 -0.083300576 -0.12305351 0.32562715 -0.15010713
-0.040772576 0.049861778 0.08755466 0.047099203 -0.08485391 -0.09894859 0.06251242 0.23518404
-0.14668132 -0.05286381 -0.4300081 0.06868113
00000000: 5415 7c3e 730c 9abd b6b2 90be 9208 c93e
00000010: 0503 393d b6f7 09bd 62f9 603e 87a1 643d
00000020: 9200 acbc b728 8fbd 3765 72be 62bd 583e
00000030: d3ae 10be bfea 2c3d 88ee 38bb b67f 7dbb
00000040: 6984 a9bd 0864 063f 9d43 513e 6897 8a3d
00000050: 5c7e 903c 2bc6 863d ecb1 6bbe 5880 6f3e
00000060: 1747 0cbf 16d4 5c3d c486 1abd 3a07 8ebe
00000070: 5321 73be 8ab3 4c3e fff3 153c c4d4 e1be
00000080: d56c 023e e1f0 013e a80d 90bd 1daa 163e
00000090: 7e4d 08bf 45e2 cabd c43f efbc 4918 663d
000000a0: 2bc7 55bd d288 7e3d c5f3 d5bd 7cbd c63c
000000b0: 844a 0a3e c996 9ebd 9628 09be c234 bc3d
000000c0: aca5 373d 15d7 d73b 6571 893e 5db7 3fbe
000000d0: 9525 edbd 48cf a4be 0dd7 173e 4dd6 733c
000000e0: 418f f13c 26dc 12be 7ef2 c13d 48ef 923e
000000f0: 622a 27bd e5e2 5abc d066 f7bd 6fdd 12be
00000100: 858d fe3d 7dfc 8ebe bca8 c4be a327 9c3d
00000110: c49c f1bd 9f98 533c a08a a03b 96f8 e4bc
00000120: 6d19 163e 9f4f 3ebc d784 02bf 8e72 08be
00000130: 5c21 93be 807f c13d 52fa 9cbd 7982 16bd
00000140: 6d0f dc3d 45d8 5dbe bc04 74be 2e17 843d
00000150: 7e99 aabd 7b03 fcbd 9ab8 a63e afb5 19be
00000160: 2501 27bd dd3b 4c3d dc4f b33d 18eb 403d
00000170: e3c7 adbd 8fa5 cabd 8306 803d 16d4 703e
00000180: a133 16be b987 58bd 062a dcbe b1a8 8c3d

linears.0.bias f4 [50]
0.074090764 0.06478268 -0.6484551 0.83647215 0.4485934 -1.159004 0.40614924 -1.8763844
0.1209733 0.7970596 1.7165219 -0.052405287 0.77802765 1.2754726 0.52029514 1.7224777
-0.38744912 1.8815972 -0.29310623 0.5778645 -0.3967184 -0.709173 -0.3172397 -0.32844684
0.5008792 0.39710745 -0.18092385 0.8438135 -0.8218806 -1.5300038 -0.7176913 -0.92068166
0.9233109 1.1046833 1.2974933 -0.25275725 -0.9537455 -1.2571621 0.0070732227 1.815675
-0.35038033 -2.4404037 1.7888086 -1.7539653 0.861116 2.6375108 -0.28588083 -0.16656776
0.58690345 -1.0513111
00000000: e6bc 973d c8ac 843d 2701 26bf 0a23 563f
00000010: 09ae e53e 3e5a 94bf cbf2 cf3e 5d2d f0bf
00000020: d9c0 f73d 190c 4c3f fdb6 db3f eda6 56bd
00000030: d22c 473f b042 a33f 1032 053f 267a dc3f
00000040: bb5f c6be 2dd8 f03f 0512 96be eeee 133f
00000050: ad1e cbbe 5d8c 35bf 3e6d a2be 2f2a a8be
00000060: 9f39 003f ab51 cb3e 1a44 39be 2904 583f
00000070: c466 52bf 2ad7 c3bf 9eba 37bf cbb1 6bbf
00000080: 1a5e 6c3f 4366 8d3f 4314 a63f 6669 81be
00000090: aa28 74bf b0ea a0bf 7ec6 e73b 0a68 e83f
000000a0: 0d65 b3be 932f 1cc0 aef7 e43f ef81 e0bf
000000b0: 1972 5c3f facc 2840 f95e 92be bd90 2abe
000000c0: 4e3f 163f 5d91 86bf

linears.1.weight f4 [50, 50]
0.04935136 -0.0887297 0.15241633 -0.26846752 0.06410891 -0.051768064 -0.012483163 -0.17686051
0.034438897 -0.020042472 -0.04776389 0.034280114 -0.27792114 0.010592064 -0.16267839 -0.010468889
-0.05888977 0.022657322 0.10090612 -0.060219925 0.07616723 0.14144845 -0.17238724 0.22144613
0.1417357 0.0104871495 -0.09102586 0.12776878 -0.0068041664 -0.115588896 0.08420676 -0.019962369
0.24384305 0.11779535 -0.041462395 -0.02985416 0.016205827 -0.25420645 -0.16377544 0.14219035
-0.015916856 -0.060710985 -0.017765863 0.11996518 -0.068945974 0.24909173 -0.2099416 -0.09210681
0.03120042 -0.026865946 0.06055328 0.25878826 0.01361715 -0.047341045 0.17588224 0.22681226
0.06619413 0.0861345 0.1172809 -0.032435812 0.04157978 -0.28002694 0.16589004 0.26422167
-0.03128572 -0.19093783 0.17209645 -0.232964 -0.019058758 0.06255516 -0.014486531 0.09824427
-0.21610217 -0.02027904 -0.048314683 -0.19206215 0.104048714 -0.0018296023 -0.14529587 0.026231866
-0.1283373 -0.07834859 0.056517515 -0.17124404 -0.12011121 0.1524051 0.14929949 0.033984564
-0.12733126 -0.16487597 -0.32434142 0.17734843 0.11552337 0.049938094 -0.0990072 -0.018957082
-0.09536828 -0.10117479 0.055445194 0.1989234 -0.20748976 0.14428069 -0.29702213 -0.064690255
0.12656596 -0.083570704 -0.18661603 -0.2310299 0.022063823 0.14932233 0.21500471 0.2006185
0.058735415 0.025826477 -0.10646168 0.31280735 0.15442869 -0.084079936 0.13249987 -0.12327153
0.063120045 0.316834 0.22002079 0.04949716 0.03632553 0.100443594 0.25363567 -0.03456974
-0.32199925 0.06700093 0.0013838396 0.061550684 0.03815202 -0.2042074 -0.2119035 0.08063482
-0.18494669 -0.1959832 -0.16654953 -0.053438775 0.008595545 0.1554744 0.05340008 0.1627734
-0.087414995 -0.10989763 0.11747706 -0.13358156 0.22444308 -0.13727553 -0.0019290149 0.008502886
0.14970979 -0.11579529 0.07180292 -0.04686968 0.34993553 -0.28991947 0.08996186 -0.03555495
0.07865037 -0.38328966 0.16935371 0.16457768 -0.006096572 0.24150716 0.06880145 0.15524428
-0.20150138 -0.08984481 0.07821872 0.023701362 -0.09541692 0.15523998 0.056511123 -0.19087115
0.015302005 0.05307495 -0.078625284 -0.016008573 0.11307031 -0.19292769 0.015301475 -0.07749407
-0.107999675 0.33144417 0.31413263 -0.053848933 0.23293102 -0.020125806 0.26139846 0.24477074
-0.005556163 -0.065868154 0.072063595 0.24455833 -0.14609954 0.1558699 0.20460595 0.052879605
0.007398571 0.14771509 -0.22317173 0.019752892 -0.048932277 -0.19544503 -0.08623864 -0.26443607
0.040372074 0.040614296 0.10591139 0.10435658 -0.03269705 0.09653912 -0.0043056454 -0.08193471
0.021367515 0.12889646 -0.103691764 0.3158456 0.16466741 0.16184826 -0.09662072 0.07418733
0.07122252 -0.11938345 0.013829199 -0.17407553 -0.036583673 0.10664383 -0.109008744 -0.105112456
0.015327464 0.05812908 -0.2076245 -0.16750756 0.07015804 -0.22985756 0.121777266 0.15347753
0.10565454 -0.15910666 0.11215678 0.09507247 0.26556593 0.15325285 0.011395128 0.088052794
0.41073734 -0.10291779 0.291524 -0.11796018 0.25066915 -0.15634921 0.18361743 -0.095601
00000000: a724 4a3d ebb7 b5bd 0713 1c3e 9374 89be
00000010: 884b 833d c00a 54bd 2e86 4cbc ec1a 35be
00000020: cd0f 0d3d 1c30 a4bc 12a4 43bd 4e69 0c3d
00000030: ae4b 8ebe 568a 2d3c 2a95 26be b485 2bbc
00000040: 6636 71bd d99b b93c dea7 ce3d 2ba9 76bd
00000050: 91fd 9b3d ddd7 103e 4886 30be c6c2 623e
00000060: 2a23 113e 4bd2 2b3c c46b babd d2d5 023e
00000070: 7cf5 debb dfb9 ecbd 9874 ac3d 1f88 a3bc
00000080: feb1 793e b03e f13d 79d4 29bd b690 f4bc
00000090: 15c2 843c 5927 82be c0b4 27be 599a 113e
000000a0: 1164 82bc 15ac 78bd b789 91bc 4eb0 f53d
000000b0: 8c33 8dbd e711 7f3e eefa 56be 7fa2 bcbd
000000c0: 0698 ff3c f915 dcbc b706 783d e57f 843e
000000d0: 771a 5f3c afe8 41bd 791a 343e 7941 683e
000000e0: ca90 873d 4967 b03d f830 f03d 6adb 04bd
000000f0: 8f4f 2a3d b15f 8fbe 14df 293e 1048 873e
00000100: 7525 00bd 3585 43be 0d3a 303e 1d8e 6ebe
00000110: 1d21 9cbc eb1c 803d ea58 6dbc 4b34 c93d
00000120: e349 5dbe 3b20 a6bc 9ee5 45bd f1ab 44be
00000130: 7e17 d53d 44cf efba 71c8 14be 36e4 d63c
00000140: da6a 03be 3a75 a0bd e97e 673d 995a 2fbe
00000150: defc f5bd 1510 1c3e f7e1 183e 6633 0b3d
00000160: 2063 02be 3fd5 28be 1410 a6be d49a 353e
00000170: 8497 ec3d e38b 4c3d 49c4 cabd e24b 9bbc
00000180: 7250 c3bd ba34 cfbd 801a 633d 93b2 4b3e
00000190: 3278 54be 51be 133e 4913 98be 537c 84bd
000001a0: 829a 013e 1e27 abbd 4618 3fbe 1a93 6cbe
000001b0: 31bf b43c f4e7 183e 322a 5c3e f06e 4d3e
000001c0: 8c94 703d 0c92 d33c 9508 dabd 4928 a03e
000001d0: 8e22 1e3e 1a32 acbd 0cae 073e c975 fcbd
000001e0: 1545 813d 1138 a23e 214d 613e 89bd 4a3d
000001f0: 14ca 143d 5fb5 cd3d 89dc 813e 0099 0dbd
00000200: 16dd a4be c937 893d f461 b53a 921c 7c3d
00000210: 4b45 1c3d bf1b 51be 3bfd 58be de23 a53d
00000220: aa62 3dbe d2af 48be f68b 2abe 9ee2 5abd
00000230: 54d4 0c3c ae34 1f3e 0bba 5a3d 12ae 263e
00000240: a206 b3bd 0212 e1bd d097 f03d 9bc9 08be
00000250: 68d4 653e f591 0cbe 00d7 fcba b04f 0b3c
00000260: 864d 193e 1526 edbd 690d 933d 6cfa 3fbd
00000270: c02a b33e 5370 94be ec3d b83d 11a2 11bd
00000280: 7213 a13d 8b3e c4be 0f6b 2d3e 0d87 283e
00000290: c1c5 c7bb a74d 773e c6e7 8c3d 5bf8 1e3e
000002a0: 6156 4ebe 8e00 b8bd 2331 a03d 5c29 c23c
000002b0: f269 c3bd 3bf7 1e3e 3578 673d ba73 43be
000002c0: 43b5 7a3c 1e65 593d 4b06 a1bd 6924 83bc
000002d0: 6891 e73d d68e 45be 0ab3 7a3c 36b5 9ebd
000002e0: ef2e ddbd 0db3 a93e fed5 a03e b390 5cbd
000002f0: 7885 6e3e e0de a4bc 05d6 853e 2ea5 7a3e
00000300: 7910 b6bb e2e5 86bd 1496 933d 806d 7a3e
00000310: 1e9b 15be 5c9c 1f3e 3984 513e 4998 583d
00000320: b66f f23b a042 173e 2187 64be d1d0 a13c
00000330: 366d 48bd be22 48be e29d b0bd 2a64 87be
00000340: 305d 253d 2d5b 263d 12e8 d83d e7b8 d53d
00000350: 58ed 05bd 4db6 c53d 5f16 8dbb 63cd a7bd
00000360: ed0a af3c 6ffd 033e 595c d4bd 84b6 a13e
00000370: 939e 283e 8dbb 253e 16e1 c5bd 87ef 973d
00000380: 1ddd 913d 4f7f f4bd dd93 623c db40 32be
00000390: c3d8 15bd 1568 da3d fa3f dfbd 3345 d7bd
000003a0: 0b20 7b3c c218 6e3d 849b 54be 1a87 2bbe
000003b0: 05af 8f3d c85f 6bbe 5c66 f93d 3729 1d3e
000003c0: 6861 d83d dbec 22be 74b2 e53d 5bb5 c23d
000003d0: 42f8 873e 51ee 1c3e a2b2 3a3c 0655 b43d
000003e0: 2a4c d23e 90c6 d2bd a242 953e 1b95 f1bd
000003f0: b557 803e 021a 20be 3506 3c3e 75ca c3bd

linears.1.bias f4 [50]
1.7855291 -1.8886038 0.17420763 0.9585039 1.7972673 -0.32584006 0.5359427 0.18914168
-1.0261424 0.13876313 0.041159406 -1.8434691 0.44020993 -1.0955741 0.29758933 1.1350098
-0.58598274 0.1208486 0.9426589 -0.64404196 -0.4794392 -0.43895683 0.26250273 -0.21944638
0.4515251 -0.08937045 -1.3901783 0.3069003 -1.6293755 -1.7815217 0.34129307 -0.48136333
0.2861297 0.032877907 0.035045102 1.2811029 -2.4523172 0.57571286 -1.8933617 -0.19384223
0.89019334 -2.1513577 -0.69361556 -0.12317655 -1.1140289 1.9614459 0.11254503 1.033971
0.1490883 0.60517013
00000000: 388c e43f c5bd f1bf 7c63 323e 8360 753f
00000010: db0c e63f 82d4 a6be 8a33 093f 5bae 413e
00000020: a258 83bf ec17 0e3e c496 283d ccf6 ebbf
00000030: 3263 e13e c63b 8cbf a15d 983e 0048 913f
00000040: f702 16bf 797f f73d 1852 713f efdf 24bf
00000050: 0e79 f5be f3be e0be c266 863e 8db6 60be
00000060: 4c2e e73e db07 b7bd 5df1 b1bf 0922 9d3e
00000070: 608f d0bf e708 e4bf f7bd ae3e 4175 f6be
00000080: 987f 923e fcaa 063d 748b 0f3d 2efb a33f
00000090: c4f2 1cc0 eb61 133f ad59 f2bf 947e 46be
000000a0: b6e3 633f d8af 09c0 ca90 31bf fd43 fcbd
000000b0: 8098 8ebf a910 fb3f 027e e63d 2959 843f
000000c0: 9aaa 183e 6eec 1a3f

linears.2.weight f4 [50, 50]
-0.05526805 0.090342656 0.049258657 -0.051124908 0.048966333 -0.123781204 -0.0746124 -0.033032026
-0.28983593 0.14834456 -0.26416668 0.02573093 0.07303562 -0.071842484 0.2974422 0.0260778
0.13220532 -0.06442323 -0.036903232 -0.11544372 -0.16122477 0.030696524 -0.052343667 0.16275617
0.10575395 0.022209695 0.14869037 0.10771877 0.067646146 -0.17435142 -0.29884744 0.16154246
-0.08674244 0.14540105 0.0018148185 0.1790071 0.014348712 -0.011484282 -0.32901472 0.076249555
0.20210451 0.012855188 -0.20673089 0.2385189 -0.03348166 0.14624636 -0.14531411 0.24899484
0.0986343 -0.12867008 -0.030312879 0.06405799 0.1309722 -0.21624015 0.05807528 -0.08315812
-0.13629314 -0.18064566 0.13203508 0.12484317 0.060470767 0.033319455 0.29721504 0.12785462
0.20380771 -0.13585503 0.058487035 0.061324798 -0.15517552 -0.29689077 -0.1774921 0.14292467
-0.022952002 -0.21011704 -0.30574775 -0.04272925 -0.11094712 -0.06165905 -0.014524339 0.0410999
0.052641243 0.03649823 -0.016880414 0.23154306 -0.15359685 -0.0019802973 0.106801055 0.013649685
0.20608126 -0.069674335 -0.014277803 0.10685074 -0.06162647 -0.009374133 -0.04737881 -0.18346621
-0.06411469 -0.059770066 -0.31197402 0.115063295 -0.14630765 0.0036087346 0.14428067 0.012836683
0.10596025 -0.1455637 0.24245746 0.1138723 -0.053735577 0.1652452 0.012951829 0.038966674
0.025007676 -0.09742156 0.24062373 -0.0036125851 0.0997366 -0.03353883 -0.2032025 0.09141258
-0.127461 -0.018783115 0.26448962 -0.12533042 -0.10897213 -0.25611946 0.14003256 -0.2036907
0.0095641315 0.003202083 -0.018502133 0.2999628 0.136516 -0.1291744 -0.21913226 -0.050405342
-0.29082584 0.18552405 0.04377674 0.0685855 0.09547665 0.013111326 0.029715972 0.14114551
0.0077329795 -0.32291144 -0.05001682 -0.18047005 0.048820145 0.095697105 -0.4301695 0.28765085
-0.16045523 0.055426486 -0.0018665296 -0.054275244 -0.1272324 -0.13619122 0.059688453 -0.006109238
-0.0663469 0.13291295 -0.07220341 -0.09455966 -0.34871167 0.21549223 0.0769238 0.004007099
-0.032086264 0.037349492 0.012328272 -0.12887645 -0.09012901 -0.0029428606 0.05263555 0.03430546
0.0017690363 0.047266457 0.14884384 0.018173374 0.1324608 0.07203089 -0.09521996 0.28008533
-0.15006477 -0.241007 -0.010606272 -0.18595923 0.01913228 0.18218091 -0.3267971 0.04484084
-0.18346547 0.06720864 0.09771829 -0.4583146 -0.022589024 -0.10075283 0.07691044 -0.033541802
0.016157322 -0.002211019 0.029437682 0.14506453 -0.30727896 0.057954285 -0.038039718 0.07117354
0.20328419 -0.18540826 0.10296274 0.13363925 0.1249599 -0.049414337 0.054115392 -0.024226878
0.048221998 0.061681107 -0.06244792 0.2295037 0.007338768 0.23124106 -0.08446963 -0.010089952
-0.27226856 0.11003755 -0.054307573 -0.22038904 -0.024505053 -0.19066015 -0.065775715 0.29724848
0.056468237 -0.066245586 -0.06408457 0.09688452 0.1662937 0.41320682 0.056835953 -0.082899615
-0.048900098 0.022402849 -0.02808186 -0.26885912 -0.03071777 0.08178623 -0.051571906 0.009815644
-0.01444442 -0.07521386 -0.020385288 -0.080014944 -0.17855427 -0.2967555 0.049979154 0.07858921
00000000: c060 62bd 9205 b93d 72c3 493d 5a68 51bd
00000010: ec90 483d 0081 fdbd 63ce 98bd 974c 07bd
00000020: 6065 94be a3e7 173e db40 87be acc9 d23c
00000030: b393 953d 2722 93bd 584a 983e 1ca1 d53c
00000040: d560 073e 54f0 83bd d827 17bd c26d ecbd
00000050: 1b18 25be 4777 fb3c 5066 56bd 8ea9 263e
00000060: 8795 d83d 1bf1 b53c 4a42 183e a99b dc3d
00000070: 108a 8a3d 2e89 32be 8802 99be 636b 253e
00000080: 05a6 b1bd 03e4 143e 34df ed3a a34d 373e
00000090: dc16 6b3c 9228 3cbc 9e74 a8be ba28 9c3d
000000a0: 7cf4 4e3e 919e 523c 43b1 53be 4c3e 743e
000000b0: 1124 09bd 9bc1 153e 39cd 14be 81f8 7e3e
000000c0: c800 ca3d 17c2 03be b752 f8bc d630 833d
000000d0: 941d 063e 0f6e 5dbe 58e0 6d3d ce4e aabd
000000e0: 6e90 0bbe 2dfb 38be 3434 073e c7ad ff3d
000000f0: 32b0 773d fb79 083d 922c 983e 52ec 023e
00000100: f8b2 503e 951d 0bbe 1a90 6f3d b62f 7b3d
00000110: 55e6 1ebe 1102 98be 7dc0 35be d85a 123e
00000120: d605 bcbc ec28 57be f88a 9cbe de04 2fbd
00000130: 3e38 e3bd 338e 7cbd 7ef7 6dbc 5e58 283d
00000140: 589e 573d 2b7f 153d cb48 8abc a019 6d3e
00000150: 7e48 1dbe e0c7 01bb 83ba da3d eea2 5f3c
00000160: f706 533e 6bb1 8ebd 72ed 69bc 90d4 da3d
00000170: 0a6c 7cbd f795 19bc 4810 42bd 91de 3bbe
00000180: 904e 83bd 75d1 74bd 0fbb 9fbe 4ea6 eb3d
00000190: acd1 15be 8580 6c3b 50be 133e f350 523c
000001a0: b001 d93d a70e 15be c546 783e e135 e93d
000001b0: d619 5cbd 0a36 293e e833 543c 859b 1f3d
000001c0: e6dc cc3c f484 c7bd 1166 763e 1fc1 6cbb
000001d0: b442 cc3d 0360 09bd 5114 50be 8536 bb3d
000001e0: 2385 02be 0cdf 99bc 2f6b 873e 9e56 00be
000001f0: c82c dfbd 1722 83be b264 0f3e 4b94 50be
00000200: e0b2 1c3c 0ada 513b c991 97bc b994 993e
00000210: daca 0b3e 4b46 04be 3564 60be d575 4ebd
00000220: 20e7 94be 04fa 3d3e 3d4f 333d 8e76 8c3d
00000230: 4389 c33d e3d0 563c e96e f33c 7388 103e
00000240: ef64 fd3b a654 a5be 70de 4cbd 24cd 38be
00000250: a2f7 473d d8fc c33d 2d3f dcbe f946 933e
00000260: 604e 24be e206 633d 57a6 f4ba b84f 5ebd
00000270: 3649 02be b675 0bbe e17b 743d 0130 c8bb
00000280: e2e0 87bd 551a 083e 62df 93bd 7fa8 c1bd
00000290: 568a b2be ffa9 5c3e 3a8a 9d3d fc4d 833b
000002a0: e36c 03bd c8fb 183d 85fc 493c 30f8 03be
000002b0: 8f95 b8bd 02dd 40bb 6098 573d e283 0c3d
000002c0: 02df e73a 799a 413d 856a 183e 54e0 943c
000002d0: cea3 073e ee84 933d af02 c3bd 5867 8f3e
000002e0: 94aa 19be 8aca 76be eec5 2dbc 196c 3ebe
000002f0: 4dbb 9c3c a28d 3a3e f351 a7be 07ab 373d
00000300: 5fde 3bbe afa4 893d 8720 c83d 36a8 eabe
00000310: 9e0c b9bc 8057 cebd 3983 9d3d 2163 09bd
00000320: 5c5c 843c bee6 10bb 4b27 f13c cc8b 143e
00000330: ab53 9dbe 7961 6d3d 89cf 1bbd 6fc3 913d
00000340: bb29 503e aadb 3dbe 21de d23d bad8 083e
00000350: faea ff3d b066 4abd 1aa8 5d3d 7277 c6bc
00000360: 6e84 453d 54a5 7c3d 64c9 7fbd 0503 6b3e
00000370: 0c7a f03b 75ca 6c3e 6afe acbd 5350 25bc
00000380: c966 8bbe 5e5b e13d 9e71 5ebd aaad 61be
00000390: d2be c8bc 6a3c 43be 6bb5 86bd f430 983e
000003a0: 3d4b 673d c4ab 87bd c53e 83bd 646b c63d
000003b0: e548 2a3e d88f d33e d1cc 683d 46c7 a9bd
000003c0: 784b 48bd 2e86 b73c ee0b e6bc e7a7 89be
000003d0: d5a3 fbbc 8a7f a73d 103d 53bd cbd1 203c
000003e0: 4aa8 6cbc b909 9abd 0cff a6bc e0de a3bd
000003f0: eed6 36be 56f0 97be f1b6 4c3d 61f3 a03d

linears.2.bias f4 [50]
-0.30693606 -0.8743453 0.7093418 -0.87858534 -0.7778658 -1.7922922 1.1475177 0.8126898
-1.2087399 -0.13398191 -0.5029057 0.40613848 0.4651215 -0.82421046 -0.6743611 -0.55656415
0.8549385 -1.751201 -0.024711257 0.40209153 -0.01152747 2.8228624 0.98896843 1.3312174
-1.2503399 0.57264173 -1.1072183 0.43065867 0.153413 0.06088812 2.8457317 -0.4280024
0.17071201 -0.18394808 0.2371813 -1.5753927 0.504588 0.8416195 -0.24617103 0.5440381
0.39433107 -0.08467699 -1.0638158 -1.3479018 0.8426668 -0.20932275 -1.7593918 0.42877465
-0.324659 -2.0572455
00000000: b926 9dbe 18d5 5fbf 6d97 353f f8ea 60bf
00000010: 3722 47bf d569 e5bf dce1 923f 700c 503f
00000020: fdb7 9abf 8e32 09be 6ebe 00bf 62f1 cf3e
00000030: 6824 ee3e 75ff 52bf eea2 2cbf fd7a 0ebf
00000040: 40dd 5a3f 5b27 e0bf 436f cabc f1de cd3e
00000050: b7dd 3cbc c7a9 3440 092d 7d3f 5565 aa3f
00000060: 230b a0bf a698 123f 54b9 8dbf 4b7f dc3e
00000070: 4c18 1d3e d265 793d 7820 3640 2123 dbbe
00000080: 21cf 2e3e e35c 3cbe a8df 723e 78a6 c9bf
00000090: ae2c 013f 6074 573f 4214 7cbe 1546 0b3f
000000a0: c3e5 c93e 216b adbd 1e2b 88bf 0c88 acbf
000000b0: 03b9 573f b458 56be c033 e1bf 5a88 db3e
000000c0: b439 a6be e9a9 03c0

linears.3.weight f4 [50, 50]
0.014452305 0.063551545 0.092498496 -0.32123888 -0.2641156 -0.061364654 0.050472364 0.23019083
-0.07618682 0.073819995 0.25478062 0.056513418 -0.16194923 -0.061625604 0.09888968 -0.10705511
0.16162696 0.023327423 -0.14729951 -0.21281339 0.0267646 0.15127128 0.19343832 -0.11537046
-0.04369649 0.2566287 0.030199602 -0.09762917 0.02925797 0.012445077 0.07837528 -0.039997105
0.057671674 -0.27358606 0.19577968 -0.2193498 0.043087367 -0.011156233 0.2712608 -0.061946787
0.19024655 0.02517543 0.13887636 0.23447551 -0.052207008 -0.1288566 0.030153267 -0.059772555
0.13461012 0.11180319 -0.019712055 -0.20434403 -0.017037895 -0.19249304 -0.08259101 0.16078904
0.08418984 0.068335414 0.124055 -0.051035777 -0.03975117 0.08218638 0.14776284 0.13165085
0.22834434 -0.03539567 -0.100372255 -0.25250176 -0.26921743 -0.21240191 0.09849749 0.0007609124
0.19147705 0.09466415 0.15143037 0.0010152364 0.28761432 0.20923579 -0.035636134 -0.13877241
0.117098816 0.078136094 -0.0022148716 -0.0017173906 -0.012507776 -0.23379996 0.20207009 0.031474542
0.017132925 0.10102695 -0.058006655 0.08982174 -0.049699962 -0.0036885291 -0.13680333 -0.16991872
0.083378114 -0.109896354 -0.09537461 0.008986815 -0.18688606 -0.08766439 -0.04435519 -0.18631423
0.13191938 0.09817143 -0.1287846 0.07295531 0.1945576 0.033785522 -0.014787866 0.06965453
0.054859683 -0.083461955 0.103033215 -0.08943466 -0.15072748 -0.14194024 0.1602435 -0.081374295
0.01389335 0.1167715 0.004355208 0.06972936 0.06887746 -0.26762334 -0.18564716 -0.07470256
-0.2735346 0.018076476 -0.20228612 0.00891565 -0.09384492 0.13308583 0.3179332 -0.106672324
0.100951605 -0.058027305 -0.18251589 0.17587154 0.033959236 -0.07323368 0.24944907 -0.0937737
-0.024322664 -0.025525257 -0.14147487 -0.14138363 0.13716829 -0.14352168 -0.05390658 -0.07646912
0.113907605 -0.2528555 0.067239076 0.17303915 0.15388474 0.14936052 -0.009245464 0.07055663
0.043166444 -0.17910141 0.19802588 0.09915733 -0.17010714 0.01468171 0.14682645 0.06733607
0.12978692 -0.15929753 0.117724426 -0.19640513 0.14430177 0.0621563 0.10737772 0.005673132
-0.12639256 -0.24515316 0.08622414 0.12099585 0.09012932 0.06072383 -0.115313135 0.1125131
0.095036454 -0.16202359 -0.18655972 -0.19034123 0.18635648 0.049407013 0.058137443 0.30695426
-0.26862875 0.20915388 -0.16524293 0.07149366 -0.293166 -0.042934634 0.07553994 0.2663449
-0.08609275 0.07073152 -0.32734963 -0.04769375 0.2179616 0.018595902 0.065761186 0.06231971
0.022212755 -0.12987673 -0.18856472 0.032034498 -0.015071447 -0.087623775 -0.20618264 0.060621258
0.1374062 0.12865491 -0.20349325 0.009061625 -0.27217793 0.21280132 -0.20905764 0.07264045
-0.06762943 -0.12385474 -0.01453363 -0.31991494 0.16221216 -0.016602984 0.09337804 -0.19392334
0.0065303794 0.06753201 0.077129535 0.06775319 -0.15265246 0.16212441 0.08851967 -0.025742734
-0.1549146 -0.22122471 0.12762418 0.022778068 0.22723494 -0.13748059 -0.0071455925 -0.0031172459
-0.013898831 -0.11876686 -0.017600765 0.094004855 -0.0817338 0.07813446 -0.006369887 0.13103946
00000000: 5cc9 6c3c 5027 823d da6f bd3d 6c79 a4be
00000010: 293a 87be 8159 7bbd 1cbc 4e3d 25b7 6b3e
00000020: d607 9cbd f02e 973d 9b72 823e 9d7a 673d
00000030: 05d6 25be 216b 7cbd ac86 ca3d b63f dbbd
00000040: 8a81 253e 2719 bf3c afd5 16be c1eb 59be
00000050: 6f41 db3c dce6 1a3e b214 463e 5947 ecbd
00000060: 17fb 32bd d664 833e 2865 f73c cdf1 c7bd
00000070: 69ae ef3c 70e6 4b3c 3883 a03d 01d4 23bd
00000080: 2239 6c3d 7913 8cbe 787a 483e 3c9d 60be
00000090: 617c 303d a2c8 36bc b2e2 8a3e eabb 7dbd
000000a0: fecf 423e b43c ce3c 9b35 0e3e 591a 703e
000000b0: 04d7 55bd fcf2 03be fc03 f73c 11d4 74bd
000000c0: 3cd7 093e 12f9 e43d 2d7b a1bc 903f 51be
000000d0: 0e93 8bbc e51c 45be 7a25 a9bd e2a5 243e
000000e0: b96b ac3d 70f3 8b3d 8c10 fe3d e40a 51bd
000000f0: 1fd2 22bd 5551 a83d 244f 173e 7bcf 063e
00000100: 19d3 693e 0dfb 10bd f88f cdbd e947 81be
00000110: ded6 89be e37f 59be 0db9 c93d f777 473a
00000120: 8f12 443e 47df c13d 9010 1b3e ae11 853a
00000130: 2f42 933e e841 563e 32f7 11bd 5b1a 0ebe
00000140: 81d1 ef3d d105 a03d 6127 11bb 111a e1ba
00000150: 6aed 4cbc 4269 6fbe 76eb 4e3e 73eb 003d
00000160: 595a 8c3c 38e7 ce3d 6398 6dbd 76f4 b73d
00000170: 3092 4bbd 40bb 71bb 2c16 0cbe 2cff 2dbe
00000180: 25c2 aa3d 5711 e1bd c353 c3bd 6f3d 133c
00000190: 0f5f 3fbe 6389 b3bd caad 35bd 28c9 3ebe
000001a0: e015 073e 1a0e c93d 1ce0 03be 9869 953d
000001b0: 1c3a 473e b062 0a3d ce48 72bc 09a7 8e3d
000001c0: 8cb4 603d 1aee aabd 1403 d33d 8529 b7bd
000001d0: 4e58 1abe c858 11be df16 243e 91a7 a6bd
000001e0: efa0 633c e525 ef3d 22b6 8e3b 44ce 8e3d
000001f0: a00f 8d3d ed05 89be 4a1a 3ebe a8fd 98bd
00000200: ba0c 8cbe 1e15 943c 1824 4fbe f212 123c
00000210: c431 c0bd a747 083e 24c8 a23e 0577 dabd
00000220: b7bf ce3d 0aae 6dbd 72e5 3abe ab17 343e
00000230: d718 0b3d 8afb 95bd 946f 7f3e 6d0c c0bd
00000240: 5340 c7bc 581a d1bc cade 10be dfc6 10be
00000250: d875 0c3e 59f7 12be 25cd 5cbd d89b 9cbd
00000260: 6448 e93d 4776 81be a4b4 893d 2d31 313e
00000270: f693 1d3e f7f1 183e 497a 17bc ff7f 903d
00000280: 4ccf 303d 5c66 37be 4cc7 4a3e 0013 cb3d
00000290: 9130 2ebe 8e8b 703c ac59 163e 7ee7 893d
000002a0: dde6 043e e41e 23be 8119 f13d 6d1e 49be
000002b0: d8c3 133e 9b97 7e3d dae8 db3d aee5 b93b
000002c0: 0d6d 01be 6e09 7bbe 4896 b03d accc f73d
000002d0: b995 b83d 8db9 783d 4b29 ecbd 456d e63d
000002e0: 79a2 c23d 83e9 25be 8309 3fbe d0e8 42be
000002f0: 3cd4 3e3e 025f 4a3d 8721 6e3d 1c29 9d3e
00000300: b589 89be 6f2c 563e 7135 29be 456b 923d
00000310: db19 96be 3adc 2fbd afb4 9a3d 5c5e 883e
00000320: 6551 b0bd b0db 903d 5f9a a7be 865a 43bd
00000330: 5331 5f3e 6f56 983c cdad 863d f442 7f3d
00000340: 86f7 b53c 68fe 04be 1c17 41be 9b36 033d
00000350: 3bee 76bc 1874 b3bd 8b21 53be ff4d 783d
00000360: 36b4 0c3e 1dbe 033e 8960 50be 3677 143c
00000370: e85a 8bbe 97e8 593e 3513 56be 84c4 943d
00000380: 4c81 8abd 8ea7 fdbd 761e 6ebc e4cb a3be
00000390: f21a 263e fb02 88bc fc3c bf3d d793 46be
000003a0: cbfc d53b 394e 8a3d 17f6 9d3d 2fc2 8a3d
000003b0: ed50 1cbe f103 263e cd49 b53d 6de2 d2bc
000003c0: efa1 1ebe bb88 62be eaaf 023e 1299 ba3c
000003d0: 47b0 683e b6c7 0cbe 9325 eabb b54a 4cbb
000003e0: ecb7 63bc 0a3c f3bd 7b2f 90bc 9e85 c03d
000003f0: 0d64 a7bd f604 a03d 7cba d0bb 352f 063e

linears.3.bias f4 [50]
1.4641285 1.1678536 -0.9263124 -0.055720817 1.5820893 -0.7098816 -1.5100677 0.6253985
-1.2626446 0.09337473 -2.3846815 -0.04498663 1.0449276 -0.9208486 -1.5933554 0.17992087
1.3817627 0.029684786 -0.20296332 1.0964893 -2.2558522 0.40866598 0.0873922 -2.2369869
1.1566494 0.3371379 1.1628301 -0.5706075 -0.40923434 -0.04537479 2.0674434 0.62553227
-1.3364998 -0.995735 0.18939073 -1.0719262 -0.39300922 0.31353825 -1.061382 1.3203751
-0.32514662 0.44811714 1.6146405 2.1274045 2.9057515 -0.74292237 0.54023767 -0.95189786
-0.09891127 1.2396809
00000000: 9068 bb3f 3a7c 953f cf22 6dbf 833b 64bd
00000010: e781 ca3f cdba 35bf e649 c1bf 1e1a 203f
00000020: 579e a1bf 403b bf3d 9f9e 18c0 e743 38bd
00000030: 30c0 853f bcbc 6bbf 12f3 cbbf 2d3d 383e
00000040: 9add b03f 822d f33c 9ed5 4fbe c359 8c3f
00000050: e25f 10c0 ab3c d13e affa b23d cb2a 0fc0
00000060: 160d 943f 579d ac3e 9ed7 943f 5513 12bf
00000070: 2a87 d1be eada 39bd fe50 0440 e222 203f
00000080: 6d12 abbf 7de8 7ebf a5ef 413e e134 89bf
00000090: 8138 c9be 1688 a03e 5edb 87bf 0d02 a93f
000000a0: 9e79 a6be 9c6f e53e 8aac ce3f 6527 0840
000000b0: d5f7 3940 2930 3ebf 044d 0a3f 94af 73bf
000000c0: fe91 cabd ddad 9e3f

linears.4.weight f4 [50, 50]
-0.015472645 0.025049893 -0.021590719 -0.038603615 0.13819252 -0.05837648 -0.14624596 0.18903445
0.08568093 -0.23267078 0.047864154 0.09938147 -0.13829419 0.2779643 -0.022927348 0.10316848
-0.027873848 -0.10517143 -0.20302878 -0.009453935 0.14541525 -0.08129237 -0.08457792 -0.070270285
-0.030747458 0.050257333 0.026824191 -0.025164539 0.038074713 0.06851995 0.13018961 -0.17667295
-0.11943567 -0.069371335 0.25304866 -0.10050865 0.2010122 0.115151405 0.018582845 -0.15953928
-0.28589168 -0.025850007 0.25913596 0.04687905 0.29535177 0.30107504 0.07795547 -0.0043489025
0.1809154 -0.005099169 0.10065421 0.26416647 -0.14352565 -0.25017232 0.021491788 0.123616695
0.042747654 -0.12999699 -0.1641632 0.045593914 -0.14153457 0.109283626 -0.20114951 0.16379565
0.31201527 0.0031798617 -0.024339583 0.09667455 -0.0666331 -0.07604057 -0.06779013 0.07993699
-0.07651575 0.31210697 0.25122547 -0.014561842 0.17512606 -0.012522294 0.13606401 -0.2440311
-0.09285929 0.13954869 -0.015638383 -0.13270794 0.21953371 -0.122471675 0.05799547 -0.016917903
0.12483317 0.11647922 -0.15366957 0.055988304 0.052207585 0.32747057 0.009611989 0.018248932
-0.033028122 0.054906912 -0.11462063 0.15329346 0.097965464 -0.106286146 0.0732113 0.16874269
0.14500237 0.09537592 -0.20767158 -0.065452114 -0.0537873 -0.062221155 0.029985683 0.16389933
-0.03320234 -0.11234572 0.056380868 0.14151263 0.03248261 -0.053978305 -0.0678204 0.33357075
-0.31278887 -0.16058369 0.21145894 -0.12174499 -0.147306 0.0006399121 -0.17369626 -0.015562569
0.14200377 -0.01944055 0.121619254 0.208419 0.23153013 0.2392714 0.08746384 -0.26939785
-0.022297377 -0.08409766 -0.16925746 0.123404615 0.077556126 0.06434233 -0.2001353 0.09133649
-0.07623727 0.020595863 0.21381661 -0.14376643 -0.06267996 0.093591094 0.19425508 0.04766378
-0.16405779 -0.3004699 0.14259526 -0.35502407 0.027120342 -0.13950056 -0.012831396 0.033488914
-0.15267538 -0.045677572 -0.23408909 -0.24492772 0.124520384 -0.15918466 0.0049303314 0.08811212
0.12258448 0.09005147 0.2415472 0.18106939 0.054520782 0.015586521 0.106416635 0.09881943
0.17218035 0.22271535 -0.1965028 0.045796752 -0.03601486 0.09803408 0.01655372 -0.042607766
-0.045062814 -0.009852192 0.029390415 0.23476195 -0.10624042 0.038016856 -0.09985476 -0.07995332
0.06565426 0.23395266 -0.1340077 0.09694146 0.09198815 -0.05476903 0.05747392 0.07106932
-0.14321373 0.3042059 0.14867352 0.1876637 0.045226086 0.36341897 -0.10789123 -0.09967895
-0.04316357 0.024272757 0.10600487 -0.2649581 -0.005922433 -0.009963712 0.057665117 -0.020762185
-0.11265885 0.13443083 0.058032174 -0.009989193 -0.034893777 -0.17813474 -0.20324153 0.05302479
-0.023833439 0.2560132 0.029200366 -0.13555571 0.018083636 -0.21060607 -0.16398636 0.043296028
-0.059885405 -0.031356286 0.03360303 -0.050890785 -0.030318333 -0.20229487 0.11898895 -0.033941504
0.020954903 0.028609097 0.10275124 0.19722854 0.26146665 0.0836435 0.018512273 0.06251548
0.19965146 0.09180115 -0.0068469658 0.21502651 -0.052246097 -0.172001 0.21435276 0.107606575
00000000: fa80 7dbc 6f35 cd3c 05df b0bc d31e 1ebd
00000010: 5782 0d3e 2d1c 6fbd 80c1 15be 3f92 413e
00000020: 7c79 af3d 4041 6ebe 340d 443d 8388 cb3d
00000030: fe9c 0dbe 5651 8e3e 22d2 bbbc ff49 d33d
00000040: b257 e4bc 1e64 d7bd c7e6 4fbe ade4 1abc
00000050: bce7 143e 9d7c a6bd 3037 adbd dee9 8fbd
00000060: 18e2 fbbc a2da 4d3d 68be db3c dd25 cebc
00000070: 3bf4 1b3d 3054 8c3d 6d50 053e c1e9 34be
00000080: b09a f4bd 8f12 8ebd 988f 813e 7bd7 cdbd
00000090: 24d6 4d3e 80d4 eb3d 0d3b 983c 445e 23be
000000a0: 6560 92be 65c3 d3bc 78ad 843e 3f04 403d
000000b0: 5938 973e 8226 9a3e 1ea7 9f3d 3d81 8ebb
000000c0: e341 393e ee16 a7bb cb23 ce3d d440 873e
000000d0: 63f8 12be 9616 80be 8c0f b03c c02a fd3d
000000e0: 2a18 2f3d ee1d 05be 661a 28be afc0 3a3d
000000f0: 70ee 10be 18d0 df3d 23fa 4dbe 0cba 273e
00000100: 77c0 9f3e 3a65 503b ce63 c7bc 4efd c53d
00000110: ef76 88bd 29bb 9bbd 8dd5 8abd 01b6 a33d
00000120: 4ab4 9cbd 7ccc 9f3e a0a0 803e cb94 6ebc
00000130: 3f54 333e 4f2a 4dbc 5d54 0b3e 4ae3 79be
00000140: 032d bebd dae5 0e3e 111c 80bc 97e4 07be
00000150: 72cd 603e 6ed2 fabd a88c 6d3d 6a97 8abc
00000160: 88a8 ff3d a88c ee3d 8e5b 1dbe fe53 653d
00000170: 9fd7 553d 39aa a73e 9b7b 1d3c c97e 953c
00000180: 7f48 07bd 12e6 603d 39be eabd f6f8 1c3e
00000190: 1ea2 c83d 8dac d9bd ceef 953d e2ca 2c3e
000001a0: 807b 143e 7354 c33d dca7 54be c20b 86bd
000001b0: 1250 5cbd 9cdb 7ebd 89a4 f53c 3ad5 273e
000001c0: 2dff 07bd 8315 e6bd a0ef 663d b0e8 103e
000001d0: 7c0c 053d 5b18 5dbd 6ce5 8abd c9c9 aa3e
000001e0: dd25 a0be 0d70 24be b188 583e 7055 f9bd
000001f0: 62d7 16be c6bf 273a 6fdd 31be 25fa 7ebc
00000200: 7069 113e ca41 9fbc 8413 f93d ca6b 553e
00000210: 3c16 6d3e 9003 753e 3e20 b33d 84ee 89be
00000220: fda8 b6bc 653b acbd d451 2dbe 8fbb fc3d
00000230: bfd5 9e3d e9c5 833d 45f0 4cbe a00e bb3d
00000240: 4922 9cbd a8b8 a83c bef2 5a3e 8237 13be
00000250: 5a5e 80bd b0ac bf3d ceea 463e 193b 433d
00000260: c4fe 27be 31d7 99be 7e04 123e b7c5 b5be
00000270: 7b2b de3c 3cd9 0ebe c73a 52bc ac2b 093d
00000280: ef56 1cbe 6818 3bbd 0db5 6fbe 55ce 7abe
00000290: 8b04 ff3d 4e01 23be 9e8e a13b 2174 b43d
000002a0: 920d fb3d e86c b83d 2658 773e 416a 393e
000002b0: 2f51 5f3d 9b5e 7f3c f7f0 d93d d761 ca3d
000002c0: 0c50 303e 7e0f 643e 0838 49be 6095 3b3d
000002d0: 5184 13bd 17c6 c83d ab9b 873c 7b85 2ebd
000002e0: c993 38bd 176b 21bc 2bc4 f03c 7065 703e
000002f0: 9494 d9bd 90b7 1b3d a780 ccbd 91be a3bd
00000300: be75 863d 4991 6f3e 5139 09be 3f89 c63d
00000310: 4864 bc3d 7e55 60bd c669 6b3d cb8c 913d
00000320: 9fa6 12be e0c0 9b3e df3d 183e ea2a 403e
00000330: fd3e 393d 0d12 ba3e 14f6 dcbd 7a24 ccbd
00000340: 49cc 30bd a9d7 c63c 1519 d93d 97a8 87be
00000350: f810 c2bb d63e 23bc 4232 6c3d 7515 aabc
00000360: afb9 e6bd 3ca8 093e 25b3 6d3d b6a9 23bc
00000370: c7ec 0ebd f468 36be 8c1e 50be 8630 593d
00000380: 583e c3bc 2a14 833e 9b35 ef3c 1ecf 0abe
00000390: 2224 943c 1ea9 57be 0aec 27be 2d57 313d
000003a0: 664a 75bd 736f 00bd 55a3 093d db72 50bd
000003b0: 275e f8bc 6326 4fbe 7bb0 f33d 3f06 0bbd
000003c0: 9ea9 ab3c a05d ea3c 3e6f d23d 47f6 493e
000003d0: f5de 853e 494d ab3d 0da7 973c 1e08 803d
000003e0: 6f71 4c3e 3e02 bc3d 835c e0bb e92f 5c3e
000003f0: 0100 56bd 0821 30be 4a7f 5b3e d660 dc3d

linears.4.bias f4 [50]
1.45327 0.8141641 0.434091 0.54383165 0.20949501 -0.040182836 -2.3779385 -0.055910923
-1.3722557 0.8514365 0.7828556 -1.0678736 -1.4650358 -0.868565 0.14944282 1.6792524
0.038421225 2.7232387 -0.4207391 -0.51450366 -1.522855 0.25583914 -2.0200567 -3.621061
0.99363023 -1.2911654 -1.1113889 1.0372248 -1.5384102 1.7862545 -1.3324468 1.6823664
-0.6443549 -2.5417063 -1.783132 1.0067105 1.207075 -1.358864 0.80621743 1.3530091
1.4003276 -0.35261574 1.4424788 -0.43921244 0.5320526 0.7920103 1.8796672 -1.9571114
-1.1670085 1.0467633
00000000: c004 ba3f 0f6d 503f 2d41 de3e 8d38 0b3f
00000010: dc85 563e c296 24bd 2530 18c0 da02 65bd
00000020: 13a6 afbf bef7 593f 3969 483f 15b0 88bf
00000030: 4b86 bbbf 475a 5ebf 8a07 193e bef1 d63f
00000040: 935f 1d3d 8b49 2e40 1e6b d7be 83b6 03bf
00000050: eaec c2bf 59fd 823e 9c48 01c0 77bf 67c0
00000060: 8d5e 7e3f e844 a5bf fe41 8ebf c8c3 843f
00000070: a0ea c4bf fda3 e43f 9e8d aabf c857 d73f
00000080: 71f4 24bf 51ab 22c0 ab3d e4bf e4db 803f
00000090: 6f81 9a3f 41ef adbf 4464 4e3f 672f ad3f
000000a0: ef3d b33f 0d8a b4be 25a3 b83f 74e0 e0be
000000b0: 9934 083f 30c1 4a3f ef98 f03f a082 fabf
000000c0: 8960 95bf 57fc 853f

linears.5.weight f4 [50, 50]
-0.049356908 0.22884585 -0.025879886 0.13364965 0.048976187 -0.25826925 0.07922678 0.15571994
0.107495606 0.05409369 0.18524273 -0.16362688 -0.061087713 -0.18739764 -0.008831902 -0.27931234
0.026076939 0.48956382 0.13220698 0.069916174 -0.00042946218 0.022272207 -0.3740195 -0.083376594
0.12841983 0.026219314 0.100986734 0.10115003 -0.12933157 0.12109339 -0.09402091 0.010476364
-0.028613513 -0.11231166 0.07744877 0.15072967 0.06250839 -0.18590936 -0.03979175 -0.11453548
0.13136593 0.12627009 0.027965603 -0.049284615 -0.0045837434 0.32316455 0.13188449 0.06513229
-0.100237355 -0.0061795386 0.34289175 0.11654388 -0.21810897 0.4837593 0.025350703 -0.071265176
-0.004693329 0.026081502 0.014445958 -0.13663898 0.21465401 0.17412882 -0.07940261 0.123048365
0.02051478 0.027566459 -0.18006927 0.09558029 0.00048800424 -0.09460529 0.14368343 -0.112334564
-0.11032727 0.20559266 -0.056213923 -0.12877665 0.11210721 0.16368952 -0.09201939 -0.22892685
0.14415632 -0.056990698 0.006774315 -0.011695523 -0.016131762 -0.021344058 -0.07585555 0.061752684
0.065212294 -0.32918638 -0.14360066 -0.43295923 0.11241114 -0.22317414 0.030009253 -0.06991108
0.04706736 0.017923892 0.078282155 -0.20650601 0.08564 -0.076243 0.16200098 -0.13580829
-0.23212297 -0.024490584 -0.27662194 -0.10003093 0.11813322 0.054205798 0.04674172 -0.046366546
0.0034629535 -0.115363374 -0.19362736 -0.16376105 0.07383272 -0.0674359 0.12691864 0.026466608
-0.1250328 0.22725256 -0.1402803 0.14362106 0.21996205 -0.14126953 0.058959175 -0.035427187
0.21971567 -0.13696885 -0.18134534 -0.13736494 -0.14217125 0.019618087 0.11977619 -0.14946973
-0.05159989 -0.25312436 -0.06112742 -0.03976682 -0.07724167 0.028861798 0.04383651 0.08621311
0.088019006 0.20249416 0.053667277 0.12149687 -0.11242671 0.06930336 -0.15339762 -0.1746632
0.07246284 0.14577973 0.0070073004 -0.13190442 -0.11086353 0.00444182 -0.10530935 -0.014595967
0.1992902 0.0784689 0.17997965 0.17061229 -0.14747028 -0.11011044 0.22767612 -0.13382271
0.27608776 -0.17686096 0.03822484 0.08381844 -0.118288286 0.08251597 0.19603153 0.13740431
-0.030792093 0.09500844 0.13359429 0.02054897 -0.30243143 -0.26590478 0.024679024 -0.16880444
-0.112990804 -0.1333694 -0.07226859 0.0778362 -0.2172375 -0.14418654 -0.0989117 -0.16918418
-0.12502265 0.1518079 0.1345005 0.0929734 -0.094774455 -0.11137931 -0.19390649 0.05565791
-0.033353765 0.2085369 0.25708196 0.06851339 -0.06126011 0.08143944 0.054363947 0.061029594
0.16681829 -0.17631093 -0.18365417 0.068140335 -0.08559096 -0.18303566 0.08411258 -0.03653238
0.013791907 0.2759141 0.08599343 -0.25714698 0.23116338 -0.015352591 -0.1998293 -0.056432016
-0.13448112 0.15616441 -0.07321745 0.17316754 -0.060349256 -0.048173234 0.11117046 0.0152856475
-0.072193444 -0.23953484 0.019966746 -0.14872679 -0.18771578 0.30301154 0.104007915 -0.11389031
0.018214721 -0.060639035 0.14034578 -0.17832614 -0.1554918 -0.080680616 0.040637344 -0.23598805
-0.0117832925 -0.02989833 -0.117178045 -0.018210744 -0.10226993 0.030202426 -0.098342694 -0.12695974
00000000: 782a 4abd 9156 6a3e 0e02 d4bc 74db 083e
00000010: 419b 483d de3b 84be a641 a23d 0c75 1f3e
00000020: a826 dc3d 5891 5d3d 45b0 3d3e ce8d 27be
00000030: 1c37 7abd 2be5 3fbe afb3 10bc 0702 8fbe
00000040: 4e9f d53c 1ca8 fa3e 4461 073e 3630 8f3d
00000050: 7029 e1b9 3474 b63c 7c7f bfbe 59c1 aabd
00000060: 7d80 033e e3c9 d63c 22d2 ce3d bf27 cf3d
00000070: 7f6f 04be d0ff f73d 098e c0bd 0ea5 2b3c
00000080: e366 eabc a803 e6bd 769d 9e3d e158 1a3e
00000090: 6604 803d 065f 3ebe adfc 22bd 9491 eabd
000000a0: ca84 063e f24c 013e 1f18 e53c aade 49bd
000000b0: 3a33 96bb d375 a53e ba0c 073e 1464 853d
000000c0: 3e49 cdbd ba7d cabb 828f af3e 8fae ee3d
000000d0: f557 5fbe 4daf f73e 47ac cf3c 7af3 91bd
000000e0: 7fca 99bb e0a8 d53c bdae 6c3c 17eb 0bbe
000000f0: 43ce 5b3e d34e 323e d69d a2bd c800 fc3d
00000100: 9d0e a83c 0ed3 e13c 1464 38be 99bf c33d
00000110: d2da ff39 6bc0 c1bd c021 133e aa0f e6bd
00000120: 44f3 e1bd e286 523e 9240 66bd 07de 03be
00000130: 7798 e53d 3a9e 273e a974 bcbd cd6b 6abe
00000140: b79d 133e 146f 69bd 13fb dd3b 949e 3fbc
00000150: c226 84bc bcd9 aebc 285a 9bbd 62f0 7c3d
00000160: 068e 853d 1e8b a8be 0d0c 13be d5ac ddbe
00000170: d037 e63d c387 64be f7d5 f53c 8a2d 8fbd
00000180: b4c9 403d 20d5 923c 6552 a03d 5076 53be
00000190: 0664 af3d 4a25 9cbd 96e3 253e 5411 0bbe
000001a0: a5b1 6dbe 7aa0 c8bc 64a1 8dbe 04dd ccbd
000001b0: d4ef f13d e606 5e3d 3f74 3f3d d9ea 3dbd
000001c0: b8f2 623b a243 ecbd 4046 46be fab0 27be
000001d0: 9c35 973d d51b 8abd f6f6 013e 80d0 d83c
000001e0: 9908 00be e5b4 683e a4a5 0fbe 6611 133e
000001f0: bb3d 613e f6a8 10be 2d7f 713d 191c 11bd
00000200: 25fd 603e 9041 0cbe 98b2 39be 65a9 0cbe
00000210: 5795 11be 1cb6 a03c 384d f53d 980e 19be
00000220: 685a 53bd 8499 81be bf60 7abd 88e2 22bd
00000230: e130 9ebd 946f ec3c ea8d 333d 8090 b03d
00000240: 4f43 b43d a15a 4f3e 38d2 5b3d 5ad3 f83d
00000250: fa3f e6bd ecee 8d3d 4414 1dbe e9da 32be
00000260: 6667 943d 4847 153e 7f9d e53b f411 07be
00000270: 6b0c e3bd b08c 913b 6eac d7bd ec23 6fbc
00000280: bb12 4c3e 4db4 a03d 964c 383e fdb4 2e3e
00000290: 7302 17be 9581 e1bd ee23 693e d208 09be
000002a0: 605b 8d3e 0a1b 35be a691 1c3d 01a9 ab3d
000002b0: 2141 f2bd 22fe a83d 7dbc 483e b7b3 0c3e
000002c0: b33f fcbc c993 c23d f1cc 083e 5056 a83c
000002d0: 4bd8 9abe ac24 88be aa2b ca3c 12db 2cbe
000002e0: b967 e7bd fd91 08be 8e01 94bd 9668 9f3d
000002f0: 8273 5ebe a3a5 13be 3892 cabd 9e3e 2dbe
00000300: f005 00be 8873 1b3e 80ba 093e d768 be3d
00000310: 1c19 c2bd d61a e4bd 6c8f 46be 8cf9 633d
00000320: f59d 08bd b28a 553e 3fa0 833e c050 8c3d
00000330: e2eb 7abd b9c9 a63d bbac 5e3d 2bfa 793d
00000340: 6ad2 2a3e da8a 34be d70f 3cbe 298d 8b3d
00000350: 504a afbd b36d 3bbe 3743 ac3d faa2 15bd
00000360: 73f7 613c 9d44 8d3e 531d b03d c5a8 83be
00000370: 18b6 6c3e 6f89 7bbc 0da0 4cbe 4225 67bd
00000380: 6bb5 09be 90e9 1f3e 08f3 95bd d552 313e
00000390: c830 77bd 4c51 45bd 57ad e33d a770 7a3c
000003a0: 28da 93bd 9f48 75be 4d91 a33c d64b 18be
000003b0: 9138 40be 5424 9b3e 1a02 d53d 533f e9bd
000003c0: 0a37 953c a360 78bd ceb6 0f3e 219b 36be
000003d0: 3e39 1fbe e13b a5bd 5873 263d daa6 71be
000003e0: b60e 41bc 58ed f4bc 0bfb efbd b32e 95bc
000003f0: e672 d1bd 146b f73c e567 c9bd bc01 02be

linears.5.bias f4 [50]
2.1776025 -0.049731586 0.7343668 -1.539376 0.62992793 1.1380922 -2.3737605 0.8120502
-1.2373526 2.6651556 -0.062670425 1.0961994 0.4761026 -0.20523319 -0.6279954 -1.4052985
-0.15553218 1.2346579 0.25072238 -2.76628 -1.0220389 0.87911296 0.9631943 -0.7321355
-1.1348201 0.5338346 1.1383452 -1.7328763 -1.0036947 -3.3662636 1.2931353 1.7378885
-0.28136146 -1.3806431 -2.31462 0.13483149 -0.72587085 1.1524845 1.4037846 -1.0669582
0.7776753 1.5890726 1.8833941 2.8177676 1.235045 2.4439511 -0.16864811 1.2579107
-0.63986796 1.2805033
00000000: d75d 0b40 59b3 4bbd 76ff 3b3f 460a c5bf
00000010: f542 213f 01ad 913f b1eb 17c0 86e2 4f3f
00000020: 9261 9ebf e991 2a40 5a59 80bd 4350 8c3f
00000030: b8c3 f33e a628 52be 4ec4 20bf d2e0 b3bf
00000040: d443 1fbe 4509 9e3f af5e 803e bb0a 31c0
00000050: 2cd2 82bf 8c0d 613f e793 763f 3b6d 3bbf
00000060: c941 91bf 62a9 083f 4cb5 913f e4ce ddbf
00000070: 1179 80bf dd70 57c0 7585 a53f 2173 de3f
00000080: 9c0e 90be eab8 b0bf bc22 14c0 4411 0a3e
00000090: acd2 39bf 9d84 933f 37af b33f 1692 88bf
000000a0: ba15 473f bb66 cb3f 0f13 f13f 4e56 3440
000000b0: f415 9e3f b269 1c40 17b2 2cbe 3803 a13f
000000c0: 63ce 23bf 88e7 a33f

linears.6.weight f4 [50, 50]
-0.023698485 -0.12585185 -0.00093658397 -0.12023499 -0.013937139 -0.04324787 0.032032024 0.07382907
-0.09113187 -0.12058976 -0.09232788 -0.106851935 0.12809142 0.16423972 -0.044502866 0.053826433
-0.2082567 -0.24533606 0.0879598 -0.017561574 -0.0144616105 -0.11524518 0.12215886 0.059579093
0.09913776 -0.22798625 -0.1978019 0.025518114 -0.17295669 0.09905419 0.13989682 -0.06571778
-0.061506096 0.2622431 -0.2242544 0.22031668 -0.023957534 -0.079019666 0.09707217 -0.19890076
0.15664567 0.002170965 -0.20569076 0.19501582 -0.08551449 -0.11539214 -0.1877641 0.063550144
0.05266649 -0.010783139 0.09256149 0.06863853 0.03354175 -0.06737418 -0.16112667 0.028213175
0.057801325 0.0068799816 0.22427471 0.038011856 -0.06908367 -0.16538033 0.12474586 0.17063813
-0.060741123 -0.061184023 0.0056160833 -0.16984238 0.002907368 0.20857583 0.00084994256 -0.034515996
0.15762696 -0.10327146 0.25462073 -0.10003983 0.06084744 -0.08803956 -0.044583067 0.026984256
-0.064265534 -0.10125033 -0.18022431 -0.08882782 -0.11928531 0.001446982 -0.11786198 -0.051017657
0.25327256 0.02302734 -0.0041378513 0.057666402 -0.02035578 0.24365665 0.07391206 0.27019027
0.040778033 0.05542158 0.1611078 0.09725934 -0.16455357 0.13806392 -0.031854235 -0.23565128
-0.29195032 -0.050457504 0.38098702 0.049271256 0.10273681 -0.0683423 0.19317542 0.18286766
-0.43902308 0.05501486 -0.009689639 0.26268926 -0.11305745 -0.055257525 0.09316785 -0.111543305
0.10360325 0.33703652 0.113228254 0.04979 0.13097851 -0.17185335 0.11279919 0.018617243
-0.056344267 0.0059323935 0.12094146 0.20936899 -0.15060607 0.16964951 0.22057942 0.013042018
-0.14639705 -0.13678525 0.01653738 0.13468142 0.21393168 0.10050046 0.10554828 0.3457338
0.22303809 -0.22897778 -0.15702471 0.05676869 0.12171351 -0.06710767 0.2057814 -0.14448121
0.34919295 -0.14200684 -0.07867344 0.23017101 0.025361743 0.08903584 -0.030351555 -0.035078745
0.023128275 0.030529046 0.118969366 0.20215586 -0.028860644 -0.11456265 0.16694029 0.09000644
0.10547671 -0.13665242 -0.16732292 -0.0018443381 0.19188835 -0.03996422 0.05543952 0.061990973
-0.1925855 0.060263444 -0.11216205 -0.14023654 0.10301861 -0.10640466 0.2230991 -0.050858304
-0.15353297 -0.10495362 0.05831962 0.070546314 0.13743567 -0.38461617 0.18582524 0.10882166
-0.161771 0.107725315 0.21042362 -0.015999466 -0.10876235 0.12168731 -0.12168313 0.18456687
-0.0025861515 -0.013914341 -0.07076171 -0.10221571 -0.07144609 0.090414114 0.007121977 0.10036325
-0.113789834 -0.0004436082 -0.25657022 0.00034740262 0.062555246 0.20374924 0.12927069 0.05023161
-0.18420583 -0.13354038 -0.05121101 -0.16533975 -0.0224186 0.06354151 0.18192364 -0.083644874
0.15220916 0.044204604 -0.106430955 -0.029563257 -0.12635556 -0.26768747 -0.25995654 0.03560839
0.004082862 0.10546565 0.09812609 0.26529565 -0.05736279 0.067439966 0.18041973 -0.03711435
-0.075818904 0.10631398 0.2367244 0.032852143 0.06434599 0.2519299 0.17295519 -0.2157944
-0.17044976 0.16294247 -0.27393448 -0.025817778 -0.07258828 -0.14579177 0.20637947 0.037785824
00000000: 5323 c2bc 4fdf 00be 1685 75ba c33d f6bd
00000010: 9958 64bc ae24 31bd 0334 033d b233 973d
00000020: 59a3 babd c4f7 f6bd 6616 bdbd 30d5 dabd
00000030: 662a 033e 752e 283e a348 36bd 1b79 5c3d
00000040: 3f41 55be 6039 7bbe 4524 b43d 4add 8fbc
00000050: 64f0 6cbc aa05 ecbd 6d2e fa3d 3509 743d
00000060: bd08 cb3d 3a75 69be 958c 4abe 5d0b d13c
00000070: 8f1b 31be ecdc ca3d 1d41 0f3e 0b97 86bd
00000080: d1ed 7bbd ba44 863e f2a2 65be b29a 613e
00000090: 9742 c4bc 10d5 a1bd c6cd c63d a4ac 4bbe
000000a0: b967 203e c046 0e3b 99a0 52be 3ab2 473e
000000b0: 3922 afbd b752 ecbd 3b45 40be 9426 823d
000000c0: d1b8 573d c3ab 30bc e190 bd3d 5c92 8c3d
000000d0: 1363 093d 79fb 89bd 64fe 24be 511f e73c
000000e0: 15c1 6c3d 7871 e13b 45a8 653e 52b2 1b3d
000000f0: bd7b 8dbd 7659 29be c27a ff3d c3bb 2e3e
00000100: afcb 78bd 199c 7abd 1f07 b83b 29eb 2dbe
00000110: 8a89 3e3b e794 553e aece 5e3a a560 0dbd
00000120: f668 213e fd7f d3bd a65d 823e afe1 ccbd
00000130: 2a3b 793d 164e b4bd bc9c 36bd 160e dd3c
00000140: a69d 83bd 555c cfbd b98c 38be 5ceb b5bd
00000150: db4b f4bd a9a8 bd3a 9f61 f1bd e4f7 50bd
00000160: f1ac 813e d5a3 bc3c d096 87bb 9b33 6c3d
00000170: 2ac1 a6bc 2181 793e 355f 973d 6156 8a3e
00000180: de06 273d bd01 633d 71f9 243e e82f c73d
00000190: bb80 28be a160 0d3e 9679 02bd 924e 71be
000001a0: 837a 95be 87ac 4ebd bb10 c33e a8d0 493d
000001b0: ad67 d23d 0cf7 8bbd c7cf 453e a941 3b3e
000001c0: a2c7 e0be 4357 613d 4bc1 1ebc 357f 863e
000001d0: aa8a e7bd b755 62bd c9ce be3d d170 e4bd
000001e0: f12d d43d 0d90 ac3e 37e4 e73d 99f0 4b3d
000001f0: 3b1f 063e 53fa 2fbe 4303 e73d 3083 983c
00000200: 3fc9 66bd 8664 c23b 28b0 f73d d364 563e
00000210: 7a38 1abe 9ab8 2d3e 92df 613e 30ae 553c
00000220: 1ce9 15be 6f11 0cbe 6679 873c ede9 093e
00000230: e810 5b3e 2fd3 cd3d b229 d83d 0504 b13e
00000240: 1964 643e 2779 6abe 16cb 20be 4986 683d
00000250: ef44 f93d bf6f 89bd 5cb8 523e e2f2 13be
00000260: 6bc9 b23e 3e6a 11be 8a1f a1bd f3b1 6b3e
00000270: 6ec3 cf3c 6c58 b63d d3a3 f8bc bbae 0fbd
00000280: 8277 bd3c 0d18 fa3c 36a6 f33d f201 4f3e
00000290: 286d ecbc d39f eabd 65f2 2a3e 4c55 b83d
000002a0: 2c04 d83d 9dee 0bbe b356 2bbe b8bd f1ba
000002b0: 617e 443e 86b1 23bd 8d14 633d 3fea 7d3d
000002c0: 2235 45be cdd6 763d 38b5 e5bd 2b9a 0fbe
000002d0: 6cfb d23d b0ea d9bd 1774 643e cc50 50bd
000002e0: bf37 1dbe ecf1 d6bd 8ee0 6e3d 967a 903d
000002f0: f0bb 0c3e 69ec c4be f948 3e3e e4dd de3d
00000300: 4ca7 25be 179f dc3d 4a79 573e 5011 83bc
00000310: ccbe debd 3237 f93d 0135 f9bd 19ff 3c3e
00000320: 6c7c 29bb faf8 63bc 84eb 90bd 7856 d1bd
00000330: 5452 92bd 092b b93d 795f e93b 3f8b cd3d
00000340: a50a e9bd 1694 e8b9 2c5d 83be 9723 b639
00000350: f71c 803d a4a3 503e 895f 043e a9bf 4d3d
00000360: 74a0 3cbe cfbe 08be a3c2 51bd d34e 29be
00000370: 36a7 b7bc 0d22 823d 314a 3a3e 014e abbd
00000380: b8dc 1b3e e30f 353d 79f8 d9bd a52e f2bc
00000390: 5a63 01be 550e 89be 0619 85be 1ada 113d
000003a0: 87c9 853b 60fe d73d 55f6 c83d d5d4 873e
000003b0: 3ff5 6abd f71d 8a3d f3bf 383e 3705 18bd
000003c0: f146 9bbd 25bb d93d e267 723e f88f 063d
000003d0: d5c7 833d f5fc 803e 2a1b 313e 35f9 5cbe
000003e0: 628a 2ebe 64da 263e 2441 8cbe ce7f d3bc
000003f0: 2aa9 94bd 704a 15be 2455 533e 4fc5 1a3d
