Archived Code/Stan TPAMI/1D/FODE/swish_tune/1D_FODE_swish_tune0_6.pt (torch, 90406 bytes, 20 tensors)

beta f4 [50, 9]
1.0 1.0 1.0 1.0 1.0 1.0 1.0 1.0
1.0 1.0 1.0 1.0 1.0 1.0 1.0 1.0
1.0 1.0 1.0 1.0 1.0 1.0 1.0 1.0
1.0 1.0 1.0 1.0 1.0 1.0 1.0 1.0
1.0 1.0 1.0 1.0 1.0 1.0 1.0 1.0
1.0 1.0 1.0 1.0 1.0 1.0 1.0 1.0
1.0 1.0 1.0 1.0 1.0 1.0 1.0 1.0
1.0 1.0 1.0 1.0 1.0 1.0 1.0 1.0
1.0 1.0 1.0 1.0 1.0 1.0 1.0 1.0
1.0 1.0 1.0 1.0 1.0 1.0 1.0 1.0
1.0 1.0 1.0 1.0 1.0 1.0 1.0 1.0
1.0 1.0 1.0 1.0 1.0 1.0 1.0 1.0
1.0 1.0 1.0 1.0 1.0 1.0 1.0 1.0
1.0 1.0 1.0 1.0 1.0 1.0 1.0 1.0
1.0 1.0 1.0 1.0 1.0 1.0 1.0 1.0
1.0 1.0 1.0 1.0 1.0 1.0 1.0 1.0
1.0 1.0 1.0 1.0 1.0 1.0 1.0 1.0
1.0 1.0 1.0 1.0 1.0 1.0 1.0 1.0
1.0 1.0 1.0 1.0 1.0 1.0 1.0 1.0
1.0 1.0 1.0 1.0 1.0 1.0 1.0 1.0
1.0 1.0 1.0 1.0 1.0 1.0 1.0 1.0
1.0 1.0 1.0 1.0 1.0 1.0 1.0 1.0
1.0 1.0 1.0 1.0 1.0 1.0 1.0 1.0
1.0 1.0 1.0 1.0 1.0 1.0 1.0 1.0
1.0 1.0 1.0 1.0 1.0 1.0 1.0 1.0
1.0 1.0 1.0 1.0 1.0 1.0 1.0 1.0
1.0 1.0 1.0 1.0 1.0 1.0 1.0 1.0
1.0 1.0 1.0 1.0 1.0 1.0 1.0 1.0
1.0 1.0 1.0 1.0 1.0 1.0 1.0 1.0
1.0 1.0 1.0 1.0 1.0 1.0 1.0 1.0
1.0 1.0 1.0 1.0 1.0 1.0 1.0 1.0
1.0 1.0 1.0 1.0 1.0 1.0 1.0 1.0
00000000: 0000 803f 0000 803f 0000 803f 0000 803f
00000010: 0000 803f 0000 803f 0000 803f 0000 803f
00000020: 0000 803f 0000 803f 0000 803f 0000 803f
00000030: 0000 803f 0000 803f 0000 803f 0000 803f
00000040: 0000 803f 0000 803f 0000 803f 0000 803f
00000050: 0000 803f 0000 803f 0000 803f 0000 803f
00000060: 0000 803f 0000 803f 0000 803f 0000 803f
00000070: 0000 803f 0000 803f 0000 803f 0000 803f
00000080: 0000 803f 0000 803f 0000 803f 0000 803f
00000090: 0000 803f 0000 803f 0000 803f 0000 803f
000000a0: 0000 803f 0000 803f 0000 803f 0000 803f
000000b0: 0000 803f 0000 803f 0000 803f 0000 803f
000000c0: 0000 803f 0000 803f 0000 803f 0000 803f
000000d0: 0000 803f 0000 803f 0000 803f 0000 803f
000000e0: 0000 803f 0000 803f 0000 803f 0000 803f
000000f0: 0000 803f 0000 803f 0000 803f 0000 803f
00000100: 0000 803f 0000 803f 0000 803f 0000 803f
00000110: 0000 803f 0000 803f 0000 803f 0000 803f
00000120: 0000 803f 0000 803f 0000 803f 0000 803f
00000130: 0000 803f 0000 803f 0000 803f 0000 803f
00000140: 0000 803f 0000 803f 0000 803f 0000 803f
00000150: 0000 803f 0000 803f 0000 803f 0000 803f
00000160: 0000 803f 0000 803f 0000 803f 0000 803f
00000170: 0000 803f 0000 803f 0000 803f 0000 803f
00000180: 0000 803f 0000 803f 0000 803f 0000 803f
00000190: 0000 803f 0000 803f 0000 803f 0000 803f
000001a0: 0000 803f 0000 803f 0000 803f 0000 803f
000001b0: 0000 803f 0000 803f 0000 803f 0000 803f
000001c0: 0000 803f 0000 803f 0000 803f 0000 803f
000001d0: 0000 803f 0000 803f 0000 803f 0000 803f
000001e0: 0000 803f 0000 803f 0000 803f 0000 803f
000001f0: 0000 803f 0000 803f 0000 803f 0000 803f
00000200: 0000 803f 0000 803f 0000 803f 0000 803f
00000210: 0000 803f 0000 803f 0000 803f 0000 803f
00000220: 0000 803f 0000 803f 0000 803f 0000 803f
00000230: 0000 803f 0000 803f 0000 803f 0000 803f
00000240: 0000 803f 0000 803f 0000 803f 0000 803f
00000250: 0000 803f 0000 803f 0000 803f 0000 803f
00000260: 0000 803f 0000 803f 0000 803f 0000 803f
00000270: 0000 803f 0000 803f 0000 803f 0000 803f
00000280: 0000 803f 0000 803f 0000 803f 0000 803f
00000290: 0000 803f 0000 803f 0000 803f 0000 803f
000002a0: 0000 803f 0000 803f 0000 803f 0000 803f
000002b0: 0000 803f 0000 803f 0000 803f 0000 803f
000002c0: 0000 803f 0000 803f 0000 803f 0000 803f
000002d0: 0000 803f 0000 803f 0000 803f 0000 803f
000002e0: 0000 803f 0000 803f 0000 803f 0000 803f
000002f0: 0000 803f 0000 803f 0000 803f 0000 803f
00000300: 0000 803f 0000 803f 0000 803f 0000 803f
00000310: 0000 803f 0000 803f 0000 803f 0000 803f
00000320: 0000 803f 0000 803f 0000 803f 0000 803f
00000330: 0000 803f 0000 803f 0000 803f 0000 803f
00000340: 0000 803f 0000 803f 0000 803f 0000 803f
00000350: 0000 803f 0000 803f 0000 803f 0000 803f
00000360: 0000 803f 0000 803f 0000 803f 0000 803f
00000370: 0000 803f 0000 803f 0000 803f 0000 803f
00000380: 0000 803f 0000 803f 0000 803f 0000 803f
00000390: 0000 803f 0000 803f 0000 803f 0000 803f
000003a0: 0000 803f 0000 803f 0000 803f 0000 803f
000003b0: 0000 803f 0000 803f 0000 803f 0000 803f
000003c0: 0000 803f 0000 803f 0000 803f 0000 803f
000003d0: 0000 803f 0000 803f 0000 803f 0000 803f
000003e0: 0000 803f 0000 803f 0000 803f 0000 803f
000003f0: 0000 803f 0000 803f 0000 803f 0000 803f

linears.0.weight f4 [50, 1]
0.010750935 -0.54130566 0.20344651 0.11701639 -0.043897253 0.20328261 0.36494613 0.2044574
0.10297246 0.01242992 0.07110263 0.066093385 -0.2078004 0.102753974 0.053989988 0.24912553
0.12695456 0.13067074 -0.03627632 -0.2783827 0.084968805 0.0782184 -0.035494994 -0.24891372
-0.22832726 -0.037008435 -0.20502429 -0.113901176 -0.07764859 -0.20023562 -0.14870101 0.010338401
-0.019962966 -0.005474356 0.11636815 -0.06739066 -0.008771698 0.11879527 0.4064881 0.0010392166
0.221744 0.090357974 0.10710348 -0.030807108 0.027894331 -0.15849604 -0.118152335 0.08654007
-0.014923039 0.3146598
00000000: b124 303c 0293 0abf 4854 503e 4aa6 ef3d
00000010: 9bcd 33bd 5129 503e 38da ba3e 485d 513e
00000020: 3ae3 d23d dda6 4b3c 419e 913d f85b 873d
00000030: a1c9 54be ad70 d23d 9b24 5d3d c31a 7f3e
00000040: 6000 023e 8dce 053e 7b96 14bd 2d88 8ebe
00000050: 2004 ae3d f830 a03d 3363 11bd 3de3 7ebe
00000060: 9fce 69be 2896 17bd e3f1 51be 0545 e9bd
00000070: 3906 9fbd 910a 4dbe 1445 18be 6662 293c
00000080: 6089 a3bc 3a62 b3bb 6d52 ee3d 1d04 8abd
00000090: 2bb7 0fbc ef4a f33d 351f d03e 5336 883a
000000a0: dc10 633e 9a0d b93d 1259 db3d 305f fcbc
000000b0: a782 e43c c94c 22be daf9 f1bd ec3b b13d
000000c0: c37f 74bc 171b a13e

linears.0.bias f4 [50]
5.5333476e-08 4.6785687e-12 -8.6888214e-08 1.3298231e-08 -1.5409267e-08 -8.0299166e-08 -5.5911386e-08 3.265422e-08
-5.918663e-08 -1.3116981e-08 8.32837e-09 1.5186236e-08 -1.03789914e-10 -2.3392914e-08 2.0985274e-08 -3.5553573e-08
-2.5171374e-08 6.164879e-08 -1.1343033e-09 -3.1521214e-08 3.6356393e-08 -3.3144456e-08 -1.3278345e-08 -3.236733e-08
1.7381575e-08 2.4754192e-08 1.7273072e-08 8.445674e-09 -9.540003e-09 4.1376644e-10 2.8434599e-08 -1.5282522e-08
-3.148429e-08 -2.128766e-08 -4.1480405e-08 -1.5289645e-08 1.6060337e-08 -2.2834532e-09 4.5519364e-08 2.0812335e-08
-5.962105e-08 -1.7477468e-09 -9.915797e-09 1.0502466e-08 7.0839774e-09 -1.6789121e-08 2.9005989e-09 -4.8089586e-08
1.3048857e-08 -1.2449674e-07
00000000: cda7 6d33 cd9c a42c 4d97 bab3 3d76 6432
00000010: 565d 84b2 ef70 acb3 3823 70b3 b23f 0c33
00000020: 6334 7eb3 1859 61b2 8f14 0f32 e372 8232
00000030: 873c e4ae 90f1 c8b2 1b43 b432 91b3 18b3
00000040: 7038 d8b2 c863 8433 c0e5 9bb0 f161 07b3
00000050: 4726 1c33 b75a 0eb3 c71e 64b2 4104 0bb3
00000060: 7d4e 9532 0ba3 d432 e35f 9432 7818 1132
00000070: 60e5 23b2 7378 e32f 5840 f432 9f46 83b2
00000080: 5839 07b3 0fdc b6b2 3028 32b3 4956 83b2
00000090: 0ef5 8932 efea 1cb1 1281 4333 cfc6 b232
000000a0: 0509 80b3 6035 f0b0 235a 2ab2 556e 3432
000000b0: 5367 f331 ab37 90b2 e053 4731 0f8b 4eb3
000000c0: 7b2d 6032 67ad 05b4

linears.1.weight f4 [50, 50]
-0.33939058 0.05586036 0.046887998 0.10034292 -0.122528255 0.076469876 -0.17248382 0.0037446318
-0.012266945 -0.029776314 -0.08454084 -0.034312915 0.09909851 -0.111167856 0.0062162206 0.06839325
0.07618951 -0.006554452 -0.16003063 -0.0120986635 -0.096804716 -0.15815096 -0.057931982 -0.05833137
0.04827073 -0.024386384 -0.16666625 0.068749495 -0.099299386 -0.28362012 -0.017184578 -0.25222322
0.06129205 0.030309217 -0.13419315 -0.2708325 -0.11009047 0.012906811 0.12215282 -0.08744874
0.15248813 -0.154315 0.12525038 0.3181195 0.02586587 0.12617598 -0.039139014 -0.015571098
0.045409355 0.047230776 -0.27837762 0.037513297 -0.04995082 0.008236881 0.017370548 0.0039417287
0.22334598 0.11814836 0.077028066 0.11357725 -0.2073932 -0.28369203 0.0639786 -0.03915154
-0.098547846 0.31936857 -0.010948556 0.11190425 0.053164855 -0.07974494 -0.21590589 0.05437652
-0.035429057 -0.2129053 0.11505802 0.06786211 -0.15217556 0.07106033 -0.2680596 0.112675175
-0.28105977 -0.154161 -0.054867174 -0.02325056 0.08089918 -0.16321385 -0.26956236 0.028912826
-0.14702135 0.11697856 0.070497476 0.08508028 0.12583618 0.0061042337 0.21335089 0.10558283
0.16762054 -0.13049859 -0.15630078 -0.20267215 -0.02965206 0.05701807 -0.06333106 -0.17984737
-0.31560436 -0.10482053 -0.050248865 -0.036675747 -0.28500706 -0.14342768 0.016582213 0.12934521
0.010759102 0.19872086 -0.10976175 -0.12652256 -0.058114678 -0.007639779 0.0031107524 0.1978942
0.13796595 -0.048638187 -0.25715983 -0.114008926 0.066968955 0.07829157 0.100523025 -0.04624527
-0.08382068 -0.3324641 0.130477 -9.298721e-05 0.14011246 -0.16206571 0.040363915 0.029035455
-0.37852946 -0.18618245 0.0692441 -0.23050615 0.061525837 0.23807493 -0.0628913 0.14313544
0.0037906722 0.048915207 0.045729704 0.086153165 -0.2225687 0.060390417 0.060892265 0.17646006
0.32459036 0.066829994 0.04270943 0.10030735 0.047254805 -0.12786095 0.1510639 -0.053663958
0.023758136 -0.15528266 -0.18648787 0.017325971 0.20441684 0.31700173 -0.085015655 -0.23711069
-0.09180545 0.047657836 -0.007084756 0.021053227 -0.03706596 0.08750391 0.36881512 -0.2972798
0.11005546 0.028745199 -0.14209798 -0.24903396 -0.018754935 -0.0014234536 -0.0071672043 -0.1258896
-0.11804878 -0.077605434 -0.18334113 0.047014568 -0.02206024 0.036557462 0.21991047 -0.16623664
0.18601415 0.07706895 0.017872546 -0.13423152 0.09541841 -0.17233127 -0.2706373 0.1701444
0.10616255 0.119014576 0.11359065 0.084803894 -0.1548719 0.11382379 0.31393346 -0.19579507
-0.07926769 -0.13020222 0.03913016 -0.15418524 0.271159 0.10722187 -0.0024095078 -0.41357476
0.08155068 -0.15879521 0.0635212 -0.05646128 -0.14829043 -0.10446683 0.13466595 -0.41204405
-0.15242308 -0.17094316 0.11400292 -0.11495943 0.1674524 -0.12170681 0.14856887 0.10464244
-0.16311555 -0.1897508 0.09329225 -0.387965 -0.03484512 0.08199933 0.08117889 -0.16079205
0.116055876 -0.07134841 0.0018084517 -0.012344766 0.011670704 0.0882379 -0.1401543 -0.04271915
0.3158635 0.03420965 0.13117188 -0.1608645 0.00053255085 0.031004624 -0.04148778 -0.18583475
00000000: 9ac4 adbe d5cd 643d a10d 403d 9780 cd3d
00000010: 18f0 fabd 3d9c 9c3d 999f 30be 7f68 753b
00000020: 4cfb 48bc 75ed f3bc bf23 adbd b38b 0cbd
00000030: 29f4 ca3d f9ab e3bd 70b1 cb3b c311 8c3d
00000040: 3f09 9c3d bac6 d6bb 12df 23be 7939 46bc
00000050: 8d41 c6bd 53f2 21be 164a 6dbd e0ec 6ebd
00000060: 87b7 453d f4c5 c7bc 8faa 2abe 89cc 8c3d
00000070: 7a5d cbbd a836 91be acc6 8cbc 6723 81be
00000080: 5f0d 7b3d 094b f83c ee69 09be 8faa 8abe
00000090: 1d77 e1bd 1777 533c 422b fa3d 5318 b3bd
000000a0: d925 1c3e c004 1ebe a341 003e 8fe0 a23e
000000b0: a9e4 d33c 4734 013e 3b50 20bd eb1d 7fbc
000000c0: 29ff 393d 0f75 413d 8387 8ebe 8ba7 193d
000000d0: 3b99 4cbd fcf3 063c ae4c 8e3c 9e29 813b
000000e0: cfb4 643e c4f7 f13d e4c0 9d3d 309b e83d
000000f0: e25e 54be 1540 91be 3607 833d 5d5d 20bd
00000100: 74d3 c9bd 4784 a33e 9261 33bc 0e2e e53d
00000110: 64c3 593d 5151 a3bd 6f16 5dbe eab9 5e3d
00000120: 0f1e 11bd d903 5abe 8aa3 eb3d 4afb 8a3d
00000130: e9d3 1bbe 1488 913d 1c3f 89be 3ec2 e63d
00000140: 11e7 8fbe 62dc 1dbe 67bc 60bd f577 bebc
00000150: 78ae a53d 8821 27be 1404 8abe 97da ec3c
00000160: c48c 16be 7592 ef3d fb60 903d 923e ae3d
00000170: 33db 003e 0606 c83b a878 5a3e d03b d83d
00000180: b8a4 2b3e 6ca1 05be 500d 20be 4a89 4fbe
00000190: e0e8 f2bc c88b 693d b7b3 81bd e929 38be
000001a0: e596 a1be 25ac d6bd c1d1 4dbd 4f39 16bd
000001b0: 72ec 91be b5de 12be 6cd7 873c 1273 043e
000001c0: f246 303c 7b7d 4b3e c5ca e0bd 218f 01be
000001d0: a809 6ebd 1c57 fabb c4dd 4b3b c7a4 4a3e
000001e0: f246 0d3e d638 47bd 74aa 83be 837d e9bd
000001f0: 0527 893d 5557 a03d 04df cd3d ae6b 3dbd
00000200: 2daa abbd bc38 aabe c39b 053e 2102 c3b8
00000210: a479 0f3e 8ef4 25be a254 253d c3db ed3c
00000220: 9dce c1be 9da6 3ebe dacf 8d3d ce09 6cbe
00000230: 8402 7c3d eac9 733e 27cd 80bd 1992 123e
00000240: ed6c 783b 505b 483d 124f 3b3d 1271 b03d
00000250: 0de9 63be f15b 773d 2b6a 793d f2b1 343e
00000260: b530 a63e 2ade 883d 15f0 2e3d f16d cd3d
00000270: 418e 413d fbed 02be 7fb0 1a3e bdce 5bbd
00000280: 6ca0 c23c 6b02 1fbe adf6 3ebe 32ef 8d3c
00000290: a652 513e 0d4e a23e b01c aebd 25cd 72be
000002a0: 7f04 bcbd dd34 433d 3e27 e8bb d177 ac3c
000002b0: 7ad2 17bd 4035 b33d 56d5 bc3e 0f35 98be
000002c0: c264 e13d 0d7b eb3c 2282 11be c202 7fbe
000002d0: f3a3 99bc 2d93 baba deda eabb 34e9 00be
000002e0: 8fc3 f1bd 99ef 9ebd c7bd 3bbe 5992 403d
000002f0: adb7 b4bc 47bd 153d 3630 613e f039 2abe
00000300: 7e7a 3e3e 53d6 9d3d 7269 923c fd73 09be
00000310: ba6a c33d 9c77 30be f990 8abe 553a 2e3e
00000320: c06b d93d eabd f33d 37a2 e83d aaad ad3d
00000330: bd96 1ebe 721c e93d e3bb a03e 817e 48be
00000340: 1957 a2bd bb53 05be f246 203d bce2 1dbe
00000350: 5ad5 8a3e 2497 db3d d5e8 1dbb 12c0 d3be
00000360: 0b04 a73d 369b 22be 6717 823d f143 67bd
00000370: 72d9 17be b5f2 d5bd dfe5 093e 70f7 d2be
00000380: cc14 1cbe b90b 2fbe 5d7a e93d da6f ebbd
00000390: a478 2b3e 6c41 f9bd 7022 183e c74e d63d
000003a0: c307 27be 094e 42be 0210 bf3d 59a3 c6be
000003b0: c2b9 0ebd 44ef a73d 1e41 a63d aca6 24be
000003c0: b4ae ed3d 1d1f 92bd 9209 ed3a b441 4abc
000003d0: 7b36 3f3c 12b6 b43d 9c84 0fbe 47fa 2ebd
000003e0: dcb8 a13e 6b1f 0c3d ec51 063e aab9 24be
000003f0: e29a 0b3a 69fd fd3c 17ef 29bd 774b 3ebe

linears.1.bias f4 [50]
5.608415e-08 -6.195213e-08 -1.02244995e-08 -8.9818094e-08 5.427257e-08 3.8090575e-09 -4.108662e-08 -1.28352555e-08
1.4883057e-08 -1.7068146e-08 -3.092438e-08 -2.6922882e-08 -7.1797106e-09 -8.4947516e-10 1.9889809e-08 -1.3621907e-09
-8.6621846e-08 -8.723327e-08 -6.4744896e-08 5.4979177e-09 -1.9589766e-08 -3.943598e-08 -1.3665013e-08 5.2164535e-09
5.110412e-08 -1.9648725e-09 -3.9655472e-08 1.0225534e-08 5.445846e-09 -3.583292e-08 -9.0491184e-08 2.6927887e-08
-1.4616532e-08 -1.6810063e-08 1.2665879e-08 3.188865e-08 4.5637588e-08 3.1977088e-08 2.0158984e-08 -1.3499026e-08
2.0583036e-08 -3.7585e-08 7.865209e-08 7.5188616e-08 2.267175e-08 9.034511e-09 -6.760691e-08 1.4472408e-08
-1.41925005e-08 1.1779428e-07
00000000: 2de1 7033 8b0a 85b3 d3a7 2fb2 05e2 c0b3
00000010: 5219 6933 d3e0 8231 3777 30b3 0d82 5cb2
00000020: 60b0 7f32 409d 92b2 b7d1 04b3 0b44 e7b2
00000030: 67b1 f6b1 8080 69b0 27da aa32 d337 bbb0
00000040: dd04 bab3 ff54 bbb3 e209 8bb3 32e8 bc31
00000050: 5a46 a8b2 5260 29b3 5dc3 6ab2 693c b331
00000060: 937d 5b33 6706 07b1 a751 2ab3 60ac 2f32
00000070: 2b1e bb31 b6e6 19b3 0e54 c2b3 0d4f e732
00000080: 301c 7bb2 b865 90b2 2099 5932 f1f5 0833
00000090: 0f03 4433 2e57 0933 132a ad32 58e9 67b2
000000a0: 93ce b032 256d 21b3 72e7 a833 6177 a133
000000b0: b5bf c232 3336 1b32 4b2f 91b3 53a2 7832
000000c0: 47d3 73b2 17f6 fc33

linears.2.weight f4 [50, 50]
-0.14754826 0.24718033 0.23429598 0.016671296 -0.105398595 0.091053784 -0.14027753 0.014603821
0.18304677 -0.11110501 -0.018835042 -0.082385495 0.21198972 -0.13674423 0.2739197 0.07143192
0.12328454 -0.14736946 0.13158028 -0.12117507 0.05317969 0.36092165 -0.04194136 0.054240912
-0.07368481 0.057264123 0.08272392 0.049887788 -0.06495812 0.24808475 -0.22797593 -0.15026596
0.20331766 -0.122467026 -0.28656575 0.117349744 -0.0045226933 0.1603552 -0.05200296 -0.14465424
-0.08643278 -0.079743154 0.104947954 0.07802766 0.043885637 -0.23794508 0.0044060275 -0.18974851
-0.19327585 0.12289314 0.008252522 -0.069938906 0.029597512 -0.020233173 -0.13915278 -0.11487072
-0.057586942 0.1732047 -0.02604816 -0.04162399 0.27088967 -0.014905467 0.118267775 -0.10962813
0.22411884 -0.019612819 0.047179267 0.07921857 -0.05473144 -0.012572093 -0.07844656 -0.14695111
0.20853092 -0.20705065 0.35764202 0.0037280628 -0.06028518 0.16407222 -0.013153911 -0.23765871
-0.07248856 -0.0040279264 -0.2908365 0.03327704 0.055696744 0.24475726 0.071481675 0.07456979
-0.0248736 -0.0718002 0.104896724 -0.0017537993 -0.093589686 -0.06333496 0.18283142 0.0535951
0.08096694 0.26365745 -0.30627528 0.17009664 0.15725303 -0.20958665 0.1160409 -0.10577631
-0.12837516 -0.029999917 -0.03394213 -0.3230224 0.1213075 -0.0962744 0.058995288 0.17933108
0.099037506 0.18550332 0.20741594 -0.11477276 -0.15775137 0.04482551 0.054367434 0.022907333
0.10264577 -0.16087879 0.078843474 -0.15087724 0.03471278 -0.05385838 -0.21574041 0.165071
0.077153005 -0.015459559 -0.003243092 -0.00896774 -0.2269416 0.06462748 0.05203722 -0.0641369
0.08512393 0.024318919 0.27899674 -0.23401229 0.3438662 -0.030877328 0.0019246149 -0.003015046
-0.30979142 0.053659916 0.086460024 -0.14576387 0.15578039 -0.2667727 -0.20016395 -0.17250828
0.06457749 -0.1819419 0.3536676 -0.0067970846 -0.049917478 0.03162266 0.0071399948 -0.2736838
-0.12296755 0.0621262 -0.048530255 0.055373434 -0.081504405 -0.14843568 -0.06694738 -0.040689286
0.120009355 0.015007601 0.10740484 0.009340783 -0.03995086 -0.13885747 0.027229374 0.14088602
0.342045 -0.050281737 -0.07044136 0.06684847 0.024052136 0.34992668 0.14620268 0.07581279
-0.089223444 -0.19151136 0.017625129 0.15897825 -0.18517485 -0.0453463 0.062210076 0.10644925
0.02923315 0.02612418 0.0710363 0.23403947 0.1645943 -0.13987565 -0.07799371 -0.029503843
-0.42818624 -0.07652972 -0.07208074 -0.054183107 0.025535526 0.06948279 -0.11373456 0.1502635
-0.013573086 -0.20380081 0.07200555 0.30913714 -0.09321946 0.112086974 -0.06884128 -0.26326263
0.25840092 0.25674206 0.33306032 -0.1344967 0.16043204 -0.1538909 0.0026017001 -0.037991885
-0.11182279 0.1794764 0.0055865427 0.25803688 -0.05267784 0.079158805 0.27010313 -0.1304001
-0.12868999 -0.037882946 -0.15839103 0.093548715 -0.12712283 -0.27280617 -0.015553015 0.3072282
0.2315415 -0.030651309 -0.20924751 0.2998395 0.19584095 -0.10081668 -0.09386762 0.049113803
-0.03567951 -0.12976232 0.05132445 -0.13590026 -0.13183688 -0.10191487 0.04209083 -0.16501124
00000000: e416 17be d71c 7d3e 49eb 6f3e 3e92 883c
00000010: 38db d7bd 687a ba3d eaa4 0fbe dd44 6f3c
00000020: 9d70 3b3e 068b e3bd f24b 9abc bab9 a8bd
00000030: d513 593e ae06 0cbe 343f 8c3e e64a 923d
00000040: 9b7c fc3d 05e8 16be fbbc 063e a32a f8bd
00000050: f2d2 593d b9ca b83e b4ca 2bbd b82b 5e3d
00000060: 10e8 96bd c98d 6a3d 296b a93d 2357 4c3d
00000070: c308 85bd ee09 7e3e 8672 69be 52df 19be
00000080: 8132 503e fecf fabd bfb8 92be 1055 f03d
00000090: 1a33 94bb 2734 243e 0e01 55bd 3e20 14be
000000a0: ab03 b1bd 6150 a3bd f4ee d63d f7cc 9f3d
000000b0: 6dc1 333d e0a7 73be 7060 903b 6f4d 42be
000000c0: 1bea 45be 66af fb3d 9635 073c 213c 8fbd
000000d0: 7b76 f23c 0ac0 a5bc 117e 0ebe 5741 ebbd
000000e0: 49e0 6bbd 935c 313e f362 d5bc eb7d 2abd
000000f0: 0db2 8a3e 0f36 74bc 6036 f23d b784 e0bd
00000100: 697f 653e 10ab a0bc 0c3f 413d 583d a23d
00000110: 132e 60bd 2efb 4dbc 97a8 a0bd 5a7a 16be
00000120: 2189 553e 1605 54be db1c b73e 8452 743b
00000130: 98ed 76bd 8c02 283e 8083 57bc ce5c 73be
00000140: e274 94bd b2fc 83bb 86e8 94be 814d 083d
00000150: 4522 643d a6a1 7a3e fc64 923d 0cb8 983d
00000160: b8c3 cbbc fc0b 93bd 18d4 d63d bddf e5ba
00000170: f3ab bfbd c2b5 81bd 2938 3b3e 8986 5b3d
00000180: ffd1 a53d 1cfe 863e 1dd0 9cbe d02d 2e3e
00000190: f006 213e e29d 56be daa6 ed3d 40a1 d8bd
000001a0: c774 03be 63c2 f5bc e706 0bbd 3163 a5be
000001b0: 1170 f83d 832b c5bd 0ba5 713d 91a2 373e
000001c0: 2dd4 ca3d 95f4 3d3e d864 543e fb0d ebbd
000001d0: 9389 21be f49a 373d 63b0 5e3d 29a8 bb3c
000001e0: f237 d23d 69bd 24be b078 a13d 907f 1abe
000001f0: fd2e 0e3d 9b9a 5cbd 0eeb 5cbe 5f08 293e
00000200: 6502 9e3d 174a 7dbc 0e8a 54bb 6eed 12bc
00000210: 6163 68be 6a5b 843d fb24 553d 355a 83bd
00000220: 7455 ae3d 7838 c73c a9d8 8e3e eba0 6fbe
00000230: 3b0f b03e 73f2 fcbc 5c43 fc3a 1498 45bb
00000240: fb9c 9ebe 80ca 5b3d f411 b13d 2043 15be
00000250: e584 1f3e 6e96 88be c7f7 4cbe 03a6 30be
00000260: 3441 843d fa4e 3abe eb13 b53e 14ba debb
00000270: 4576 4cbd c386 013d 9ef6 e93b 4820 8cbe
00000280: 69d6 fbbd 0b78 7e3d a9c7 46bd 41cf 623d
00000290: c8eb a6bd 86ff 17be b51b 89bd cfa9 26bd
000002a0: 77c7 f53d 71e2 753c 12f7 db3d 150a 193c
000002b0: 83a3 23bd a730 0ebe 2310 df3c 6d44 103e
000002c0: 8620 af3e 39f4 4dbd 8f43 90bd dae7 883d
000002d0: fc08 c53c 9729 b33e 28b6 153e bc43 9b3d
000002e0: c8ba b6bd 8e1b 44be 9362 903c 32cb 223e
000002f0: 7a9e 3dbe 0bbd 39bd fecf 7e3d 1002 da3d
00000300: 5c7a ef3c 6002 d63c 7b7b 913d 0ba8 6f3e
00000310: 688b 283e 903b 0fbe 2bbb 9fbd 0bb2 f1bc
00000320: 3a3b dbbe 9dbb 9cbd 119f 93bd 1bef 5dbd
00000330: e12f d13c fe4c 8e3d aaed e8bd adde 193e
00000340: a661 5ebc 29b1 50be a577 933d 3947 9e3e
00000350: d8e9 bebd db8d e53d a8fc 8cbd 5cca 86be
00000360: 204d 843e b273 833e e286 aa3e 81b9 09be
00000370: 4c48 243e 9395 1dbe 4981 2a3b 619d 1bbd
00000380: 5903 e5bd a9c8 373e 510f b73b 691d 843e
00000390: b8c4 57bd 031e a23d f54a 8a3e 9b87 05be
000003a0: 4fc7 03be 262b 1bbd 4231 22be 7896 bf3d
000003b0: 7d2c 02be 40ad 8bbe 13d2 7ebc 044d 9d3e
000003c0: 3719 6d3e 7418 fbbc fb44 56be 9084 993e
000003d0: 888a 483e fa78 cebd ab3d c0bd 8e2b 493d
000003e0: ae24 12bd 6ae0 04be 9639 523d 7029 0bbe
000003f0: 3f00 07be beb8 d0bd 6f67 2c3d b5f8 28be

linears.2.bias f4 [50]
5.614682e-08 5.06226e-08 3.5760078e-08 -8.766494e-09 -5.1202626e-08 1.13921196e-07 -8.8543196e-08 -6.125751e-08
4.4237964e-09 -7.4901855e-08 8.518676e-08 3.1125577e-08 -7.400566e-08 -2.4513866e-08 1.04212155e-07 -1.2337925e-07
5.2893917e-08 -2.3594384e-07 5.994094e-08 -3.4025498e-09 -2.6292398e-08 3.99669e-08 1.15780544e-07 -4.6541327e-08
6.757148e-08 -4.1965425e-08 8.114122e-09 2.392744e-09 7.0893144e-08 -9.508209e-08 1.1798151e-08 5.997537e-08
2.4428095e-08 8.121321e-08 -1.2547571e-08 2.0599092e-08 2.8283578e-09 7.195787e-09 1.2064734e-08 3.219785e-08
3.6539586e-08 2.3247608e-09 -1.6362432e-07 -4.4072294e-08 3.122643e-08 -3.8963268e-08 9.382501e-08 -5.158774e-08
-7.14385e-09 5.673155e-08
00000000: 1526 7133 236c 5933 9f96 1933 739b 16b2
00000010: e2e9 5bb3 d7a4 f433 2325 beb3 ac8c 83b3
00000020: 2000 9831 bbd9 a0b3 ebef b633 efae 0533
00000030: 0bed 9eb3 9092 d2b2 3dcb df33 3b7a 04b4
00000040: 7a2d 6333 c057 7db4 e1b8 8033 4ad2 69b1
00000050: 98d9 e1b2 12a8 2b33 07a3 f833 bbe4 47b3
00000060: d01b 9133 793d 34b3 4966 0b32 996d 2431
00000070: eb3d 9833 ef2f ccb3 d1b0 4a32 cfcb 8033
00000080: f3d5 d132 6f67 ae33 cd90 57b2 e2f1 b032
00000090: ff5c 4231 d03e f731 4345 4f32 e949 0a33
000000a0: b3ef 1c33 a0c1 1f31 b6b0 2fb4 004a 3db3
000000b0: d31d 0633 9158 27b3 d87c c933 5291 5db3
000000c0: f875 f5b1 00a9 7333

linears.3.weight f4 [50, 50]
-0.081781685 -0.020830723 -0.46774593 0.009625023 -0.16749284 -0.1735978 0.15635456 0.008029814
-0.14658035 -0.036333375 0.04774343 -0.18544415 0.12798141 0.007468556 -0.06339067 -0.09877914
0.07291939 0.16278462 0.1616784 0.3361548 0.012513319 0.13282117 -0.07681904 0.16951732
-0.07311774 0.19384575 -0.034776717 0.20644085 0.06963966 0.19856833 -0.071344584 -0.044665072
-0.0341037 -0.19979164 -0.017432753 -0.038708806 -0.3026072 -0.10492397 0.17622957 -0.12222806
-0.045825955 -0.08670468 -0.06935518 -0.059338998 -0.032063354 0.2458758 -0.08429087 -0.062217433
0.074617535 -0.06547715 0.17829987 -0.11916936 0.11633299 -0.080321305 -0.23495649 0.044081006
0.03676102 0.040032167 0.11849521 -0.19232443 0.07881241 -0.21984398 -0.28231487 0.2736872
0.03200871 -0.17632785 -0.106348865 -0.16757925 0.14197263 -0.21005736 -0.14934053 -0.15649065
-0.011334661 -0.13250777 0.28378052 0.018653674 -0.14918965 0.02758699 -0.13488497 0.06761722
0.017334532 -0.15368134 0.19003944 -0.05651638 -0.17873022 0.0184381 -0.035845656 -0.2571028
0.06648596 0.19717579 -0.030976793 0.10247732 -0.20976484 0.0020689908 0.03487236 -0.033623464
0.006184115 -0.106046185 -0.101420596 0.20136724 -0.14962554 -0.16476989 -0.22028068 0.19009985
0.28857872 0.06840259 -0.09024596 -0.13043438 0.051865246 0.026330777 -0.1866401 -0.12290911
0.09712473 0.15793487 0.15913454 0.06453788 -0.09969944 -0.19189593 -0.2276584 0.066086285
-0.03283496 -0.4162423 -0.11942704 -0.11032823 -0.17174995 -0.036188837 -0.006875321 -0.117868744
0.22522107 0.24692138 0.16076042 0.020363972 0.004595687 0.10518003 -0.055860028 0.16505556
0.026227625 0.032219447 0.025996983 -0.11460303 0.1740692 -0.03463539 0.17253767 0.0034168893
-0.054899648 0.065937206 0.077464245 -0.024932371 0.20551512 0.060914885 0.02768515 0.10863585
-0.10881183 -0.22123957 0.030005606 -0.045190178 -0.0628489 -0.15369292 -0.078285575 -0.025748031
0.09546086 -0.1804988 -0.016575234 0.102354355 0.29037473 0.027554382 0.098103836 -0.116952494
0.11133586 0.05966048 0.11653575 0.16782935 -0.049626406 -0.06999104 -0.1885282 0.1264504
0.0056364606 0.24920811 0.044388503 -0.014430995 -0.31269336 0.045503285 -0.026627406 0.09147574
0.032201365 0.05531545 0.16488002 0.17687082 0.0012155393 0.054436583 0.01645857 -0.28108585
0.063414246 0.17475916 0.052139044 -0.27932268 0.02652201 -0.08844514 -0.035676036 0.04926687
0.07771227 -0.17189157 0.14760852 -0.18539517 -0.11820054 -0.20296739 0.11973386 0.043889187
-0.25005746 -0.01662741 -0.15498333 0.20236766 -0.089651436 0.10442235 -0.13197774 0.09055605
0.0998598 -0.08847456 0.011809558 0.02947241 0.13892101 -0.023608612 -0.11587507 0.22525059
0.06715187 0.07472919 -0.110515155 -0.12022348 0.12425975 -0.08830297 -0.20483896 0.024647383
0.1661273 0.082817845 -0.02985943 -0.054628607 -0.1289916 0.15522985 -0.2939409 0.10712928
0.1584733 -0.05365854 -0.11890381 -0.14985105 0.21360773 -0.0045972485 -0.096449375 -0.16653967
0.043729857 0.3128477 0.08020974 -0.08175096 -0.069335446 0.16635409 -0.12720105 -0.06133378
00000000: 287d a7bd 31a5 aabc 657c efbe 46b2 1d3c
00000010: 3e83 2bbe 9fc3 31be 691b 203e 7b8f 033c
00000020: 2919 16be 4ed2 14bd 9d8e 433d 12e5 3dbe
00000030: 8f0d 033e caba f43b f8d2 81bd b84c cabd
00000040: c356 953d 03b1 263e 068f 253e 7b1c ac3e
00000050: aa04 4d3c 4602 083e 4d53 9dbd f395 2d3e
00000060: c1be 95bd 807f 463e 0872 0ebd 3b65 533e
00000070: 3d9f 8e3d 7f55 4b3e 1c1d 92bd b9f2 36bd
00000080: 52b0 0bbd 2e96 4cbe 22cf 8ebc 208d 1ebd
00000090: 55ef 9abe 61e2 d6bd 8675 343e b552 fabd
000000a0: ffb3 3bbd 3992 b1bd 170a 8ebd 730d 73bd
000000b0: dd54 03bd dec6 7b3e b1a0 acbd b5d7 7ebd
000000c0: 14d1 983d e218 86bd 3e94 363e 110f f4bd
000000d0: fe3f ee3d 7f7f a4bd 6f98 70be 498e 343d
000000e0: b992 163d c5f8 233d 9ead f23d b2f0 44be
000000f0: 6768 a13d c81e 61be 938b 90be bb20 8c3e
00000100: 911b 033d 4a8f 34be 6fcd d9bd e599 2bbe
00000110: 4661 113e 4719 57be b9ec 18be 163f 20be
00000120: 04b5 39bc 1eb0 07be ae4b 913e 97cf 983c
00000130: 2cc5 18be 1cfe e13c 491f 0abe e67a 8a3d
00000140: 2601 8e3c a45e 1dbe b399 423e b87d 67bd
00000150: 0e05 37be 800b 973c e5d2 12bd faa2 83be
00000160: ca29 883d 73e8 493e 0bc3 fdbc a1df d13d
00000170: 98cc 56be e897 073b 52d6 0e3d c2b8 09bd
00000180: 1ea4 ca3b be2e d9bd 9ab5 cfbd 3733 4e3e
00000190: 7037 19be 70b9 28be 4291 61be 89a9 423e
000001a0: 97c0 933e a816 8c3d e0d2 b8bd 9790 05be
000001b0: a770 543d a4b3 d73c 951e 3fbe c5b7 fbbd
000001c0: 55e9 c63d aeb9 213e 2af4 223e 702c 843d
000001d0: 382f ccbd 5e80 44be 491f 69be 3f58 873d
000001e0: f37d 06bd b61d d5be 2a96 f4bd c4f3 e1bd
000001f0: 38df 2fbe bf3a 14bd 5f4a e1bb 2b65 f1bd
00000200: 5aa0 663e f5d8 7c3e 619e 243e 58d2 a63c
00000210: 6b97 963b a168 d73d 7ccd 64bd 5304 293e
00000220: 51db d63c 8af8 033d a0f7 d43c feb4 eabd
00000230: 323f 323e d7dd 0dbd b7ad 303e e4ed 5f3b
00000240: 74de 60bd 160a 873d 93a5 9e3d f93e ccbc
00000250: 8e72 523e e381 793d f8cb e23c 797c de3d
00000260: bdd8 debd a08c 62be 51ce f53c 5619 39bd
00000270: edb6 80bd ad61 1dbe 3054 a0bd 89ed d2bc
00000280: fc80 c33d add4 38be c9c8 87bc 299f d13d
00000290: ffab 943e bab9 e13c aaea c83d ca84 efbd
000002a0: 0e04 e43d 8c5e 743d 4caa ee3d 75db 2b3e
000002b0: 0f45 4bbd 7657 8fbd 890d 41be 377c 013e
000002c0: 0fb2 b83b 6930 7f3e b8d0 353d fb6f 6cbc
000002d0: 5819 a0be a761 3a3d b821 dabc a257 bb3d
000002e0: 94e5 033d 7492 623d 4fd6 283e a01d 353e
000002f0: bb52 9f3a e5f8 5e3d 1fd4 863c 7cea 8fbe
00000300: 54df 813d 11f4 323e c08f 553d 6203 8fbe
00000310: b044 d93c ba22 b5bd 0921 12bd 0fcc 493d
00000320: 9c27 9f3d 5804 30be b026 173e 3bd8 3dbe
00000330: 2013 f2bd afd6 4fbe 0737 f53d 26c5 333d
00000340: 8807 80be 3536 88bc f3b3 1ebe 7839 4f3e
00000350: 2c9b b7bd 63db d53d 2c25 07be 7375 b93d
00000360: 4b83 cc3d 2632 b5bd e07c 413c 2070 f13c
00000370: 4f41 0e3e d966 c1bc e94f edbd 17a8 663e
00000380: eb86 893d 9e0b 993d c555 e2bd ba37 f6bd
00000390: e57b fe3d 30d8 b4bd 4ec1 51be 4fe9 c93c
000003a0: 461d 2a3e 679c a93d c39b f4bc 3fc2 5fbd
000003b0: 6016 04be 93f4 1e3e 6c7f 96be 9966 db3d
000003c0: d346 223e 0fc9 5bbd d783 f3bd 8e72 19be
000003d0: fcbb 5a3e 84a4 96bb 4087 c5bd 6089 2abe
000003e0: 141e 333d 932d a03e 0145 a43d 0c6d a7bd
000003f0: beff 8dbd ba58 2a3e fe40 02be 2139 7bbd

linears.3.bias f4 [50]
-2.7471728e-07 1.9958012e-08 -1.6341225e-07 1.2237722e-07 6.7259826e-08 6.399228e-08 1.12683345e-07 1.5183012e-07
1.9548814e-07 -2.2221641e-07 -1.4869457e-07 -1.1744421e-07 -2.0503948e-07 1.3133835e-07 3.7285524e-08 -2.136832e-08
5.06155e-08 5.3576958e-08 -6.69952e-08 2.0948015e-07 -1.5895185e-07 -6.24505e-08 -8.764502e-09 -1.3133631e-07
-1.4991095e-08 8.076743e-08 -1.563631e-07 2.3744116e-09 -9.643969e-08 -6.393244e-09 -9.242839e-08 -2.810402e-07
1.3991681e-09 9.155644e-08 -1.589357e-07 3.1775997e-08 -5.869981e-08 -5.137671e-08 -3.1769878e-07 -2.2796478e-08
1.8399838e-08 -8.0331894e-08 5.4413558e-08 -8.451768e-08 -2.137774e-08 -1.4532408e-07 -2.8540677e-08 -9.22522e-08
-2.0061805e-07 -2.8711753e-07
00000000: db7c 93b4 2270 ab32 6b76 2fb4 cb66 0334
00000010: 7b70 9033 216c 8933 53fc f133 bf06 2334
00000020: 5fe7 5134 629a 6eb4 daa8 1fb4 a335 fcb3
00000030: d328 5cb4 0306 0d34 de23 2033 6f8d b7b2
00000040: 5564 5933 7d1c 6633 00df 8fb3 77ed 6034
00000050: 5aac 2ab4 871c 86b3 b092 16b2 7305 0db4
00000060: c4c5 80b2 5d72 ad33 c3e4 27b4 172b 2331
00000070: 481a cfb3 92ab dbb1 0b7d c6b3 dfe1 96b4
00000080: da4c c030 af9d c433 eaa7 2ab4 147a 0833
00000090: 201d 7cb3 4aa9 5cb3 3090 aab4 fcd1 c3b2
000000a0: ac0d 9e32 ed82 acb3 57b4 6933 1680 b5b3
000000b0: 26a2 b7b2 610a 1cb4 9d29 f5b2 2f1c c6b3
000000c0: 7869 57b4 2225 9ab4

linears.4.weight f4 [50, 50]
0.10476726 -0.17343363 0.010083714 -0.057093542 0.060874496 -0.14438355 -0.048000213 -0.17297827
-0.12612042 0.17002851 0.23950364 -0.015102239 0.14994884 0.0029232746 -0.013529759 0.1513479
-0.11048524 -0.05259905 -0.08305302 0.06535925 0.30993962 -0.14749573 -0.1630101 0.1499279
-0.16227756 0.068454556 -0.09927414 -0.0010029841 0.4021728 0.027764339 -0.082331516 0.037014317
-0.021170594 0.089406386 0.012632788 -0.027234823 0.11313715 -0.21598303 0.090562046 0.06086098
0.0036280123 0.11063046 0.08084666 -0.030351121 -0.029419532 0.023127325 0.1240385 0.0041350713
0.03791267 -0.04052834 0.009583963 -0.06979665 -0.042064037 -0.024888266 0.14470361 -0.019191673
-0.08368482 0.026874872 -0.21276698 0.0693138 0.04702302 -0.31403923 -0.27320614 0.034217473
-0.00024236662 0.026935231 0.13644934 0.40433908 0.125321 0.22653086 0.008728616 -0.24950634
0.14256695 -0.044554073 -0.021306282 0.22602288 0.29528052 0.19981006 -0.14585614 0.104738936
-0.011767043 -0.021553207 0.0038543062 0.027889438 0.022078373 0.08646219 0.17383005 0.0039922176
0.15959823 -0.020524982 0.07027902 0.1407402 -0.13807094 0.1932334 0.14767925 -0.043017298
-0.014659837 -0.34055352 0.01124002 0.06470354 -0.22004826 0.27703917 0.082231365 0.019407542
-0.049795266 -0.12505454 0.16350134 -0.019119056 -0.08652283 0.054224454 -6.0521368e-05 0.045281913
-0.2549504 0.12971056 0.016707718 0.025564356 0.1411629 -0.2387223 -0.1316423 0.47300866
-0.072998405 0.12904657 0.051529907 0.050974283 -0.10074865 -0.010969266 -0.04206824 0.095465146
0.41753888 -0.055333164 0.07693875 -0.05967723 -0.09119491 -0.09742617 -0.09101805 -0.06439278
0.16424923 0.03158153 0.06421715 0.008167272 0.03769937 0.33644783 -0.048067637 -0.13047619
0.0044799005 -0.3072047 0.062982574 -0.18861616 0.2168823 -0.22268735 -0.18443517 -0.2364336
0.14386423 0.1903054 -0.114236474 0.2556566 0.23349993 0.04518424 0.03159867 0.0747925
0.089625634 -0.2708369 0.0025748217 -0.3334542 0.061621718 0.21614358 0.16574386 -0.017495127
0.25251836 -0.19901685 0.0752266 -0.032108955 0.1201722 0.13320208 -0.26651832 -0.0048114196
0.004833904 -0.10560202 -0.21681456 0.1682492 -0.11753561 0.027730629 -0.038424894 -0.2478432
-0.08059301 0.09909693 0.043913078 -0.18347365 0.011264147 -0.27262253 -0.079009145 0.057846047
-0.12083361 -0.032642193 -0.114728026 -0.39222908 -0.19309339 0.03988753 -0.030096881 -0.37233657
0.077739686 -0.043271862 0.07785076 0.0062081856 0.019827772 -0.12792599 0.1910988 0.011566683
-0.046957873 -0.03571341 -0.0015275949 0.18607274 0.015561939 0.1917959 -0.06829074 0.32783318
-0.099180326 0.008768898 0.057702564 0.09760793 -0.024805691 0.005791866 -0.023951957 0.19752291
0.08716326 -0.0024232129 0.16392672 0.08282285 0.33836395 -0.22662333 0.15088578 -0.006737418
-0.026130622 0.0019283172 0.004540219 0.08105888 -0.008256426 0.014015005 0.23985264 -0.042937957
-0.0073186853 -0.13929653 -0.02236902 -0.17708421 0.27540338 0.17477284 0.15263362 0.20752856
-0.15766363 0.1359671 0.08464582 0.15315846 0.08384996 0.13296206 0.21921968 0.06064451
00000000: 3890 d63d 9698 31be 2936 253c ebda 69bd
00000010: 8957 793d 48d9 13be df9b 44bd 3721 31be
00000020: b625 01be f41b 2e3e 7140 753e 626f 77bc
00000030: 308c 193e 6994 3f3b ecab 5dbc f2fa 1a3e
00000040: 1646 e2bd 1a72 57bd b417 aabd 12db 853d
00000050: 68b0 9e3e 1f09 17be 1fec 26be b386 193e
00000060: 172c 26be e731 8c3d 3e50 cbbd 9076 83ba
00000070: 98e9 cd3e 0a72 e33c 6d9d a8bd 539c 173d
00000080: f46d adbc b21a b73d c1f9 4e3c 901b dfbc
00000090: 73b4 e73d a82a 5dbe 9878 b93d 5d49 793d
000000a0: f2c3 6d3b 3992 e23d ef92 a53d eaa2 f8bc
000000b0: 3b01 f1bc 8475 bd3c e607 fe3d 7e7f 873b
000000c0: 514a 1b3d 0b01 26bd 0e06 1d3c 8cf1 8ebd
000000d0: 574b 2cbd 7ae2 cbbc 2f2d 143e db37 9dbc
000000e0: f262 abbd b128 dc3c 96df 59be 65f4 8d3d
000000f0: 369b 403d c0c9 a0be ade1 8bbe 9f27 0c3d
00000100: cb23 7eb9 46a7 dc3c 60b9 0b3e 8805 cf3e
00000110: 2654 003e b5f7 673e 7802 0f3c 977e 7fbe
00000120: 12fd 113e 557e 36bd 838a aebc 8b72 673e
00000130: 022f 973e 029b 4c3e 505b 15be 5e81 d63d
00000140: 8eca 40bc 5a90 b0bc 8798 7c3b 6478 e43c
00000150: b4dd b43c 1713 b13d 8100 323e 26d1 823b
00000160: b86d 233e 0224 a8bc 72ee 8f3d 331e 103e
00000170: 7862 0dbe fade 453e 3b39 173e e832 30bd
00000180: d02f 70bc 085d aebe 1028 383c 4a83 843d
00000190: 5554 61be 14d8 8d3e eb68 a83d 91fc 9e3c
000001a0: 1ff6 4bbd 4c0e 00be e56c 273e 919f 9cbc
000001b0: e232 b1bd 761a 5e3d 53d8 7db8 8779 393d
000001c0: dc88 82be d8d2 043e a0de 883c 576c d13c
000001d0: 028d 103e 9e73 74be 3dcd 06be 312e f23e
000001e0: 3080 95bd c924 043e 0611 533d 69ca 503d
000001f0: 4f55 cebd 70b8 33bc bf4f 2cbd 3b83 c33d
00000200: a8c7 d53e 07a5 62bd 1092 9d3d 1c70 74bd
00000210: 66c4 babd 5f87 c7bd ac67 babd 5de0 83bd
00000220: f330 283e a25b 013d 4884 833d 06d0 053c
00000230: a86a 1a3d e442 ac3e 92e2 44bd 8d9b 05be
00000240: 21cc 923b ef49 9dbe 02fd 803d 9824 41be
00000250: 6516 5e3e 2708 64be 93dc 3cbe a61b 72be
00000260: 2551 133e 6bdf 423e d0f4 e9bd 6ce5 823e
00000270: 9b1a 6f3e 1c13 393d 9b6d 013d cf2c 993d
00000280: a58d b73d 22ab 8abe 57be 283b 82ba aabe
00000290: 0e67 7c3d be54 5d3e c2b8 293e f151 8fbc
000002a0: 164a 813e 13cb 4bbe 6710 9a3d ae84 03bd
000002b0: d81c f63d 2066 083e 1775 88be 1da9 9dbb
000002c0: ba65 9e3b df45 d8bd a304 5ebe 8549 2c3e
000002d0: 83b6 f0bd 582b e33c 6c63 1dbd 9cca 7dbe
000002e0: f30d a5bd 55f3 ca3d 33de 333d 84e0 3bbe
000002f0: 428d 383c 2e95 8bbe 8ccf a1bd faef 6c3d
00000300: 9d77 f7bd d2b3 05bd 87f6 eabd 40d2 c8be
00000310: 46ba 45be 1b61 233d bc8d f6bc e6a2 bebe
00000320: fc35 9f3d d63d 31bd 3870 9f3d 096e cb3b
00000330: da6d a23c 08ff 02be 67af 433e 2f82 3d3c
00000340: e656 40bd 3948 12bd 9439 c8ba da89 3e3e
00000350: 81f7 7e3c 2566 443e 04dc 8bbd c0d9 a73e
00000360: 0e1f cbbd 6dab 0f3c 8659 6c3d abe6 c73d
00000370: 4e35 cbbc b2c9 bd3b e536 c4bc 7243 4a3e
00000380: a782 b23d c4ce 1ebb 68dc 273e 079f a93d
00000390: 0a3e ad3e f20f 68be cd81 1a3e 8fc5 dcbb
000003a0: e30f d6bc 97bf fc3a 1ec6 943b 3302 a63d
000003b0: f645 07bc 319f 653c ee9b 753e b6df 2fbd
000003c0: 95d1 efbb c0a3 0ebe 3c3f b7bc 9055 35be
000003d0: ac01 8d3e a7f7 323e fd4b 1c3e 5e82 543e
000003e0: 9372 21be f63a 0b3e ca5a ad3d 92d5 1c3e
000003f0: 87b9 ab3d 3527 083e 207b 603e 6166 783d

linears.4.bias f4 [50]
-1.990832e-07 2.18448e-07 7.874132e-08 -7.759193e-09 -1.9871959e-07 7.636369e-08 1.1348104e-07 1.6348645e-07
-3.9432905e-08 -5.8962137e-09 -2.3285118e-07 -1.6230688e-07 -5.7536024e-08 -1.8401356e-07 -4.318075e-08 4.7271907e-08
-4.1038712e-07 -2.2691339e-07 3.4410877e-07 -2.4202905e-07 -8.177239e-08 -2.961195e-07 -4.054744e-07 -1.2908644e-07
-3.9651513e-09 2.2382451e-07 7.328506e-08 -1.601348e-07 -4.591907e-08 -1.0787786e-07 -3.8250366e-07 -1.9559563e-07
1.3196671e-07 -3.283403e-07 -4.4682244e-07 -2.4368325e-07 9.751007e-08 -1.0791094e-08 1.89658e-07 2.229621e-07
4.088243e-08 1.0654361e-07 5.021866e-07 4.4479947e-08 -8.0940076e-08 3.7546548e-07 2.8338588e-08 -2.0944371e-07
1.8303926e-07 2.8569858e-07
00000000: 93c3 55b4 878e 6a34 8018 a933 4b4d 05b2
00000010: a05f 55b4 62fd a333 ddb2 f333 d08a 2f34
00000020: f05c 29b3 a597 cab1 a505 7ab4 9346 2eb4
00000030: 871d 77b3 4395 45b4 bd75 39b3 0308 4b33
00000040: 2d53 dcb4 7aa5 73b4 f3bd b834 38f0 81b4
00000050: d99a afb3 5bfa 9eb4 faaf d9b4 039b 0ab4
00000060: d73d 88b1 6a54 7034 e360 9d33 85f1 2bb4
00000070: 8d38 45b3 7baa e7b3 e75a cdb4 eb04 52b4
00000080: bcb2 0d34 bf46 b0b4 cfe2 efb4 92d3 82b4
00000090: ba66 d133 bc63 39b2 cba4 4b34 5b67 6f34
000000a0: b596 2f33 f8cc e433 00ce 0635 380a 3f33
000000b0: 47d1 adb3 9593 c934 376d f332 73e3 60b4
000000c0: 7389 4434 1d62 9934

linears.5.weight f4 [50, 50]
0.016032467 0.22185986 0.13442759 0.1686154 0.061667766 -0.008051499 0.072928496 0.12304179
-0.1593434 -0.08775513 -0.021169297 -0.1637117 -0.070430465 0.36432338 0.122330055 -0.17315044
-0.10791758 0.08717289 0.20584656 -0.0041922154 -0.16055319 0.22090659 -0.106280625 0.10291524
0.19257523 -0.008590531 0.18272105 -0.28739327 -0.014252618 -0.0954264 -0.039558012 -0.016404156
0.058518447 0.22932722 0.2727867 0.16508295 0.094069794 -0.17430305 0.14181112 0.09936352
0.02913534 -0.24568973 0.23536251 0.07039011 -0.16886833 0.2468316 0.23030302 0.11210922
-0.11133378 -0.042685788 -0.027207486 0.0093246335 0.04054578 -0.1434401 0.06315378 0.11979549
-0.110692024 0.12185174 -0.06288745 0.09375979 -0.018584982 -0.039865464 -0.21892229 0.12637722
-0.057707433 -0.26871234 0.03755025 -0.16429418 -0.077756315 -0.019021804 -0.064880714 -0.07156561
0.36187163 0.1079238 -0.22226381 -0.16110136 -0.323324 0.14654551 -0.11494018 -0.08831251
-0.25068212 -0.097830534 0.042067368 -0.2263095 0.20573898 0.04465923 0.037477143 -0.32611465
0.052542157 0.049628235 -0.23598924 -0.21379822 -0.108074516 -0.027673433 0.13819337 0.15512517
0.15895785 -0.30226928 0.03848651 -0.1871282 0.36481315 0.32830846 0.14791335 0.0015588956
-0.36512798 -0.010270825 0.018431716 0.34740925 0.08317118 0.101621695 0.07388733 0.037305623
-0.13413166 0.01851928 0.06029244 -0.008564617 0.11602601 -0.036651142 0.013599284 -4.2754134e-05
-0.20328902 0.075794056 0.26726857 0.19548512 0.16706803 0.027132075 -0.03882336 0.26372397
0.23442607 0.056356575 0.28902668 0.111963116 -0.096566275 -0.03813341 0.040856764 0.06684133
0.051771898 0.11268174 -0.03968673 0.17779171 0.09720404 0.07755093 0.1342879 0.13109747
0.18688005 -0.06384763 -0.057665613 0.10276264 -0.33217332 0.02739194 -0.18944223 -0.46007237
0.19064787 0.19353788 0.045197777 0.36673248 0.23488078 0.2170724 -0.007507643 -0.36023968
-0.028898781 -0.028294252 0.039575927 -0.033383075 0.04875795 -0.018201249 -0.0010261807 0.023155836
0.22566305 0.061148286 -0.009743923 -0.049222685 -0.07131871 -0.0346961 -0.1300153 0.20940469
0.18666671 -0.03130674 -0.01500378 0.13617966 -0.13859549 0.18687205 -0.09380807 0.11202804
-0.029409444 0.008034046 -0.46534207 0.03286749 -0.0362272 0.08799208 0.10973602 0.08140387
0.0015021575 0.028376814 -0.06305661 0.04231669 -0.077661395 -0.035891242 -0.09671229 -0.19682007
0.10518658 -0.10618842 -0.1732469 -0.15692373 0.0174604 -0.14296004 -0.10123291 0.11472612
-0.025284816 0.14171076 0.1066651 0.020466095 -0.0045650774 -0.09390626 -0.17549782 -0.017688412
-0.23043112 0.107014135 0.06974522 0.17008331 -0.21352677 0.08198054 -0.09590995 0.11329394
-0.05685612 -0.16445461 -0.05205026 -0.025975743 0.07290901 -0.16989361 -0.14871638 -0.027338397
-0.1572894 -0.0805726 0.1644203 -0.311117 -0.01904824 -0.10544053 -0.35736123 0.2026346
0.10257641 -0.2447731 0.12907918 -0.07450439 -0.08932748 -0.22521181 -0.06604796 -0.06837011
-0.21491015 -0.015757976 -0.019721247 -0.02176209 -0.045713525 -0.16360605 0.1243787 -0.19993778
00000000: 8556 833c 3b2f 633e 63a7 093e 84a9 2c3e
00000010: 5797 7c3d 6fea 03bc 895b 953d 56fd fb3d
00000020: eb2a 23be f6b8 b3bd 3c6b adbc 0aa4 27be
00000030: d93d 90bd 9888 ba3e 2e88 fa3d 594e 31be
00000040: e403 ddbd b387 b23d 71c9 523e da5e 89bb
00000050: 0e68 24be 5635 623e a8a9 d9bd 3ac5 d23d
00000060: 7132 453e 4cbf 0cbc 3a1b 3b3e 3625 93be
00000070: d083 69bc eb6e c3bd 9507 22bd 0262 86bc
00000080: 0ab1 6f3d c1d4 6a3e b3aa 8b3e 810b 293e
00000090: aaa7 c03d 807c 32be ef36 113e 1a7f cb3d
000000a0: 3dad ee3c 1796 7bbe df02 713e b128 903d
000000b0: d2eb 2cbe 6cc1 7c3e 8ed4 6b3e 8599 e53d
000000c0: f702 e4bd 4bd7 2ebd 3ce2 debc 59c6 183c
000000d0: 5513 263d f6e1 12be c556 813d 5657 f53d
000000e0: 80b2 e2bd 688d f93d 23cb 80bd 2205 c03d
000000f0: 883f 98bc f849 23bd 2a2d 60be 0869 013e
00000100: a15e 6cbd aa94 89be 4ace 193d bc3c 28be
00000110: b43e 9fbd 9dd3 9bbc 2ee0 84bd fe90 92bd
00000120: 3d47 b93e 2707 dd3d 2099 63be c1f7 24be
00000130: b98a a5be 0710 163e c265 ebbd 30dd b4bd
00000140: 6859 80be 605b c8bd d54e 2c3d adbd 67be
00000150: 3dad 523e 99ec 363d a281 193d 80f8 a6be
00000160: 7236 573d fa46 4b3d 2aa7 71be eced 5abe
00000170: 2c56 ddbd 65b3 e2bc 9082 0d3e 22d9 1e3e
00000180: d9c5 223e 0ac3 9abe 08a4 1d3d 899e 3fbe
00000190: cac8 ba3e 0c18 a83e 9976 173e db53 cc3a
000001a0: 0ef2 babe f646 28bc 1cfe 963c a0df b13e
000001b0: a755 aa3d 091f d03d 3e52 973d c8cd 183d
000001c0: cf59 09be bfb5 973c 35f5 763d 9b52 0cbc
000001d0: 0b9f ed3d 821f 16bd 88cf 5e3c e752 33b8
000001e0: ff2a 50be ea39 9b3d 6dd7 883e 402d 483e
000001f0: e213 2b3e 1644 de3c 3e05 1fbd d406 873e
00000200: 630d 703e 27d6 663d 4efb 933e eb4c e53d
00000210: 8ac4 c5bd c731 1cbd 6c59 273d 1be4 883d
00000220: c50e 543d afc5 e63d 8d8e 22bd 080f 363e
00000230: e912 c73d 06d3 9e3d c482 093e 6a3e 063e
00000240: 7c5d 3f3e 8cc2 82bd c732 6cbd 3875 d23d
00000250: 9f12 aabe 1065 e03c 25fd 41be 9b8e ebbe
00000260: 3239 433e cb2e 463e 4e21 393d 5cc4 bb3e
00000270: 9684 703e 3a48 5e3e ad02 f6bb 5671 b8be
00000280: 23bd ecbc 59c9 e7bc 5e1a 223d b1bc 08bd
00000290: 6bb6 473d c91a 95bc e980 86ba 4fb1 bd3c
000002a0: 3714 673e a076 7a3d faa4 1fbc ba9d 49bd
000002b0: 8b0f 92bd 7f1d 0ebd bb22 05be 2f6e 563e
000002c0: 8f25 3f3e 7f3b 00bd 6ad2 75bc ae72 0b3e
000002d0: faeb 0dbe 635b 3f3e 721e c0bd f56e e53d
000002e0: 13ec f0bc 3ba1 033c 5141 eebe 10a0 063d
000002f0: f962 14bd 3135 b43d 47bd e03d 12b7 a63d
00000300: 0be4 c43a 7e76 e83c d323 81bd 4454 2d3d
00000310: f00c 9fbd b202 13bd 1811 c6bd 338b 49be
00000320: 106c d73d 5079 d9bd a367 31be 9db0 20be
00000330: 1d09 8f3c 1e64 12be 3353 cfbd 87f5 ea3d
00000340: 1a22 cfbc a01c 113e 3b73 da3d 83a8 a73c
00000350: a596 95bb ed51 c0bd b3b5 33be 4ae7 90bc
00000360: 23f6 6bbe 3a2a db3d 95d6 8e3d 522a 2e3e
00000370: c3a6 5abe 6ae5 a73d 706c c4bd a706 e83d
00000380: f6e1 68bd ca66 28be a732 55bd 15cb d4bc
00000390: 5251 953d 97f8 2dbe 1b49 18be c6f4 dfbc
000003a0: 7910 21be 3f03 a5bd cc5d 283e ba4a 9fbe
000003b0: 0e0b 9cbc 34f1 d7bd 0df8 b6be 727f 4f3e
000003c0: 9513 d23d cda5 7abe 552d 043e c295 98bd
000003d0: 53f1 b6bd ed9d 66be 2744 87bd a105 8cbd
000003e0: 6811 5cbe df16 81bc 748e a1bc 6946 b2bc
000003f0: 1b3e 3bbd 5888 27be 43ba fe3d 7dbc 4cbe

linears.5.bias f4 [50]
-2.1373596e-07 -3.0717223e-07 2.7540983e-07 -7.8760415e-08 -2.0922151e-07 -1.1914797e-07 7.30976e-07 4.374446e-08
1.2117601e-07 6.769933e-07 1.639141e-07 -9.942738e-07 -2.2774448e-07 -8.516944e-08 3.068939e-07 -2.1726714e-07
5.859388e-07 1.5695062e-07 -2.168661e-07 4.6262002e-07 6.328882e-07 5.561197e-09 -5.037293e-07 1.4919571e-07
-1.0883408e-06 2.2850107e-07 6.362904e-07 1.8185914e-07 -4.5429456e-07 -5.9793095e-09 4.2071161e-07 9.856952e-09
1.5614984e-07 3.603017e-08 -2.9107525e-07 3.643683e-07 -4.260004e-07 3.5014327e-07 -6.125694e-07 4.4378572e-07
2.5377942e-08 1.00378635e-07 2.6873136e-07 -1.188615e-07 -6.483686e-08 -1.5423737e-07 -4.4922064e-07 6.851162e-07
7.8920084e-07 2.5045514e-07
00000000: 4b7f 65b4 6ee9 a4b4 0adc 9334 ff22 a9b3
00000010: 5fa6 60b4 4ade ffb3 4a38 4435 8be1 3b33
00000020: 9c1c 0234 a0ba 3535 5d00 3034 fd72 85b5
00000030: ed89 74b4 65e6 b6b3 2dc3 a434 f049 69b4
00000040: 6849 1d35 4286 2834 b3db 68b4 035e f834
00000050: bfe3 2935 ce14 bf31 0438 07b5 9b32 2034
00000060: 1b13 92b5 e559 7534 8bcd 2a35 0f45 4334
00000070: c5e5 f3b4 9072 cdb1 2ade e134 5557 2932
00000080: 24aa 2734 97bf 1a33 1445 9cb4 669e c334
00000090: 0db5 e4b4 53fb bb34 736f 24b5 7241 ee34
000000a0: affe d932 bd8f d733 2846 9034 cd40 ffb3
000000b0: 713c 8bb3 729c 25b4 6a2c f1b4 d4e8 3735
000000c0: 78d9 5335 4b76 8634
