Code/1D/SODE/tanh ALR/1D_SODE_tanhALR_high_5.pt (torch, 88297 bytes, 19 tensors)

linears.0.weight f4 [50, 1]
000000 b5 41 8a 3e fb fc b1 bd ea ed c1 bc 03 35 7f bd
       0.27003255 -0.0869083 -0.023673017 -0.062306415
000010 9c d9 8e bd 54 53 72 3d f1 f9 26 3d 99 3a ea bc
       -0.069750994 0.0591615 0.040765706 -0.028592395
000020 21 60 49 3e 24 71 a1 3e 19 d8 2b 3e 3a cb b6 be
       0.19665577 0.31531632 0.16781653 -0.35701925
000030 7c 41 42 3e 2e d8 3e 3e ed 87 62 bd 14 37 27 3e
       0.18970293 0.18637154 -0.05530541 0.16329604
000040 9f 23 7c bd 06 d4 4e 3e e4 40 dc bd 75 4b 59 3e
       -0.06155741 0.20198068 -0.107545644 0.21220191
000050 44 91 2e 3e b6 0a ba be a2 6d 2b 3e 75 8c 48 3d
       0.17047602 -0.36336297 0.1674104 0.048962075
000060 75 6b 31 be 1d 95 0a 3e ca 0e 81 3e 54 c0 36 be
       -0.17326148 0.13533445 0.25206596 -0.17846805
000070 d2 58 66 bd e3 5a c8 bc 76 eb 1c 3d 7d ef 79 3e
       -0.05623705 -0.0244574 0.03831049 0.24407764
000080 86 56 0e bc 47 cc 39 3d e4 14 78 be de e6 b6 3d
       -0.008687621 0.04536083 -0.24226719 0.08930753
000090 e3 eb c5 bb a7 a9 c2 3d 25 5f 04 3e a6 cc 71 3e
       -0.006040083 0.09505015 0.1292692 0.23613223
0000a0 1a e3 8e be fd 39 58 be bc ea 0c 3d 44 e1 38 3e
       -0.2790764 -0.21115871 0.034403548 0.18054682
0000b0 b4 84 18 be 65 f7 2d 3d dc 15 1f 3e ec 48 a0 3e
       -0.14894372 0.042472262 0.15535682 0.31305635
0000c0 a0 54 03 3e 01 c8 07 3e
       0.1282525 0.13259889

linears.0.bias f4 [50]
000000 5a 8f d8 3d 4a 3b 0a be 0c f8 90 3c 11 4d eb bd
       0.10574217 -0.1349918 0.017696403 -0.114893086
000010 97 46 a8 be d0 04 d0 bd 9d 14 fe 3d 43 91 c7 3d
       -0.32866356 -0.10157168 0.124062754 0.09744503
000020 7d 39 e1 3d f5 a5 95 3e bc 0c 00 3e 84 0e ab 3d
       0.10997293 0.29228178 0.12504858 0.08352378
000030 45 06 02 3e 93 4d 12 3e 10 60 52 3b d0 83 77 be
       0.12697704 0.14287405 0.0032100715 -0.24171376
000040 25 e7 0f 3e ae 26 eb 3d f2 31 9e be 6a 3a 62 3e
       0.14053018 0.11481987 -0.3089748 0.22092596
000050 7c e2 1e 3e d0 28 bf 3c cc ac eb 3d ea 3f 58 3d
       0.15516084 0.02333489 0.11507568 0.05279533
000060 37 fb 10 be e7 26 f7 3e b2 90 1d 3f fb 35 88 be
       -0.14158331 0.48271868 0.6154891 -0.26603684
000070 f0 e3 23 be 43 1e 13 be 0c 10 b1 3d 15 16 16 3d
       -0.1600492 -0.14367013 0.08645639 0.036642153
000080 20 17 81 bc 2c e0 a4 3d ff e8 cb bd f5 f2 06 3e
       -0.015758097 0.0805057 -0.0995655 0.13178618
000090 32 12 86 bd 0f 30 8c bd 99 df 42 3e bd 7e 80 3e
       -0.06546439 -0.06845104 0.19030608 0.25096694
0000a0 32 88 a5 3c 66 5e 88 be 24 c6 d1 bd 77 1e d8 bc
       0.020206545 -0.2663452 -0.102428705 -0.026381714
0000b0 4d a7 72 3e aa b1 0f be 6c 57 c8 3d c1 78 e9 3d
       0.23696633 -0.14032617 0.097822994 0.11399985
0000c0 b5 94 0e 3e 93 54 dc 3d
       0.13923915 0.10758319

linears.1.weight f4 [50, 50]
000000 e6 30 8a 3c ee 6f db bc cb 73 1b ba da ea 21 3d
       0.01686902 -0.02678677 -0.0005930035 0.039530613
000010 77 a6 92 be 4d d7 8b be 30 39 2d 3e a5 87 b5 bd
       -0.28642628 -0.273127 0.16916347 -0.08863763
000020 f8 d1 25 3e ff e7 35 3e e5 f5 04 3e ea 4f 68 bd
       0.16193378 0.1776428 0.12984426 -0.056716837
000030 49 8d b8 bc d6 85 9c 3d a2 7a fe bc 01 8f d1 bd
       -0.022528308 0.07642715 -0.031064335 -0.10232354
000040 d4 cc 19 3e f3 b9 a8 bc c2 83 22 3c cf b2 17 be
       0.15019542 -0.02059648 0.009919109 -0.14814304
000050 e7 8d f2 bc 9d e1 33 3e 7a b8 85 be 2b c4 27 3d
       -0.02960868 0.17566533 -0.26117307 0.040958565
000060 35 9f 1f bd 9d 89 05 be 56 0a c8 bc e8 2f 81 be
       -0.03897019 -0.13040777 -0.024418991 -0.25231862
000070 5e d9 9f 3d 9b b6 c7 bd 0e 1f 21 be 69 54 c2 3d
       0.078051314 -0.09751626 -0.15734503 0.09488756
000080 06 bf ab 3d 04 61 09 3e 31 76 01 3d 49 1d 2e be
       0.08386044 0.13415915 0.031606857 -0.17003359
000090 9b fe 20 3e e1 a0 4d 3e 5f 1a 89 3d 19 f7 6e bd
       0.15722124 0.20080902 0.06694483 -0.05834112
0000a0 60 1f 01 bc 85 a4 71 be f1 be 0a be 04 6a 2b 3e
       -0.007881016 -0.23597915 -0.13549401 0.1673966
0000b0 b5 84 96 bc 42 3e e1 ba bd 75 36 be d5 5a 55 be
       -0.018373827 -0.0017184692 -0.17818351 -0.20835431
0000c0 17 4c 37 be cb 6e 06 be 61 4d f1 bc 61 e1 81 be
       -0.1790012 -0.13128202 -0.029455842 -0.25367263
0000d0 9e 79 d9 3d f8 74 60 bd 60 66 c3 3d 2f df d3 3c
       0.106189 -0.05479905 0.09541011 0.025863258
0000e0 77 a7 49 3d 87 22 06 3d 80 e9 93 3e 61 7d 03 3e
       0.049231973 0.03274777 0.28889084 0.12840797
0000f0 6d 57 7e 3c de 94 8c bd 78 e5 29 3e 55 43 98 be
       0.015523774 -0.06864332 0.16591442 -0.2973887
000100 b6 45 67 bc 77 3e 6f bd 0a 65 a2 3d cb 03 b9 bd
       -0.0141157415 -0.05840918 0.07929428 -0.090339266
000110 96 d8 d6 3d a1 88 81 bd f5 bf 84 3e 65 e2 b1 be
       0.10490529 -0.06324888 0.25927702 -0.34743038
000120 f6 8d bd 3c 0e 09 90 be 17 6f b8 3d 41 33 d0 3d
       0.023138981 -0.28131908 0.09005564 0.10166026
000130 7c ed 40 bc e4 cb 30 3e a1 ea ac bd d9 ff 1c 3d
       -0.011775371 0.17265278 -0.084431894 0.038329933
000140 16 03 38 3e 9b 8f ac bd 62 c9 34 be e8 1d 01 3d
       0.17969927 -0.08425828 -0.17654946 0.03152266
000150 0b d5 74 3e a6 75 17 be 2b ce c2 3e 68 6b de 3c
       0.23909394 -0.14790973 0.3804792 0.027150825
000160 41 b6 bb bc 58 b6 58 be e4 df 46 3e 3f 1d 17 be
       -0.022914054 -0.21163309 0.19421345 -0.1475725
000170 38 cc ff 3b 14 41 28 bc 77 1b 1f be 68 3f 5b bd
       0.007806327 -0.010269422 -0.15537821 -0.053527266
000180 e8 d2 2b 3d 9a 28 08 be 5b 98 77 3e 78 f7 16 be
       0.041949183 -0.13296738 0.24179213 -0.1474284
000190 fb 7f 9c bd 50 be b8 3c 41 73 95 bd c2 26 95 3d
       -0.07641598 0.022551686 -0.072973736 0.07282783
0001a0 4c aa 69 bd 31 e9 16 3d 40 7f ec 3d e0 9c 05 3d
       -0.057047173 0.036843482 0.115477085 0.03262031
0001b0 4a 73 41 bc 72 e8 1c bd f5 06 47 bd 7e ad e2 bc
       -0.011807272 -0.038307615 -0.04859062 -0.027670618
0001c0 75 0a c6 be 25 47 9d be 20 94 87 3d da 2a cd 3d
       -0.38679853 -0.3071834 0.066200495 0.10017939
0001d0 79 21 40 3e 7c 97 f0 3d 41 e3 23 be cd 23 5e bd
       0.18762769 0.11747643 -0.16004659 -0.05423336
0001e0 78 fe 8a 3c 5f 06 0c 3c dd 19 30 bd 37 7a 46 3e
       0.016967043 0.008546441 -0.042993415 0.19382559
0001f0 c2 08 29 3d 9a 5c a6 be b2 9f e8 bc c7 87 f1 bd
       0.041268118 -0.32492524 -0.028396461 -0.117934756
000200 d3 3f 91 bc 1d 7c 9e bd 3a bb be bd ab ac fe 3c
       -0.01773063 -0.077385165 -0.093130544 0.031088194
000210 4c 9e 58 3d c2 89 18 be a4 3e 15 bc 70 89 c5 3d
       0.05288534 -0.148963 -0.009109173 0.09645355
000220 0e d2 2d 3e 17 f8 24 3e bd 64 22 bd be eb 19 be
       0.16974661 0.16110264 -0.039646853 -0.15031335
000230 bf bb 8d be 65 f2 97 3d 9c b5 86 be 36 53 ef bd
       -0.276823 0.0741928 -0.26310432 -0.11685793
000240 ff 89 a5 3d 10 23 90 bc a5 6d 34 3d 22 fa f0 3c
       0.08082961 -0.017594844 0.044049878 0.029416148
000250 05 65 11 be 4f f7 58 3c fc db f9 3c 0f bc 1b ba
       -0.14198692 0.013242557 0.030500405 -0.00059408037
000260 dc 37 71 3e df c1 f6 3d 8a 17 85 3c 58 2f 01 3e
       0.23556465 0.12048697 0.016246576 0.12615716
000270 97 c3 0a 3e 00 be 41 be 52 47 39 bd 84 5d 31 3d
       0.13551174 -0.18920135 -0.045234032 0.043302074
000280 73 30 bf 3d af 8d 87 3e b8 88 93 3c ca 41 ff 3d
       0.09335413 0.26475284 0.018009529 0.1246372
000290 da 93 8b 3d be 6e 9c 3d b7 0e cf 3d 54 b4 80 3e
       0.0681531 0.0763831 0.101102285 0.2513758
0002a0 2c a0 3d be b1 72 7f 3e 29 ff ab 3e 16 62 a5 3c
       -0.18518132 0.24946095 0.3359311 0.020188373
0002b0 7e e1 e7 bb 84 2c fd 3d 13 55 1e be c8 54 5c 3e
       -0.0070764413 0.12362006 -0.1546214 0.21516716
0002c0 fd 46 1c 3e 72 18 3f bd 6e 47 6d be e0 89 14 3e
       0.15261455 -0.046654172 -0.2317178 0.1450572
0002d0 ce 51 b3 bd 4c 3c 13 3e fa 1c 3f be 0d dd c3 3d
       -0.087558374 0.1437847 -0.18663397 0.095636465
0002e0 fe d7 38 be e1 19 51 3d 79 8a 88 3e 8d fb 14 3d
       -0.18051144 0.05105007 0.26668146 0.03637271
0002f0 34 90 c2 bd ad a6 d1 3d 53 5b 12 be e0 fb e1 3d
       -0.09500161 0.10236869 -0.1429265 0.110343695
000300 92 df 6c 3d 2c 4b f8 3c 42 fc 37 3c 08 cc 9c bd
       0.0578304 0.030309282 0.011229577 -0.076561034
000310 41 18 38 3d 9e 9c 3b 3e 21 d2 1f 3e de c9 28 bd
       0.044945005 0.18321463 0.15607502 -0.04120814
000320 21 66 8a be 22 5e e4 bc 01 77 45 3e 6e f8 c8 3d
       -0.27031043 -0.027876917 0.19283678 0.09813009
000330 50 83 06 3e b8 b2 3d 3e f3 9a b5 3d 7d 76 b8 3c
       0.13136029 0.18525207 0.08867445 0.022517437
000340 6f 4e 60 3c 2e cc 5b be e3 7e 4c bd 3a b7 c6 3d
       0.013690575 -0.21464607 -0.049925696 0.097029164
000350 23 c8 fc 3d 1d 0b 12 be 4f 83 a3 bc 60 81 04 3e
       0.123428605 -0.14262052 -0.019960074 0.12939978
000360 3c d3 ae bc 6c 90 75 3e 4b 42 8a be 3d ba 42 be
       -0.021340959 0.23980874 -0.27003703 -0.19016357
000370 d4 f8 18 3e 9d 9f 6b 3e 6c 39 67 bd 89 e1 1f bd
       0.1493867 0.23010106 -0.056451246 -0.039033446
000380 49 54 02 be 0e 49 bf be d1 4d d1 3d 01 08 f9 3c
       -0.12727465 -0.37360424 0.102199204 0.030399324
000390 1e 8d 4d 3e d8 e2 50 3d 27 81 22 3e 4e 76 be 3d
       0.20073363 0.050997585 0.1586958 0.092999086
0003a0 b4 9b ef bb 36 7e 25 3e 3e 64 92 3d bc 18 32 be
       -0.0073122624 0.16161427 0.07148026 -0.17392248
0003b0 15 45 69 bd 80 f0 dc 3d c7 62 ff bd a1 30 08 3d
       -0.056950647 0.10788059 -0.12470012 0.0332495
0003c0 84 68 fc 3d 1e 69 8b 3e 3e 2d 61 3d 56 fb 7c be
       0.12324622 0.27228636 0.054974787 -0.24705252
0003d0 e9 4c 17 bd db 2b bb 3d e4 4e b5 bd 29 e3 0c be
       -0.03693858 0.09139224 -0.08852938 -0.1375853
0003e0 e3 50 32 3e f8 de ab 3c dc 85 68 bd 96 0d 90 3d
       0.17413668 0.020980343 -0.056768283 0.07033841
0003f0 b3 c2 79 3e 32 dd 42 3d 28 25 c5 bd 8b 26 b6 bc
       0.24390678 0.04757423 -0.096262276 -0.022235176

linears.1.bias f4 [50]
000000 a8 91 8f 3e aa 6f 1a 3c f3 2d b2 bd 8f 1f 38 3e
       0.28040814 0.009426037 -0.0870017 0.17980789
000010 a8 0f 83 bd 5e 04 c3 3d 61 f3 9d bc 8d 09 bd bb
       -0.063994706 0.09522317 -0.019281091 -0.005768961
000020 b9 5b 92 bd 8b b4 c3 3d ba 83 16 bd 94 f5 80 bd
       -0.07146401 0.0955592 -0.036746718 -0.0629684
000030 52 65 12 bc 86 58 66 3d 86 db 80 3e 83 bc ca 3d
       -0.008935289 0.056236766 0.25167483 0.09899237
000040 0b b6 aa be 27 54 c0 3d 13 58 a7 bc 1d 83 20 3d
       -0.33342013 0.09391051 -0.02042774 0.03918754
000050 41 97 91 3d 7f f7 1a 3e ae 24 04 3e cb 10 05 3c
       0.071089275 0.15133475 0.12904617 0.00812168
000060 f5 43 52 3d 5d ab 21 3d 48 30 df 3b af 4d f2 bc
       0.05133434 0.039470065 0.0068111755 -0.029578058
000070 d4 d9 b9 3d ee cf d4 bc ab f7 1f be 34 94 e2 bd
       0.090747505 -0.025978055 -0.15621822 -0.11063424
000080 2f 77 0f be cb 7d ca bd 7a 6b 56 be bb 84 24 3d
       -0.14010309 -0.09887274 -0.20939437 0.040165644
000090 5d cc 33 be 65 f5 24 bd 83 e3 d2 3d 2b f9 79 3d
       -0.17558427 -0.04027309 0.10297301 0.06102864
0000a0 4f 41 c8 bc 36 56 45 3d 04 fd bf 3d 85 56 a5 bd
       -0.024445204 0.04817792 0.09374431 -0.08073143
0000b0 58 11 03 be 04 41 57 3d fd bc 9d bd 2f 5f 4c bd
       -0.12799585 0.052552238 -0.07702062 -0.04989546
0000c0 14 18 68 bd 04 52 bf 3e
       -0.056663588 0.3736726

linears.2.weight f4 [50, 50]
000000 cd 85 d1 bd 22 57 a3 bd ee 2f 62 bc ea 1e e3 3c
       -0.102305986 -0.07975604 -0.013805373 0.027724702
000010 60 83 a5 bd ef 4a c5 3d de 4d 0c 3d 09 0f 30 3e
       -0.080816984 0.09633433 0.034253947 0.17193235
000020 f0 3e 99 be 92 9f 90 3e 2a 7f 43 be e4 36 9f bc
       -0.2993083 0.28246742 -0.19091478 -0.019435354
000030 0a 1d 18 be a2 81 11 3d ea 73 1b be c1 0e 1d bd
       -0.14854828 0.035524018 -0.15180936 -0.03834415
000040 2b 62 1e be 46 3e 24 3d 87 ca 79 bc 98 1e 4f 3e
       -0.15467136 0.04009845 -0.01524604 0.20226514
000050 f2 3a a2 bd 2f eb f1 3d ea 21 9c 3d 19 fb a8 3d
       -0.07921399 0.11812436 0.07623656 0.08251018
000060 be a5 a2 bd fb 93 11 3e 9b 29 44 3d ea 30 f2 bc
       -0.07941769 0.14216606 0.04789124 -0.02956434
000070 31 5b 57 3d 2f d3 fa 3d d2 0d 19 be 36 75 99 bc
       0.0525772 0.12247311 -0.14946678 -0.018732648
000080 ab 92 2a be 1a c9 b0 bd fb 31 d8 3c 1d ea 62 3e
       -0.16657512 -0.08632107 0.02639102 0.2215962
000090 fb 27 0f 3a f8 79 60 be 51 85 a4 bd ab a0 5d be
       0.00054609746 -0.21921527 -0.080332406 -0.21643321
0000a0 f8 80 c1 3d 5a 19 11 3e 62 3f 6b bd 1c fd 8f 3e
       0.09448427 0.14169827 -0.057433493 0.28122795
0000b0 91 e6 81 bd 62 23 4d be d4 c7 61 3e 2b 02 1e be
       -0.06342805 -0.20033029 0.22048885 -0.15430515
0000c0 cd 21 72 3c 8e 67 94 3d ee c9 b8 bd c1 c1 34 3e
       0.014778567 0.07246314 -0.0902289 0.17652036
0000d0 ed b1 da bd d8 75 2b bc bf 72 9a 3d 8a 88 07 be
       -0.10678468 -0.010465108 0.07541417 -0.1323568
0000e0 91 2a 50 bd 43 d8 78 be a3 48 a1 be 67 f0 b1 be
       -0.050821844 -0.24301247 -0.3150073 -0.34753725
0000f0 f3 57 99 3d 33 b3 59 3e 73 d5 7c 3c 57 2a cd 3d
       0.07487478 0.21259765 0.01543175 0.10017841
000100 ff ee 25 3e a8 e8 18 3e 41 79 b8 3e b2 c0 1d be
       0.16204451 0.14932501 0.3603001 -0.15405539
000110 7d 9d 3f bd c4 2c 94 3d 56 ee a2 bd b0 a7 98 3c
       -0.046781052 0.07235101 -0.07955615 0.018634647
000120 8e 8d 73 3d 74 8a d0 bd df 65 89 be 50 b3 19 bd
       0.05946117 -0.10182658 -0.26835534 -0.03752452
000130 f9 ef d3 3d ad 59 f1 3d d8 e4 00 3d a1 54 ad bc
       0.103485055 0.117846824 0.031468242 -0.021158518
000140 79 5b a6 bd 85 29 2e be 2b 1d 07 3e c8 62 23 bc
       -0.08122916 -0.17008026 0.1319472 -0.009972282
000150 83 f8 63 bd 06 95 85 3c 57 3a fb 3d 6e 54 42 bd
       -0.05565692 0.016306411 0.12266987 -0.0474438
000160 13 34 30 3d f3 d3 f0 3d 61 9c 22 be f9 dc 97 3d
       0.04301841 0.11759176 -0.15879966 0.07415194
000170 af d7 97 3e 02 28 5f be e0 93 f4 bd 28 7b 28 bd
       0.2965674 -0.21792606 -0.119422674 -0.041133076
000180 b9 b3 03 bd 86 18 fe 3d cc 15 ea bb 9d fe ac 3b
       -0.03215382 0.12407021 -0.0071437117 0.0052793757
000190 31 d3 b3 3d 3f dc 55 bd f6 e7 4b be 3c 97 19 3e
       0.08780516 -0.052211996 -0.19912705 0.14999098
0001a0 66 07 8d be c8 74 49 3c 24 61 e1 3d 48 cc 02 3e
       -0.27544707 0.012295909 0.11004856 0.1277324
0001b0 ad b6 0d 3e ea 12 b3 3d c8 28 33 be 2a 1a 1e 3e
       0.13839217 0.08743842 -0.17496026 0.15439668
0001c0 b6 62 ee bc 30 e2 d0 3d e0 96 29 3d 2b 1f 27 3b
       -0.029099803 0.10199392 0.04140365 0.0025500755
0001d0 01 8b 80 bd ec c8 1a be 26 e2 8f bd 1b 3b f5 3c
       -0.06276513 -0.15115708 -0.07025556 0.02993541
0001e0 fe 36 97 3d ba 9b cf 3d 0e 08 03 3d 1a 53 87 bd
       0.07383536 0.10137124 0.031990103 -0.06607647
0001f0 d1 a4 1e 3e de 65 31 bd 01 65 df bd 20 6a f4 bd
       0.1549256 -0.04331004 -0.10907937 -0.11934304
000200 ad 26 f1 3b 78 52 c5 3d 89 03 36 3e 72 46 87 bc
       0.007359347 0.0963487 0.17774786 -0.016513083
000210 d4 a6 95 3e 67 d3 f5 bd f5 39 65 3d b5 cd 38 3b
       0.29228842 -0.120032124 0.055963475 0.0028198783
000220 f6 de 22 bd ee 8f b3 bd fa 58 01 3e fb e6 15 bd
       -0.039763413 -0.08767687 0.12631598 -0.036597233
000230 54 83 f5 3d 60 25 cb bd 38 55 64 3e 19 44 1a 3d
       0.119879395 -0.09919238 0.22298133 0.0376626
000240 95 3a 2f 3d 98 ae a7 bd bc 5c b4 3d ce 01 36 3e
       0.042780478 -0.08187598 0.0880675 0.17774126
000250 86 86 f6 3c d5 95 57 bd bd b1 fe 3c 7d d5 82 bc
       0.030093443 -0.052633125 0.031090612 -0.01597094
000260 62 87 3a be 2e 70 95 3e d3 5c c0 bd f1 9c c8 bd
       -0.18215707 0.2918715 -0.09392705 -0.09795559
000270 7d 6f 2f be 11 dc 79 3d b1 2a 47 3c cc 2d 5f be
       -0.17132373 0.061000887 0.0121561745 -0.21794814
000280 5f 13 46 bd cb 37 0e be 2a c1 9f 3e a1 20 ba bd
       -0.048358317 -0.13888471 0.3120206 -0.09088255
000290 f6 9c c0 3c 95 b1 51 3d 8d 17 1e be b8 7f 95 3d
       0.023512345 0.051194746 -0.15438671 0.07299751
0002a0 99 8c 2d be d3 35 2d be 84 bf 5a 3e 1d bd a4 bd
       -0.16948165 -0.16915064 0.2136212 -0.08043883
0002b0 af ea 02 3e b8 7e 73 3d 45 ac d6 3d 1e d7 ae bd
       0.12784837 0.05944702 0.104820766 -0.08537124
0002c0 05 2c 22 be 11 b7 49 3b 18 90 a1 3c 0b 2e b3 be
       -0.15837105 0.0030779282 0.01972203 -0.34996065
0002d0 ea b1 4c bc 5c 99 a3 bd 40 97 91 be 4b 0b 19 be
       -0.01249359 -0.07988235 -0.28435707 -0.14945714
0002e0 c8 3c e4 3d 2e e3 fc 3c cd 83 59 be 9c c5 d8 bd
       0.111444056 0.030870046 -0.21241684 -0.10584566
0002f0 45 50 88 3d 70 b4 12 3e 77 fd af bc 8e cf 87 3e
       0.06655935 0.14326644 -0.021483166 0.2652554
000300 62 5b 5f be ab 19 33 be 97 f8 4c bd 3a 99 27 3e
       -0.21812204 -0.1749026 -0.05004176 0.16367045
000310 25 9b f0 3b a2 9e c6 3d c9 c8 03 ba 51 08 18 bd
       0.0073427134 0.096982256 -0.0005027173 -0.037117306
000320 54 9e c0 3d 71 1f 97 bd e6 9d 26 3e 7d aa 90 3d
       0.09405199 -0.07379044 0.16271171 0.07063768
000330 1c 14 a3 3d ac a1 0e 3e da 63 48 3e 67 42 6e 3d
       0.0796282 0.1392886 0.1956934 0.058168795
000340 8c 16 14 3e 5e d2 0c 3e 1f 2f 7c be e3 99 cb 3d
       0.14461726 0.13752124 -0.2462735 0.09941461
000350 74 6f 1b 3e bc 98 ed bd 4d 3a f9 3d 6e c9 d1 bd
       0.15179235 -0.116013974 0.12169323 -0.10243498
000360 65 e7 b9 3d bd 35 9b 3e 8d ac 7f bd 89 ba 3f 3e
       0.09077338 0.30314437 -0.062420417 0.18723501
000370 a7 f5 a6 3c 3a 8c 81 bc f6 2a b0 bd c3 3f 16 3e
       0.020380808 -0.015813936 -0.08601944 0.1467276
000380 8b 6a b2 3d 36 17 3d bc aa b1 0b 3e 25 50 33 be
       0.08711728 -0.011541178 0.13641992 -0.17511041
000390 32 21 d3 3d 35 a7 48 be 87 ed bf 3d 12 ce 5f be
       0.10309066 -0.19595034 0.093714766 -0.21855953
0003a0 cd e5 69 3e 45 1a a7 bc 5f 26 88 bd 2f 98 87 3e
       0.22841568 -0.020398268 -0.06647944 0.26483294
0003b0 e3 9d 9e 3c 92 05 19 3e d5 c2 f2 3c 76 a4 47 be
       0.019362396 0.14943531 0.029633919 -0.1949633
0003c0 52 65 e8 3c 46 06 34 3c be 15 ac 3d 87 b4 27 3d
       0.028368626 0.010987824 0.084025845 0.04094365
0003d0 fe cc ac bd c2 ea 58 be 83 7e 89 be a6 83 26 3e
       -0.08437537 -0.21183303 -0.26854333 0.16261157
0003e0 83 2f 21 be f3 e9 65 3c 1a fe 0b 3e f3 9a 62 3c
       -0.1574078 0.014032829 0.13671151 0.013830888
0003f0 4e 57 ed bd 49 29 07 3e 8f 7e 0d 3e c2 35 6b bd
       -0.11588918 0.13199343 0.1381781 -0.057424314

linears.2.bias f4 [50]
000000 30 c3 aa 3d 64 c6 2e bd b2 33 a8 bd 99 80 34 bc
       0.0833801 -0.04266967 -0.08212985 -0.011016988
000010 a3 ab 12 bd 4a 83 07 3e e0 6f 36 bd b5 5d c1 3d
       -0.035808217 0.13233677 -0.044540286 0.09441701
000020 9c 2a 14 bd 46 b4 96 3c 32 b5 1c 3d 69 ca e9 3d
       -0.036173448 0.018396508 0.03825874 0.1141556
000030 cc 06 17 3d 13 90 67 bd b1 98 52 bd 7c 5c 6a bc
       0.036871716 -0.056533884 -0.05141515 -0.014304277
000040 86 7f 23 3d 10 2c f2 3c ae 49 2d bd 31 58 5f 3c
       0.039916538 0.029562026 -0.042306595 0.013631866
000050 23 60 49 bd c2 de 72 bd 88 2c 65 bd 1a 9b d9 3c
       -0.04916395 -0.05929447 -0.05595067 0.026563216
000060 2d a9 c2 bc a9 fb 97 3d 97 a7 23 3e ab 34 a4 bd
       -0.02376231 0.07421047 0.15981899 -0.08017858
000070 c7 27 6f 3c b8 6a dc 3a 52 50 ff 3d 1e 7a 98 3d
       0.014596886 0.0016816473 0.12466492 0.07445167
000080 81 84 fb 3d 39 67 00 3d bc 59 c0 bd 2a d7 93 3c
       0.122811325 0.03134844 -0.093921155 0.018046934
000090 54 e5 a2 bc 67 0f d3 3c 1c 56 e5 bc d9 41 cb bc
       -0.019884743 0.02576418 -0.027995162 -0.024811672
0000a0 06 08 11 bc 64 0f b5 bd 87 8f 8e 3b 73 57 43 bd
       -0.008852011 -0.08840826 0.004350606 -0.04769082
0000b0 1d bc 65 3d a9 7c 19 3d fc 6b 1a bd 74 1a 62 3d
       0.056087602 0.0374724 -0.03770064 0.05520101
0000c0 62 52 7a 3e 90 04 12 3e
       0.24445489 0.14259553

linears.3.weight f4 [50, 50]
000000 4b b0 95 3d d7 b0 aa bc 95 17 d7 bd b2 04 0d be
       0.07309016 -0.020836277 -0.10502545 -0.13771322
000010 79 e0 9b bd b7 a0 a2 3d 2e 51 12 3d fa 00 c2 3c
       -0.07611174 0.0794081 0.03572195 0.023682106
000020 f7 6a 74 3e d7 21 52 be fa 84 36 3e d4 9a 66 bd
       0.23868929 -0.20520721 0.17824164 -0.0563
000030 a4 c6 5a bc df 85 46 3e 1e f1 c3 bd cd 2c 89 3d
       -0.013353024 0.19387005 -0.09567474 0.06697998
000040 d0 29 ca 3b 2c 04 82 bc d4 3c 99 be a7 f6 24 be
       0.006169535 -0.01587113 -0.2992922 -0.16109715
000050 55 c6 68 be cf b4 86 be 90 93 83 be ec 49 03 3e
       -0.22731908 -0.2630982 -0.2569852 0.12821168
000060 2b b8 ab be 09 a6 23 3e 2c 21 17 3e 82 8a 4b 3e
       -0.33538947 0.15981306 0.14758748 0.19877055
000070 1d 46 12 bd 09 b5 a2 3d 30 4c 97 3c b8 67 70 bd
       -0.035711396 0.07944686 0.018468946 -0.058692664
000080 66 77 ac be 8f 88 81 bc 48 fb f4 bd 6c 16 57 bd
       -0.33684844 -0.015812187 -0.119619906 -0.052511618
000090 5d 64 5e bc a4 48 fe bc 17 d3 66 3e db b5 81 3d
       -0.013573733 -0.031040497 0.22541462 0.06333514
0000a0 ef 29 0c be d7 e5 59 3d e3 9a e7 3b 72 23 c3 bd
       -0.13687871 0.053197708 0.0070680245 -0.09528245
0000b0 f5 99 30 bc d5 24 04 3e 1f 77 c8 3d 66 ca 7b bd
       -0.010778894 0.12904675 0.097883455 -0.06147232
0000c0 73 00 fb bd 5e 82 2b 3e bf f9 8a bc e4 38 88 3c
       -0.12255945 0.1674895 -0.016964791 0.01662869
0000d0 58 63 df bd e0 3d 3a 3e 7d 72 97 3e 89 b7 0c be
       -0.1090762 0.18187666 0.29579535 -0.13741888
0000e0 68 3e ee bb a2 21 00 3e 15 3d 10 be 30 db 5e be
       -0.007270623 0.1251283 -0.14085801 -0.21763301
0000f0 5d c6 9e 3d 97 29 19 3c 3a 98 92 3d a0 7e cd bd
       0.077526785 0.009348295 0.07157941 -0.100339174
000100 8c 1b e3 3c 1a 34 75 be 4f f9 58 bd 44 09 0a be
       0.027723096 -0.23945656 -0.052972134 -0.13480097
000110 09 a6 ee 3c 8f 02 4b bd eb 14 f6 bd 7c a8 d1 3d
       0.029131906 -0.049562987 -0.120157085 0.10237214
000120 e1 be d0 3d 5e 2b 5a 3e 21 9b ea bd 86 a4 49 bc
       0.10192657 0.21305606 -0.1145537 -0.012307292
000130 f2 cc 83 bd e3 8e 88 bd 4c ab 46 3d 5c 3a 09 bd
       -0.064355746 -0.066678785 0.048503205 -0.03350292
000140 f5 f5 0b 3e ee 76 79 be d8 2a 29 3e 38 03 18 3e
       0.13668044 -0.24361774 0.1652025 0.14844978
000150 71 75 82 3b 45 fa e5 3d cf 1f 77 bc 70 2d 11 3e
       0.0039812853 0.11229376 -0.015083267 0.1417749
000160 9f d0 84 bd 5a d4 7a 3e b8 7a dc bd e5 8e 1e 3e
       -0.06485104 0.24495068 -0.10765594 0.15484197
000170 60 d4 9b 3d 31 ab 75 3b fa c4 47 3d 25 71 3e 3e
       0.07608867 0.0037486071 0.048771836 0.18597849
000180 7c ee c4 be 74 b1 86 bd fc 54 28 3e 96 f3 62 bd
       -0.384632 -0.06576815 0.16438669 -0.055408083
000190 26 da 7e be e8 e8 9b 3e 5d e4 4e 3e 02 ee 30 3c
       -0.24887905 0.3045113 0.20204301 0.010798933
0001a0 20 16 8d 3c a3 44 8d be e2 4f a3 bd 5f da 0d bc
       0.017222464 -0.27591428 -0.07974221 -0.008658021
0001b0 76 f5 72 bd a1 0d 21 bd 4f 0e 1f 3e 71 70 ab bc
       -0.05931612 -0.03931964 0.15532802 -0.02092764
0001c0 94 97 55 3d 94 81 81 bd 40 2e 01 bc 36 c5 83 bb
       0.05214651 -0.06323543 -0.007884562 -0.004021312
0001d0 f8 f1 fd ba 38 fb 1c be f8 e7 e5 3d 2a 23 ca 3c
       -0.001937448 -0.15330207 0.11225885 0.02467497
0001e0 90 8f d6 bd dc 2a 48 3d 8f e1 d0 bd 0e 44 fd bd
       -0.10476601 0.048869 -0.10199272 -0.12366496
0001f0 08 04 6e be 5b fd f2 3d 15 0a 82 3c 82 69 81 bd
       -0.23243725 0.1186473 0.015873948 -0.06318952
000200 06 78 99 3d de e8 17 3e 34 0e ba 3c 73 4f eb 3c
       0.07493596 0.14834926 0.02271185 0.028724408
000210 27 de 3e 3e e6 d4 b6 bd 1a ce 81 3d 5f 51 2b 3e
       0.18639432 -0.08927326 0.06338139 0.1673026
000220 3b 5a 8f 3d a5 9d 6d 3e 3a 7e 88 bd b9 72 67 be
       0.06999632 0.23204668 -0.06664701 -0.22602357
000230 26 8a 0f 3e 3f bb 4b be cc 7f 8d 3d 58 c1 82 3b
       0.14017543 -0.19895647 0.06909141 0.0039903335
000240 fc f1 fa 3d 62 b7 59 bc b6 5f 6d 3d 40 a9 56 3d
       0.12253186 -0.013288351 0.057952605 0.052407503
000250 57 a3 80 3c 51 77 82 be 1c c3 4a 3d b4 ff 3b bd
       0.015702887 -0.25481656 0.049502477 -0.045898154
000260 b8 d4 f9 bd f0 ca cd 3d de 0f af bd 38 5f d2 bd
       -0.12198776 0.10048473 -0.08547948 -0.10272068
000270 c7 c5 19 3a 9d 79 92 bd 47 1c 78 3e 81 63 ea 3d
       0.0005865958 -0.07152102 0.24229537 0.1144476
000280 d2 27 34 be d9 a4 26 3e 06 5a f8 3d 4f 45 9f 3e
       -0.17593315 0.16273822 0.121265456 0.31107566
000290 2d 17 b2 3d 6b ec 13 3d a3 fe 55 3e 3d a0 82 3d
       0.08695827 0.036114138 0.20897917 0.06378219
0002a0 cc 52 06 3e 0d 44 e4 bc 79 ae 85 be 9a b5 d0 bc
       0.13117522 -0.02786448 -0.26109675 -0.02547722
0002b0 dc 05 27 bd eb 15 73 be 43 40 21 be 07 ec 5a bd
       -0.040777072 -0.2373883 -0.1574717 -0.05344775
0002c0 05 5f 71 3d 4d 3b 29 bd ab 2d a0 bd 71 ef 9d 3b
       0.05892851 -0.04131632 -0.078212105 0.0048198034
0002d0 53 0c 09 bc ed 3a c9 bc 80 f2 05 3e 2e d9 20 be
       -0.008364755 -0.02456423 0.13080788 -0.15707847
0002e0 c5 76 11 bb 07 95 2a bb 8e 4b 11 be de 5c c9 bc
       -0.0022196036 -0.0026028769 -0.14188978 -0.024580415
0002f0 01 26 a6 bd e8 c3 6d 3e f8 74 0a bd a5 17 c6 bc
       -0.081127174 0.23219264 -0.033802956 -0.024181196
000300 f9 ae a2 bb 06 6a 80 3e ca 0a f2 3d 92 39 b4 3a
       -0.004964706 0.2508089 0.11818464 0.0013750067
000310 54 76 fd 3a 0d 9f ea 3c 53 21 26 be 2b c4 a2 3c
       0.0019337633 0.028640294 -0.1622365 0.01986893
000320 43 e1 ea 3d c4 32 cf bd 94 e2 e3 3d 51 ae 92 bd
       0.114687465 -0.10117105 0.11127201 -0.071621545
000330 0f 88 cd bd 55 ce 29 3e dd 41 ee bc 55 c7 7e be
       -0.10035717 0.16582616 -0.02908414 -0.24880727
000340 b2 f3 8b be 46 98 45 3c 26 62 ca 3d 80 36 a6 bd
       -0.27334362 0.012060231 0.098820016 -0.08115864
000350 5b 93 bb 3d 2b 72 0d be f7 77 9e bd cc 86 2b 3e
       0.09158965 -0.13813083 -0.07737725 0.1675064
000360 e0 16 02 3e c7 12 6f 3d 8e 98 d7 bd 50 3a a6 bd
       0.12704039 0.058367517 -0.10527144 -0.08116591
000370 ea bb d9 3d 59 22 51 3d 99 38 1d 3a dc 08 64 bd
       0.10631545 0.051058147 0.00059975084 -0.05567251
000380 d4 eb 9c 3c a8 0e 11 3c 54 9d 9b 3d ee 24 db bd
       0.01915542 0.008853592 0.07598367 -0.10700403
000390 0a 69 0e 3e 7d ec 95 be 2e 64 07 3e ad be 24 3e
       0.13907257 -0.2928199 0.1322181 0.16088362
0003a0 f6 75 97 3d 05 ba 61 3e 9a 45 cf 3d 92 98 bf 3d
       0.07395546 0.22043617 0.10120697 0.09355272
0003b0 a9 75 be bd 7d e2 8a 3c 9c a2 04 bd 6f a6 ce be
       -0.09299786 0.016953701 -0.03238164 -0.40361354
0003c0 36 c9 45 3d 7b 11 08 bd 73 63 5c 3e 97 66 21 3c
       0.048287593 -0.033219796 0.21522312 0.0098511195
0003d0 a2 3d f1 bc 88 80 c6 3d 54 b5 d3 bd fa ae 89 bc
       -0.029448334 0.09692484 -0.1033732 -0.016807068
0003e0 d3 a3 27 3e 8d 6d e2 bd f4 4a e1 3d e2 d0 34 bd
       0.16371088 -0.110560514 0.11000624 -0.04414452
0003f0 f8 de eb 3d 02 ca bc 3d d3 76 45 3e 0a f2 f8 3d
       0.11517137 0.092182174 0.19283609 0.1215554

linears.3.bias f4 [50]
000000 12 db 0a 3d 07 cd ab 3b d8 11 64 bd b5 66 e9 3d
       0.033900328 0.005242947 -0.05568108 0.11396543
000010 33 38 8d 3d ff 88 cd 3c b7 91 d2 bc 8a bf 23 3d
       0.06895485 0.025089739 -0.025704248 0.039977588
000020 ee e5 db 3d 22 d7 85 bd e4 a5 e8 3c 43 38 0d bd
       0.10737215 -0.06535174 0.028399415 -0.034477483
000030 bb c1 7e bd 41 6b 4f 3d cd cb 2b 3e 3f 84 c1 3c
       -0.062196475 0.050639395 0.16776963 0.02362263
000040 60 0e ba 3d 13 20 5f 3c d8 af e8 3d 1e 22 f2 bd
       0.09084773 0.013618487 0.113616645 -0.118229136
000050 8f ee 53 3d 42 26 b4 bd 67 8a 73 3c 23 47 a8 3c
       0.05174118 -0.087963596 0.014864541 0.020541733
000060 ee 0c 32 3c 36 15 1c bd 5f 06 2a 3c 45 ce 6c bb
       0.0108673405 -0.038106166 0.010377496 -0.0036133688
000070 6f 5f 96 3d b9 ee 06 3e 34 b4 85 bd cf c3 ec bc
       0.07342421 0.13177003 -0.06528512 -0.028901963
000080 a4 e8 cb bd 1b 44 8b 3c c4 d8 2b bd 61 06 0b bc
       -0.09956482 0.017000249 -0.04195477 -0.008485408
000090 9d 0d e6 bc 86 82 d9 3d c9 99 f7 bc 55 65 ca bd
       -0.028082663 0.106205985 -0.030224698 -0.09882609
0000a0 61 47 cd bd 94 af d8 3c 36 8d 9f 3d 99 0e c0 3d
       -0.1002338 0.02645091 0.07790606 0.09377784
0000b0 f7 68 0f 3e 0f 0d a3 3c 16 f1 80 bd 64 1c 7a 3d
       0.14004885 0.019903688 -0.062959835 0.06106223
0000c0 bb 6c 0c 3d 82 c1 db bc
       0.03428338 -0.02682567

linears.4.weight f4 [50, 50]
000000 7d 6f 8b bc 26 65 85 bd 24 bf 51 3e f4 bf 15 3d
       -0.017020935 -0.06513433 0.2048307 0.036560014
000010 b9 75 6e 3e bf 85 29 be 68 56 3d 3e 20 5b d9 3c
       0.23287095 -0.16554926 0.18489993 0.02653271
000020 42 4d 24 be ae 45 15 3d 1a d5 2a 3e 56 9a d6 3d
       -0.16045097 0.036443405 0.16682854 0.10478656
000030 6e 52 a3 bc 73 ba b8 3d 8e 44 08 be 49 41 8d 3e
       -0.019936766 0.09019937 -0.13307402 0.2758887
000040 0a e3 23 be db 12 97 3d c6 d3 80 3c 52 ee d3 3c
       -0.16004577 0.07376643 0.015725981 0.025870476
000050 4a 08 77 3e 85 ed 5a 3e 22 b7 32 3e a6 ba 0b 3e
       0.24124256 0.21379669 0.17452672 0.1364542
000060 88 59 f2 bd ee f0 6a 3e b2 9d 12 3e 1f ec 53 bc
       -0.11833483 0.2294347 0.14317968 -0.012934714
000070 5a 30 89 bd de b2 d7 3c 1e 0d ea bc 11 95 35 3d
       -0.066986755 0.026330408 -0.028570708 0.044331614
000080 be 35 54 bd e8 88 58 3e 4d cd 09 be f6 9d c0 3d
       -0.051809065 0.21145976 -0.13457222 0.09405129
000090 e0 54 3c be 0b d9 b0 bd 13 13 6d bd 29 d3 90 3d
       -0.18391752 -0.08635148 -0.05787952 0.070715256
0000a0 62 d1 29 bd a4 c1 85 3c 50 33 aa 3d e6 47 18 bc
       -0.04145945 0.016327687 0.08310568 -0.009294486
0000b0 61 75 2e be 8d 2e 0e be c7 e4 ec bc 90 a2 f5 bd
       -0.17036964 -0.13884945 -0.028917683 -0.11993897
0000c0 aa 21 ad bc 24 8e e4 3d b0 d8 c8 bd eb 48 33 bd
       -0.021134216 0.11159924 -0.09806955 -0.043770712
0000d0 5e 3f 9b 3c 8e 04 cd bd 69 7b 9e bd 1e 0d 04 bd
       0.018951114 -0.10010634 -0.07738382 -0.032239072
0000e0 fc e7 8a bd 9d c8 e9 3d fa e6 38 3d 38 08 8a be
       -0.06782529 0.11415217 0.04514215 -0.26959395
0000f0 34 3f 30 bc 3f 2b 10 3e c3 b9 c2 be 05 04 82 be
       -0.010757256 0.14078997 -0.3803235 -0.25393692
000100 c5 6b 18 3e 7e a5 04 3e c2 73 6d bd 85 a7 cd bd
       0.14884861 0.12953755 -0.057971723 -0.100417174
000110 6b 4d 23 3d 8a 56 b8 bc a0 5a e7 bd 6b 30 1e 3d
       0.039868753 -0.022502203 -0.11296582 0.038620394
000120 79 0b 83 bd d9 c7 fb bd 72 9e d5 bc dc 6e af bd
       -0.063986726 -0.12293977 -0.02607653 -0.085660666
000130 96 a3 0c bd 45 9a 9e 3d d4 c6 81 3d b6 42 1b 3c
       -0.034335695 0.07744268 0.063367516 0.009476354
000140 82 b6 ef 3c d0 65 85 3c c1 29 5a be d7 da de 3d
       0.029261831 0.0162839 -0.2130499 0.10881584
000150 71 b6 1b bc 17 17 24 be 4b 0f cc 3d 7d bb 07 3d
       -0.009503947 -0.16024433 0.099638544 0.033137787
000160 d7 46 49 3e 12 a2 cd 3d de 45 15 3e 07 be 8b 3d
       0.1965593 0.10040678 0.14577433 0.06823354
000170 48 91 ba bd 50 17 1a bc 47 d8 35 3d 73 d6 99 3d
       -0.091097414 -0.009404972 0.04439571 0.07511606
000180 30 5c 03 3e a3 6f fa 3d 13 90 06 3d 0b ca 42 be
       0.12828135 0.12228324 0.032852244 -0.19022386
000190 7f 92 4c 3d 7c a8 5a 3e 91 6b ce bd 95 51 06 3e
       0.049944397 0.21353334 -0.100791104 0.13117059
0001a0 be b4 7f 3d a2 6e 73 be 24 94 9b bc 09 2f db bd
       0.06242823 -0.23772672 -0.018991537 -0.107023306
0001b0 fb 42 4c 3e a6 89 72 be 19 72 e4 3d 6e f2 3f be
       0.19947426 -0.23685321 0.11154575 -0.18744823
0001c0 68 27 2e 3e 39 4a c4 be 60 1d 35 be da 66 8c 3e
       0.1700722 -0.38337877 -0.17686987 0.2742222
0001d0 f1 35 f5 bd 3a d3 a7 bd b4 f3 c3 bd 29 1c 78 be
       -0.11973179 -0.08194585 -0.09567967 -0.24229492
0001e0 ac db d3 3d 69 d2 0c 3d 41 76 61 3e 75 71 df 3d
       0.103446335 0.03438035 0.22017767 0.10910312
0001f0 78 c1 49 3e 32 19 32 3e 07 44 8d bc 51 04 94 3b
       0.19702709 0.17392424 -0.017244352 0.004517116
000200 d4 b3 9d 3d de 94 a9 bc 73 d9 9a bd 3c c6 ec bc
       0.07700315 -0.020700868 -0.075610064 -0.02890312
000210 73 eb 2c be ae 06 b3 3c b7 a6 38 be 11 fd 16 bd
       -0.16886692 0.021853771 -0.18032347 -0.036862437
000220 1b bc 07 3e 59 00 01 3e 9d 05 e5 bd fa 39 46 39
       0.1325535 0.12597789 -0.11182711 0.0001890435
000230 3c 30 41 be a4 6a d4 3d 52 96 5b 3d 73 28 81 be
       -0.18866056 0.103719026 0.053610153 -0.25226173
000240 83 59 7e 3d bc ad 0f 3e d7 15 85 be 75 43 1a bd
       0.062097084 0.14031118 -0.25993225 -0.03766199
000250 2e 7f 81 3e 5c 65 d5 bd 44 d6 66 3d 46 ce e7 3c
       0.25292343 -0.104197234 0.056356683 0.028296601
000260 93 a4 4e be a8 cd 89 bd 7b 1b 5f bd e2 0e cf bc
       -0.20179968 -0.06728679 -0.054469567 -0.025275651
000270 5e e2 5c 3e 54 41 78 be 3e d8 87 be ec f7 f2 3b
       0.21570727 -0.2424367 -0.26532167 0.0074148085
000280 fe ad a1 ba 9e e5 6d be 8b f2 ea bd 3f ee f6 3d
       -0.0012335179 -0.23232123 -0.11472043 0.120571606
000290 7b 37 d1 bc 73 d9 44 3e cb 78 32 be 75 62 9c bc
       -0.02553915 0.19223575 -0.17428891 -0.019089917
0002a0 71 72 bf bd 70 72 8e 3d 5e 89 55 bd 93 54 9c bd
       -0.09348 0.06955421 -0.052132957 -0.07633319
0002b0 50 37 0b bc 14 26 8d be 6b c4 93 3d 00 ce 1f 3e
       -0.008497074 -0.27568114 0.07215198 0.15605927
0002c0 2a 3b eb 3c 31 50 84 3e c2 61 8f 3c 4e 23 ec be
       0.028714735 0.2584243 0.01750267 -0.46120685
0002d0 d2 79 a8 3d 71 b3 73 3e 20 7f 8e 3d 0e 1f d4 3d
       0.082263604 0.2379892 0.06957841 0.10357486
0002e0 47 f6 97 bd b1 e0 74 3e 9c 52 fa bd be 93 a4 be
       -0.074200206 0.23913838 -0.12222788 -0.32143968
0002f0 fc 88 28 3e f6 c3 86 3e 6f 0a 07 3d 0c 62 b6 bd
       0.16458505 0.2632138 0.032968935 -0.0890542
000300 5c 39 ab bd 4d 20 d0 3d 44 37 43 be f3 5a a0 3d
       -0.0836055 0.10162411 -0.19064051 0.07829847
000310 64 8c bc 3d 63 b8 1c bd fc 95 95 3d 92 6a 18 3d
       0.09206465 -0.038261782 0.07303998 0.03721101
000320 19 b3 58 bd d2 cb 90 be f9 65 61 3d 69 0a 0a 3d
       -0.052905176 -0.28280503 0.05502889 0.033701334
000330 ca 11 5d bd ac f9 ca bc 06 f9 5a 3d 61 a7 62 3c
       -0.053972043 -0.024777256 0.053460144 0.013833852
000340 0d c7 aa 3c c9 93 d8 3d d9 26 12 be af c2 45 3e
       0.020846868 0.10575063 -0.14272632 0.19312547
000350 48 22 e4 bd 9f 43 00 3e c1 bb 81 3d 55 a0 83 bd
       -0.11139351 0.12525795 0.06334639 -0.06427065
000360 56 e4 6c bc 5a 0a 03 bd 2e 5e 9a bd 0b 2e 1b bc
       -0.014458736 -0.031992294 -0.075374946 -0.009471427
000370 f9 99 6c 3d b5 9e 8e bd f4 24 34 3e 20 9c 55 3d
       0.057764027 -0.06963865 0.17592221 0.052150846
000380 5c 10 ee bd 31 d0 9b bb 64 83 4c be 54 10 91 3d
       -0.11624214 -0.004755043 -0.19971997 0.070831925
000390 d2 7e c4 bd c4 5c de bd 1f 09 c9 bd 11 75 0a be
       -0.095945016 -0.108575374 -0.09816193 -0.1352122
0003a0 eb 21 fd 3d 9f b2 52 3e f0 3c 4d bd 5d bb dc 3d
       0.12359985 0.20575951 -0.050106943 0.10777924
0003b0 21 d5 92 3b 50 b1 ae bd ca f2 9c bd 1b 1a 99 3e
       0.0044809734 -0.085299134 -0.07663496 0.2990273
0003c0 fd 4f c5 3c fa 57 25 bc 97 59 63 be 55 5e 34 be
       0.024085993 -0.010091776 -0.22202145 -0.1761411
0003d0 04 64 3c bd fd 97 63 bd dd d6 4e 3e 13 5a be 3c
       -0.04599382 -0.05556487 0.20199151 0.02323631
0003e0 ee e0 1f 3e 7d 75 b2 bc fd 20 a1 bd f5 33 35 be
       0.15613148 -0.021784538 -0.0786762 -0.17695601
0003f0 87 b4 69 bc f6 c0 17 3e e8 95 93 bc 27 19 09 bc
       -0.0142642325 0.14819703 -0.018015817 -0.008367813

linears.4.bias f4 [50]
000000 76 03 b2 bc 47 44 6f 3c f0 5f 85 3d 56 5f 29 bd
       -0.021730166 0.014603681 0.06512439 -0.041350685
000010 71 1d 99 bd 54 77 db bc 6f 45 bf bd a9 61 85 bd
       -0.07476319 -0.026790299 -0.09339415 -0.06512768
000020 7a 75 34 3d eb ea 46 3c 7f 26 1a be c8 56 76 3d
       0.044057347 0.01214097 -0.15053748 0.060141355
000030 a9 36 81 3c 35 43 0f bd fd 42 37 3e 61 f8 3a be
       0.015773134 -0.034976203 0.17896648 -0.18258812
000040 6f 71 f7 3b 84 4d 92 3c c0 13 9a 3c 5c 01 06 3e
       0.007551364 0.017859228 0.018808246 0.13086456
000050 3d 80 2d be bb 5a e9 bb 3b ae 26 bc b8 78 56 bd
       -0.1694345 -0.0071214116 -0.010173376 -0.05236122
000060 e7 26 9c 3a 2f 29 a1 bd 28 4d b5 bd 18 17 91 bd
       0.0011913449 -0.07869183 -0.08852607 -0.07084483
000070 b2 d1 c6 bc 4d 18 1e bd ea 43 0e 3e 24 e5 54 bb
       -0.024269912 -0.038597394 0.13893095 -0.0032485211
000080 ee 0d dd 3c 32 49 92 3c 09 75 09 ba 49 51 d3 3b
       0.026984181 0.017857168 -0.0005243575 0.006448899
000090 ec 22 85 bd 61 69 01 bc 0b 30 fc 3c c2 dc 7e 3d
       -0.065008014 -0.007898659 0.030784627 0.06222225
0000a0 7e 8b 0f bc 3a 74 58 bd a0 26 fe 3c f9 45 45 bc
       -0.008761285 -0.052845217 0.031024277 -0.012040609
0000b0 c1 0d 3f 3e 6b 27 c6 bc 96 b9 af 3d be 8c 3c 3c
       0.1865759 -0.024188718 0.085803196 0.011508165
0000c0 e0 d7 12 3e 7b 0d da bd
       0.14340162 -0.106471024

linears.5.weight f4 [50, 50]
000000 da 91 64 bd da 93 44 be 25 37 00 3e 5a 57 ea bd
       -0.055803157 -0.19197026 0.12521036 -0.11442442
000010 5b 45 8f be 70 a0 ff bd 57 d3 23 3e 9f 63 59 3d
       -0.27982602 -0.12481773 0.15998589 0.05307352
000020 b6 eb 8f 3e c0 ab 92 3d ad fc 87 be 7e a5 31 3d
       0.2810952 0.07161665 -0.26559964 0.043370716
000030 52 b6 4a be ba 22 88 3c 9a fc f9 bd d8 6a 9f be
       -0.19796112 0.016618121 -0.12206383 -0.31136203
000040 f5 a2 56 bd 29 36 66 3d c1 49 d8 3d fc f7 97 3d
       -0.0524015 0.056203995 0.105609424 0.07420346
000050 33 61 cf bd 4b 70 74 bd 9a f6 ca bd 52 f2 75 3d
       -0.10125961 -0.059677403 -0.09910317 0.060045548
000060 b1 50 a9 bd fb cd cf 3d 0f 4c 95 bd a9 f6 67 3d
       -0.08267344 0.101467095 -0.07289898 0.056631718
000070 04 65 47 bd 34 b2 0f 3e 56 a4 99 3e 14 6d 45 be
       -0.04868032 0.14032823 0.3000819 -0.19279891
000080 9b b1 ac 3d 36 ab 9c 3e 5b 5d 0b 3e 41 fa 71 be
       0.08432313 0.30599374 0.13609831 -0.2363062
000090 b7 e6 db 3d 80 b0 a4 bd c3 d1 b7 bb 08 b5 be 3c
       0.10737365 -0.08041477 -0.0056097223 0.023279682
0000a0 30 68 16 3e 1b 96 18 3d 37 f1 09 3e cc 75 f6 3d
       0.14688182 0.037252527 0.13470922 0.12034187
0000b0 d2 f9 86 bd 7f 30 8e 3d bf 5e 5e 3c fa 1e c4 be
       -0.06590618 0.06942844 0.013572394 -0.38304883
0000c0 49 42 02 3c 25 0d 72 be 27 4f 2d 3e 03 b0 8c bd
       0.007950374 -0.23637827 0.16924725 -0.06869509
0000d0 7e 09 17 be 24 31 80 3d 9a bf a2 3b 65 d8 05 3e
       -0.14749715 0.06259373 0.0049666883 0.13070829
0000e0 db 69 3d bc 31 02 b0 bc 5e d5 47 bd e5 16 35 be
       -0.011560882 -0.02148542 -0.048787467 -0.17684515
0000f0 11 a8 89 3d 11 21 74 be c8 f8 59 bd 55 3b ab 3d
       0.06721509 -0.23840739 -0.053215772 0.08360926
000100 eb 43 72 3d 2c d3 bb 3e 86 b0 6b be cb 48 b0 3c
       0.059146803 0.3668455 -0.23016557 0.021519085
000110 50 7c 22 3e 9f 7d 20 be b0 e7 0d be 88 40 97 bd
       0.15867734 -0.1567292 -0.13857913 -0.07385355
000120 19 a3 8b bd c9 c2 7d be a9 e3 84 be ed b5 c0 3b
       -0.06818218 -0.24781336 -0.2595494 0.0058810622
000130 28 5e f6 3d 0a 27 96 3d 4f 3c 81 be 7f 2a 94 3d
       0.12029678 0.07331665 -0.25241324 0.07234668
000140 82 45 c2 3d 6c 00 59 3d c8 3d 42 be b8 23 cb 3b
       0.09485914 0.052978918 -0.1896888 0.0061993264
000150 43 05 9f bd 4f c8 f3 3d 72 db 68 be 78 52 c9 3c
       -0.077646755 0.1190344 -0.22739962 0.024575457
000160 89 67 fa 3d fb bc 58 be 65 77 97 3d 38 e4 7b be
       0.12226779 -0.2116584 0.073958196 -0.24598777
000170 9f 8b 34 bd 7b ed 16 bd 90 e0 fd bd a5 50 9a 3e
       -0.044078466 -0.036847573 -0.123963475 0.30139652
000180 61 79 06 3c 31 1a ae 3d e3 fb cd 3d f8 d2 bf bd
       0.00820765 0.08501089 0.10057809 -0.09366411
000190 6b 75 c5 bc b1 3d db bd 39 40 93 bd 49 07 53 bc
       -0.02410384 -0.10705126 -0.07189984 -0.012880155
0001a0 c0 17 34 be a1 e4 b8 3d 97 15 ca 3c 58 21 62 3d
       -0.17587185 0.090279825 0.024668498 0.05520758
0001b0 0b 32 6c bd aa d4 58 3e a0 a4 fa bd 68 ae 1a 3d
       -0.057664912 0.21174875 -0.12238431 0.037763983
0001c0 eb 15 26 3e ed 09 2d be 57 97 53 3e 06 1a 01 be
       0.16219299 -0.16898318 0.206632 -0.12607583
0001d0 76 03 96 bc 65 84 1e be e1 ea 54 bd 80 21 1f 3e
       -0.018312197 -0.15480192 -0.05198181 0.15540123
0001e0 47 6a 7c 3d 7d 84 2c 3e 66 50 82 3e 11 2e 5a bd
       0.06162479 0.16847415 0.25451964 -0.05326659
0001f0 47 dd be bd e2 5a 79 3d 88 2c e3 bd 22 3a b2 bc
       -0.09319549 0.06087769 -0.11092478 -0.021756236
000200 ac ce aa 3d 69 c9 0e 3e 41 f3 f0 bc 60 69 e8 bd
       0.08340201 0.1394402 -0.029412868 -0.11348224
000210 43 ec 3b 3e f5 32 b9 3d fe 97 e8 bd 99 0f ea bd
       0.18351845 0.090429224 -0.11357115 -0.11428756
000220 28 fc ed 3d e7 0c 34 3e 77 82 ed 3d da e5 13 bd
       0.116203606 0.17583047 0.1159715 -0.036107875
000230 10 0e 7f bd 67 5e 24 3d c1 90 34 bc e3 4b 3a 3e
       -0.06226927 0.04012909 -0.01102084 0.18193011
000240 c9 c9 56 3e 26 33 d9 bc 3c 37 80 bb 0b c0 16 3d
       0.20975412 -0.026513647 -0.0039128345 0.03680424
000250 f1 86 6b bd d4 c0 4f 3d cf 62 06 3e 25 23 a7 3e
       -0.057501737 0.050721005 0.1312363 0.32644
000260 8d ad d3 3d 19 68 68 3e d6 e8 8f 3c a7 12 8c be
       0.103358366 0.2269596 0.01756708 -0.2735798
000270 c5 91 29 bd db 08 47 3e 28 85 ad 3d 3e f6 dc bd
       -0.041398782 0.19436972 0.08472663 -0.107891545
000280 ca 07 04 be d1 79 aa 3e 8c 87 40 be a8 c9 3a 3d
       -0.12893596 0.33296064 -0.18801707 0.04560247
000290 74 56 5d 3e 1e 11 be 3d c3 cf 16 3c 1a 09 95 3c
       0.2161501 0.092806086 0.009204808 0.018192817
0002a0 f7 a9 19 be 0c b0 41 3e d7 2e 8e 3d b7 f9 eb 3b
       -0.15006243 0.18914813 0.06942528 0.007201399
0002b0 9a 43 22 3d 1f 96 c7 3c e8 c3 81 3e df 30 54 bd
       0.03961525 0.024363576 0.25344777 -0.05180442
0002c0 16 f0 aa 3e 9e a9 8d 3d 06 5f 0f be 67 99 02 bd
       0.33386296 0.069171175 -0.14001092 -0.031884577
0002d0 c6 19 b7 bd fb 5d 61 3d 67 ce 28 bc 79 2f d6 ba
       -0.08940463 0.055021267 -0.010303116 -0.0016341052
0002e0 ac 5a a5 3e 17 e0 b7 bb 10 e5 76 bc 2d 0b 26 3e
       0.3229574 -0.0056114304 -0.015069261 0.162152
0002f0 96 40 4f be 61 d2 be bc 9f 9c 12 be 3e 9e 8a be
       -0.20239481 -0.023293676 -0.14317559 -0.27073854
000300 56 1a 74 3e 3f 0b b3 3a 6d 08 f0 bd f1 85 6c bd
       0.23838171 0.0013659968 -0.11720357 -0.057744924
000310 f8 6f 6a 3b ec f9 8b be 1b f9 8b 3d 8b 20 a2 3c
       0.0035772305 -0.27339113 0.068346225 0.019790908
000320 db 9e 08 be f8 ee 1f 3e 65 85 33 3d 75 a2 9b 3e
       -0.13341849 0.15618503 0.043828387 0.30397382
000330 b6 97 8d 3e ce 4d c3 3d b6 e0 a9 bd 47 94 6d be
       0.2765481 0.095363244 -0.08294813 -0.23201095
000340 45 0e bb bd ba 9f 40 be 38 dc c2 3d e7 57 26 be
       -0.09133581 -0.18810931 0.0951466 -0.1624447
000350 64 77 8d 3e a1 1a 56 be f3 bd cc 3d 16 43 c7 3c
       0.2763015 -0.20908596 0.099971674 0.024323981
000360 41 47 28 ba 98 90 b2 bd 91 b2 14 3b 4a 9f 71 bc
       -0.0006419309 -0.08718985 0.0022689442 -0.01474745
000370 6f 0d 87 be 3d d7 07 3e e6 9a c0 3d 2e 09 19 be
       -0.26377437 0.132657 0.094045445 -0.14944908
000380 5f e2 97 3c 4a 9b 36 be 44 7b 27 3c 51 43 26 bd
       0.01854056 -0.17832676 0.01022226 -0.04059154
000390 ca 8c 6f 3e 81 78 56 bd 13 ee 36 3e b7 ed e6 bb
       0.2339355 -0.052361015 0.17864256 -0.007047381
0003a0 52 7e 6a bb 6b 4d 38 3d ae 8a d2 3d ab c8 56 be
       -0.003578086 0.044995707 0.10280357 -0.20974986
0003b0 c4 60 d4 3e 1b ff f3 bb 9c 00 70 be 55 28 47 3e
       0.41480076 -0.0074461824 -0.23437732 0.19448979
0003c0 8d e9 1e be 7a 53 90 3e 4c be 13 3e 11 e9 83 3d
       -0.1551878 0.28188688 0.14428061 0.06440938
0003d0 3c 9a ac 3d f3 55 57 3d a3 98 a0 bc 19 bd 48 3e
       0.08427855 0.052572202 -0.019604033 0.19603385
0003e0 83 1c 59 3e 51 41 7c bd 34 c5 12 3e 9e 09 ad 3d
       0.21202283 -0.061585728 0.1433304 0.084491
0003f0 03 d0 f6 3d 6e b3 cd bd 3b 4a b0 bd b8 d4 8e 3b
       0.12051394 -0.10043989 -0.08607908 0.004358854

linears.5.bias f4 [50]
000000 da e1 b7 3d ff 14 14 bc 09 fe 85 3d 83 94 9d bd
       0.08978625 -0.009038209 0.06542594 -0.07694342
000010 48 9d 08 3e f4 89 a6 3d f0 77 55 3b 87 34 87 bd
       0.13341248 0.08131781 0.003257271 -0.06601816
000020 9a 38 a6 3d a3 34 16 3d e7 38 41 3c 92 3e 51 be
       0.08116265 0.036671292 0.011793352 -0.20434025
000030 85 74 56 3c 2a d9 cb bd cd 45 28 be 24 f9 f1 3d
       0.013089304 -0.0995353 -0.16432877 0.11815098
000040 10 9a 07 3d 3c 8f 94 3d 7a c9 34 be 03 91 c8 bd
       0.03310591 0.07253882 -0.17654982 -0.09793284
000050 37 cf f4 3c 3b a6 da 38 a2 89 42 bd db aa 2e bd
       0.029883964 0.00010426013 -0.047494538 -0.04264341
000060 95 4d a0 3d 64 32 03 3d 0f af fb bd f4 ac 1f be
       0.078272976 0.032030478 -0.12289249 -0.1559332
000070 a7 19 36 3d 2f ee 56 3d c7 fe 62 bd e9 a3 6a 3d
       0.044458058 0.052473243 -0.055418756 0.057285223
000080 b8 a6 12 3d 22 ad cc 3d 1f 74 f2 3c 90 19 67 3d
       0.035803527 0.0999396 0.029596386 0.056420863
000090 ca e2 94 3b 01 28 a9 bd 13 67 65 3c a5 af 92 bd
       0.004543637 -0.08259583 0.014001626 -0.07162408
0000a0 10 b5 c9 bc 79 52 9e bb 8b a3 c9 3c 05 86 01 3e
       -0.02462247 -0.004831609 0.024614116 0.1264878
0000b0 53 49 3f bd b8 1d a8 3d b8 7e 7d ba aa 49 92 3d
       -0.046700787 0.082087934 -0.00096700666 0.071429566
0000c0 29 03 89 3d 90 71 51 bd
       0.06690056 -0.051133692
