Code/1D/SODE/tanh ALR/1D_SODE_tanhALR_high_3.pt (torch, 88297 bytes, 19 tensors)

linears.0.weight f4 [50, 1]
-0.072845496 0.17105362 0.18644443 -0.009335561 0.095649995 0.16394056 0.12942432 0.050108213
-0.060707133 -0.28683233 -0.21646684 -0.12907022 -0.13458484 -0.020556143 -0.022509852 0.15005301
0.16043787 0.021434968 0.26963386 -0.06969388 0.09019478 -0.24985047 -0.039787278 -0.14774248
0.16544627 0.044410206 0.043387342 0.28053954 -0.08549498 -0.22933261 0.12497053 0.081220284
-0.101093665 0.10336827 -0.031962086 -0.33278236 0.26930267 0.15575908 0.06306625 -0.123168245
-0.19744334 -0.010917079 -0.32033506 0.10505131 -0.40858415 0.18859477 0.11016092 0.06968339
0.04736023 0.23200175
00000000: 0530 95bd ae28 2f3e 4aeb 3e3e 2ef4 18bc
00000010: 25e4 c33d 09e0 273e cf87 043e 453e 4d3d
00000020: 0ba8 78bd b0db 92be 7ca9 5dbe fc2a 04be
00000030: 9cd0 09be 5b65 a8bc 9566 b8bc 7fa7 193e
00000040: d349 243e 6398 af3c 730d 8a3e aabb 8ebd
00000050: 0ab8 b83d cdd8 7fbe fcf7 22bd ce49 17be
00000060: bf6a 293e 7ae7 353d edb6 313d e1a2 8f3e
00000070: fe17 afbd 2bd6 6abe 8df0 ff3d d256 a63d
00000080: 320a cfbd beb2 d33d adea 02bd 7362 aabe
00000090: 0ae2 893e 4f7f 1f3e e128 813d a23f fcbd
000000a0: 962e 4abe 8cdd 32bc f502 a4be 2425 d73d
000000b0: f131 d1be fd1e 413e 0c9c e13d 2ab6 8e3d
000000c0: cdfc 413d de91 6d3e

linears.0.bias f4 [50]
0.15301721 0.012493112 -0.15037307 0.02824778 -0.065210216 0.5139369 -0.104894884 -0.023537496
-0.13314748 0.039627317 -0.13825285 0.07197132 0.08456676 -0.16791874 -0.25059217 0.06650857
-0.024327002 -0.03385525 0.14729875 -0.03646483 -0.009167417 0.06753677 0.007307808 -0.060893036
0.22390172 0.611801 0.14685015 -0.11232195 -0.15930292 -0.08335296 -0.014404232 0.20615318
-0.24171036 -0.08018325 0.054873828 -0.0073767747 0.33056936 0.031355724 0.02361714 -0.031484675
-0.19767602 -0.14497234 -0.16085698 0.027593354 -0.19287096 0.08897723 -0.11924182 -0.0036403295
0.2042236 0.08667476
00000000: 8bb0 1c3e e9af 4c3c 66fb 19be e367 e73c
00000010: ef8c 85bd 5e91 033f 21d3 d6bd b5d1 c0bc
00000020: d057 08be 4150 223d 2892 0dbe b365 933d
00000030: 5631 ad3d e4f2 2bbe 9e4d 80be a535 883d
00000040: 6c49 c7bc cdab 0abd 7cd5 163e 255c 15bd
00000050: ef32 16bc b850 8a3d 5676 ef3b fa6a 79bd
00000060: 7e46 653e fe9e 1c3f e35f 163e 0d09 e6bd
00000070: 4e20 23be f5b4 aabd baff 6bbc d219 533e
00000080: ec82 77be 1e37 a4bd 61c3 603d dfb8 f1bb
00000090: 6340 a93e dc6e 003d bb78 c13c 13f6 00bd
000000a0: 956b 4abe a173 14be b1b7 24be 750b e23c
000000b0: f77f 45be b239 b63d 0e35 f4bd 9892 6ebb
000000c0: fe1f 513e 8982 b13d

linears.1.weight f4 [50, 50]
0.039673824 -0.07864841 -0.26771164 -0.108079374 -0.03182522 0.2698697 -0.105899245 0.20157386
-0.054370284 0.21707116 0.13970281 -0.039711744 0.07965206 -0.17482892 0.068178125 0.05655615
-0.22076812 0.060111146 -0.075834095 0.1724344 0.18037193 0.15503283 0.013744933 0.31711656
0.08803348 0.10087148 -0.019701263 -0.24251288 0.005084555 0.048925772 0.01597373 -0.060555648
0.13233335 -0.16065915 0.0074128197 0.07651134 0.048622366 -0.1360881 -0.00094238133 -0.08557289
0.2823395 0.036924638 -0.116590075 0.16036905 0.021815432 0.08922781 -0.100902036 0.1463073
-0.10742407 -0.10252932 -0.05768984 0.16979568 0.034161832 0.068518706 0.0057005417 -0.14945208
0.050487414 -0.010011655 -0.038693715 -0.1538141 0.050680894 0.054716375 0.043699406 -0.06281616
-0.028754761 0.06842024 0.039803065 0.07598945 0.10022411 -0.05511055 -0.081479825 0.07322832
0.2147387 0.21307795 -0.110730745 0.17350098 0.25804755 -0.1776176 -0.008624263 0.011239453
-0.20095198 0.25959715 -0.022893513 0.04070103 0.012604932 -0.22538842 0.23361556 0.035428926
-0.07767149 -0.038636144 -0.103304744 0.024797726 0.23460104 -0.1363036 0.14058791 -0.17772685
0.05982992 -0.0882531 0.21632117 -0.10836208 0.01657065 -0.079617254 -0.019224945 -0.17795953
-0.14867915 0.06628992 0.05058323 0.115758136 0.0065710004 0.15983182 -0.2800818 0.11463895
0.11379653 -0.14440595 0.20703152 -0.11328505 0.25240195 -0.28906637 -0.045538798 0.032046374
0.1154781 -0.17178714 0.026706876 -0.09697147 0.028940272 -0.1256303 0.028314486 -0.06406954
0.23593098 0.2207387 -0.01920839 0.023952128 -0.010778952 0.14412752 -0.174052 0.056938656
0.19132343 0.18751796 0.20921601 -0.1451542 -0.035047557 0.029511955 0.10904461 -0.009520106
-0.040451225 0.22368488 0.079183854 0.012141059 0.12108095 0.15241055 0.1575247 0.1690963
0.22105458 0.369425 -0.4110645 0.045423493 -0.05796258 0.06359328 0.04467558 -0.09707633
-0.31454086 0.016505493 -0.0922696 0.039445803 -0.095930144 -0.11410527 0.009413672 0.102271
0.077627845 0.060164947 0.2277975 -0.1325788 0.07036411 0.12939663 0.15200363 -0.050715756
0.04251797 0.1367135 0.10871343 0.009119967 -0.021481652 0.06457878 0.14343019 0.18242878
-0.3273672 0.07654238 -0.39394295 -0.020706866 -0.029620044 0.0065473197 -0.038213294 -0.056088615
0.2015532 -0.0018757258 0.19821328 -0.01834514 0.040946517 -0.15410475 -0.13878298 -0.18187834
-0.1863756 0.0733995 -0.056859102 -0.0383039 -0.07723705 -0.2836782 0.06797919 -0.01160294
0.0997779 0.0295653 0.18508452 0.09936395 -0.05132933 0.06476738 0.25770417 0.20701113
0.21583976 0.18090145 -0.27185035 0.12226938 -0.2326444 -0.11287561 0.17420767 0.09600632
-0.14899655 -0.07516082 0.0065797092 0.097908534 0.24785858 -0.20207714 3.1269883e-06 -0.037710667
-0.006287744 -0.11450307 -0.04975756 -0.023513982 0.006057158 -0.120460995 0.000105904066 0.23426057
0.1199877 0.14714356 -0.08016951 0.22129871 0.041960042 -0.33053556 -0.31750923 -0.34452993
0.044657797 -0.15220957 -0.08207116 -0.08088021 0.11502386 -0.026645664 -0.1080932 0.17936046
00000000: 0581 223d 6b12 a1bd 8011 89be b858 ddbd
00000010: 295b 02bd 5c2c 8a3e b4e1 d8bd 6169 4e3e
00000020: 60b3 5ebd e747 5e3e 410e 0f3e c8a8 22bd
00000030: 9f20 a33d 5a06 33be f9a0 8b3d 6ca7 673d
00000040: 0a11 62be 1b37 763d e84e 9bbd a592 303e
00000050: 6bb3 383e edc0 1e3e 6d32 613c 1a5d a23e
00000060: e64a b43d b595 ce3d 8b64 a1bc 4c55 78be
00000070: 579c a63b 6466 483d 57db 823c 3309 78bd
00000080: 6582 073e d583 24be 3de7 f23b fab1 9c3d
00000090: 3f28 473d ae5a 0bbe 240a 77ba d740 afbd
000000a0: ce8e 903e 4a3e 173d c7c6 eebd c937 243e
000000b0: 47b6 b23c 12bd b63d baa5 cebd 95d1 153e
000000c0: 2701 dcbd e4fa d1bd 2f4c 6cbd ebde 2d3e
000000d0: 47ed 0b3d 8953 8c3d 9ccb ba3b f709 19be
000000e0: e4cb 4e3d ed07 24bc 4d7d 1ebd 7281 1dbe
000000f0: c596 4f3d 471e 603d 26fe 323d c2a5 80bd
00000100: 1b8f ebbc e91f 8c3d 8a08 233d 5ba0 9b3d
00000110: 4c42 cd3d 9abb 61bd e5de a6bd bbf8 953d
00000120: 76e4 5b3e 1b31 5a3e cdc6 e2bd 3eaa 313e
00000130: cf1e 843e 63e1 35be c84c 0dbc af25 383c
00000140: 5bc6 4dbe ebe9 843e 2d8b bbbc 20b6 263d
00000150: eb84 4e3c 39cc 66be eb38 6f3e ec1d 113d
00000160: 3b12 9fbd ef40 1ebd 7091 d3bd 9a24 cb3c
00000170: 413b 703e 2c93 0bbe 47f6 0f3e 07fe 35be
00000180: 3810 753d 0bbe b4bd 4c83 5d3e f0ec ddbd
00000190: 2cbf 873c 5f0e a3bd a27d 9dbc 063b 36be
000001a0: 593f 18be 02c3 873d 5c30 4f3d 9a12 ed3d
000001b0: 8c51 d73b f4aa 233e e266 8fbe d3c7 ea3d
000001c0: 280e e93d 27df 13be 1200 543e fe01 e8bd
000001d0: d43a 813e 8200 94be e486 3abd 0f43 033d
000001e0: c87f ec3d f8e8 2fbe 61c8 da3c fa98 c6bd
000001f0: 2614 ed3c 3ba5 00be c8f3 e73c e436 83bd
00000200: e497 713e 5309 623e ea5a 9dbc 4137 c43c
00000210: 349a 30bc 2a96 133e b03a 32be 8238 693d
00000220: 4aea 433e b504 403e b93c 563e 4da3 14be
00000230: 078e 0fbd 0ec3 f13c c852 df3d 38fa 1bbc
00000240: 2fb0 25bd a60d 653e 252b a23d 4beb 463c
00000250: 4af9 f73d 8311 1c3e 284e 213e 9527 2d3e
00000260: 225c 623e 4625 bd3e 0c77 d2be fc0d 3a3d
00000270: 2c6a 6dbd 323d 823d befd 363d f4cf c6bd
00000280: 800b a1be 8736 873c d8f7 bcbd ec91 213d
00000290: 0677 c4bd 06b0 e9bd cd3b 1a3c 7573 d13d
000002a0: 59fb 9e3d 856f 763d bf43 693e bdc2 07be
000002b0: 0f1b 903d 8d80 043e d7a6 1b3e 53bb 4fbd
000002c0: 5327 2e3d a0fe 0b3e 26a5 de3d ea6b 153c
000002d0: 4afa afbc e141 843d 5ddf 123e 9cce 3a3e
000002e0: ac9c a7be 40c2 9c3d e4b2 c9be 72a1 a9bc
000002f0: bca5 f2bc e68a d63b 8b85 1cbd 2dbd 65bd
00000300: f663 4e3e eada f5ba 6cf8 4a3e 8c48 96bc
00000310: 89b7 273d a3cd 1dbe 201d 0ebe 513e 3abe
00000320: 3fd9 3ebe 7a52 963d 17e5 68bd 8de4 1cbd
00000330: 752e 9ebd 453e 91be ac38 8b3d 421a 3ebc
00000340: 5b58 cc3d ee32 f23c cc86 3d3e 547f cb3d
00000350: b43e 52bd c3a4 843d cdf1 833e bafa 533e
00000360: 1905 5d3e 3b3e 393e f82f 8bbe 5e68 fa3d
00000370: 553a 6ebe 542b e7bd 7f63 323e f69e c43d
00000380: 8d92 18be eaed 99bd 9a9a d73b 4584 c83d
00000390: a4ce 7d3e 4fed 4ebe 40d9 5136 8076 1abd
000003a0: 6b09 cebb 9680 eabd 95ce 4bbd 65a0 c0bc
000003b0: 207b c63b 41b4 f6bd d018 de38 01e2 6f3e
000003c0: 1cbc f53d cdac 163e e92f a4bd 219c 623e
000003d0: 4bde 2b3d f53b a9be 9290 a2be 3a66 b0be
000003e0: 18eb 363d d3dc 1bbe ed14 a8bd 86a4 a5bd
000003f0: a191 eb3d 0248 dabc f85f ddbd 45aa 373e

linears.1.bias f4 [50]
0.12521496 0.22847585 0.086464286 -0.0716097 0.07258166 0.23136024 -0.033882964 -0.2072821
-0.121119544 -0.11282341 0.027620925 0.100236155 -0.11380408 -0.06264199 -0.024113994 -0.10131204
0.099668294 0.037317984 0.31147 -0.10588409 -0.029310782 0.21285616 0.07474164 0.08850202
0.09955609 0.009669114 0.23139064 -0.07100818 -0.08993785 -0.1142393 0.102732964 -0.0681044
-0.1006739 0.11002069 -0.12946984 -0.10780747 -0.042852294 -0.011007428 -0.010216826 -0.06631533
-0.24609049 0.16957928 -0.049549073 0.2312506 0.017835593 0.050514933 -0.04863369 0.063917056
0.08269845 -0.17052032
00000000: 5a38 003e 93f5 693e 3014 b13d 1ba8 92bd
00000010: b1a5 943d b3e9 6c3e ddc8 0abd c241 54be
00000020: 860d f8bd f60f e7bd 4745 e23c 9d48 cd3d
00000030: 1d12 e9bd 724a 80bd b68a c5bc b07c cfbd
00000040: e41e cc3d beda 183d ff78 9f3e c2d9 d8bd
00000050: 2a1d f0bc f7f6 593e 2512 993d 8c40 b53d
00000060: 10e4 cb3d 346b 1e3c abf1 6c3e bd6c 91bd
00000070: 5631 b8bd 4bf6 e9bd a965 d23d 527a 8bbd
00000080: 1e2e cebd 8752 e13d be93 04be 2aca dcbd
00000090: e385 2fbd 8058 34bc 7964 27bc 55d0 87bd
000000a0: 25ff 7bbe 31a6 2d3e f8f3 4abd f5cc 6c3e
000000b0: f31b 923c bfe8 4e3d 1f34 47bd f2e6 823d
000000c0: ce5d a93d e19c 2ebe

linears.2.weight f4 [50, 50]
0.051835313 -0.100070715 0.16993661 -0.06520716 0.03453319 0.06162499 0.16802108 0.2039223
0.038530324 0.12277468 -0.12830009 -0.054743946 -0.17822865 0.068626575 -0.11004867 0.024986416
-0.15084222 0.09363803 0.18608816 -0.12306979 0.19530459 -0.0747734 -0.15118703 -0.12669852
-0.054379534 -0.025992474 -0.23418461 0.16770317 -0.2957704 0.0076342653 0.13278382 -0.06594502
-0.04144735 -0.05424686 -0.06513649 -0.24878593 -0.044180706 0.2532236 0.012304042 5.8511687e-06
0.045910977 -0.24005938 0.115886815 0.08040872 0.24065843 -0.06523999 -0.21862072 -0.15962183
0.2803254 -0.06739992 0.2097201 -0.021215433 -0.22000091 0.108671434 -0.1669982 0.019519757
0.09783769 -0.07043899 0.09151638 0.06759975 -0.11298863 0.18053667 0.12481707 0.047649343
0.13528255 -0.3176444 0.2113934 0.23383361 -0.007256938 -0.07209802 0.018695464 0.042839017
-0.042489804 0.026315583 0.0233769 0.037954427 0.18262437 -0.17664595 0.0055446983 -0.08949833
-0.03423086 -0.0063341693 -0.045250595 0.06470542 -0.27359176 -0.08179949 0.14494866 0.22293417
-0.02447909 -0.15192233 0.3301559 -0.029012192 0.23212953 -0.047348477 -0.45243886 0.23965108
0.4028965 0.106788225 0.22504552 0.22259364 -0.008379924 -0.07699481 -0.0769519 0.26909944
-0.1492234 -0.06583457 -0.25489274 0.14074944 -0.18353923 -0.11663062 0.049082376 -0.0066775274
-0.009766475 0.075383835 0.07319259 -0.18749712 -0.067917265 -0.08240028 -0.09670603 0.06452491
-0.22234425 -0.0010864494 -0.040036403 0.15101445 0.039761383 -0.026191654 -0.2743105 0.1336811
0.17361043 -0.124468826 0.054551948 0.013793548 -0.20791422 -0.097878516 0.07336537 -0.03189328
-0.12491598 0.06990528 -0.15972947 -0.21227174 0.16002356 0.11664733 0.15933496 -0.071679935
-0.15099917 0.35614717 -0.089320585 -0.017602567 -0.026714453 0.096773125 -0.030477652 0.17768355
-0.16929445 -0.20914009 -0.17581615 0.027097648 -0.21475434 0.055359066 -0.04696372 0.032143608
-0.061882306 0.09426603 -0.25769803 0.21830553 0.0108095575 -0.091432266 0.025204493 -0.28705883
-0.09528443 0.05982296 -0.22025959 -0.2599394 0.04322689 -0.080661416 0.0039525456 -0.23849037
0.17926882 -0.16697524 -0.022518456 -0.22547524 0.08504537 0.17183182 -0.28744778 0.070249714
0.10069571 0.16207495 -0.0389999 0.07684373 0.040618908 0.07878799 -0.19155115 -0.08917226
0.06647496 -0.13586703 0.19379199 0.12528427 0.17157301 0.00064035837 0.0122170895 0.07306094
0.105244786 -0.14034995 0.028188683 0.15330735 -0.32243943 0.116116285 -0.034780875 -0.07278188
-0.257315 0.02845202 -0.06934344 0.08230719 -0.09954943 -0.008591252 -0.0007523482 -0.061444223
0.26107037 0.0035331405 0.39145508 -0.15942033 -0.16788352 -0.04638974 0.104599416 0.2336056
0.2914552 -0.015622242 0.32211444 0.035382926 -0.080608755 0.16668056 -0.1226303 0.17321144
-0.14120251 0.033841252 -0.065987326 0.16031599 -0.09770671 0.019018443 -0.006212762 -0.03890751
-0.045325294 0.091427706 -0.22572364 0.10917956 0.115673795 0.11900993 -0.26135895 0.06884636
-0.0068509807 0.08920065 0.2017075 0.15728511 0.06436405 0.052378327 -0.017926576 -0.10486041
00000000: 4451 543d e0f1 ccbd dd03 2e3e 558b 85bd
00000010: ad72 0d3d 7c6a 7c3d b80d 2c3e 02d1 503e
00000020: f9d1 1d3d 4b71 fb3d 1961 03be 303b 60bd
00000030: 9281 36be 178c 8c3d 3261 e1bd 50b0 cc3c
00000040: 6276 1abe 4cc5 bf3d e58d 3e3e 040c fcbd
00000050: edfd 473e cc22 99bd c6d0 1abe 42bd 01be
00000060: 13bd 5ebd 2bee d4bc 17ce 6fbe 61ba 2b3e
00000070: 386f 97be dc28 fa3b 7bf8 073e 2f0e 87bd
00000080: b2c4 29bd f531 5ebd 4866 85bd bdc1 7ebe
00000090: d4f6 34bd 86a6 813e e496 493c 2855 c436
000000a0: 260d 3c3d 20d2 75be 1156 ed3d 54ad a43d
000000b0: 2a6f 763e 8b9c 85bd 1cde 5fbe e873 23be
000000c0: d086 8f3e f808 8abd dec0 563e fdcb adbc
000000d0: eb47 61be 218f de3d 9301 2bbe e6e7 9f3c
000000e0: 205f c83d 5142 90bd f16c bb3d bd71 8a3d
000000f0: 9566 e7bd 9bde 383e 18a0 ff3d f52b 433d
00000100: 8287 0a3e 49a2 a2be 8377 583e 1472 6f3e
00000110: 9ccb edbb 20a8 93bd 3b27 993c f777 2f3d
00000120: ca09 2ebd c793 d73c ea80 bf3c 1a76 1b3d
00000130: e201 3b3e ade2 34be 4db0 b53b e74a b7bd
00000140: a935 0cbd dd8e cfbb b058 39bd 4684 843d
00000150: 3814 8cbe 7e86 a7bd 6c6d 143e db48 643e
00000160: 5f88 c8bc 8791 1bbe 320a a93e faaa edbc
00000170: 5db3 6d3e 7af0 41bd 11a6 e7be 1867 753e
00000180: 7348 ce3e c9b3 da3d 5572 663e 96ef 633e
00000190: f34b 09bc 74af 9dbd f598 9dbd 67c7 893e
000001a0: 05ce 18be 46d4 86bd 4d81 82be 9f20 103e
000001b0: b5f1 3bbe 09dc eebd 9a0a 493d 29cf dabb
000001c0: 9103 20bc d762 9a3d ffe5 953d 3fff 3fbe
000001d0: 3518 8bbd 7ac1 a8bd d00d c6bd a325 843d
000001e0: 36ae 63be 3167 8eba 36fd 23bd 88a3 1a3e
000001f0: d5dc 223d e18f d6bc 6d72 8cbe b3e3 083e
00000200: efc6 313e 83e9 febd dd71 5f3d 55fe 613c
00000210: 77e7 54be 8874 c8bd 9540 963d 87a2 02bd
00000220: f3d3 ffbd 802a 8f3d 1f90 23be c35d 59be
00000230: 37dd 233e cce4 ee3d b428 233e eecc 92bd
00000240: 879f 1abe ec58 b63e b6ed b6bd 4233 90bc
00000250: 45d8 dabc fd30 c63d 45ac f9bc adf2 353e
00000260: 865b 2dbe d228 56be 2609 34be e3fb dd3c
00000270: 90e8 5bbe 30c0 623d 085d 40bd 04a9 033d
00000280: 4d78 7dbd 8c0e c13d fff0 83be 7c8b 5f3e
00000290: 921a 313c d740 bbbd a779 ce3c 60f9 92be
000002a0: 7c24 c3bd ec08 753d bb8b 61be c716 85be
000002b0: ae0e 313d d031 a5bd 5b84 813b d236 74be
000002c0: 3f92 373e 8ffb 2abe a078 b8bc fbe2 66be
000002d0: 442c ae3d aef4 2f3e 5b2c 93be 15df 8f3d
000002e0: 8d39 ce3d faf6 253e 5cbe 1fbd 3f60 9d3d
000002f0: 0360 263d 995b a13d fc25 44be f29f b6bd
00000300: 0624 883d ba20 0bbe 6871 463e 854a 003e
00000310: d6b0 2f3e b9dd 273a 302a 483c f9a0 953d
00000320: 948a d73d e6b7 0fbe f4eb e63c 9afc 1c3e
00000330: c816 a5be 60ce ed3d 6476 0ebd ab0e 95bd
00000340: cbbe 83be 3614 e93c ef03 8ebd ac90 a83d
00000350: 92e0 cbbd 53c2 0cbc 3c39 45ba f0ac 7bbd
00000360: 04ab 853e 438c 673b cd6c c83e 153f 23be
00000370: a8e9 2bbe 2b03 3ebd 3838 d63d 4e36 6f3e
00000380: 9e39 953e 6ff4 7fbc 2fec a43e b0ed 103d
00000390: 3416 a5bd 4fae 2a3e 9825 fbbd 575e 313e
000003a0: 6497 10be 209d 0a3d 5d24 87bd e029 243e
000003b0: 751a c8bd 91cc 9b3c 6d94 cbbb 7b5d 1fbd
000003c0: 04a7 39bd 733e bb3d 1924 67be 8899 df3d
000003d0: 62e6 ec3d 7abb f33d d7d0 85be 52ff 8c3d
000003e0: 317e e0bb d5ae b63d 698c 4e3e 590f 213e
000003f0: 4dd1 833d a88a 563d c1da 92bc 0ec1 d6bd

linears.2.bias f4 [50]
-0.029948242 -0.03536052 -0.095518686 -0.09952353 0.1916182 0.025936676 -0.1022835 -0.09727418
0.09603141 -0.0016099042 -0.033330232 -0.08048294 0.19266047 0.028000755 0.15942355 0.045842048
-0.24446577 0.09462253 0.06203214 0.11091524 -0.010284091 0.010874827 0.11140092 0.008799617
-0.007031783 -0.032719932 0.14181426 -0.21766232 -0.06376608 -0.13139588 0.037533186 0.08093437
-0.13949248 0.04268655 -0.049438152 -0.01687383 -0.048749063 -0.060949765 0.02041563 -0.019983912
0.0502267 0.010091254 -0.08808358 0.014733316 0.06611656 -0.018552056 -0.11828479 0.00109213
0.059361577 -0.023555642
00000000: 0456 f5bc 31d6 10bd 4d9f c3bd fed2 cbbd
00000010: 9037 443e 2779 d43c 037a d1bd af37 c7bd
00000020: 1eac c43d 6c03 d3ba 4885 08bd 3dd4 a4bd
00000030: c948 453e d761 e53c ed3f 233e dfc4 3b3d
00000040: 3c55 7abe 75c9 c13d 6a15 7e3d 8827 e33d
00000050: 9b7e 28bc 552c 323c 2a26 e43d 452c 103c
00000060: df6a e6bb 5605 06bd c237 113e dfe2 5ebe
00000070: ca97 82bd a48c 06be 66bc 193d ebc0 a53d
00000080: 1ed7 0ebe 18d8 2e3d a97f 4abd fd3a 8abc
00000090: 19ad 47bd 76a6 79bd ae3e a73c 4db5 a3bc
000000a0: 83ba 4d3d c955 253c 2a65 b4bd 0264 713c
000000b0: 1e68 873d 7bfa 97bc 4c3f f2bd cd25 8f3a
000000c0: 2025 733d c3f7 c0bc

linears.3.weight f4 [50, 50]
0.21720447 -0.14329211 -0.21229148 -0.016702842 -0.10093381 0.02609727 0.095644675 -0.09550415
-0.10795278 -0.23187238 0.07678049 -0.09786448 0.010549883 0.016870225 -0.11945115 0.06026579
-0.15799041 -0.04170206 0.29690218 -0.2102081 -0.07076158 0.073455065 -0.24524748 0.032517742
0.1350485 -0.0254577 0.10836786 -0.031660017 -0.29778504 -0.17316456 0.2081751 -0.1701654
0.21012193 0.29482153 0.010720609 -0.02304213 -0.24431983 0.15602946 0.19368233 0.2202956
-0.08330227 0.04688655 0.07135155 -0.2022578 0.37880844 -0.13029298 0.012528161 0.07995611
-0.10357886 -0.12030989 0.00865422 -0.002830591 -0.08956248 0.073925555 0.13429414 -0.028526464
-0.24317548 0.15084884 -0.15783511 0.07496584 0.029895918 0.11684819 0.12579373 -0.029531164
-0.049806822 -0.010283145 0.11279587 0.10086929 -0.19855323 -0.014094792 -0.00462414 -0.15313412
0.02640318 0.14060573 -0.1333895 0.038820468 0.012008016 -0.08774068 -0.06978543 -0.078011066
-0.08887141 -0.10014089 -0.106089 0.18133204 -0.09104857 0.11027057 0.1634955 -0.15923674
-0.2236084 -0.17821367 -0.101121746 -0.2509135 0.15251143 0.32937762 -0.03979524 0.13726248
-0.2297289 0.025142914 0.26008022 -0.10855707 -0.2483303 -0.15807348 -0.18950278 0.032257475
0.2699218 -0.11657127 -0.081176646 -0.24043852 0.14764091 -0.29887134 -0.18173794 0.002040417
0.07057612 0.32258257 0.08292951 -0.05581496 -0.11048973 0.14019571 -0.071356215 0.17252217
-0.097961806 0.005022474 -0.064528964 0.012623453 0.035982147 0.0045881392 0.17378746 -0.18739323
-0.086831994 -0.13337775 0.095577426 0.069290765 0.0071301386 0.20419392 -0.04432162 0.24839532
-0.15826246 -0.21227022 -0.09339831 -0.18950526 0.26783404 -0.22855164 -0.18603964 0.05928717
0.20558406 -0.08824765 0.016397042 -0.035199404 0.20328327 0.034147542 -0.024851676 -0.10796524
0.0019223815 -0.0056698234 -0.25030208 0.15089041 0.16707869 -0.14378412 0.093701676 0.07204824
0.016105108 0.018775797 0.010114156 -0.08262835 0.029607957 -0.028765397 -0.0030806516 -0.22494486
0.1673604 -0.034814212 0.059512 -0.15860125 0.24021688 0.11792067 0.0057637077 -0.053111877
-0.20129804 -0.04711916 0.24684347 0.09152743 -0.037142444 -0.11429537 -0.008610211 0.2393737
0.1263044 0.041967105 0.07911396 0.07080424 -0.11531489 0.101402745 -0.12369334 0.20678522
0.1425781 -0.18577328 0.08905373 0.19498652 -0.12676072 -0.3557314 0.04854183 0.19271198
0.09892316 -0.15444858 -0.3791049 0.09157398 0.085070886 0.022503609 -0.18588331 0.07538965
0.045173593 0.085596636 -0.23184673 -0.16800494 -0.14616305 0.015474436 -0.21030273 -0.0019206656
0.100148864 0.127895 0.30516824 -0.18228684 0.11086067 0.079376355 0.009345661 0.3424321
0.10519649 -0.06425541 0.14397344 0.023823742 0.09909197 -0.2835873 0.15385583 0.19056763
0.06225024 -0.080213696 0.1004555 0.12418534 -0.090993926 -0.048483748 0.032213144 -0.019376773
0.07755682 0.104270056 0.03577966 -0.23345685 0.20073293 -0.11481502 0.11000044 -0.011583505
-0.059584893 -0.31076983 0.2508399 -0.065338254 -0.026169272 0.03450077 0.038712904 0.14281745
00000000: d96a 5e3e 2bbb 12be f062 59be 66d4 88bc
00000010: 63b6 cebd f1c9 d53c 5be1 c33d ae97 c3bd
00000020: 5916 ddbd f46f 6dbe 173f 9d3d 2c6d c8bd
00000030: 6bd9 2c3c 6d33 8a3c cea2 f4bd 43d9 763d
00000040: 3dc8 21be c7cf 2abd 9003 983e cb40 57be
00000050: 72eb 90bd 9c6f 963d 2822 7bbe 5331 053d
00000060: 274a 0a3e ab8c d0bc f8ef dd3d efad 01bd
00000070: 4877 98be 0d52 31be da2b 553e d73f 2ebe
00000080: 342a 573e d9f2 963e 7ea5 2f3c d9c2 bcbc
00000090: fa2e 7abe 30c6 1f3e a954 463e 2b95 613e
000000a0: 619a aabd 1c0c 403d c320 923d ab1c 4fbe
000000b0: 2ef3 c13e 866b 05be ea42 4d3c 07c0 a33d
000000c0: 2721 d4bd 0865 f6bd 6eca 0d3c 7081 39bb
000000d0: 896c b7bd 4866 973d 6784 093e 55b0 e9bc
000000e0: fe02 79be 1e78 1a3e 879f 21be b187 993d
000000f0: 49e8 f43c 1b4e ef3d 12d0 003e 57eb f1bc
00000100: 3d02 4cbd a37a 28bc 8501 e73d 8f94 ce3d
00000110: 8a51 4bbe d8ed 66bc 1986 97bb 31cf 1cbe
00000120: 7b4b d83c f3fa 0f3e 4297 08be 3602 1f3d
00000130: 45bd 443c 63b1 b3bd aaeb 8ebd 44c4 9fbd
00000140: 3702 b6bd ab16 cdbd 3145 d9bd 1baf 393e
00000150: ac77 babd 89d5 e13d 5d6b 273e f50e 23be
00000160: 9af9 64be a57d 36be eb18 cfbd bc77 80be
00000170: f52b 1c3e 2fa4 a83e 5500 23bd 898e 0c3e
00000180: 0e3e 6bbe 83f8 cd3c 3c29 853e 2b53 debd
00000190: 4c4a 7ebe 04de 21be 040d 42be 6a20 043d
000001a0: 3133 8a3e ebbc eebd f13f a6bd 8435 76be
000001b0: 2e2f 173e aa05 99be 8319 3abe 84b8 053b
000001c0: 368a 903d 8b29 a53e f2d6 a93d 3a9e 64bd
000001d0: 7148 e2bd 778f 0f3e 3523 92bd a7a9 303e
000001e0: 33a0 c8bd 9193 a43b c327 84bd 99d2 4e3c
000001f0: 0462 133d 1a58 963b 57f5 313e 03e4 3fbe
00000200: f9d4 b1bd 2d94 08be 19be c33d 51e8 8d3d
00000210: f0a3 e93b 3618 513e 968a 35bd 585b 7e3e
00000220: 8e0f 22be 5d5d 59be 9d47 bfbd ab0d 42be
00000230: 8b21 893e 7109 6abe 2d81 3ebe 1bd7 723d
00000240: a184 523e 2fbb b4bd 1753 863c 402d 10bd
00000250: 7d29 503e 4bde 0b3d be95 cbbc e11c ddbd
00000260: 6bf8 fb3a edc9 b9bb 9827 80be 0483 1a3e
00000270: ad16 2b3e 253c 13be aae6 bf3d 078e 933d
00000280: dcee 833c b3cf 993c d8b5 253c 0d39 a9bd
00000290: 638c f23c 69a5 ebbc c2e4 49bb f257 66be
000002a0: 8660 2b3e 5999 0ebd dbc2 733d 5e68 22be
000002b0: 6afb 753e 6480 f13d 7cdd bc3b d78b 59bd
000002c0: 1321 4ebe 0500 41bd 89c4 7c3e bc72 bb3d
000002d0: ad22 18bd b113 eabd d811 0dbc 611e 753e
000002e0: f155 013e b3e5 2b3d 8006 a23d d001 913d
000002f0: 372a ecbd 3eac cf3d ef52 fdbd 81bf 533e
00000300: feff 113e 5a3b 3ebe cd61 b63d 8caa 473e
00000310: 90cd 01be 6d22 b6be ccd3 463d 4a56 453e
00000320: 3a98 ca3d c527 1ebe 0a1a c2be 248b bb3d
00000330: a539 ae3d 7d59 b83c 3258 3ebe e465 9a3d
00000340: f207 393d 4a4d af3d 3b69 6dbe 7d09 2cbe
00000350: c4ab 15be 7d88 7d3c 9959 57be d8be fbba
00000360: d91a cd3d e8f6 023e 033f 9c3e 67a9 3abe
00000370: eb0a e33d 1290 a23d 8b1e 193c 4353 af3e
00000380: 4271 d73d 5798 83bd c66d 133e 022a c33c
00000390: bbf0 ca3d 5b32 91be 628c 1d3e 2924 433e
000003a0: 1cfa 7e3d 1447 a4bd 9dbb cd3d e254 fe3d
000003b0: 065b babd e596 46bd eef1 033d 0abc 9ebc
000003c0: 1cd6 9e3d 8a8b d53d b18d 123d 500f 6fbe
000003d0: ef8c 4d3e 2324 ebbd e947 e13d bec8 3dbc
000003e0: 4a0f 74bd 391d 9fbe 166e 803e 10d0 85bd
000003f0: f160 d6bc ae50 0d3d 6c91 1e3d bd3e 123e

linears.3.bias f4 [50]
-0.012019316 -0.0044081756 0.15099435 0.015559792 0.07407754 0.059115 -0.06359422 0.060928
0.036335535 0.009928053 -0.047288958 -0.1540689 -0.017068194 0.07263029 -0.043441772 0.026776087
-0.13191815 -0.13579927 0.02228791 -0.029488778 0.08559368 -0.015272311 -0.0539895 0.0070734033
0.060321953 0.0122950245 -0.037408937 -0.02088236 0.051587116 -0.014849372 -0.038603716 0.05921241
-0.0073473677 0.046636965 -0.100209415 -0.030850751 0.045476906 0.005027701 0.01068316 0.025490042
-0.051475048 -0.019954644 -0.056614347 0.05247068 -0.025574865 0.0016888927 0.02326636 -0.046335354
0.201381 0.03902033
00000000: aaec 44bc 7572 90bb 439e 1a3e 7fee 7e3c
00000010: f7b5 973d 9222 723d b03d 82bd a38f 793d
00000020: 92d4 143d 46a9 223c 11b2 41bd 3dc4 1dbe
00000030: 99d2 8bbc 31bf 943d 00f0 31bd 8659 db3c
00000040: 8d15 07be f70e 0bbe 2395 b63c 7392 f1bc
00000050: bd4b af3d b738 7abc 1824 5dbd 02c8 e73b
00000060: 2714 773d 1271 493c 1d3a 19bd 7c11 abbc
00000070: 034d 533d c84a 73bc ee1e 1ebd b688 723d
00000080: 30c2 f0bb 6706 3f3d 983a cdbd b7ba fcbc
00000090: fe45 3a3d 6abf a43b 6c08 2f3c 7ed0 d03c
000000a0: 80d7 52bd ec77 a3bc 72e4 67bd 7feb 563d
000000b0: 6182 d1bc d65d dd3a 1899 be3c 24ca 3dbd
000000c0: d236 4e3e c8d3 1f3d

linears.4.weight f4 [50, 50]
-0.008908543 0.081281185 0.32387 -0.21490623 0.26558533 -0.120870896 -0.10985615 0.02707147
0.18303432 -0.13151647 -0.10604278 -0.047887865 0.076456785 0.14750426 0.10911856 -0.27014032
0.01784555 -0.10990316 0.38797027 -0.018327614 0.18053092 0.08207642 -0.013882555 0.07258179
-0.26894742 -0.16198318 0.15860865 0.2308067 -0.1282784 -0.0017458106 0.10760734 -0.08261439
0.03147895 0.033162642 -0.10025598 -0.09767867 -0.13373815 0.10097237 0.029711656 0.06961738
-0.24969988 -0.04984415 0.050091468 -0.040196598 0.021261072 0.15902872 0.07689496 -0.029375436
0.09747557 0.03485491 -0.02030783 -0.14289282 -0.17535195 -0.008891304 -0.17400731 0.10602622
-0.09116993 0.24927707 -0.19680263 0.14001217 -0.09927321 0.17302793 -0.13679193 -0.11300035
0.054138087 0.22509648 -0.24895012 -0.12922306 -0.083326824 -0.1825555 -0.0023382274 -0.07821543
0.066265374 -0.1966426 0.2768178 0.181773 -0.30158642 -0.14181642 0.030921448 -0.022975532
-0.046690326 0.0995857 -0.13759515 0.03392287 -0.025401322 0.18535806 0.15131825 -0.1445884
-0.06879091 -0.015937813 -0.039094977 0.049268533 0.287617 0.1640178 0.12749678 0.20694996
0.09543357 0.043045964 -0.33158505 0.014827171 -0.18167885 -0.2179489 0.1556376 0.11963524
-0.17179053 -0.029854737 0.1326497 -0.08626124 -0.03168612 0.020197114 0.046844278 0.010340138
0.0014821655 0.10732201 -0.09883531 0.023349375 0.057094898 0.06316701 -0.07856531 -0.011519416
0.30331275 0.2412979 -0.1645098 0.1348951 -0.13771898 0.0077491696 0.06210826 0.15501122
0.15274398 0.20416903 0.08093217 -0.20754422 -0.23585431 -0.20996726 -0.1958085 -0.20784715
0.10670424 -0.2814635 -0.2269302 0.006888347 -0.10273343 0.0025233452 0.1454834 0.22693849
0.3293643 -0.11750423 -0.039272454 0.14004172 -0.07396957 0.04283899 -0.019499185 -0.013886471
-0.052256726 0.12923744 0.0167201 -0.14928295 0.017576978 -0.1504854 0.09667612 0.13148618
0.012258408 -0.2671622 0.16885039 -0.002779926 0.17849658 -0.067630105 -0.38101208 -0.089841954
-0.014471057 -1.2337969e-05 -0.08888773 -0.012729787 -0.1101331 -0.25242618 0.07900275 0.13717826
-0.056853104 -0.22452706 0.06690311 0.07003665 -0.059303243 -0.08956051 -0.09617301 0.1707881
-0.12959054 0.10897978 0.17236276 0.02704685 0.11680399 0.0632139 0.10591451 -0.15066321
0.076193325 -0.019633388 -0.032740653 -0.29816833 -0.18392433 -0.036835 0.041724864 0.03074447
0.20810185 -0.024031738 -0.02886762 -0.09014179 0.052227072 -0.08718336 0.21880773 0.18852173
0.12912962 -0.14677489 -0.16279806 0.0816108 -0.10727352 0.017263288 -0.16252783 -0.16577402
-0.18051235 -0.09919148 0.12507409 0.0069657504 0.16650403 -0.105195634 0.010237282 0.2340826
0.07394598 0.32622322 0.0366507 -0.045408964 0.13886322 -0.08704099 0.24896932 0.07607948
0.1502636 0.061858147 -0.140205 0.12688683 -0.02859208 0.13973014 0.010767763 0.05617266
-0.23698843 0.06902091 0.0038038744 0.06291717 -0.024293195 0.16088688 -0.28695714 0.08624366
0.005644816 0.13995858 0.14499998 -0.1221139 -0.048581697 -0.100664556 -0.10117398 0.22456771
00000000: 23f5 11bc c076 a63d 4ad2 a53e 6110 5cbe
00000010: cdfa 873e 298b f7bd 43fc e0bd fdc4 dd3c
00000020: 596d 3b3e 41ac 06be f52c d9bd 1126 44bd
00000030: 6095 9c3d 5b0b 173e 8d79 df3d d54f 8abe
00000040: d530 923c e814 e1bd 0aa4 c63e cb23 96bc
00000050: 19dd 383e af17 a83d a873 63bc c3a5 943d
00000060: 7ab3 89be ebde 25be 4e6a 223e 9758 6c3e
00000070: 6a5b 03be afd3 e4ba 3d61 dc3d bc31 a9bd
00000080: 12f0 003d 8dd5 073d 0253 cdbd c10b c8bd
00000090: a7f2 08be 9aca ce3d dc65 f33c 8f93 8e3d
000000a0: 53b1 7fbe 6129 4cbd b62c 4d3d 30a5 24bd
000000b0: b32b ae3c 6dd8 223e 1b7b 9d3d c1a4 f0bc
000000c0: 46a1 c73d 06c4 0e3d 9b5c a6bc 7f52 12be
000000d0: 768f 33be d5ac 11bc f92e 32be 4624 d93d
000000e0: 4db7 babd 7d42 7f3e a186 49be 5a5f 0f3e
000000f0: c14f cbbd 3c2e 313e 2f13 0cbe ba6c e7bd
00000100: e6bf 5d3d b17f 663e c8ec 7ebe 0d53 04be
00000110: 41a7 aabd d4ef 3abe f23c 19bb 692f a0bd
00000120: 24b6 873d ae5c 49be 10bb 8d3e b422 3a3e
00000130: 8969 9abe 5338 11be fa4e fd3c 2f37 bcbc
00000140: 5b3e 3fbd 96f3 cb3d bee5 0cbe b5f2 0a3d
00000150: 6f16 d0bc 81ce 3d3e 2cf3 1a3e fb0e 14be
00000160: 40e2 8cbd 0490 82bc 0e22 20bd cdcd 493d
00000170: 8942 933e 48f4 273e 848e 023e b1ea 533e
00000180: ad72 c33d f750 303d 84c5 a9be aaed 723c
00000190: 050a 3abe ff2d 5fbe 775f 1f3e 5203 f53d
000001a0: dbe9 2fbe ec91 f4bc 53d5 073e bca9 b0bd
000001b0: 4ec9 01bd 6b74 a53c c9df 3f3d af69 293c
000001c0: 3945 c23a a4cb db3d 2b6a cabd 3047 bf3c
000001d0: 57dc 693d b55d 813d d9e6 a0bd efbb 3cbc
000001e0: cf4b 9b3e cc16 773e 4275 28be f121 0a3e
000001f0: 3406 0dbe bfec fd3b 3b65 7e3d 43bb 1e3e
00000200: eb68 1c3e b011 513e c4bf a53d 7986 54be
00000210: cb83 71be a801 57be 0682 48be e2d5 54be
00000220: c187 da3d fc1b 90be 6460 68be a5b7 e13b
00000230: e865 d2bd b55e 253b 9af9 143e 9062 683e
00000240: 70a2 a83e 0fa6 f0bd 27dc 20bd 1967 0f3e
00000250: 5c7d 97bd f077 2f3d c1bc 9fbc 1584 63bc
00000260: 260b 56bd d256 043e 97f8 883c a1dd 18be
00000270: 98fd 8f3c d818 1abe 21fe c53d 50a4 063e
00000280: 7dd7 483c 7cc9 88be 1ee7 2c3e 6b2f 36bb
00000290: cfc7 363e a781 8abd 0414 c3be 0fff b7bd
000002a0: 0318 6dbc 2cff 4eb7 c50a b6bd 9990 50bc
000002b0: 768d e1bd 013e 81be 32cc a13d 7578 0c3e
000002c0: cdde 68bd 6cea 65be 7f04 893d 606f 8f3d
000002d0: f5e7 72bd 806b b7bd 5bf6 c4bd 13e3 2e3e
000002e0: 62b3 04be ca30 df3d dd7f 303e 5b91 dd3c
000002f0: ee36 ef3d 4a76 813d b5e9 d83d 7547 1abe
00000300: 3f0b 9c3d 33d6 a0bc 101b 06bd 85a9 98be
00000310: a956 3cbe 4ce0 16bd b1e7 2a3d d4db fb3c
00000320: a718 553e 35de c4bc c97b ecbc 429c b8bd
00000330: 0eec 553d 308d b2bd 220f 603e d70b 413e
00000340: 8e3a 043e 284c 16be 89b4 26be 9023 a73d
00000350: 38b2 dbbd bd6b 8d3c b26d 26be aac0 29be
00000360: 3bd8 38be e724 cbbd 6c13 003e f340 e43b
00000370: 0880 2a3e cf70 d7bd 46ba 273c 59b3 6f3e
00000380: fd70 973d bb06 a73e 0b1f 163d c0fe 39bd
00000390: 2932 0e3e 8c42 b2bd d0f1 7e3e 8fcf 9b3d
000003a0: b3de 193e f85e 7d3d e691 0fbe 9fee 013e
000003b0: f039 eabc 6b15 0f3e 456b 303c 4e15 663d
000003c0: 18ad 72be d65a 8d3d 6c4a 793b b8da 803d
000003d0: 8602 c7bc 88bf 243e 0cec 92be 84a0 b03d
000003e0: 26f8 b83b 4d51 0f3e e07a 143e da16 fabd
000003f0: 9afd 46bd 3829 cebd 4e34 cfbd 14f5 653e

linears.4.bias f4 [50]
0.051965766 0.021193938 -0.0051806457 0.0018510302 -0.0038340748 0.0023791136 0.013603998 -0.047380473
0.017266674 0.09696085 0.00813477 0.011430571 0.03371623 0.0021882989 0.022583818 0.05354171
-0.013407705 -0.0054264264 0.015673326 -0.056038763 -0.03120874 -0.0013395378 0.097996995 -0.02057974
-0.04886568 -0.075330645 -0.0021887284 -0.061676133 0.032593854 0.018152658 0.0832358 -0.015998213
0.019990465 -0.01743241 -0.08163796 -0.025984086 -0.015261868 -0.042492155 0.018173581 -0.1043561
-0.009211222 -0.012423606 -0.032927398 -0.05032341 0.12329109 -0.037752647 0.043185163 -0.02732018
-0.06435777 -0.0075210505
00000000: 0eda 543d e99e ad3c 68c2 a9bb 449e f23a
00000010: 1a45 7bbb e7ea 1b3b 4ee3 5e3c 0712 42bd
00000020: d772 8d3c 6993 c63d b347 053c 4a47 3b3c
00000030: 081a 0a3d 9069 0f3b b301 b93c 8d4e 5b3d
00000040: feab 5bbc 2ad0 b1bb 5965 803c e788 65bd
00000050: 79a9 ffbc 6e93 afba a6b2 c83d d896 a8bc
00000060: 6127 48bd f446 9abd c570 0fbb 1da0 7cbd
00000070: 2281 053d e2b4 943c 8877 aa3d af0e 83bc
00000080: 0bc3 a33c 6ace 8ebc ce31 a7bd 94dc d4bc
00000090: ea0c 7abc 410c 2ebd c3e0 943c a7b8 d5bd
000000a0: aaea 16bc 618c 4bbc e1de 06bd ec1f 4ebd
000000b0: 0a80 fc3d 85a2 1abd ede2 303d 92ce dfbc
000000c0: 02ce 83bd 2573 f6bb

linears.5.weight f4 [50, 50]
0.05730694 0.03714808 -0.19963402 -0.11417981 -0.3519958 0.27866966 -0.1813079 -0.2373252
0.07295704 0.013957441 0.17581086 0.25772643 -0.00041582933 0.22921622 0.10437049 0.25829113
0.3028105 -0.06389907 -0.029733265 0.12132505 0.14306563 0.22033243 -0.06593377 0.33912706
-0.120382115 0.030542027 0.057460252 0.07078586 0.049247287 -0.04621599 -0.011651509 0.11767852
-0.025870858 0.06466613 0.13662492 0.18691427 -0.039226193 -0.14371984 0.18787286 -0.09847378
-0.023616474 0.16718479 -0.093120664 -0.1076238 0.15550229 0.25461408 -0.23328978 -0.11969954
0.035096098 0.20505843 0.10349157 -0.11705369 -0.0020502305 -0.093437545 -0.083771445 -0.06388234
0.043949004 -0.25588143 0.017708965 -0.1537697 0.23092191 -0.06773529 -0.080243915 -0.07039881
0.41410205 -0.11759117 0.04207872 0.08124716 -0.059281275 0.17718998 -0.025555035 0.13823806
0.15559964 -0.025576144 0.11630998 -0.23694982 0.0060806414 -0.06380784 0.25012112 0.13692433
0.25461262 0.04198242 -0.026746232 -0.15414518 0.15017697 -0.11046209 0.121401176 -0.07777747
0.0794979 -0.26764536 -0.02435621 0.012731984 0.021197483 -0.14910085 0.43421423 -0.35796368
0.014833734 0.110170834 -0.22897811 -0.059796315 0.012404221 0.0016309569 -0.05088082 0.065895535
-0.04730612 -0.08052081 0.15271391 0.23201667 -0.1341624 -0.104587525 -0.18028267 0.020546077
-0.20145641 -0.0029047225 -0.026631737 -0.01602774 -0.18736072 -0.050129198 -0.0050596907 -0.02351516
0.11633219 0.17677307 0.07965331 0.25110796 -0.014302743 0.098667905 -0.10704306 0.18376333
0.26173666 0.012702854 -0.21364184 -0.04387079 -0.08234833 0.14447394 0.23234905 -0.022590708
-0.27912372 -0.120360576 0.19645241 0.20211829 0.10468643 -0.1931883 -0.027328005 -0.04199071
-0.10818427 -0.2031361 -0.10920733 -0.19497903 0.12053911 -0.069803275 0.05623599 -0.0021677902
-0.30522698 0.10670636 0.070972666 0.16142718 0.0073099234 -0.072985224 0.16964653 -0.009072817
-0.2264784 0.0075915884 0.027240403 -0.042307373 0.15384299 -0.06687376 0.08965685 0.13578135
-0.09424325 0.10354752 0.01455449 -0.30829388 0.030439561 -0.19980536 -0.17213272 0.031742163
0.17969984 -0.07381 0.18786412 0.05883047 -0.0009256891 0.03482672 0.33011588 -0.10125881
0.15761325 -0.08460623 0.16121429 0.34433225 0.34793288 0.07381941 0.057821665 0.07615426
-0.17640524 0.18039018 0.09093414 0.08138557 0.07330418 0.34104955 0.16445233 -0.25271854
-0.19005229 0.08052085 0.18379194 0.034416113 -0.07610272 -0.020752547 0.02041888 0.12981464
-0.052473553 -0.053285025 -0.12414222 0.17106256 -0.07880811 -0.14373182 0.009026364 0.25003207
-0.0964113 -0.122803435 0.05130544 -0.10108262 0.06023224 0.149341 -0.29981384 0.13345566
0.09330161 0.2832694 0.037902694 -0.2106374 -0.0061065424 -0.16775653 0.100011125 0.1836921
0.19392177 -0.17010346 0.08420632 0.16054681 -0.33350313 0.13845229 0.24204563 0.24631685
-0.38198507 -0.0023716139 -0.027960662 0.18222244 -0.13041075 -0.13484544 -0.115359925 -0.084824845
0.21490513 -0.24772365 0.00045669582 0.07147898 -0.23817478 0.16056097 -0.097714216 0.25357956
00000000: afba 6a3d 9628 183d dc6c 4cbe 1bd7 e9bd
00000010: cb38 b4be caad 8e3e c7a8 39be 6105 73be
00000020: 806a 953d c0ad 643c c307 343e b8f4 833e
00000030: ab03 dab9 a8b7 6a3e 32c0 d53d bc3e 843e
00000040: fa09 9b3e 84dd 82bd 2d93 f3bc 4579 f83d
00000050: cc7f 123e d39e 613e 4908 87bd 10a2 ad3e
00000060: e68a f6bd 4633 fa3c 715b 6b3d 2df8 903d
00000070: 86b7 493d fa4c 3dbd f9e5 3ebc 7001 f13d
00000080: 1fef d3bc ad6f 843d 67e7 0b3e 7466 3f3e
00000090: a5ab 20bd 4b2b 13be be61 403e 9fac c9bd
000000a0: 5677 c1bc 7d32 2b3e 0cb6 bebd de69 dcbd
000000b0: fe3b 1f3e c75c 823e 84e3 6ebe 0825 f5bd
000000c0: edc0 0f3d d6fa 513e 63f3 d33d d8b9 efbd
000000d0: 295d 06bb 2f5c bfbd 5d90 abbd bfd4 82bd
000000e0: df03 343d e402 83be 6412 913c ce75 1dbe
000000f0: cb76 6c3e cdb8 8abd ec56 a4bd 402d 90bd
00000100: 2f05 d43e a4d3 f0bd bc5a 2c3d e964 a63d
00000110: ecd0 72bd 4a71 353e cb58 d1bc 478e 0d3e
00000120: 8355 1f3e 1085 d1bc ed33 ee3d f9a2 72be
00000130: 1e40 c73b afad 82bd e00f 803e e435 0c3e
00000140: 965c 823e c2f5 2b3d ea1a dbbc 3cd8 1dbe
00000150: fec7 193e f339 e2bd 2ea1 f83d cb49 9fbd
00000160: cccf a23d d008 89be ad86 c7bc d099 503c
00000170: 58a6 ad3c e5ad 18be 5451 de3e 0447 b7be
00000180: 3109 733c 3fa1 e13d 3d79 6abe fbec 74bd
00000190: 133b 4b3c d5c5 d53a 6868 50bd 3df4 863d
000001a0: 10c4 41bd 18e8 a4bd 0961 1c3e c795 6d3e
000001b0: de61 09be fc31 d6bd 059c 38be 3f50 a83c
000001c0: 974a 4ebe 285d 3ebb cd2a dabc 9b4c 83bc
000001d0: 7ddb 3fbe 4654 4dbd c3cb a5bb dda2 c0bc
000001e0: 923f ee3d 0004 353e 4621 a33d 3991 803e
000001f0: 0d56 6abc 6612 ca3d 6439 dbbd 742c 3c3e
00000200: 5902 863e a21f 503c edc4 5abe dcb1 33bd
00000210: 3ea6 a8bd faf0 133e e9ec 6d3e 2610 b9bc
00000220: 4ee9 8ebe 9b7f f6bd d22a 493e 19f8 4e3e
00000230: d765 d63d 27d3 45be fbde dfbc 73fe 2bbd
00000240: b78f ddbd e902 50be 18a8 dfbd 95a8 47be
00000250: 35dd f63d 05f5 8ebd b657 663d 7c11 0ebb
00000260: b646 9cbe dd88 da3d 1e5a 913d 2b4d 253e
00000270: 1588 ef3b 4779 95bd d2b7 2d3e 27a6 14bc
00000280: f4e9 67be dcc2 f83b 4427 df3c 7f4a 2dbd
00000290: 0489 1d3e 1cf5 88bd 039e b73d 440a 0b3e
000002a0: 9b02 c1bd b910 d43d f575 6e3c b2d8 9dbe
000002b0: 635c f93c c799 4cbe 8f43 30be 1204 023d
000002c0: 3c03 383e b329 97bd 745f 403e 38f8 703d
000002d0: f2a9 72ba 76a6 0e3d f304 a93e c760 cfbd
000002e0: 5e65 213e 0846 adbd 5c15 253e 514c b03e
000002f0: 4224 b23e a12e 973d 69d6 6c3d c4f6 9b3d
00000300: 93a3 34be 34b8 383e ae3b ba3d 7aad a63d
00000310: 8020 963d 0c9e ae3e 3166 283e 5364 81be
00000320: 119d 42be 1ee8 a43d f433 3c3e e9f7 0c3d
00000330: bedb 9bbd 3f01 aabc 7f45 a73c 21ee 043e
00000340: 82ee 56bd 6641 5abd 473e febd 062b 2f3e
00000350: 2566 a1bd 6f2e 13be 51e3 133c 3404 803e
00000360: 4a73 c5bd 5e80 fbbd a725 523d 6804 cfbd
00000370: 15b6 763d d9ec 183e 3381 99be 9aa8 083e
00000380: ea14 bf3d b008 913e db3f 1b3d 55b1 57be
00000390: 6419 c8bb 5ec8 2bbe a2d2 cc3d c819 3c3e
000003a0: 6e93 463e 9a2f 2ebe 5d74 ac3d 6266 243e
000003b0: ecc0 aabe 70c6 0d3e cfda 773e 7c3a 7c3e
000003c0: 8c93 c3be 146d 1bbb c20d e5bc 8598 3a3e
000003d0: 658a 05be ec14 0abe d341 ecbd a6b8 adbd
000003e0: 1710 5c3e 45ab 7dbe ad70 ef39 9263 923d
000003f0: 17e4 73be 186a 243e 641e c8bd 2ed5 813e

linears.5.bias f4 [50]
-0.023303198 0.055277005 -0.030871969 -0.020888975 -0.07327989 -0.052825924 0.04345831 -0.06547467
0.07309106 0.017719897 0.07255103 -0.019008465 -0.046422362 -0.037802868 0.071164735 -0.0013092385
0.004455828 -0.043317113 -0.015497544 0.017598983 0.04402379 0.08926376 0.07491842 -0.034392767
-0.014504627 -0.01771556 -0.0049815695 -0.043412294 0.009802079 0.0049516265 0.074936666 -0.04966382
0.066152684 -0.005141212 0.036634374 -0.088492535 -0.040816065 -0.032282293 0.01794557 0.051476188
-0.050476093 0.037520003 -0.02592405 0.03146341 0.026105527 -0.056644686 -0.0020865817 0.01297996
0.07461754 -0.025274713
00000000: 59e6 bebc 246a 623d 36e7 fcbc 5b1f abbc
00000010: c413 96bd ff5f 58bd 5701 323d 9517 86bd
00000020: c4b0 953d 5129 913c a295 943d a4b7 9bbc
00000030: 6025 3ebd 2ed7 1abd d1be 913d c19a abba
00000040: 3202 923b 496d 31bd 69e9 7dbc be2b 903c
00000050: 4a52 343d ebcf b63d d46e 993d 6edf 0cbd
00000060: d1a4 6dbc 3920 91bc 6f3c a3bb 17d1 31bd
00000070: e698 203c 4141 a23b 6578 993d 4a6c 4bbd
00000080: 0f7b 873d 9d77 a8bb ed0d 163d 933b b5bd
00000090: bf2e 27bd 703a 04bd 9702 933c b2d8 523d
000000a0: 05c0 4ebd 93ae 193d ac5e d4bc c7df 003d
000000b0: 42db d53c 4204 68bd 08bf 08bb e6a9 543c
000000c0: 15d1 983d ea0c cfbc

linears.6.weight f4 [50, 50]
-0.026968896 0.053241014 -0.010889153 0.15285052 -0.00017682288 -0.0133072045 -0.13198957 -0.17934997
0.25065026 -0.051099107 0.08633476 -0.11223935 0.003824049 0.024777845 0.2561963 -0.21532853
0.10684446 0.062332693 0.044342447 -0.16022836 -0.115993656 0.30619547 0.1349286 0.097727954
-0.3112263 -0.07853214 -0.2254492 -0.09137234 0.025106004 0.01616407 -0.002835972 0.08409893
-0.06693595 0.027795814 0.17775024 0.12567952 -0.13144137 -0.044785906 0.12929745 0.17104958
-0.102203645 0.030361092 -0.045827486 -0.01455807 -0.21589798 0.11364515 0.093058355 0.088215485
-0.2759734 -0.0090806205 -0.07986287 0.14714643 0.03654961 0.09099129 0.23789802 -0.07989226
-0.22837123 0.048458815 -0.022542486 0.08580991 -0.34796816 -0.25906694 -0.11004453 0.11519705
0.06431064 -0.20215072 0.07813384 -0.031186158 0.018738747 0.08976886 0.18428257 0.0495031
0.28129184 0.1384599 0.081041284 0.025472805 -0.22253393 0.017788094 -0.04768233 0.26663107
-0.23445344 -0.20431826 -0.09226439 -0.040635765 -0.21083835 0.2561039 0.13468033 0.13330555
-0.26614216 0.1474013 0.043770865 0.14435136 -0.15552598 0.18497917 0.0011366137 0.15212616
0.054729313 -0.11712992 -0.26290762 -0.17290542 -0.08878704 -0.112710714 -0.07283469 0.00093863765
-0.21792847 -0.06953103 0.012315429 0.22289452 -0.057942327 -0.14237766 -0.028161313 0.21906841
-0.03489115 0.28952172 -0.34370175 -0.12845504 0.072140895 0.009941928 0.15056895 -0.12127926
-0.13441433 0.077735975 -0.055180352 0.01074072 0.038942765 0.044102047 -0.0046535954 -0.14193402
0.002697317 -0.11238968 -0.12060976 -0.15927914 -0.09406983 0.40260425 0.197571 0.047565993
0.22483453 0.11753454 -0.023986757 -0.07781598 0.27772966 -0.09718347 0.008881978 -0.153044
0.09370639 -0.12953587 0.055529818 0.09428323 -0.14396383 0.09499435 0.12515873 0.044808447
0.157454 0.28026316 0.21071737 -0.11236461 0.14562494 -0.059485596 -0.1433295 -0.11032305
-0.0013393789 -0.04898008 -0.061446063 0.019115763 -0.06494927 0.0153107615 -0.16269723 0.023559958
-0.010401202 -0.18604623 -0.028295806 -0.22780213 -0.12639044 -0.04103466 0.0087568285 0.08512224
-0.13828805 0.015751323 -0.10702727 0.1389522 -0.2602029 0.0788887 -0.13174094 0.13667694
0.09018775 0.3556102 0.35061836 0.12186141 -0.2888657 -0.03635636 0.21476905 0.10221544
-0.12033948 -0.04319917 -0.22180744 -0.21040303 0.2199946 0.17273577 -0.030598128 0.19582765
0.020965254 -0.25363317 0.087483086 -0.10675031 0.1689202 -0.08069213 -0.005845265 -0.16336045
0.06210088 -0.18322267 -0.15114588 0.1494002 0.24163462 -0.18806726 -0.05678533 0.09635546
0.04769076 -0.124939345 -0.051864285 -0.14847283 -0.0655524 -0.118569806 -0.3197597 -0.09835772
-0.13708894 -0.051669274 0.042349756 -0.056930512 -0.17358236 -0.10276272 0.026526054 0.017525736
0.0036794648 0.14895514 0.07249664 0.0162748 -0.081958175 0.012417359 0.08084534 -0.118739784
-0.21600644 -0.10418727 -0.008907436 -0.27908865 -0.15153639 -0.087180175 0.23819104 0.06950499
0.16016649 -0.23329893 -0.09912653 0.12139064 0.14575271 0.29532444 0.1509249 -0.10127542
00000000: e0ed dcbc 4013 5a3d 6b68 32bc d984 1c3e
00000010: 8869 39b9 7606 5abc 4628 07be 85a7 37be
00000020: 3b55 803e 4c4d 51bd 47d0 b03d bfdd e5bd
00000030: e59c 7a3b e8fa ca3c 292c 833e 157f 5cbe
00000040: 45d1 da3d 9150 7f3d 6da0 353d e712 24be
00000050: 158e edbd a7c5 9c3e b92a 0a3e 9825 c83d
00000060: 0e59 9fbe 75d5 a0bd 28dc 66be 6c21 bbbd
00000070: 1bab cd3c 836a 843c b7db 39bb 0f3c ac3d
00000080: b715 89bd 0cb4 e33c 2904 363e 22b2 003e
00000090: 9198 06be 6d71 37bd 8d66 043e 9f27 2f3e
000000a0: 2550 d1bd d3b7 f83c 9ab5 3bbd f984 6ebc
000000b0: 5c14 5dbe cabe e83d 6195 be3d 52aa b43d
000000c0: 634c 8dbe e2c6 14bc 258f a3bd 8ead 163e
000000d0: 0bb5 153d a459 ba3d 8a9b 733e 8e9e a3bd
000000e0: 26da 69be c07c 463d 05ab b8bc 1bbd af3d
000000f0: e228 b2be 6ca4 84be 075f e1bd 6eec eb3d
00000100: 4cb5 833d 9900 4fbe a204 a03d 1d7a ffbc
00000110: 0082 993c bcd8 b73d 92b4 3c3e c3c3 4a3d
00000120: 7c05 903e 6fc8 0d3e f9f8 a53d 58ac d03c
00000130: efdf 63be 56b8 913c 8c4e 43bd de83 883e
00000140: 9014 70be ce38 51be 1df5 bcbd b071 26bd
00000150: 02e6 57be 0d20 833e a4e9 093e 4081 083e
00000160: c943 88be 5ef0 163e 1449 333d d8d0 133e
00000170: 3442 1fbe 2e6b 3d3e 6dfa 943a f6c6 1b3e
00000180: d82b 603d d0e1 efbd d49b 86be 1e0e 31be
00000190: fbd5 b5bd e0d4 e6bd 5b2a 95bd e80e 763a
000001a0: a428 5fbe 4966 8ebd a7c6 493c 763e 643e
000001b0: ef54 6dbd 73cb 11be 8eb2 e6bc 7853 603e
000001c0: 06ea 0ebd 313c 943e adf9 afbe b889 03be
000001d0: 9bbe 933d 78e3 223c bf2e 1a3e 4361 f8bd
000001e0: e9a3 09be 0a34 9f3d cb04 62bd d8f9 2f3c
000001f0: 7382 1f3d 59a4 343d 307d 98bb 2757 11be
00000200: 78c5 303b 902c e6bd 4002 f7bd 121a 23be
00000210: afa7 c0bd 2522 ce3e 0d50 4a3e 8fd4 423d
00000220: 063b 663e f3b5 f03d e07f c4bc fc5d 9fbd
00000230: 9532 8e3e 2108 c7bd b785 113c 91b7 1cbe
00000240: 23e9 bf3d 0da5 04be 3c73 633d 9117 c13d
00000250: 416b 13be 668c c23d 9c29 003e 1089 373d
00000260: 9f3b 213e a77e 8f3e 4bc6 573e 6b1f e6bd
00000270: b41e 153e 2ba7 73bd f8c4 12be 0df1 e1bd
00000280: 198e afba 569f 48bd deae 7bbd a998 9c3c
00000290: 1f04 85bd fdd9 7a3c 1a9a 26be d000 c13c
000002a0: ce69 2abc e782 3ebe 9bcc e7bc f644 69be
000002b0: 7f6c 01be f613 28bd cd78 0f3c 9254 ae3d
000002c0: 629b 0dbe eb08 813c 1d31 dbbd 7c49 0e3e
000002d0: 5139 85be 6690 a13d 19e7 06be 0af5 0b3e
000002e0: 5bb4 b83d 8a12 b63e 4084 b33e 7a92 f93d
000002f0: 34e6 93be 68ea 14bd 6bec 5b3e 5456 d13d
00000300: 8c74 f6bd 9df1 30bd 7d21 63be e473 57be
00000310: 4446 613e a5e1 303e eda8 fabc 0b87 483e
00000320: 53bf ab3c 35dc 81be 552a b33d e89f dabd
00000330: 6bf9 2c3e ea41 a5bd a389 bfbb f647 27be
00000340: 7e5d 7e3d b99e 3bbe fcc5 1abe 5efc 183e
00000350: 116f 773e b494 40be bc97 68bd 0356 c53d
00000360: 6357 433d 33e0 ffbd a56f 54bd 4309 18be
00000370: 5640 86bd bad4 f2bd 8bb7 a3be c66f c9bd
00000380: 0b61 0cbe 29a3 53bd f076 2d3d f82f 69bd
00000390: 93bf 31be 4375 d2bd 2b4d d93c 2292 8f3c
000003a0: 2d23 713b b287 183e 1e79 943d bb52 853c
000003b0: b0d9 a7bd 2e72 4b3c 3e92 a53d d82d f3bd
000003c0: cb30 5dbe 2360 d5bd 7ff0 11bc b5e4 8ebe
000003d0: 5b2c 1bbe 858b b2bd 5ae8 733e a258 8e3d
000003e0: af02 243e eae5 6ebe da02 cbbd a89b f83d
000003f0: 3340 153e c434 973e 0f8c 1a3e 7d69 cfbd

linears.6.bias f4 [50]
0.043928716 -0.03197707 -0.054696765 -0.036154456 0.015945213 0.032008976 -0.029661037 -0.06739951
-0.04053596 -0.006833707 0.04617479 -0.0246757 0.024975004 0.039636243 -0.029934578 -0.04512392
-0.05916502 0.0045980616 -0.029270276 -0.013868229 -0.022590274 0.011610708 -0.014335087 -0.015816342
0.023155464 -0.033518877 0.16842586 0.049790222 0.014534352 -0.02578089 0.039011247 -0.03747712
-0.040584784 -0.05000966 -0.0035791697 0.0419273 0.0069284085 0.001314468 0.04676616 -0.0010380639
0.009625678 0.0738189 0.046251435 0.057579666 -0.04117922 0.02109741 0.079744734 0.05011573
0.024681035 -0.021388426
00000000: 99ee 333d 63fa 02bd b709 60bd b216 14bd
00000010: 899f 823c d81b 033d b4fb f2bc c108 8abd
00000020: 0909 26bd 4aed dfbb c721 3d3d b224 cabc
00000030: 6198 cc3c 9d59 223d 5c39 f5bc dcd3 38bd
00000040: 0557 72bd 56ab 963b 38c8 efbc 9237 63bc
00000050: 3d0f b9bc d73a 3e3c b6dd 6abc 4691 81bc
00000060: 87b0 bd3c 174b 09bd d477 2c3e d5f0 4b3d
00000070: 7e21 6e3c 7232 d3bc 42ca 1f3d 9c81 19bd
00000080: 3b3c 26bd eed6 4cbd 8190 6abb f6bb 2b3d
00000090: b407 e33b 3a4a ac3a df8d 3f3d a50f 88ba
000000a0: 05b5 1d3c 5d2e 973d 2572 3d3d a8d8 6b3d
000000b0: 8bab 28bd 7ad4 ac3c 3551 a33d 2746 4d3d
000000c0: e22f ca3c c836 afbc
