Archived Code/Klein Gordon/rowdy/KG_rowdy_medium_3.pt (torch, 35710 bytes, 12 tensors)

omega1 f4 [4, 1]
0	0x3f80632c	1.0030265
1	0x3f7e6785	0.9937671
2	0x3f8086b6	1.004111
3	0x3f867d66	1.0507019

alpha f4 [6, 4]
0	0x3d5dc631	0.05414409
1	0xbd7caa3d	-0.06168579
2	0x3d2d023c	0.04223846
3	0x3ed5641a	0.41677934
4	0x3cd4e352	0.025987301
5	0xbd8fccae	-0.070214614
6	0x3d667899	0.056267355
7	0x3f1fdf51	0.6245013
8	0xbd57ecf9	-0.05271623
9	0xbbfa4852	-0.007638016
10	0xbd3b31ba	-0.04570172
11	0x3efcafb1	0.49352792
12	0xbd905d22	-0.07049014
13	0x3d9cc13e	0.076540455
14	0xbbaceb68	-0.005277086
15	0xbc89ebaa	-0.016836006
16	0xbca7db0f	-0.020490197
17	0x3de8f586	0.11374955
18	0x3d0e899b	0.0347992
19	0xbd3e0c41	-0.046398405
20	0x3d884005	0.06652836
21	0x3dac675f	0.08418154
22	0xbbaca8e5	-0.0052691572
23	0x38deaf79	0.00010618469

omega f4 [6, 4]
0	0x3e472684	0.19448286
1	0x3e4e828a	0.20166984
2	0x3e574849	0.21023668
3	0x3e913ce2	0.28366762
4	0x3e375690	0.17904115
5	0x3e48f797	0.19625698
6	0x3e4c731f	0.1996579
7	0x3ddc4011	0.10754407
8	0x3e4dce56	0.20098242
9	0x3e59bd5e	0.21263644
10	0x3e41e184	0.18933684
11	0x3dbc958c	0.09208211
12	0x3e1a1a2d	0.15049048
13	0x3e5a223c	0.21302122
14	0x3e5e48ef	0.2170751
15	0x3e26f64f	0.16304897
16	0x3def1f0d	0.11675844
17	0x3dff6062	0.124695554
18	0x3e39f978	0.18161571
19	0x3dc98d2e	0.09841381
20	0x3ded5958	0.115893066
21	0x3daa257d	0.083079316
22	0x3dc0a9c9	0.09407384
23	0x3e2e8a91	0.17045046

linears.0.weight f4 [50, 2]
0	0xbd96fd81	-0.07372571
1	0x3c96aefe	0.01839399
2	0x3e3901be	0.18067071
3	0x3efc6426	0.49295157
4	0x3df3d8d1	0.11906589
5	0xbee2064c	-0.4414543
6	0x3e989d39	0.2980745
7	0xbea4da68	-0.3219788
8	0xbdfc34c1	-0.123147495
9	0x3dc67317	0.096899204
10	0x3e1490f5	0.14508422
11	0xbebca702	-0.36846167
12	0x3e115011	0.14190699
13	0x3d1ec746	0.03876426
14	0x3cceb31d	0.025231892
15	0x3d7f1cc3	0.06228329
16	0x3d281101	0.04103184
17	0xbe8790bc	-0.2647761
18	0xbeae6831	-0.34063867
19	0x3c111dca	0.0088572
20	0x3c8049d6	0.015660208
21	0xbefc6fd1	-0.4930406
22	0xbe8c5281	-0.27406695
23	0xbbc68946	-0.0060588447
24	0xbe52f8ff	-0.20602797
25	0xbc1923a8	-0.00934688
26	0x3edff68a	0.43742782
27	0x3e7ad152	0.24493912
28	0xbdcdbcbd	-0.100457646
29	0xbe4a682e	-0.19766304
30	0x3e1579a0	0.14597178
31	0xbd94c09b	-0.07263299
32	0x3e86d785	0.26336303
33	0xbe8f275c	-0.27959716
34	0x3e977473	0.2958103
35	0x3d8aca28	0.067768395
36	0x3ea3fbc0	0.32028008
37	0x3ddba700	0.10725212
38	0x3e4a7e3b	0.19774716
39	0x3b3e19ce	0.002900708
40	0x3e4b4c8a	0.19853416
41	0x3e2979f7	0.16550432
42	0xbe013a53	-0.12619905
43	0x3e45d578	0.19319713
44	0xbe95dbd7	-0.29269287
45	0xbe47c517	-0.19508778
46	0xbe253130	-0.16132045
47	0x3d91e183	0.07123091
48	0x3d90e6a8	0.07075244
49	0x3d022ef7	0.03178307
50	0xbb259f8c	-0.00252721
51	0x3de42bf6	0.111411974
52	0x3db3816e	0.08764921
53	0x3e118197	0.14209591
54	0x3d19377f	0.03740644
55	0x3eb84b5f	0.35995004
56	0xbe5292ed	-0.2056386
57	0x3e0401ef	0.12891363
58	0x3db419ad	0.0879396
59	0xbe444e62	-0.19170526
60	0x3c63e418	0.013909362
61	0x3e2b2388	0.16712773
62	0x3a6b6dcc	0.00089808996
63	0x3ea19923	0.31562147
64	0x3e0fedb4	0.1405552
65	0xbe5e3c78	-0.21702754
66	0xbe3b63ba	-0.18299761
67	0xbe00e4e8	-0.12587321
68	0xbe450ea0	-0.1924386
69	0xbe561ac8	-0.20908654
70	0xbd43baa7	-0.047785427
71	0xbed358d3	-0.41278705
72	0x3e8b36b9	0.27190188
73	0xbe6878b1	-0.2270229
74	0xbd546b69	-0.051860247
75	0xbe75f50a	-0.24019256
76	0xbd8623a9	-0.065497704
77	0xbc1b9ef3	-0.009498346
78	0x3e615cf3	0.22008114
79	0xbeabc946	-0.33551997
80	0xbe98f306	-0.29872912
81	0x3b229512	0.002480809
82	0x3e2f7794	0.17135459
83	0xbeab56ca	-0.33464652
84	0xbe1483e9	-0.14503445
85	0xbd0bf79d	-0.03417169
86	0xbd934d36	-0.07192461
87	0xbbf47ba3	-0.0074610277
88	0x3d9d9d1b	0.07695981
89	0x3e43f346	0.1913577
90	0x3d523916	0.051323973
91	0xbe82cefd	-0.25548545
92	0xbe816e9d	-0.25279704
93	0x3c8833a9	0.016626196
94	0xbea2b2ba	-0.31776983
95	0x3e81f26b	0.25380263
96	0xbe20ec56	-0.15715155
97	0xbdcb1546	-0.09916167
98	0x3e99a8d1	0.3001161
99	0xbe93e90b	-0.28888735

linears.0.bias f4 [50]
0	0xbcb77cc2	-0.022398356
1	0x3c259144	0.010105435
2	0x3de9dcc1	0.114190586
3	0xbb279da9	-0.002557615
4	0xbcbcb4c1	-0.023035409
5	0x3d117842	0.035515077
6	0x3ce61bbe	0.0280894
7	0xbcbae279	-0.022813069
8	0xbd4cc6cc	-0.049994275
9	0xbdaf7923	-0.08568027
10	0x3d0ee291	0.03488404
11	0x3c3fcc14	0.011706371
12	0x3cfe5332	0.03104553
13	0xbb98a709	-0.004658584
14	0x3c145196	0.009052655
15	0x3dfd8063	0.123780034
16	0x3d1318fb	0.035912495
17	0x3d6e55cb	0.058187287
18	0x3e101876	0.14071831
19	0x3cf4891f	0.02985054
20	0xbd445ec2	-0.04794193
21	0x3c92c3a8	0.017915562
22	0xbc874433	-0.016512012
23	0x3d3e261b	0.04642306
24	0x3b37ed53	0.002806504
25	0x3d01c816	0.031684957
26	0x3ce975de	0.028498586
27	0xbbace8a8	-0.005276758
28	0x3d471d48	0.04861191
29	0x3b9e3e0a	0.004829173
30	0xbc80f373	-0.015741086
31	0xbdb4c6e8	-0.08827001
32	0xbcea2992	-0.028584275
33	0xbd617218	-0.05504045
34	0xbe0eb2bc	-0.13935369
35	0xbceaf128	-0.028679445
36	0x3c266eff	0.0101582995
37	0xbcc47128	-0.023979738
38	0x3c5513c9	0.013005205
39	0xbb4d7b51	-0.003135402
40	0x3aa1b6aa	0.0012337763
41	0x3d9583d3	0.07300534
42	0xbbce5da5	-0.0062977844
43	0xbbc27e16	-0.005935441
44	0xbd8c253c	-0.068430394
45	0x3d9d93db	0.07694217
46	0x3c09327d	0.008373854
47	0x3d9b521d	0.07584021
48	0xbcdf1116	-0.027229827
49	0x3e63235b	0.22181456

linears.1.weight f4 [50, 50]
0	0x3e3c17c8	0.18368447
1	0x3da61f06	0.08111386
2	0x3e243d7e	0.16039082
3	0xbe0dcbdd	-0.13847299
4	0xbe57fbad	-0.210921
5	0x3e06d1ac	0.13165921
6	0xbd9ae54c	-0.07563266
7	0xbe259059	-0.16168346
8	0xbdcd54ba	-0.10025926
9	0x3d937a99	0.07201118
10	0xbd1f74e6	-0.038929842
11	0x3e80d852	0.2516504
12	0xbe453da1	-0.19261791
13	0x3d81346f	0.06308829
14	0xbe417f64	-0.18896252
15	0xbd94421d	-0.072391726
16	0xbd861de5	-0.06548671
17	0xbdbc6a38	-0.09199947
18	0xbe1b9206	-0.15192422
19	0x3d91432e	0.07092892
20	0x3e01077d	0.12600513
21	0xbc347673	-0.011014569
22	0xbeb9fb52	-0.36324555
23	0xbd5b7de3	-0.05358685
24	0x3e0efae7	0.13962899
25	0xbdbf9082	-0.093537346
26	0x3e63cdaf	0.22246431
27	0xbd63e8f1	-0.055642072
28	0xbda78f4a	-0.08181627
29	0xbcf521eb	-0.0299234
30	0xbe752539	-0.2393998
31	0xbe261a65	-0.16221006
32	0x3cca024d	0.0246593
33	0xbe3d5e2f	-0.1849296
34	0xbe91d748	-0.2848456
35	0x3e88e90e	0.26740307
36	0xbe16943a	-0.14704981
37	0xbd2573d6	-0.040393673
38	0xbcb1c384	-0.021699674
39	0x3db926e4	0.09040621
40	0x3d7a9251	0.061174694
41	0xbcb88a4d	-0.022526884
42	0x3dcac380	0.0990057
43	0x3d15dc8a	0.036587276
44	0x3e27072d	0.16311331
45	0x3d13f30a	0.036120452
46	0xbd5210bc	-0.05128549
47	0x3caab94b	0.020840308
48	0xbd7331a2	-0.059373505
49	0x3ea7d41e	0.3277902
50	0xbd0d40b1	-0.034485523
51	0xbeec570e	-0.46160167
52	0x3e85cc82	0.2613259
53	0xbe3c134b	-0.18366735
54	0x3e544274	0.20728475
55	0xbe368de5	-0.17827566
56	0xbd4faeda	-0.05070386
57	0x3e690c0e	0.22758505
58	0xbeaedf28	-0.3415463
59	0x3e16604b	0.1468517
60	0xbd4d5402	-0.050128944
61	0xbe5e8410	-0.21730065
62	0x3df7332a	0.12070306
63	0xbd2cd7ba	-0.04219792
64	0xbe14725d	-0.14496751
65	0x3cffb495	0.031214038
66	0xbe76eb77	-0.2411326
67	0x3e338501	0.17531206
68	0xbd52bdd9	-0.051450584
69	0x3dec5b57	0.11540859
70	0xbcac8ae8	-0.02106233
71	0xbdcab437	-0.098976545
72	0xbdf293bc	-0.11844584
73	0x3e4bca87	0.19901477
74	0xbd59f039	-0.05320761
75	0xbe55ae43	-0.20867257
76	0xbbe6403c	-0.0070267003
77	0xbe62a661	-0.22133781
78	0x3c0ae1ea	0.008476714
79	0xbe3a497b	-0.18192093
80	0xbd24a5ed	-0.0401973
81	0xbc691251	-0.014225558
82	0x3de41d61	0.11138416
83	0x3dde54c3	0.10856011
84	0xbe195372	-0.14973238
85	0xbcec6f6b	-0.028861722
86	0x3d8295cb	0.06376227
87	0xbd4a6ac4	-0.049418226
88	0xbd9edc43	-0.07756855
89	0xbe6456be	-0.22298715
90	0x3bb3cdb0	0.0054871663
91	0xbe9dcdd3	-0.30821094
92	0xbd092916	-0.03348645
93	0x3bb0de03	0.0053975596
94	0xbda8deff	-0.08245658
95	0x3d528f55	0.051406223
96	0x3ddd481f	0.10804772
97	0xbe8f6dbf	-0.28013417
98	0xbd896ed6	-0.067105934
99	0xbdf1eaf5	-0.118123926
100	0x3d4cdcd8	0.0500153
101	0xbccdda70	-0.025128573
102	0x3e2b6a54	0.1673978
103	0xbe00bd64	-0.12572247
104	0x3e72d74d	0.23714943
105	0x3c6521ce	0.01398511
106	0x3db5f826	0.08885221
107	0x3d97c289	0.074101515
108	0x3e85efd1	0.26159528
109	0x3dc4eef1	0.09615887
110	0xbe15fee3	-0.14648013
111	0xbde73ad0	-0.112905145
112	0x3e668cf8	0.22514713
113	0xbc64bb1d	-0.013960627
114	0x3d5a68bd	0.053322542
115	0x3e09d888	0.13461506
116	0x3c3e2427	0.011605299
117	0x3e2647d1	0.16238333
118	0xbe4686d8	-0.19387376
119	0x3de536b4	0.111920744
120	0x3daa4d54	0.083155304
121	0xbe084397	-0.13307033
122	0x3df9f7ae	0.12205444
123	0x3e1b4861	0.15164329
124	0xbd90743e	-0.070534214
125	0x3db6d17d	0.089266755
126	0xbe618445	-0.22023113
127	0xbe899da2	-0.26878077
128	0xbe2a3ba9	-0.16624321
129	0xbdbc6e8a	-0.09200771
130	0xbe031673	-0.12801532
131	0xbdcb2bf2	-0.09920491
132	0xbd237785	-0.039908905
133	0x3e510acb	0.20414273
134	0xbe49b93b	-0.19699566
135	0x3cd919b2	0.02650151
136	0x3ead3283	0.338276
137	0xbe15c129	-0.14624466
138	0xbd3ddc1d	-0.046352495
139	0x3db4f4f5	0.08835784
140	0xbd55558c	-0.052083537
141	0xbd1ac7e4	-0.037788287
142	0xbe53d98d	-0.20688458
143	0x3dc8061a	0.09766789
144	0xbcb8aee0	-0.022544324
145	0x3d0e4b52	0.0347398
146	0x3eaae609	0.33378628
147	0x3d932fd0	0.07186854
148	0xbe5a952a	-0.21345964
149	0xbd2dfc10	-0.042476714
150	0xbe9dbd0e	-0.308083
151	0xbe359ed3	-0.17736368
152	0x3df94b95	0.12172619
153	0xbb8070c1	-0.0039196913
154	0xbda38d85	-0.07985977
155	0xbe2b7f42	-0.16747764
156	0xbcad051f	-0.021120606
157	0xbdf2b943	-0.11851742
158	0x3d659cb3	0.056057643
159	0xb92b78fb	-0.000163529
160	0xbe114255	-0.1418546
161	0xba5f51c2	-0.0008518958
162	0x3d18264a	0.03714589
163	0x3e587b3c	0.2114076
164	0xbe4423c6	-0.19154271
165	0xbda510a0	-0.080598116
166	0x3da64de0	0.08120322
167	0x3d91c227	0.0711711
168	0x3e11912b	0.14215533
169	0x3cf6a92b	0.030109962
170	0x3e3722c4	0.17884356
171	0x3e2d8587	0.16945468
172	0xbc46b6fa	-0.012128586
173	0xbe02f4dc	-0.12788719
174	0xbe58a3f4	-0.21156293
175	0x3dd2bb8c	0.10289678
176	0x3d066baf	0.03281754
177	0xbd94a5a3	-0.07258155
178	0xbcf25f18	-0.02958636
179	0x3dc271f9	0.09494395
180	0xbd986ca7	-0.07442599
181	0xbde28c5f	-0.1106193
182	0x3e75ea80	0.24015236
183	0x3e81ae0a	0.25328094
184	0x3d077a31	0.033075515
185	0xbe396fff	-0.1810913
186	0x3d89ed0b	0.067346655
187	0xbd71eafc	-0.05906199
188	0x3de6453f	0.112436764
189	0xbdbcde5f	-0.092221014
190	0xbe3c03c4	-0.18360811
191	0xbe084546	-0.13307676
192	0x3da74b39	0.081686445
193	0x3e45bc51	0.19310118
194	0x3dd05742	0.10172893
195	0x3e80bb87	0.25143072
196	0xbbddc7d5	-0.0067682066
197	0xbd2de0a8	-0.042450577
198	0xbd74cb36	-0.05976411
199	0xbc8fa270	-0.01753351
200	0x3e3b6b97	0.18302761
201	0xbe12f76a	-0.14352193
202	0xbeb4d7c6	-0.35320872
203	0xbe5234cc	-0.20527953
204	0xbd046b23	-0.032328736
205	0xbe4dc182	-0.20093349
206	0xbe518857	-0.20462166
207	0xbdf9fab4	-0.12206021
208	0xbe649bb3	-0.2232502
209	0x3e1df2b4	0.15424615
210	0x3b2e666f	0.0026611348
211	0x3dd4a11d	0.103822924
212	0xbbe5cdbf	-0.0070130522
213	0xbd70c987	-0.05878594
214	0xbc44859b	-0.011994745
215	0xbdcf4076	-0.10119717
216	0xbe0100cf	-0.12597965
217	0xbd66165d	-0.05617367
218	0x3eba6098	0.3640182
219	0x3e290326	0.16505107
220	0x3e0ea787	0.13931094
221	0xbd4ba9c4	-0.049722448
222	0xbea8ca06	-0.32966632
223	0xbe272a83	-0.1632481
224	0x3c9275f8	0.017878518
225	0x3d63d7d4	0.05562575
226	0x3dbd0651	0.092297204
227	0x3d349727	0.044089463
228	0x3caad63b	0.020854106
229	0xbe56a483	-0.20961194
230	0xbda6a75a	-0.081373885
231	0xbe76d0b1	-0.24103047
232	0xbde5b800	-0.11216736
233	0xbe73fb5f	-0.23826359
234	0x3dad1940	0.08452082
235	0x3e636db5	0.22209819
236	0xbd5ebef7	-0.054381337
237	0x3ce8af4a	0.028403897
238	0xb62a2652	-2.535428e-06
239	0x3cf8d314	0.030374087
240	0xbe395d83	-0.18102078
241	0x3d5f7cd6	0.054562412
242	0xbe892caa	-0.26791888
243	0xbe9e6aff	-0.30941007
244	0xbd996d71	-0.074915774
245	0xbe17e68b	-0.14834039
246	0xbe9127e5	-0.2835075
247	0xbc8cddbe	-0.017195579
248	0x3e1e4d36	0.15459141
249	0x3e147a63	0.14499812
250	0xbda9a4a2	-0.08283354
251	0xbe8be6b3	-0.27324447
252	0x3da0bf95	0.078490414
253	0xbe81c8ce	-0.25348514
254	0xbe465be0	-0.19370985
255	0x3dae292e	0.08503948

linears.1.bias f4 [50]
0	0x3d4ad803	0.04952241
1	0xbda1aab1	-0.07893885
2	0x3d4c5857	0.049888935
3	0x3cdadea2	0.026717488
4	0xbd106b64	-0.035258666
5	0x3e2b92b0	0.16755176
6	0x3db6fe4d	0.08935223
7	0x3bf188ec	0.0073710587
8	0xbd9fc2c4	-0.078008205
9	0xbd3e242b	-0.04642121
10	0x3d0f8025	0.035034318
11	0x3afe8513	0.0019418321
12	0xbcefd08b	-0.029274246
13	0xbc07d9f9	-0.008291715
14	0x3d87c5eb	0.06629547
15	0x3c988917	0.018620057
16	0xbbda1797	-0.006655644
17	0x3def111a	0.11673184
18	0xbd4d1b16	-0.05007466
19	0x3bfd35af	0.007727347
20	0x3d86d211	0.06583036
21	0xbd528a56	-0.05140146
22	0xbbcf907e	-0.0063343635
23	0xbd019ada	-0.03164182
24	0x3d129243	0.035784017
25	0xbb6f9a4b	-0.0036560472
26	0x3c146a00	0.0090584755
27	0x3d0e0be6	0.034679316
28	0xbb1daafb	-0.002405821
29	0xbc28ab0b	-0.010294686
30	0xbd0831de	-0.033250682
31	0x3ce81eb1	0.028334947
32	0x3cba05a9	0.022707777
33	0x3cff1973	0.031140065
34	0xbca07c07	-0.01959039
35	0xbd1454c6	-0.03621366
36	0xbb5f6190	-0.0034085251
37	0x3dedc489	0.11609752
38	0x3ccdfd20	0.025145113
39	0xbdc9ec40	-0.09859514
40	0x3cb4c751	0.022067698
41	0xbdcb415b	-0.09924575
42	0x3d3a4775	0.045478303
43	0xbcc87137	-0.024468048
44	0x3d9c5a76	0.076344416
45	0xbca7beae	-0.020476665
46	0xbd0bc935	-0.034127433
47	0x3d62dfbc	0.05538915
48	0xbce3a5db	-0.027789047
49	0x3d0f9d3c	0.03506206

linears.2.weight f4 [50, 50]
0	0x3deaf489	0.11472423
1	0xbd9da520	-0.07697511
2	0xbe61c209	-0.22046675
3	0xbe2b3eb8	-0.16723144
4	0x3df971b2	0.12179889
5	0x3e29f1eb	0.1659619
6	0xbd42395b	-0.04741798
7	0xbe521c5c	-0.2051863
8	0x3d8074b4	0.06272259
9	0xbda65ea1	-0.08123518
10	0x3db628f6	0.088945314
11	0xbd746f36	-0.05967637
12	0xbcdd8466	-0.027040672
13	0xbe5640fa	-0.20923224
14	0xbe531ee0	-0.20617247
15	0xbe37bd59	-0.17943324
16	0xbd29c662	-0.04144896
17	0xbd2f1803	-0.04274751
18	0x3c520eda	0.012820924
19	0xbd8a62da	-0.06757136
20	0xbde0a354	-0.10968652
21	0x3b10a1b0	0.002206903
22	0x3e3bfb0c	0.18357486
23	0x3a89fef5	0.0010528254
24	0x3c8adb30	0.01695022
25	0x3e01b2d6	0.12665877
26	0x3e21ee4c	0.1581356
27	0xbc3fa28c	-0.011696469
28	0xbdc5d86d	-0.096604206
29	0xbc65ab17	-0.014017842
30	0x3e6b86c8	0.23000634
31	0xbd9ac113	-0.07556357
32	0x3d54ce00	0.05195427
33	0xbe2a3de1	-0.16625167
34	0xbdfb506d	-0.122711994
35	0xbe239983	-0.15976529
36	0xbe79ab2e	-0.24381706
37	0x3e018964	0.12650067
38	0x3dcc96da	0.0998971
39	0xbe71e2ef	-0.23621725
40	0xbd7ad3a7	-0.061237004
41	0xbca0b60f	-0.019618062
42	0x3c104409	0.008805283
43	0x3d18d2e0	0.03731048
44	0xbea0cd54	-0.31406653
45	0xbde97889	-0.113999434
46	0xbd03b0c2	-0.03215099
47	0xbe5a63c5	-0.21327122
48	0xbd85eef4	-0.06539717
49	0x3c2a5a76	0.010397544
50	0xbe3d5ebd	-0.18493171
51	0x3e6bb45a	0.23018017
52	0x3dfe37a3	0.124129556
53	0x3e51d8fa	0.20492926
54	0xbe496140	-0.19666004
55	0x3d3f3176	0.04667803
56	0xbe4a8bf4	-0.1977995
57	0x3d77d55b	0.060506206
58	0x3deaa0b4	0.11456433
59	0x3e1edb12	0.15513256
60	0xbd3d5681	-0.046225075
61	0x3ea8c6e8	0.32964253
62	0xbe55aac6	-0.20865926
63	0x3e1a78d3	0.15085153
64	0xbdd6cb39	-0.104879804
65	0x3da2d13c	0.079500645
66	0xbe691d62	-0.22765115
67	0x3e8d4942	0.27594954
68	0xbe4c4742	-0.19949058
69	0x3dd5fee6	0.10449009
70	0x3d54adc0	0.051923513
71	0x3dbfe256	0.09369342
72	0x3e543983	0.20725064
73	0xbe2d0e87	-0.16900073
74	0x3e74c295	0.23902352
75	0xbeb00429	-0.34378174
76	0xbcbbc7b5	-0.022922376
77	0x3e29e888	0.1659261
78	0x3d587ab3	0.05285139
79	0xbea71da1	-0.32639793
80	0xbe6aff1a	-0.22948876
81	0xbe2b04af	-0.16701005
82	0x3e60667d	0.21914096
83	0x3e7e1786	0.24813661
84	0x3eaef7e5	0.34173504
85	0xbbdaa087	-0.0066719684
86	0xbdd7a4f5	-0.1052951
87	0xbdf0045e	-0.11719583
88	0xbdda7ffc	-0.10668942
89	0x3e2c67c8	0.16836464
90	0x3d8d58be	0.06901692
91	0xbc1d5543	-0.0096028475
92	0xbdc1170f	-0.09428226
93	0x3a05b493	0.0005100455
94	0xbdaeffc4	-0.08544877
95	0xbe68ba5e	-0.22727343
96	0xbe14aa5f	-0.14518116
97	0xbd07c9c7	-0.033151414
98	0xbd8fb01c	-0.07016012
99	0xbcc33260	-0.023827732
100	0x3d990459	0.074715324
101	0x3e8cd1b9	0.27503756
102	0x3df297cd	0.1184536
103	0xbe4b1213	-0.19831114
104	0xbddc06b1	-0.10743464
105	0xbda85656	-0.08219592
106	0xbe390eb6	-0.18072018
107	0xbeb09be6	-0.3449394
108	0xbe24690d	-0.16055699
109	0xbde1aa90	-0.1101886
110	0x3e6cb2c3	0.23115067
111	0xbe1f788c	-0.15573329
112	0x3d20b3b8	0.039233893
113	0x3d6767a1	0.056495313
114	0x3d37747c	0.044788823
115	0x3e960021	0.29296973
116	0x3d143de3	0.036191832
117	0xbcfb37ef	-0.03066632
118	0xbdfda0d2	-0.1238419
119	0x3b0c817b	0.002143948
120	0xbda664fa	-0.081247285
121	0x3c69ca28	0.014269389
122	0xbe6b9016	-0.23004183
123	0xbe43f607	-0.1913682
124	0x3d491948	0.049096376
125	0xbe7b2ccb	-0.24528806
126	0x3e2faf4b	0.17156713
127	0x3ea7a5d4	0.32743704
128	0x3e702f3b	0.23455517
129	0xbd4dcc42	-0.050243624
130	0x3e677388	0.22602665
131	0xbd79a3d4	-0.060947254
132	0xbdc81e73	-0.09771433
133	0xbe42ce71	-0.19024064
134	0xbe551eb0	-0.20812488
135	0xbd06f52f	-0.03294867
136	0x3ccdcac0	0.025121093
137	0xbd242c3b	-0.040081244
138	0x3e71f131	0.23627163
139	0xbe8c9338	-0.2745607
140	0x3ea29897	0.31757042
141	0xbe06bbaa	-0.13157526
142	0xbd0e3e38	-0.034727305
143	0x3ed3ccda	0.41367227
144	0x3dad62ac	0.08466086
145	0x3cf1e44c	0.029527806
146	0xbd9cff87	-0.076659255
147	0xbd075968	-0.03304425
148	0x3e0b699d	0.13614507
149	0xbdfc0f7f	-0.12307643
150	0xbe348e08	-0.17632306
151	0xbe1b5591	-0.1516936
152	0xbe623726	-0.2209135
153	0xbe271e6a	-0.16320196
154	0xbd69d99c	-0.057092294
155	0x3e484e49	0.19561113
156	0x3cee6ad4	0.029103674
157	0xbe28a55a	-0.16469327
158	0xbdb8691a	-0.090044215
159	0x3b93a793	0.0045060604
160	0x3dd46f26	0.103727624
161	0x3df0ddc8	0.117610514
162	0xbd5bcb79	-0.053660844
163	0xbe15764e	-0.14595911
164	0xbd8bfdc3	-0.068355106
165	0xbd256868	-0.040382773
166	0xbc90e0d4	-0.017685331
167	0xbe26719c	-0.16254276
168	0xbe51ce6f	-0.20488904
169	0xbe0409c0	-0.12894344
170	0xbd8fbcb3	-0.070184134
171	0xbc7a90db	-0.015293325
172	0xbdc2e9d9	-0.09517259
173	0x3da856d6	0.08219688
174	0xbe557ded	-0.20848818
175	0xbe3a5729	-0.18197311
176	0x3eb0008d	0.3437542
177	0xbe4bda33	-0.19907455
178	0x3d6b6928	0.05747333
179	0xbb035407	-0.0020039098
180	0xbcf90ac8	-0.030400649
181	0x3dee5630	0.11637533
182	0x3ebd6b69	0.3699601
183	0xbcca6db7	-0.02471052
184	0x3bcce53d	0.0062529133
185	0x3b542e88	0.0032376368
186	0x3cbdc74e	0.023166325
187	0xbd125a75	-0.035730798
188	0x3d283be1	0.04107273
189	0xbcaefae1	-0.021359863
190	0xbe9d476f	-0.30718562
191	0x3d43bc61	0.047787074
192	0xbe5ac683	-0.21364789
193	0xbc413a52	-0.01179369
194	0xbd97dbdb	-0.07414981
195	0xbce77427	-0.028253628
196	0xbe2aa982	-0.16666225
197	0xbc5de157	-0.013542495
198	0x3d7fe253	0.0624717
199	0xbe349e84	-0.17638594
200	0x3bb8160c	0.0056178626
201	0x3cd586c5	0.02606524
202	0x3dd9e47a	0.106392816
203	0x3d04849a	0.03235302
204	0x3d979841	0.07402087
205	0xbe84e70c	-0.25957525
206	0xbe225bd1	-0.15855338
207	0x3c957104	0.018242367
208	0xbd6b0088	-0.057373554
209	0x3df78370	0.120856166
210	0x3e584052	0.21118286
211	0xbe42d354	-0.19025928
212	0x3d1e94f9	0.03871629
213	0xbd10f62d	-0.03539102
214	0xbb6c73ca	-0.0036079758
215	0xbd7ca0c5	-0.06167676
216	0xbe1674ec	-0.1469304
217	0xbdb2a044	-0.087219745
218	0x3dba6532	0.09101333
219	0x3e791967	0.24326096
220	0x3e6b51a0	0.22980356
221	0xbe5b18e1	-0.2139621
222	0x3dc0db8f	0.094168775
223	0xbd44d2b8	-0.04805252
224	0x3d593407	0.053028133
225	0x3d824b1a	0.06361981
226	0xbd0d0a18	-0.034433454
227	0xbd432a16	-0.04764756
228	0xbe101427	-0.14070188
229	0xbe0fc9fb	-0.14041893
230	0xbd186092	-0.03720147
231	0x3b0179e1	0.0019756483
232	0x3d16338d	0.036670256
233	0x3d9f858a	0.077891424
234	0x3e28ce50	0.16484952
235	0xbca2aaf6	-0.019856911
236	0x3e87f3bc	0.26553142
237	0xbe9b9163	-0.3038436
238	0x3da96a8b	0.082722746
239	0x3e4f9c65	0.20274504
240	0x3ddf1473	0.10892572
241	0xbe05e3cf	-0.13075183
242	0xbe3e3f29	-0.18578781
243	0x3e147d14	0.14500839
244	0x3e03011b	0.1279339
245	0x3e3af167	0.1825615
246	0xbda8bc1c	-0.08239004
247	0x3da40590	0.080088735
248	0xbd97033d	-0.073736645
249	0x3df26e3e	0.11837433
250	0xbd1e78ce	-0.038689427
251	0x3e78dd14	0.24303085
252	0x3e0f84eb	0.14015548
253	0x3e7eb56c	0.24873894
254	0x3e121925	0.14267404
255	0xbd2e37ba	-0.042533614

linears.2.bias f4 [50]
0	0x3b83c64a	0.0040214406
1	0x3a7d8fb7	0.0009672599
2	0xbc079883	-0.008276108
3	0xbccd7604	-0.025080688
4	0xbd9a8167	-0.07544213
5	0x3c2006b9	0.009767228
6	0xbd35b62f	-0.044363197
7	0xbc811942	-0.015759114
8	0x3cf28b76	0.029607516
9	0x3d791e7d	0.06082009
10	0x3c0b078c	0.008485686
11	0xbbb41050	-0.0054951087
12	0xbc86be6b	-0.01644822
13	0xbccf9fd8	-0.025344774
14	0xbd4fe500	-0.0507555
15	0x3c90f6e6	0.017695855
16	0x3b3c8b8d	0.0028769702
17	0x3ce7a9ec	0.028279267
18	0x3cde1f6b	0.02711459
19	0x3ccabd01	0.024748327
20	0x3af18bc6	0.0018428497
21	0x3cd6f73a	0.026240934
22	0x3c953ba8	0.018216923
23	0xbc9cc2b9	-0.01913582
24	0xbc8b49fb	-0.01700305
25	0xbc3074e7	-0.010770059
26	0x3b354811	0.0027661363
27	0x3cb4749d	0.022028262
28	0xbd040014	-0.032226637
29	0xbd2dc59a	-0.042424776
30	0x3bdf2da4	0.0068108607
31	0xbca15467	-0.019693566
32	0x3a020e1d	0.00049612095
33	0x3c9298e6	0.017895173
34	0x3bde6284	0.0067866463
35	0xbc0bf6a2	-0.008542689
36	0x3c185a13	0.009298819
37	0x3d7d0f1a	0.06178198
38	0x3ccd43bd	0.025056714
39	0x3a61f8ea	0.000862016
40	0x3bd22344	0.0064128954
41	0x3cca72b5	0.0247129
42	0x3cc0a349	0.02351536
43	0xbc0170d8	-0.007900439
44	0x3bbd74f2	0.0057817632
45	0xbd7835ce	-0.060598187
46	0x3d3c2b57	0.04593977
47	0x3c21bd12	0.009871738
48	0xbb86ac9e	-0.004109933
49	0xbc7d13d0	-0.015446618

linears.3.weight f4 [50, 50]
0	0x3d279a83	0.04091884
1	0xbc7301d6	-0.014831981
2	0xbe164138	-0.14673316
3	0x3e04e39d	0.12977453
4	0x3e02438e	0.12721083
5	0xbe1c1830	-0.15243602
6	0x3d80af5e	0.06283449
7	0x3e688767	0.22707902
8	0xbb0c2ce7	-0.0021389069
9	0x3defed9a	0.11715241
10	0xbd1f9f4f	-0.038970288
11	0xbd89bd56	-0.06725566
12	0xbecd8be5	-0.40145794
13	0x3e02d179	0.1277522
14	0x3d41b2cd	0.04728966
15	0x3daa017b	0.083010636
16	0xbd3b2c41	-0.0456965
17	0xbe87e4bf	-0.26541707
18	0xbd80eea6	-0.062955186
19	0xbd16079b	-0.036628347
20	0x3d9fee33	0.07809105
21	0xbe649a3b	-0.22324459
22	0xbdd8f240	-0.105930805
23	0x3e1b4c60	0.15165854
24	0x3d87d4a3	0.06632354
25	0xbd536894	-0.051613405
26	0xbe508348	-0.2036258
27	0x3d010e0a	0.03150753
28	0xbd3df41e	-0.046375386
29	0xbd18776d	-0.03722327
30	0xbdc5657b	-0.096384965
31	0x3dd30603	0.10303881
32	0x3cc2d104	0.023781307
33	0x3e8fcba7	0.28085062
34	0xbe1b5481	-0.15168954
35	0xbe597542	-0.21236137
36	0x3d790243	0.060793173
37	0xbda20aca	-0.07912214
38	0xbe634859	-0.22195567
39	0x3d9a12b8	0.075231016
40	0xbe54691c	-0.20743221
41	0x3db83bb8	0.089957654
42	0xbe3ab144	-0.18231684
43	0xbdcd35c0	-0.100200176
44	0x3c16a4cd	0.009194565
45	0xbd22af37	-0.03971788
46	0xbdca0551	-0.09864295
47	0x3e02954c	0.12752265
48	0xbdc3eb7d	-0.095664
49	0x3dc9c563	0.09852102
50	0x3d6ad75a	0.05733428
51	0xbdb9046e	-0.09034048
52	0x3dfec410	0.1243974
53	0x3e5e7ba2	0.2172685
54	0x3df210e0	0.11819625
55	0xbce242aa	-0.027619679
56	0xbd2cda70	-0.042200506
57	0xbe3a3ed7	-0.18188034
58	0xbdda1f67	-0.10650521
59	0xbd8edb1c	-0.069753855
60	0x3e2e73b0	0.17036319
61	0x3e3fadf8	0.18718708
62	0xbd9a3cc2	-0.0753112
63	0xbda539ec	-0.08067688
64	0xbe0a73e6	-0.13520774
65	0x3dcc6776	0.09980671
66	0xbd027267	-0.031847384
67	0xbe690fe4	-0.22759968
68	0x3d9239f7	0.07139962
69	0xbe7ab560	-0.24483252
70	0x3d784a71	0.060617868
71	0xbe304c74	-0.17216665
72	0xbe27911f	-0.16363953
73	0xbe816179	-0.25269678
74	0x3e3ee7d3	0.18643121
75	0x3d520885	0.051277656
76	0xbeae8c56	-0.34091443
77	0x3ea70b7e	0.32625955
78	0x3dca04e8	0.09864217
79	0x3e08b2a9	0.13349403
80	0xbdc1750c	-0.09446153
81	0xbd110057	-0.035400715
82	0x3da5b8a3	0.08091857
83	0xbe03c2f2	-0.12867334
84	0xbda1076d	-0.078627445
85	0x3d5ed9fe	0.054407112
86	0x3e39e441	0.18153478
87	0x3d2f40e1	0.042786483
88	0xbdd60e06	-0.104518935
89	0xbe194508	-0.1496774
90	0x3e4a0613	0.1972888
91	0x3e035702	0.1282616
92	0x3de80b20	0.11330247
93	0xbd789c31	-0.06069583
94	0x3d23e03d	0.040008772
95	0x3d55c135	0.05218621
96	0x3e81a616	0.25322026
97	0x3dbb0e77	0.09133618
98	0x3d29d888	0.041466266
99	0xbd6e70fe	-0.058213226
100	0xbe35171c	-0.17684597
101	0xbde31dc1	-0.110896595
102	0x3e01e8bf	0.12686442
103	0x3d070da5	0.032971997
104	0xbdd9e0e0	-0.106385946
105	0xbdb06ecb	-0.08614882
106	0x3bb02570	0.0053755566
107	0x3d5e3bba	0.05425618
108	0xbe3e5be5	-0.18589742
109	0xbaea2286	-0.0017863072
110	0x3e0d4704	0.13796622
111	0xbd9cc543	-0.07654812
112	0x3db17583	0.08664992
113	0x3eab6068	0.3347199
114	0xbe3b9ba8	-0.18321097
115	0x3e6e5eda	0.2327837
116	0x3dafa266	0.08575897
117	0x3e4ea05f	0.20178364
118	0x3c570873	0.013124573
119	0x3e083602	0.13301852
120	0x3d35ecaf	0.044415172
121	0x3e32a2c3	0.17444901
122	0xbdb1347d	-0.086525895
123	0xbd956ca7	-0.072961144
124	0xbd7d88a1	-0.061897878
125	0x3d26d26b	0.040728014
126	0xbea1d45f	-0.3160734
127	0x3dd62373	0.1045598
128	0xbe5df3b4	-0.21674997
129	0x3e7b065c	0.24514145
130	0xbe0aefdb	-0.1356806
131	0x3e2cc7c9	0.16873087
132	0xbe5e35d6	-0.21700224
133	0x3dbfc9d8	0.093646705
134	0x3dbb4a35	0.09145013
135	0x3d33fdb4	0.043943122
136	0x3bf27319	0.0073989746
137	0xbe1ce66c	-0.15322274
138	0x3ddcb14b	0.107760035
139	0xbba37e80	-0.004989445
140	0xbaf3c1ce	-0.0018597187
141	0xbe3ca313	-0.18421583
142	0x3dcac6f6	0.0990123
143	0xbe75c375	-0.24000342
144	0x3e216edd	0.15764947
145	0x3e2ffa6e	0.17185375
146	0xbe337ef2	-0.17528895
147	0xbcde5a23	-0.02714259
148	0xbcb0e04a	-0.021591324
149	0xbe3321fc	-0.17493433
150	0xbe591749	-0.21200289
151	0xbe2f1964	-0.1709953
152	0xbe9a999b	-0.30195317
153	0x3d04ec81	0.03245211
154	0x3e98634b	0.29763255
155	0x3d47a770	0.048743665
156	0xbe137630	-0.14400554
157	0x3de7d2f0	0.1131953
158	0xbcfd7005	-0.030937204
159	0x3dad20d4	0.08453527
160	0xbd07b1ac	-0.033128425
161	0x3e6a6f25	0.22893961
162	0x3e3683b2	0.17823675
163	0xbe04db85	-0.12974365
164	0xbd04f32e	-0.032458477
165	0xbdc0a5f9	-0.09406657
166	0x3bfec3e8	0.0077748187
167	0x3c57794a	0.013151476
168	0x3bebef94	0.007200191
169	0xbe18400f	-0.14868186
170	0xbd632c61	-0.055462245
171	0xbe06c5cc	-0.13161391
172	0xbe2476b5	-0.16060908
173	0x3d82578b	0.06364354
174	0xbec53935	-0.38520208
175	0x3e51ec6a	0.20500341
176	0x3bf237b2	0.0073918933
177	0x3e14b1df	0.14520977
178	0x3e89df83	0.26928338
179	0x3d82b01f	0.06381249
180	0xbd2a0472	-0.041508146
181	0x3dba6405	0.091011085
182	0x3d4719db	0.048608642
183	0xbe8d1cb3	-0.27560958
184	0x3dc907ef	0.09815966
185	0xbda3cce5	-0.07998065
186	0x3d4edf5c	0.05050598
187	0x3cc9d69a	0.024638463
188	0x3db23ec6	0.08703379
189	0x3e0565b9	0.13027085
190	0x3d4de46e	0.050266676
191	0xbd2f8d69	-0.04285947
192	0x3dbb2e0e	0.091396436
193	0xbe0dc4b1	-0.13844563
194	0xbc6b1fba	-0.014350826
195	0xbe07f38c	-0.132765
196	0xbca012b9	-0.019540178
197	0xbe0a8971	-0.13528992
198	0x3d36377a	0.0444865
199	0xbd5c3cb2	-0.05376882
200	0x3db94580	0.09046459
201	0xbc08a5e1	-0.00834033
202	0x3dca5dd7	0.0988118
203	0xbe81eb1b	-0.25374684
204	0xbcde20ca	-0.027115244
205	0x3e54f049	0.20794787
206	0xbd886675	-0.06660167
207	0xbde7a7f0	-0.113113284
208	0xbd1b7764	-0.037955657
209	0xbdffa65a	-0.12482901
210	0x3d12b303	0.03581525
211	0x3e0e570f	0.13900398
212	0xbe4ebfaf	-0.20190309
213	0x3d6da554	0.058018997
214	0xbda0ccf0	-0.07851589
215	0xbc801d26	-0.015638899
216	0x3d24e6ae	0.040259056
217	0xbc0fcb58	-0.008776508
218	0xbdddb300	-0.10825157
219	0xbcbc2084	-0.022964723
220	0xbcb3ef37	-0.021964652
221	0xbe8032d0	-0.25038767
222	0xbde48da3	-0.111598276
223	0x3da48cb7	0.08034652
224	0xbda11937	-0.078661375
225	0x3e692e11	0.22771479
226	0xbe0f77a1	-0.14010479
227	0xbe18e68f	-0.14931701
228	0xbe1b8320	-0.15186739
229	0x3d7aac73	0.061199617
230	0xbd658503	-0.056035053
231	0xbe083e2d	-0.13304968
232	0x3d6d7fd1	0.057983223
233	0x3c912637	0.017718418
234	0xbe8510df	-0.25989434
235	0xbe21062b	-0.15725009
236	0x3da0d75d	0.07853577
237	0xbe2902ea	-0.16505018
238	0xbc487d83	-0.012236956
239	0xbd96ec98	-0.073693454
240	0x3d0f781e	0.035026662
241	0xbcfc22f4	-0.030778386
242	0x3e91ed06	0.28501147
243	0xbe3f6679	-0.18691434
244	0xbe1359ea	-0.14389768
245	0xbde8b406	-0.11362462
246	0xbdaec0b0	-0.08532846
247	0xbd2980cc	-0.041382596
248	0x3de96a40	0.11397219
249	0x3e8686d5	0.26274744
250	0xbb7d01a8	-0.0038605724
251	0x3d3a862c	0.045538113
252	0xbeb3a5de	-0.35087484
253	0xbd2fc479	-0.04291198
254	0x3e1d1820	0.15341234
255	0xbe40fb19	-0.18845786

linears.3.bias f4 [50]
0	0x3aa0db5d	0.0012272407
1	0xbcbb0405	-0.022829065
2	0x3c0a8c3f	0.008456289
3	0xb74b60ad	-1.2122252e-05
4	0x3ab1ffdd	0.0013580282
5	0xbc3f8f2c	-0.01169185
6	0xba1c24cd	-0.00059564115
7	0x3d4a3362	0.04936541
8	0xbae6f1df	-0.0017619691
9	0xbc42ffc8	-0.011901803
10	0xbcf274cd	-0.02959671
11	0xbbb4b243	-0.0055144145
12	0x3d79c636	0.060980044
13	0xb97fbfb4	-0.0002439011
14	0xbb07cc7e	-0.0020721252
15	0x3c02118d	0.007938755
16	0xbc0693e7	-0.008213974
17	0x3d9597fd	0.0730438
18	0xbb427202	-0.0029670005
19	0xbab78ea7	-0.0014004306
20	0x3b7b1204	0.0038310299
21	0xbc97317a	-0.01845621
22	0xbc08744b	-0.008328508
23	0xbb1eb429	-0.002421627
24	0xba852f10	-0.001016112
25	0x3d131de1	0.035917167
26	0x3ca74471	0.020418378
27	0x3b902fb2	0.004400217
28	0x3b775879	0.0037741943
29	0x3ae250bc	0.0017266492
30	0x3d662edb	0.05619703
31	0xbd02e164	-0.03195323
32	0xbbecf10a	-0.0072308825
33	0x3b29c56a	0.0025905021
34	0x3c24f558	0.01006826
35	0xbd110279	-0.03540275
36	0x3c0239fd	0.007948396
37	0xbaa3f49c	-0.0012508812
38	0x39130fab	0.00014024849
39	0xbb6a5c6a	-0.003576065
40	0xbbccda29	-0.0062515927
41	0xbba484a4	-0.005020695
42	0x3c1bea39	0.009516292
43	0xbb5ce9ff	-0.0033708808
44	0xbad672fb	-0.0016361171
45	0xbb457cfd	-0.0030134313
46	0x3a943682	0.0011307749
47	0xbc03b8a6	-0.008039629
48	0x3cfe8f62	0.03107423
49	0xbc25c4e7	-0.010117746

linears.4.weight f4 [1, 50]
0	0x3da79de7	0.08184414
1	0xbe477b10	-0.19480538
2	0x3dd28dc2	0.102809444
3	0x3d56ca74	0.052439168
4	0x3e9752d8	0.29555392
5	0x3e8366fa	0.25664502
6	0xbdd8071a	-0.105482295
7	0x3e3f33dd	0.18672128
8	0xbd9a80b9	-0.07544083
9	0x3d3c42fe	0.045962326
10	0x3c41ae46	0.011821335
11	0xbcc2d6ba	-0.02378403
12	0xbe74a413	-0.23890714
13	0x3d8f3eab	0.06994375
14	0x3e435abf	0.19077586
15	0x3ea07160	0.31336498
16	0x3f1abceb	0.60444516
17	0x3ea33542	0.3187657
18	0xbd874c39	-0.06606335
19	0xbe76e00c	-0.24108905
20	0x3d6f736c	0.058459684
21	0xbef4cdbc	-0.47813213
22	0xbd152464	-0.036411658
23	0xbe194b74	-0.1497019
24	0x3e02dbd4	0.1277917
25	0x3ec80220	0.3906412
26	0x3f0b20a7	0.543467
27	0xbd057660	-0.032583594
28	0x3d6417ef	0.055686887
29	0x3d3684d5	0.044560272
30	0x3e4fec65	0.20305021
31	0xbeaf3dad	-0.34226742
32	0xbed90c95	-0.42392412
33	0xbdfb0978	-0.122576654
34	0xbe03daec	-0.12876481
35	0xbe7ae140	-0.24499989
36	0x3e194c44	0.149705
37	0x3dff4a9e	0.12465404
38	0xbc25ae5c	-0.010112371
39	0x3c2d8af8	0.010592215
40	0xbea48222	-0.32130533
41	0xbcb2bf76	-0.021819811
42	0xbdee4085	-0.116334
43	0x3c107b1b	0.008818413
44	0x3d40f726	0.0471107
45	0x3d54b05a	0.051925994
46	0xbde16cf0	-0.11007106
47	0xbde42bf9	-0.111411996
48	0x3e1edcfb	0.15513985
49	0xbf1aa7f3	-0.6041252
