Archived Code/Stan TPAMI/3D/atanh_tune/3D_HTTP_atanh_tune14_6.pt (torch, 90790 bytes, 20 tensors)

alpha f4 [50, 9]
000000 2c 00 80 3f 92 ff 7f 3f fd ff 7f 3f fe ff 7f 3f
       1.0000052 0.99999344 0.9999998 0.9999999
000010 00 00 80 3f 00 00 80 3f 00 00 80 3f 00 00 80 3f
       1.0 1.0 1.0 1.0
000020 00 00 80 3f 33 00 80 3f b2 ff 7f 3f 00 00 80 3f
       1.0 1.0000061 0.99999535 1.0
000030 01 00 80 3f ff ff 7f 3f 00 00 80 3f 00 00 80 3f
       1.0000001 0.99999994 1.0 1.0
000040 00 00 80 3f 00 00 80 3f 99 fe 7f 3f e9 ff 7f 3f
       1.0 1.0 0.9999786 0.9999986
000050 04 00 80 3f 01 00 80 3f ff ff 7f 3f 00 00 80 3f
       1.0000005 1.0000001 0.99999994 1.0
000060 00 00 80 3f 00 00 80 3f 00 00 80 3f 65 ff 7f 3f
       1.0 1.0 1.0 0.99999076
000070 0c 00 80 3f 16 00 80 3f 04 00 80 3f 00 00 80 3f
       1.0000014 1.0000026 1.0000005 1.0
000080 00 00 80 3f 00 00 80 3f 00 00 80 3f 00 00 80 3f
       1.0 1.0 1.0 1.0
000090 62 00 80 3f b0 ff 7f 3f f3 ff 7f 3f 00 00 80 3f
       1.0000117 0.99999523 0.9999992 1.0
0000a0 fd ff 7f 3f 00 00 80 3f 00 00 80 3f 00 00 80 3f
       0.9999998 1.0 1.0 1.0
0000b0 00 00 80 3f 66 00 80 3f 2f 00 80 3f 0e 00 80 3f
       1.0 1.0000122 1.0000056 1.0000017
0000c0 00 00 80 3f 00 00 80 3f 00 00 80 3f 00 00 80 3f
       1.0 1.0 1.0 1.0
0000d0 00 00 80 3f 00 00 80 3f b6 ff 7f 3f 1a 00 80 3f
       1.0 1.0 0.9999956 1.0000031
0000e0 fd ff 7f 3f 00 00 80 3f ff ff 7f 3f 00 00 80 3f
       0.9999998 1.0 0.99999994 1.0
0000f0 00 00 80 3f 00 00 80 3f 00 00 80 3f 21 00 80 3f
       1.0 1.0 1.0 1.0000039
000100 ee ff 7f 3f 01 00 80 3f fe ff 7f 3f 00 00 80 3f
       0.9999989 1.0000001 0.9999999 1.0
000110 00 00 80 3f 00 00 80 3f 00 00 80 3f 00 00 80 3f
       1.0 1.0 1.0 1.0
000120 41 00 80 3f 4f 00 80 3f 0c 00 80 3f 00 00 80 3f
       1.0000077 1.0000094 1.0000014 1.0
000130 ff ff 7f 3f 00 00 80 3f 00 00 80 3f 00 00 80 3f
       0.99999994 1.0 1.0 1.0
000140 00 00 80 3f 2a 00 80 3f 05 00 80 3f 05 00 80 3f
       1.0 1.000005 1.0000006 1.0000006
000150 00 00 80 3f 00 00 80 3f 00 00 80 3f 00 00 80 3f
       1.0 1.0 1.0 1.0
000160 00 00 80 3f 00 00 80 3f a9 ff 7f 3f fa ff 7f 3f
       1.0 1.0 0.9999948 0.99999964
000170 fb ff 7f 3f 01 00 80 3f ff ff 7f 3f 00 00 80 3f
       0.9999997 1.0000001 0.99999994 1.0
000180 00 00 80 3f 00 00 80 3f 00 00 80 3f 75 fd 7f 3f
       1.0 1.0 1.0 0.9999612
000190 09 00 80 3f fe ff 7f 3f ff ff 7f 3f 00 00 80 3f
       1.0000011 0.9999999 0.99999994 1.0
0001a0 00 00 80 3f 00 00 80 3f 00 00 80 3f 00 00 80 3f
       1.0 1.0 1.0 1.0
0001b0 ff ff 7f 3f ee ff 7f 3f 03 00 80 3f fd ff 7f 3f
       0.99999994 0.9999989 1.0000004 0.9999998
0001c0 00 00 80 3f 00 00 80 3f 00 00 80 3f 00 00 80 3f
       1.0 1.0 1.0 1.0
0001d0 00 00 80 3f 0a ff 7f 3f f2 ff 7f 3f 01 00 80 3f
       1.0 0.99998534 0.99999917 1.0000001
0001e0 03 00 80 3f 00 00 80 3f 00 00 80 3f 00 00 80 3f
       1.0000004 1.0 1.0 1.0
0001f0 00 00 80 3f 00 00 80 3f 21 00 80 3f f8 ff 7f 3f
       1.0 1.0 1.0000039 0.9999995
000200 00 00 80 3f 02 00 80 3f 00 00 80 3f 00 00 80 3f
       1.0 1.0000002 1.0 1.0
000210 00 00 80 3f 00 00 80 3f 00 00 80 3f f6 ff 7f 3f
       1.0 1.0 1.0 0.9999994
000220 29 00 80 3f 00 00 80 3f 00 00 80 3f 00 00 80 3f
       1.0000049 1.0 1.0 1.0
000230 00 00 80 3f 00 00 80 3f 00 00 80 3f 00 00 80 3f
       1.0 1.0 1.0 1.0
000240 13 00 80 3f 83 00 80 3f 04 00 80 3f 01 00 80 3f
       1.0000023 1.0000156 1.0000005 1.0000001
000250 00 00 80 3f 00 00 80 3f 00 00 80 3f 00 00 80 3f
       1.0 1.0 1.0 1.0
000260 00 00 80 3f 6b 00 80 3f 1a 00 80 3f 01 00 80 3f
       1.0 1.0000128 1.0000031 1.0000001
000270 00 00 80 3f 00 00 80 3f 00 00 80 3f 00 00 80 3f
       1.0 1.0 1.0 1.0
000280 00 00 80 3f 00 00 80 3f 16 00 80 3f fc ff 7f 3f
       1.0 1.0 1.0000026 0.99999976
000290 fa ff 7f 3f fe ff 7f 3f 01 00 80 3f 00 00 80 3f
       0.99999964 0.9999999 1.0000001 1.0
0002a0 00 00 80 3f 00 00 80 3f 00 00 80 3f d8 ff 7f 3f
       1.0 1.0 1.0 0.9999976
0002b0 ba ff 7f 3f de ff 7f 3f 02 00 80 3f 00 00 80 3f
       0.9999958 0.999998 1.0000002 1.0
0002c0 00 00 80 3f 00 00 80 3f 00 00 80 3f 00 00 80 3f
       1.0 1.0 1.0 1.0
0002d0 33 00 80 3f 0e 00 80 3f 01 00 80 3f f3 ff 7f 3f
       1.0000061 1.0000017 1.0000001 0.9999992
0002e0 00 00 80 3f ff ff 7f 3f 00 00 80 3f 00 00 80 3f
       1.0 0.99999994 1.0 1.0
0002f0 00 00 80 3f 40 00 80 3f 01 00 80 3f 00 00 80 3f
       1.0 1.0000076 1.0000001 1.0
000300 ff ff 7f 3f 00 00 80 3f 00 00 80 3f 00 00 80 3f
       0.99999994 1.0 1.0 1.0
000310 00 00 80 3f 00 00 80 3f 9c 00 80 3f 54 00 80 3f
       1.0 1.0 1.0000186 1.00001
000320 00 00 80 3f ff ff 7f 3f 00 00 80 3f 00 00 80 3f
       1.0 0.99999994 1.0 1.0
000330 00 00 80 3f 00 00 80 3f 00 00 80 3f 73 00 80 3f
       1.0 1.0 1.0 1.0000137
000340 11 00 80 3f f6 ff 7f 3f 01 00 80 3f fd ff 7f 3f
       1.000002 0.9999994 1.0000001 0.9999998
000350 00 00 80 3f 00 00 80 3f 00 00 80 3f 00 00 80 3f
       1.0 1.0 1.0 1.0
000360 8c fe 7f 3f fd ff 7f 3f 00 00 80 3f ff ff 7f 3f
       0.9999778 0.9999998 1.0 0.99999994
000370 ff ff 7f 3f 00 00 80 3f 00 00 80 3f 00 00 80 3f
       0.99999994 1.0 1.0 1.0
000380 00 00 80 3f 07 ff 7f 3f 94 ff 7f 3f e1 ff 7f 3f
       1.0 0.99998516 0.99999356 0.99999815
000390 00 00 80 3f ff ff 7f 3f 00 00 80 3f 00 00 80 3f
       1.0 0.99999994 1.0 1.0
0003a0 00 00 80 3f 00 00 80 3f 08 00 80 3f 14 00 80 3f
       1.0 1.0 1.000001 1.0000024
0003b0 ff ff 7f 3f 00 00 80 3f 00 00 80 3f 00 00 80 3f
       0.99999994 1.0 1.0 1.0
0003c0 00 00 80 3f 00 00 80 3f 00 00 80 3f 11 00 80 3f
       1.0 1.0 1.0 1.000002
0003d0 e7 ff 7f 3f ff ff 7f 3f 00 00 80 3f 00 00 80 3f
       0.9999985 0.99999994 1.0 1.0
0003e0 00 00 80 3f 00 00 80 3f 00 00 80 3f 00 00 80 3f
       1.0 1.0 1.0 1.0
0003f0 e0 00 80 3f 2b 00 80 3f 04 00 80 3f 01 00 80 3f
       1.0000267 1.0000051 1.0000005 1.0000001

linears.0.weight f4 [50, 3]
000000 41 be 3c be 10 79 be be 5f e5 1a be 80 c0 90 3c
       -0.18431951 -0.37201738 -0.1512656 0.017669916
000010 a9 c8 2b 3e 22 38 f6 bd b9 58 92 bc ec 52 2c be
       0.16775765 -0.12022425 -0.017864572 -0.16828507
000020 09 23 30 3e 7e b7 df 3e 7c 7e 11 3d 03 7c 31 3e
       0.17200865 0.4369468 0.035521016 0.17332463
000030 d3 4a 5c bd 69 7b af bc d9 24 ff bd 8b 5d 96 3e
       -0.053782295 -0.021421151 -0.124582 0.29368243
000040 eb c4 c3 be d7 c2 53 3d d8 31 8c bd 8a 68 3a 3c
       -0.38236174 0.051699486 -0.068454444 0.011377463
000050 da 6b c5 3c 5a 3a ac 3b 1f a2 0d 3c c1 c0 fe 3d
       0.02409928 0.0052559795 0.00864461 0.12439109
000060 e3 74 d8 3d ba b4 1f 3e dc e7 91 be 39 86 c7 be
       0.10569169 0.15596285 -0.28497207 -0.3896959
000070 ba ef b3 3d cc 5c 5c bd 51 37 0b 3e cd 15 a2 bc
       0.087859586 -0.053799435 0.1359532 -0.019785786
000080 b5 c7 74 bc 2a 50 1d 3e 60 82 95 3d ec e3 df bd
       -0.014940192 0.15362611 0.07300258 -0.109321445
000090 73 d3 97 be b9 f8 98 3d ef 32 5d 3e eb 9a a8 be
       -0.2965351 0.07469315 0.21601461 -0.32930693
0000a0 e1 db 21 3e 78 a3 be 3d f0 07 56 be 82 ee c7 3d
       0.15806533 0.09308523 -0.20901465 0.09762289
0000b0 c9 87 bc be 20 90 1e 3e e0 26 f6 bd 6c c4 87 be
       -0.36822346 0.15484667 -0.120191336 -0.26517045
0000c0 86 34 9a bd 81 9e 02 bd e4 bf e3 3d ba 9a 65 be
       -0.07529549 -0.031889442 0.111205846 -0.22422305
0000d0 53 94 bd be 32 43 23 3d 0f 39 7c 3e 79 e4 47 be
       -0.37027225 0.039859004 0.24631141 -0.19520749
0000e0 8e 5f c6 3d 08 5b ef 3d c2 fb 30 3e 7f f9 07 3c
       0.09686194 0.11687285 0.17283538 0.008299231
0000f0 84 0a 96 3e 25 81 14 3e 37 6e 85 bd b6 12 93 bb
       0.29304898 0.1450239 -0.065151624 -0.0044883145
000100 a3 da 5b be 4f 8c 8e be b7 7e 27 bd 57 51 a0 3d
       -0.21470122 -0.27841422 -0.04089233 0.07828014
000110 fc 83 b2 bd b1 f3 7c be 22 54 88 be b9 ba 21 be
       -0.0871658 -0.24702336 -0.26626688 -0.15793885
000120 f7 55 8d bd 8f 57 4e bd d8 69 c8 be a7 8d 49 be
       -0.06901162 -0.05037647 -0.39143252 -0.19682942
000130 6e 72 bb 3c e8 0a 36 3e 16 6e 7e 3e 6a 03 5b be
       0.022881713 0.17777598 0.24846682 -0.21388021
000140 05 93 1a be 57 f6 31 be eb 7d a3 bd 7b e1 2e bc
       -0.15095146 -0.17379127 -0.07983001 -0.010673876
000150 32 ad 8d 3b c4 2d 8b 3e e9 22 11 3e b5 a7 fa 3e
       0.004323625 0.27183354 0.14173473 0.48956075
000160 52 d8 b4 be 36 96 20 be 22 71 bc 3d 3a 43 dc 3d
       -0.3532129 -0.15682301 0.09201266 0.1075501
000170 8b 8e 0d 3e 95 21 82 bd b0 48 ab bc f8 66 a8 bd
       0.13823907 -0.063540615 -0.020908684 -0.08222765
000180 a0 8b 37 3e 83 9b f1 b8 89 1e 45 3e 13 f8 63 be
       0.17924356 -0.00011520742 0.1924993 -0.22262602
000190 4e fd 62 3d d8 5f 22 3d c9 e4 8d 3e c0 fd 0f 3e
       0.05541735 0.039642185 0.27713612 0.14061642
0001a0 c4 de c2 3d 42 1c a2 be 9f 11 ad 3d e0 6a a7 3e
       0.095151454 -0.31662184 0.084506266 0.32698727
0001b0 53 72 b1 bd a7 32 49 3e 46 83 09 be 64 74 5b 3e
       -0.08664384 0.19648229 -0.13428983 0.21431118
0001c0 b7 a3 80 3d 02 b0 f2 3d ac 88 9c be ff f1 a9 3d
       0.06281226 0.11849977 -0.30573022 0.0829811
0001d0 91 a7 ab 3d 93 39 78 3e 16 15 35 3d 36 9e e0 bd
       0.0838157 0.24240713 0.044209562 -0.10967676
0001e0 86 3c 70 3d d6 14 0d 3e d4 d8 84 3d 92 d6 33 be
       0.05865147 0.1377748 0.06486669 -0.17562321
0001f0 d6 74 54 3e 57 01 97 bd 66 db 0e 3e 50 3c 3f 3c
       0.20747694 -0.073733024 0.13950881 0.011672094
000200 68 41 83 be bf 1f c3 3c bd c3 8f 3e 17 f6 de 3e
       -0.25635839 0.023818849 0.28079024 0.43547127
000210 48 17 ef bd 8f c0 a6 be 10 7d 25 be ba 75 8e be
       -0.116743624 -0.32568786 -0.16160989 -0.27824193
000220 dd 01 61 bd bf 43 5b be 00 e1 82 be 1c dd aa bd
       -0.054933418 -0.21412562 -0.25562286 -0.083429545
000230 a5 2c 18 3e 17 e5 e0 3d 7e d2 b6 be aa d6 5c 3e
       0.1486078 0.109811954 -0.35707468 0.21566263
000240 68 5f 8c 3e ac b9 35 3d 06 2e da bd d9 f2 fd bd
       0.2741654 0.044366524 -0.106533095 -0.12399835
000250 29 d4 50 bc a9 0a 84 be
       -0.012745895 -0.25789383

linears.0.bias f4 [50]
000000 fc cd 16 ba 0e f7 97 ba 20 22 d3 b9 a4 8a c3 38
       -0.000575274 -0.0011594014 -0.0004027048 9.3241484e-05
000010 7b d1 96 b9 06 2c 5e 39 28 c1 99 3a 9d d3 5b 3a
       -0.00028766305 0.0002118797 0.0011730539 0.000838572
000020 b9 a0 26 ba 8e 7e f8 39 d6 7e 4d 3a bf e3 ad 3a
       -0.0006356347 0.00047396537 0.00078390294 0.0013266726
000030 2b 06 bd 39 7b 8e 90 ba 55 96 df b8 7f 3c 61 b9
       0.00036053485 -0.0011028791 -0.0001066147 -0.00021480209
000040 d3 b7 33 39 c7 cc 0e 3a 96 a4 1e ba fe 34 4f 38
       0.0001713925 0.00054473843 -0.0006051747 4.9402e-05
000050 79 d2 02 39 29 5c b9 b9 fd 3b b5 ba 5b 85 8a ba
       0.00012476173 -0.00035354614 -0.0013827082 -0.0010568307
000060 1b 62 0a 3a 45 70 3a b9 3c 7d 43 ba 21 9b 81 ba
       0.0005278901 -0.00017780166 -0.0007457321 -0.0009888151
000070 4b 07 cc 3a 71 d6 cd ba e1 0e 9f 3a 43 52 3e b9
       0.0015566138 -0.0015704167 0.0012135172 -0.00018150457
000080 12 74 07 38 06 c8 f2 ba 63 ee d8 b9 c7 76 99 b9
       3.2294607e-05 -0.0018522746 -0.00041376342 -0.0002927093
000090 81 b8 3d 3a 75 f1 0c 3b 19 a0 76 3a 3e ee d5 3a
       0.0007237271 0.0021506224 0.00094080117 0.0016321612
0000a0 b2 9a 06 3a 0b 77 0d ba 3f c4 5a b7 af 09 d8 39
       0.0005134746 -0.0005396462 -1.3039505e-05 0.00041205945
0000b0 dd 72 1f 3a e8 ab 5a 3b 0f fd a5 39 ec 38 47 ba
       0.00060824846 0.0033366624 0.00031659796 -0.00075997296
0000c0 d2 5c 17 ba 21 53 2f 38
       -0.0005774024 4.180067e-05

linears.1.weight f4 [50, 50]
000000 80 10 1d bc 02 7d 45 bd 5a b7 8d 3d 34 9f 14 be
       -0.009586453 -0.04821492 0.06919737 -0.14513856
000010 2b 99 67 3e 22 9b 05 be aa 68 b5 bd cd 93 90 3e
       0.22617023 -0.1304746 -0.08857854 0.28237763
000020 bd 19 6d 3d 42 84 8a bd a4 9b 96 3d 5a 61 0f 3c
       0.057885874 -0.067635074 0.07353905 0.008751238
000030 81 9e 16 be a6 00 80 3d 7b fa ce 3d 1d 5e a9 b9
       -0.14708902 0.06250124 0.10106369 -0.00032304312
000040 44 0e 03 bd 45 8d 8a 3d db 66 96 bd 6f 6c 37 3e
       -0.031996027 0.06765226 -0.07343837 0.17912458
000050 19 c9 a1 be 12 33 80 be 3d 7d dc bd 1a d1 22 be
       -0.31598738 -0.25038964 -0.10766075 -0.15900078
000060 65 e7 07 be 79 40 43 be 9e 44 28 3d 07 e9 99 bc
       -0.13271864 -0.19067563 0.041081063 -0.018787874
000070 94 6a 19 bd 10 c0 14 3e 7e a1 01 bc 5c 59 f1 bd
       -0.037455156 0.14526391 -0.007912038 -0.11784622
000080 79 65 3e 3e a2 cc fb 3d ac 71 23 bd 8c df 5f be
       0.18593396 0.1229489 -0.039903328 -0.2186262
000090 cd 65 bd 3e bc ec 42 3d 2c eb 49 bd 66 08 64 be
       0.3699173 0.04758905 -0.049296543 -0.22268829
0000a0 67 11 94 bd ad 0b 22 3e 4a aa 61 3d 11 ca f4 3c
       -0.07229882 0.15824766 0.05509404 0.029881509
0000b0 05 c8 02 3c 3b 7d 0b 3e d7 bd f3 3c 67 54 1f be
       0.007982259 0.1362199 0.029753609 -0.1555954
0000c0 15 20 bb 3d cd 0f 96 3d 1d b2 cc bd e0 6a 2f 3e
       0.091369785 0.073272325 -0.0999491 0.17130613
0000d0 8e b1 51 3c 6c 4d 35 3d bb 7a ee 3b ae fc 58 be
       0.01279868 0.04426329 0.007277814 -0.2119014
0000e0 af 4d 85 bc f9 ae 05 be 2c 4a 19 3d 52 4c 1f 3e
       -0.016272394 -0.13055028 0.03742425 0.15556458
0000f0 32 18 39 3c 85 1e 82 bc 3e cb 35 3e 34 4b 93 bd
       0.0112972725 -0.015883693 0.17753312 -0.07192078
000100 7c ef 34 3e 40 27 c8 bc f1 f4 24 3e e2 d6 7e bd
       0.17669481 -0.024432778 0.16109063 -0.062216647
000110 b9 6e 2e bd 18 ae 55 bd 7a e2 2f 3c f6 a7 cb bd
       -0.042586062 -0.052167982 0.010735149 -0.099441454
000120 96 11 88 bc 10 95 a4 3d df 79 2e 3e 60 9b 51 bd
       -0.016609948 0.08036244 0.17038678 -0.051173568
000130 c6 de c4 bd e6 53 ef 3d 08 f5 90 3d f5 80 ce bd
       -0.09612803 0.11685924 0.07077986 -0.1008319
000140 6b ba 42 3d ea 58 4e 3d 55 ad bb bd 5e f2 7f bd
       0.047541063 0.050377764 -0.0916392 -0.062487
000150 34 92 e4 bd 36 a4 31 be 59 d5 1e bd 7f 13 1c 3d
       -0.111606985 -0.17347798 -0.038777683 0.03810453
000160 4e 7a 01 3d 34 b5 4d 3d 01 61 17 3e 4c 40 73 be
       0.03161078 0.050221637 0.14783098 -0.23754996
000170 94 8a c8 3d 42 d9 5e bc f1 8a 21 be 21 fc d6 3d
       0.09792057 -0.013601603 -0.15775658 0.104973085
000180 33 75 02 3e 08 3a 53 be c7 4f 94 3d a8 65 6c bc
       0.1274002 -0.20627606 0.07241779 -0.014428534
000190 9d ce a3 bd 19 0c b2 bb ab b9 91 3c f6 3a 24 bc
       -0.07998393 -0.005433571 0.017788729 -0.010023823
0001a0 fc a1 15 bd bf b6 8c be ed ae e1 bd 3f 10 29 3e
       -0.036531433 -0.27483174 -0.110196926 0.16510104
0001b0 be f3 cb ba 35 d3 6c 3e af d0 b2 bd 02 cd 57 bc
       -0.0015560312 0.23127444 -0.087312095 -0.013171436
0001c0 c1 c7 b1 bd 99 bb fe 3c 69 7e 41 be 4b 02 4a be
       -0.08680678 0.031095313 -0.18895878 -0.19727437
0001d0 38 14 f9 bc a3 7a b1 bd 58 38 64 3d f4 31 3d be
       -0.030405149 -0.08665969 0.055717796 -0.18476087
0001e0 31 71 d4 3d ec a4 dd 3c d1 b4 5a bd c0 94 a4 3b
       0.10373152 0.02705618 -0.053395096 0.005022615
0001f0 7a 44 8d 3d 18 9d 29 bd 08 5d 8a bc d2 d3 a0 3e
       0.068978265 -0.041409582 -0.016890064 0.31411606
000200 41 14 64 3d 3d 78 e7 bd 28 52 a5 3d 8c 1e 38 bc
       0.055683378 -0.113022305 0.08072311 -0.011237752
000210 29 3e 9d 3d e2 cf cc 3d a8 16 ab be e8 de 85 be
       0.07677872 0.10000588 -0.33415723 -0.26146626
000220 51 86 e9 bd f7 a9 4b 3e fd f7 32 bd 73 44 a4 bd
       -0.11402572 0.19889055 -0.04369353 -0.08020868
000230 9a ec ee 3d 10 80 0e be 42 b4 9b bc 6f 43 2a 3e
       0.11666222 -0.1391604 -0.019006852 0.16627286
000240 b2 0e 11 3e 5d 03 82 3e 8b a2 94 3e 1e 17 67 be
       0.14165762 0.2539319 0.2903026 -0.22567412
000250 c2 d0 3f 3e 57 22 05 be d4 c2 63 3d 4c 52 3f bd
       0.18731979 -0.13001381 0.055605724 -0.046709344
000260 8c c0 f0 3d 3e 60 6a bd 60 03 b1 3d f2 1f ba 3d
       0.117554754 -0.05722069 0.08643222 0.09088124
000270 08 3d c5 bd 13 ad 1f be 4b fc e9 3d 2f 86 c9 bd
       -0.096307814 -0.15593366 0.11425074 -0.098400466
000280 fc fd 25 3d 0e 24 04 be 1e f6 a8 bd 00 42 ad 3d
       0.04052542 -0.12904379 -0.08250068 0.08459854
000290 34 ce 8c 3d 05 93 27 be 1e 30 c0 bd 00 7f 11 3c
       0.068752676 -0.16364677 -0.093841776 0.008880377
0002a0 3e 1f 86 3e bf 86 03 3d 67 41 bc 3d 45 8d 3f 3e
       0.2619571 0.032110926 0.09192162 0.18706234
0002b0 86 13 8c bd 20 a7 07 3d 56 73 09 3d 7f 8e 30 3d
       -0.06839661 0.033118367 0.03355726 0.043104645
0002c0 65 a6 07 3e 07 28 4b be 64 76 b8 bc b9 b2 c3 3d
       0.13247068 -0.19839488 -0.02251739 0.09555573
0002d0 1c 56 53 be 4a 92 0f bd b1 c6 46 3d c7 71 0f 3d
       -0.20638317 -0.03505162 0.04852933 0.035020616
0002e0 f3 2b 2c 3e da 7b ec 3c 43 12 52 bb 47 bf 34 be
       0.1681364 0.02886765 -0.0032054342 -0.17651092
0002f0 6c 87 9b bd b6 83 19 be d4 df 8c 3d 3a f1 54 bd
       -0.07594189 -0.1499165 0.06878629 -0.051987864
000300 09 3f be bd 1c 74 93 3d da 1d 7d be 4a 76 1b be
       -0.09289367 0.071998805 -0.24718419 -0.15181842
000310 b2 fc 26 3c cb 61 1b be f4 78 ac bd c8 46 78 3d
       0.010192083 -0.15174024 -0.084215075 0.060614377
000320 63 3e ab 3d 69 fa 22 3d 3a da 44 3e 3b d5 5d 3d
       0.08361509 0.03978959 0.19223872 0.05415843
000330 c5 dd 00 bc 65 d6 6c be e4 a9 d6 bd 93 a3 e7 bd
       -0.007865374 -0.2312866 -0.10481623 -0.11310496
000340 38 33 01 3e d5 2c d6 3d a9 d8 8e bc 4d 58 b8 bb
       0.12617195 0.1045777 -0.017437296 -0.0056257606
000350 48 d2 c1 3d e8 57 ce 3d 67 94 79 bc 9c ed 1f be
       0.09463936 0.100753605 -0.015233136 -0.15617985
000360 11 ac 7a 3d d5 d6 a2 bd e0 5a fb 3d 37 cd b0 bd
       0.06119925 -0.07951132 0.122731924 -0.086328916
000370 4f 04 2e 3d a5 d1 b1 3c 46 a1 01 3d 2f 92 4c 3e
       0.042484578 0.021706412 0.031647943 0.1997764
000380 f8 9b 23 bd 19 e4 15 be f5 50 3d bd 38 cf 04 3e
       -0.039943665 -0.14637794 -0.046219785 0.12969673
000390 e8 c9 48 bd e6 4f 58 3e 7d e6 8d 3c 95 f0 23 be
       -0.049020678 0.21124229 0.01732182 -0.16009744
0003a0 88 31 40 be 9e 9a 00 3e ee 62 61 be 66 6a 88 bc
       -0.18768895 0.12558982 -0.22010395 -0.016652297
0003b0 09 ad dd bd 5c c9 88 bd 56 12 27 bc 83 5b a2 3d
       -0.108240195 -0.06679031 -0.010197243 0.07927611
0003c0 47 9d 0a 3e 0f 65 5c be 90 dc 9a 3c 8c 06 a8 bd
       0.13536559 -0.21522926 0.018904 -0.08204374
0003d0 8a 05 1f bd 75 3b 88 be 2f de 44 be 3d 02 48 3e
       -0.03882364 -0.26607862 -0.19225381 0.19532104
0003e0 f9 6b 10 3e c5 10 88 be c2 b5 2f 3d 6b 70 9b bc
       0.14103688 -0.26575294 0.042897947 -0.018974504
0003f0 8e 54 4a 3d 5b a5 2f 3d 84 ba 4e be 38 6d 15 be
       0.049397044 0.042882305 -0.20188338 -0.14592445

linears.1.bias f4 [50]
000000 4e 85 c6 b7 43 21 e6 37 f3 b3 a7 34 3c e8 58 b9
       -2.3665514e-05 2.7433625e-05 3.1237104e-07 -0.0002068588
000010 84 20 f9 b8 b5 50 83 38 c4 b2 93 b9 c7 f2 2f b6
       -0.00011879302 6.2615996e-05 -0.00028171216 -2.6218347e-06
000020 b5 d3 63 b9 b6 eb 5c 36 8f 6b 99 37 f7 06 e5 b7
       -0.00021727274 3.2919756e-06 1.8289107e-05 -2.730217e-05
000030 5d 81 ac b6 ac 6b 32 b8 84 8a ce b5 e9 39 3a 38
       -5.1410593e-06 -4.2538784e-05 -1.5388509e-06 4.439979e-05
000040 8e 72 95 39 10 5b 3b 39 dc dc 78 b7 65 79 ce 38
       0.00028504845 0.00017867633 -1.4833375e-05 9.845457e-05
000050 41 35 02 b7 7a 40 1e b8 1e a8 f6 b8 b9 25 29 37
       -7.761003e-06 -3.7730184e-05 -0.00011761508 1.0081968e-05
000060 fb 0b 8e b6 cf d0 6e 38 f2 e7 1a 39 42 69 45 37
       -4.2333245e-06 5.693809e-05 0.00014772991 1.1766622e-05
000070 ab 9e 03 b8 b4 b4 e1 36 1d ff e9 37 2d a8 9b 37
       -3.1380605e-05 6.726559e-06 2.789456e-05 1.8555753e-05
000080 fc 22 2a 37 c4 8f 2e b8 af 21 17 38 97 49 0f b6
       1.0140935e-05 -4.1618725e-05 3.6032576e-05 -2.1351495e-06
000090 74 1b ad 38 9b d6 51 36 80 c8 06 b5 4e 6c 56 b8
       8.2543964e-05 3.1268344e-06 -5.0210656e-07 -5.1122443e-05
0000a0 4a ca 06 b8 82 b7 00 38 73 e2 8b 38 04 b1 1b b9
       -3.2136486e-05 3.0688483e-05 6.670216e-05 -0.00014847895
0000b0 5c a4 23 b8 25 56 92 b8 9f 23 50 39 f6 4a 3e 37
       -3.90153e-05 -6.977868e-05 0.00019849696 1.1342336e-05
0000c0 32 57 1e b8 10 d6 cb b8
       -3.7751342e-05 -9.7196666e-05

linears.2.weight f4 [50, 50]
000000 23 6e bb 3d 6b 3c 6d 3e db aa 8a 3e d8 24 ae 3e
       0.09151866 0.23167579 0.27083477 0.34012485
000010 af 4c e4 bc bf a6 fb bd 20 0a 21 3e e0 34 61 3d
       -0.027868597 -0.12287664 0.15726519 0.054982066
000020 e6 53 62 be 3e 82 d8 bd 82 29 c7 bd ed b8 05 be
       -0.22102317 -0.10571717 -0.09724714 -0.13058825
000030 34 65 70 bc ec 29 ad bd 09 76 08 3e 76 7a ce bd
       -0.014672566 -0.084552616 0.13326277 -0.10081951
000040 e9 b9 de bd d8 0f f7 bd 0f 9c c5 bd e6 41 43 3e
       -0.10875303 -0.12063569 -0.096489064 0.19068107
000050 e8 01 bb bd 1b 38 3d 3e c1 60 b4 3d 03 12 23 3e
       -0.09131223 0.18478434 0.08807517 0.1592484
000060 a8 fb 38 bc 36 fa 63 bd 15 c5 a9 3c b5 21 8a be
       -0.011290468 -0.05565854 0.020723859 -0.2697884
000070 e4 1c b6 3d cb 53 51 be 93 f4 0e be 9e 45 85 bd
       0.08892229 -0.2044212 -0.13960485 -0.06507419
000080 ff e8 93 bb 2b d3 6e be 60 6e bc bd a2 9e 32 3d
       -0.0045138593 -0.23322742 -0.0920074 0.043608315
000090 c9 4f 1c 3b 07 39 52 be e5 25 43 3d 6d b2 f8 bd
       0.0023851267 -0.20529567 0.04764356 -0.12143407
0000a0 94 df 4d be f4 8b 92 3e 76 1a 60 be 28 da 9e bc
       -0.2010482 0.286224 -0.21885094 -0.019391134
0000b0 4c da 5c be 58 36 15 3e 2f 80 dc 3e 85 21 93 bc
       -0.21567649 0.14571512 0.43066546 -0.01796032
0000c0 bc d9 b8 be ad 20 43 3e 9c f0 3e 3d 1e 03 51 3e
       -0.36103618 0.19055434 0.04661618 0.20411345
0000d0 38 41 62 bd be 8e e4 bd 9f 78 04 3e b7 45 7d 3e
       -0.05523798 -0.111600384 0.12936638 0.24733625
0000e0 84 79 0a be 3c 1e ef 3d 73 f4 19 3e c3 90 83 3e
       -0.13522917 0.116756886 0.15034656 0.25696382
0000f0 c4 c9 9a 3e 17 dc 27 3e 9d 02 9e 3d 47 83 49 3d
       0.3023206 0.16392551 0.07715342 0.04919746
000100 4e 2e 01 3d a2 99 95 be 74 3c c6 3b 31 25 04 bd
       0.0315383 -0.29218775 0.006049687 -0.03226203
000110 75 2e 4d 3d 94 07 06 3e b9 70 72 bc 22 6a b2 3e
       0.050093133 0.13088828 -0.014797383 0.34846598
000120 78 7a fe bd 6d 18 5c 3d c6 df 61 3d b3 fa 9f 3e
       -0.12425703 0.05373423 0.055145048 0.31245956
000130 5f 51 e6 3d 6a fc 37 bc 00 b0 d6 be f0 95 ae bd
       0.11245989 -0.011229614 -0.41931152 -0.08524692
000140 de 35 ad bd 32 fc 2a 3e 4b 14 47 bd b5 f3 4f 3e
       -0.0845754 0.16697767 -0.048603337 0.2030781
000150 c6 cf 8b bd b5 6c 62 bc 30 52 f4 3c 6b 78 01 be
       -0.06826739 -0.013819863 0.029824346 -0.12643592
000160 7c e7 84 be 6e 30 08 bd 64 18 ef bd e9 bb 37 bc
       -0.2595786 -0.03324931 -0.11674574 -0.011214235
000170 a3 89 bc 3c 03 f3 8b 3b 62 b6 8d 3d e2 b8 9c 3d
       0.023014849 0.0042709126 0.069195524 0.07652451
000180 1a 02 97 be a4 3f 16 3e 98 73 e6 bd ac 38 e6 bb
       -0.2949379 0.14672714 -0.112525165 -0.007025799
000190 0f e1 50 3e b0 55 d7 3d e5 11 63 be 81 4d d1 bc
       0.20398353 0.105143905 -0.22174795 -0.025549652
0001a0 ab f1 b6 3d 77 61 10 be 9a 51 3c bd 14 ac 82 bd
       0.08932813 -0.1409968 -0.04597626 -0.063804775
0001b0 2b 65 19 3d 89 6c 83 be 7f b2 95 bd 7c 74 5e 3d
       0.037449997 -0.25668743 -0.07309436 0.054310307
0001c0 fc a2 8a 3e f1 26 43 3d f2 88 50 3e 8d 6b 04 3e
       0.27077472 0.04764456 0.2036474 0.12931652
0001d0 30 74 13 bd b1 78 f3 3d 14 c6 a3 bd 47 bf ee bc
       -0.035999477 0.118882544 -0.07996765 -0.029143943
0001e0 0c 28 c5 bd 62 c1 4e bd 9b f5 44 3e a8 b5 43 3e
       -0.09626779 -0.050477393 0.19234316 0.19112265
0001f0 21 ea b6 3c 4d e1 59 bc 18 53 d1 bd b4 92 d7 bd
       0.022328438 -0.013298345 -0.10220927 -0.10526028
000200 9e 9d 17 3e 8e 0d 70 be de 15 10 be 31 13 d1 3d
       0.1480622 -0.2344267 -0.14070842 0.102087386
000210 43 e7 6b bc 1d 8d af 3c 61 80 74 bd 19 4d 71 3d
       -0.014398399 0.021429593 -0.059692744 0.058911417
000220 68 e3 d9 bc 3f 22 c5 bc e4 00 15 bd 54 75 3b be
       -0.026597694 -0.024064181 -0.036377802 -0.18306476
000230 41 d0 d6 3d f1 a3 57 bd 66 6d fa bb 26 9b e5 bd
       0.1048894 -0.05264658 -0.007642436 -0.11211233
000240 cd 15 c5 3d e3 54 2c be 34 4c d6 bd 54 51 ff 3c
       0.09623299 -0.16829257 -0.10463753 0.03116671
000250 ba 77 4f bd 74 4a ae 3d 3d 10 2b 3e 8a e0 92 3d
       -0.05065129 0.085102946 0.16705413 0.07171734
000260 f3 ee 35 3e e4 04 77 bd 51 42 32 3b bc ac d2 bd
       0.17766933 -0.0603074 0.0027200172 -0.10286853
000270 f9 75 97 bd 5d f3 0b be 21 68 19 3d de 92 02 be
       -0.073955484 -0.13667054 0.03745282 -0.12751338
000280 61 78 15 be 10 1a c6 bd b9 50 ee 3d 40 4a 64 bd
       -0.14596702 -0.0967294 0.116364904 -0.055734873
000290 95 6a 92 3e 4a 13 21 bc 04 a0 54 3e ec 55 c2 3b
       0.2859694 -0.009831259 0.20764166 0.005930653
0002a0 cb 85 79 bd 4a 92 8a 3c a3 02 5a 3e 4b cb 5e 3d
       -0.06091861 0.01691546 0.21290068 0.054393094
0002b0 2f ce 5b be 54 bc 3b be b2 9e 71 3e 62 05 80 3e
       -0.21465372 -0.1833356 0.23595694 0.25004107
0002c0 19 f6 d9 bd 6d 82 17 3e fd 0b 99 be 22 93 0e 3e
       -0.106426425 0.14795847 -0.2989196 0.13923314
0002d0 8c 1d 3d bd 72 85 c0 3d 41 97 71 be 8e c1 b4 bd
       -0.046170756 0.09400453 -0.23592855 -0.0882598
0002e0 30 b5 26 be 96 86 0b be 7a 65 21 3d 7d f8 45 3d
       -0.16280055 -0.13625559 0.039403416 0.04833268
0002f0 db c7 8a bc 0b 32 54 be ed 95 10 3e eb 04 62 3d
       -0.016941002 -0.20722215 0.14119692 0.05518047
000300 be 64 dd 3d 84 1c 51 bd ae 66 8e 3c 2c 50 65 be
       0.10810231 -0.051052585 0.017382946 -0.22393864
000310 a3 6a f0 3d bb 2d 9f 3d 70 12 11 be 25 1b be 3e
       0.11739089 0.07772394 -0.1416719 0.37130085
000320 2f 4b 1c bd 32 74 fc 3d 9a 13 c3 be 86 89 11 bd
       -0.03815764 0.1232685 -0.38100892 -0.035531543
000330 0f e1 0a bd b8 5f 0b 3e b1 f9 06 3e b2 e9 1a be
       -0.03390604 0.13610733 0.13181187 -0.1512821
000340 fa 18 7a 3d c7 a3 8b bd 77 21 b0 3e 36 8b 04 3e
       0.061058976 -0.068183474 0.34400532 0.1294373
000350 fa a6 1f be e8 c5 fe 3d 6c fd 22 3e 56 05 23 3d
       -0.1559104 0.12440091 0.15916985 0.03980001
000360 a9 8f 9d be e4 02 69 3e fb b8 31 bd e3 2b b5 be
       -0.30773667 0.22755009 -0.0433893 -0.35385045
000370 62 62 89 3e 83 43 84 3d 2c ee 97 3e 60 31 cc 3d
       0.26832873 0.06458189 0.29673898 0.09970355
000380 58 67 6c 3e f1 1b 3a 3e bb af 49 be 83 cc fe 3d
       0.23086298 0.18174721 -0.19695942 0.12441351
000390 92 51 7f bd 10 fb f9 3c 66 3a 33 be 76 4e 22 3e
       -0.06233365 0.030515224 -0.17502746 0.15850243
0003a0 83 1b 2d be 57 00 b0 3c 0c 86 80 bd 8d 6a b8 3d
       -0.16905026 0.021484537 -0.062755674 0.09004698
0003b0 02 88 ba bd 70 1c 94 bd fb 66 2f 3d 6a ca 09 be
       -0.09107973 -0.072319865 0.04282282 -0.13456121
0003c0 b8 c3 64 ba e7 02 89 3b ce 8f 46 bb 02 b7 9c 3d
       -0.0008726674 0.004181254 -0.0030298117 0.076520935
0003d0 99 af 09 3d 30 e9 54 3e ec 16 60 3d 43 85 b2 3e
       0.03361473 0.20792079 0.05470936 0.34867296
0003e0 ec 6c d4 3e 2a 84 44 be b7 39 16 3d 8e 80 22 be
       0.4148935 -0.19191042 0.036676135 -0.15869352
0003f0 ca 49 b2 3d a6 07 a7 3d de bb 92 bd 05 45 30 bd
       0.087054804 0.08155756 -0.07164739 -0.043034572

linears.2.bias f4 [50]
000000 a5 bd 1b 36 65 4d e9 33 2d 84 17 37 8a 10 13 38
       2.3207187e-06 1.0863986e-07 9.031076e-06 3.5062934e-05
000010 d8 f5 9a 36 77 c1 a0 b8 77 12 ee b5 6e 82 c3 32
       4.6181776e-06 -7.66543e-05 -1.7737756e-06 2.27603e-08
000020 81 c8 a1 b7 6d 64 e8 b6 a1 5b ab 35 4e 7f 72 31
       -1.9286063e-05 -6.92583e-06 1.276716e-06 3.5288e-09
000030 af c6 c3 34 46 33 c8 b6 ff ce de b4 0c 8e 95 31
       3.6466142e-07 -5.9664335e-06 -4.1501332e-07 4.3526196e-09
000040 2f d6 a0 b7 2d f0 8e b5 7d 58 4b b7 2a 1d 00 b8
       -1.9173223e-05 -1.0649725e-06 -1.2120346e-05 -3.054474e-05
000050 f2 46 b4 b5 16 cc ce 33 b8 af 31 34 87 dd 76 37
       -1.3431693e-06 9.6297455e-08 1.6548336e-07 1.4714321e-05
000060 71 7e 87 33 62 9e 81 b7 a7 43 21 36 4b 69 5e b7
       6.309427e-08 -1.5451751e-05 2.4030248e-06 -1.3256747e-05
000070 79 18 7e b6 bb 30 2c 35 6c 85 10 b8 67 b7 35 b8
       -3.7863194e-06 6.4145905e-07 -3.4456534e-05 -4.332457e-05
000080 5e 89 bf 34 ab 93 8d 34 66 d5 19 36 d4 ed ad b5
       3.567647e-07 2.637074e-07 2.292299e-06 -1.2958722e-06
000090 b0 d1 01 b4 61 87 74 37 00 9f 8d b4 33 73 33 b8
       -1.2090345e-07 1.4575054e-05 -2.6378984e-07 -4.2784213e-05
0000a0 35 c7 67 b2 96 83 dd 35 6e 3a 82 b7 ae 6c b2 34
       -1.3491264e-08 1.650408e-06 -1.5524416e-05 3.3234159e-07
0000b0 5f 8f 01 b8 c5 af 8a 36 87 75 a5 b6 08 ce fc b3
       -3.088952e-05 4.1331828e-06 -4.931065e-06 -1.1772141e-07
0000c0 44 df 11 35 ba 91 d7 34
       5.4341604e-07 4.01529e-07

linears.3.weight f4 [50, 50]
000000 cf a4 25 3d e8 9f f0 3d 64 23 b7 bd 16 4f e7 bd
       0.040440377 0.1174925 -0.08942297 -0.11294381
000010 be d7 7d be a7 3e 98 3a 71 fe eb bd 5b 52 16 3c
       -0.2478933 0.0011615352 -0.1152314 0.0091749085
000020 24 94 88 bd 15 44 87 3e 42 fe dc 3c 8e 0f 1c be
       -0.066688806 0.2641913 0.026976708 -0.15240309
000030 90 c6 f9 3b 0e fe 5b 3e a5 ae e2 bc 7c 79 8e bd
       0.0076225474 0.21483633 -0.027671168 -0.06956765
000040 95 a0 13 be 4b 2f c9 bc cb ee f5 bc 30 2f 97 bc
       -0.14416726 -0.024558684 -0.030021092 -0.018455118
000050 47 d9 fa bd a2 35 b2 be 93 97 41 3e c0 55 ca bb
       -0.122484736 -0.34806544 0.18905477 -0.006174773
000060 8e 9a 47 bd 37 d6 65 3e ab b1 24 3e 92 23 c7 3c
       -0.04873138 0.22444998 0.160834 0.024308953
000070 36 78 28 bd f1 04 e5 bd fa e1 48 bd 10 23 bb 3d
       -0.041130267 -0.11182583 -0.049043633 0.09137547
000080 53 1c bb bd 59 6d 87 3d e1 c9 13 be 72 7b 3a be
       -0.09136262 0.06612653 -0.1443248 -0.18211153
000090 2b b5 74 bd 7d 29 02 be 6a 49 4f be 78 06 c1 bd
       -0.059743088 -0.12711139 -0.20242849 -0.09425062
0000a0 8d 2d a6 3b 9f 21 16 bd c9 e9 d0 3d 23 47 a3 bc
       0.005071348 -0.036653157 0.10200841 -0.019931382
0000b0 c0 9a 8f be 4d 15 a3 39 6b ec 17 3d 6d 3f e0 bc
       -0.28047752 0.00031105653 0.0370907 -0.027373994
0000c0 87 34 28 3d af c2 8f 3d 1e 6a b9 3d 08 9d 39 be
       0.04106572 0.07019555 0.09053443 -0.18126309
0000d0 71 a8 b0 3e 5a c4 cf 3d 76 f4 40 be 5d 8d 8e bc
       0.3450351 0.10144873 -0.18843254 -0.017401392
0000e0 bf 7b 04 3c 8d bc b7 bd ab f3 e5 bd 5a 82 2d 3d
       0.008086144 -0.0897151 -0.112281166 0.04236064
0000f0 26 59 ea bc f4 fc 1b 3d b8 25 a0 3d b1 b8 37 3e
       -0.028606962 0.03808303 0.07819694 0.17941548
000100 f2 26 5f be 7c 3d a4 3c ab 4a ba 3d aa 00 2b be
       -0.217922 0.02004885 0.09096273 -0.16699472
000110 11 d3 22 be d8 d0 83 3d f8 d5 94 3d 26 a0 69 bd
       -0.15900828 0.06436318 0.07267374 -0.057037495
000120 71 93 0d be 33 6b 25 3e db 34 69 bd c9 c6 5a 3e
       -0.13825776 0.16154175 -0.056935173 0.21364893
000130 c2 01 88 3e 39 82 55 3d 3a 50 a2 bd 1f 48 6b be
       0.2656384 0.052126143 -0.07925458 -0.22976731
000140 a2 60 80 bd 4e e9 2e 3e 76 35 a4 be bf 9e 21 bc
       -0.06268431 0.17081186 -0.32072037 -0.009864508
000150 22 9a dc bc 48 df f7 3b 2b 71 91 3d ba 39 9a bd
       -0.026928965 0.007564459 0.07101663 -0.07530542
000160 96 ad 0c bd d3 e2 8d bd d7 9e ed 3d 4d 09 21 3e
       -0.034345232 -0.06928029 0.11602562 0.15726204
000170 1f 27 be bd 17 19 4a 3e 37 bf 65 3c db 6d aa 3b
       -0.092848055 0.19736134 0.01402264 0.005201084
000180 70 33 fe 39 4d 46 21 be 5e d2 40 3c 71 40 97 bd
       0.0004848498 -0.15749474 0.011768905 -0.07385338
000190 b1 9b f1 3c e8 6a 19 3d 12 94 ba 39 d3 c4 e1 3b
       0.029493185 0.03745547 0.00035587006 0.0068899184
0001a0 b7 89 04 bc 54 b7 e6 bd 46 75 83 bd cf b2 7c 3d
       -0.008089474 -0.11265436 -0.064188525 0.061693963
0001b0 6f ff 1d be 43 f9 88 3d 08 8b c7 3c 52 74 d0 3d
       -0.15429471 0.06688168 0.024358287 0.10178436
0001c0 3a b8 0b be 71 34 09 be 53 24 5f 3c eb 99 81 be
       -0.13644496 -0.13398911 0.0136195 -0.25312743
0001d0 11 ca bd bb 2f 0b 1e 3e 32 1a 20 3e 05 b7 4a be
       -0.0057919105 0.15433954 0.15634993 -0.19796379
0001e0 26 8e 31 3e e8 44 74 bd a3 b1 6c 3c 77 84 1a bd
       0.17339382 -0.059636027 0.014446649 -0.037723985
0001f0 c2 51 13 be 21 23 7f bd 63 16 42 3e 82 0b 9f 3d
       -0.14386657 -0.06228936 0.18953852 0.07765867
000200 31 d2 0e 3e 4b 41 39 3d f6 59 6f 3d ad 4b 5a 3d
       0.13947369 0.045228284 0.058435403 0.053294826
000210 8a cb 90 bd 6e 10 d9 3d 1a f0 b7 3d c8 5f 44 3e
       -0.07070072 0.10598837 0.089813426 0.19177163
000220 5a 16 34 3c cb 39 a3 3d cc 04 b2 3d 03 30 b6 bd
       0.010991657 0.079700075 0.08692321 -0.08895876
000230 d2 fd b5 bd 99 8a 89 3d 76 a5 c3 be 1e f8 94 3d
       -0.08886303 0.067158885 -0.38212174 0.07273887
000240 13 f8 37 be 30 ae b7 3b 4d fe 5b bd 7b 52 82 be
       -0.17965727 0.0056054816 -0.053709317 -0.25453553
000250 ce fd 26 be b4 73 b1 bc 2a e3 6b bd 6f bc 62 bd
       -0.16307756 -0.021661617 -0.057589687 -0.055355486
000260 d1 34 34 3e 05 13 2f 3d c6 d8 79 bc e2 e0 d2 bd
       0.17598273 0.042742748 -0.015249437 -0.10296799
000270 4f e3 b2 bd cc ed 1d 3e bd d4 b7 3d 76 5f 13 be
       -0.08734762 0.15422744 0.089761235 -0.14391884
000280 23 71 32 bc 6f 00 d5 bd 82 cc 45 3e a7 2f 70 bd
       -0.010891232 -0.10400473 0.19316295 -0.058639195
000290 10 9e a5 be 16 d0 14 be a6 8b d3 bd 59 20 be bd
       -0.32347155 -0.14532503 -0.1032937 -0.092835136
0002a0 ec 6b 50 bd e9 0f 08 be 2d 71 3d be 26 d2 cc bd
       -0.050884172 -0.13287319 -0.18500204 -0.1000102
0002b0 48 bd 2a 3d 83 c5 36 bd 3e ba 2d bc ad 2f 41 bd
       0.04168442 -0.044621956 -0.010603486 -0.047164608
0002c0 a7 17 03 3e 77 d6 2b 3e 6b 19 25 3b 53 af 2d be
       0.12801991 0.1678103 0.0025192152 -0.16961412
0002d0 83 10 35 3e c7 62 c3 3d ad c4 99 bd 76 e7 c8 3c
       0.1768208 0.09540325 -0.07508216 0.024524432
0002e0 fd e4 2d be 18 d7 27 bd c6 61 60 3d 8f 84 7e be
       -0.16981883 -0.040976614 0.054780744 -0.24855255
0002f0 9a 59 18 3d 00 db fc bd 4a 6a 56 be 66 13 af be
       0.037194826 -0.123464584 -0.20938984 -0.34194487
000300 44 c6 29 be 17 92 1b bd 7d 15 ab bc bd 17 79 be
       -0.16579539 -0.03798112 -0.02088427 -0.24325462
000310 f6 86 e9 bc b0 bc fe 3d 8e 96 0a 3d e1 ed 4f bd
       -0.028506737 0.12438333 0.033834986 -0.05076397
000320 16 77 19 be 23 e2 43 bd e4 7e fc 3c 9a 2d 9d be
       -0.14986834 -0.047823083 0.030822225 -0.30698854
000330 f6 51 1e 3e eb 11 82 3c 9f 25 ab 3d 8f 1f d8 bd
       0.15460953 0.015877685 0.08356785 -0.10552894
000340 cc 7f 9a bd c3 c7 4b be 46 fc a3 3d 7f b3 f6 bd
       -0.075439066 -0.19900422 0.08007102 -0.12045955
000350 ea b2 c3 3d e5 33 94 bd fd 29 9e bd 8e 1f 29 3e
       0.095556095 -0.072364606 -0.077228524 0.16515943
000360 64 b9 b6 3d bb 4c e2 bb 89 e9 0f 3e 88 45 22 be
       0.08922079 -0.0069061196 0.1405393 -0.15846837
000370 31 b4 3d bc 94 f7 1a bd 23 e6 c8 3c 1b 97 36 bd
       -0.0115786055 -0.037833765 0.0245238 -0.0445777
000380 c9 e7 1b 3e ae a6 ea 3d 84 7d 71 be 18 5c 8e bd
       0.15225138 0.11457573 -0.23583037 -0.06951159
000390 62 17 0a be cd fc c1 bc 55 d3 d3 bd e3 4b 8a bd
       -0.13485482 -0.023680115 -0.10343043 -0.067527555
0003a0 87 ec 2f bd cc 89 38 3e 4f e7 7c 3d be 42 60 3d
       -0.04295018 0.18021315 0.06174403 0.05475115
0003b0 7c 09 0e 3d 13 db bf 3c ed 87 05 3e 9b e0 94 3d
       0.034677014 0.023419892 0.13040133 0.072694026
0003c0 13 b9 af bd e8 45 8b 3d 49 bc c8 3d 62 88 13 3e
       -0.08580222 0.06800443 0.098015375 0.14407495
0003d0 fd 57 38 3e 71 cc 59 be b0 19 f4 bd 3f ec 40 3d
       0.18002315 -0.21269394 -0.11918962 0.0471003
0003e0 30 1f cc bc e9 72 80 bb 38 10 1b be 10 c5 8b 3d
       -0.024917215 -0.0039199484 -0.15142906 0.06824696
0003f0 a5 f9 01 3c 67 27 f2 bd bc b5 1c 3e f4 13 68 3b
       0.007933055 -0.11823922 0.15303701 0.0035412284

linears.3.bias f4 [50]
000000 77 73 10 b5 0d 38 55 36 49 1c 78 b5 ea 2b 8d b6
       -5.3812204e-07 3.17721e-06 -9.242836e-07 -4.2072397e-06
000010 02 a1 20 33 32 49 4a b5 44 a6 56 b5 60 57 3e 35
       3.739934e-08 -7.535738e-07 -7.996316e-07 7.0907663e-07
000020 f8 59 0c 35 46 39 93 b0 8a ce 00 35 97 5b 89 35
       5.2284986e-07 -1.0711936e-09 4.798427e-07 1.0233952e-06
000030 f2 91 69 36 bc cf bf 36 3a 17 f6 b6 60 19 e3 34
       3.4804657e-06 5.716427e-06 -7.3340752e-06 4.2300508e-07
000040 58 77 8c b5 58 05 73 34 12 1f 38 b5 69 e3 c0 b6
       -1.0465546e-06 2.2633083e-07 -6.8590555e-07 -5.74852e-06
000050 ba d7 1c b7 4d 66 a7 34 ff e2 52 b5 c1 ed 17 37
       -9.348552e-06 3.1180608e-07 -7.856142e-07 9.055658e-06
000060 4a 1d 2b 35 45 6b 7d b6 a7 d8 c6 34 a1 1b c2 35
       6.3745085e-07 -3.7762377e-06 3.703801e-07 1.4462167e-06
000070 06 e6 1b b5 e0 65 49 b4 50 61 ea b6 f2 5c c8 35
       -5.807673e-07 -1.8756646e-07 -6.985072e-06 1.4928212e-06
000080 a8 0e 3f 34 1c 19 2f b5 88 f2 54 35 4a 4b 96 b6
       1.7793593e-07 -6.522912e-07 7.9329084e-07 -4.479113e-06
000090 7f 6c 1a 35 72 63 2f 34 a0 2b 90 36 2b 0b 09 b6
       5.7527353e-07 1.6334323e-07 4.296613e-06 -2.0421091e-06
0000a0 1b 16 93 35 75 67 d2 b2 00 e4 78 37 73 1f 79 b5
       1.0958787e-06 -2.4494264e-08 1.4835037e-05 -9.2805493e-07
0000b0 49 50 59 b6 fc 76 81 b6 f8 2f 9b b7 35 7f 06 b7
       -3.2382252e-06 -3.858351e-06 -1.8499777e-05 -8.01664e-06
0000c0 c3 84 c5 b7 8f c3 0f b4
       -2.3546052e-05 -1.3389057e-07

linears.4.weight f4 [50, 50]
000000 f1 8b 14 bc 67 7b 4c 3e a4 5f 01 3e e0 b6 a6 bd
       -0.009066568 0.1996895 0.1263414 -0.081403494
000010 b0 0a 25 3e bb f7 4f be 14 87 a6 3d 55 18 27 3e
       0.16117358 -0.20309345 0.08131233 0.16317876
000020 9c 3c 14 3e 8b 5f 2d 3d ae 15 8e 3d 33 08 14 be
       0.14476246 0.042327445 0.06937729 -0.14456253
000030 72 ff b0 3c 35 76 1a be a5 d4 a1 3d ba 88 d9 bc
       0.02160618 -0.15084155 0.07901887 -0.026554454
000040 8f 89 a8 3d 39 2b 21 3e 19 59 dd bd 69 54 4b bc
       0.08229362 0.15739144 -0.1080801 -0.012410262
000050 71 a1 81 3e 04 9a 11 bb aa 70 f4 3d 89 d8 6b 3d
       0.25318483 -0.0022217045 0.119355515 0.05757955
000060 70 98 49 3e cd 71 78 39 d9 8e ea 3b 92 11 62 3d
       0.19687057 0.00023693517 0.007158142 0.055192538
000070 67 3b c2 bd cc 79 60 bc 83 79 09 be 90 ac 8c 3c
       -0.09483986 -0.013700914 -0.1342526 0.017172128
000080 56 c6 ae be 0d 6e dc bd f3 38 c7 3b 0a 28 ef ba
       -0.34135693 -0.10763178 0.006079787 -0.0018246186
000090 a9 96 a9 3e 81 cd 4d bd 38 ed 28 3d 46 84 ad bd
       0.33122757 -0.050244812 0.041241854 -0.08472495
0000a0 74 f6 a2 3d c8 8b bb bd 79 a7 41 3c 50 87 94 bd
       0.079571635 -0.091575205 0.011819714 -0.07252371
0000b0 d5 9a ab be 22 07 20 be 81 24 95 bd d6 ff 57 be
       -0.33516565 -0.15627721 -0.07282353 -0.21093687
0000c0 5b 09 6a be d1 d4 90 3d 74 b1 6c bd 21 34 0e bd
       -0.22855131 0.070718415 -0.05778642 -0.034717683
0000d0 8b 82 1e 3d e9 da 0f bd 5a 3e ec bc 2f 8b e3 bb
       0.038698714 -0.03512088 -0.028838325 -0.006944082
0000e0 f1 8a 39 bd 1a a6 f1 bd a5 17 d1 bd 90 ab 0a be
       -0.04529852 -0.117992595 -0.10209588 -0.13542008
0000f0 03 cb a9 3c 01 6c 65 bd c4 3c 9c bd 32 f8 2d bd
       0.020726686 -0.056011204 -0.076287776 -0.042473026
000100 9b d9 d2 bd 8d 35 12 3e 97 aa 49 3e 3b ba 14 be
       -0.10295411 0.1427824 0.19693981 -0.14524166
000110 68 3f be 3d f2 b2 a1 3d a7 15 19 be da 2b 06 b9
       0.092894375 0.07895459 -0.14949666 -0.00012795572
000120 b4 b3 a4 bc 8f a4 72 bc 9f 5a 9c be 07 3d 30 3d
       -0.02010522 -0.014809742 -0.30537888 0.04302695
000130 c2 70 e2 3d f0 cc fa 3c 6b be 2b 3c ec 89 5d 3d
       0.11056663 0.0306153 0.010482411 0.05408661
000140 0d 99 25 3a 51 bd a7 bd bc a4 cc 3d 3a 33 25 3d
       0.0006317057 -0.08190406 0.09992358 0.040332057
000150 86 9d 88 be 37 c8 b0 bd de 5c 2e 3e 89 f8 ec 3c
       -0.2668268 -0.08631938 0.17027614 0.028927105
000160 f4 29 58 3e e4 bc 59 be ea 15 35 3e 37 f7 83 b9
       0.21109754 -0.21263462 0.17684141 -0.00025170457
000170 c2 53 ae bd 3f 25 51 be fa 1b 0c 3e 6a 9a 2a 3d
       -0.08512069 -0.20424365 0.13682547 0.041651167
000180 d3 a9 72 3e c6 07 b9 bd ed 81 85 3d 42 0a 40 be
       0.23697595 -0.09034686 0.06518922 -0.18753913
000190 13 ce 1b 3e 4b ab 08 3d f1 6c 09 be ca 16 a3 bc
       0.1521533 0.033366483 -0.13420464 -0.019908328
0001a0 8e d7 70 bc 2b 24 b5 be de fa 1f 3c 38 04 a5 3d
       -0.01469983 -0.35379156 0.009764401 0.08057445
0001b0 2c cd 5e bd a6 83 e2 bd 4d ff 1a 3e 8f ce 67 3d
       -0.054394886 -0.11060266 0.15136452 0.056593474
0001c0 18 ed 32 3e 6e 08 26 3d 4d 6d 88 be 6e f8 ce bd
       0.17473257 0.040535383 -0.2664589 -0.10105978
0001d0 7e 0d 1a 3e c3 d9 32 be 91 80 1e 3d 4a 23 ee bd
       0.1504421 -0.17465882 0.03869683 -0.116278246
0001e0 ec 5f 60 3c c9 34 0d 3e 56 64 5d 3e 38 65 c2 bd
       0.013694745 0.13789667 0.21620306 -0.09491962
0001f0 23 55 ac 3c 1d 63 73 3d c6 53 67 be e3 2b 54 bb
       0.02103669 0.059420694 -0.22590551 -0.0032374791
000200 52 df cf 3c 97 b9 af 3d 9d 0a 12 3c 3a ad 7c 3e
       0.025375042 0.0858032 0.008913663 0.24675456
000210 f8 ae 77 be 69 d2 a3 be c6 97 5a bc 9d 8a 7c bd
       -0.24187839 -0.31996468 -0.01334185 -0.06165563
000220 96 6b 3c 3d 76 05 51 be 27 bd 4c bd bc 38 db 3c
       0.04600104 -0.2041224 -0.049985077 0.026760451
000230 eb 5f 0b be 0b 32 0e be 4b 96 9e 3d a2 91 5a be
       -0.13610809 -0.13886277 0.0774351 -0.21344617
000240 b7 cf b6 3d f8 26 0d 3c f4 40 8b 3d 44 00 dd bd
       0.08926337 0.008615248 0.06799498 -0.10791066
000250 08 ca da ba 63 29 8d 3c a4 99 26 3e b1 37 f3 bd
       -0.001669229 0.017231649 0.16269547 -0.11875857
000260 a6 89 56 3d 83 47 00 bd bd ea 40 3e 4e c2 11 be
       0.052377366 -0.0313182 0.18839546 -0.14234278
000270 cc c8 c6 3c 77 b4 6f bd fd cf 50 be 79 7a 82 3d
       0.02426567 -0.058521714 -0.20391841 0.06371016
000280 10 92 d5 bd 2d 26 b4 3a fc c9 c7 3d 64 17 5b be
       -0.1042825 0.0013744287 0.09755322 -0.21395642
000290 f4 86 8c 3d f8 2c a4 3d 76 84 93 3c 36 a3 2b 3d
       0.06861678 0.080163896 0.018007498 0.041903697
0002a0 42 a0 23 be 5b 94 3a 3d 97 0d ee bc 51 57 8f 3d
       -0.15979102 0.04555164 -0.029059215 0.06999076
0002b0 d8 24 26 be ae 4d e8 bd ef ed 53 bd 24 61 b4 3c
       -0.16224992 -0.11342941 -0.051740583 0.022018977
0002c0 78 5f f5 3d 4f bc 73 3e 90 0c 79 bd 42 87 59 bd
       0.119811 0.23802303 -0.060802996 -0.053107508
0002d0 87 0f 30 be b5 4c 70 3e 0b 45 21 bc 49 93 22 3e
       -0.17193423 0.23466761 -0.009843121 0.15876497
0002e0 65 da db bd 7f 8c 0f 3c db 84 2c 3e 50 6e c2 bc
       -0.10735015 0.008761524 0.16847555 -0.023734242
0002f0 93 0e de 3d f5 74 00 bd 0a 8c 64 be 7f cc b8 bd
       0.108426236 -0.03136154 -0.22319046 -0.090233795
000300 bc 06 b1 bd 3d b1 65 3e 2a 6d bc bc 8d 59 26 bd
       -0.086438626 0.22430892 -0.023001272 -0.040612746
000310 b6 bc 53 3e c1 dc 0a be 39 bb 80 be fc 82 0c be
       0.20677456 -0.13560773 -0.2514284 -0.13721842
000320 0e 50 bf bc 60 ea 78 3c 59 2f ef bb 1a 59 a3 3c
       -0.023353603 0.015192598 -0.0072993455 0.019939948
000330 31 a4 87 3d 38 6c dd bd b9 7d 51 3d 54 7b f2 3c
       0.06623114 -0.10811657 0.05114529 0.029599823
000340 84 f3 9a be 42 c2 40 bd cd 35 7f 3e 50 ef bb 3d
       -0.30263913 -0.04706026 0.24922867 0.091765046
000350 3f 07 a8 bd 08 e1 32 3e e0 70 00 bf 0d 36 4b 3e
       -0.08204507 0.17468655 -0.50172234 0.19844837
000360 3f aa 0a 3d 9f 38 89 bd 9c a6 74 3e f1 0c 87 bd
       0.033853766 -0.06700253 0.23891681 -0.06594265
000370 ba 43 cb 3d 38 3a 00 3e eb 45 d6 3d 4c 41 5a 3c
       0.09925027 0.12522209 0.104625545 0.013321232
000380 77 3d 16 3e 88 c7 2c be a2 cc 09 bd 68 53 5e 3d
       0.14671884 -0.1687299 -0.03364242 0.05427876
000390 4e 80 a6 3d b7 1f ce 3d 12 8c c5 bd 08 9d 3c bc
       0.08129941 0.10064643 -0.09645857 -0.011512049
0003a0 e1 04 1c 3d a1 29 b5 3d 03 58 22 3d fb 27 94 3c
       0.03809059 0.08845831 0.039634716 0.01808547
0003b0 a3 72 4d bc d3 8e 06 3d 6d 37 29 be 79 49 4e 3d
       -0.012539539 0.03285105 -0.1652505 0.050363038
0003c0 51 f4 be 3d 4c 3e d8 bd a9 08 c1 3d ab 1d 51 3d
       0.093239434 -0.10558757 0.0942548 0.051053684
0003d0 b9 97 0d be 98 61 0d bd 84 c0 b2 3e fa ee 37 be
       -0.13827409 -0.0345169 0.34912503 -0.17962256
0003e0 cc 11 12 3e b5 09 b2 3c 96 27 27 be ab ee c3 3d
       0.14264601 0.021733144 -0.16323695 0.09567007
0003f0 fa 7b 46 3e df 4f 7d 3d 44 1f 19 be f9 ec aa 3e
       0.19383231 0.06184375 -0.14953333 0.3338392

linears.4.bias f4 [50]
000000 44 c1 0b 34 7f 6a 64 b5 5e 9f ec 34 97 73 3b 33
       1.3015693e-07 -8.509159e-07 4.407438e-07 4.364446e-08
000010 f1 ad 01 35 59 a4 10 b2 15 1d 15 36 6e ee ac b5
       4.8309363e-07 -8.4192715e-09 2.2219658e-06 -1.2884391e-06
000020 95 4b b3 34 a2 10 2f b4 54 3b 99 34 a3 41 3d 35
       3.339634e-07 -1.6304196e-07 2.8541638e-07 7.05035e-07
000030 cb ea 0a 34 cb 64 46 b4 aa 60 2e b5 bc 68 09 b6
       1.2937669e-07 -1.8476855e-07 -6.4960716e-07 -2.0475554e-06
000040 9f e1 8f b4 c4 6d 66 34 b3 f6 87 35 ed 57 f6 33
       -2.6799987e-07 2.1460352e-07 1.0130083e-06 1.1471261e-07
000050 5a b3 32 33 29 ac 23 35 ac 4c a2 b4 9d 7b 19 36
       4.1606974e-08 6.097276e-07 -3.0230638e-07 2.287073e-06
000060 8d 07 1c b5 ba 0e e2 b4 1f 0e 0a 34 d1 83 3f b5
       -5.8125516e-07 -4.2106495e-07 1.2857389e-07 -7.134486e-07
000070 f8 60 75 b2 b0 67 35 b5 77 9a a9 36 5e fc f8 b3
       -1.4282925e-08 -6.757864e-07 5.0545746e-06 -1.1594305e-07
000080 18 85 01 b4 ec d9 0f 35 cb 58 a9 b3 45 64 93 35
       -1.206248e-07 5.358877e-07 -7.885827e-08 1.0981536e-06
000090 23 3d 9a 35 98 14 c9 b3 c6 64 79 33 37 f9 10 33
       1.1491687e-06 -9.363538e-08 5.8066483e-08 3.3754272e-08
0000a0 07 b6 74 b6 69 86 ec 34 cd 5d 91 35 f2 ff 70 35
       -3.6464787e-06 4.4056222e-07 1.0830641e-06 8.9779417e-07
0000b0 75 bf c0 b4 ef e3 dd b2 22 a1 04 33 af f3 28 34
       -3.590209e-07 -2.5831438e-08 3.0880194e-08 1.5734871e-07
0000c0 01 1c b8 34 ec 9e 99 34
       3.4293046e-07 2.8614102e-07
