Archived Code/Stan TPAMI/1D/FODE/rowdy_tune/1D_FODE_rowdy_tune6_1.pt (torch, 89248 bytes, 22 tensors)

omega1 f4 [9, 1]
1.0222234 1.0067706 1.0003911 1.0285355 1.0465875 1.0432616 1.0862472 1.161426
1.3647557
00000000: 37d8 823f dcdd 803f d10c 803f 0da7 833f
00000010: 94f6 853f 9989 853f 260a 8b3f 9ba9 943f
00000020: 51b0 ae3f

alpha f4 [2, 9]
0.08259166 0.012553298 0.020004267 0.13108122 0.08523324 0.070191346 0.3304939 0.6734304
1.6991415 0.14512569 0.050890405 0.033417843 0.13547939 0.26235026 0.28320208 0.49384192
0.91886646 2.6160076
00000000: d125 a93d 59ac 4d3c fddf a33c 283a 063e
00000010: c48e ae3d 7bc0 8f3d 7f36 a93e ef65 2c3f
00000020: 787d d93f d49b 143e 7572 503d 26e1 083d
00000030: 1cbb 0a3e c652 863e ddff 903e d9d8 fc3e
00000040: d53a 6b3f ab6c 2740

omega f4 [2, 9]
0.32830176 0.31930757 0.31810242 0.30433464 0.320104 0.31298658 0.23852298 0.14605074
0.221264 0.30823871 0.2845131 0.24800692 0.2008239 0.27537602 0.2117966 0.052402142
0.18227713 0.11311317
00000000: 2b17 a83e 487c a33e 52de a23e c0d1 9b3e
00000010: ace4 a33e c73f a03e 5e3f 743e 538e 153e
00000020: 0893 623e 77d1 9d3e b3ab 913e 87f5 7d3e
00000030: c8a4 4d3e 16fe 8c3e 35e1 583e a1a3 563d
00000040: dba6 3a3e e1a7 e73d

linears.0.weight f4 [50, 1]
-0.18422951 -0.07666603 0.08755187 -0.40546313 0.08794021 0.23501495 -0.12909816 -0.33759192
0.3293651 -0.17779513 -0.16131562 0.016496858 -0.15150174 0.028674567 0.19997723 0.2897046
0.28798148 -0.15822963 -0.2914411 -0.115747765 0.31131798 -0.37386817 -0.014557914 -0.0069426904
-0.00999794 -0.22607446 0.009965663 0.082385115 0.19683763 -0.2830338 -0.18748607 -0.32951728
0.3014848 -0.29906496 0.11659788 0.16901322 -0.48318133 -0.3586364 -0.16928707 -0.04765163
0.07397763 0.4501375 -0.1224952 -0.13613789 -0.2985997 0.20245554 0.16834232 0.34533972
0.04534058 0.06409018
00000000: a9a6 3cbe 1403 9dbd 654e b33d dd98 cfbe
00000010: ff19 b43d c2a7 703e 4f32 04be d9d8 acbe
00000020: 8ba2 a83e ed0f 36be ec2f 25be 6b24 873c
00000030: 4623 1bbe ede6 ea3c d5c6 4c3e 2954 943e
00000040: 4f72 933e f306 22be c537 95be 2a0d edbd
00000050: 1265 9f3e a66b bfbe 5184 6ebc 827f e3bb
00000060: 66ce 23bc 1080 67be 0547 233c 87b9 a83d
00000070: ce8f 493e cee9 90be 59fc 3fbe 7db6 a8be
00000080: 375c 9a3e 0b1f 99be dfca ee3d cd11 2d3e
00000090: 8b63 f7be 319f b7be 9759 2dbe 5b2e 43bd
000000a0: 9581 973d 6c78 e63e c3de fabd bb67 0bbe
000000b0: 0fe2 98be 8150 4f3e ee61 2c3e 5ed0 b03e
000000c0: 0bb7 393d b641 833d

linears.0.bias f4 [50]
0.04802915 0.07309771 -0.04782297 -0.0570789 -0.0002200511 -0.012776142 -0.032677308 0.10493982
0.019959666 0.04485413 -0.04168582 -0.0668759 -0.0020520703 -0.067305185 0.091923475 -0.086020194
-0.04062186 -0.051837206 -0.081383176 0.16563492 0.06246137 -0.059386943 0.017369123 -0.084340304
0.17673695 -0.17910329 -0.013275466 -0.12736665 -0.034813337 0.12345553 0.00902046 0.11109702
0.0651632 0.038370445 0.03233176 0.086533174 0.014586435 0.10553635 -0.19738877 -0.10069881
-0.046280358 0.032461014 0.062103502 0.026370836 -0.0276865 -0.15510745 -0.079467714 0.026139038
0.069591954 -0.033270124
00000000: 37ba 443d 41b4 953d 05e2 43bd 91cb 69bd
00000010: 84bd 66b9 0653 51bc a4d8 05bd b0ea d63d
00000020: 7482 a33c f7b8 373d c0be 2abd 3bf6 88bd
00000030: 077c 06bb 4dd7 89bd 6042 bc3d 5b2b b0bd
00000040: 1c63 26bd 4053 54bd 39ac a6bd 339c 293e
00000050: 7ed7 7f3d b93f 73bd b149 8e3c 9cba acbd
00000060: 88fa 343e da66 37be 5781 59bc 676c 02be
00000070: 6e98 0ebd 41d6 fc3d 8dca 133c d686 e33d
00000080: 4974 853d 542a 1d3d 4f6e 043d 4e38 b13d
00000090: f1fb 6e3c 7123 d83d 4820 4abe 2d3b cebd
000000a0: 7990 3dbd d7f5 043d 3e60 7e3d a707 d83c
000000b0: cdce e2bc 7dd4 1ebe f8bf a2bd 8921 d63c
000000c0: 3a86 8e3d 4146 08bd

linears.1.weight f4 [50, 50]
-0.1564842 -0.27112544 -0.07807714 -0.16357096 0.16127127 -0.034121748 0.017279387 -0.3401439
-0.106169604 0.10972279 0.11488851 -0.058956753 0.0023556938 -0.096125595 -0.06220518 0.065488465
0.06656388 0.06475073 -0.11173736 0.095194556 0.035415728 -0.16548625 0.106268905 0.28592864
-0.24110861 -0.2548436 -0.057595827 0.20618057 -0.002007126 -0.13611749 -0.04692979 -0.1917796
-0.22073995 0.0015901744 0.11741172 -0.14975479 -0.24759066 0.16218716 -0.020624466 0.2757705
-0.20464675 0.16401935 0.012453838 -0.03073418 0.12798265 0.16788481 -0.012511947 -0.18180427
0.20671062 -0.10316129 -0.029469006 0.12482202 -0.2650864 -0.14234428 0.049498152 0.04009759
0.10240517 0.21744387 0.047007974 0.1826617 0.021525674 -0.07984505 0.04624343 -0.052044407
0.015327769 0.19390167 -0.07349655 0.006139206 -0.11829565 -0.18088607 0.041375175 -0.08258345
0.16740237 0.14825432 0.2184081 -0.1834516 0.052832417 0.035500888 0.0060212985 -0.07265164
-0.094804265 0.15361471 0.15366922 -0.22661898 0.051444553 -0.071374625 0.13205391 -0.16239934
-0.07335895 0.20406064 -0.3104278 0.0876623 -0.017221 0.15352401 -0.18509646 -0.28191417
0.059092302 0.098889925 -0.108000666 -0.27934945 -0.20210238 0.38769922 -0.11132831 0.06593526
-0.13662633 -0.17478785 -0.051547345 0.010597102 0.08707375 0.05000164 0.0011350226 0.15431285
-0.07954491 0.030617887 0.10856021 0.03237614 0.10021058 -0.23022959 -0.08676907 -0.038542718
-0.18767834 -0.17283522 -0.03257451 -0.01809203 0.22086479 0.04435706 -0.16256514 -0.10854019
-0.16916622 0.1237834 -0.04332949 0.10045215 0.020403514 0.089871906 0.026666254 -0.073191315
0.115944535 -0.051252257 0.13858455 0.016281942 -0.061904535 0.31578314 0.043487128 0.22781219
0.046044208 0.19196475 0.0739993 0.108349636 -0.052819118 0.10713246 -0.073520966 -0.087987825
-0.3114643 -0.12526222 0.21096754 0.06306646 0.23554054 -0.119939044 0.21306984 0.18100381
-0.14308685 0.21042755 -0.008164072 -0.08438163 -0.3687935 -0.11177112 0.13284099 -0.015450531
-0.0035372388 0.16373517 -0.1435238 -0.12646906 -0.122765385 -0.026328145 -0.057205003 -0.0665719
-0.18683456 -0.025821006 -0.07029753 -0.15463987 -0.14434363 -0.21823968 0.24242541 -0.031825263
0.24034551 0.02378521 -0.023526743 -0.04738737 -0.1547098 -0.08482781 -0.10180121 -0.08184933
-0.020477673 0.0072670504 0.024081817 0.07321721 -0.0076681264 -0.15865286 -0.078769885 -0.05772715
0.059197012 0.06035151 -0.25862676 -0.17944433 0.19303825 -0.06851658 0.13543352 0.017403234
0.03394635 -0.29957154 -0.13384879 -0.029690986 -0.017646343 0.2847472 -0.05304729 0.05856255
-0.14483777 0.066016085 0.22756734 -0.03614181 -0.25908503 -0.099081896 0.23573714 0.08969071
-0.1185408 -0.11614446 0.1332422 -0.25158945 0.15755978 0.22007601 0.007517716 0.016551794
-0.010100194 -0.07092975 0.038767938 -0.07787035 0.13621736 -0.027897375 -0.20048591 0.0147976875
-0.19371189 0.116038464 -0.082052216 0.030118132 0.08681229 0.036877714 0.06288595 -0.089065574
-0.016857412 -0.1871791 -0.18453807 0.12623905 -0.16086671 0.004018954 -0.04071491 -0.071443595
00000000: 653d 20be f4d0 8abe e8e6 9fbd 257f 27be
00000010: 4c24 253e 3fc3 0bbd 808d 8d3c 5727 aebe
00000020: 736f d9bd 58b6 e03d ab4a eb3d a37c 71bd
00000030: fc61 1a3b 7fdd c4bd dcca 7ebd d11e 863d
00000040: a552 883d 089c 843d 8fd6 e4bd 5df5 c23d
00000050: 1510 113d 3a75 29be 83a3 d93d 3d65 923e
00000060: 2de5 76be dc7a 82be 9ae9 6bbd 0021 533e
00000070: fd89 03bb 6262 0bbe 7439 40bd df61 44be
00000080: a709 62be 666d d03a 8e75 f03d 5259 19be
00000090: 6888 7dbe 6414 263e a4f4 a8bc ca31 8d3e
000000a0: eb8e 51be b0f4 273e 2f0b 4c3c 3fc6 fbbc
000000b0: e20d 033e ffe9 2b3e e9fe 4cbc e62a 3abe
000000c0: f3ab 533e 3a46 d3bd fc68 f1bc b0a2 ff3d
000000d0: 68b9 87be b3c2 11be 93be 4a3d 5f3d 243d
000000e0: cdb9 d13d 9ba9 5e3e 6f8b 403d ab0b 3b3e
000000f0: 9c56 b03c cd85 a3bd c069 3d3d 842c 55bd
00000100: 5321 7b3c 298e 463e 5c85 96bd 642b c93b
00000110: fd44 f2bd 333a 39be 0479 293d 8321 a9bd
00000120: 876b 2b3e fbcf 173e 5fa6 5f3e bcda 3bbe
00000130: ce66 583d 6169 113d 504e c53b 62ca 94bd
00000140: bd28 c2bd 2d4d 1d3e 775b 1d3e ce0e 68be
00000150: 86b7 523d dc2c 92bd 2439 073e 034c 26be
00000160: 383d 96bd 46f5 503e 65f0 9ebe 4b88 b33d
00000170: 0e13 8dbc 6635 1d3e ed89 3dbe 0e57 90be
00000180: c50a 723d cd86 ca3d 742f ddbd e406 8fbe
00000190: edf3 4ebe 8380 c63e 1900 e4bd 1109 873d
000001a0: c6e7 0bbe 96fb 32be 4f23 53bd 789f 2d3c
000001b0: b953 b23d 85ce 4c3d 0ac5 943a 3004 1e3e
000001c0: 71e8 a2bd 5dd2 fa3c d154 de3d d89c 043d
000001d0: 343b cd3d 4ec1 6bbe fbb3 b1bd f8de 1dbd
000001e0: c02e 40be b7fb 30be d96c 05bd bd35 94bc
000001f0: 612a 623e c0af 353d 7a77 26be 524a debd
00000200: e939 2dbe 2782 fd3d 437a 31bd dbb9 cd3d
00000210: 4525 a73c c30e b83d 3073 da3c 54e5 95bd
00000220: 5474 ed3d e3ed 51bd 1ce9 0d3e b561 853c
00000230: 9c8f 7dbd 54ae a13e 8f1f 323d 9947 693e
00000240: da98 3c3d 6892 443e f28c 973d 6ae6 dd3d
00000250: dc58 58bd 4368 db3d 2992 96bd f632 b4bd
00000260: 4078 9fbe bd44 00be e007 583e fd28 813d
00000270: 8a31 713e 9aa2 f5bd fb2e 5a3e 1059 393e
00000280: 5c85 12be 527a 573e 9ac2 05bc 47d0 acbd
00000290: 80d2 bcbe 42e8 e4bd 7807 083e 3924 7dbc
000002a0: 05d1 67bb 31aa 273e e7f7 12be 1b81 01be
000002b0: 6b6c fbbd 1fae d7bc cb4f 6abd d956 88bd
000002c0: 8f51 3fbe 9386 d3bc 27f8 8fbd ea59 1ebe
000002d0: d1ce 13be 397a 5fbe 5e3e 783e 355b 02bd
000002e0: 221d 763e 33d9 c23c 28bb c0bc 4219 42bd
000002f0: 3f6c 1ebe 34ba adbd 277d d0bd 9fa0 a7bd
00000300: cbc0 a7bc 7020 ee3b 3b47 c53c e8f2 953d
00000310: e844 fbbb e575 22be 1b52 a1bd 4e73 6cbd
00000320: 9178 723d 2533 773d ba6a 84be 41c0 37be
00000330: d2ab 453e 6c52 8cbd 16af 0a3e 3a91 8e3c
00000340: 540b 0b3d 7161 99be a80f 09be 833a f3bc
00000350: 108f 90bc 63ca 913e 1d48 59bd 49df 6f3d
00000360: 5a50 14be 7133 873d 6a07 693e 6f09 14bd
00000370: cba6 84be 73eb cabd 1465 713e c3af b73d
00000380: 85c5 f2bd 26dd edbd a570 083e 55d0 80be
00000390: 5a57 213e 9b5b 613e 2c57 f63b a197 873c
000003a0: 497b 25bc 9e43 91bd 21cb 1e3d 7d7a 9fbd
000003b0: 907c 0b3e 0989 e4bc 2e4c 4dbe 0072 723c
000003c0: 695c 46be 93a5 ed3d fe0a a8bd 4dba f63c
000003d0: a4ca b13d 160d 173d 59ca 803d 0368 b6bd
000003e0: 8e18 8abc e1ab 3fbe 8cf7 3cbe cf44 013e
000003f0: 3eba 24be 6eb1 833b adc4 26bd 0551 92bd

linears.1.bias f4 [50]
-0.12702453 0.012168606 -0.013051772 0.062393337 0.11136001 0.005046965 -0.03207508 0.0025901124
-0.045008413 -0.17559345 -0.051778745 -0.1443009 -0.084107295 0.022248838 -0.0017621878 0.23596148
-0.010311181 0.14884055 -0.05605841 0.03822698 -0.05442281 0.19523197 -0.13214946 0.0011378302
-0.04720738 0.0047317576 -0.06437382 -0.16021328 0.21016303 0.07744277 -0.2507783 -0.13552362
-0.11263375 0.019495526 0.027544597 -0.065397054 -0.0072121946 0.03056188 -0.07182856 -0.049672183
0.037724365 0.047634244 -0.0045818104 0.15864187 -0.061437026 -0.13569058 0.012114859 -0.026863165
0.085993424 0.0419025
00000000: b812 02be d55e 473c 19d7 55bc 2890 7f3d
00000010: b810 e43d 0361 a53b 2961 03bd e0be 293b
00000020: be5a 38bd c5ce 33be f315 54bd 9dc3 13be
00000030: 7240 acbd 3243 b63c 36f9 e6ba e39f 713e
00000040: 3af0 28bc a869 183e 819d 65bd e593 1c3d
00000050: 74ea 5ebd e4ea 473e 3052 07be 3f23 953a
00000060: 875c 41bd dc0c 9b3b 6cd6 83bd f30e 24be
00000070: fa34 573e 519a 9e3d 0366 80be b4c6 0abe
00000080: 86ac e6bd 15b5 9f3c 35a5 e13c e4ee 85bd
00000090: 4654 ecbb e85c fa3c da1a 93bd 0f75 4bbd
000000a0: dd84 1a3d 201c 433d 0323 96bb 0473 223e
000000b0: 64a5 7bbd 79f2 0abe 677d 463c 2410 dcbc
000000c0: 521d b03d f5a1 2b3d

linears.2.weight f4 [50, 50]
-0.086826086 0.014875568 -0.18490815 -0.224 -0.17007919 -0.043324012 0.022279233 -0.27006826
-0.061424676 -0.122210756 0.007494629 0.08274599 0.038740665 0.10151894 -0.066671826 -0.07531464
0.090454474 0.11916863 0.26508003 0.14897692 -0.12725939 -0.24995083 0.06934532 0.0023776623
-0.12738553 -0.064359225 0.184032 0.22009595 0.16442713 -0.22080049 0.18431622 -0.07497423
-0.1351209 -0.2783902 0.13062146 -0.0493428 0.025500046 -0.06465331 0.09817291 0.06812428
-0.12272931 0.09238324 -0.035240293 0.1169673 0.085861154 0.0184229 0.010421638 0.086845174
0.051066227 -0.055998534 -0.23579146 -0.08169055 0.11730113 -0.23497921 -0.0060214843 0.012526811
0.0946363 0.12812717 0.02391651 -0.05326489 0.041928045 0.036815748 0.34436145 0.27465764
-0.06638478 -0.15336786 -0.110184856 -0.10052887 -0.0768982 0.21411642 0.07425923 0.12687907
0.26302692 -0.27767155 0.17391974 -0.13665815 0.03710143 0.11415011 -0.28247303 0.08043063
0.23029527 0.17144309 0.15490583 -0.046552114 -0.045689516 0.012057614 0.24260981 -0.040055007
-0.05909312 0.1662994 -0.13391317 -0.15255515 0.22963858 -0.06346863 -0.13124712 -0.08705904
0.018533057 0.053253416 0.07089081 -0.020663192 -0.14498833 -0.11101377 0.17960228 0.13307983
0.020942397 0.006152872 -0.11756921 0.1026596 0.06755864 0.075680844 -0.08530338 0.054348975
0.113461904 0.009878912 0.0075316285 0.051905006 0.019983187 -0.113981046 0.14107001 -0.1307906
-0.141075 0.21716052 -0.03843801 0.024701329 0.09921883 -0.042026445 0.27746928 -0.34574214
-0.015381479 -0.19364119 -0.0128442785 0.10245946 0.015606435 0.03004948 -0.10239685 0.088394016
0.0007057472 -0.08819365 -0.05654952 0.24428394 -0.14959924 -0.0054790736 0.13712451 0.21521437
0.0272124 0.22009699 -0.1282009 -0.008105037 -0.12013768 0.20704621 -0.19237341 0.21774322
-0.00667317 -0.19831927 -0.05888439 0.06645436 -0.102118246 -0.047887746 0.18252371 -0.007629132
0.08290059 0.15630189 0.33245763 -0.10305517 0.044780016 0.04822051 -0.051984977 -0.032675482
0.09354018 -0.022984087 -0.15645975 -0.04178062 -0.119464956 0.081824236 0.014181385 0.32422656
0.0024785812 -0.29075834 0.1317175 -0.00453711 -0.009989635 0.046311446 -0.091803275 -0.13670777
-0.15809162 -0.040206887 0.041035578 -0.051253155 0.1339003 -0.023441277 0.1646066 0.07435795
0.043684233 -0.11671191 -0.058476016 0.122920714 0.11140639 0.05085561 0.15813017 -0.039211906
-0.05539633 -0.13254845 0.24917585 0.042793375 0.032406695 0.04061745 0.099613376 -0.000476351
0.08963947 -0.2726905 0.15374441 0.017848082 0.00927403 0.11624648 -0.20144871 -0.034898583
0.10112928 0.08905716 -0.18846136 0.09259048 0.22496368 -0.047412053 0.020535324 -0.036714654
0.11461322 0.010714288 0.11779248 -0.045329846 -0.39477518 -0.0015728335 -0.025716566 0.025161467
-0.030888056 0.058921162 0.1500431 -0.12682952 -0.07060324 0.3161852 0.18867637 0.09110135
0.032205522 0.2645835 0.07484648 0.08398552 0.05845745 -0.047665074 -0.13831489 -0.019288212
-0.18587567 0.034865458 -0.1324979 0.24958277 -0.19240253 -0.10123413 0.02128891 0.031616747
00000000: e0d1 b1bd a8b8 733c 9058 3dbe 4260 65be
00000010: 3d29 2ebe 8574 31bd f082 b63c 6346 8abe
00000020: 7198 7bbd a249 fabd 8195 f53b bb76 a93d
00000030: 88ae 1e3d 29e9 cf3d 3d8b 88bd 903e 9abd
00000040: 3240 b93d af0e f43d 92b8 873e 688d 183e
00000050: 4950 02be 1cf3 7fbe eb04 8e3d 8ed2 1b3b
00000060: 5a71 02be c5ce 83bd e272 3c3e d560 613e
00000070: 965f 283e 8619 62be 64bd 3c3e 178c 99bd
00000080: 225d 0abe 2989 8ebe a2c1 053e ad1b 4abd
00000090: 79e5 d03c f468 84bd e10e c93d be84 8b3d
000000a0: 8159 fbbd 6d33 bd3d 2058 10bd 8d8c ef3d
000000b0: f9d7 af3d 9feb 963c 85bf 2a3c e2db b13d
000000c0: d22a 513d b85e 65bd 5173 71be 604d a7bd
000000d0: 933b f03d 649e 70be df4f c5bb 413d 4d3c
000000e0: add0 c13d c533 033e 8fec c33c 492c 5abd
000000f0: bebc 2b3d 1ccc 163d 2550 b03e ed9f 8c3e
00000100: bef4 87bd 770c 1dbe 99a8 e1bd 15e2 cdbd
00000110: ce7c 9dbd 5641 5b3e 3915 983d 96ec 013e
00000120: 77ab 863e f72a 8ebe 0418 323e 1df0 0bbe
00000130: abf7 173d 88c7 e93d 4ea0 90be d0b8 a43d
00000140: 86d2 6b3e c78e 2f3e a29f 1e3e 6ead 3ebd
00000150: ee24 3bbd 4c8d 453c b56e 783e b810 24bd
00000160: a10b 72bd 644a 2a3e 8920 09be 6b37 1cbe
00000170: 6026 6b3e d7fb 81bd a565 06be 034c b2bd
00000180: a3d2 973c 4120 5a3d 332f 913d db45 a9bc
00000190: d277 14be 305b e3bd a9e9 373e 1446 083e
000001a0: 648f ab3c 089e c93b 20c8 f0bd 323f d23d
000001b0: 2f5c 8a3d 8ffe 9a3d 8ab3 aebd 089d 5e3d
000001c0: b75e e83d 29db 213c e1cb f63b 589a 543d
000001d0: c8b3 a33c e56e e9bd a874 103e f9ed 05be
000001e0: f775 10be 545f 5e3e 2d71 1dbd 715a ca3c
000001f0: 3e33 cb3d ec23 2cbd 7410 8e3e 1d05 b1be
00000200: 9902 7cbc e049 46be cf70 52bc 44d6 d13d
00000210: 22b2 7f3c 542a f63c 71b5 d1bd ec07 b53d
00000220: e501 393a df9e b4bd 78a0 67bd 9225 7a3e
00000230: 8b30 19be cd89 b3bb 5e6a 0c3e 2861 5c3e
00000240: 8aec de3c 1b61 613e 1947 03be fdca 04bc
00000250: be0a f6bd ec03 543e 89fd 44be 14f8 5e3e
00000260: 9baa dabb 3514 4bbe c230 71bd 3919 883d
00000270: 5f23 d1bd f125 44bd 7fe7 3a3e ccfd f9bb
00000280: c9c7 a93d 9a0d 203e e337 aa3e 970e d3bd
00000290: 406b 373d df82 453d 33ee 54bd bad6 05bd
000002a0: fe91 bf3d 2049 bcbc fc36 20be 2822 2bbd
000002b0: 0baa f4bd 7793 a73d 0a59 683c 0601 a63e
000002c0: b16f 223b 47de 94be f4e0 063e 0aac 94bb
000002d0: 91ab 23bc 12b1 3d3d 5b03 bcbd 1ffd 0bbe
000002e0: c5e2 21be faaf 24bd ec14 283d d4ee 51bd
000002f0: 291d 093e ec07 c0bc a28e 283e fb48 983d
00000300: 3dee 323d a706 efbd 8c84 6fbd dbbd fb3d
00000310: 0929 e43d f94d 503d e0ec 213e aa9c 20bd
00000320: 43e7 62bd c8ba 07be f427 7f3e 1b48 2f3d
00000330: e2bc 043d 7c5e 263d 1902 cc3d c0be f9b9
00000340: e694 b73d 179e 8bbe 2d6f 1d3e 2436 923c
00000350: 1af2 173c a212 ee3d 9248 4ebe d1f1 0ebd
00000360: de1c cf3d 9a63 b63d 04fc 40be 14a0 bd3d
00000370: e15c 663e 2433 42bd b239 a83c 1b62 16bd
00000380: 56ba ea3d fb8a 2f3c 2f3d f13d caab 39bd
00000390: f91f cabe 8927 ceba 8cab d2bc 6c1f ce3c
000003a0: f308 fdbc 5157 713d e6a4 193e 99df 01be
000003b0: 6e98 90bd 07e3 a13e 6134 413e 5893 ba3d
000003c0: f0e9 033d 7d77 873e 1c49 993d 9a00 ac3d
000003d0: 1471 6f3d 743c 43bd 6ba2 0dbe 5002 9ebc
000003e0: 3156 3ebe 15cf 0e3d 88ad 07be a092 7f3e
000003f0: 2b05 45be d753 cfbd 1566 ae3c 9080 013d

linears.2.bias f4 [50]
0.02671582 -0.14739104 -0.05248633 0.073723026 0.0027850794 -0.23549113 -0.016494667 -0.21496014
0.042299926 0.17246245 0.07430341 0.14676823 0.054097638 0.16807789 0.17341156 -0.04486095
0.0625657 -0.0470149 -0.042283878 -0.0369584 0.04547619 0.0067259637 0.28646627 0.13332395
-0.1139781 -0.102746926 0.029661633 0.017481811 -0.037393 -0.061061516 -0.0016000624 0.06539878
0.08685044 0.13890176 0.18915957 -0.018727437 -0.0059812595 -0.06401627 -0.00662073 -0.071656734
0.25447813 0.13500331 0.136117 -0.007206217 -0.10225723 -0.1341728 -0.098189086 0.017622689
0.0116089545 0.10753663
00000000: 23db da3c aded 16be e8fb 56bd 19fc 963d
00000010: e185 363b 9624 71be d31f 87bc 831e 5cbe
00000020: b042 2d3d ff99 303e 632c 983d 694a 163e
00000030: 7c95 5d3d 9c1c 2c3e cd92 313e 1ec0 37bd
00000040: 7222 803d b292 40bd dc31 2dbd b161 17bd
00000050: 3e45 3a3d 7965 dc3b b5ab 923e 1386 083e
00000060: 5a6d e9bd fb6c d2bd f4fc f23c 0436 8f3c
00000070: 6729 19bd a41b 7abd 2fb9 d1ba ccef 853d
00000080: a5de b13d 433c 0e3e 0cb3 413e 486a 99bc
00000090: 71fe c3bb f61a 83bd b5f2 d8bb c4c0 92bd
000000a0: f54a 823e 4f3e 0a3e 4162 0b3e 2122 ecbb
000000b0: 3d6c d1bd 9864 09be 5c17 c9bd 755d 903c
000000c0: 7c33 3e3c 2a3c dc3d

linears.3.weight f4 [50, 50]
-0.013817343 0.21618803 -0.11633016 0.018608117 0.020160893 0.06669585 0.15383732 -0.14516938
0.048856713 0.005471214 0.108003505 0.12729178 0.030229634 -0.25338584 -0.17297222 0.033556864
-0.06980069 -0.21388875 0.27709797 -0.123013824 0.23165298 0.13470058 0.14178501 0.23853509
0.269396 -0.05404134 -0.18525723 -0.033755355 -0.010305009 -0.22100805 -0.22896071 -0.33668846
-0.07374099 0.097141474 -0.041770723 0.11500362 0.016866732 0.0235785 -0.10219974 -0.14727786
-0.08551471 -0.016692372 0.05321096 0.0021954612 0.07335838 -0.19049633 -0.0068230033 -0.09217979
-0.015261198 -0.4328702 -0.19578648 0.16401003 0.04133961 -0.1468015 -0.07207188 -0.04440557
-0.07436264 -0.10769144 0.06690734 -0.017846864 -0.26639578 0.06023615 0.095563754 0.20579918
0.14014497 -0.070679165 -0.13329534 -0.003944156 0.15327933 0.16155636 0.3314466 0.16017945
0.0940945 -0.08259108 0.09867562 0.18654531 0.123876385 0.05136571 -0.00040276124 -0.05622422
0.014050279 0.02673035 -0.20418589 0.18598811 0.05773059 0.044345785 -0.119229555 0.0151769025
-0.05127061 0.11620777 0.1446477 0.17141765 -0.14495817 0.1196683 0.2159829 -0.12411564
0.058643285 0.10079082 0.036832634 0.035842817 -0.010341528 -0.014227712 -0.24224102 -0.08838998
-0.06570621 -0.20381106 0.24923542 -0.043776255 0.062457945 0.002294179 -0.19438682 0.23863511
0.17780215 0.10120935 0.24077795 -0.05821303 -0.10910759 0.073685914 0.15017392 0.14555717
0.2897324 -0.13346021 -0.15431583 0.23416805 0.038138226 0.13394113 -0.14722922 0.14797898
0.05431792 0.04008656 -0.13894315 -0.04191268 -0.07292555 0.10237575 -0.05764068 -0.028993636
0.006744285 -0.085641325 -0.15569754 0.22738321 0.23518963 -0.045369744 0.0006156907 -0.026862713
0.079651594 0.25045374 -0.05917235 -0.085274145 -0.14968179 0.029073942 0.034083884 -0.15831235
0.21742375 0.21541815 -0.018945493 -0.06712066 0.15348253 -0.012791466 -0.16071577 0.1276339
-0.05444489 0.103714265 -0.016194608 -0.11023446 0.08408755 0.047617383 0.24359502 -0.11822405
-0.22096567 0.027756877 0.042440835 -0.22114928 0.16254665 -0.092009455 -0.09384881 0.011759036
-0.04278219 0.2618636 0.02320184 -0.10170004 0.14462987 -0.2009314 0.21296228 -0.028953584
0.16921711 -0.0478599 0.10642815 -0.08147094 -0.11875904 0.09593402 0.011065476 0.24693866
0.11319209 0.108903974 0.07761088 -0.16262451 -0.01287685 0.09849198 0.2569213 0.10474708
-0.03877383 0.11983763 -0.020967122 0.027696852 0.047864217 0.035600156 -0.19677389 -0.06334249
-0.0222815 0.17648378 0.062475454 -0.07151579 0.0022582256 -0.17144719 -0.15337528 0.04716393
0.009184453 -0.11661878 0.34971234 0.058513343 -0.13843676 0.016915476 0.16579005 -0.032944992
-0.05707735 -0.045411788 -0.12991892 -0.04094357 -0.25383937 -0.063404605 0.11766383 0.04831628
-0.10788912 -0.1616818 -0.19189166 -0.059795097 -0.0889179 0.108844265 0.1773083 -0.35903507
-0.20013706 0.048436157 -0.20342961 -0.114932336 0.06546584 -0.115550525 -0.08134431 -0.11969779
-0.07591552 0.05037719 -0.2083814 0.057193603 0.022267492 0.07730706 0.08096408 -0.11661367
00000000: 2362 62bc 6560 5d3e 823e eebd 0d70 983c
00000010: 7528 a53c d597 883d 8887 1d3e 48a7 14be
00000020: fa1d 483d df47 b33b f130 dd3d c758 023e
00000030: 23a4 f73c cabb 81be a11f 31be ec72 093d
00000040: aaf3 8ebd a705 5bbe c9df 8d3e acee fbbd
00000050: 7036 6d3e f3ee 093e 1730 113e 8b42 743e
00000060: 46ee 893e 745a 5dbd 12b4 3dbe 0e43 0abd
00000070: 57d6 28bc ef4f 62be ad74 6abe 6e62 acbe
00000080: 8405 97bd 1cf2 c63d c717 2bbd 0587 eb3d
00000090: 1a2c 8a3c b327 c13c 194e d1bd 02d0 16be
000000a0: 5622 afbd 71be 88bc bcf3 593d bae1 0f3b
000000b0: eb3c 963d 7811 43be 8093 dfbb c2c8 bcbd
000000c0: 1b0a 7abc 2aa1 ddbe 407c 48be 3ff2 273e
000000d0: b953 293d 2253 16be 6c9a 93bd 9de2 35bd
000000e0: 714b 98bd 548d dcbd b706 893d 9633 92bc
000000f0: 0765 88be 2eba 763d eeb6 c33d 05bd 523e
00000100: 2a82 0f3e 3dc0 90bd 937e 08be fb3d 81bb
00000110: 42f5 1c3e 086f 253e 5eb3 a93e 1506 243e
00000120: 9eb4 c03d 8325 a9bd 7216 ca3d bc05 3f3e
00000130: e7b2 fd3d da64 523d b329 d3b9 5e4b 66bd
00000140: 2433 663c 9bf9 da3c 1b16 51be ab73 3e3e
00000150: e976 6c3d eda3 353d a02e f4bd 8ba8 783c
00000160: 2201 52bd 57fe ed3d 871e 143e 1c88 2f3e
00000170: ea6f 14be a714 f53d 9f2a 5d3e 5730 febd
00000180: f133 703d 6b6b ce3d d1dd 163d ebcf 123d
00000190: 836f 29bc 591b 69bc 080e 78be ce05 b5bd
000001a0: fa90 86bd d9b3 50be 9237 7f3e bb4e 33bd
000001b0: e7d3 7f3d f059 163b 570d 47be c35c 743e
000001c0: c411 363e d946 cf3d 7f8e 763e c970 6ebd
000001d0: cd73 dfbd a4e8 963d 31c7 193e f00c 153e
000001e0: ce57 943e cba9 08be f804 1ebe c0c9 6f3e
000001f0: d436 1c3d dd27 093e 42c3 16be cd87 173e
00000200: 787c 5e3d ce31 243d 1d47 0ebe a1ac 2bbd
00000210: fe59 95bd 61aa d13d a218 6cbd 1084 edbc
00000220: 2aff dc3b b864 afbd 2d6f 1fbe 25d7 683e
00000230: 8dd5 703e a0d5 39bd 4e66 213a 310f dcbc
00000240: 6020 a33d 793b 803e b55e 72bd 36a4 aebd
00000250: 2f46 19be 7a2c ee3c 8b9b 0b3d a21c 22be
00000260: 55a4 5e3e 9396 5c3e 9433 9bbc 8e76 89bd
00000270: 862a 1d3e 4c93 51bc ad92 24be 76b2 023e
00000280: 9b01 5fbd 2568 d43d 8eaa 84bc 9bc2 e1bd
00000290: 1836 ac3d 720a 433d f970 793e 731f f2bd
000002a0: d344 62be 6462 e33c 71d6 2d3d f574 62be
000002b0: a172 263e 746f bcbd ce33 c0bd f9a8 403c
000002c0: 613c 2fbd fc12 863e c911 be3c 1c48 d0bd
000002d0: da19 143e f6c0 4dbe c912 5a3e 1130 edbc
000002e0: 4047 2d3e be08 44bd 00f7 d93d 3cda a6bd
000002f0: f137 f3bd 0e79 c43d f84b 353c 7ddd 7c3e
00000300: 41d1 e73d 0c09 df3d 74f2 9e3d 0a87 26be
00000310: 6cf9 52bc 2ab6 c93d 308b 833e a385 d63d
00000320: 4fd1 1ebd 6e6d f53d 3ec3 abbc 82e4 e23c
00000330: 450d 443d 78d1 113d 187f 49be b5b9 81bd
00000340: b187 b6bc 2ab8 343e 43e6 7f3d df76 92bd
00000350: bdfe 133b da8f 2fbe 690e 1dbe f72e 413d
00000360: 637a 163c d4d5 eebd 7f0d b33e b0ab 6f3d
00000370: 5ec2 0dbe 5392 8a3c dec4 293e 54f1 06bd
00000380: f0c9 69bd b601 3abd 7709 05be 72b4 27bd
00000390: 3cf7 81be 46da 81bd bcf9 f03d 4be7 453d
000003a0: f9f4 dcbd ea8f 25be 3f7f 44be b4eb 74bd
000003b0: 971a b6bd bee9 de3d 4f90 353e 72d3 b7be
000003c0: bbf0 4cbe fe64 463d da4f 50be a561 ebbd
000003d0: f412 863d c1a5 ecbd d897 a6bd 1d24 f5bd
000003e0: 9979 9bbd 5058 4e3d ef61 55be d743 6a3d
000003f0: 516a b63c 2a53 9e3d 7fd0 a53d 26d3 eebd

linears.3.bias f4 [50]
-0.030285079 0.17102337 0.04569809 0.1923612 0.016965693 -0.035078622 0.24958628 0.07798871
-2.2212507e-05 -0.07066383 -0.19413474 0.11927024 0.06951985 -0.16703896 -0.060297403 -0.09870897
-0.012023827 -0.13226233 -0.17300859 -0.017222375 -0.069282934 -0.12114137 0.03148946 -0.013165449
-0.10335759 -0.08361483 0.049650278 0.1297938 0.065730505 -0.2525303 -0.21586177 0.020005625
-0.057742313 0.11900978 -0.17205499 0.08570573 -0.059373025 -0.0381822 0.063865215 0.0022005532
0.12946185 -0.04881905 -0.19478422 0.12152947 -0.042685486 -0.046070494 0.10023406 0.07979538
0.0407103 0.021441247
00000000: 6a18 f8bc c020 2f3e ec2d 3b3d 56fa 443e
00000010: a3fb 8a3c 9aae 0fbd 8c93 7f3e 8bb8 9f3d
00000020: ff54 bab7 33b8 90bd 42cb 46be f543 f43d
00000030: 6c60 8e3d 430c 2bbe 69fa 76bd ee27 cabd
00000040: 96ff 44bc c76f 07be 2a29 31be f015 8dbc
00000050: 36e4 8dbd f718 f8bd 18fb 003d e5b3 57bc
00000060: 25ad d3bd 413e abbd 175e 4b3d aae8 043e
00000070: b79d 863d a74b 81be de0a 5dbe d6e2 a33c
00000080: 3483 6cbd 66bb f33d 2f2f 30be 7c86 af3d
00000090: 2131 73bd f064 1cbd c4cb 823d 2837 103b
000000a0: a691 043e 7cf6 47bd 8475 47be 71e4 f83d
000000b0: fad6 2ebd 6ab4 3cbd 8447 cd3d c36b a33d
000000c0: d8bf 263d 8ea5 af3c

linears.4.weight f4 [50, 50]
0.07473934 0.118014276 0.102163725 -0.011586232 -0.008504798 0.025100382 -0.059950635 -0.22992907
-0.37900025 0.07892362 0.0080213975 -0.12784772 0.010434206 -0.09242272 0.061732166 0.023040354
-0.20585161 -0.12937345 0.07236679 0.106663354 -0.037540574 0.07593939 0.045821726 0.061209105
-0.09646824 0.030865204 -0.05163012 0.09027892 -0.11644237 -0.12272945 0.20996563 -0.03669406
0.09011702 0.0127558075 -0.04356518 0.030860052 -0.14127132 -0.13191624 -0.039298274 0.16906813
-0.052311063 0.010661019 -0.37180072 -0.10114626 -0.27427346 0.08830642 -0.10164969 -0.11944659
-0.0029315287 0.094064936 0.09115965 -0.09171047 0.025531767 -0.07471232 0.04097148 0.08976145
0.07936788 -0.20808488 0.027543837 -0.09508315 -0.2019429 0.15396637 0.05661418 0.016760001
-0.10294752 0.18108833 0.2392452 0.06781922 -0.3336212 -0.08457522 0.17206651 -0.050349545
0.052907135 -0.14515015 -0.034296457 0.04658127 0.20120949 0.1853135 -0.13075483 0.12427747
-0.21694542 -0.019933188 -0.013254878 0.18621972 -0.13651656 0.073088735 -0.25867748 0.21014576
0.024272973 0.11595329 0.07961556 0.05500807 -0.07516521 0.092730395 -0.18819337 0.27732515
0.024612853 -0.021956056 0.12790297 0.1401736 -0.33754107 -0.19151591 0.21808843 -0.14205204
0.06761685 0.025260994 -0.09058147 0.17507924 0.09162035 0.22854826 -0.35915527 0.061650462
0.25255594 0.28404334 -0.007414129 0.016115045 0.014958611 -0.112015724 0.15521075 0.004244802
-0.08949992 0.18453877 0.011446901 0.25021616 -0.28309423 0.09450711 0.36285505 -0.18418647
-0.011234529 -0.2701835 0.11533274 -0.0022515221 -0.19009748 -0.13943005 -0.08768723 -0.10265062
0.03940779 0.06313312 -0.09436517 0.0045369063 -0.011510261 0.11753347 -0.039452244 -0.1474167
-0.23822866 0.082634315 -0.22084467 -0.15636103 -0.026444722 -0.06393465 -0.046138726 -0.19308226
0.09698838 -0.24549057 -0.017336212 -0.19282842 0.14389637 0.22787765 -0.16819523 0.21073067
0.124781616 -0.33870193 -0.21499717 0.12782447 -0.03744173 -0.06137393 -0.060178373 -0.44359207
0.3459983 0.14803731 0.15015766 -0.30290347 0.043816265 0.13804081 -0.050133143 0.22351396
0.088503346 0.11315243 -0.18469468 -0.35516337 -0.006584905 -0.019445788 -0.007013027 -0.10491548
0.06552696 -0.2674616 0.027307399 0.17842358 0.06847802 -0.021018468 -0.089462824 0.04141284
-0.25122404 0.014514511 -0.27079707 -0.085653976 -0.18775257 0.19158378 0.31199035 -0.055265788
-0.027834514 0.06284343 -0.0644139 0.27686882 0.028598364 -0.12521239 0.21823916 0.13759653
-0.077356055 -0.121747114 0.13589752 0.05342798 -0.111046694 -0.115616605 -0.21751466 0.2840443
0.1352028 -0.29323295 0.00040157436 0.018677719 -0.2592199 -0.07428905 -0.20118673 -0.0025341942
0.21054494 -0.049615037 0.17641698 0.13957085 -0.32190105 0.0040182574 0.24675418 0.0693676
0.05590531 -0.08965295 -0.20923336 -0.01664425 0.19518605 -0.10365425 -0.042031933 0.07424352
0.043979745 0.0884122 0.1523081 -0.1643544 -0.094031304 0.15329438 -0.061598737 -0.17826723
0.1855162 -0.05643639 -0.0666716 0.19223903 0.09816263 0.01127888 -0.1486781 0.00013088697
00000000: f010 993d 78b1 f13d 373b d13d 2ed4 3dbc
00000010: b557 0bbc 519f cd3c cc8e 75bd 8772 6bbe
00000020: 520c c2be b5a2 a13d 2e6c 033c 83ea 02be
00000030: 3bf4 2a3c 1f48 bdbd deda 7c3d 20bf bc3c
00000040: c4ca 52be 797a 04be 0a35 943d 5172 da3d
00000050: 25c4 19bd 1c86 9b3d 90af 3b3d 66b6 7a3d
00000060: 2491 c5bd 06d9 fc3c 1b7a 53bd 28e4 b83d
00000070: 5679 eebd 9459 fbbd 3b01 573e 834c 16bd
00000080: 468f b83d bcfd 503c 6771 32bd 38ce fc3c
00000090: 6ea9 10be 0d15 07be 3af7 20bd 3220 2d3e
000000a0: 2044 56bd 8eab 2e3c aa5c bebe c525 cfbd
000000b0: 926d 8cbe ffd9 b43d b62d d0bd 6aa0 f4bd
000000c0: e41e 40bb 1ea5 c03d e9b1 ba3d b3d2 bbbd
000000d0: ff27 d13c c602 99bd b6d1 273d dad4 b73d
000000e0: a18b a23d 3414 55be 9da3 e13c f4ba c2bd
000000f0: 1fca 4ebe 5ca9 1d3e 45e4 673d 454c 893c
00000100: 26d6 d2bd 386f 393e b2fc 743e cee4 8a3d
00000110: 66d0 aabe c635 adbd 3432 303e 533b 4ebd
00000120: 27b5 583d 3ea2 14be 717a 0cbd 00cc 3e3d
00000130: dc09 4e3e d2c2 3d3e 98e4 05be 3085 fe3d
00000140: f126 5ebe ed4a a3bc fd2a 59bc 62b0 3e3e
00000150: ffca 0bbe 8caf 953d 6071 84be 7330 573e
00000160: 1dd8 c63c eb78 ed3d 7c0d a33d 2450 613d
00000170: 38f0 99bd 6fe9 bd3d c3b5 40be 90fd 8d3e
00000180: e5a0 c93c 30dd b3bc fff8 023e ab89 0f3e
00000190: 2fd2 acbe bf1c 44be 9352 5f3e 1776 11be
000001a0: b47a 8a3d 25f0 ce3c c782 b9bd f947 333e
000001b0: 73a3 bb3d 8e08 6a3e 33e3 b7be 3285 7c3d
000001c0: 034f 813e 216e 913e 39f2 f2bb b303 843c
000001d0: f614 753c 8068 e5bd 91ef 1e3e fb17 8b3b
000001e0: bc4b b7bd bbf7 3c3e c88b 3b3c 551c 803e
000001f0: baf1 90be f28c c13d 23c8 b93e 619b 3cbe
00000200: 0811 38bc 7e55 8abe 9233 ec3d 468e 13bb
00000210: eaa8 42be c0c6 0ebe 5d95 b3bd 7d3a d2bd
00000220: 106a 213d f04b 813d 8742 c1bd 54aa 943b
00000230: 8995 3cbc 63b5 f03d ad98 21bd 67f4 16be
00000240: 37f2 73be 2e3c a93d 1b25 62be 1b1d 20be
00000250: 9aa2 d8bc 2bf0 82bd f6fb 3cbd 5bb7 45be
00000260: d8a1 c63d e161 7bbe ac04 8ebc d074 45be
00000270: 9259 133e c258 693e 5f3b 2cbe c8c9 573e
00000280: 818d ff3d 576a adbe 3828 5cbe 6be4 023e
00000290: 805c 19bd 3b63 7bbd 997d 76bd 801e e3be
000002a0: b026 b13e 1897 173e eec2 193e 2a16 9bbe
000002b0: af78 333d 925a 0d3e 6958 4dbd d8e0 643e
000002c0: 3e41 b53d 76bc e73d 9a20 3dbe f9d7 b5be
000002d0: 30c6 d7bb c64c 9fbc 89cd e5bb eddd d6bd
000002e0: 0033 863d baf0 88be c4b3 df3c acb4 363e
000002f0: 343e 8c3d ec2e acbc 4938 b7bd 83a0 293d
00000300: 70a0 80be 46ce 6d3c eaa5 8abe 5a6b afbd
00000310: 3642 40be 8a2e 443e 33bd 9f3e 615e 62bd
00000320: 3505 e4bc 0eb4 803d 6feb 83bd c0c1 8d3e
00000330: 1e47 ea3c ad37 00be 167a 5f3e 1be6 0c3e
00000340: da6c 9ebd 8d56 f9bd b828 0b3e 4cd7 5a3d
00000350: 736c e3bd 66c8 ecbd 2abc 5ebe 416e 913e
00000360: 9a72 0a3e a122 96be 668a d239 0402 993c
00000370: 79b8 84be dc24 98bd e503 4ebe b914 26bb
00000380: 1899 573e 2339 4bbd a7a6 343e a9eb 0e3e
00000390: 37d0 a4be 96ab 833b 21ad 7c3e 9a10 8e3d
000003a0: f7fc 643d f79b b7bd 4541 56be 8659 88bc
000003b0: dade 473e ae48 d4bd ad29 2cbd fd0c 983d
000003c0: 1b24 343d 7511 b53d a8f6 1b3e 854c 28be
000003d0: 7c93 c0bd 34f9 1c3e f54e 7cbd af8b 36be
000003e0: f5f7 3d3e d829 67bd 1f8b 88bd 4fda 443e
000003f0: 7d09 c93d 0dcb 383c 123f 18be b43e 0939

linears.4.bias f4 [50]
-0.029107757 0.12331037 0.021098236 0.0069397576 0.086370304 0.0042800177 -0.04417191 -0.116226666
-0.006781614 0.028542727 -0.16238894 -0.024480691 0.06923573 0.19310977 0.1551222 -0.01649838
-0.054134205 -0.04179099 0.011158024 0.028060118 0.18754339 -0.14046922 -0.034590896 -0.05897952
0.021840941 0.03872447 -0.018374715 0.021805204 -0.15278009 0.13059111 0.09987679 -0.0057769404
-0.12832342 0.14376472 0.11448255 0.12879388 0.04411267 0.016476473 0.07511246 -0.008961525
0.019089201 -0.0378666 -0.0265631 0.07380474 -0.092455775 0.033090185 -0.12178742 0.24001445
0.09482666 0.35685334
00000000: 6473 eebc 268a fc3d 35d6 ac3c e866 e33b
00000010: eae2 b03d 643f 8c3b 9bed 34bd 3f08 eebd
00000020: 4d38 debb 70d2 e93c 4949 26be bb8b c8bc
00000030: 76cb 8d3d 91be 453e 5bd8 1e3e 9c27 87bc
00000040: d4bb 5dbd 072d 2bbd 25d0 363c 55de e53c
00000050: 600b 403e 2ad7 0fbe 2faf 0dbd 8294 71bd
00000060: c6eb b23c 8d9d 1e3d 9286 96bc d4a0 b23c
00000070: 6272 1cbe adb9 053e 348c cc3d 7d4c bdbb
00000080: 3767 03be 0f37 133e d475 ea3d 8be2 033e
00000090: 7daf 343d abf9 863c 90d4 993d 5cd3 12bc
000000a0: f560 9c3c 021a 1bbd dc9a d9bc f126 973d
000000b0: 7459 bdbd 9389 073d af6b f9bd 59c6 753e
000000c0: 7b34 c23d 7bb5 b63e

linears.5.weight f4 [50, 50]
-0.18336976 -0.106943004 -0.092648886 -0.13150129 -0.083382525 0.17707874 0.14454517 -0.15683995
-0.04680906 -0.16785297 0.07853686 0.16848567 0.029490931 0.000478973 -0.13917656 -0.05366125
-0.18397102 -0.18002334 0.01232579 -0.038280044 -0.26880017 0.07167954 0.11555288 0.24451987
0.00056254945 -0.036844894 0.028192025 0.04597122 0.006886658 0.05880835 0.23968638 -0.13786557
-0.33064893 0.070894904 0.044798415 0.009760615 -0.08580747 0.1525812 0.26219213 0.023601396
0.036756318 -0.046208195 0.13114135 -0.1576371 -0.16886653 0.033802137 -0.01420651 -0.097087346
0.024391068 -0.041524537 -0.10887904 0.039504293 0.06147971 -0.07892446 0.115506165 -0.40749648
-0.04321663 0.20542061 -0.2921629 0.048406154 0.23408814 -0.01739043 -0.010732753 0.2868345
-0.04358115 -0.1376172 0.026433712 0.1377856 0.055612054 -0.12162198 0.09479957 0.18590255
0.049592637 0.14893015 0.1404894 -0.10474874 0.015427461 0.17864107 0.11207837 -0.11157796
0.03753802 -0.022316381 -0.14042197 0.0069240676 0.035223573 -0.105688 0.025660634 0.056243174
-0.12336413 -0.076648116 0.06363875 0.17512956 0.031537376 0.26334703 -0.022019658 0.15041149
0.07883385 0.15124054 0.051569823 0.071297064 0.018174095 -0.09618402 -0.015334605 -0.11205374
0.0032820594 -0.15083125 0.11338517 -0.093800604 0.022367915 -0.014020471 -0.22782248 -0.2550673
0.05190681 0.089758486 -0.070702404 -0.031217698 0.1275782 0.2715292 0.20828591 0.025426537
-0.07963003 0.090471685 0.36353058 -0.1136956 -0.13419709 0.0540236 -0.10294325 -0.09359895
0.2007671 -0.053665176 -0.0018666097 0.13422787 0.007816004 -0.09205141 -0.113135636 -0.011519445
0.05690967 0.03843972 0.049780775 0.11441182 0.011827419 -0.09956866 -0.062443636 0.080223605
-0.14805767 0.064999856 0.23415534 0.11107961 -0.04154152 0.02694914 0.055748858 -0.112189315
0.15852131 -0.011475665 -0.03697747 0.064729325 0.08702119 -0.031056302 0.062664576 0.12186268
0.22199903 0.021001091 -0.20418505 -0.28954977 0.007001245 -0.05121604 0.008989068 0.2571313
0.19503929 -0.17134249 0.17800651 0.03174506 0.32035413 0.15020972 0.07235135 -0.29221237
-0.53460366 -0.15308852 0.013841283 -0.11048711 0.13300467 -0.07997171 0.12523223 0.15186422
0.086467385 0.391497 -0.036252335 -0.17540792 -0.044525865 -0.022385564 0.08494646 0.049539845
0.10227178 0.2487471 0.067469835 -0.011752936 0.061286826 -0.22315675 -0.40668073 0.18896016
0.1608224 0.10058872 -0.011633741 -0.01732111 -0.34295943 -0.02601449 -0.0022597488 -0.0063579152
0.050261047 0.006515621 -0.14985108 0.06652191 0.057085674 -0.11396404 0.16917656 0.1312663
0.0016319084 0.11711221 -0.037879393 -0.30457997 0.042490877 -0.3240663 0.20133121 -0.010967097
-0.13515522 -0.06100303 0.059330046 -0.0923037 -0.16441815 0.11063004 0.16762586 -0.0773717
-0.11260196 0.07748143 -0.04490058 0.033402298 -0.197696 -0.31074333 -0.062223315 -0.0029851694
-0.052420113 0.116202965 0.053519156 0.18873245 0.0067674317 0.19551821 -0.21331196 0.070838936
-0.10617457 0.24728324 0.30515695 0.07273459 -0.05228207 -0.18742843 -0.07732068 0.075615056
00000000: 48c5 3bbe ef04 dbbd b3be bdbd 46a8 06be
00000010: 75c4 aabd 2154 353e a603 143e a79a 20be
00000020: dbba 3fbd a6e1 2bbe efd7 a03d 8287 2c3e
00000030: f796 f13c ab1e fb39 4d84 0ebe e6cb 5bbd
00000040: e662 3cbe 0a58 38be 1cf2 493c 89cb 1cbd
00000050: 2da0 89be b9cc 923d fda6 ec3d 6b63 7a3e
00000060: 0e78 133a acea 16bd f6f2 e63c 514c 3c3d
00000070: 79a9 e13b 06e1 703d 5970 753e a22c 0dbe
00000080: d14a a9be 5931 913d 8b7e 373d fdea 1f3c
00000090: d4bb afbd 3f3e 1c3e 0c3e 863e b757 c13c
000000a0: cb8d 163d ce44 3dbd eb49 063e 9f6b 21be
000000b0: 59eb 2cbe 1c74 0a3d 6cc2 68bc bbd5 c6bd
000000c0: c7cf c73c a215 2abd f9fb debd 41cf 213d
000000d0: 26d2 7b3d 26a3 a1bd 7f8e ec3d 61a3 d0be
000000e0: ec03 31bd c859 523e 6096 95be 8845 463d
000000f0: cdb4 6f3e 6076 8ebc 6ed8 2fbc f9db 923e
00000100: 2682 32bd 86eb 0cbe 838b d83c ab17 0d3e
00000110: 77c9 633d f214 f9bd 4726 c23d 3d5d 3e3e
00000120: a621 4b3d 2581 183e 74dc 0f3e 8286 d6bd
00000130: 76c3 7c3c afed 363e 5889 e53d fc82 e4bd
00000140: 78c1 193d d8d0 b6bc c7ca 0fbe 4ae3 e23b
00000150: 9846 103d f372 d8bd 4036 d23c 3e5f 663d
00000160: 55a6 fcbd b0f9 9cbd 0855 823d 2a55 333e
00000170: 562d 013d 6cd5 863e 9262 b4bc 7805 1a3e
00000180: a473 a13d cdde 1a3e e13a 533d 3204 923d
00000190: d7e1 943c 21fc c4bd ff3d 7bbc 6e7c e5bd
000001a0: d217 573b 8273 1abe 7c36 e83d 881a c0bd
000001b0: eb3c b73c 1eb6 65bc 4c4a 69be 2e98 82be
000001c0: 3c9c 543d 4cd3 b73d 6ccc 90bd 42bc ffbc
000001d0: dca3 023e e005 8b3e e748 553e 504b d03c
000001e0: 1215 a3bd 3849 b93d ae20 ba3e 3dd9 e8bd
000001f0: f66a 09be da47 5d3d e9d3 d2bd ceb0 bfbd
00000200: e495 4d3e 04d0 5bbd 07a9 f4ba 0873 093e
00000210: b20e 003c 7385 bcbd a8b3 e7bd 0ebc 3cbc
00000220: 1d1a 693d f872 1d3d ede6 4b3d bf50 ea3d
00000230: cac7 413c a7ea cbbd e6c4 7fbd 464c a43d
00000240: 6e9c 17be a51e 853d 6bc6 6f3e b57d e33d
00000250: 7127 2abd 71c4 dc3c ea58 643d 83c3 e5bd
00000260: 6953 223e 6d04 3cbc b075 17bd cf90 843d
00000270: 2a38 b23d c969 febc 4956 803d 2493 f93d
00000280: b753 633e 7b0a ac3c e315 51be de3f 94be
00000290: b36a e53b e9c7 51bd e246 133c b7a6 833e
000002a0: 61b8 473e 6874 2fbe 5747 363e 1c07 023d
000002b0: 7505 a43e 94d0 193e f22c 943d dc9c 95be
000002c0: c9db 08bf 3dc3 1cbe 8cc6 623c 1147 e2bd
000002d0: 6032 083e 35c8 a3bd e13c 003e 4b82 1b3e
000002e0: d015 b13d 4b72 c83e 547d 14bd 229e 33be
000002f0: c160 36bd ee61 b7bc 69f8 ad3d 4bea 4a3d
00000300: de73 d13d 8fb7 7e3e a02d 8a3d 638f 40bc
00000310: e507 7b3d 3483 64be 7538 d0be c67e 413e
00000320: a1ae 243e 7501 ce3d 729b 3ebc 00e5 8dbc
00000330: 6198 afbe 571c d5bc 4b18 14bb 0f56 d0bb
00000340: 87de 4d3d fe80 d53b 9072 19be a43c 883d
00000350: abd2 693d fb65 e9bd 9f3c 2d3e ac6a 063e
00000360: c2e5 d53a 87d8 ef3d 6c27 1bbd e8f1 9bbe
00000370: ea0a 2e3d 05ec a5be c529 4e3e 57af 33bc
00000380: 2166 0abe 50de 79bd 1004 733d b909 bdbd
00000390: 3b5d 28be 0192 e23d 1da6 2b3e 0e75 9ebd
000003a0: db9b e6bd 95ae 9e3d ace9 37bd d9d0 083d
000003b0: d270 4abe c019 9fbe e0dd 7ebd d5a2 43bb
000003c0: 79b6 56bd d2fb ed3d e736 5b3d 1443 413e
000003d0: 55c1 dd3b ed35 483e 736e 5abe 0114 913d
000003e0: 0e72 d9bd d137 7d3e 883d 9c3e dff5 943d
000003f0: b925 56bd 3ded 3fbe 4e5a 9ebd 11dc 9a3d

linears.5.bias f4 [50]
0.046498604 -0.0076208273 0.017824162 0.118437335 0.13142489 0.09423544 0.12981078 0.03406479
-0.11495561 0.11035815 -0.16488722 -0.027122447 0.24745572 -0.016492886 0.008811875 0.03467411
-0.12261337 0.104284406 -0.054046974 0.019731162 -0.027335446 0.10632015 -0.09221398 0.13157175
0.06751683 0.09209567 0.042446148 0.20937578 0.020985601 0.07702696 0.0009027807 -0.0011229747
0.039206732 0.07414017 -0.10981222 0.14932154 0.026974216 -0.13550328 0.13855211 0.17149389
0.04304365 -0.17402655 -0.122613005 0.09250643 -0.04337775 -0.11734095 0.07705284 0.11945934
0.03309213 -0.052605394
00000000: 5275 3e3d 22b8 f9bb fa03 923c 468f f23d
00000010: 3f94 063e 83fe c03d 1eed 043e 8587 0b3d
00000020: d96d ebbd 7403 e23d 32d8 28be e52f debc
00000030: 0865 7d3e 171c 87bc af5f 103c 7106 0e3d
00000040: b81c fbbd 1093 d53d 5c60 5dbd 3fa3 a13c
00000050: 96ee dfbc 61be d93d afda bcbd bfba 063e
00000060: 4446 8a3d a89c bc3d 03dc 2d3d 9b66 563e
00000070: ffe9 ab3c 50c0 9d3d 96a8 6c3a c730 93ba
00000080: 3d97 203d cdd6 973d 3be5 e0bd bfe7 183e
00000090: 08f9 dc3c 5fc1 0abe 9be0 0d3e 189c 2f3e
000000a0: 8a4e 303d 0434 32be 871c fbbd 0374 bd3d
000000b0: deac 31bd 7450 f0bd e1cd 9d3d 19a7 f43d
000000c0: 9d8b 073d c178 57bd

linears.6.weight f4 [50, 50]
0.05025377 -0.06464923 0.08174827 -0.085806504 -0.24161865 -0.012686765 -0.0054288814 -0.2866391
0.09443709 0.15646312 -0.2004271 0.011301113 0.19588338 -0.050057217 0.114988625 -0.15257567
-0.0028171353 -0.021235023 0.015343489 0.02904619 0.16233982 0.063439436 -0.035901327 0.0023101752
-0.017263921 0.14313813 -0.00016040934 -0.046303693 0.032286894 0.10320246 0.050246175 0.10699069
0.12078509 0.068303645 -0.030062892 0.07449313 0.020260282 0.08334478 -0.13466352 -0.21554966
0.13582364 -0.12146585 -0.14010759 -0.06506502 0.17250924 -0.112997636 -0.13101107 -0.18712355
-0.07345568 0.07368994 -0.07065529 -0.2843878 0.11400238 0.13052379 0.071817294 0.11723572
-0.15290396 -0.021664077 0.1780417 -0.093551986 0.13559009 -0.0051623057 -0.12251438 -0.08263281
-0.15246084 0.07894949 -0.03787278 -0.078733556 -0.06877149 0.05935246 -0.04251996 -0.15700063
0.04678977 0.13035141 -0.09719158 0.055836823 -0.30519912 -0.22616796 0.12945335 0.037912764
-0.08128999 0.14910692 0.13429694 -0.055616435 -0.09382565 0.18010044 0.072772205 -0.12439808
-0.20847373 0.1754599 -0.06870505 0.05721959 -0.18589428 -0.043416295 -0.14871748 0.18976043
-0.08164495 -0.070445694 0.17334889 -0.09451063 0.03266225 -0.009609801 0.09151832 0.13825999
0.09627215 0.15450464 0.10771161 0.16575699 -0.26621816 0.014758813 0.06717101 -0.06898228
0.030693458 0.1135204 -0.00894511 0.26833475 0.11737809 0.07641949 -0.16908655 -0.0015529189
-0.11859471 0.06996131 0.11076056 -0.030602852 -0.08953107 0.1471004 0.03324832 -0.08588281
-0.100532636 -0.016099831 0.15196751 -0.26988134 0.10990271 0.11506495 -0.086126424 0.054427344
0.11008085 0.112546265 -0.093366206 0.023509772 0.07852354 -0.31218165 -0.20520626 -0.043918103
-0.10580423 -0.25504854 0.35426536 -0.23188026 -0.14075316 0.007138618 0.053905405 -0.034663778
0.09916134 0.048858635 -0.11834221 0.09868845 -0.05674377 -0.20063631 -0.118545406 0.03051995
0.077674896 0.08514727 0.16790411 0.1807513 -0.060002852 -0.15947737 -0.16680256 0.0382995
-0.05158835 0.32895452 -0.044886366 -0.07163759 -0.00694964 -0.048444595 -0.12509996 -0.02906825
0.04116533 0.18195945 0.0035696377 -0.2082175 0.13465656 0.08312276 -0.05092519 -0.0188956
-0.009392385 -0.0046529635 0.08715789 0.08912818 0.29440257 0.07850403 0.2472428 0.0035972728
-0.16210176 -0.0135252215 -0.08429921 0.137069 0.07113322 0.09582967 0.06345578 0.13942026
-0.39857078 0.009393597 -0.086894795 0.041583266 0.0669717 -0.17346817 -0.16771851 -0.022126587
0.005662277 -0.045008406 0.058846828 -0.08186549 -0.14933497 0.04924749 -0.006747877 -0.0574295
0.13750926 0.1209513 -0.080074295 -0.012290799 -0.122851886 0.05910592 0.21444388 0.34091815
0.06806832 -0.07472907 0.18308899 -0.06126765 -0.018909879 0.19887216 0.14892747 -0.014812899
-0.06319402 -0.35716996 -0.39011297 0.010847713 -0.062971465 0.15940474 0.005836542 -0.21447553
-0.41090965 0.17755908 -0.005362705 0.003949663 0.076758236 0.28336936 0.031070923 0.13867567
0.0164878 -0.12958838 -0.04539379 0.17810749 -0.12920624 -0.09928959 0.14574829 0.1519204
00000000: e6d6 4d3d d166 84bd a36b a73d 52bb afbd
00000010: e16a 77be 26dc 4fbc c2e4 b1bb 5cc2 92be
00000020: 3c68 c13d de37 203e c33c 4dbe 4e28 393c
00000030: a795 483e cc08 4dbd 287f eb3d cc3c 1cbe
00000040: b09f 38bb 12f5 adbc 4263 7b3c 47f2 ed3c
00000050: 693c 263e 89ec 813d 450d 13bd 4f66 173b
00000060: 116d 8dbc cd92 123e 8e33 28b9 f1a8 3dbd
00000070: 433f 043d d05b d33d efce 4d3d ef1d db3d
00000080: 2c5e f73d c8e2 8b3d 7446 f6bc db8f 983d
00000090: e4f8 a53c abb0 aa3d 3ce5 09be 0db9 5cbe
000000a0: 5a15 0b3e 16c3 f8bd 5d78 0fbe cf40 85bd
000000b0: 43a6 303e 4e6b e7bd c427 06be 519d 3fbe
000000c0: ee6f 96bd c0ea 963d b8b3 90bd 479b 91be
000000d0: 147a e93d 07a8 053e f214 933d 4819 f03d
000000e0: db92 1cbe dd78 b1bc 9050 363e 2f98 bfbd
000000f0: 21d8 0a3e 8f28 a9bb d2e8 fabd 643b a9bd
00000100: b21e 1cbe 45b0 a13d 7d20 1bbd 0f3f a1bd
00000110: 11d8 8cbd 911b 733d 6929 2ebd c6c4 20be
00000120: a1a6 3f3d d77a 053e 610c c7bd 27b5 643d
00000130: 0f43 9cbe 9398 67be 6b8f 043e 6a4a 1b3d
00000140: 5e7b a6bd 7caf 183e 2385 093e 0fce 63bd
00000150: aa27 c0bd 406c 383e 9809 953d 6cc4 febd
00000160: 237a 55be c3ab 333e 3cb5 8cbd 175f 6a3d
00000170: 125b 3ebe 49d5 31bd 6549 18be 8f50 423e
00000180: 7835 a7bd d545 90bd 5f82 313e ca8e c1bd
00000190: dac8 053d 6d72 1dbc f56d bb3d 0794 0d3e
000001a0: 552a c53d 7736 1e3e e897 dc3d 33bc 293e
000001b0: bf4d 88be f3ce 713c f490 893d 9546 8dbd
000001c0: d970 fb3c 627d e83d 838e 12bc 2c63 893e
000001d0: ed63 f03d d281 9c3d 0625 2dbe 508b cbba
000001e0: c9e1 f2bd e047 8f3d 6fd6 e23d d5b2 fabc
000001f0: 115c b7bd 7da1 163e 642f 083d 54e3 afbd
00000200: 0ee4 cdbd cbe3 83bc 5f9d 1b3e e32d 8abe
00000210: ac14 e13d 2ca7 eb3d 0d63 b0bd 35ef 5e3d
00000220: 1272 e13d a87e e63d c836 bfbd 9197 c03c
00000230: f3d0 a03d 46d6 9fbe 9721 52be 78e3 33bd
00000240: e3af d8bd b995 82be 4562 b53e 0572 6dbe
00000250: 9921 10be 11eb e93b eacb 5c3d 9bfb 0dbd
00000260: 1a15 cb3d fe1f 483d 675d f2bd 2c1d ca3d
00000270: 286c 68bd 9b73 4dbe efc7 f2bd f904 fa3c
00000280: 0414 9f3d b161 ae3d 0eef 2b3e de16 393e
00000290: 8dc5 75bd 094e 23be 4ace 2abe f0df 1c3d
000002a0: 4e4e 53bd ba6c a83e c4da 37bd bbb6 92bd
000002b0: ceb9 e3bb d76d 46bd 341a 00be 8a20 eebc
000002c0: fa9c 283d 9453 3a3e 95f0 693b f836 55be
000002d0: 69e3 093e 443c aa3d ef96 50bd f2ca 9abc
000002e0: 85e2 19bc e377 98bb d67f b23d d688 b63d
000002f0: efbb 963e b9c6 a03d 372d 7d3e 39c0 6b3b
00000300: 01fe 25be e498 5dbc 10a5 acbd d15b 0c3e
00000310: 4bae 913d 5942 c43d 1bf5 813d 2fc4 0e3e
00000320: 7811 ccbe 9ae7 193c e6f5 b1bd 3753 2a3d
00000330: 7528 893d a4a1 31be 67be 2bbe d142 b5bc
00000340: 9f8a b93b bc5a 38bd 5f09 713d 18a9 a7bd
00000350: 44eb 18be bcb7 493d 4c1d ddbb 323b 6bbd
00000360: 3acf 0c3e 51b5 f73d fefd a3bd 595f 49bc
00000370: c599 fbbd 0d19 723d 2d97 5b3e d38c ae3e
00000380: 6767 8b3d 8e0b 99bd ae7b 3b3e caf3 7abd
00000390: e4e8 9abc 25a5 4b3e 7180 183e cdb1 72bc
000003a0: de6b 81bd fbde b6be e3bc c7be 9bba 313c
000003b0: 2ff7 80bd ff3a 233e 7740 bf3b 799f 5bbe
000003c0: c062 d2be 0cd2 353e a1b9 afbb 2d6c 813b
000003d0: 6c33 9d3d ca15 913e 7388 fe3c ff00 0e3e
000003e0: 6c11 873c d1b2 04be d7ee 39bd cf61 363e
000003f0: a44e 04be 5758 cbbd 0a3f 153e 0591 1b3e

linears.6.bias f4 [50]
0.070980355 -0.09354962 0.12551713 0.09342023 -0.066467896 0.099500015 -0.018006511 0.03316727
0.04528906 -0.18347889 -0.1157516 0.1456715 0.0033844917 -0.0159211 -0.036618758 -0.088050276
-0.004219253 -0.21041927 -0.18024755 0.036304306 -0.0054767355 -0.10057501 -0.12869585 0.03368796
0.0076018884 -0.0046880706 -0.079405956 -0.0588512 0.12149603 0.09801008 -0.00299285 0.02103713
-0.2394949 0.044577774 0.14479133 -0.009260626 0.10265502 -0.040486448 -0.05551559 -0.07728656
-0.21138702 0.05317929 -0.085814856 0.122652225 -0.04846024 -0.09295597 -0.046116788 0.074717596
-0.07772451 0.0010678148
00000000: 265e 913d f196 bfbd 9087 003e 1b53 bf3d
00000010: 5220 88bd aac6 cb3d 6482 93bc 67da 073d
00000020: 0581 393d e4e1 3bbe 2d0f edbd e92a 153e
00000030: 59ce 5d3b f76c 82bc 8dfd 15bd b453 b4bd
00000040: a941 8abb 2678 57be d092 38be d3b3 143d
00000050: 3076 b3bb 45fa cdbd d8c8 03be 63fc 093d
00000060: 4319 f93b 639e 99bb 979f a2bd f50d 71bd
00000070: e9d2 f83d 82b9 c83d b123 44bb 0f56 ac3c
00000080: 273e 75be 2f97 363d 2e44 143e e1b9 17bc
00000090: cc3c d23d 1ed5 25bd 5164 63bd 6a48 9ebd
000000a0: d775 58be 87d2 593d b3bf afbd 1731 fb3d
000000b0: 3f7e 46bd b35f bebd f5e4 3cbd 8a05 993d
000000c0: 072e 9fbd ebf5 8b3a
