Archived Code/Stan TPAMI/1D/FODE/rowdy_tune/1D_FODE_rowdy_tune49_2.pt (torch, 89504 bytes, 22 tensors)

omega1 f4 [9, 1]
0	0x3f7ff7bf	0.99987406
1	0x3f7ff7ec	0.99987674
2	0x3f7ff7b0	0.99987316
3	0x3f7ff7e7	0.99987644
4	0x3f7ff7ad	0.999873
5	0x3f7ff764	0.99986863
6	0x3f7ff7ab	0.99987286
7	0x3f7ff771	0.9998694
8	0x3f7ff7d4	0.9998753

alpha f4 [6, 9]
0	0xbaa0afa1	-0.0012259373
1	0xbaa7708e	-0.0012774633
2	0xbaa0e0ee	-0.0012274066
3	0xbaa79a8f	-0.0012787151
4	0xbaad9be5	-0.0013245313
5	0xbaa535ff	-0.0012604593
6	0xbaac5b31	-0.0013149736
7	0xbaa18320	-0.0012322403
8	0xbaa41f5a	-0.001252155
9	0xbb23784d	-0.002494353
10	0xbb23e124	-0.002500602
11	0xbb2437ed	-0.0025057748
12	0xbb242890	-0.0025048591
13	0xbb293621	-0.0025819617
14	0xbb29ab27	-0.0025889368
15	0xbb28d1e6	-0.0025759875
16	0xbb279928	-0.0025573466
17	0xbb23bc24	-0.0024983967
18	0xbb7bf051	-0.00384428
19	0xbb6cfb95	-0.0036160697
20	0xbb7e7e3c	-0.0038832566
21	0xbb6db94b	-0.0036273773
22	0xbb73071c	-0.0037083095
23	0xbb84916b	-0.0040456555
24	0xbb748e17	-0.0037316137
25	0xbb850d62	-0.0040604332
26	0xbb749c4f	-0.0037324612
27	0xbbaddfc1	-0.0053062146
28	0xbb95d7fc	-0.0045728665
29	0xbbb1012a	-0.00540175
30	0xbb96aff6	-0.004598613
31	0xbb983f6e	-0.0046462333
32	0xbbb9f566	-0.0056750057
33	0xbb9b2c2b	-0.00473549
34	0xbbbe6cbe	-0.005811303
35	0xbba21dfa	-0.004947421
36	0xbbe1eff2	-0.006895059
37	0xbbae77c1	-0.0053243344
38	0xbbe8679c	-0.0070924293
39	0xbbb02fe4	-0.0053768028
40	0xbbaf4818	-0.0053491704
41	0xbbf5ad2e	-0.0074974513
42	0xbbb5d2cf	-0.005548812
43	0xbc00bc8e	-0.007857455
44	0xbbc90bc4	-0.006135436
45	0xbc0cf288	-0.008602746
46	0xbbbf110f	-0.005830891
47	0xbc12f84a	-0.00897033
48	0xbbc24a0b	-0.0059292368
49	0xbbbd98cd	-0.0057860375
50	0xbc1baf34	-0.009502221
51	0xbbc948dc	-0.0061427187
52	0xbc27699e	-0.010218052
53	0xbbeeccfe	-0.0072876206

omega f4 [6, 9]
0	0x3dcccccd	0.1
1	0x3dcccccd	0.1
2	0x3dcccccd	0.1
3	0x3dcccccd	0.1
4	0x3dcccccd	0.1
5	0x3dcccccd	0.1
6	0x3dcccccd	0.1
7	0x3dcccccd	0.1
8	0x3dcccccd	0.1
9	0x3dcccccd	0.1
10	0x3dcccccd	0.1
11	0x3dcccccd	0.1
12	0x3dcccccd	0.1
13	0x3dcccccd	0.1
14	0x3dcccccd	0.1
15	0x3dcccccd	0.1
16	0x3dcccccd	0.1
17	0x3dcccccd	0.1
18	0x3dcccccd	0.1
19	0x3dcccccd	0.1
20	0x3dcccccd	0.1
21	0x3dcccccd	0.1
22	0x3dcccccd	0.1
23	0x3dcccccd	0.1
24	0x3dcccccd	0.1
25	0x3dcccccd	0.1
26	0x3dcccccd	0.1
27	0x3dcccccd	0.1
28	0x3dcccccd	0.1
29	0x3dcccccd	0.1
30	0x3dcccccd	0.1
31	0x3dcccccd	0.1
32	0x3dcccccd	0.1
33	0x3dcccccd	0.1
34	0x3dcccccd	0.1
35	0x3dcccccd	0.1
36	0x3dcccccd	0.1
37	0x3dcccccd	0.1
38	0x3dcccccd	0.1
39	0x3dcccccd	0.1
40	0x3dcccccd	0.1
41	0x3dcccccd	0.1
42	0x3dcccccd	0.1
43	0x3dcccccd	0.1
44	0x3dcccccd	0.1
45	0x3dcccccd	0.1
46	0x3dcccccd	0.1
47	0x3dcccccd	0.1
48	0x3dcccccd	0.1
49	0x3dcccccd	0.1
50	0x3dcccccd	0.1
51	0x3dcccccd	0.1
52	0x3dcccccd	0.1
53	0x3dcccccd	0.1

linears.0.weight f4 [50, 1]
0	0xbdfbcd59	-0.12295026
1	0x3cd91744	0.026500352
2	0xbf09a030	-0.5376005
3	0xbe004b04	-0.12528616
4	0xbc97679d	-0.018482024
5	0xbe21540b	-0.15754716
6	0xbd12b81b	-0.035820108
7	0x3e00d7bd	0.12582298
8	0x3db7aca7	0.08968478
9	0x3e67064a	0.22560993
10	0xbe15ee83	-0.14641766
11	0x3e263dba	0.16234484
12	0x3d5b5b0f	0.053553637
13	0x3e484785	0.19558533
14	0xbdcda417	-0.10041063
15	0x3db69d09	0.08916671
16	0x3eabad52	0.3353067
17	0xbd5f641b	-0.054538827
18	0xbe91c6f5	-0.28472105
19	0xbd96dde0	-0.07366538
20	0x3e75df0b	0.24010865
21	0x3e2db3ef	0.1696317
22	0xbe6295ff	-0.22127531
23	0xbdbac291	-0.09119142
24	0x3e106738	0.14101875
25	0xbe23fc63	-0.16014247
26	0x3e3fbee5	0.18725164
27	0xbe38deb3	-0.18053703
28	0x3e2fbc16	0.17161593
29	0x3ca901b6	0.020630699
30	0x3e288a88	0.16459095
31	0xbe3ca349	-0.18421663
32	0xbdb878a1	-0.09007383
33	0x3d92a8bd	0.071610905
34	0x3e6eeae8	0.23331797
35	0xbdcae8e5	-0.09907702
36	0xbe8e78ef	-0.2782664
37	0x3ebe7b02	0.37203223
38	0x3dab3ab5	0.08360807
39	0xbca7d3c4	-0.02048672
40	0x3e518a43	0.20462899
41	0x3d95a0b6	0.07306044
42	0xbd263f8f	-0.040587958
43	0xbde10e3f	-0.10989045
44	0xbe905027	-0.2818615
45	0x3e69d557	0.22835289
46	0xbe0fe826	-0.14053401
47	0x3cf4dcc7	0.029890431
48	0x3d5a0455	0.053226788
49	0x3d1df070	0.038559377

linears.0.bias f4 [50]
0	0xb98b3729	-0.00026553244
1	0xba4a21c8	-0.0007710722
2	0xb91cf023	-0.00014966777
3	0xb93e8b3f	-0.00018171685
4	0xb84c5c2c	-4.8723232e-05
5	0xb8838140	-6.2706415e-05
6	0xb88cfb0b	-6.7224806e-05
7	0x399e4e92	0.00030194648
8	0x39932183	0.00028062993
9	0x3a02c8e0	0.0004989039
10	0xb97ef7cb	-0.00024315638
11	0xba399d29	-0.00070806086
12	0xb9c3f0d4	-0.0003737273
13	0x37d84a0e	2.5783691e-05
14	0x3a2106c9	0.00061426737
15	0xb90774b4	-0.00012918079
16	0xb9f5924e	-0.00046839047
17	0x3956d294	0.00020487077
18	0xba297daa	-0.0006465564
19	0xb7f8c1e0	-2.9654184e-05
20	0xb916ebd8	-0.00014392973
21	0x39f1d29c	0.00046124018
22	0x3a24dec6	0.00062892993
23	0x3917f5fe	0.00014492121
24	0x390cd60f	0.00013431183
25	0x3a21654d	0.00061567576
26	0x39b89cc1	0.00035212006
27	0xb8f04ca4	-0.00011458367
28	0x36153ce7	2.223818e-06
29	0xb9c81b67	-0.0003816739
30	0x399c7a4b	0.00029845754
31	0x3a41e298	0.0007396131
32	0x39bc168c	0.00035874953
33	0xb7cd4a0b	-2.4472383e-05
34	0xb9c67ead	-0.00037859884
35	0x3a394259	0.00070670765
36	0xb96d80cb	-0.0002265006
37	0x3802656e	3.108888e-05
38	0xb9b710d9	-0.00034917032
39	0xb8c10b21	-9.20503e-05
40	0x38c491f9	9.373198e-05
41	0x39f922dd	0.00047518956
42	0x3987e211	0.0002591764
43	0xb933dd3b	-0.00017153185
44	0xba04847f	-0.0005055144
45	0xba05b836	-0.0005100997
46	0x39fa2580	0.00047711655
47	0xba264c4e	-0.0006343768
48	0xba5ef2ea	-0.0008504825
49	0x3a074c15	0.00051611784

linears.1.weight f4 [50, 50]
0	0xbd7474d3	-0.059681725
1	0x3ec2a222	0.38014323
2	0x3dccb2c8	0.09995037
3	0x3d977f2f	0.07397305
4	0xbc9c5fb0	-0.019088596
5	0x3c8c2812	0.01710895
6	0xbe11c1bd	-0.14234062
7	0x3e367784	0.17819029
8	0xbecefd3e	-0.40427583
9	0xbb0ed263	-0.002179288
10	0xbd9e01c0	-0.077151775
11	0xbe56b7e7	-0.2096859
12	0xbe278499	-0.16359176
13	0x3e15ee7f	0.1464176
14	0xbda0e267	-0.07855683
15	0xbec297df	-0.38006493
16	0x3d96ac03	0.073570274
17	0x3d889510	0.066690564
18	0xbd9b5a3e	-0.07585572
19	0x3dc42810	0.09577954
20	0xbec6cb1f	-0.38826844
21	0xbd6acb93	-0.05732305
22	0xbc4de32f	-0.012566372
23	0x3d64b2fc	0.055834755
24	0xbd405513	-0.046956133
25	0x3d6e4cba	0.05817864
26	0xbd91407e	-0.07092379
27	0x3ce242ed	0.027619803
28	0x3decf27b	0.11569687
29	0xbd1773eb	-0.036975782
30	0xbdb1c4a8	-0.08680087
31	0x3d886959	0.066607185
32	0x3bc39211	0.00596834
33	0x3b28a112	0.002573077
34	0x3e3b77ba	0.18307391
35	0xbe11a148	-0.1422168
36	0xbde051bd	-0.1095309
37	0xbe679fbe	-0.2261953
38	0x3dce6f23	0.100797914
39	0x3cfcce46	0.030860078
40	0x3d316fd7	0.04331955
41	0xbde29055	-0.110626854
42	0x3df31902	0.11870004
43	0x3e6992e5	0.22809942
44	0xbd7f2ad1	-0.062296692
45	0xbca73f2a	-0.020415861
46	0xbdcb7a26	-0.09935407
47	0xbdf3cb0b	-0.11903962
48	0x3dd66b1c	0.10469648
49	0xbe43b401	-0.19111635
50	0xbe861248	-0.26185822
51	0x3d24cd39	0.040234778
52	0xbdf5c7e8	-0.1200102
53	0x3b938491	0.004501887
54	0x3bb37382	0.005476416
55	0xba907935	-0.0011022451
56	0x3de325ec	0.110912174
57	0xbc8829b6	-0.016621452
58	0xbeb495e4	-0.35270607
59	0xbdd6e426	-0.104927346
60	0xbe5a37c8	-0.21310341
61	0x3d8afce9	0.0678652
62	0xbd610a4b	-0.054941457
63	0xbc3bc04a	-0.0114594195
64	0x3da23743	0.079206966
65	0xbe1943db	-0.14967291
66	0xbe1c4ca0	-0.15263605
67	0x3da5def7	0.08099168
68	0xbdfc6e20	-0.12325692
69	0xbc0ff218	-0.008785747
70	0xbd02ce3b	-0.031934958
71	0x3e11b630	0.14229655
72	0x3e6f7fe5	0.23388632
73	0xbb23b745	-0.0024981063
74	0xbbff1b63	-0.007785247
75	0x3e8505ed	0.25981084
76	0x3d697506	0.056996368
77	0x3e813b7a	0.2524069
78	0x3c891829	0.016735153
79	0xbe1451f3	-0.14484386
80	0x3cdfdebf	0.027327893
81	0x3e06b180	0.13153648
82	0x3e2fe4c5	0.17177112
83	0x3e63502b	0.2219855
84	0xbdbbe802	-0.09175111
85	0xbdd5d689	-0.1044131
86	0x3e7414a4	0.23835999
87	0xbde52ef4	-0.11190596
88	0x3d8cc544	0.06873563
89	0x3c16ba04	0.009199623
90	0xbdbc3644	-0.09190038
91	0x3d044fed	0.032302786
92	0xbda947a2	-0.08265616
93	0xbd7bd08c	-0.061478183
94	0x3d95ebca	0.07320364
95	0x3e49e3a9	0.19715752
96	0x3e134dca	0.14385143
97	0x3e621926	0.22079906
98	0xbe70bfa4	-0.23510605
99	0xbddaaa6d	-0.106770374
100	0x3d489cfc	0.048977837
101	0xbdbf6098	-0.09344596
102	0x3e1dcbf4	0.15409833
103	0xbe8a49b5	-0.2700936
104	0xbe15dca7	-0.14634953
105	0x3dbfe580	0.093699455
106	0x3c0b3737	0.008497051
107	0xbcaed2bd	-0.021340722
108	0x3d0ea88a	0.0348287
109	0xbcae385c	-0.021267109
110	0xbd4d1a1f	-0.05007374
111	0x3d078ed5	0.0330952
112	0x3e205c77	0.15660273
113	0xbe1bdbf9	-0.15220632
114	0xbe3c8840	-0.1841135
115	0xbd1bdd32	-0.038052745
116	0xbd6d56d3	-0.05794413
117	0x3cb88035	0.022522071
118	0x3dd3b2f7	0.10336869
119	0xbd7a4117	-0.06109723
120	0x3e44a292	0.1920264
121	0xbd6b4afe	-0.057444565
122	0xbe0f2c26	-0.13981685
123	0xbe299f88	-0.16564763
124	0x3e0f9728	0.14022505
125	0x3c319849	0.01083953
126	0xbdbfbc1d	-0.09362052
127	0x3e00fd52	0.12596634
128	0x3e96592c	0.29364908
129	0x3e9446ac	0.28960168
130	0x3d918354	0.07105127
131	0xbed2d991	-0.41181615
132	0x3e786748	0.24258149
133	0x3dea9437	0.11454051
134	0xbd3584a9	-0.044315968
135	0xbceea404	-0.029130943
136	0x3e9846f2	0.29741627
137	0xbda9c5c7	-0.08289676
138	0xbe0631bd	-0.13104911
139	0x3c5dc595	0.013535877
140	0xbc803eb7	-0.015654905
141	0xbd6e01e0	-0.058107257
142	0xbcbc2cc2	-0.022970561
143	0x3dfbbf16	0.12292306
144	0x3e73e246	0.23816785
145	0x3dbc3336	0.09189455
146	0x3d0493ed	0.032367636
147	0x3e968af6	0.29402894
148	0x3cf41ea4	0.029799767
149	0xbccf1817	-0.025280042
150	0x3d834b7b	0.06410881
151	0x3e8670f5	0.26258054
152	0x3d9b3a53	0.07579484
153	0xbdd0fdc0	-0.10204649
154	0xbe4d8e86	-0.200739
155	0xbdc52d94	-0.09627834
156	0x3d82decb	0.06390151
157	0x3db241dc	0.08703968
158	0x3df8e8e4	0.12153795
159	0xbce4de40	-0.027938008
160	0x3c046a81	0.008082033
161	0x3e3fb102	0.18719867
162	0xbd802ec6	-0.06258921
163	0x3c8a45d7	0.016879005
164	0xbd03ac54	-0.032146767
165	0xbe47fc78	-0.19529903
166	0x3e314711	0.17312266
167	0xbe702ffd	-0.23455806
168	0x3dbfa951	0.093584664
169	0x3e04bd45	0.12962826
170	0x3d12d127	0.035843994
171	0x3d99e2af	0.075139396
172	0xbe5a4d4b	-0.21318547
173	0xbcc23d82	-0.02371097
174	0xbd407883	-0.04698993
175	0xbe4226a4	-0.18960053
176	0xbde755d0	-0.11295664
177	0xbc938055	-0.01800553
178	0xbe5a70c0	-0.21332073
179	0x3d2f4b43	0.042796385
180	0xbe07a874	-0.13247854
181	0xbda9bfd8	-0.082885444
182	0x3d7114aa	0.058857597
183	0xbe330b3c	-0.17484754
184	0x3a392941	0.0007063337
185	0x3b1be851	0.0023789594
186	0xbdac0fb1	-0.084014304
187	0x3c21b3d2	0.009869533
188	0xbe05a786	-0.13052186
189	0xbe2ab5d1	-0.1667092
190	0xbea5d2ac	-0.32387292
191	0x3e30f711	0.17281748
192	0xbd78f0ec	-0.060776636
193	0xbc917d09	-0.017759817
194	0x3e9a189f	0.3009691
195	0xbd9a5e6f	-0.07537543
196	0xbdc9ee6a	-0.09859927
197	0xbdcdfdd3	-0.10058179
198	0x3d5ed62b	0.054403465
199	0x3e49948b	0.19685571
200	0xbdffc001	-0.12487794
201	0xbd34e86a	-0.04416696
202	0xbd8cbfbd	-0.06872509
203	0xbe99edaa	-0.30064136
204	0x3df2e69e	0.11860393
205	0xbdaba58f	-0.08381187
206	0xbe3e621b	-0.18592112
207	0xbe6a7776	-0.22897133
208	0xbe253234	-0.16132432
209	0xbd1796c1	-0.037009005
210	0x3dc24b5b	0.09487029
211	0xbd5d8469	-0.054081354
212	0x3d82cc2a	0.063865975
213	0x3c8163fc	0.015794747
214	0xbdca1bca	-0.098685816
215	0x3e9fce6a	0.3121217
216	0x3b856b54	0.0040716324
217	0x3d7cd695	0.06172808
218	0xbddbce10	-0.10732663
219	0x3dd8df38	0.105894506
220	0x3d8ea536	0.06965105
221	0x3ea41626	0.32048148
222	0x3e5ec6ed	0.21755572
223	0x3d6329ca	0.055459775
224	0x3d18e12b	0.037324112
225	0x3d0b4ed2	0.034010716
226	0xbceb0f86	-0.028693926
227	0xbe2d40be	-0.16919228
228	0xbea770ed	-0.32703343
229	0x3d90f1f1	0.07077397
230	0x3b1a6c66	0.0023563146
231	0x3d8208d4	0.0634934
232	0x3b5e2ac8	0.0033900011
233	0xbe066c3f	-0.1312723
234	0xbda86142	-0.082216755
235	0xbd5dde84	-0.054167286
236	0xbe3d4c4b	-0.18486135
237	0xbe3d30b0	-0.18475604
238	0xbe28c466	-0.1648117
239	0xbd5e8c4e	-0.054333024
240	0x3ed11757	0.4083812
241	0x3e03121f	0.12799881
242	0x3d94b66b	0.07261356
243	0x3dae1d62	0.08501698
244	0xbdb5d4a5	-0.08878449
245	0xbde2ddf1	-0.11077488
246	0x3de8c8af	0.11366402
247	0xbdfb7001	-0.122772224
248	0xbd11fff1	-0.035644475
249	0xbd7e23ba	-0.06204579
250	0x3e0efea7	0.1396433
251	0x3caf8c0a	0.02142908
252	0x3e1961c8	0.14978707
253	0xbdf6c390	-0.12049019
254	0x3d95dabf	0.07317113
255	0xbd316602	-0.043310173

linears.1.bias f4 [50]
0	0xb9ce1edf	-0.00039314383
1	0x3a0619a9	0.0005115518
2	0xba42564c	-0.0007413372
3	0xb96a686b	-0.00022354878
4	0x398f3768	0.00027316366
5	0x39f6d03c	0.00047075923
6	0xba213135	-0.0006148995
7	0xb918610e	-0.00014532005
8	0xb96f1d8d	-0.00022803825
9	0x3965423a	0.00021863813
10	0x39f713e2	0.00047126325
11	0x39013848	0.00012323365
12	0x37c3e4a4	2.335228e-05
13	0x3914cb1f	0.00014190048
14	0xb96de1b4	-0.00022686162
15	0x3887c419	6.473828e-05
16	0xb8c1cb10	-9.2407805e-05
17	0xb9dc3c58	-0.0004200663
18	0xb917fb59	-0.00014494116
19	0x381a0aa9	3.672639e-05
20	0xb8d64b8b	-0.00010218386
21	0x39d67845	0.00040906869
22	0x38999af0	7.324468e-05
23	0xba20610b	-0.0006117976
24	0x3a1dd846	0.0006021302
25	0x3989b6bc	0.00026266824
26	0x3a4bf3ef	0.00077801844
27	0xb95cf20f	-0.00021071009
28	0x39552244	0.00020326028
29	0xb85e203f	-5.2958956e-05
30	0x39be7a30	0.0003633066
31	0xb927976a	-0.00015982767
32	0x3718f106	9.116024e-06
33	0xba48d68f	-0.0007661366
34	0x393c66a4	0.00017967314
35	0x3a8729d2	0.0010312146
36	0x3a4443b2	0.0007486894
37	0xb98b07fd	-0.00026518098
38	0xba1a348b	-0.00058824633
39	0x395d36f2	0.00021096671
40	0x399e6c48	0.00030216784
41	0xb9621e99	-0.00021564438
42	0xb8e8bb71	-0.00011097536
43	0x3a361f92	0.00069474534
44	0x39c5cefe	0.0003772899
45	0xba11c170	-0.00055601355
46	0x39ba44c6	0.00035527925
47	0xba0783d8	-0.00051694876
48	0xb8b8b83a	-8.8081186e-05
49	0xba1298cd	-0.0005592227

linears.2.weight f4 [50, 50]
0	0xbda5075e	-0.08058046
1	0xbe8f53d0	-0.2799363
2	0x3ce7b2d3	0.028283512
3	0x3e1bb6de	0.15206477
4	0x3b43a654	0.0029853778
5	0xbd2fdbbb	-0.04293416
6	0x3cc17bd5	0.023618618
7	0xbe08c6ff	-0.13357161
8	0xbd919933	-0.071092986
9	0x3e23b61c	0.15987438
10	0x3dcdf62f	0.100567214
11	0x3e17caab	0.14823405
12	0xbe75d3f9	-0.24006642
13	0xbe9cedf1	-0.30650285
14	0x3d0a35e4	0.0337428
15	0x3e0e6b1f	0.13908051
16	0x3de17092	0.11007799
17	0xbe811527	-0.2521145
18	0x3d4ba58e	0.049718432
19	0x3cef9f82	0.029250864
20	0x3e23433c	0.15943617
21	0x3d1f41b9	0.038881037
22	0xbd81bd94	-0.06334987
23	0x3e2b0079	0.16699399
24	0x3da15d44	0.07879117
25	0xbdb0f76d	-0.08640943
26	0xbe3950de	-0.18097255
27	0x3ea12a8f	0.31477782
28	0xbe76e6d7	-0.24111496
29	0xbc1391a6	-0.009006893
30	0x3e66004e	0.22461054
31	0x3da9fb9d	0.082999445
32	0xbd3c0b52	-0.045909233
33	0xbd341610	-0.043966353
34	0xbca6a097	-0.020340247
35	0xbbd2228d	-0.00641281
36	0xbd5b9fba	-0.053619124
37	0x3cc12ef5	0.023581961
38	0x3ede4dc8	0.43418717
39	0x3d5a5a4f	0.05330878
40	0x3e3dddfb	0.1854171
41	0xbda5d0c9	-0.08096463
42	0xbe788f79	-0.2427348
43	0xbe028079	-0.12744321
44	0x3cfb4078	0.03067039
45	0xbd6026d2	-0.054724522
46	0x3e7d8682	0.24758342
47	0x3dc193af	0.094519965
48	0xbe898ab6	-0.2686364
49	0xbd862a80	-0.06551075
50	0xbd5ea2aa	-0.054354347
51	0x3d2cf866	0.04222908
52	0x3c64890e	0.013948692
53	0x3e0192c3	0.12653641
54	0x3dc5a365	0.09650306
55	0x3d6c6fe1	0.057723884
56	0x3dfaac12	0.12239851
57	0x3cbf78d4	0.023373045
58	0x3dcaede0	0.09908652
59	0x3e208e9d	0.15679403
60	0xbd579bcf	-0.052638825
61	0x3e0e7d29	0.13914932
62	0xbe68f5a0	-0.22749949
63	0x3dcda5cc	0.10041389
64	0x3db9e5ea	0.09077056
65	0x3d618df4	0.055067018
66	0x3c675e48	0.0141215995
67	0xbd2a2cf3	-0.041546773
68	0xbdfdf60f	-0.124004476
69	0x3dfa8f57	0.12234371
70	0xbd383e20	-0.044981122
71	0x3c33ad3b	0.010966594
72	0xbdc435cb	-0.09580573
73	0xbdd9d267	-0.10635834
74	0x3e14bf4e	0.14526102
75	0x3e545147	0.2073413
76	0xbe1815ac	-0.14852017
77	0xbd9b8d8b	-0.075953566
78	0xbde4e8a5	-0.11177186
79	0x380d86ca	3.374255e-05
80	0xbdd85d21	-0.10564638
81	0xbe0f319c	-0.13983768
82	0xbe49a61d	-0.19692273
83	0x3e96f422	0.29483134
84	0x3ea94bb5	0.33065572
85	0x3dbe4c91	0.09291948
86	0x3dcc4f4e	0.09976064
87	0xbd93cd35	-0.072168745
88	0xbe8f4678	-0.2798345
89	0x3e1727f7	0.14761339
90	0xbce3f63b	-0.027827373
91	0xbdc47a98	-0.095936954
92	0x3e423917	0.1896709
93	0x3c740cfb	0.014895673
94	0x3df723f2	0.12067403
95	0xbd974baa	-0.07387479
96	0x3d747a51	0.059686963
97	0xbdc75311	-0.097326405
98	0x3e1ab874	0.15109426
99	0x3e5041c8	0.20337594
100	0xbd56559a	-0.05232773
101	0x3db5ef1d	0.08883498
102	0x3d45c347	0.048281934
103	0xbd5287b9	-0.051398966
104	0x3de42cc4	0.11141351
105	0x3da08b93	0.07839122
106	0xbdca5900	-0.09880257
107	0x3d5848c1	0.05280376
108	0xbe94323f	-0.28944585
109	0x3e17966e	0.14803478
110	0xbe84f955	-0.25971475
111	0x3cc5a26a	0.024125297
112	0xbda32aa1	-0.07967115
113	0xbe37ee96	-0.17962107
114	0x3dc3c80d	0.09559641
115	0xbc6a6758	-0.014306866
116	0x3e02e3d1	0.12782218
117	0xbd84607f	-0.06463718
118	0xbd0a237f	-0.033725258
119	0xbdeca5f9	-0.11555094
120	0xbca021b3	-0.019547319
121	0xbd5bae52	-0.05363304
122	0xbd880dee	-0.06643282
123	0xbe0fb7a0	-0.14034891
124	0x3de0d1ef	0.10977542
125	0x3cc59251	0.02411762
126	0x3e13e859	0.14444102
127	0x3dd715f5	0.10502235
128	0x3e180200	0.14844513
129	0xbe52fbf3	-0.20603923
130	0x3e61b8b7	0.2204312
131	0x3d041777	0.03224894
132	0xbdb2cc93	-0.08730426
133	0x3e12f48e	0.14351103
134	0x3b9580d4	0.0045624766
135	0x3e385a3d	0.18003173
136	0x3d0110bc	0.0315101
137	0x3e069bd9	0.13145389
138	0xbd5a58e9	-0.053307448
139	0xbd83b250	-0.06430495
140	0x3e4fe5d9	0.20302524
141	0x3c94914e	0.018135693
142	0xbe50d978	-0.20395458
143	0x3e73bbc6	0.23802099
144	0xbe5e3696	-0.2170051
145	0xbc9859fd	-0.018597597
146	0x3e161669	0.14656986
147	0xbdb1d3ef	-0.08683001
148	0x3dc8c703	0.098035835
149	0xbe039088	-0.12848103
150	0xbce12cf5	-0.027487257
151	0x3d83e3f8	0.06439966
152	0x3e2acb50	0.1667912
153	0xbddf744c	-0.10910854
154	0xbddf03e9	-0.10889418
155	0x3d25cf20	0.040480733
156	0xbe0bccc7	-0.13652335
157	0xbe37da87	-0.17954455
158	0x3e069857	0.1314405
159	0x3dff03aa	0.12451871
160	0xbd39dfe6	-0.04537954
161	0x3dff59a3	0.12468269
162	0xbdc15f6f	-0.09442031
163	0xbdf5fecb	-0.120114885
164	0x3e4ae304	0.19813162
165	0xbe008ac5	-0.12552936
166	0x3d523195	0.051316816
167	0x3d7b512e	0.061356716
168	0xbce72acb	-0.028218647
169	0xbdd0d821	-0.10197473
170	0xbd017c8b	-0.031612914
171	0x3d3e0a72	0.04639668
172	0xbcc3d117	-0.023903413
173	0xbe53dd65	-0.20689924
174	0xbe9c83d0	-0.30569315
175	0xbd437d4e	-0.04772692
176	0xbe410ec5	-0.1885329
177	0x3e32f547	0.17476378
178	0xbd1163d6	-0.0354956
179	0xbd2106c0	-0.039313078
180	0x3d4cace9	0.049969587
181	0x3d0d57eb	0.034507673
182	0xbc8fb7d4	-0.01754371
183	0x3e682631	0.22670819
184	0x3cfb5618	0.030680701
185	0x3b5817d6	0.0032973192
186	0x3e2a8f47	0.16656218
187	0xbc9a9aa0	-0.01887256
188	0x3e4d88b5	0.20071681
189	0xbd8aa147	-0.067690425
190	0xbba4e0b9	-0.005031672
191	0x3de5bb7d	0.11217401
192	0xbe368a0f	-0.17826103
193	0xbe75a0a0	-0.23987055
194	0xbe9d8bd3	-0.3077074
195	0x3e69873a	0.22805491
196	0xbd7b9e82	-0.06143046
197	0xbd79ac24	-0.06095518
198	0xbea0529e	-0.31313032
199	0x3df5e90e	0.12007342
200	0x3d1a8b66	0.037730597
201	0xbd3e3b18	-0.046443075
202	0x3e1bbaf5	0.15208037
203	0x3d82a11a	0.06378384
204	0x3dcf385e	0.10118173
205	0xbe1850d6	-0.14874586
206	0x3e756cfc	0.23967355
207	0x3dcf4148	0.10119873
208	0xbe2fbfa1	-0.17162944
209	0x3d0fb4fe	0.035084717
210	0x3bed4840	0.007241279
211	0xbcbe22f7	-0.023210032
212	0x3caf8ced	0.021429503
213	0xbdc2c083	-0.09509375
214	0x3e7f7e8f	0.24950622
215	0xbc7a618e	-0.015282048
216	0x3d47ba08	0.048761398
217	0xbdcb27fc	-0.09919736
218	0xbce2b728	-0.027675226
219	0xbdb10615	-0.08643738
220	0xbe052895	-0.13003762
221	0xbce253d2	-0.02762786
222	0x3e8ab1d0	0.27088785
223	0xbe099bf1	-0.13438393
224	0xbe95e297	-0.29274437
225	0xbd9e3eca	-0.0772682
226	0xbd0a523d	-0.033769835
227	0xbe80d3f4	-0.25161707
228	0x3c7b2d56	0.015330633
229	0xbba536c5	-0.0050419294
230	0xbca62477	-0.02028106
231	0x3e9dfdbf	0.30857655
232	0x3aab5b3a	0.0013073452
233	0x3e5a8a04	0.21341711
234	0xbe1005d1	-0.14064719
235	0x3d7098f8	0.058739632
236	0xbe940785	-0.28911987
237	0x3e496c7f	0.19670294
238	0x3d5c46f6	0.05377861
239	0x3d7ecb86	0.062205814
240	0xbd31af7d	-0.04338025
241	0xbe25f098	-0.1620506
242	0x3e24b2d2	0.1608384
243	0x3db4ab0b	0.08821686
244	0x3a38ad17	0.00070448354
245	0xbeab4179	-0.3344839
246	0xbd38b397	-0.045093145
247	0xbe3352d5	-0.17512067
248	0x3d38917a	0.045060612
249	0x3cbd1f4e	0.023086216
250	0xbc0994b9	-0.008397275
251	0xbdac90da	-0.08426066
252	0xbe23ae08	-0.15984356
253	0x3d6083dd	0.054813255
254	0x3a74c640	0.0009337403
255	0xbd5b2d41	-0.053509954

linears.2.bias f4 [50]
0	0x393663e3	0.00017394083
1	0x36b3ae94	5.3549393e-06
2	0x3a3cd809	0.00072038226
3	0xba1f6af9	-0.0006081309
4	0xba7e71b9	-0.0009706277
5	0x38f55bd4	0.00011699615
6	0x3a1e6494	0.0006042209
7	0x393635c5	0.00017376903
8	0xb97563ab	-0.0002340215
9	0xba48926c	-0.0007651213
10	0x3a499695	0.000768998
11	0x3a6e3a69	0.0009087683
12	0x39a5dbee	0.00031635113
13	0x3a189d2b	0.00058217597
14	0x3901c40b	0.0001237543
15	0xb8aae6cf	-8.149223e-05
16	0x3a45e024	0.0007548353
17	0x39d342ae	0.00040294736
18	0x3a138e7f	0.00056288386
19	0x38581c05	5.152451e-05
20	0xb8414952	-4.608307e-05
21	0x39ba2a12	0.0003550803
22	0x39b764ae	0.00034979492
23	0xb9a9cbc5	-0.00032386012
24	0x393c6aa6	0.00017968807
25	0x3a1ab22e	0.00059011846
26	0xb7449866	-1.1717993e-05
27	0xb990e7e5	-0.00027638595
28	0x394bcd20	0.00019436004
29	0x38662be9	5.4877168e-05
30	0xb9eb7803	-0.0004491211
31	0xba2b08e0	-0.0006524455
32	0xba10c7f4	-0.00055229594
33	0xba035e52	-0.0005011308
34	0x39c4bf30	0.0003752648
35	0xb9e38a2e	-0.00043399766
36	0x398e007b	0.0002708471
37	0x390a7b4a	0.00013206634
38	0x395e2cb0	0.00021188217
39	0x39d51de2	0.0004064879
40	0x39d46e09	0.00040517774
41	0xba38b844	-0.00070465007
42	0xb92c64a8	-0.00016440696
43	0x3a54603e	0.00081014994
44	0x3a1a3a3f	0.0005883313
45	0x38bb97b1	8.9451096e-05
46	0xb9b559a8	-0.0003458981
47	0xb904f885	-0.00012681082
48	0x3a1e8694	0.00060472754
49	0xb993baec	-0.00028177293

linears.3.weight f4 [50, 50]
0	0x3d84b244	0.06479314
1	0x3ba6bd28	0.005088467
2	0xbd0d28a5	-0.03446259
3	0xbb552453	-0.0032522872
4	0x3b882cb8	0.0041557215
5	0x3c844892	0.016147885
6	0x3d0a564a	0.033773698
7	0x3d73ba78	0.059504002
8	0x3ddc927f	0.107701294
9	0xbe113593	-0.14180593
10	0x3d991a4f	0.07475721
11	0x3d5ef1a8	0.05442968
12	0xbca752ae	-0.020425167
13	0x3e1d5d4f	0.15367626
14	0xbc145fb0	-0.009056017
15	0x3dccafbc	0.09994456
16	0xbd863b27	-0.06554251
17	0x3d9df298	0.07712287
18	0x3d855696	0.065106556
19	0x3deb4fe1	0.11489845
20	0xbe24a3ee	-0.16078159
21	0xbe1d3018	-0.15350378
22	0xbcab7978	-0.020931944
23	0x3e1e9105	0.15485008
24	0x3e5743fd	0.21022029
25	0xbdfb8262	-0.12280728
26	0x3dba5db3	0.09099903
27	0xbe2b6f87	-0.16741763
28	0xbc23b227	-0.009991205
29	0x3e25bfbe	0.16186425
30	0x3e233d3f	0.15941332
31	0xbe0f1718	-0.13973653
32	0xbd75e61c	-0.060033903
33	0x3cbfe31f	0.02342373
34	0xbdfa89d5	-0.122333206
35	0x3b83b913	0.0040198653
36	0xbe5a6b4c	-0.21329993
37	0x3d8372cd	0.06418381
38	0xbe319777	-0.17342936
39	0xbe9f5391	-0.31118444
40	0xbd7a57de	-0.061118953
41	0xbd269473	-0.040668916
42	0xbdc8db50	-0.098074555
43	0x3e17fddb	0.14842932
44	0xbe080e9a	-0.1328682
45	0x3cbaeedc	0.022818975
46	0xbe6c6a5f	-0.23087452
47	0xbe892f79	-0.2679403
48	0xbe93eeae	-0.28893036
49	0x3db61c82	0.08892156
50	0xbda1e728	-0.07905418
51	0x3d1c1624	0.038107052
52	0x3e17a3df	0.14808606
53	0xbe3fad81	-0.1871853
54	0x3d85f30c	0.06540498
55	0xbd72a6a5	-0.059240956
56	0xbe482b11	-0.19547679
57	0x3e9145f6	0.28373688
58	0x3d7c6f5f	0.06162965
59	0xbdc2f898	-0.09520072
60	0xbc331335	-0.010929872
61	0xbe022670	-0.12709975
62	0x3e548709	0.20754637
63	0x3cc2af93	0.023765361
64	0xbdd3ce5c	-0.10342094
65	0xbe27c173	-0.16382389
66	0xbdef6ec7	-0.11691051
67	0xbd56ea60	-0.05246961
68	0xbde490e1	-0.11160446
69	0xbe085e22	-0.13317159
70	0x3d2e36c2	0.04253269
71	0xbe559c5d	-0.20860429
72	0xbdcf93cd	-0.10135613
73	0x3cba09a2	0.022709671
74	0xbe4b1650	-0.1983273
75	0xbe0c3f30	-0.13695979
76	0x3e44cb5e	0.19218203
77	0xbd26a3f4	-0.0406837
78	0x3dca95e1	0.098918684
79	0xbc1a7d6f	-0.00942932
80	0xbc71b13e	-0.0147517305
81	0xbd59236b	-0.053012293
82	0x3dc2e2c3	0.095159076
83	0x3e2f0b35	0.17094119
84	0x3c8434f8	0.016138539
85	0x3dc50333	0.09619751
86	0xbbae32de	-0.0053161224
87	0x3d76952a	0.060200848
88	0xbd5f9d24	-0.05459322
89	0x3e7e8850	0.24856687
90	0xbd66b1d2	-0.056321926
91	0xbc2d2d9c	-0.010569956
92	0x3d8e376a	0.06944163
93	0xbdc1663b	-0.09443327
94	0x3e470c90	0.19438386
95	0x3d9dfb1b	0.0771391
96	0x3e5756b7	0.21029173
97	0x3d980325	0.07422475
98	0x392ce58a	0.00016488708
99	0x3d5e4ebd	0.05427431
100	0x3caed464	0.02134151
101	0x3d90602a	0.07049592
102	0x3dc1a73d	0.09455726
103	0xbea192ea	-0.315574
104	0xbe0fd954	-0.14047748
105	0x3e13e5f1	0.14443184
106	0x3de2f072	0.110810176
107	0xbe6b0112	-0.22949627
108	0xbd9b782a	-0.07591279
109	0x3d9cf604	0.07664111
110	0x3e81f4f7	0.25382206
111	0x3d464f51	0.048415486
112	0x3e3bcd41	0.18340017
113	0xbe433046	-0.19061384
114	0xbd5df0a2	-0.054184563
115	0xbda41d7b	-0.080134355
116	0x3e2ac1ed	0.1667554
117	0x3cc17172	0.023613665
118	0xbe143f90	-0.14477372
119	0xbe58adec	-0.21160096
120	0x3d26328c	0.04057555
121	0x3d46d120	0.04853928
122	0xbd8887e5	-0.06666545
123	0x3ea388c4	0.3194028
124	0xbd1c026d	-0.03808825
125	0x3e8075d2	0.2508989
126	0x3cf3dec7	0.029769314
127	0xbdd12c40	-0.10213518
128	0x3d5865f9	0.052831624
129	0xbc3bdbdf	-0.011465996
130	0x3ce592b4	0.028024055
131	0x3d936f24	0.07198933
132	0x3d65db46	0.05611732
133	0xbe8aeba5	-0.27132908
134	0x3e44ac1e	0.19206282
135	0xbe5bf5af	-0.2148044
136	0x3d237e5a	0.03991542
137	0x3ca0db65	0.019635865
138	0xbd315ba5	-0.04330029
139	0x3e247d6a	0.16063467
140	0x3e3d8b34	0.18510133
141	0x3cab3624	0.02089984
142	0x3e13e9cf	0.1444466
143	0x3e73edfb	0.23821251
144	0x3e8ad69f	0.27116868
145	0xbe1f7192	-0.15570667
146	0xbce86556	-0.028368633
147	0xbdc8f956	-0.09813182
148	0x3e0d97e9	0.1382748
149	0x3ddf4a4f	0.10902845
150	0xbc2804c4	-0.010255042
151	0xbe493e10	-0.19652581
152	0x3d86a817	0.06575029
153	0xbe2c880c	-0.16848773
154	0xbb98ad75	-0.0046593496
155	0xbe3314a1	-0.17488338
156	0x3da6cfd5	0.081451096
157	0x3d8272aa	0.06369527
158	0x3e055077	0.13018976
159	0xbd4d1ddd	-0.050077308
160	0x3e557fcf	0.20849536
161	0x3dee684d	0.116409875
162	0xbc86c9e8	-0.016453698
163	0xbd53a856	-0.05167421
164	0x3e64f28b	0.22358148
165	0xbcd2a802	-0.025714878
166	0xbdc4194a	-0.09575136
167	0xbe7dcc66	-0.24785003
168	0xbce885fa	-0.028384198
169	0xbdcb673b	-0.09931799
170	0x3dff96ba	0.12479921
171	0x3d346282	0.044039257
172	0x3e3a4b94	0.18192893
173	0x3dc16952	0.094439164
174	0x3e25ab9f	0.1617875
175	0xbb8b1b06	-0.004245165
176	0x3e05efd9	0.13079776
177	0xbcc458a3	-0.023968047
178	0x3cb32ed3	0.021872913
179	0xbe72eea4	-0.23723847
180	0x3de86dc6	0.113490626
181	0x3db8dcd6	0.09026496
182	0xbbb36a58	-0.0054753236
183	0x3b1a96b7	0.0023588368
184	0x3d0ec7f7	0.03485867
185	0xbe0b2ad2	-0.13590553
186	0xbea77d50	-0.32712793
187	0xbc193458	-0.009350859
188	0x3c797f59	0.015228116
189	0x3dcad69b	0.09904214
190	0xbd8513aa	-0.06497891
191	0x3db3d41f	0.08780693
192	0x3df5a107	0.11993604
193	0x3d5abfa6	0.053405426
194	0x3e93328e	0.28749508
195	0xbe2f117a	-0.1709651
196	0x3dbb3dbc	0.09142634
197	0xbdf4ecf6	-0.11959259
198	0xbdae71a9	-0.08517773
199	0x3c360ca3	0.011111411
200	0xbe394ff2	-0.18096903
201	0x3e20da77	0.15708338
202	0x3dd70641	0.1049924
203	0xbe321d2a	-0.17393938
204	0x3e04f473	0.12983875
205	0x3dbe98c6	0.09306483
206	0xbe0158ff	-0.12631606
207	0x3d9e52bb	0.07730623
208	0xbe0c8141	-0.13721181
209	0x3dff56ef	0.12467753
210	0x3d432284	0.04764034
211	0xbb46370f	-0.003024522
212	0x3d4d478d	0.050117064
213	0xbdb1cf38	-0.08682102
214	0x3dda3feb	0.10656723
215	0xbdb95afc	-0.09050557
216	0x3b312e1c	0.002703554
217	0xbdba5b35	-0.090994276
218	0xbe32377b	-0.17403977
219	0x3e1c3bd5	0.15257199
220	0x3c9300b5	0.017944673
221	0x3df9d4e1	0.121988066
222	0x3c30e3a1	0.010796458
223	0x3d9289f0	0.07155216
224	0x3c8c8e90	0.017157823
225	0xbe43e2bb	-0.1912946
226	0x3e8f86ef	0.28032634
227	0xbe2e377a	-0.1701335
228	0xbe8a6fa3	-0.27038297
229	0x3c742c87	0.014903194
230	0xbe4c3b35	-0.1994446
231	0x3c18e5a5	0.009332095
232	0x3e19a64b	0.15004842
233	0x3db2b02d	0.08725009
234	0xbcf8157d	-0.030283684
235	0x3dc30d37	0.09524005
236	0x3dcfdb10	0.10149205
237	0xbd4e315e	-0.05034005
238	0xbe3c915f	-0.1841483
239	0x3e30f8a5	0.1728235
240	0xbd9d0781	-0.07667447
241	0xbe0aa549	-0.13539614
242	0x3d69f783	0.05712081
243	0xbac4bbc3	-0.0015009571
244	0xbcd8b38a	-0.026452798
245	0xbce58d09	-0.028021352
246	0xbe14e0aa	-0.14538828
247	0xbe0d9fc1	-0.13830473
248	0xbe0707e8	-0.1318661
249	0xbe922180	-0.28541183
250	0x3d1045f0	0.035222948
251	0x3e47944b	0.19490163
252	0x3df40e2a	0.11916764
253	0xbe84cb84	-0.2593652
254	0x3d888aa7	0.06667071
255	0x3e29e7e8	0.16592371

linears.3.bias f4 [50]
0	0xb99b0f3c	-0.00029575254
1	0xba2e3711	-0.0006645779
2	0x39b1f946	0.00033945794
3	0x3a2d589c	0.000661263
4	0xb9334f90	-0.0001710041
5	0xb8ac8c50	-8.227734e-05
6	0xb9a9a4bc	-0.0003235693
7	0xb9700f82	-0.0002289396
8	0xb91ee2a0	-0.00015152479
9	0x3940cd18	0.0001838695
10	0x39dbc886	0.00041920337
11	0x39b86397	0.00035169415
12	0x393ae09a	0.00017822013
13	0xba7fd7ca	-0.0009759633
14	0xba3d85d0	-0.00072297174
15	0xb98c99b6	-0.00026817404
16	0x392d68c7	0.00016537598
17	0xb9247f50	-0.00015687686
18	0x3a013708	0.000492916
19	0x3985dbb7	0.00025531437
20	0x3a56ba21	0.00081911875
21	0x392e99c2	0.00016651212
22	0x39f6740f	0.00047007247
23	0xb8462791	-4.7243728e-05
24	0xb957ef26	-0.00020593088
25	0xba78ecf0	-0.00094957557
26	0x3974a49e	0.00023330978
27	0x3a14f406	0.0005682114
28	0xba129019	-0.000559093
29	0xb7069b4e	-8.023182e-06
30	0x39f24081	0.00046205896
31	0x3973cef9	0.00023251389
32	0x38c81a59	9.541651e-05
33	0xb9db82ae	-0.000418683
34	0x3a330c2c	0.0006830122
35	0xb933ac93	-0.00017135059
36	0xb8daf758	-0.000104411214
37	0x388ce01f	6.717466e-05
38	0xb934c8dc	-0.00017240964
39	0xb9bd6ca7	-0.00036129841
40	0x3a38b92d	0.00070466363
41	0xb943673a	-0.00018635104
42	0x3a02142c	0.0004962112
43	0xba6b7fa7	-0.000898356
44	0xb958474e	-0.00020625928
45	0x3a762423	0.000938954
46	0x39673c83	0.00022052419
47	0xb9293a0e	-0.00016138723
48	0xb9eeb184	-0.00045527157
49	0xb7cfacae	-2.4756733e-05

linears.4.weight f4 [50, 50]
0	0xbd9ecad5	-0.07753531
1	0xbe7b279a	-0.24526826
2	0x3d0d78bf	0.03453898
3	0xbdb61494	-0.08890644
4	0xbe337523	-0.17525153
5	0x3e8f3d03	0.27976236
6	0x3e252f2d	0.16131277
7	0xbc7ca236	-0.0154195335
8	0x3e1a4776	0.15066323
9	0xbd2b107d	-0.04176377
10	0x3ec50fda	0.38488656
11	0xbd7cfe47	-0.061765935
12	0x3e116ad3	0.14200906
13	0x3cc2eb16	0.023793738
14	0x3c9e785e	0.019344505
15	0x3d9586eb	0.07301124
16	0xbd853ea5	-0.06506089
17	0xbd5040c4	-0.050843015
18	0xbe0658ad	-0.13119765
19	0xbce95562	-0.028483097
20	0xbe643ac2	-0.2228804
21	0xbe03ec7a	-0.12883177
22	0xbe3ff7d8	-0.18746889
23	0xbeb3826d	-0.35060444
24	0xbe045cb4	-0.12925988
25	0xbd4ba6ec	-0.049719736
26	0x3e24d536	0.16096959
27	0xbe4f95a9	-0.20271935
28	0x3d94f83d	0.0727391
29	0xbe10efa4	-0.14153916
30	0xbc3edff2	-0.011650072
31	0xbdb08bfb	-0.08620449
32	0x3d54f0ad	0.05198734
33	0xbd7ab934	-0.06121178
34	0xbe19394e	-0.14963266
35	0x3c2d699a	0.010584259
36	0xbd4af736	-0.049552165
37	0x3c1f5515	0.009724875
38	0x3d731c1b	0.059352975
39	0x3e9d537f	0.30727765
40	0x3d93e8f7	0.07222169
41	0x3e816b9b	0.2527741
42	0xbcae1a41	-0.021252753
43	0xbdf1a520	-0.11799073
44	0xbcc4af35	-0.024009326
45	0xbd35d8d2	-0.04439623
46	0xbdbfc858	-0.093643844
47	0x3dd2c42e	0.102913246
48	0x3e4918fe	0.1963844
49	0x3d7eb4e0	0.062184215
50	0xbe2fcfec	-0.1716916
51	0xbc35bf1c	-0.011092927
52	0x3dcb7f73	0.099364184
53	0x3e03cb03	0.12870412
54	0xbd890988	-0.06691271
55	0xbdad2867	-0.08454972
56	0xbd09afc2	-0.03361488
57	0x3ddb2b3f	0.10701608
58	0x3dff46f2	0.124647036
59	0x3d0e9bf1	0.034816686
60	0xbe0bcea1	-0.13653041
61	0x3d82da19	0.06389255
62	0xbdf95e4f	-0.12176191
63	0x3dc75108	0.09732252
64	0xbe516d8f	-0.2045195
65	0x3e5bc898	0.21463239
66	0xbd00bd38	-0.031430453
67	0x3e425f63	0.189817
68	0xbcdde76c	-0.02708789
69	0xbd854528	-0.06507331
70	0xbc008d4b	-0.007846187
71	0xbe55866c	-0.20852059
72	0x3df5174c	0.11967334
73	0xbd2c9941	-0.04213834
74	0xbe41edfd	-0.18938442
75	0x3de40fb0	0.11135805
76	0xbe06ec6b	-0.13176124
77	0xbe2ee6a6	-0.17080173
78	0x3e90f659	0.28312948
79	0xbd3ba800	-0.045814514
80	0xbd6dc6eb	-0.05805103
81	0x3d7583e0	0.05994022
82	0x3d338332	0.04382629
83	0xbca0af8d	-0.01961496
84	0xbd1d5b03	-0.038416874
85	0xbd29fb2b	-0.041499298
86	0x3dfe0b5f	0.124045126
87	0xbe270b69	-0.16312946
88	0x3e27a70f	0.16372322
89	0xbd0dc36e	-0.034610204
90	0x3ba223dd	0.004948123
91	0xbe280d4f	-0.16411327
92	0x3bbebf60	0.0058211535
93	0xbe14a575	-0.14516242
94	0x3e971111	0.29505208
95	0xbe7ceeb6	-0.24700436
96	0xbd485c78	-0.04891631
97	0x3e5eb0e1	0.21747161
98	0xbd03a382	-0.032138355
99	0xbd67d84e	-0.05660277
100	0xbc9425ab	-0.018084368
101	0x3cbd348e	0.02309635
102	0xbcb7f8eb	-0.02245756
103	0xbd1f3efc	-0.038878426
104	0xbd462dd8	-0.048383564
105	0xbe9062c6	-0.28200358
106	0x3c5e3ce4	0.013564322
107	0xbe5ff03d	-0.21868987
108	0x3db39b8a	0.08769901
109	0xbe6d8b15	-0.23197587
110	0x3d33e0f3	0.0439157
111	0x3dcef1fd	0.10104749
112	0xbe862223	-0.2619792
113	0xbbdc2091	-0.0067177494
114	0xbe2ab3f2	-0.16670206
115	0xbd2c2f56	-0.04203733
116	0xbccf839d	-0.025331313
117	0xbdcdc6c2	-0.10047676
118	0xbe517ff6	-0.2045897
119	0xbc08e0de	-0.008354394
120	0x3e002465	0.12513883
121	0x3dea2e3c	0.114346
122	0x3d25f8d2	0.040520497
123	0xbd19aa72	-0.037516065
124	0xbcc8fb2d	-0.024533832
125	0x3d3d513c	0.04622005
126	0x3cfc0125	0.030762265
127	0xbce424dd	-0.027849609
128	0x3d2376e9	0.039908323
129	0x3dfc1507	0.12308698
130	0x3d92152f	0.07132947
131	0xbe56bc3c	-0.20970243
132	0xbdfaaeab	-0.122403465
133	0xbd8cc308	-0.06873137
134	0x3e80c26c	0.25148332
135	0xbdc891e0	-0.097934484
136	0xbc225a25	-0.009909187
137	0xbd80e301	-0.062932976
138	0x3ddb0bfd	0.10695646
139	0x3d5ee624	0.054418698
140	0xbe92d893	-0.28680858
141	0xbce310fe	-0.027718063
142	0x3e8783ab	0.26467642
143	0x3d44acab	0.04801623
144	0xbd1bcc72	-0.03803677
145	0x3d6e4bc3	0.05817772
146	0xbd9f29c8	-0.07771641
147	0xbdf43a32	-0.119251624
148	0x3e3ab607	0.182335
149	0xbb24bc8d	-0.00251368
150	0x3ddd85e0	0.1081655
151	0x3e895444	0.26822102
152	0xbd94e432	-0.07270087
153	0xbd945f84	-0.07244781
154	0xbd741856	-0.05959352
155	0xbdf1b315	-0.11801735
156	0x3d5952cf	0.053057488
157	0xbdf61d77	-0.12017339
158	0xbe2fb1e1	-0.17157699
159	0x3d8500c9	0.064942904
160	0xbe0142dd	-0.12623163
161	0x3dc84f3f	0.0978074
162	0xbe5fd458	-0.21858346
163	0x3d2167b9	0.03940556
164	0x3ea13198	0.3148315
165	0xbbdf84ac	-0.0068212356
166	0xbc34bdb1	-0.011031554
167	0x3dad32d8	0.08456963
168	0xbe19618c	-0.14978617
169	0x3dea6a76	0.11446087
170	0x3de43ed3	0.11144795
171	0xbd8ef60b	-0.06980523
172	0xbda645b2	-0.08118762
173	0x3e9eb88c	0.31000173
174	0x3e87b7fc	0.26507556
175	0xbce6afb3	-0.028159952
176	0xbce60bc1	-0.028081777
177	0x3e2c9ea3	0.1685739
178	0x3dd44b6d	0.10365949
179	0x3e80aec2	0.2513333
180	0xbdaacd9f	-0.0834
181	0x3e0ef996	0.13962397
182	0xbcde0a65	-0.027104566
183	0xbe0115e7	-0.12606011
184	0xbdf2d0ed	-0.11856256
185	0xbd3b326b	-0.04570238
186	0x3d9d0c45	0.07668356
187	0x3d3d3100	0.04618931
188	0x3dea904f	0.11453306
189	0x3e0223cf	0.12708972
190	0xbe239445	-0.15974529
191	0x3d7bdc04	0.06148912
192	0xbb42d3d9	-0.0029728322
193	0xbd4905ae	-0.049077682
194	0x3c3ebba7	0.0116414195
195	0x3b3c5178	0.0028735083
196	0xbd132b83	-0.035930168
197	0x3d303b23	0.043025147
198	0xbdd85bbe	-0.105643734
199	0x3e2cedbb	0.16887562
200	0x3d305cf6	0.043057404
201	0x3de4963d	0.11161468
202	0x3c5b5871	0.013387785
203	0xbe03dd89	-0.12877478
204	0x3e146889	0.14493002
205	0x3dc27772	0.09495439
206	0xbe4ca002	-0.19982913
207	0xbd773390	-0.06035191
208	0xbe91f2f4	-0.2850567
209	0x3e263801	0.16232301
210	0xbd4cfb42	-0.050044306
211	0x3d8af09a	0.06784172
212	0xbd06a9a6	-0.032876633
213	0xbddfde38	-0.10931057
214	0x3d576a01	0.052591328
215	0x3e0b444d	0.13600273
216	0x3e0f8544	0.1401568
217	0x3dbb4470	0.09143913
218	0xbcdd87a6	-0.027042221
219	0xbcd9fcca	-0.026609797
220	0xbe9f9d6a	-0.31174785
221	0xbe2561fd	-0.16150661
222	0x3e59a2c8	0.21253502
223	0xbdf54ef4	-0.1197795
224	0x3d1736c7	0.036917474
225	0x3d6882bd	0.056765307
226	0xbd7b4fe4	-0.061355487
227	0x3e9e8ef0	0.30968428
228	0x3e106d1c	0.14104122
229	0xbc9d02cd	-0.019166375
230	0x3dfcac60	0.123375654
231	0x3e54c36a	0.2077767
232	0xbe7b1425	-0.24519403
233	0xbe21aa34	-0.15787584
234	0xbe552236	-0.20813832
235	0xbea1420e	-0.31495708
236	0xbcbb1260	-0.02283591
237	0xbdb08549	-0.08619172
238	0xbe2d1253	-0.16901521
239	0x3dfcccea	0.12343772
240	0x3d1726e6	0.03690233
241	0xbd2e397d	-0.042535294
242	0xbe4ac5e4	-0.19802052
243	0x3e061c2f	0.13096689
244	0xbda1b823	-0.078964494
245	0x3cee5ca1	0.029096903
246	0x3e5c3933	0.21506195
247	0xbe13a7f6	-0.14419541
248	0x3cd8d3a0	0.026468098
249	0xbaf6bd52	-0.0018824732
250	0xbe2d0889	-0.16897787
251	0x3da70eb2	0.081571
252	0xbe288b2a	-0.16459337
253	0xbe9bc810	-0.30426073
254	0x3e131199	0.14362182
255	0xbeb3009f	-0.3496141

linears.4.bias f4 [50]
0	0xba35f72c	-0.00069414335
1	0xba556552	-0.0008140403
2	0x3994d3f6	0.00028386683
3	0xb98848ac	-0.00025994086
4	0xb8b6700a	-8.699305e-05
5	0xb87ede86	-6.076556e-05
6	0xb95f37af	-0.00021287681
7	0xb90fc1c0	-0.0001370972
8	0x38f7b685	0.00011811875
9	0xb7bb1cc3	-2.230553e-05
10	0xb9fc0316	-0.00048067485
11	0x392434a2	0.00015659866
12	0xb952d3e9	-0.00020106103
13	0xba3d7972	-0.00072278746
14	0xba059331	-0.00050954806
15	0xba926737	-0.0011169676
16	0x379fc576	1.9046227e-05
17	0xb91e8123	-0.00015116161
18	0x38fdb8c2	0.00012098394
19	0xb88bac8d	-6.6601766e-05
20	0xb888e535	-6.5276785e-05
21	0x3a3b3be3	0.00071424077
22	0xba2536a8	-0.0006302395
23	0x39e67cd9	0.00043962037
24	0xb99542fa	-0.00028469396
25	0x383b4f60	4.4658198e-05
26	0xb99804bd	-0.0002899523
27	0xba218123	-0.00061609055
28	0x3a611143	0.0008585641
29	0xba32a447	-0.00068146404
30	0x392f5da8	0.0001672419
31	0xba1f2282	-0.0006070511
32	0x3aa1adfb	0.0012335175
33	0x3acd0844	0.0015642722
34	0xb9d1f98c	-0.00040049513
35	0xba2af645	-0.00065216824
36	0xb87c32c1	-6.012875e-05
37	0xb98c02e8	-0.00026705046
38	0xb8e48baa	-0.00010897902
39	0xb831e3a5	-4.24121e-05
40	0x39395281	0.0001767371
41	0x39ac8493	0.00032905172
42	0x39f73cf5	0.00047156928
43	0xb9202857	-0.00015273817
44	0x39e912d4	0.0004445525
45	0x38622ba0	5.3923228e-05
46	0xb9a96517	-0.0003230951
47	0x39288f63	0.00016075144
48	0x38886418	6.503629e-05
49	0x399d8bd3	0.0003004955

linears.5.weight f4 [50, 50]
0	0xbde24bc5	-0.11049608
1	0x3dcfd672	0.10148324
2	0x3e74fe21	0.23925067
3	0xbcc8ffe0	-0.024536073
4	0x3ddc2067	0.10748368
5	0x3d9fd818	0.078048885
6	0x3de6c6af	0.11268365
7	0x3d905946	0.070482776
8	0xbe1e1c43	-0.15440468
9	0x3e12fdf1	0.14354683
10	0x3d92b6d1	0.07163776
11	0xbe5ff112	-0.21869305
12	0xbe25f01d	-0.16204877
13	0xbda457a3	-0.08024528
14	0xbe59f4a7	-0.21284734
15	0xbe05d9a0	-0.13071299
16	0xbd954354	-0.072882324
17	0xbd3cfc88	-0.04613927
18	0xbbacb6ac	-0.0052707996
19	0xbd0d7ca8	-0.03454271
20	0xbd1e3d95	-0.038632948
21	0x3bf7fae7	0.0075677517
22	0x3e64e4e9	0.22352947
23	0x3e108d80	0.14116478
24	0x3dd0beff	0.101926796
25	0xbe4d1187	-0.20026217
26	0xbd94c548	-0.07264191
27	0x3c286123	0.010277065
28	0xbd025613	-0.031820368
29	0x3daa31ec	0.08310303
30	0x3dfa2c95	0.122155346
31	0x3e3ee4aa	0.18641916
32	0xbd87eade	-0.06636594
33	0x3da940fa	0.082643464
34	0x3e626a74	0.22110921
35	0x3e64114f	0.22272228
36	0xbd65944c	-0.05604963
37	0x3e5a4ee4	0.21319157
38	0x3c857b72	0.016294215
39	0xbdb3e103	-0.08783152
40	0xbdb64d23	-0.089014314
41	0x3e46cc5c	0.19413894
42	0x3e875335	0.2643067
43	0x3bafde0d	0.0053670467
44	0x3c02889c	0.0079671405
45	0xbe8eea84	-0.27913296
46	0x3e07b9a4	0.1325441
47	0x3d10b25a	0.03532634
48	0xbe090abf	-0.13383006
49	0x3dc7676f	0.09736525
50	0x3d714af5	0.058909375
51	0xbd3d79b3	-0.04625864
52	0xbe046b4b	-0.12931554
53	0x3c2aec44	0.010432307
54	0x3e014c19	0.12626685
55	0x3e108346	0.14112577
56	0xbd65a637	-0.056066718
57	0xbd00ffb9	-0.031493876
58	0x3e173647	0.14766799
59	0xbe8eb876	-0.27875108
60	0xbcff4f1f	-0.031165658
61	0x3d8e077c	0.06935021
62	0xbdd2896d	-0.10280118
63	0xbde02dd5	-0.10946242
64	0xbee1b6db	-0.4408482
65	0x3d11a295	0.03555544
66	0x3b9329c5	0.0044910633
67	0xbe4cb7a5	-0.1999193
68	0xbe01debe	-0.12682626
69	0xbe316d19	-0.17326774
70	0xbe0c262d	-0.13686438
71	0x3e09b5d2	0.13448265
72	0xbe2f21c8	-0.1710273
73	0xbe6f86b2	-0.23391226
74	0xbe83efc0	-0.25768852
75	0xbd37c8e4	-0.04486932
76	0xbd4f8f4d	-0.05067377
77	0xbe3d70c3	-0.18500046
78	0x3c83142e	0.016000833
79	0xbe1f3d19	-0.1555065
80	0xbe03102e	-0.12799141
81	0xbde2d202	-0.11075212
82	0x3e8561a0	0.26051044
83	0x3e6e47d0	0.23269582
84	0xbd8b6999	-0.068072505
85	0x3daea166	0.08526878
86	0x3dc346c5	0.095349826
87	0x3e54febc	0.20800298
88	0xbe27a839	-0.16372766
89	0xbe27b0ba	-0.1637601
90	0x3df9ad73	0.12191286
91	0xbe1f2d89	-0.15544714
92	0x3c22dd3a	0.00994044
93	0x3d1bad36	0.038006984
94	0xbdd47338	-0.10373539
95	0xbd80f707	-0.06297117
96	0x3d62ab9e	0.05533945
97	0x3e6e888e	0.23294279
98	0x3e307454	0.17231876
99	0x3e3f58fb	0.18686287
100	0xbd4b8f30	-0.0496971
101	0x3e5e5c49	0.21714891
102	0xbcd9e130	-0.026596636
103	0x3df9f93c	0.12205741
104	0x3dd049c0	0.10170317
105	0xbdc3babf	-0.09557103
106	0x3e37c491	0.17946078
107	0xbdc67690	-0.09690583
108	0x3de9f2fc	0.11423299
109	0x3d81911e	0.06326507
110	0x3e2c7d8e	0.1684477
111	0xbe271aa6	-0.1631876
112	0xbd51a869	-0.051186
113	0xbcc35435	-0.023843864
114	0x3f0c3652	0.54770386
115	0x3e726e54	0.236749
116	0x3d06528a	0.03279356
117	0x3eeffad4	0.46871054
118	0x3e07ed6e	0.13274166
119	0x3d6e2534	0.05814095
120	0x3e8b3d0b	0.2719501
121	0x3e4241c1	0.18970396
122	0xbd9cbcf1	-0.07653225
123	0x3dfff48d	0.12497816
124	0x3df483ce	0.11939202
125	0x3cc4a59a	0.024004746
126	0x3dce8d18	0.10085505
127	0x3de1328d	0.1099597
128	0x3e6303ef	0.2216947
129	0x3dc23d36	0.09484331
130	0xbe1b6f0c	-0.1517908
131	0xbdf3703b	-0.11886641
132	0xbce21e17	-0.027602239
133	0xbdd51caa	-0.10405858
134	0x3da51069	0.080597706
135	0x3e172327	0.14759503
136	0x3d8f85a1	0.070079096
137	0xbc884ddd	-0.01663869
138	0x3db312f2	0.08743848
139	0x3dcb7ec1	0.09936286
140	0x3e0fb993	0.14035635
141	0x3de3fe09	0.11132438
142	0x3cf0320e	0.029320743
143	0xbd85fee1	-0.06542755
144	0x3e8f45e0	0.27982998
145	0x3e034d82	0.12822536
146	0x3d8f42c1	0.06995154
147	0xbde8d9f3	-0.113696955
148	0xbdc12633	-0.09431114
149	0xbc767413	-0.015042323
150	0x3eadd707	0.33953115
151	0x3df457fd	0.11930845
152	0xbe3fb96f	-0.18723081
153	0xba806411	-0.0009795447
154	0x3dbff1a6	0.09372263
155	0x3db8c1b2	0.090213194
156	0xba1912e1	-0.00058393
157	0x3cef2679	0.02919315
158	0x3c57046c	0.013123613
159	0xbe07621a	-0.13221017
160	0xbd07a113	-0.033112597
161	0xbd2f9214	-0.04286392
162	0xbe7fe4fa	-0.24989691
163	0x3d15d11b	0.03657637
164	0x3c9d29ec	0.019185029
165	0x3cc426f5	0.023944357
166	0xbe3d86da	-0.18508473
167	0x3dcefae8	0.1010645
168	0x3e087ed3	0.1332963
169	0xbcb3b0ce	-0.021934893
170	0xbd28f0c1	-0.041245226
171	0xbdfa87e8	-0.12232953
172	0xbddaa12a	-0.10675271
173	0x3e4adff2	0.19811991
174	0xbd6300a6	-0.05542054
175	0xbe01721e	-0.12641189
176	0xbc110426	-0.008851087
177	0xbd0af8a0	-0.033928514
178	0x3e3ca220	0.18421221
179	0x3d6e9c94	0.058254793
180	0x3e140533	0.14455108
181	0xbd72c585	-0.0592704
182	0x3bf3ce82	0.007440389
183	0xbc1dd997	-0.009634397
184	0x3dd9dcef	0.10637843
185	0xbdfc47e1	-0.12318397
186	0x3e80d827	0.2516491
187	0x3e50cd09	0.20390715
188	0x3d8241ae	0.06360184
189	0xbea86963	-0.32892904
190	0xbe14daff	-0.14536665
191	0xbedc1dc2	-0.42991453
192	0xbdb8c219	-0.09021396
193	0x3cd74082	0.026275877
194	0xbe194f3a	-0.14971629
195	0xbe653306	-0.22382745
196	0x3d3bc785	0.045844574
197	0x3c9f522e	0.019448366
198	0x3da256fb	0.079267465
199	0xbe53e582	-0.20693019
200	0x3d8a7cad	0.06762061
201	0x3e69f56b	0.22847526
202	0xbbdb439d	-0.0066914097
203	0x3e394d24	0.18095833
204	0xbe70f6c8	-0.2353164
205	0xbcf43f52	-0.02981535
206	0xbe8cba3a	-0.2748583
207	0xbdc6fb97	-0.09715956
208	0xbc7042d7	-0.014664373
209	0xbe05259d	-0.1300263
210	0xbd116aa4	-0.03550209
211	0x3e2b2cfa	0.16716376
212	0x3c4e897e	0.012606023
213	0xbdef1779	-0.11674399
214	0xbe4a48bd	-0.1975431
215	0xbe2d7320	-0.16938448
216	0xbda51dd5	-0.08062331
217	0x3d3aaad8	0.045573086
218	0x3cd7e690	0.026355058
219	0x3d81593f	0.063158505
220	0xbdf46710	-0.1193372
221	0x3e633076	0.22186455
222	0xbe0d9ba7	-0.13828908
223	0x3e13a78e	0.14419386
224	0xbdc22eaf	-0.094815604
225	0x3e54b781	0.20773126
226	0xbcfd1903	-0.030895716
227	0xbe89a13f	-0.26880834
228	0x3e6e4081	0.23266794
229	0xbe051bed	-0.12998934
230	0xbe39bd6c	-0.18138665
231	0xbe1131e1	-0.14179184
232	0xbaca2680	-0.0015422851
233	0x3d2c7cc0	0.04211116
234	0x3d394549	0.04523209
235	0xbd8b1e10	-0.06792843
236	0xbd54fade	-0.051997058
237	0xbe7e120b	-0.2481157
238	0xbd7fa20c	-0.0624104
239	0xbd256502	-0.04037953
240	0xbe3d4a51	-0.1848538
241	0x3d6e4da2	0.058179505
242	0xbd2e3b3d	-0.042536963
243	0xbe04e011	-0.129761
244	0x3db2b709	0.087263174
245	0x3e531009	0.20611586
246	0x3d71e281	0.0590539
247	0x3e009e80	0.12560463
248	0x3cbc1cf6	0.022963028
249	0x3d1dd0b4	0.038529113
250	0xbc19b604	-0.009381775
251	0xbd98619f	-0.07440495
252	0x3da058bc	0.07829425
253	0x3e12636c	0.14295739
254	0x3c17f191	0.0092739025
255	0xbe02db0e	-0.12778875

linears.5.bias f4 [50]
0	0xba210175	-0.000614188
1	0x3a49079f	0.0007668677
2	0x3a21dd86	0.0006174672
3	0xb9879bed	-0.0002586538
4	0xb966a880	-0.0002199728
5	0x3852779d	5.01793e-05
6	0x397a0f83	0.00023847636
7	0xb7b9dd60	-2.2156804e-05
8	0x3904f13f	0.00012678372
9	0x39681fdf	0.00022137117
10	0xb9ba37d3	-0.00035518277
11	0xb890b584	-6.900265e-05
12	0xb900b2d4	-0.0001227365
13	0xb9d3b77a	-0.00040381757
14	0x3ab99c8e	0.0014161037
15	0xb9ee20fc	-0.00045419473
16	0x39c8d686	0.00038306805
17	0xba720152	-0.0009231764
18	0xb861a2d2	-5.379582e-05
19	0xba1bb664	-0.0005939959
20	0xba5e3145	-0.00084759697
21	0x3978f454	0.00023742142
22	0x39c68e5e	0.00037871575
23	0xb8578166	-5.1380506e-05
24	0x3a356f20	0.0006921161
25	0x372e13be	1.0375805e-05
26	0xb9e3b17e	-0.00043429056
27	0x39cfdd1c	0.00039646856
28	0x39532a7b	0.00020138353
29	0x39144782	0.00014141019
30	0xba092c5f	-0.0005232747
31	0x3775a078	1.46405e-05
32	0xb9eac275	-0.0004477684
33	0xba0315d7	-0.0005000508
34	0x3a1643e9	0.00057321653
35	0x388fdd9f	6.8600515e-05
36	0x3a483fd7	0.00076389074
37	0x3a6921e8	0.0008893297
38	0xb9b5bd24	-0.0003466393
39	0xb9e96081	-0.00044513124
40	0xba391980	-0.000706099
41	0xba42063f	-0.00074014434
42	0x3935fcee	0.00017355729
43	0x38409bd6	4.59215e-05
44	0xb882b6f8	-6.232964e-05
45	0xb9ffdf3e	-0.00048803719
46	0x38f68057	0.00011754099
47	0xba3f8026	-0.00073051674
48	0xb981dbe3	-0.00024768626
49	0x3a184489	0.00058085524
