Archived Code/Stan TPAMI/1D/FODE/rowdy_tune/1D_FODE_rowdy_tune39_5.pt (torch, 89504 bytes, 22 tensors)

omega1 f4 [9, 1]
1.0012236 0.99944067 0.9989494 0.9983063 0.9997149 1.0011677 1.0016167 1.0006979
1.0193957
00000000: 1828 803f 58db 7f3f 26bb 7f3f 0091 7f3f
00000010: 51ed 7f3f 4326 803f fa34 803f de16 803f
00000020: 8f7b 823f

alpha f4 [6, 9]
0.015553119 -0.01587288 -0.028584052 -0.036295757 -0.018355818 0.020544795 0.03308558 0.008632613
0.27292797 0.026485544 -0.009707292 -0.015080296 -0.038808234 0.032311864 0.021282727 0.021367542
0.009180196 0.38403586 0.029524038 0.010610932 0.011125215 0.00046822257 -0.014568116 0.010891124
0.010588464 0.027771968 0.4192229 0.023600709 0.019073825 0.008890145 0.054730628 -0.008103715
0.012136471 0.027131023 0.044438764 0.43211195 0.009724376 0.010617306 -0.0007918942 0.078541175
0.013099982 0.022823144 0.011735129 0.004056889 0.3979939 -0.009777566 -0.01336086 -0.009019652
0.035619702 -0.01893404 -0.0047484934 -0.023622883 -0.0035975736 0.29779822
00000000: 82d2 7e3c d807 82bc 1a29 eabc dcaa 14bd
00000010: f15e 96bc 8f4d a83c bf84 073d ce6f 0d3c
00000020: 37bd 8b3e 36f8 d83c 550b 1fbc 5913 77bc
00000030: 62f5 1ebd 7259 043d 1d59 ae3c fc0a af3c
00000040: 8868 163c 59a0 c43e 65dc f13c 79d9 2d3c
00000050: 8946 363c c57b f539 1baf 6ebc af70 323c
00000060: 3d7b 2d3c 0a82 e33c 62a4 d63e 4656 c13c
00000070: b640 9c3c f9a7 113c 392d 603d 72c5 04bc
00000080: 0dd8 463c e141 de3c 6c05 363d c73d dd3e
00000090: fd52 1f3c 36f4 2d3c 1f97 4fba 32da a03d
000000a0: 4fa1 563c 9af7 ba3c b344 403c a7ef 843b
000000b0: dbc5 cb3e 1632 20bc 82e7 5abc 2ac7 13bc
000000c0: f7e5 113d 8f1b 9bbc 4099 9bbb c784 c1bc
000000d0: 45c5 6bbb 0279 983e

omega f4 [6, 9]
0.100125335 0.099738896 0.097902164 0.09982961 0.10114602 0.099515796 0.096701294 0.098991804
0.13685803 0.09992573 0.098352104 0.097203076 0.10174374 0.0894061 0.09948484 0.086929105
0.09224738 0.12485071 0.09828902 0.099258155 0.10546468 0.11108594 0.082255945 0.097238466
0.10209181 0.12201611 0.08066029 0.09501273 0.09435733 0.0928553 0.11722377 0.068984486
0.107721396 0.10288354 0.08398952 0.04146362 0.091815345 0.09009726 0.09780514 0.0851408
0.11420463 0.09256133 0.110332854 0.097594544 0.033735197 0.09062662 0.08102697 0.068345174
0.02980231 0.09368211 0.008022661 0.08341288 0.09921286 0.023211466
00000000: 830e cd3d e843 cc3d ee80 c83d 7773 cc3d
00000010: a525 cf3d f0ce cb3d 540b c63d 37bc ca3d
00000020: 8324 0c3e dca5 cc3d d46c c93d 6812 c73d
00000030: 065f d03d 8c1a b73d b5be cb3d e307 b23d
00000040: 32ec bc3d bbb1 ff3d c14b c93d dc47 cb3d
00000050: defd d73d 0681 e33d ce75 a83d f624 c73d
00000060: 8315 d13d 95e3 f93d 3931 a53d 0996 c23d
00000070: 6a3e c13d eb2a be3d 0413 f03d bd47 8d3d
00000080: 099d dc3d 9bb4 d23d b302 ac3d c2d5 293d
00000090: af09 bc3d ea84 b83d 104e c83d 4d5e ae3d
000000a0: 1ee4 e93d cb90 bd3d 31f6 e13d a6df c73d
000000b0: eb2d 0a3d 739a b93d 78f1 a53d 8ef8 8b3d
000000c0: f923 f43c 68dc bf3d 7b71 033c 5fd4 aa3d
000000d0: 1d30 cb3d f925 be3c

linears.0.weight f4 [50, 1]
0.1504589 0.04309918 -0.07563355 -0.1255605 -0.04896633 -0.061181698 0.09947436 -0.08826493
0.30177096 0.19340046 0.10577613 -0.4064254 0.10864605 -0.028628731 -0.205245 0.15841798
-0.27656466 0.38560277 -0.2788224 0.3113417 0.27370512 -0.25564906 0.36035216 -0.01655196
-0.052204605 0.3034088 0.32622948 -0.19136176 -0.05766482 0.13363901 -0.034495488 -0.021420725
0.009563319 0.09448658 -0.18415475 0.18544741 -0.09112318 0.11361351 0.3573967 0.1802092
-0.37134817 -0.37143376 0.19418262 -0.015913535 -0.21652299 0.071658015 0.11821257 0.101679765
0.05060963 0.13741156
00000000: e611 1a3e c488 303d c3e5 9abd ef92 00be
00000010: eb90 48bd a999 7abd 37b9 cb3d 3ec4 b4bd
00000020: b981 9a3e c50a 463e 28a1 d83d fd16 d0be
00000030: d281 de3d cd86 eabc bf2b 52be 5338 223e
00000040: e299 8dbe ba6d c53e cfc1 8ebe 2e68 9f3e
00000050: 1423 8c3e 6fe4 82be 1480 b83e fa97 87bc
00000060: 7fd4 55bd 6658 9b3e 8d07 a73e 56f4 43be
00000070: f231 6cbd aad8 083e 244b 0dbd 847a afbc
00000080: 78af 1c3c 2e82 c13d 1093 3cbe ede5 3d3e
00000090: ca9e babd 33ae e83d b3fc b63e c388 383e
000000a0: 5921 bebe 912c bebe cfd7 463e 1a5d 82bc
000000b0: 34b8 5dbe 70c1 923d 6f19 f23d 7b3d d03d
000000c0: 0b4c 4f3d 9eb5 0c3e

linears.0.bias f4 [50]
-0.009557667 0.027446982 0.019223463 0.022768956 0.009589513 -0.032508742 -0.00036082717 -0.019054862
0.09127872 -0.052278798 0.0032691795 -0.042728603 -0.0010181569 -0.03290958 -0.038993653 0.026711846
-9.325407e-05 0.017641393 0.03902751 0.026557708 0.043681446 -0.010159717 0.021680776 -0.02028159
0.010376795 -0.05489544 0.00023448146 -0.04643651 0.0065698707 0.03604655 -0.016927036 -0.03252288
0.03978262 -0.027723106 0.052510954 0.0059641106 0.0072410917 0.025791299 -0.00031652703 -0.03155106
-0.013480993 0.0016364879 0.027604537 -0.02664703 -0.03080022 0.010363435 -0.012079882 -0.059187308
-0.054623622 0.007114321
00000000: c397 1cbc 7ed8 e03c 867a 9d3c f685 ba3c
00000010: 551d 1d3c e327 05bd 672d bdb9 f118 9cbc
00000020: 56f0 ba3d 4b22 56bd bb3f 563b 3004 2fbd
00000030: ad73 85ba 32cc 06bd cfb7 1fbd cdd2 da3c
00000040: 6691 c3b8 af84 903c 4fdb 1f3d 8d8f d93c
00000050: 51eb 323d f174 26bc e29b b13c 9425 a6bc
00000060: 6f03 2a3c 0ada 60bd 23df 7539 3634 3ebd
00000070: 1248 d73b 8ca5 133d 91aa 8abc b636 05bd
00000080: 1af3 223d 911b e3bc ba15 573d 966e c33b
00000090: ae46 ed3b 4648 d33c 8af3 a5b9 af3b 01bd
000000a0: 62df 5cbc 6c7f d63a e922 e23c df4a dabc
000000b0: be50 fcbc 66cb 293c b3ea 45bc 646e 72bd
000000c0: 05bd 5fbd 401f e93b

linears.1.weight f4 [50, 50]
0.041115493 -0.013139556 -0.010228891 0.011840359 -0.2981425 -0.28191394 0.18091011 -0.10082203
0.24150835 0.19263276 0.15780336 -0.17250341 -0.022600371 0.06423012 -0.06492084 -0.06801455
0.1133216 0.055242475 -0.02339686 -0.07538589 0.021125108 0.14280683 -0.20479055 0.033931803
-0.04703438 -0.102939956 -0.005290791 -0.29555544 0.06671572 -0.07258368 -0.1555347 0.094001494
0.09041988 0.14351748 -0.006788464 -0.12727803 0.1288336 0.22702377 0.12236599 -0.03570497
-0.07625126 -0.31203932 -0.10105373 0.16635662 -0.06483036 0.016160859 -0.16276051 -0.1946483
-0.17995532 -0.118037164 -0.043981206 -0.25638336 0.11134847 -0.044281784 0.09838051 0.027714692
0.039495267 0.04021281 0.28190222 0.11027461 0.007942545 -0.07125078 0.1541931 -0.29869536
-0.0025013622 -0.06855976 0.09155578 -0.09841544 0.1194984 -0.07284671 0.24492824 -0.3306312
0.013515826 -0.28050262 0.09619901 0.083736174 -0.030250456 0.18401577 -0.07904276 0.030558756
0.17983235 -0.08549331 -0.17272078 0.023295393 0.2543251 -0.15799122 0.38619125 0.01813743
-0.03224078 -0.22705619 0.20434548 -0.14413366 -0.004581462 -0.013296718 -0.14516014 -0.058439534
0.03179777 -0.14483595 0.23513755 -0.15814936 -0.05440266 0.025885895 -0.079772815 0.05743528
-0.06241735 0.035017144 0.13007882 0.022628272 0.0056463764 -0.013425783 -0.036266234 -0.031254165
-0.3712169 -0.303399 0.048377175 0.117412105 0.16599484 0.1324865 -0.18243146 -0.034812473
0.03970605 -0.016846262 -0.022935495 0.1933262 0.031268273 -0.30020577 -0.0021457388 -0.13692
-0.025773142 -0.06642643 -0.092066616 0.037075303 0.047285087 -0.13788702 -0.0327078 0.11315471
0.161495 0.17603698 -0.019978506 -0.12830026 -0.29390463 0.057606705 -0.24374677 -0.111158185
0.06079976 -0.009713125 0.057918895 0.047727175 -0.13193835 0.02818424 -0.019566955 -0.010294675
0.2569753 0.16400541 0.048807796 0.1454511 0.09721174 -0.16511083 -0.091947615 -0.019438026
0.051850222 0.2556288 -0.020917015 0.12980461 0.11888567 0.03926522 0.14509043 0.2279338
-0.116918184 0.19505602 0.27771306 0.06709152 -0.04898353 0.12892453 -0.12975647 0.1366866
0.06845909 0.019211011 -0.20373692 0.11289014 -0.08639948 0.14255342 -0.18492228 0.061247643
-0.12809516 -0.0074161547 0.29847085 0.0015261747 -0.14532639 0.04213364 -0.124133274 0.1581843
0.013345795 0.034052726 0.05278877 -0.096383065 0.0038049098 0.15127121 0.13523844 -0.08384623
-0.24051481 -0.023670154 0.18107809 0.07595754 0.11909778 0.17749253 0.1114293 0.007214875
0.03699944 -0.17417683 -0.03240611 0.092062764 0.15099145 -0.14130116 -0.048576523 0.15013914
-0.05332441 0.26640925 -0.31123203 -0.16028932 0.18596292 0.19402298 -0.023646276 -0.04044947
-0.14068465 -0.32435676 0.15681121 0.0003255613 0.1873341 0.06772458 0.15706395 0.09386473
-0.013341254 0.1814793 0.041048527 -0.14757656 -0.06890978 0.12615821 -0.09143748 0.06829973
0.09473726 0.24743107 0.08238694 -0.24578404 -0.060667343 0.100729875 -0.06533786 -0.11659697
0.18839954 0.046418898 -0.05121662 0.073549405 0.24169266 0.040068083 -0.10083838 -0.025200682
00000000: b868 283d 4b47 57bc 1497 27bc 11fe 413c
00000010: 22a6 98be 0657 90be 8040 393e c87b cebd
00000020: f74d 773e 8641 453e 3497 213e bca4 30be
00000030: 6a24 b9bc 158b 833d 38f5 84bd 364b 8bbd
00000040: 2815 e83d ef45 623d c6aa bfbc eb63 9abd
00000050: 900e ad3c f43b 123e 9db4 51be 13fc 0a3d
00000060: 1fa7 40bd 2fd2 d2bd 5f5e adbb 0b53 97be
00000070: 40a2 883d c1a6 94bd 7d44 1fbe db83 c03d
00000080: 0f2e b93d 3ff6 123e c371 debb 2c55 02be
00000090: f5ec 033e eb78 683e 059b fa3d 603f 12bd
000000a0: 9f29 9cbd 9ec3 9fbe 42f5 cebd 6459 2a3e
000000b0: c8c5 84bd c763 843c b1aa 26be e251 47be
000000c0: 3546 38be 78bd f1bd a325 34bd ae44 83be
000000d0: ab0a e43d d160 35bd b97b c93d ec09 e33c
000000e0: cac5 213d 30b6 243d 7d55 903e a8d7 e13d
000000f0: 7321 023c eeeb 91bd cce4 1d3e 99ee 98be
00000100: e5ed 23bb 0f69 8cbd 9981 bb3d 098e c9bd
00000110: 94bb f43d a830 95bd 78ce 7a3e 7e48 a9be
00000120: 7c71 5d3c 0a9e 8fbe fd03 c53d df7d ab3d
00000130: cecf f7bc a16e 3c3e 2ce1 a1bd 5b56 fa3c
00000140: f925 383e 1e17 afbd b7dd 30be fbd5 be3c
00000150: e636 823e 73c8 21be dcba c53e f394 943c
00000160: e80e 04bd 6b81 68be f13f 513e c697 13be
00000170: 1720 96bb 7ada 59bc dca4 14be 4b5e 6fbd
00000180: 613e 023d e04f 14be e6c7 703e e8f1 21be
00000190: 53d5 5ebd a80e d43c ee5f a3bd 4241 6b3d
000001a0: 56a9 7fbd 236e 0f3d 6233 053e ed5e b93c
000001b0: 3d05 b93b d1f7 5bbc e78b 14bd 5e04 00bd
000001c0: 2410 bebe 1d57 9bbe 2527 463d c275 f03d
000001d0: 8dfa 293e 8baa 073e 50cf 3abe 8697 0ebd
000001e0: d0a2 223d 2c01 8abc 38e3 bbbc 4ef7 453e
000001f0: 2913 003d 92b4 99be 869f 0cbb c234 0cbe
00000200: 3222 d3bc 950a 88bd 6c8d bcbd 46dc 173d
00000210: 02ae 413d 4132 0dbe 9df8 05bd a8bd e73d
00000220: f25e 253e 0a43 343e f7a9 a3bc 2561 03be
00000230: ab7a 96be 02f5 6b3d c198 79be e7a6 e3bd
00000240: 2b09 793d cd23 1fbc 5d3c 6d3d 927d 433d
00000250: d91a 07be a3e2 e63c e14a a0bc ffaa 28bc
00000260: 4492 833e 09f1 273e afea 473d 22f1 143e
00000270: f316 c73d d012 29be 084f bcbd 7f3c 9fbc
00000280: e660 543d c7e1 823e 295a abbc 80eb 043e
00000290: 557a f33d 91d4 203d 9692 143e 7a67 693e
000002a0: cd72 efbd c4bc 473e 6830 8e3e 4767 893d
000002b0: f4a2 48bd cb04 043e e1de 04be 92f7 0b3e
000002c0: 4834 8c3d 6960 9d3c 69a0 50be f232 e73d
000002d0: 36f2 b0bd 86f9 113e 445c 3dbe cfde 7a3d
000002e0: 612b 03be 3703 f3bb 2cd1 983e ed09 c83a
000002f0: 71d0 14be 5394 2c3d 9639 febd 11fb 213e
00000300: 52a8 5a3c df7a 0b3d 0a39 583d 7c64 c5bd
00000310: cb5b 793b d7e6 1a3e f27b 0a3e 92b7 abbd
00000320: 8449 76be e9e7 c1bc 896c 393e a08f 9b3d
00000330: 89e9 f33d 9ac0 353e 0b35 e43d c26a ec3b
00000340: ba8c 173d 695b 32be 45bc 04bd 678b bc3d
00000350: 819d 1a3e 40b1 10be 2df8 46bd 13be 193e
00000360: b26a 5abd cb66 883e ce59 9fbe e222 24be
00000370: 106d 3e3e f6ad 463e d6b5 c1bc 58ae 25bd
00000380: a30f 10be 1712 a6be 1e93 203e 19b0 aa39
00000390: 83d4 3f3e 2fb3 8a3d 5fd5 203e 273c c03d
000003a0: 4695 5abc b6d5 393e 8022 283d 4f1e 17be
000003b0: 9220 8dbd 9e2f 013e 9343 bbbd bbe0 8b3d
000003c0: 9c05 c23d 925e 7d3e 7cba a83d d0ae 7bbe
000003d0: 527e 78bd 774b ce3d dbcf 85bd 64ca eebd
000003e0: cfeb 403e be21 3e3d 85c8 51bd 12a1 963d
000003f0: 487e 773e 6e1e 243d 5a84 cebd a971 cebc

linears.1.bias f4 [50]
0.040553115 -0.009311624 0.00664736 -0.114780605 0.008284936 0.0074504144 0.010727008 0.018523946
-0.03918127 0.01745205 0.056001276 0.004357459 -0.015935771 -0.011187783 0.039347272 -0.017211845
0.062302046 0.03697901 -0.0051864893 -0.05193624 -0.025417782 -0.048183687 -0.042418852 0.046774305
-0.04274664 -0.004993406 -0.036377404 -0.03573681 -0.008572055 -0.03298918 -0.016184295 0.011528413
-0.004396527 0.0028163427 0.0033771545 -0.010155563 0.05599456 0.0026231576 -0.011411332 -0.06393021
-0.013947005 0.030883502 0.011442086 0.019265892 0.019478414 0.03786556 -0.011817992 -0.029864922
0.027932022 -0.09428219
00000000: 061b 263d c88f 18bc 19d2 d93b 1812 ebbd
00000010: 8abd 073c 9b22 f43b 55c0 2f3c 88bf 973c
00000020: 8a7c 20bd 9af7 8e3c 9861 653d 04c9 8e3b
00000030: bc8b 82bc f74c 37bc 9b2a 213d dbff 8cbc
00000040: 6e30 7f3d 4d77 173d 6df3 a9bb 18bb 54bd
00000050: f438 d0bc 425c 45bd 64bf 2dbd 6a96 3f3d
00000060: 1a17 2fbd ba9f a3bb 7900 15bd c360 12bd
00000070: ce71 0cbc aa1f 07bd ed94 84bc abe1 3c3c
00000080: be10 90bb 6492 383b 4053 5d3b 8563 26bc
00000090: 8d5a 653d 48e9 2b3b 98f6 3abc d8ed 82bd
000000a0: fb81 64bc 66ff fc3c 9677 3b3c 81d3 9d3c
000000b0: 3291 9f3c eb18 1b3d 40a0 41bc 48a7 f4bc
000000c0: b2d1 e43c 0517 c1bd

linears.2.weight f4 [50, 50]
-0.06965955 -0.07474677 0.0052334117 0.0034440854 -0.08379835 0.11569341 0.07266793 0.17602944
-0.31070688 0.27859485 -0.19074057 -0.026705828 -0.15891941 0.020028427 -0.039551836 -0.057305627
-0.14249088 0.040549405 -0.040973164 0.18454853 -0.07678271 0.10443492 0.07246214 0.10273908
-0.06604555 0.109350584 0.048597667 -0.05647393 0.047302235 0.112403765 -0.16457613 -0.013296718
-0.17015612 -0.07707232 -0.058027864 0.23042525 -0.024445081 -0.24202278 -0.07492425 -0.23350635
0.077648066 0.14769349 -0.037817 0.29494467 -0.06571531 -0.20179923 0.25888115 -0.1585534
0.016672244 0.051830307 -0.101180196 0.17741786 -0.108360805 -0.0070962952 0.07672254 -0.14246823
-0.063084766 -0.24448667 -0.31835675 -0.3455416 0.06216804 0.20839307 0.012840101 0.097104736
0.1446434 0.14808257 0.36274466 -0.15383434 -0.036138542 0.08134555 -0.082661666 0.015103302
0.053866748 -0.11685315 -0.27773657 -0.02481326 0.0980068 0.123676434 0.027221568 -0.013320031
-0.07422298 -0.16576122 0.13369799 -0.007747038 -0.04759842 0.014077541 0.1266937 -0.037808962
0.03572986 0.13360752 -0.15093552 0.08077973 0.28837827 -0.22446692 -0.11487168 -0.035427753
-0.052817777 0.13017239 -0.013488493 0.019627823 0.08304359 -0.046757616 -0.19394988 0.1509587
-0.28167197 0.008585948 0.115088426 0.13383646 0.13598402 0.081118844 -0.18837534 0.15181148
-0.034538284 0.08374344 0.08301554 -0.01579991 -0.045571435 -0.15847006 -0.07529848 0.03581177
0.07218733 0.099688984 0.028033594 -0.07041456 0.15411443 -0.042246755 -0.10619408 -0.11634784
-0.008436562 0.091042764 0.1853961 -0.012170376 0.2925673 -0.108367845 0.02338277 0.008678479
-0.042319138 -0.091517456 0.12070434 -0.026581544 0.12098387 -0.08759009 0.21939705 0.03214612
0.04929081 -0.079910114 0.085939094 0.1911895 0.016740914 -0.050763406 0.0010508046 -0.0069565848
-0.1697243 0.2642508 -0.08330402 -0.12214078 -0.19085021 0.064844444 -0.014332263 -0.2327492
-0.090911366 -0.15272935 0.29743615 -0.11895598 0.0149755655 0.0025251687 -0.10301886 0.06336579
-0.15211971 -0.13301003 0.18261929 -0.11084573 0.09114821 0.034566082 0.08256657 -0.047053527
-0.1757363 -0.0066122687 -0.025640111 -0.33109993 0.03283481 -0.047654543 -0.2525514 -0.1329976
0.12273489 0.022622883 -0.18086137 -0.08748921 0.041607607 0.16883613 -0.007279232 0.29319617
-0.24541682 -0.17906925 -0.015457485 0.1869917 -0.014810729 0.12874734 -0.013584629 -0.0058315382
0.08874196 -0.07224619 0.16621338 0.061280094 0.0797716 0.12874685 0.18351218 0.059578504
0.1325829 0.14079225 -0.2700452 0.096080296 0.1429185 -0.12481536 0.10869194 -0.11774229
0.10785086 0.29868528 -0.051256675 0.20835423 0.019146709 -0.02257158 -0.10189037 0.13249254
0.07609272 0.003860672 0.12780023 -0.17061372 0.09447727 -0.18646666 0.10712592 -0.20835574
0.23513451 -0.015455833 -0.059244875 0.2622648 0.031348567 0.15785922 0.022400945 -0.17761984
0.03787817 0.025395976 0.07509417 0.032118347 -0.073590055 -0.20000511 -0.28770116 0.17412962
-0.16547653 0.03337655 0.17286588 0.0077565345 -0.11200504 0.1314213 0.12228357 -0.03683472
00000000: aba9 8ebd d614 99bd 0a7d ab3b 2ab6 613b
00000010: 789e abbd abf0 ec3d ecd2 943d 1041 343e
00000020: f914 9fbe fca3 8e3e 7f51 43be 2ec6 dabc
00000030: c5bb 22be a812 a43c 1b01 22bd 4eb9 6abd
00000040: 21e9 11be 2217 263d 7ad3 27bd 4afa 3c3e
00000050: 4140 9dbd fae1 d53d 0867 943d de68 d23d
00000060: e442 87bd 33f3 df3d 590e 473d 3551 67bd
00000070: fdbf 413d f233 e63d a586 28be 7ada 59bc
00000080: 683d 2ebe 18d8 9dbd a0ae 6dbd 99f4 6b3e
00000090: 0d41 c8bc d2d4 77be e371 99bd 4a1c 6fbe
000000a0: f305 9f3d f63c 173e 00e6 1abd fd02 973e
000000b0: c095 86bd 75a4 4ebe 128c 843e d35b 22be
000000c0: 3b94 883c 044c 543d 9037 cfbd 07ad 353e
000000d0: 45ec ddbd 0a88 e8bb b520 9d3d 31e3 11be
000000e0: 9632 81bd b75a 7abe a8ff a2be d4ea b0be
000000f0: eaa3 7e3d fe64 553e 495f 523c d9de c63d
00000100: 661d 143e f5a2 173e abb9 b93e c086 1dbe
00000110: 0206 14bd 7f98 a63d 854a a9bd d773 773c
00000120: 61a3 5c3d b450 efbd 7d33 8ebe 2e45 cbbc
00000130: cab7 c83d 124a fd3d c4ff de3c 423c 5abc
00000140: 3802 98bd 4fbd 29be 20e8 083e ddda fdbb
00000150: 90f6 42bd 7da5 663c febb 013e 92dd 1abd
00000160: 7959 123d 69d0 083e d78e 1abe d86f a53d
00000170: 51a6 933e a8da 65be d841 ebbd b11c 11bd
00000180: 7457 58bd e94b 053e d7fe 5cbc 87ca a03c
00000190: c212 aa3d ea84 3fbd cc9a 46be eb94 1a3e
000001a0: 4f37 90be 13ac 0c3c 7bb3 eb3d 6d0c 093e
000001b0: 653f 0b3e a321 a63d 77e5 40be 7874 1b3e
000001c0: 0478 0dbd ae81 ab3d 0d04 aa3d d06e 81bc
000001d0: 1da9 3abd fa45 22be 1736 9abd 5daf 123d
000001e0: f3d6 933d bd29 cc3d b5a6 e53c 8235 90bd
000001f0: 2cd0 1d3e ef0a 2dbd 487c d9bd c747 eebd
00000200: 8139 0abc a174 ba3d 7ad8 3d3e 4266 47bc
00000210: 62cb 953e f6ef ddbd 398d bf3c 2e30 0e3c
00000220: d556 2dbd 816d bbbd d633 f73d 8ac1 d9bc
00000230: 64c6 f73d 6f62 b3bd 9fa9 603e a6ab 033d
00000240: 29e5 493d eaa7 a3bd d600 b03d 2ec7 433e
00000250: 3e24 893c 4aed 4fbd 27bb 893a 10f4 e3bb
00000260: 35cc 2dbe e14b 873e 4c9b aabd f224 fabd
00000270: 3d6e 43be 2acd 843d ded1 6abc ce55 6ebe
00000280: bd2f babd 1565 1cbe 8d49 983e 319f f3bd
00000290: 135c 753c 4d7d 253b 8dfb d2bd ecc5 813d
000002a0: 45c5 1bbe c833 08be 8d00 3b3e 1603 e3bd
000002b0: eaab ba3d 2a95 0d3d a918 a93d 33bb 40bd
000002c0: 37f4 33be bbab d8bb 360b d2bc ee85 a9be
000002d0: cb7d 063d 6931 43bd 6b4e 81be 8630 08be
000002e0: 6e5c fb3d a053 b93c b933 39be 8b2d b3bd
000002f0: bd6c 2a3d 61e3 2c3e a086 eebb cf1d 963e
00000300: 8c4e 7bbe ee5d 37be 6441 7dbc c17a 3f3e
00000310: b3a8 72bc 58d6 033e 1092 5ebc 7d16 bfbb
00000320: 58be b53d cff5 93bd d733 2a3e d600 7b3d
00000330: 4b5f a33d 37d6 033e 9eea 3b3e 9708 743d
00000340: d0c3 073e d82b 103e 5d43 8abe bfc5 c43d
00000350: 3a59 123e 329f ffbd e199 de3d df22 f1bd
00000360: e9e0 dc3d 47ed 983e 85f2 51bd d05a 553e
00000370: 8fd9 9c3c 09e8 b8bc e6ab d0bd 20ac 073e
00000380: 80d6 9b3d 5403 7d3b 10de 023e 5db5 2ebe
00000390: 4d7d c13d 1ef1 3ebe d664 db3d 355b 55be
000003a0: 1ac7 703e 763a 7dbc c1aa 72bd 9247 863e
000003b0: 5b67 003d d9a5 213e 3082 b73c fae1 35be
000003c0: 2426 1b3d 390b d03c f9ca 993d 878e 033d
000003d0: 62b6 96bd 24ce 4cbe 914d 93be 094f 323e
000003e0: ae72 29be d9b5 083d c103 313e 872a fe3b
000003f0: e662 e5bd 4e93 063e cf6f fa3d 01e0 16bd

linears.2.bias f4 [50]
-0.03962039 -0.013623537 -0.052348502 -0.019194221 -0.02554928 0.026965862 0.04104817 0.022110539
-0.02632181 0.025830906 -0.016498124 0.006312726 0.008560325 0.016287819 0.021437172 0.007207617
-0.042676464 0.04512033 -0.025292415 -0.0033696382 -0.013680147 -0.049794845 -0.041432526 -0.059793968
-0.043486856 0.030781327 0.015521214 -0.008679274 -0.054090887 1.066581e-05 0.0060825436 -0.03552961
0.03655696 0.00900979 -0.052124422 0.01975353 -0.0109097855 -0.025979636 0.035285957 0.0040410673
0.035442453 0.0097510945 0.04827789 -0.009424044 -0.029915877 0.0025877424 0.016395852 0.004956831
-0.060157273 0.0298066
00000000: fd48 22bd 4135 5fbc 626b 56bd 333d 9dbc
00000010: b94c d1bc 83e7 dc3c 2022 283d 2921 b53c
00000020: d6a0 d7bc 569b d33c 1327 87bc fcda ce3b
00000030: 9b40 0c3c 086e 853c 029d af3c e02d ec3b
00000040: 84cd 2ebd 18d0 383d 0a32 cfbc 26d5 5cbb
00000050: b222 60bc aef5 4bbd 27b5 29bd 85ea 74bd
00000060: 461f 32bd 1f29 fc3c b14c 7e3c 8333 0ebc
00000070: 688e 5dbd 4ef1 3237 1350 c73b 7f87 11bd
00000080: c0bc 153d cc9d 133c 6b80 55bd 28d2 a13c
00000090: f5be 32bc 3fd3 d4bc 0288 103d ee6a 843b
000000a0: 1b2c 113d 0ec3 1f3c 09bf 453d 4e67 1abc
000000b0: 2412 f5bc 1d97 293b 9850 863c ea6c a23b
000000c0: 7967 76bd f92c f43c

linears.3.weight f4 [50, 50]
0.09381643 -0.041021604 -0.08784533 -0.12777983 -0.07787991 0.09607004 0.038605373 0.04840203
0.23164648 -0.22007123 0.18971004 -0.0402263 0.0016363527 0.15235506 -0.12341562 0.03719085
-0.0057452545 -0.013329224 -0.27050945 -0.14453286 -0.20930497 -0.23641314 -0.25319082 0.11363854
-0.2949764 0.1561578 0.17227657 0.21502592 0.033835318 0.052705593 0.0155551145 -0.07371912
-0.32519677 -0.019399164 -0.14018819 -0.04466495 -0.012895206 -0.06082296 0.19344912 0.064404964
-0.14091188 0.046377894 -0.018943325 -0.11434771 -0.032861084 0.14542577 0.075267814 -0.03679607
-0.053964123 0.19104938 -0.021704476 0.018952271 -0.11204819 0.15861553 0.29490402 -0.16503622
0.008343629 0.10806268 -0.1394679 -0.20965838 0.0805469 -0.025951954 0.038805306 -0.06486171
0.06936785 -0.2141893 -0.049809456 -0.13919829 0.014556489 -0.055313554 -0.13283321 0.09322318
0.08838665 0.21488312 -0.14213748 -0.017562598 -0.08822025 -0.06146287 0.011406136 -0.0063831923
0.13373873 -0.24804147 0.15386175 0.14328225 0.014081961 0.101166435 -0.016668396 0.15520415
-0.047816433 0.2473864 -0.095524654 0.1687744 0.09505381 0.022166893 0.05443524 0.1664353
-0.35711387 -0.09061375 0.11676423 -0.09149067 -0.2585534 0.3115638 0.18980096 0.010018059
0.012448783 -0.28870314 -0.08760425 -0.016983436 -0.054196864 -0.041891865 0.14498463 -0.02226465
0.046650175 -0.05590154 -0.010713505 0.006865001 8.550744e-05 -0.15513629 0.10554115 0.012854336
-0.10670644 0.037425444 -0.10252525 -0.112552054 -0.24283843 0.12401727 0.0030756355 -0.07088788
0.054989457 0.15276527 0.023515591 0.03768537 0.18178567 -0.09210012 0.0741476 0.16536777
0.06799334 0.24031404 -0.05152833 -0.2302669 0.13806298 -0.20115152 0.07334288 0.015071621
0.13622335 -0.014644203 0.05792838 0.048340645 0.0016425571 -0.27712592 0.0705096 -0.0796173
-0.11827075 0.10082555 -0.102410674 -0.12270824 -0.0015110021 -0.05193491 0.24664676 0.08732428
-0.16191009 0.13715912 0.10708015 0.26753968 0.07082584 0.025684847 0.18136024 0.067733996
0.17145243 -0.018504167 -0.24311846 0.002353571 -0.05543209 -0.24494173 -0.11545956 -0.048627585
0.06645894 -0.01739877 0.007802782 -0.010319348 -0.011616131 -0.046481825 0.14448619 -0.18198207
-0.011646357 -0.0072070598 -0.14097285 -0.054553848 -0.104734465 0.23437834 -0.037526958 -0.025929369
-0.033655044 0.2563653 0.10800016 0.004867556 -0.016165487 0.05915946 -0.084071435 0.012751843
0.12697542 -0.095306486 0.1155003 -0.086212404 -0.08565062 0.2119932 -0.011960566 -0.24634254
-0.27660152 0.031370286 0.11603241 -0.037970703 0.12571652 -0.13237819 -0.08235973 0.15448804
0.13031325 0.07725364 -0.13051544 -0.06428743 0.08004249 0.051180035 0.0069242273 -0.06205949
-0.00043857662 -0.0008000815 0.095627114 -0.11286643 0.10042945 -0.28776035 0.14191023 0.15502319
0.07046472 0.23692948 0.0875477 0.10451792 -0.09291303 0.016312644 -0.037179217 -0.3973355
0.06210701 -0.026953282 0.22074902 -0.009886513 -0.044939693 0.11241671 -0.10697923 -0.018513277
0.13886136 -0.057130694 0.11604353 -0.045101117 0.10606385 0.08958729 0.19016282 0.12039655
00000000: d422 c03d 4506 28bd 41e8 b3bd b7d8 02be
00000010: 817f 9fbd 5ec0 c43d ab20 1e3d 3541 463d
00000020: bc34 6d3e 5a5a 61be 5943 423e 55c4 24bd
00000030: e37a d63a f702 1c3e 54c1 fcbd 6f55 183d
00000040: b042 bcbb d162 5abc 3780 8abe 6c00 14be
00000050: 0b54 56be 4916 72be 3aa2 81be 53bb e83d
00000060: 2607 97be d5e7 1f3e 4569 303e c12f 5c3e
00000070: e796 0a3d d2e1 573d e1da 7e3c 0dfa 96bd
00000080: 3180 a6be ffea 9ebc 7e8d 0fbe 98f2 36bd
00000090: 6a46 53bc 7f21 79bd 8717 463e c0e6 833d
000000a0: 344b 10be bff6 3d3d 082f 9bbc 222f eabd
000000b0: 5899 06bd 7eea 143e 0326 9a3d 7ab7 16bd
000000c0: 7c09 5dbd 73a2 433e 96cd b1bc cb41 9b3c
000000d0: 8579 e5bd 1c6c 223e a9fd 963e 41ff 28be
000000e0: b7b3 083c f74f dd3d acd0 0ebe b0b0 56be
000000f0: c6f5 a43d 3199 d4bc 50f2 1e3d 37d6 84bd
00000100: bb10 8e3d 7154 5bbe 0005 4cbd ff89 0ebe
00000110: 577e 6e3c 7790 62bd 6e05 08be cbeb be3d
00000120: 0f04 b53d 520a 5c3e 7d8c 11be 70df 8fbc
00000130: d2ac b4bd 7ec0 7bbd cde0 3a3c 192a d1bb
00000140: cef2 083e 95fe 7dbe ef8d 1d3e 95b8 123e
00000150: 06b8 663c 5930 cf3d 298c 88bc d6ed 1e3e
00000160: 2adb 43bd dc52 7d3e 6ea2 c3bd 32d3 2c3e
00000170: 92ab c23d 5897 b53c 7cf7 5e3d 046e 2a3e
00000180: a1d7 b6be b493 b9bd 1622 ef3d 765f bbbd
00000190: 1c61 84be 4a85 9f3e 2f5b 423e c922 243c
000001a0: fbf5 4b3c e6d0 93be db69 b3bd d920 8bbc
000001b0: 88fd 5dbd ce96 2bbd da76 143e 5b64 b6bc
000001c0: 4114 3f3d 03f9 64bd b287 2fbc cdf3 e03b
000001d0: 7552 b338 0cdc 1ebe f525 d83d fe9a 523c
000001e0: e888 dabd 6c4b 193d c2f8 d1bd b181 e6bd
000001f0: a3aa 78be c4fc fd3d 9a90 493b aa2d 91bd
00000200: a03c 613d 806e 1c3e c5a3 c03c f95b 1a3d
00000210: 0626 3a3e fd9e bcbd b2da 973d 2b56 293e
00000220: 1840 8b3d e214 763e 5f0f 53bd 16cb 6bbe
00000230: 6260 0d3e aafa 4dbe cb34 963d f6ee 763c
00000240: 227e 0b3e 3dee 6fbc 4f46 6d3d d700 463d
00000250: 124b d73a 73e3 8dbe 5667 903d 650e a3bd
00000260: ef37 f2bd a07d ce3d b0bc d1bd 754e fbbd
00000270: d10c c6ba b3b9 54bd f890 7c3e 12d7 b23d
00000280: c2cb 25be 7173 0c3e d64c db3d f6fa 883e
00000290: 230d 913d 0769 d23c 80b6 393e 1fb8 8a3d
000002a0: 3a91 2f3e 0d96 97bc 0cf4 78be 5e3e 1a3b
000002b0: c20c 63bd 01d2 7abe 1076 ecbd b82d 47bd
000002c0: a01b 883d de87 8ebc 7bae ff3b 7c12 29bc
000002d0: 9651 3ebc ba63 3ebd 30f4 133e 8259 3abe
000002e0: 5dd0 3ebc 3329 ecbb 305b 10be db73 5fbd
000002f0: 067f d6bd e000 703e deb5 19bd d469 d4bc
00000300: dfd9 09bd 5042 833e 302f dd3d 0580 9f3b
00000310: 7c6d 84bc 3151 723d a52d acbd 1bed 503c
00000320: d805 023e 0c30 c3bd 6c8b ec3d 2190 b0bd
00000330: 9869 afbd bf14 593e 40f6 43bc 3841 7cbe
00000340: b79e 8dbe 217e 003d 66a2 ed3d 2b87 1bbd
00000350: d5bb 003e 268e 07be 38ac a8bd 1d32 1e3e
00000360: d670 053e 2837 9e3d d7a5 05be 21a9 83bd
00000370: 51ed a33d 28a2 513d a1e4 e23b 1732 7ebd
00000380: c2f0 e5b9 90bc 51ba 26d8 c33d 8426 e7bd
00000390: f5ad cd3d 5355 93be ea50 113e 66be 1e3e
000003a0: cf4f 903d a49d 723e 354c b33d 7e0d d63d
000003b0: 3049 bebd 18a2 853c 3c49 18bd 8f6f cbbe
000003c0: ec63 7e3d 21cd dcbc 080c 623e 0bfb 21bc
000003d0: af12 38bd bb3a e63d ed17 dbbd 28a9 97bc
000003e0: ac31 0e3e e001 6abd 3ba8 ed3d f3bb 38bd
000003f0: 0138 d93d 8b79 b73d 0bba 423e 7792 f63d

linears.3.bias f4 [50]
0.01980277 0.027701149 -0.020317784 0.049069647 -0.019779384 -0.023734508 0.004872005 0.004663552
0.020692663 -0.031615276 0.01640879 -0.012305464 0.021601304 -0.022299057 -0.03490014 0.018763049
0.024330206 0.013529379 0.032076664 -0.031410415 0.008261018 -0.026584558 -0.025169235 0.025908772
-0.008672387 -0.01886313 0.021705586 -0.009344628 0.025942223 0.06961449 -0.027553864 -0.045135055
-0.06524967 0.051215075 -0.013957088 -0.024153192 -0.0007016162 0.040845882 -0.014057769 -0.022653975
-0.027551224 -0.00046998137 0.003231436 0.029630952 0.02154991 0.003596636 -0.048321646 0.03037863
-0.030285006 -0.038494937
00000000: 6b39 a23c 85ed e23c 7b71 a6bc 41fd 483d
00000010: 6008 a2bc df6e c2bc 57a5 9f3b b6d0 983b
00000020: a983 a93c 057f 01bd ba6b 863c db9c 49bc
00000030: 38f5 b03c 83ac b6bc 73f3 0ebd f7b4 993c
00000040: 2450 c73c 54aa 5d3c d262 033d 35a8 00bd
00000050: 3959 073c dcc7 d9bc b62f cebc a23e d43c
00000060: a116 0ebc da86 9abc eacf b13c 361a 19bc
00000070: c984 d43c 0b92 8e3d a4b8 e1bc 89df 38bd
00000080: 9ea1 85bd e6c6 513d 45ac 64bc eadc c5bc
00000090: abec 37ba 034e 273d 8f52 66bc d494 b9bc
000000a0: 1bb3 e1bc d567 f6b9 80c6 533b 9cbc f23c
000000b0: 7089 b03c 8ab5 6b3b ebec 45bd 9bdc f83c
000000c0: 4318 f8bc deac 1dbd

linears.4.weight f4 [50, 50]
-0.023694037 -0.05893205 0.19867982 0.030387767 0.24336082 -0.16609843 0.18861857 0.014845227
-0.16001834 0.045508385 0.17006384 0.10437796 -0.017092982 0.10430388 -0.1334731 0.27005664
-0.162508 0.07246609 0.019173888 0.032650944 0.24052504 0.21995538 0.18218733 0.14248057
-0.120613 0.23282477 0.12768544 -0.018410949 -0.06758084 0.03935639 -0.032352027 0.054514024
-0.047934927 0.19786337 -0.13560551 0.10069234 -0.1814311 -0.074061565 -0.05616625 0.062021438
-0.042206686 0.023165163 0.088016115 -0.0013035953 -0.16985542 -0.14479977 -0.018831765 -0.118477754
-0.0102438135 0.104331546 -0.115764335 -0.035769626 0.027541086 -0.10206525 -0.07958125 -0.031665113
-0.055471122 0.113970056 0.04930319 -0.27673575 -0.023877917 0.15937279 -0.35750923 -0.24409406
0.16696176 0.10240885 -0.054556 -0.1206525 0.042647652 -0.03219126 -0.12106483 0.044374894
-0.055677887 -0.114155985 -0.027286861 -0.095914505 -0.029430712 0.07500018 0.02647801 -0.002822722
0.008199599 -0.0002992419 -0.21500087 0.08565817 0.0057330364 -0.14924282 0.09619887 0.025961537
0.21336319 0.11888114 0.14568146 0.07271541 -0.07884047 -0.006767838 0.020180954 0.084245265
0.13634963 0.10776576 0.01763051 -0.17836878 0.022806073 0.22507858 -0.053693507 0.12293183
0.0469812 -0.24919896 0.008711406 -0.09842013 0.19560847 -0.2522121 0.09466481 -0.16238186
0.20980029 -0.3763614 -0.16779149 0.22972867 -0.12156997 -0.12178801 -0.09910972 -0.25831383
0.08718826 0.05052061 0.2237566 0.11792258 0.1803233 0.1443603 -0.0033665306 0.0070394464
0.00216804 -0.072892256 -0.09845779 -0.0739275 -0.17509992 -0.02046224 -0.14233093 -0.034729835
0.111712046 0.10228605 -0.084746376 0.042571064 -0.18064828 0.09373099 0.059051808 -0.25662017
0.016867705 0.15903282 -0.2535602 -0.06605177 0.21100321 -0.056324467 0.05660726 0.027065288
-0.21506329 -0.06909644 -0.04622384 -0.016950967 0.20613216 -0.25093025 -0.26108384 0.017306162
0.012172006 -0.23930949 -0.12150424 0.124344856 -0.04246685 0.21043175 -0.17544407 -0.0052034846
-0.08633655 0.075254835 -0.04871326 -0.08080298 -0.013046257 -0.27600393 0.0672081 0.17297573
0.018614167 0.25186694 0.04837022 -0.45731503 0.09426046 0.2538018 0.07183917 0.11349735
-0.08367242 0.24362893 -0.110292286 -0.30828407 0.15591855 0.24805593 0.025492387 -0.08313306
-0.08252052 0.10492919 -0.17120296 0.06837811 0.09039951 -0.025404599 0.09145926 0.027902702
-0.040431153 -0.29322475 0.007556534 0.031512998 -0.033691574 -0.01238385 0.033803344 -0.0046784333
0.030345054 0.12622352 -0.13225459 0.1775442 -0.14451367 0.12960392 0.060317244 -0.027282622
-0.012211792 0.005408591 -0.06830369 0.006459887 0.0655623 -0.08291969 0.18021218 0.04777031
-0.09972652 0.027814746 -0.22257446 0.06251526 -0.030238148 -0.060132477 -0.08191406 -0.09047462
0.13352892 0.22418623 -0.08093077 0.11282634 0.026579665 -0.058355574 -0.09678593 0.25960967
0.017208926 0.00927151 -0.22600397 -0.16676411 -0.009647868 -0.07753362 0.20763311 0.051856134
0.20120889 -0.06583503 -0.070202865 -0.17999409 -0.042997215 0.14940138 -0.006188257 0.004290139
00000000: ff19 c2bc bc62 71bd b972 4b3e c4ef f83c
00000010: 9433 793e b515 2abe 3a25 413e 6539 733c
00000020: d9db 23be 0067 3a3d 3725 2e3e 1dc4 d53d
00000030: 9506 8cbc 469d d53d 2cad 08be dd44 8a3e
00000040: 7f68 26be 1a69 943d 8f12 9d3c ffbc 053d
00000050: 324c 763e fc3b 613e 518f 3a3e 6de6 113e
00000060: f303 f7bd 9e69 6e3e f9bf 023e 8fd2 96bc
00000070: d367 8abd 2a34 213d 8f83 04bd 194a 5f3d
00000080: 6a57 44bd b29c 4a3e 2cdc 0abe c937 ce3d
00000090: 13c9 39be 97ad 97bd 950e 66bd 310a 7e3d
000000a0: ebe0 2cbd dec4 bd3c cb41 b43d 66dd aaba
000000b0: 94ee 2dbe 6446 14be 1345 9abc 77a4 f2bd
000000c0: abd5 27bc c7ab d53d da15 edbd 2c83 12bd
000000d0: d89d e13c 9607 d1bd 7ffb a2bd 47b3 01bd
000000e0: b035 63bd 2269 e93d 24f2 493d 4fb0 8dbe
000000f0: 9f9b c3bc 9f32 233e 730b b7be cbf3 79be
00000100: 06f8 2a3e bbbb d13d 1d76 5fbd a818 f7bd
00000110: 4eaf 2e3d fcda 03bd d6f0 f7bd 73c2 353d
00000120: 7f0e 64bd 9dca e9bd b288 dfbc d36e c4bd
00000130: ad18 f1bc b299 993d 69e8 d83c 6bfd 38bb
00000140: 9c57 063c 91e3 9cb9 3029 5cbe 8d6d af3d
00000150: 32dc bb3b 1cd3 18be ea03 c53d 4aad d43c
00000160: e17b 5a3e f577 f33d 852d 153e d1eb 943d
00000170: 1d77 a1bd bdc4 ddbb 8752 a53c c888 ac3d
00000180: 3d9f 0b3e 4bb4 dc3d dc6d 903c 4ea6 36be
00000190: cdd3 ba3c 007b 663e b9ed 5bbd afc3 fb3d
000001a0: 5c6f 403d 032e 7fbe 49ba 0e3c 7e90 c9bd
000001b0: 964d 483e f221 81be a0df c13d 6e47 26be
000001c0: e3d5 563e 71b2 c0be 88d1 2bbe fe3d 6b3e
000001d0: adf9 f8bd fe6b f9bd 09fa cabd b641 84be
000001e0: c28f b23d b3ee 4e3d 7320 653e 6581 f13d
000001f0: aca6 383e 30d3 133e 03a1 5cbb 28ab e63b
00000200: ad15 0e3b 8948 95bd 3da4 c9bd 4d67 97bd
00000210: 654d 33be 6da0 a7bc 33bf 11be df40 0ebd
00000220: 49c9 e43d 597b d13d 828f adbd ff5e 2e3d
00000230: ddfb 38be 09f6 bf3d 4fe0 713d b863 83be
00000240: 242e 8a3c 80d9 223e a4d2 81be 2646 87bd
00000250: 3a11 583e 7cb4 66bd 04dd 673d 06b8 dd3c
00000260: 8d39 5cbe 6f82 8dbd 3655 3dbd c1dc 8abc
00000270: 4f14 533e ee79 80be c8ac 85be a7c5 8d3c
00000280: 186d 473c 8c0d 75be 37d7 f8bd 84a8 fe3d
00000290: b8f1 2dbd 6c7b 573e 9ca7 33be fe81 aabb
000002a0: 38d1 b0bd 351f 9a3d 8e87 47bd 087c a5bd
000002b0: f8bf 55bc 6350 8dbe 66a4 893d 8d20 313e
000002c0: bd7c 983c b4f4 803e da1f 463d 3225 eabe
000002d0: a10b c13d 4ff2 813e 6a20 933d 4c71 e83d
000002e0: 725c abbd dd79 793e ece0 e1bd 69d7 9dbe
000002f0: 1da9 1f3e 6002 7e3e 69d5 d03c aa41 aabd
00000300: 8500 a9bd 1de5 d63d d44f 2fbe d309 8c3d
00000310: 6123 b93d 4e1d d0bc fe4e bb3d 3594 e43c
00000320: 239b 25bd 8e21 96be cd9c f73b c613 013d
00000330: 2d00 0abd a2e5 4abc 6075 0a3d 8b4d 99bb
00000340: 3196 f83c bd40 013e bf6d 07be 26ce 353e
00000350: 64fb 13be e4b6 043e 370f 773d ce7f dfbc
00000360: f813 48bc 8d3a b13b cee2 8bbd 76ad d33b
00000370: 8745 863d ccd1 a9bd 8b89 383e cdaa 433d
00000380: 6b3d ccbd c0db e33c 8fea 63be 0008 803d
00000390: feb5 f7bc 794d 76bd 8fc2 a7bd c24a b9bd
000003a0: cebb 083e 1391 653e 08bf a5bd 7f11 e73d
000003b0: 99bd d93c 4106 6fbd b437 c6bd 8feb 843e
000003c0: bcf9 8c3c 88e7 173c 966d 67be 36c4 2abe
000003d0: 1712 1ebc f2c9 9ebd c69d 543e 1967 543d
000003e0: b409 4e3e 84d4 86bd 85c6 8fbd 5f50 38be
000003f0: d91d 30bd adfc 183e ddc6 cabb 4b94 8c3b

linears.4.bias f4 [50]
-0.005147724 0.01016256 0.046417464 -0.0160014 -0.049476262 -0.012924684 -0.024877697 -0.030221848
0.02468906 0.0066983285 -0.06142516 0.011930958 0.0119811 -0.011176957 0.05734964 -0.051697634
0.006840223 0.018222302 0.007562378 0.03331258 -0.04032164 0.0052082064 -0.002496609 -0.015336058
0.024527276 -0.00507178 -0.023574563 -0.009701753 -0.005700782 -0.040151477 0.03748153 0.0033029525
0.009803229 0.0057190177 -0.02012649 -0.028914677 -0.028711488 -0.02393165 0.0044577974 0.031199176
-0.003806607 -0.017054752 0.0489759 -0.0014741449 0.06799817 -0.005712425 0.00852785 -0.035296436
0.052075665 -0.032447025
00000000: 3dae a8bb de80 263c 3d20 3e3d 5e15 83bc
00000010: 9fa7 4abd 0ec2 53bc 50cc cbbc cf93 f7bc
00000020: b640 ca3c a77d db3b f398 7bbd 117a 433c
00000030: 604c 443c 8e1f 37bc 75e7 6a3d e6c0 53bd
00000040: f323 e03b f046 953c d3cd f73b c672 083d
00000050: 4e28 25bd 9aa9 aa3b 269e 23bb 1744 7bbc
00000060: 6ded c83c 2d31 a6bb 711f c1bc 1af4 1ebc
00000070: a0cd babb e075 24bd 3c86 193d 5976 583b
00000080: b99d 203c 9966 bb3b 4fe0 a4bc 79de ecbc
00000090: 5b34 ebbc 4f0c c4bc b712 923b 6a95 ff3c
000000a0: 4578 79bb 68b6 8bbc f49a 483d 1838 c1ba
000000b0: a042 8b3d 4b2f bbbb 65b8 0b3c ff92 10bd
000000c0: 4b4d 553d 2ce7 04bd

linears.5.weight f4 [50, 50]
-0.05194363 -0.16548525 0.10449471 -0.11759974 -0.2827585 -0.13903728 0.13439406 0.060020328
0.30594692 0.07003743 -0.23199628 -0.0120276 -0.19254667 0.041127156 -0.11675453 -0.23829497
-0.039895114 0.07094465 0.13112259 0.021224169 -0.10447435 -0.0717817 -0.06845276 0.057023264
-0.042957906 0.14846021 -0.08489797 0.06204849 -0.018773865 0.15512297 0.25791788 -0.15453967
0.08786151 0.3276696 0.105340146 -0.2441987 0.06940744 -0.12693773 0.0013486359 0.028245846
0.13125981 0.0320606 0.16151832 0.13245982 -0.07262772 0.11537062 -0.0011031134 -0.42490557
0.0034583944 -0.23099542 0.16943023 -0.091691926 -0.13678561 0.052029245 -0.0044956338 0.13901392
-0.0020534424 -0.013209373 -0.06588462 -0.17329593 0.0556008 -0.19885397 -0.05029314 0.066593334
0.05196881 0.32287207 -0.2337497 0.012255631 0.14130713 -0.12070871 -0.14009674 -0.06113187
-0.08448694 -0.25639486 -0.2835108 -0.010728119 0.13336536 0.06494467 -0.28645247 0.027084107
0.12895828 0.02696551 -0.19077142 -0.01356652 -0.061766732 0.12491396 -0.20968074 0.063796625
0.10987459 -0.22526275 0.08518875 -0.24059823 -0.057446525 -0.05565343 -0.11161278 0.26631558
0.0056684497 0.10233632 0.10509646 -0.088148534 -0.026405461 -0.11713726 -0.07376319 -0.028937712
-0.18849249 0.09029189 0.029418442 0.08474642 -0.06018618 0.21138386 -0.104686126 0.044903006
0.16518374 -0.18331747 0.19240431 -0.1227123 -0.015110425 -0.15721248 -0.06254266 0.16248539
0.05358496 0.18204916 0.25651768 -0.058664113 -0.09940551 0.06669542 -0.09752687 -0.0198138
0.06313225 0.09511036 -0.014898841 -0.12218443 0.1897686 0.09118902 -0.12113671 -0.10060495
0.11299466 0.18331592 0.10821786 -0.05324576 -0.06038856 0.04169889 -0.017077211 0.16966908
0.22491078 -0.03529031 -0.007702334 0.038660087 -0.060172144 0.06211852 0.1300347 0.34285918
0.085803546 0.22802803 0.03183828 -0.28462815 -0.030445676 0.17965037 0.09386074 -0.118467286
-0.10614891 0.30680144 -0.19264464 0.06470345 0.20126164 0.11770382 0.030890994 0.021830015
-0.15015547 0.16857515 0.0784467 -0.021055365 0.055094596 0.050518513 0.27774262 -0.050989576
0.29936454 0.079849586 -0.10023294 0.0153346965 -0.12036871 0.07964837 -0.010463541 0.032378588
0.3058623 -0.019726334 -0.02884537 0.14508015 -0.19199136 -0.006480275 -0.1413179 -0.2878536
0.24047917 0.021080378 -0.13236654 -0.027119406 0.018745374 -0.2811973 0.063280925 -0.0052210996
-0.14002274 0.15111627 0.026633855 0.29215127 0.27013794 0.08859521 -0.07660037 -0.18965544
-0.0822098 -0.19043376 0.14385386 -0.18324244 0.27842015 -0.21979322 0.074587874 0.06612787
0.010820688 -0.085399 -0.009758959 -0.032338403 -0.27674234 0.14376056 0.107337825 -0.14275788
0.02309788 -0.16149686 0.016897174 -0.03236293 0.23399098 -0.07520904 0.17138644 0.0030762008
0.009387735 0.07302755 0.071894325 -0.18169887 0.40171978 -0.027051862 -0.23623385 0.17632955
-0.15740375 0.27743348 0.1354301 0.062349636 0.09640573 0.06621165 -0.02266865 0.2038292
0.19726829 -0.055117022 0.13568272 0.06977656 0.106918395 -0.11102785 -0.09447158 -0.009001002
00000000: d8c2 54bd f774 29be 5301 d63d 22d8 f0bd
00000010: b9c5 90be ca5f 0ebe 999e 093e e0d7 753d
00000020: 13a5 9c3e c96f 8f3d 6f90 6dbe 690f 45bc
00000030: f42a 45be f374 283d 001d efbd 9903 74be
00000040: 0f69 23bd 6e4b 913d 0045 063e 4fde ad3c
00000050: a6f6 d5bd 4902 93bd f630 8cbd 3a91 693d
00000060: a1f4 2fbd f405 183e fdde adbd 8f26 7e3d
00000070: a6cb 99bc 8ed8 1e3e d00d 843e a63f 1ebe
00000080: bcf0 b33d 4fc4 a73e 93bc d73d 390f 7abe
00000090: 7d25 8e3d f7fb 01be b6c4 b03a d563 e73c
000000a0: f968 063e fa51 033d 0f65 253e 8ca3 073e
000000b0: d8bd 94bd 6e47 ec3d 5896 90ba 398d d9be
000000c0: 3ba6 623b 108a 6cbe 1e7f 2d3e fac8 bbbd
000000d0: 8711 0cbe 9e1c 553d 1c50 93bb aa59 0e3e
000000e0: 0c93 06bb 206c 58bc 84ee 86bd 7d74 31be
000000f0: aabd 633d 60a0 4bbe 2e00 4ebd 1662 883d
00000100: 3fdd 543d 7d4f a53e 155c 6fbe d8cb 483c
00000110: d1b2 103e 2136 f7bd 8575 0fbe 6965 7abd
00000120: 7d07 adbd 3046 83be 5428 91be fec4 2fbc
00000130: ee90 083e b601 853d e6a9 92be 7ddf dd3c
00000140: a40d 043e c6e6 dc3c 9559 43be 1c46 5ebc
00000150: 1dff 7cbd e4d2 ff3d 8cb6 56be cea7 823d
00000160: ee05 e13d 47ab 66be 7077 ae3d 625f 76be
00000170: 0c4d 6bbd daf4 63bd 3e95 e4bd 845a 883e
00000180: 67be b93b b495 d13d d03c d73d 3887 b4bd
00000190: 4450 d8bc a9e5 efbd 2811 97bd c80e edbc
000001a0: 2d04 41be f4ea b83d f2fe f03c 888f ad3d
000001b0: c985 76bd 0375 583e ae65 d6bd 37ec 373d
000001c0: ed25 293e 93b7 3bbe a305 453e 9650 fbbd
000001d0: b791 77bc 4ffc 20be 5e16 80bd 9262 263e
000001e0: e77b 5b3d 186b 3a3e 4956 833e c849 70bd
000001f0: 1e95 cbbd 9c97 883d 2bbc c7bd 8d50 a2bc
00000200: 7b4b 813d 38c9 c23d 451a 74bc d53b fabd
00000210: b352 423e 4fc1 ba3d 8616 f8bd f809 cebd
00000220: bf69 e73d 2bb7 3b3e 53a1 dd3d 3a18 5abd
00000230: ff59 77bd 75cc 2a3d 82e5 8bbc bbbd 2d3e
00000240: 034f 663e 928c 10bd dc63 fcbb 0a5a 1e3d
00000250: 1177 76bd fd6f 7e3d d127 053e 3d8b af3e
00000260: c5b9 af3d 2e80 693e db68 023d c8ba 91be
00000270: 3669 f9bc 44f6 373e 0f3a c03d fa9e f2bd
00000280: 9a64 d9bd 1415 9d3e a344 45be 3e83 843d
00000290: 8817 4e3e b30e f13d 1c0f fd3c dcd4 b23c
000002a0: 5bc2 19be f79e 2c3e aaa8 a03d 4d7c acbc
000002b0: dfaa 613d 80ec 4e3d 4834 8e3e 72da 50bd
000002c0: 4f46 993e 2e88 a33d ed46 cdbd 613e 7b3c
000002d0: df83 f6bd af1e a33d 466f 2bbc 699f 043d
000002e0: fc99 9c3e 1f99 a1bc 204d ecbc e48f 143e
000002f0: 6299 44be 7d58 d4bb a4b5 10be 8c61 93be
00000300: 2c40 763e c2b0 ac3c 188b 07be 8429 debc
00000310: e68f 993c 18f9 8fbe 6e99 813d c215 abbb
00000320: 1f62 0fbe 39be 1a3e 3e2f da3c da94 953e
00000330: 854f 8a3e 6871 b53d a8e0 9cbd 0935 42be
00000340: 9d5d a8bd 1101 43be 6d4e 133e e8a3 3bbe
00000350: 168d 8e3e 7911 61be 87c1 983d 0c6e 873d
00000360: 4149 313c ace5 aebd 0ae4 1fbc 4675 04bd
00000370: 2cb1 8dbe f835 133e efd3 db3d 1f2f 12be
00000380: c437 bd3c 6f5f 25be f16b 8a3c fe8e 04bd
00000390: 559b 6f3e 3207 9abd ed7f 2f3e 169a 493b
000003a0: 04cf 193c 788f 953d 553d 933d 450f 3abe
000003b0: 37ae cd3e de9b ddbc 49e7 71be bc8f 343e
000003c0: 732e 21be c30b 8e3e 30ae 0a3e 5562 7f3d
000003d0: 5e70 c53d f999 873d 9bb3 b9bc 9ab8 503e
000003e0: b300 4a3e 63c2 61bd 69f0 0a3e 03e7 8e3d
000003f0: 08f8 da3d 9262 e3bd 517a c1bd f078 13bc

linears.5.bias f4 [50]
0.04567692 -0.004099473 0.036097415 -0.01158742 0.038967464 0.030375512 -0.007872952 -0.0053431345
0.025819603 0.004434055 0.010612719 -0.023572586 0.0021785153 0.0049538426 -0.03406209 0.021282759
-0.0025618372 0.045036595 -0.014685135 -0.011285478 0.03294498 -0.015687337 -0.023959484 -0.00041237246
0.04453067 -0.003942987 -0.04614737 -0.031474896 0.022555385 0.021842746 -0.0169033 0.014452354
-0.0048322068 0.035258748 0.0038267164 0.012233586 -0.0056469096 -0.033300396 -0.0036402657 -0.017243465
-0.018885544 0.016382707 0.0076180203 0.022763144 -0.02421396 0.0121503165 -0.0003498806 0.024448404
-0.0067655956 -0.008483322
00000000: b917 3b3d df54 86bb e2da 133d 29d9 3dbc
00000010: 599c 1f3d 11d6 f83c 8efd 00bc 7615 afbb
00000020: a283 d33c 8d4b 913b f8e0 2d3c 4c1b c1bc
00000030: 6cc5 0e3b d853 a23b b184 0bbd 2e59 ae3c
00000040: 7fe4 27bb 4b78 383d ec99 70bc bae6 38bc
00000050: 51f1 063d bb82 80bc ae46 c4bc b233 d8b9
00000060: cb65 363d 2c34 81bb 0605 3dbd d2eb 00bd
00000070: 12c6 b83c 8fef b23c ca78 8abc 91c9 6c3c
00000080: 7d57 9ebb 7a6b 103d a6c9 7a3b 616f 483c
00000090: b609 b9bb ff65 08bd 8691 6ebb 2b42 8dbc
000000a0: dbb5 9abc 0735 863c 96a0 f93b c679 ba3c
000000b0: 5b5c c6bc 1f12 473c 2e70 b7b9 0548 c83c
000000c0: eeb1 ddbb a2fd 0abc

linears.6.weight f4 [50, 50]
-0.15066196 0.24382728 -0.16092655 -0.11903917 -0.1761054 -0.047856793 0.068387896 0.15671594
-0.0026506393 -0.026499147 -0.01917583 0.042009648 0.14009222 -0.09718935 -0.2566431 0.28409466
-0.25261822 0.06922609 -0.12165064 -0.01908526 0.21716933 0.069514625 0.17762652 0.17384256
-0.06766879 0.08110604 0.007250161 -0.18977404 0.09932751 0.0034557134 -0.07524041 0.047326524
-0.033274766 -0.14310786 -0.18939377 0.05132452 -0.14364688 -0.011723564 0.044428393 0.08173692
-0.00037152832 0.0068156356 -0.1142267 -0.022174636 -0.0827504 -0.1324841 0.34072608 0.057889592
0.15895268 -0.13712771 -0.08197272 0.10119894 -0.13260274 -0.0062782373 -0.053554147 -0.029374592
0.20029736 -0.21890023 0.10238649 0.088659115 -0.11851881 -0.21636026 0.06199987 -0.08139825
0.038431413 -0.070426226 0.084176295 0.019945506 0.036634967 -0.22497611 0.14318134 0.27917582
-0.059120983 -0.024737017 0.13074152 0.058839213 -0.17122991 -0.34830302 0.055852056 0.07775248
0.08091188 0.09008488 0.114458226 0.042402416 0.025813008 -0.0271899 -0.062333036 -0.14075482
0.05943765 -0.06717803 -0.14962016 0.18075159 0.32680947 -0.2160356 0.18311895 0.12835295
-0.008203734 0.034128282 -0.034036666 0.0075129373 -0.18337315 0.08013748 -0.121851206 -0.0775926
-0.20994905 0.060183793 0.061711952 -0.026216589 -0.3003558 0.042915564 -0.09173892 0.09757982
0.15370096 0.0060560317 -0.0022154048 -0.18124808 0.17257008 -0.008221062 0.009135821 -0.027174143
0.06211753 -0.07083182 -0.10791325 0.027903125 -0.06470089 0.066280395 0.027440334 0.05783701
-0.25229996 -0.05482999 0.09799151 0.0069547766 -0.03305117 0.023084242 -0.23090847 0.12532653
-0.10531163 0.13021028 0.22423655 0.133796 0.16608262 -0.0368877 0.032705408 -0.117121994
0.14100124 0.11170039 -0.032217704 0.02305403 0.10469636 0.11573989 0.0859313 0.01073408
-0.03906961 0.029278275 -0.19087665 0.20370083 0.049387988 -0.2490232 0.0041249557 0.0022535643
0.106302276 -0.14128856 -0.19033085 0.38572502 -0.1061924 0.05032892 -0.10445826 -0.19373776
0.27551425 0.2438781 -0.18646532 0.0061007286 0.20807043 -0.11476769 0.27577257 0.0087226
-0.110455446 -0.23674607 -0.16777046 0.14233117 0.113694124 -0.05693905 0.118555054 0.20441741
0.14751777 0.03384683 0.07945882 0.24581373 -0.030254465 -0.021821616 -0.043711714 -0.0097305635
0.14412111 0.22440007 -0.06688172 -0.23312795 -0.2220003 0.06466172 0.15578192 -0.15986322
0.17762974 0.09960669 0.09057054 0.12875673 -0.12562671 -0.2620348 -0.0674759 0.108856045
-0.010261999 -0.11768741 -0.06676235 0.17004164 0.12719207 -0.13884594 -0.17188519 -0.036698945
0.14324184 -0.06737419 0.037087243 -0.011681471 -0.030513842 0.003012378 0.0005819422 -0.18330088
0.23457512 0.26324448 0.06788888 -0.030810375 -0.00636411 -0.13340485 0.017897092 0.07696961
0.07546661 -0.07380903 0.08180492 -0.2606969 0.13077243 -0.010757728 0.07251798 0.03265143
-0.01715974 -0.20704669 0.07794855 -0.21316527 -0.08237263 0.2508045 0.0064868373 -0.0077574006
-0.123358525 -0.022661163 0.0048423577 0.11369693 0.23307751 0.025945604 0.047967225 0.31257173
00000000: 2147 1abe dcad 793e eec9 24be cfca f3bd
00000010: f954 34be 7c05 44bd f40e 8c3d 257a 203e
00000020: 59b6 2dbb bd14 d9bc a116 9dbc 4f12 2c3d
00000030: 5674 0f3e 360b c7bd b966 83be db74 913e
00000040: 2d57 81be 69c6 8d3d f923 f9bd b158 9cbc
00000050: a361 5e3e af5d 8e3d bae3 353e c903 323e
00000060: ef95 8abd ec1a a63d c292 ed3b 2054 42be
00000070: 396c cb3d 4079 623b a517 9abd 75d9 413d
00000080: 1f4b 08bd de8a 12be 71f0 41be a939 523d
00000090: 2b18 13be 3114 40bc 8cfa 353d b065 a73d
000000a0: b0c9 c2b9 b255 df3b b0ef e9bd 95a7 b5bc
000000b0: 0b79 a9bd e9a9 07be a673 ae3e a31d 6d3d
000000c0: 7ec4 223e 356b 0cbe 50e1 a7bd 6441 cf3d
000000d0: 03c9 07be acb9 cdbb 985b 5bbd fca2 f0bc
000000e0: c01a 4d3e 6227 60be 02b0 d13d e992 b53d
000000f0: fdb9 f2bd 8b8d 5dbe 93f3 7d3d 20b4 a6bd
00000100: 426a 1d3d a03b 90bd 9f64 ac3d c264 a33c
00000110: 8c0e 163d 2360 66be 219e 123e 22f0 8e3e
00000120: d828 72bd 49a5 cabc 1be1 053e 6301 713d
00000130: e556 2fbe c654 b2be 20c5 643d b13c 9f3d
00000140: 21b5 a53d 6c7e b83d 1369 ea3d 28ae 2d3d
00000150: cd75 d33c 5abd debc ed50 7fbd 0822 10be
00000160: e574 733d a394 89bd 0736 19be f216 393e
00000170: 9253 a73e 7038 5dbe 8983 3b3e f56e 033e
00000180: f468 06bc 19ca 0b3d 086a 0bbd 162f f63b
00000190: 2cc6 3bbe 1e1f a43d 208d f9bd dee8 9ebd
000001a0: e2fc 56be 4883 763d acc5 7c3d 2cc4 d6bc
000001b0: 3cc8 99be 3bc8 2f3d 9de1 bbbd eed7 c73d
000001c0: c963 1d3e ad71 c63b 5330 11bb 1999 39be
000001d0: 36b6 303e a2b1 06bc 69ae 153c 4f9c debc
000001e0: f36e 7e3d 4610 91bd 9f01 ddbd 1895 e43c
000001f0: e681 84bd 04be 873d 8dca e03c 80e6 6c3d
00000200: 762d 81be 6995 60bd c6af c83d e5e4 e33b
00000210: aa60 07bd 2a1b bd3c 4573 6cbe 9955 003e
00000220: a0ad d7bd d855 053e 449e 653e d201 093e
00000230: 9011 2a3e 8f17 17bd 1bf6 053d a8dd efbd
00000240: a162 103e 2dc3 e43d b6f6 03bd cedb bc3c
00000250: 0c6b d63d 0909 ed3d c0fc af3d ffdd 2f3c
00000260: 7507 20bd fed8 ef3c 2b75 43be f396 503e
00000270: 0f4b 4a3d f0ff 7ebe a32a 873b 89b0 133b
00000280: 02b5 d93d f3ad 10be 17e6 42be c07d c53e
00000290: 677b d9bd b325 4e3d 36ee d5bd 3163 46be
000002a0: 3410 8d3e 2ebb 793e c4f0 3ebe 9fe8 c73b
000002b0: 6a10 553e 530b ebbd 1032 8d3e 3ce9 0e3c
000002c0: 7736 e2bd 906d 72be 05cc 2bbe 43bf 113e
000002d0: 77d8 e83d ec38 69bd fecc f23d cc52 513e
000002e0: e60e 173e f9a2 0a3d 4ebb a23d 98b6 7b3e
000002f0: 36d8 f7bc 3fc3 b2bc 0e0b 33bd f16c 1fbc
00000300: 7c94 133e 22c9 653e 49f9 88bd 18b9 6ebe
00000310: 0c54 63be 5d6d 843d 4c85 1f3e 2fb3 23be
00000320: 92e4 353e 98fe cb3d 0c7d b93d ced8 033e
00000330: 4aa4 00be 6d29 86be ce30 8abd ebef de3d
00000340: f221 28bc 1906 f1bd b3ba 88bd 651f 2e3e
00000350: a33e 023e a12d 0ebe ac02 30be a251 16bd
00000360: fdad 123e 7bfb 89bd cbe8 173d a463 3fbc
00000370: 2af8 f9bc 516b 453b 7b8d 183a 3ab3 3bbe
00000380: 7634 703e fbc7 863e 5309 8b3d 0a66 fcbc
00000390: 068a d0bb 489b 08be ec9c 923c 3ea2 9d3d
000003a0: 3d8e 9a3d 3029 97bd 5789 a73d 107a 85be
000003b0: 35e9 053e 2e41 30bc 4f84 943d 82bd 053d
000003c0: 9592 8cbc 0c04 54be 7da3 9f3d ff47 5abe
000003d0: fbb2 a8bd 7369 803e 898f d43b cb31 febb
000003e0: 65a3 fcbd e7a3 b9bc a4ac 9e3b f0d9 e83d
000003f0: dfab 6e3e e08b d43c 4879 443d 6709 a03e
