Archived Code/Stan TPAMI/1D/FODE/rowdy_tune/1D_FODE_rowdy_tune6_2.pt (torch, 89248 bytes, 22 tensors)

omega1 f4 [9, 1]
00000000: e4ec 813f dee3 7d3f 4752 793f ba3a 763f
00000010: 7916 733f a7c7 7b3f 6bdd 8c3f 88e2 a83f
00000020: b223 ce3f
1.0150418 0.9917582 0.9739117 0.9618336 0.94956166 0.9835152 1.1005071 1.3194132
1.6104643

alpha f4 [2, 9]
00000000: 6c1b a33c c2ab 55bc f384 4ebb 301f 6e3c
00000010: 3766 9b3d 5004 613e bc99 2d3f cc41 bf3f
00000020: 7b9b 1d40 2c97 4d3d cd28 3dbd 6ac8 bebd
00000030: eb45 fcbd ec5d debd 2e55 d03d 57dc 6c3f
00000040: 015f 1940 898d 8840
0.019910537 -0.013041439 -0.003151235 0.014533803 0.07587855 0.21974301 0.67812705 1.4941955
2.4626148 0.050192997 -0.04618149 -0.0931557 -0.12318023 -0.10857758 0.10172497 0.9252371
2.3964236 4.2672772

omega f4 [2, 9]
00000000: 5548 b13e 4f85 b23e b872 b23e a959 b13e
00000010: e895 b33e 5c2a af3e bc4d 9f3e 76f1 aa3e
00000020: ebe7 9c3e e37f ca3e aa69 c83e 7241 ab3e
00000030: fffd a63e c2ee b93e f6d2 bd3e 3e38 8d3e
00000040: 7c39 d63d f8d7 1e3e
0.34625497 0.3486733 0.34853148 0.34638718 0.35075307 0.34212005 0.31113994 0.33387345
0.3064569 0.39550695 0.39143115 0.33448368 0.3261566 0.3631497 0.37075013 0.27581972
0.10460183 0.15512073

linears.0.weight f4 [50, 1]
00000000: 1174 ffbd 6bef 533c 74e5 12bf 4f22 0abe
00000010: 1843 bdbc ba9d 46be b4e7 23bd 40d6 033e
00000020: 2c41 ef3d d41d 8e3e a453 3abe 4824 f23d
00000030: 6764 053d ed35 473e 0906 93bd 1031 d83d
00000040: 98cb b13e 7a62 19bd e36b a1be f8eb 5fbd
00000050: a7cf 813e 35d3 473e 2506 3fbe 5525 d1bd
00000060: 8fa9 0f3e aa93 08be be61 483e 2c25 44be
00000070: 56db 3f3e 0a09 b6bc 0efa 3b3e b328 00be
00000080: 5b07 a8bd 588c 953d d8c2 6e3e 2548 a0bd
00000090: ec59 a2be 98c6 c03e aba2 3f3d 73e8 54bd
000000a0: 20e7 5b3e 7e19 ea3d 34a5 1cbd 94fe ebbd
000000b0: bb43 97be 4ce0 3d3e 627e 2bbe f821 1bbd
000000c0: 423a fe3c 1c4c 9d3d
-0.1247331 0.0129355 -0.5738137 -0.1348965 -0.023103282 -0.19396105 -0.04001589 0.12874699
0.116823524 0.27757132 -0.18195969 0.11823326 0.032566454 0.19454165 -0.071788855 0.10556233
0.34725642 -0.03744743 -0.31527624 -0.054668397 0.2535374 0.19514163 -0.18654688 -0.10212199
0.14029525 -0.1333758 0.19568536 -0.19154805 0.18736014 -0.022221107 0.18357107 -0.12515526
-0.08204528 0.07302159 0.23316514 -0.078262605 -0.3170923 0.37651515 0.04678599 -0.051979493
0.21474886 0.114306435 -0.038243487 -0.11523166 -0.29543862 0.18542594 -0.1674743 -0.037874192
0.031033639 0.07680532

linears.0.bias f4 [50]
00000000: fae8 e5b9 6a5b e73c c91d adbd ce1b 57bc
00000010: 991d 49bd d597 cf3b 2998 cbbc 0be4 d63c
00000020: ad57 093d 7b76 c73d 110d 13bd f619 67bb
00000030: dc37 88bb c0b1 3f3c 40a4 31bd b9aa 513d
00000040: 095d a03d a09a 8cbc f39a 9fbd 3824 643d
00000050: 4d00 c53c acd2 28b7 9eff 063c 366d 1fbd
00000060: 6adb a1bb 6077 74bd d37c 08bd 85d4 19bd
00000070: bb56 543d 8668 d4bc 2eb0 a33d 9bd0 783c
00000080: 517c 22bd 40ec 543a e22e 9a3d ee3a e43b
00000090: 225e 84bd a667 653d b21c a5bc 41d7 e5bc
000000a0: d649 923d 88ee 523d c768 01bc d52b b2bc
000000b0: 9f9d 05bc 499d 7abc 3797 44bd 5546 92bd
000000c0: 6ac6 b1bc 8e29 2b3d
-0.00043851865 0.028241832 -0.08452947 -0.013129188 -0.049100492 0.0063352385 -0.024852829 0.026231786
0.03353088 0.09739395 -0.035901133 -0.0035263277 -0.0041570496 0.011700094 -0.04336953 0.051188204
0.07830245 -0.017163575 -0.07793226 0.055698603 0.024047995 -1.0062631e-05 0.008239655 -0.03892251
-0.0049394863 -0.059684157 -0.033322167 -0.03755619 0.051840525 -0.025928747 0.07992588 0.015186454
-0.03966934 0.0008122362 0.075284734 0.006965033 -0.06463267 0.05600705 -0.020155285 -0.028056743
0.07142989 0.051497012 -0.007898516 -0.021749416 -0.008155256 -0.015296289 -0.047995772 -0.07142321
-0.021701057 0.041787677

linears.1.weight f4 [50, 50]
00000000: 0310 80bd 645b bf3e dd1c c83d 8fc2 933d
00000010: 8406 9dbc 15f3 8f3c e01c 12be d03d 393e
00000020: dadb cdbe 7e35 863a 2e1d a1bd 7a0c 5cbe
00000030: e57f 2bbe 2b10 163e ce69 97bd 6211 c3be
00000040: 3edb 8e3d 5436 8c3d b254 a5bd 9519 c23d
00000050: 75a0 c7be 08c0 5cbd 6587 eebb cf14 6d3d
00000060: 2db7 3abd e7e9 813d 79b5 8bbd 3e3c d83c
00000070: 3b30 ef3d 573c 1bbd 20b3 abbd 2606 953d
00000080: 2d58 163c 815c 253b bbf9 373e aec5 0bbe
00000090: f6b0 e4bd dd6b 67be f05b c93d 7755 f33c
000000a0: a279 323d eb71 dabd ba46 f73d 7c52 683e
000000b0: 5105 88bd 9994 cfbc 9026 c1bd 078e fdbd
000000c0: e071 ca3d 4428 40be 3256 85be ceaa 3e3d
000000d0: 9bba f9bd 3443 a13b c990 a83b 5f25 4abb
000000e0: 46e6 e23d cefc 91bc c61d b5be ace8 d7bd
000000f0: e059 5abe 2d70 983d cd36 4fbd 89e9 1bbc
00000100: 66f6 963d 4155 17be 5228 15be ff13 a13d
00000110: c814 f9bd 671d 0cbc f6bc e4bc 9524 103e
00000120: 6a12 683e 7fee b4bb 9999 fbbb 3a8a 813e
00000130: cd96 663d 9edd 803e 5d88 8f3c f865 13be
00000140: 8220 d83c 3986 fd3d 13af 2b3e 3618 643e
00000150: 4d20 b0bd 0ce4 e2bd 534d 733e 572e debd
00000160: a06b 933d 4294 253c 7001 b8bd 75f9 f03c
00000170: 1406 aebd aa16 7cbd f82a 983d f90c 513e
00000180: 86c9 0c3e 3fef 663e d8ba 6abe 1b32 e0bd
00000190: e5f7 6a3d 9216 b7bd c3dd 383e c39f 86be
000001a0: eb5d 14be 1c9b cb3d 7019 2f3c dae3 f5bc
000001b0: 40d2 ef3c 156a 08bd 34f8 2ebd 0c39 e63c
000001c0: 9135 203e 2b02 26be 8f70 3abe cfcd 28bd
000001d0: 4369 93bd b62c c73c 08f4 f63d 934b 63bd
000001e0: 5453 3a3e 092f 8bbd 049b 07be 9554 27be
000001f0: f477 073e 559c 783c 861f d7bd 2bb9 0a3e
00000200: 8500 923e 6392 933e 847a 7a3d 6ef1 cfbe
00000210: 9114 7a3e 6140 e33d e0a7 59bd 01e9 eabc
00000220: 8853 9f3e fb97 d1bd 5e0c 0abe b265 6c3c
00000230: 2a92 d4bc 82d0 82bd e5f7 babc ea5d 043e
00000240: 31b1 823e 5bdf aa3d 96ad 0e3d 52ac 963e
00000250: 4e94 033d 2863 f1bc dd5c 783d db03 843e
00000260: a481 8d3d f508 d7bd 3be2 4dbe 422c c9bd
00000270: b459 813d 3374 b93d f255 ff3d 63d0 b3bc
00000280: 2bd2 9a3b 57a7 3c3e 5871 85bd 4e1d 9c3c
00000290: 158d f0bc aa78 47be 8d9f 313e 7044 6fbe
000002a0: 969e b03d f3c3 033e fb19 193d ddba a33d
000002b0: df0e 58be f4c3 c0bc 47c0 35bd c1a4 3fbe
000002c0: d8db debd 881f adbc 235a 57be 61e6 293d
000002d0: e9ff 02be 3b90 a2bd dd9c 763d 8f51 32be
000002e0: 2fbb 2f3a 2dd8 c53b 4fba b6bd 2ad5 5c3c
000002f0: 4862 07be 8143 2cbe 0f73 a4be 678a 353e
00000300: fd83 74bd f252 a4bc 57ea 963e 4f2f 9ebd
00000310: 87d1 c5bd a640 d7bd 8036 4d3d 9756 4d3e
00000320: b1b5 04be 3018 3fbd 0b6d aabd 7404 9cbe
00000330: a730 f13d 147b b2bd 0eac 3fbe 4475 65be
00000340: d5cf 21be 9818 f5bc f577 b93d dfc4 53bd
00000350: 1f92 823d bf2a ae3c 63ef cbbd 42bf a03e
00000360: c5f0 3e3c 1e4d 793d 04d3 efbd 57da d23d
00000370: b518 9a3d 282d a73e eef2 5a3e 82d6 5d3d
00000380: 5e11 2b3d aa60 023d 37cd b6bc 1fbe 32be
00000390: fff2 a4be 35f2 913d b188 043c 011b 793d
000003a0: 5ea3 283b 2a63 04be 8d8c 9ebd 48ac 5dbd
000003b0: 065b 45be 9554 32be 22f1 26be b27c 61bd
000003c0: 0e0b d43e 9eb6 063e 26a4 943d decc a63d
000003d0: e25e c9bd 6c0b dabd f00e e63d bde4 fcbd
000003e0: f472 18bd 8d52 73bd ff17 0d3e 53b7 b93c
000003f0: 9931 103e a3a4 fabd 1724 953d f50a 3cbd
-0.06253054 0.37374413 0.0977113 0.072148435 -0.019168146 0.017571965 -0.14268827 0.18089986
-0.40206796 0.0010239331 -0.07866894 -0.21489134 -0.16748007 0.14654605 -0.073932275 -0.380992
0.06975411 0.068463 -0.08072795 0.09477536 -0.38989606 -0.053894073 -0.007279324 0.057881173
-0.045584846 0.063434415 -0.068217225 0.026395913 0.11679121 -0.03789934 -0.08383775 0.07276563
0.009176296 0.0025232139 0.17966358 -0.13649628 -0.11166565 -0.2259974 0.09831989 0.029703839
0.04357303 -0.106662594 0.12074037 0.22687715 -0.06641639 -0.025339412 -0.09431183 -0.12380605
0.09885001 -0.1876536 -0.26042324 0.04654961 -0.12193795 0.0049213413 0.005144213 -0.0030845029
0.110790774 -0.017820742 -0.35374278 -0.105424255 -0.21323347 0.07443271 -0.05058937 -0.009516128
0.073712155 -0.14778616 -0.14566162 0.07865142 -0.12162167 -0.008551932 -0.027922135 0.14076455
0.22663274 -0.005521595 -0.0076782224 0.2530077 0.05629616 0.2516908 0.017521078 -0.14394367
0.026382688 0.123791166 0.16766004 0.2227486 -0.08599911 -0.11078653 0.23759966 -0.108486824
0.07198262 0.010106148 -0.08984649 0.029415825 -0.08497253 -0.06154505 0.07430071 0.20415105
0.1374875 0.22552203 -0.22922838 -0.10947057 0.057365317 -0.08939852 0.18053345 -0.26293764
-0.14488952 0.09941694 0.010687217 -0.030015875 0.02927506 -0.033304293 -0.042717174 0.028103374
0.15645434 -0.16211765 -0.18207 -0.0412119 -0.071978115 0.024313312 0.12058264 -0.055491995
0.1819585 -0.067960806 -0.13242728 -0.16340859 0.13229352 0.015173991 -0.105040595 0.13547198
0.2851602 0.28822622 0.061151996 -0.40613884 0.24421908 0.11096264 -0.053138614 -0.028675558
0.31118417 -0.10234066 -0.1348128 0.014428543 -0.025948603 -0.06387426 -0.022823283 0.1292645
0.2552581 0.08343383 0.034833513 0.29428345 0.032123856 -0.029466227 0.060635436 0.2578419
0.069094926 -0.10499755 -0.20105831 -0.09822895 0.06315938 0.09055366 0.12467565 -0.021949952
0.004724761 0.1842321 -0.06515759 0.019056942 -0.029364148 -0.19479623 0.1734602 -0.2336595
0.08623998 0.12867717 0.037378293 0.07994626 -0.21099423 -0.023530938 -0.044372823 -0.18715192
-0.108817756 -0.0211332 -0.21030478 0.041479472 -0.12792934 -0.07937666 0.06020819 -0.17413925
0.0006703613 0.006037733 -0.08922254 0.013478557 -0.13221085 -0.16822626 -0.32119033 0.17728578
-0.059696186 -0.020059083 0.29475662 -0.07723867 -0.09659105 -0.105103776 0.050100803 0.20052563
-0.12959935 -0.046653926 -0.083215795 -0.30472147 0.11776858 -0.087148815 -0.18717977 -0.22408015
-0.15801938 -0.029918954 0.09056083 -0.051701423 0.06375527 0.021260617 -0.09957769 0.31395918
0.011654084 0.06086456 -0.1171017 0.10295551 0.07524244 0.3265164 0.21381733 0.05415965
0.04176461 0.031830467 -0.022314651 -0.17455338 -0.3221664 0.071262754 0.00808923 0.06081677
0.002573214 -0.12928453 -0.07741652 -0.05411938 -0.19273004 -0.17415078 -0.16302922 -0.05505056
0.41414684 0.131556 0.07257871 0.08144544 -0.098325506 -0.1064671 0.11233318 -0.12348316
-0.037219003 -0.0594049 0.13778685 0.022670424 0.1408142 -0.12238433 0.07282274 -0.045908887

linears.1.bias f4 [50]
00000000: a0e1 1b3c 476b 35bd d06f 80ba c2d4 e9bc
00000010: bd0d 9c3c 89ac dfbc b33b fe3c c1c9 c3bc
00000020: 0647 4dbd 496a 063d fa89 51bd 7229 b1bc
00000030: a83d 46bd 0aa1 f4bc e6c4 5a3c d669 3cbc
00000040: a20f 5d3d 275c 503a ffe6 80bc 403a aebc
00000050: d489 2c3c 995d 97bd 913c 16bd c9be f63a
00000060: 057a 9f3d f06a 2cbd af19 643c 4b2c 193c
00000070: 777b 01bd e92a 833d d991 153d 50c8 6f3c
00000080: 83dc 123d 4704 3f3d 2825 b2b9 26fa 4c3a
00000090: e054 08bd d736 cabb c66e 31bd 7c85 68bc
000000a0: e73f 2f3d 925a 183d b888 2fbd 13ff 583a
000000b0: 6e24 c6bb 90c4 483c 735f 28bc 7d60 25bd
000000c0: 2a2b 3a3c db6e 353c
0.009514242 -0.04429176 -0.0009798948 -0.028543834 0.01904952 -0.02730395 0.031034326 -0.023899915
-0.05011656 0.032816205 -0.051156975 -0.021626208 -0.048398644 -0.029861946 0.013352608 -0.011499843
0.053969987 0.0007948302 -0.015735148 -0.02126801 0.010530908 -0.07390899 -0.036678854 0.0018825169
0.07786945 -0.04209417 0.013922139 0.009348939 -0.031611886 0.06404669 0.036516044 0.014635161
0.035854828 0.04663494 -0.0003397849 0.00078192574 -0.033284068 -0.006171088 -0.043318532 -0.014191981
0.04278555 0.03719575 -0.042854995 0.0008277755 -0.006046823 0.012253895 -0.010276663 -0.04037522
0.01136283 0.011073793

linears.2.weight f4 [50, 50]
00000000: 26de a8bd f477 8ebe ab5a db3c c072 193e
00000010: a1f1 793b 34e0 2cbd d6bd b13c 870a 09be
00000020: 8792 90bd 5b57 223e abb3 ce3d 0b01 173e
00000030: 0486 76be d725 9cbe 4c99 0b3d 7438 103e
00000040: 7660 e33d 8b9b 81be 0f11 4a3d d923 eb3c
00000050: c8d4 223e c9ef 213d 231c 82bd 6bcc 293e
00000060: 7bc9 a33d 55ab aebd c79d 36be d8ca a03e
00000070: 4bf2 76be 2ed2 09bc 6e3e 673e cf10 ac3d
00000080: a07b 3dbd f334 3bbd d15a adbc b0f2 a4bb
00000090: ac5c 55bd cd65 bf3c 8023 dd3e d583 5d3d
000000a0: b193 3f3e 65f4 a6bd 6f35 7abe 5d29 01be
000000b0: 9559 fd3c f398 62bd 07d0 7c3e a3d6 ba3d
000000c0: edcb 89be b5c2 88bd 0b46 84bd 58de 403d
000000d0: a68c 44ba eb8f ee3d 256e d73d 618f 793d
000000e0: 05e9 ed3d 1a94 8f3c 248c c63d 2b6b 1c3e
000000f0: f4dd 50bd 3919 0f3e 37a4 6fbe ab99 d53d
00000100: 22bb b53d 81ad 753d 0165 a93c b647 48bd
00000110: d111 05be e9e9 f43d 5f12 39bd 3454 f33b
00000120: d6eb c9bd dcc3 e3bd a442 243e 66d3 563e
00000130: 1681 06be 2675 9fbd 4c44 e1bd ab36 043c
00000140: ea3f c8bd 4600 0dbe 50aa 48be 4bdb 933e
00000150: ece2 a83e 17ff d93d 0451 d73d 3a16 9abd
00000160: 0b62 98be 91ba 1a3e 9d11 8abc f775 c5bd
00000170: 7e8e 383e 9835 cc3c c0b5 fa3d 0fc1 adbd
00000180: 4a27 7b3d 8d99 f3bd 32a4 203e e508 493e
00000190: d5b4 7cbd 8ea7 b53d deea 2d3d f4e3 6ebd
000001a0: 649c ea3d dc95 9c3d 1f11 cebd 91a8 5c3d
000001b0: b015 96be 2269 133e 4efc 85be 7a5c 913c
000001c0: 69be aebd 90df 36be 273c c33d 4f36 2bbc
000001d0: 4662 093e e7a7 83bd e4e3 1cbd e6d9 e7bd
000001e0: 78d1 a5bc 7402 73bd 2dd3 92bd f0dc 13be
000001f0: 5f46 eb3d 1492 b43c 5898 1c3e 3cac de3d
00000200: b72b 183e 80f5 4cbe fa48 693e 29bb 0d3d
00000210: 8939 aabd e091 143e 7cd6 6dba cbdc 3c3e
00000220: cada 073d e453 043e ddb5 87bd e8de 79bd
00000230: 1053 563e c67b 923c 7ad0 5bbe 7362 773e
00000240: 1986 60be 3a57 b3bc ef1a 143e 916a ccbd
00000250: b6c5 ce3d 64d3 05be 2345 16bc 8981 863d
00000260: 8bc4 3e3e 7452 c4bd 47ee f6bd 9195 2d3d
00000270: 221e 09be 0061 33be 9eb7 103e 10d8 043e
00000280: 648c 2fbd c9bf 053e ff45 a6bd eb77 f6bd
00000290: e57c 4f3e 9738 05be 251c 1c3d fe06 863d
000002a0: 4db6 83bc 29bf d5bd 9e37 03bd 8ccc 7a3d
000002b0: b456 60bc ad98 4cbe 8525 a7be 0305 31bd
000002c0: 2fd1 57be dc9c 2c3e 7812 1abd dd52 62bd
000002d0: 99c5 0d3d 2b53 043d 6226 d6bc db0a 663e
000002e0: cd6b 153d daea 5cbc d1a4 273e bb02 51bc
000002f0: c431 6c3e 471c 97bd fa93 a7bc 2bfd e23d
00000300: 63c4 21be 4ae7 80be f35d 9cbe 8235 793e
00000310: 3f33 81bd 022a f2bc e0d9 a6be a19a 013e
00000320: 4d4d 203d 50a3 1fbd c285 133e 0082 7b3d
00000330: b24c d93d 4bd3 10be c31d 6f3e 6f97 bf3d
00000340: d1a9 2bbe 3d70 113d fc40 4b3c b10f 64bc
00000350: 1644 b83c 00ea b9bd 7d27 7e3e 978b 63bc
00000360: 9570 3f3d 7808 debd 905d debc 124d bfbd
00000370: b4e3 04be afb6 b2bc b02c 8d3e 41fc 09be
00000380: 045c 91be aff7 8fbd 203a d4bc 2127 85be
00000390: 6f54 8b3c 4f0f a5bb d0ec b3bc 89d2 9d3e
000003a0: 4eb9 95bb 698e 4f3e 983e 09be a075 8a3d
000003b0: a565 91be be68 493e c6d2 553d 973c 7d3d
000003c0: c0e6 22bd 64e0 26be 5a78 293e 19db c13d
000003d0: 74df d23b 78b4 aebe 2bc8 29bd 6993 39be
000003e0: 8fe0 3a3d 501a 903c 4f54 e8bc 1743 9fbd
000003f0: 148d 3ebe 3218 173d 29cb 853c 6dc3 4cbd
-0.082454965 -0.27825892 0.026776632 0.1498518 0.0038138407 -0.042206004 0.021696966 -0.13382922
-0.07059198 0.15853636 0.10092863 0.14746492 -0.2407456 -0.3049762 0.034081742 0.14084035
0.11102383 -0.25313982 0.049332675 0.028703617 0.15901482 0.039535318 -0.06353023 0.16581886
0.07997414 -0.08528773 -0.17833625 0.31404757 -0.24115865 -0.008411927 0.22582409 0.084016435
-0.046260476 -0.045704793 -0.021161469 -0.0050338134 -0.052090332 0.023363972 0.43191147 0.054080803
0.18708684 -0.08152083 -0.24434446 -0.12613435 0.030926505 -0.055321645 0.24688731 0.0912297
-0.26913396 -0.066777624 -0.06458672 0.047087044 -0.0007497765 0.11648544 0.10519055 0.060927752
0.116167106 0.017526675 0.096946985 0.15275256 -0.05099292 0.13974465 -0.23402487 0.104297005
0.088735834 0.05997992 0.020678045 -0.048896514 -0.12995078 0.11958677 -0.045183536 0.0074258093
-0.09859435 -0.111213416 0.16041046 0.2097908 -0.1313518 -0.07786016 -0.10999355 0.0080696745
-0.09777816 -0.13769636 -0.19596219 0.28878245 0.32985628 0.10644358 0.105134994 -0.07523771
-0.297623 0.15110232 -0.016854102 -0.09641641 0.18023106 0.0249279 0.12241697 -0.08484089
0.061316766 -0.11894522 0.15687636 0.19632299 -0.061695892 0.08869849 0.042460315 -0.05832286
0.114556104 0.07645771 -0.10061859 0.053871695 -0.2931342 0.14395574 -0.26169056 0.017744292
-0.085324116 -0.1785872 0.095329575 -0.01044996 0.13416395 -0.06428509 -0.03830327 -0.11320858
-0.020241484 -0.05932851 -0.07169185 -0.1443975 0.114880316 0.022042312 0.1529249 0.10872695
0.14860426 -0.20015526 0.22781745 0.034602318 -0.08311755 0.14508772 -0.0009072793 0.18443601
0.033167638 0.12922627 -0.066264845 -0.061003596 0.20930123 0.017881285 -0.21466246 0.24158649
-0.21926154 -0.021892179 0.144634 -0.099812634 0.10096304 -0.1306892 -0.009171757 0.065676756
0.18629663 -0.09586039 -0.120571665 0.042378966 -0.13390401 -0.17517471 0.14132544 0.12973046
-0.042858496 0.13061441 -0.081188194 -0.12034591 0.20262487 -0.13009869 0.03811278 0.065443024
-0.016078139 -0.104368515 -0.032035463 0.061230227 -0.013692547 -0.19980116 -0.32645813 -0.04321767
-0.21075891 0.16856712 -0.03761527 -0.055254806 0.034612272 0.032305878 -0.02614135 0.22465079
0.03647976 -0.013483727 0.16371466 -0.012756999 0.23065859 -0.0737844 -0.020456303 0.11083444
-0.15797572 -0.2517646 -0.30540428 0.24336818 -0.063086025 -0.029561047 -0.325881 0.12656642
0.03913622 -0.038974106 0.14406493 0.061403275 0.106103316 -0.14143102 0.23351197 0.093550555
-0.16763999 0.03550743 0.01240563 -0.013919757 0.022493403 -0.09077835 0.24819751 -0.013888261
0.046738226 -0.10841459 -0.027144223 -0.09340872 -0.12977487 -0.021815626 0.27573156 -0.13475133
-0.28390515 -0.07029664 -0.025906622 -0.26006415 0.017008035 -0.0050372253 -0.021963507 0.30824688
-0.004569209 0.20269169 -0.13402784 0.067607164 -0.2839786 0.19668862 0.052202962 0.06182536
-0.03977084 -0.16296536 0.16549817 0.09465618 0.006435329 -0.34122062 -0.04145066 -0.18122639
0.045624312 0.017590672 -0.028360514 -0.07776468 -0.18608505 0.03688831 0.016332226 -0.04999106

linears.2.bias f4 [50]
00000000: ae36 c13b 063a 0cba 0ce4 a53c 81d3 af3c
00000010: 87e1 89bc 8622 b53c f8eb 87bc d52a 1a3d
00000020: 6fb9 8a3b b2cb 8e3c e307 8bbc c951 14bc
00000030: f4ee 10bd 150f 323d 3dbd 2dbb 7b56 fabc
00000040: ba7f a2bc c7cf 873c dd7a 2e3c 1c03 793c
00000050: ee69 9d3b b0eb 03bc f776 293a eb6c 453d
00000060: 2eb2 11bc 5310 153b 9883 21bd b21e b4bc
00000070: f804 843c 3161 263b 4c6d ac3c 8628 30bc
00000080: 860c 2e3c 639a b03c 8d97 d0ba 5159 84bc
00000090: 6fd6 0cbb ceb0 613a 427b 1c3b 8954 d73c
000000a0: 4ac7 0bbc ff07 dbbc 7315 11bd 7517 d8bc
000000b0: f36a a0bc 6f46 01bd a8c0 273d 8ea0 a4bc
000000c0: b861 173d 8988 edbc
0.005896411 -0.00053492223 0.020250343 0.021463158 -0.016831173 0.022111189 -0.01659201 0.037638504
0.004233531 0.017431114 -0.016971534 -0.009052702 -0.035384133 0.043471415 -0.00265105 -0.030558815
-0.019836295 0.016578568 0.01064941 0.015198495 0.0048038876 -0.008051798 0.00064645655 0.048199575
-0.008892579 0.0022745326 -0.03943214 -0.021987293 0.01611565 0.002538752 0.02104821 -0.010751849
0.010623103 0.021557992 -0.0015914306 -0.01615587 -0.0021490117 0.0008609415 0.0023877178 0.026285427
-0.008531401 -0.026737211 -0.035420846 -0.026378373 -0.019582247 -0.03156131 0.040955216 -0.02009609
0.036958426 -0.02899577

linears.3.weight f4 [50, 50]
00000000: e99f 853d 2f77 b63b 39e1 22bd 5a53 f9ba
00000010: 896e b53b 9727 703c fb9c 173d 8bee 733d
00000020: aaed dd3d 9295 11be 1c43 9c3d 447b 4e3d
00000030: ae3f 93bc 3ced 1b3e e34c 22bc 0799 cf3d
00000040: 0ee6 86bd 4eea 9c3d 7e89 833d 63b7 e83d
00000050: f829 25be fd13 1bbe 8c06 bdbc be27 1c3e
00000060: 0387 573e 694d 00be 51d4 bc3d 0e26 28be
00000070: b9bd 12bc 8852 233e ed6b 243e 9374 0abe
00000080: ce2d 79bd 2bd9 bb3c b95c fabd 9f14 e93b
00000090: 7721 5dbe 2b85 853d 9f2e 34be 64be 9fbe
000000a0: 41de 7fbd e65f 1cbd 70a5 bfbd 26cf 193e
000000b0: 9f4f 09be 818f b83c 0032 6dbe c2e4 86be
000000c0: 17bf 96be 0023 bc3d b855 b1bd d302 3e3d
000000d0: 6dd7 2d3e 2535 58be f84f 503d 5aaf 6abd
000000e0: 32c3 50be 8575 933e 9359 763d de05 e8bd
000000f0: 4292 0b3c 70ed debd a6c0 543e 9b2f 483d
00000100: 06aa c2bd 8f22 2bbe cece d5bd b9fb 4dbd
00000110: a317 e4bd 2e1a 07be 2072 5a3d 7383 51be
00000120: 4dba bfbd b9d8 d53c 8294 47be 16d9 fdbd
00000130: a9d7 493e 64b0 77bd 12e2 d63d 160f 423c
00000140: 2176 babc 7734 92bd 2ba7 a93d 777d 233e
00000150: 0916 b33c c9e5 ab3d 7ca8 093c 38ab 8f3d
00000160: 762c 49bd d3eb 7b3e 9f98 3dbd e266 1dbd
00000170: db12 7d3d eeaf 9fbd b16a 523e 3c64 ab3d
00000180: d082 5f3e d292 9e3d d939 003d d7d3 503d
00000190: 7643 9c3c 02ea a03d fe8f 013e 3663 adbe
000001a0: 12ef 1abe 242d 243e 8fb7 bd3d b6d8 66be
000001b0: 6cba 99bd 898a 943d 375b 843e 788d 8a3d
000001c0: b8e5 343e 0ae2 2abe c362 32bd 88e6 adbd
000001d0: 18e2 313e aad8 b33c f2d9 14be deed 58be
000001e0: 88df 443d 7a7c 363d f7ba 4bbd 5387 a93e
000001f0: c0e5 1dbd 850b 853e 3e5b e33c 4d9a 01be
00000200: b57e 623d 9301 e93b 21eb bd3c af69 523d
00000210: 5b3a 4c3d 9374 8dbe 2306 483e 7e03 6bbe
00000220: c402 4f3d 754d e43c 0d2d 11bd a01e 273e
00000230: 1d68 463e 0adc 96ba e8b3 023e 79ec 7c3e
00000240: ba4d 913e 5d79 18be 6940 82bc ac3f dabd
00000250: 981b 343e 9d06 c13d 9b47 0dbc f3df 4bbe
00000260: 3822 893d d237 28be dfa7 27bb ee90 31be
00000270: 41b7 a23d ed4a 803d 9f00 053e 3d7e 38bd
00000280: afc2 4e3e aa4c f03d 4296 a1bc ad59 66bd
00000290: 2469 643e 0d04 d9bc af82 c9bd 53cf 7dbe
000002a0: 26c3 dfbc 9cd2 c8bd b189 fb3d b10b 273d
000002b0: 615b 3b3e 6bc6 c53d bc23 243e 31d7 89bb
000002c0: 630a 033e 0fcd bdbc 7b76 9d3c c14a 75be
000002d0: a555 e93d 84cf b63d b979 b5ba 13bd bf3b
000002e0: af64 083d c426 0cbe f98d a7be 7ff3 54bc
000002f0: 739f 8a3c ab1b ce3d 2fa9 86bd e9a0 bb3d
00000300: 6701 ee3d 4fdf 413d c98d 923e 3037 30be
00000310: 19c5 b93d a721 01be 0a27 b1bd 9ddc 043c
00000320: 3735 3bbe ea81 233e 3d68 e43d 0d3e 39be
00000330: cda9 003e 0b7c c13d 5c36 04be f511 a13d
00000340: 3bc8 0cbe f62d f63d d3c3 563d 75b2 e93a
00000350: 58f7 4c3d 8bba a2bd d33f df3d 0783 bbbd
00000360: 473e c63b d09d b9bd ff44 32be a25c 1c3e
00000370: 8afb a93c d15c fb3d 01d7 5c3c e155 953d
00000380: e3de 933c e7af 40be 9910 903e 251f 34be
00000390: b699 89be 46e9 a93c 6a49 4ebe fb88 873b
000003a0: bf0e 163e ee6c ac3d 0acf eabc f707 bc3d
000003b0: 0f13 d73d 3b7d 41bd 76ec 3abe a4b2 303e
000003c0: e87d 97bd 2f8a 12be c1ad 5f3d b7b4 493b
000003d0: e820 bdbc ad29 d6bc 6c4c 12be cee1 0cbe
000003e0: 086b fbbd d6dd 92be 27a8 063d add2 483e
000003f0: 8cd5 033e d0a0 87be 69e8 803d 7609 2c3e
0.06524641 0.005568407 -0.03976557 -0.0019022033 0.0055368585 0.014657876 0.037014943 0.059553664
0.108363464 -0.14217213 0.076299876 0.050410524 -0.0179747 0.15227216 -0.009906027 0.101366095
-0.06586848 0.076618776 0.06422709 0.11363103 -0.16129291 -0.15144344 -0.02307441 0.15249535
0.21047597 -0.1252953 0.09220184 -0.16420767 -0.008956366 0.15949452 0.16056795 -0.13521032
-0.0608347 0.022930702 -0.12224717 0.007113054 -0.21594797 0.065195404 -0.1759591 -0.31199944
-0.062467817 -0.038177393 -0.093577266 0.15020427 -0.1340928 0.022529365 -0.23163605 -0.26346403
-0.29442665 0.09186363 -0.08658928 0.046389412 0.1697671 -0.21114023 0.050857514 -0.057296135
-0.20386961 0.28800598 0.06014402 -0.11329244 0.008518757 -0.10885131 0.20776615 0.048873525
-0.09505086 -0.16712402 -0.104398355 -0.05028889 -0.11137321 -0.1319358 0.053331494 -0.204603
-0.09361706 0.026104318 -0.19490245 -0.123949215 0.19711174 -0.060470954 0.10492338 0.011844417
-0.022761406 -0.07138913 0.08283838 0.1596583 0.021861093 0.083934374 0.008401986 0.07015079
-0.049114667 0.24601679 -0.04628813 -0.038428195 0.06178556 -0.07797228 0.20548512 0.083687276
0.21827245 0.077428475 0.031305168 0.050983276 0.019075137 0.078571334 0.12652585 -0.33864754
-0.1513026 0.16032845 0.09263527 -0.22543606 -0.0750626 0.07252986 0.2585084 0.06765264
0.17665756 -0.1668779 -0.043551218 -0.08491236 0.17371404 0.0219539 -0.14536265 -0.21184489
0.04806474 0.044552304 -0.04973885 0.33111057 -0.038549185 0.2598535 0.027753469 -0.12656517
0.05529662 0.0071107834 0.023183407 0.05137032 0.04986034 -0.27628002 0.19533591 -0.22950551
0.050539747 0.027868966 -0.035443354 0.16320276 0.19375654 -0.0011509669 0.12763941 0.24699582
0.28379613 -0.14890046 -0.015899854 -0.10656676 0.17588651 0.094250895 -0.008623029 -0.19909649
0.0669598 -0.16427544 -0.0025582237 -0.17340443 0.07945109 0.06264291 0.12988518 -0.045042265
0.20191453 0.117333725 -0.019724969 -0.056237865 0.22305733 -0.02649119 -0.09839379 -0.24786119
-0.027314734 -0.098057956 0.12282122 0.040782634 0.18296577 0.09656986 0.16029257 -0.004206561
0.12796931 -0.023169069 0.019221535 -0.23954298 0.113932885 0.08926299 -0.001384548 0.005851397
0.033299144 -0.13686663 -0.32725504 -0.012997507 0.016921734 0.10063871 -0.06575238 0.091615506
0.11621361 0.047332104 0.28623798 -0.17208552 0.090707965 -0.12610494 -0.08650024 0.008109239
-0.18282019 0.15967527 0.111526944 -0.18090077 0.12564774 0.094474874 -0.12911361 0.07864753
-0.13748257 0.12020485 0.052432846 0.0017829674 0.050040573 -0.079457365 0.109008454 -0.09155851
0.0060499045 -0.090633035 -0.17409132 0.15269712 0.020749826 0.12273563 0.013478995 0.07291771
0.018050617 -0.18817101 0.28137663 -0.17590006 -0.26875085 0.020741116 -0.20145193 0.0041362024
0.14654063 0.08419214 -0.028663177 0.09181207 0.10501682 -0.04723857 -0.18254265 0.17255646
-0.073970616 -0.14310525 0.054609064 0.003077788 -0.02308698 -0.02614292 -0.14286965 -0.13758013
-0.12276274 -0.28684872 0.032875206 0.19611616 0.1287443 -0.26489878 0.06294329 0.16800484

linears.3.bias f4 [50]
00000000: 2334 1dbc e476 89bc 01c0 d1bc e632 9c3c
00000010: 5c07 a8bb 4cd0 4a3d 8166 a0ba a0d8 133c
00000020: 57e4 fa3c e4c1 733d a98c cdba 0bbd 813c
00000030: 1df1 e3bc 320a bebc 94cd 1d3c 55ad 2b3d
00000040: 757c c23c f4cc d83c 6e48 673c 0b89 e63c
00000050: 0a0c 6b3c afa6 7d3c a349 a83c 780b c5bc
00000060: 80bf 5abc 44db 6cbc 5b1f e63b 66cc afbc
00000070: 9133 aa3c de2a 53bd 21b8 51bc 984f 553d
00000080: d1d4 f33b b2eb 28bc 0740 b23c a6b7 d2bb
00000090: 5fba 883c 67f9 89ba 70d3 1c3d ec74 82bc
000000a0: 0aef db3c 2067 6ebc 1fff 86bc 954b c13c
000000b0: 8ef8 073d 3ea5 a1bc fedd 75bb 10ae a3bc
000000c0: a27a b2bc 4c67 7cbc
-0.00959495 -0.016780324 -0.02560425 0.019067239 -0.0051278304 0.049515054 -0.001223758 0.009023815
0.030626459 0.05951108 -0.0015682179 0.015837213 -0.027824933 -0.02319822 0.009631533 0.04191335
0.023740986 0.026464917 0.01411639 0.028141519 0.014346132 0.015481635 0.020542925 -0.02405332
-0.013351321 -0.014456574 0.007022781 -0.02145977 0.020776542 -0.051554553 -0.012800247 0.05207786
0.007441141 -0.0103101 0.021759046 -0.006430584 0.016690431 -0.0010526598 0.03828758 -0.015924893
0.026847381 -0.014550954 -0.016479073 0.02359561 0.033196025 -0.019732114 -0.003751635 -0.01998046
-0.021786992 -0.015405487

linears.4.weight f4 [50, 50]
00000000: e912 9ebd 064e 7ebe a0dc 3d3d 7fad b1bd
00000010: 209a 36be 39df 8f3e ad52 233e 020e dbbc
00000020: 286b 143e 610d 19bd 9c23 ca3e f21f 54bd
00000030: 04d6 0c3e 8106 3f3c b38f 183c 4b89 903d
00000040: b06c 91bd 1f89 4abd 75dc febd 0468 afbc
00000050: 9244 59be f9b2 09be cf5e 39be d716 b4be
00000060: eff9 06be f555 78bd 21db 253e d7df 4ebe
00000070: 918c 823d 4658 12be 2be0 15bc 8367 a7bd
00000080: 55b0 7b3d 5a69 94bd 531e 11be 6c8d ac3c
00000090: b11a 1cbd e546 b33c 4798 853d ebf9 983e
000000a0: 97b8 a23d a291 823e 4674 e3bc ba67 00be
000000b0: a983 dcbc ac14 cebc 1fbc c4bd 920d ce3d
000000c0: 482d 3f3e 497f 5e3d e41c 2dbe d8a2 49bc
000000d0: deff bf3d 5874 023e 1074 92bd 3d2f bfbd
000000e0: 9a19 ecbc 4d80 e73d a229 003e dc88 df3c
000000f0: 2ef6 11be 68ab 6d3d 220d 05be 2d2a d73d
00000100: 441e 47be 7caf 5d3e 50cd efbc 95a6 443e
00000110: 9366 03bd 5132 85bd 4f1c 74bc d4d0 53be
00000120: 5956 f53d 09d4 1bbd 2937 42be 456b f03d
00000130: 2e81 03be 16bf 34be 6475 8f3e f9c9 16bd
00000140: ea45 84bd 175f 533d c304 153d ef00 6fbc
00000150: 7e68 12bd ef5c 3abd e66e ec3d c543 28be
00000160: 46d6 223e f37d ebbc 7656 6ebb 3f41 27be
00000170: a2af b13b 30f5 13be d465 9a3e 9e67 80be
00000180: b480 43bd 7c22 5e3e 0710 16bd 45f9 6bbd
00000190: 92e3 8cbc 1c1d c53c 8610 08bd 170e 28bd
000001a0: 639c 45bd 5106 93be d40e 8b3c 2b48 55be
000001b0: 4a21 bc3d 346c 74be 5035 0a3d eab8 bc3d
000001c0: a650 86be aa2a 6c3b 7728 1fbe 15cb 20bd
000001d0: b67b a6bc 9d4a cdbd 1387 57be 0c8e 52bc
000001e0: 8308 ec3d b5a7 f23d 9a81 153d 6704 13bd
000001f0: 442c bbbc 21a3 623d 9de2 fe3c 01fc f8bc
00000200: a90b 3d3d 1681 013e c9b6 8a3d 51fa 5bbe
00000210: cb76 06be 3139 77bd 4288 7b3e 927e dbbd
00000220: 42be a7bc 107c 91bd 795c cd3d 3b47 813d
00000230: 31e3 96be c0e0 eebc ee03 8a3e 6b28 5a3d
00000240: b97e 05bd 28a8 393d f818 98bd 040e f3bd
00000250: 442f 3e3e 35c3 343b 428b dd3d 0e25 8c3e
00000260: ae7d 9ebd dc95 94bd c59a 6cbd 6b2e eebd
00000270: c227 5c3d eaaa eabd 391e 2dbe bd04 863d
00000280: a249 03be 25ba bc3d c58c 5cbe 1f32 453d
00000290: 1f09 a23e 0aa9 dfbb 27b6 c9bb 1816 ac3d
000002a0: 97d3 20be 1dc9 e03d 252d d83d 2b03 87bd
000002b0: 6513 aebd 2f58 a03e aa32 883e d2c7 aabc
000002c0: ba26 e6bc 68b9 2d3e 8cf4 d73d 208f 823e
000002d0: 52b2 b1bd 1270 093e a93a 06bd ed72 ecbd
000002e0: 33b4 f0bd 7fe7 4abd 0b22 8d3d 6f00 173d
000002f0: 8139 ed3d bc22 023e c1f0 28be f168 783d
00000300: 084a f8ba cd9a 34bd 2a4e 0a3c 0dbf 7cbc
00000310: d27a 1dbd e375 3b3d 8a37 c4bd a994 303e
00000320: ac36 2e3d 483e e93d 6d7b 743c e4e7 02be
00000330: 86a2 153e 476e c73d 2ab5 4dbe 4b40 7abd
00000340: 25e2 91be 057a 283e 843a 44bd 6d92 8b3d
00000350: 1842 fbbc 94e0 ddbd e65c 4d3d 59fd 093e
00000360: 2f1a 103e 47b4 b93d 2e57 e9bc 6d6c e1bc
00000370: 2b9e 9fbe 6416 25be c9ab 583e ca1c f4bd
00000380: 751f 183d 5a3d 6b3d 86d2 7bbd e421 9f3e
00000390: 4796 0f3e 5584 98bc a4a9 fc3d 0abd 533e
000003a0: 32fa 7abe 3b13 1fbe aa69 53be 5bb8 a0be
000003b0: 1fd4 bebc 6ef2 b4bd d0f9 2abe fd64 f73d
000003c0: b960 173d d21f 2ebd 061e 4bbe f794 063e
000003d0: 9028 a8bd b2be cb3c f434 5a3e c73a 12be
000003e0: 0b87 f83c 5838 feba 2deb 2abe ad16 a63d
000003f0: a8e3 34be ce16 9dbe abad 103e 937a b7be
-0.077184506 -0.24834451 0.046352983 -0.0867567 -0.17832232 0.28099993 0.15949507 -0.026740078
0.14494002 -0.037366275 0.39480293 -0.051788278 0.13753515 0.0116592655 0.009311604 0.070574366
-0.071008086 -0.049447175 -0.124443926 -0.021411903 -0.21217564 -0.13447179 -0.18102573 -0.35173675
-0.1318128 -0.06062885 0.16196872 -0.20202576 0.06374467 -0.14291486 -0.009147684 -0.0817404
0.06144746 -0.07246657 -0.14171724 0.021063529 -0.038111392 0.021884391 0.06523185 0.29878172
0.07945364 0.25501734 -0.027765404 -0.12539569 -0.02691825 -0.025156341 -0.09606194 0.10061182
0.18669617 0.054320607 -0.16905552 -0.012306891 0.09374975 0.12739694 -0.071510434 -0.09335182
-0.028820802 0.11303768 0.12515882 0.02728694 -0.14254066 0.058024794 -0.12993291 0.10506091
-0.19445139 0.21648973 -0.029272705 0.19204171 -0.032080244 -0.06503738 -0.014899327 -0.2068513
0.1197936 -0.03804401 -0.18966354 0.1173921 -0.12842247 -0.17651019 0.2801925 -0.03681371
-0.064586475 0.051604357 0.036381494 -0.014587625 -0.035744183 -0.045498785 0.1154459 -0.16432102
0.15902051 -0.02874658 -0.0036367453 -0.16333483 0.0054225484 -0.14449 0.30155814 -0.25079054
-0.047730163 0.21692842 -0.03663638 -0.05761077 -0.017198358 0.024061732 -0.033218883 -0.041029062
-0.048244845 -0.28715757 0.016974844 -0.20828311 0.09186037 -0.23869401 0.03374225 0.09214957
-0.26233405 0.0036036172 -0.1554278 -0.039256174 -0.020322662 -0.10023997 -0.2104762 -0.012851249
0.11525061 0.11848394 0.03650055 -0.03589287 -0.022848256 0.055331353 0.031113917 -0.030393602
0.046153698 0.12646899 0.06773145 -0.21482207 -0.13131253 -0.060357276 0.24563697 -0.10717501
-0.020476464 -0.07103741 0.100274034 0.06312414 -0.29470208 -0.029159904 0.26956123 0.0532612
-0.032591555 0.045326382 -0.074266374 -0.11867908 0.18572718 0.0027582173 0.10817577 0.2737202
-0.07738815 -0.07255146 -0.057764787 -0.11629947 0.053748854 -0.114583805 -0.1690606 0.065438725
-0.12821057 0.09215192 -0.21538074 0.048143502 0.31647584 -0.006825571 -0.0061557475 0.084026515
-0.15705715 0.10975859 0.10555486 -0.06592401 -0.08499793 0.3131728 0.26601154 -0.020847235
-0.028094638 0.16965258 0.105446905 0.2549982 -0.0867659 0.13421658 -0.032770786 -0.11545358
-0.1175312 -0.049537178 0.06891259 0.036865648 0.115832336 0.12708563 -0.1649809 0.060646955
-0.0018942961 -0.044092942 0.008441487 -0.015426409 -0.03844721 0.045766722 -0.09580906 0.1724421
0.042532608 0.11388832 0.014922005 -0.12783772 0.14612779 0.097378306 -0.2008864 -0.06109647
-0.28492847 0.16452797 -0.047907367 0.06815038 -0.030671164 -0.108338505 0.050137423 0.1347555
0.14072488 0.09067588 -0.028483953 -0.027517522 -0.3117536 -0.16121823 0.21159281 -0.119195536
0.037139375 0.057431556 -0.061480068 0.31080544 0.1402217 -0.018617788 0.12337044 0.20677581
-0.24509504 -0.1553468 -0.20645776 -0.31390652 -0.023294507 -0.08835302 -0.16696858 0.12079809
0.036957476 -0.042510815 -0.19835672 0.13142763 -0.08210862 0.024871204 0.21309263 -0.14280234
0.030337831 -0.0019395454 -0.16691275 0.08109794 -0.17664969 -0.3068146 0.14128749 -0.35835704

linears.4.bias f4 [50]
00000000: b9d9 a63b a275 123d 8f88 2abc 0958 23bc
00000010: 8781 cebc 5c00 203c d0fe 06bd b7db 3d3d
00000020: c479 b53c b4a0 073c 908d 18bd 9d0b 443d
00000030: c107 be3d 3352 c03b b3e7 bdbc 6aca 95bc
00000040: 8480 2f3d 4ac6 07bd c1a0 24bd 912f 1abc
00000050: 83c1 7bbc bf8f 40bc 93cd 3dbd 04da 133c
00000060: 6cda 9cbb f403 1a3d f4e3 ad3c 8407 ab3c
00000070: 3533 02bb d624 473b b762 33bc af9d 19bc
00000080: f6d0 b8bb be17 573d 1f9b 5a3b 8591 373d
00000090: f161 27bd 8b39 143b de76 cdbc acce 973a
000000a0: aac2 00bd f7fb f73c 2396 c63a 5572 703c
000000b0: e56c dbbc 0f61 f13c 1c19 ecbb e1f2 463c
000000c0: 4641 283c 6f1b 443d
0.0050918725 0.035756715 -0.010408535 -0.00996972 -0.025208248 0.009765711 -0.032957852 0.046352115
0.022152789 0.008278061 -0.03724438 0.047862638 0.09278823 0.005869174 -0.023181772 -0.018284995
0.04284717 -0.033148088 -0.04019237 -0.009410755 -0.015365961 -0.011753022 -0.04633863 0.009024147
-0.00478678 0.037601426 0.02122686 0.020877607 -0.0019866948 0.0030386946 -0.010948828 -0.009375974
-0.0056401445 0.052512877 0.003335662 0.044816513 -0.04086489 0.0022617306 -0.025081094 0.0011581979
-0.031435646 0.030271513 0.0015150945 0.014675696 -0.026785323 0.029465226 -0.0072051417 0.012142868
0.010269469 0.047877725

linears.5.weight f4 [50, 50]
00000000: d240 e2bd aa42 dc3d 5da0 803e 3d51 11bc
00000010: 81df d83d d70e a13d 66f6 d63d 6419 a33d
00000020: 31d1 2dbe d676 0f3e 98fb 973d d2a8 60be
00000030: a5e4 1ebe 463d 9ebd 232e 54be 5660 f4bd
00000040: f374 a4bd 5418 2ebd 97a7 2a3a 5a14 bfbc
00000050: 0219 e3bc 80e0 a13c a0b5 6c3e 798b 093e
00000060: ca76 c03d 0328 53be 8638 88bd 311b ac3c
00000070: 5448 5fbd 753c b83d 2382 ea3d 0497 4f3e
00000080: f625 b6bd e1d2 613d 7991 683e 34aa 733e
00000090: 8719 73bd b76d 5f3e f05a 903c 215d d2bd
000000a0: 0a63 adbd f294 383e 4836 863e c1db ccbb
000000b0: a682 94bb a596 99be 064f ff3d dc65 d13c
000000c0: 95f3 0dbe d0c5 b73d 532b 863d f9ea 26bd
000000d0: a5d0 09be 8345 db3b d5d4 093e 96f4 0e3e
000000e0: 5c3e 27bd 95df 12bd fc34 133e 62cb 89be
000000f0: 9d26 f2bc 3450 923d b5f3 d6bd 3de5 dabd
00000100: 1768 dbbe 08d9 373d 7a28 da3a 89eb 4bbe
00000110: e530 f6bd d289 2fbe d834 09be f1ae fe3d
00000120: 414a 28be d00f 70be dee4 86be 2324 57bd
00000130: 23b0 47bd a7b5 35be e67a bf3b 62e7 1bbe
00000140: b5b6 01be 208c ccbd a694 833e 54f2 653e
00000150: c3b8 85bd 8653 c03d 8c39 d03d 2095 503e
00000160: 9b60 25be d752 35be 3bd6 fd3d 7dc7 1dbe
00000170: c822 813c 1ce7 ce3c 1fff cbbd 8e31 61bd
00000180: 6727 683d 44a5 783e d480 353e dd5c 373e
00000190: 52bb 51bd 60e5 523e 11ef 2ebd 597b cb3d
000001a0: 21cc d03d 8f5a c6bd 2c25 433e c4fa e5bd
000001b0: 2006 0e3e fa5d 8a3d 3209 2a3e 992d 28be
000001c0: 5e0a 83bd c3e7 eabc 9638 0a3f a55a 5f3e
000001d0: 4ebd 343d db89 ed3e ac83 fb3d 5414 253d
000001e0: c90e 833e 7e20 2f3e 3c08 b3bd 9701 0b3e
000001f0: 6f04 093e 856a 0c3d 24e9 b83d 4023 ba3d
00000200: 2360 843e 7d9e ad3d c300 10be 151e 15be
00000210: fad4 023c c4f4 7cbd 723e 903d 14be f83d
00000220: 0895 993d bc7b d5bc 3a79 af3d 66ab fd3d
00000230: ae89 093e 03cc 063e 7bb5 023d 5c64 3abd
00000240: fb83 983e 9c6f 223e e26f a83d 1ef4 cdbd
00000250: c652 b3bd 6e40 72bb 00e2 ad3e 597e f73d
00000260: 2fff 3cbe 7ea0 a23a e95b be3d 739e b73d
00000270: 1447 0439 4bef f83c 1900 3a3c 22f1 05be
00000280: a8a2 02bd b568 30bd f223 7fbe a278 1b3d
00000290: cf78 b63c 4c7b d73c a2d8 3ebe 8a6b d03d
000002a0: cb20 0a3e 1f5a aabc b311 1dbd ff47 fcbd
000002b0: 2d6a d5bd 8a99 493e a67c 64bd c280 02be
000002c0: 471e f3bb 03b5 02bd d512 393e 5b60 783d
000002d0: 7243 123e 0424 66bd 00da a13b 8419 64bc
000002e0: 28af dc3d 1ca8 f5bd d2b9 803e ea6f 503e
000002f0: 11b1 833d 4227 aabe 99b9 13be 8036 ddbe
00000300: da1d b8bd ed24 bd3c 8109 1cbe ae1d 67be
00000310: b55b 353d 6483 963c 9061 a13d 6455 56be
00000320: a7e3 8f3d 116f 703e 81db d7ba 09b3 403e
00000330: cfbb 6fbe 569a fcbc 6d98 8bbe 6f69 bfbd
00000340: 4dab c3bc 2c32 02be 3387 07bd 1996 2b3e
00000350: 88bd 843c 964a e8bd 16a2 41be 9b7e 23be
00000360: ed69 afbd d84a 433d dd10 053d 35b0 8d3d
00000370: 97a3 e4bd 3f81 633e 1f77 06be 2ab6 0f3e
00000380: dbbc cdbd 96c5 4e3e e056 d5bc 14ec 84be
00000390: 51ca 5c3e 3a1a febd ba66 3dbe 9561 03be
000003a0: ce90 76bc cf2b c03c ecff 4c3d 3a31 61bd
000003b0: 23e2 54bd 67ad 7dbe 39cc 79bd 8192 5dbd
000003c0: 43d3 39be 6ee8 513d e98d 28bd 9cc7 10be
000003d0: d89e a53d 04cf 4b3e 872e 5f3d d4c8 fd3d
000003e0: 42d0 b73c 4038 003d a5d7 00bc 3a79 98bd
000003f0: 32ad 9d3d 9f73 0e3e 0d57 0a3c c468 05be
-0.1104752 0.10754903 0.25122347 -0.008869466 0.10589505 0.078641586 0.104962155 0.07963827
-0.16974331 0.14010176 0.074210346 -0.219394 -0.15516908 -0.07726531 -0.20720725 -0.11932437
-0.08030119 -0.04250367 0.0006509958 -0.023325134 -0.027721886 0.01976037 0.2311616 0.13432111
0.09397657 -0.20620732 -0.06651406 0.02100906 -0.054512337 0.08995906 0.11450603 0.20272452
-0.08893959 0.05513275 0.22711743 0.23795396 -0.059350517 0.21819197 0.017621487 -0.10271669
-0.08466156 0.18025568 0.26213288 -0.0062517826 -0.004532176 -0.29997745 0.124662444 0.025561266
-0.1386245 0.089732766 0.06551232 -0.04075143 -0.13458498 0.006691636 0.13460095 0.1396049
-0.040830955 -0.035857756 0.1437568 -0.2691298 -0.029559428 0.07144204 -0.10495702 -0.10688255
-0.42852852 0.04488471 0.0016644143 -0.19914068 -0.12021045 -0.17142418 -0.13399065 0.12435711
-0.16434576 -0.23443532 -0.26346487 -0.052524697 -0.04875196 -0.17745076 0.005843508 -0.15224984
-0.12667353 -0.09987664 0.25699347 0.22455722 -0.06529381 0.09390931 0.10167226 0.20369387
-0.16150133 -0.17707382 0.12394377 -0.1540813 0.015763655 0.025256686 -0.0996077 -0.0549789
0.056678202 0.24281794 0.17724925 0.17906518 -0.051204033 0.20595312 -0.04270846 0.09935636
0.101951845 -0.096852414 0.19057149 -0.1122947 0.13869524 0.06756206 0.1660507 -0.16423644
-0.06398462 -0.028674966 0.53992593 0.21811922 0.044125848 0.46394238 0.12280974 0.04030259
0.25597218 0.17102239 -0.08741805 0.13574825 0.13380598 0.034281272 0.09028843 0.09088755
0.25854596 0.08477495 -0.1406279 -0.14562257 0.007985348 -0.061756864 0.070431605 0.121456295
0.074991286 -0.026059978 0.08568044 0.12386207 0.13431427 0.13163762 0.031911355 -0.045505866
0.29788193 0.15862888 0.08224465 -0.10056327 -0.08756022 -0.0036964673 0.33961487 0.12084646
-0.1845672 0.001240745 0.09294874 0.08965769 0.0001261498 0.030387541 0.011352562 -0.13080266
-0.031893402 -0.043068606 -0.24916056 0.03795684 0.022274403 0.02630391 -0.18637326 0.101767614
0.13489072 -0.020794926 -0.038346957 -0.1231842 -0.10420642 0.19687477 -0.055782937 -0.1274443
-0.007419381 -0.031910907 0.1807359 0.060638767 0.14283541 -0.05618669 0.0049393177 -0.013922099
0.10775596 -0.11994955 0.2514177 0.20355192 0.06430257 -0.33233076 -0.14426269 -0.43205643
-0.08990069 0.023088897 -0.15238 -0.22569916 0.04427691 0.018373199 0.07879937 -0.20931011
0.07025843 0.23479868 -0.0016468616 0.18818296 -0.23411487 -0.030835312 -0.2726473 -0.09346282
-0.023885394 -0.12714452 -0.03308792 0.16756476 0.016203657 -0.11342351 -0.18909487 -0.15966265
-0.085651256 0.0476788 0.032486785 0.069183744 -0.11164015 0.22217272 -0.13131379 0.14034334
-0.10045787 0.2019256 -0.026042402 -0.25961363 0.21561553 -0.12407346 -0.18496218 -0.12830193
-0.015049173 0.02345839 0.050048754 -0.054978587 -0.051973473 -0.24773179 -0.060985778 -0.054094795
-0.18146996 0.051247053 -0.04115096 -0.14138645 0.08086938 0.19903189 0.05448773 0.123918205
0.022438172 0.031303644 -0.007863914 -0.07444997 0.0769905 0.13911293 0.008443606 -0.13028246

linears.5.bias f4 [50]
00000000: 9bdb ef3b bb5c b63c 8ba4 81bd 474a 77bc
00000010: b8c4 443d f90c 79bc a3ea 403d 9295 6dbd
00000020: 16c8 36bd f36c 9c3c f169 59bd f339 963b
00000030: e179 29bc 431a c83d a600 8d3c ce77 0c3d
00000040: 7df7 6b3c 3c61 db3c 6f76 14bd 8012 c2ba
00000050: ecf9 dabc aa5a 57bc b3b1 2c3d 5319 bbbb
00000060: 25d5 19ba e79a b53c df71 aabc 7633 e1bc
00000070: 80f3 55bd 007d afbb 713c b1bc 6473 0b3d
00000080: ab08 bcbc f182 9bbc 6e97 41bd 3364 0f39
00000090: ce48 d4ba 50e7 9abc fd68 d8ba bf1e eb3c
000000a0: ff89 453c 82e4 3abc bd27 253d 4099 393c
000000b0: 6cdb 453d 613e b13c c55e 48bc 26e1 4dbd
000000c0: 0d2c 62bc a8e8 673d
0.00731988 0.022261014 -0.06330212 -0.015093393 0.048039168 -0.015200847 0.047098767 -0.05800397
-0.04462441 0.01909492 -0.05307955 0.004584545 -0.010344 0.09770634 0.017212223 0.034293942
0.0144022675 0.026779763 -0.03624576 -0.0014806539 -0.0267305 -0.013144175 0.042161655 -0.005709806
-0.0005868248 0.02216859 -0.020806251 -0.027490359 -0.052234173 -0.0053554773 -0.021635266 0.034045592
-0.022953352 -0.018983336 -0.047263555 0.0001367487 -0.0016196014 -0.018909127 -0.0016510781 0.028701184
0.012056827 -0.01140702 0.0403211 0.011328042 0.04830496 0.02163619 -0.012229626 -0.050263546
-0.013804448 0.056618363

linears.6.weight f4 [50, 50]
00000000: c31e eb3d 3156 07bd a6aa babd 6915 823e
00000010: 1c0e 9dbc bdda eebc 0ead d63b b7c7 503b
00000020: 32ff 4ebe 727e 13bd 659d 0b3e f29c 0a3e
00000030: c115 f53d 3c24 adbd a688 283e a9c5 c7bc
00000040: 8cbd e9bd e785 0cbc e5fd f83d 2dfd f3bd
00000050: 455e b43d 8318 9ebd 826e bdbe a4b6 3abe
00000060: 4529 133e b281 f8bd d6df ff3b 8aec 30be
00000070: 2b5e 94bd 8447 b2bc 599e 80bd 687d 53be
00000080: a4a1 b1bd e056 26bd 56ee 873d 8869 a63e
00000090: 9b04 6dbb dcb1 323e 688a 9a3e e750 80bd
000000a0: bff2 c8bd 0c31 04bd d473 4b3e 6360 ccbd
000000b0: 3cf0 debd 6e01 20bd c250 923d a93f 7c3d
000000c0: b43a 18bd af8a 28be 7968 ce3c 8a1b 3a3e
000000d0: d0eb 303b fb77 4cbd e05f 34bd 2109 2f3e
000000e0: ac0a 5fbe 6f59 ac3d ee44 773e f5b0 dabd
000000f0: 6306 36be 8aa9 b63d 7b9e 0cbd 1fe5 8a3b
00000100: 720d 7fbd b276 5bbe bf7d ccbd 2fb2 79bd
00000110: d76a 003e bd60 d9bd a7b6 8ebd ba75 56be
00000120: 2a68 003c ef39 e3bc cbdd 693e ace3 69bd
00000130: 4782 c0be 4747 083e eb80 01be e998 c63b
00000140: b7fc d93d 442d 0abe 53d9 86be 6d1c adbc
00000150: d1f0 563d a31b 3abe ff29 d03d cdb9 923e
00000160: 598f 94be d0ee f8bd 3180 8ebd 2a41 18bd
00000170: 4efe 4cbe c060 9e3c e064 453d 5c22 56be
00000180: 21ea 8dbd 02a3 6fbe 5929 3a3e c022 633d
00000190: f661 69bc 954c febd 0c67 08bc 15bc f9bd
000001a0: e174 143e e338 8fbc 85fe ae3d 93b8 cb3d
000001b0: 9ac4 b9bd 47d6 dcbd 7091 b3bd 9338 d3bd
000001c0: 7f5e ddbd 9e9e 97bd 4ca5 63be 28cb d53c
000001d0: f457 50be 3308 7bbe f892 b63d 0b20 c5bc
000001e0: 41d6 e0bc bc1e be3d ef32 12be 76c8 703d
000001f0: 71ad ce3d 9197 5dbe 23b7 4fbe 2031 ac3c
00000200: 54ac c13d 924a 59bd 5e1b 19bd 555d 1abe
00000210: e878 60bd 94c4 863e 4e83 68be 1139 5e3e
00000220: b438 563e fad3 083e 4d64 8fbd 4f50 7abe
00000230: 2000 1d3e c352 113c d90a 53be 72d0 453e
00000240: a5c8 133e 5433 4abe a317 36be 9b7c 1ebe
00000250: 9d3f 3c3d 34f9 89bb dc24 ba3d 91c0 813d
00000260: 1cd7 2d3e fbf5 89bd f52f 48be c219 ddbb
00000270: d274 713d 9166 d93b d476 683e 0179 433d
00000280: 7aa6 5a3e 6690 72bd b6be 0a3e a0fe cb3d
00000290: e30d 5cbd 5217 76bd 93d7 2c3c 5f1f 2fbe
000002a0: 7597 153e c615 55be 68dd 423d df97 a43c
000002b0: 1dda 1c3e fe48 cebd 66b8 823e fce0 bebd
000002c0: b06b 25bd e765 5d3d 0733 47be 836d a93d
000002d0: 3cee 81bd 4948 c7bd bdc2 35be 5ccf b4bd
000002e0: 6725 cd3d 7679 a6be 79a7 073e 28ff e0bd
000002f0: bb08 843e 9b53 be3c e403 d9bb 6a39 7e3d
00000300: 4221 22be 47bc c9bd 0aa4 ddbd 294c b73d
00000310: 527b 1d3d 76f5 693d d401 223e 429c d93d
00000320: 11fd 6ebd 163b 793c 7e3c bdbd 4b51 6cbd
00000330: 6dab a0be 4fc7 45bd cd39 c53e 8a51 273d
00000340: 5b53 13be 21a9 95be 6efa c1bd bc71 c5bc
00000350: bedb e7be 02c3 663d cea9 19bd e25f 8f3e
00000360: 70b5 14bd 8f2b 1bbe d46a 193d adae 093e
00000370: 071c f03d 335f a83e 24ab d23d 9a0d 873d
00000380: d24c 633d 41ed 38be 0c52 a83c 417c 233e
00000390: eccc 5dbd 4eba 4e3b c657 013e 5939 413e
000003a0: bf6a ddbd be1b dfbd 4919 c5bd 23a2 5ebd
000003b0: d00f 37be cbee 2dbe 9bc5 2e3d 84e4 123e
000003c0: 3e9d 0dbd fc15 ecbb 9999 14bd f390 c0bd
000003d0: 3903 623e 05b8 51be 5d0d 2ebe 7211 6e3d
000003e0: 49ed 0d3e 8843 4d3d cb47 20bd 6c1d dd3c
000003f0: a82b bb3e b501 07be 0925 bcbd 537b 753e
0.11480477 -0.033041183 -0.0911458 0.2540696 -0.019171767 -0.029157037 0.0065513914 0.003185732
-0.20214537 -0.03600926 0.1363426 0.13536432 0.1196704 -0.08454177 0.16458377 -0.024386244
-0.11413106 -0.008576847 0.121578015 -0.11913524 0.08807043 -0.07719519 -0.36998373 -0.18233734
0.14371212 -0.121341124 0.0078086657 -0.17277732 -0.072445236 -0.021762617 -0.062802024 -0.20653307
-0.08673409 -0.040610194 0.06637256 0.3250239 -0.0036166075 0.1745066 0.3018372 -0.06265431
-0.09811925 -0.032273337 0.19868404 -0.09979322 -0.10885665 -0.039063863 0.071443096 0.06158415
-0.03716536 -0.16459154 0.0251963 0.18174568 0.0026996024 -0.04991911 -0.044036746 0.17093326
-0.21781415 0.084154956 0.24147388 -0.10678283 -0.17775874 0.08919056 -0.034330826 0.004238739
-0.06226868 -0.21431997 -0.09984922 -0.060960945 0.12540756 -0.106141545 -0.06968432 -0.20943347
0.007837335 -0.027737586 0.22838514 -0.05710189 -0.37599394 0.1330844 -0.12646835 0.006060709
0.10643905 -0.1349383 -0.2633768 -0.021131719 0.052475754 -0.18174605 0.1016426 0.2865738
-0.29015616 -0.12154925 -0.06958044 -0.03717152 -0.20018885 0.019333243 0.048191905 -0.20911545
-0.06929422 -0.23402026 0.18179835 0.055453062 -0.014244547 -0.124169506 -0.00832535 -0.12194077
0.14497711 -0.01748318 0.085446395 0.09947314 -0.09070702 -0.10783058 -0.087679744 -0.10313525
-0.10809039 -0.07403301 -0.22231025 0.026097849 -0.20346051 -0.24514847 0.08914751 -0.02406313
-0.027445914 0.09283206 -0.14277242 0.058784924 0.10091675 -0.21639849 -0.20284705 0.021019518
0.09456697 -0.05304963 -0.037379615 -0.15074666 -0.054802805 0.26321852 -0.22706339 0.21701457
0.20920068 0.13362113 -0.07001553 -0.24444698 0.15332079 0.00886983 -0.20609607 0.19317797
0.14432009 -0.19746143 -0.17782454 -0.1547722 0.045959104 -0.0042106155 0.090890616 0.06335557
0.16976589 -0.0673637 -0.19549544 -0.0067474553 0.0589493 0.0066345413 0.2270158 0.04772282
0.21352568 -0.05921974 0.13549313 0.09960675 -0.05372418 -0.060080834 0.010549444 -0.17101811
0.14608558 -0.20809087 0.04757443 0.020091949 0.15317579 -0.10072516 0.2553131 -0.09320256
-0.040385902 0.05405226 -0.19453059 0.08272841 -0.06344268 -0.09730584 -0.17750068 -0.08828613
0.100168996 -0.32514542 0.1324748 -0.10986167 0.2578791 0.023233226 -0.0066227783 0.062066473
-0.15833 -0.09850364 -0.108223036 0.08950073 0.038447686 0.057118855 0.1582101 0.10625507
-0.05834681 0.015211841 -0.092400536 -0.057694715 -0.31380787 -0.04828578 0.3852066 0.040849246
-0.14387266 -0.29230598 -0.09471594 -0.024102084 -0.45284837 0.056338318 -0.037515454 0.2800284
-0.036305845 -0.15153335 0.037455395 0.1344554 0.11724096 0.3288513 0.10286549 0.06594391
0.055493183 -0.18059255 0.020546935 0.15965368 -0.054150507 0.0031544152 0.12631139 0.18869533
-0.10811376 -0.10893963 -0.096239634 -0.054353844 -0.17877126 -0.16985624 0.04266892 0.14344984
-0.034573786 -0.007204769 -0.036279295 -0.09402647 0.22071542 -0.20480354 -0.16997285 0.058122106
0.13860048 0.05011323 -0.039130967 0.026991569 0.36556745 -0.13184245 -0.091867514 0.23972826

linears.6.bias f4 [50]
00000000: ba18 553b b40c 0ebe 775c 5aba 0c05 723c
00000010: 21d5 aa3d e477 183d f890 4d3c fd02 023e
00000020: c0e0 c43c 4e9e 943d 7e69 b5bd 80b7 f2bc
00000030: 7f14 0c3e 57f8 bd3c 200f 403d 3b5a 283d
00000040: 8144 bd3c f734 01bd ac96 0a3c a9dd b0bb
00000050: 4d3b b1bd 740e 13bc 334f 7a3d 211e 9f3d
00000060: f403 ecbc 2d19 6f3c f3f3 dcbc c4d1 15be
00000070: e093 003d 4336 b33c 4f74 c9bd 913a b03d
00000080: 0fbb ccbd ab06 923d 0fa8 17bd e846 333c
00000090: 3560 0fbd 2f22 bd3c 2c9c 5d3d 44fb 31bd
000000a0: b6a0 2a3c 2b36 5d3c 7000 bbbd 4d4a cfbd
000000b0: f8be 323d 624f b53d c7af a83d b12a 843d
000000c0: 496d af3d 8b05 53bc
0.003251596 -0.13872033 -0.00083298184 0.014771711 0.08341432 0.03722371 0.01254677 0.12696452
0.02403295 0.07256757 -0.08858012 -0.029628515 0.13679694 0.023189707 0.046889424 0.041101675
0.023103954 -0.03154465 0.008458775 -0.0053975177 -0.08653889 -0.008975614 0.061110687 0.077694185
-0.028810479 0.014593405 -0.026971793 -0.146308 0.031391025 0.02187646 -0.09836637 0.08604921
-0.09996616 0.07130178 -0.037025508 0.010942198 -0.03500386 0.02308759 0.054104015 -0.043452516
0.010414293 0.013501684 -0.09130943 -0.101215936 0.043639153 0.08853032 0.08236652 0.06453455
0.08565766 -0.0128797395
