Archived Code/Stan TPAMI/1D/FODE/rowdy_tune/1D_FODE_rowdy_tune47_9.pt (torch, 89504 bytes, 22 tensors)

omega1 f4 [9, 1]
00000000: e4f3 7f3f 97f3 7f3f 78f3 7f3f 88f2 7f3f
00000010: 67f2 7f3f 3ff2 7f3f faf0 7f3f b6ef 7f3f
00000020: acee 7f3f
0.9998152 0.99981064 0.9998088 0.9997945 0.9997925 0.99979013 0.99977076 0.99975145
0.9997356

alpha f4 [6, 9]
00000000: a159 78ba e830 7cba 24a9 86ba f4c8 86ba
00000010: 0857 89ba d3b1 93ba e1fd 9bba b5ec a3ba
00000020: 178b adba e489 f4ba 01cc f9ba 21f1 00bb
00000030: 50bd 06bb bf80 08bb 766a 0dbb 8a71 18bb
00000040: 0d4f 23bb 4960 2dbb 97af 32bb 385f 38bb
00000050: df4a 33bb 3bfe 49bb 89af 4abb fcc9 44bb
00000060: b8ed 5bbb 5a6e 73bb b4d2 81bb 15a1 65bb
00000070: ee52 70bb 3638 55bb 448c 86bb f139 85bb
00000080: b2d0 6abb 3aa7 8abb 40de a0bb e6b4 acbb
00000090: 82de 88bb 95d5 91bb e72f 62bb 6afb a7bb
000000a0: d58d a3bb 8e8e 7bbb 80eb a0bb 00d4 c6bb
000000b0: 8340 d7bb 6c23 9bbb f9b3 a8bb b093 56bb
000000c0: 1f3b c9bb 0f06 c0bb daba 74bb 0aab afbb
000000d0: 1954 ebbb f5ae 00bc
-0.0009473805 -0.00096203247 -0.0010273797 -0.0010283277 -0.0010478208 -0.0011268206 -0.0011901223 -0.0012506457
-0.0013240305 -0.0018656817 -0.001905799 -0.0019674974 -0.0020559616 -0.0020828692 -0.0021578348 -0.0023261034
-0.0024918944 -0.0026455096 -0.0027265304 -0.0028132927 -0.002735786 -0.00308217 -0.003092738 -0.0030027619
-0.003355844 -0.0037144632 -0.0039618853 -0.003503864 -0.0036670524 -0.0032534725 -0.0041060764 -0.004065745
-0.0035829959 -0.0042313607 -0.0049093068 -0.005270588 -0.0041769156 -0.00445051 -0.0034513415 -0.0051264064
-0.004991273 -0.003838453 -0.0049108863 -0.006067753 -0.0065689697 -0.004734447 -0.0051484075 -0.0032741837
-0.006141081 -0.0058600972 -0.0037342818 -0.0053609656 -0.007181656 -0.007854213

omega f4 [6, 9]
00000000: d6cc 4c3e d9cc 4c3e d8cc 4c3e ddcc 4c3e
00000010: e0cc 4c3e e3cc 4c3e f2cc 4c3e 0acd 4c3e
00000020: 2ecd 4c3e f0cc 4c3e f8cc 4c3e f6cc 4c3e
00000030: 0bcd 4c3e 17cd 4c3e 20cd 4c3e 5acd 4c3e
00000040: c5cd 4c3e 4cce 4c3e 12cd 4c3e 2bcd 4c3e
00000050: 20cd 4c3e 58cd 4c3e 73cd 4c3e 7acd 4c3e
00000060: fecd 4c3e f7ce 4c3e 2ad0 4c3e 26cd 4c3e
00000070: 6ecd 4c3e 4ccd 4c3e c6cd 4c3e f3cd 4c3e
00000080: e0cd 4c3e cdce 4c3e 9dd0 4c3e c5d2 4c3e
00000090: 0dcd 4c3e b9cd 4c3e 68cd 4c3e 56ce 4c3e
000000a0: 92ce 4c3e 3bce 4c3e b3cf 4c3e afd2 4c3e
000000b0: 19d6 4c3e b1cc 4c3e 00ce 4c3e 64cd 4c3e
000000c0: 0acf 4c3e 4fcf 4c3e 76ce 4c3e 95d0 4c3e
000000d0: 28d5 4c3e 23da 4c3e
0.20000014 0.20000018 0.20000017 0.20000024 0.20000029 0.20000033 0.20000055 0.20000091
0.20000145 0.20000052 0.20000064 0.20000061 0.20000093 0.2000011 0.20000124 0.2000021
0.2000037 0.20000571 0.20000103 0.2000014 0.20000124 0.20000207 0.20000248 0.20000258
0.20000455 0.20000826 0.20001283 0.20000133 0.2000024 0.2000019 0.20000371 0.20000438
0.2000041 0.20000763 0.20001455 0.20002277 0.20000096 0.20000352 0.20000231 0.20000586
0.20000675 0.20000546 0.20001106 0.20002244 0.20003547 0.19999959 0.20000458 0.20000225
0.20000854 0.20000957 0.20000634 0.20001443 0.20003188 0.20005088

linears.0.weight f4 [50, 1]
00000000: dc26 d9be f709 00be 1012 2e3e 72e8 dfba
00000010: 19f4 0f3e 1216 033a c52e 9b3e 51e8 cdbd
00000020: 6448 41be e374 3cbe b1b1 b83e 8d8f 11bd
00000030: 5ec3 1a3e c8ba aebd 0f49 083e 2c73 44be
00000040: 06eb ae3e f195 b13e 9309 d03d 5d1d 8f3d
00000050: f956 2d3d 88ae 39be 08f0 b13c f797 aebd
00000060: 7159 c5bd dd63 a33d 600a ebbd ef0a 123e
00000070: 4252 d0bd 3fef c43b e415 663e c9a7 3cbe
00000080: 9a1f 36be 2cd8 f23d 9305 d6be 3145 8abe
00000090: 439f b7be bbda d5bd d259 6bbd eac4 8cbe
000000a0: 8fa0 4abe 7b3b 36be 24c6 8b3d ac6d b93c
000000b0: 3318 88bd e713 70be adc0 a2bd d42b 4cbe
000000c0: 63b0 873e 5892 3b3e
-0.4241246 -0.12503801 0.16999078 -0.0017082824 0.1405796 0.0005000542 0.3030912 -0.100540765
-0.18875271 -0.18403964 0.36073068 -0.03553729 0.15113589 -0.085317194 0.1330912 -0.1918456
0.34163684 0.3468471 0.10158076 0.069880225 0.04231927 -0.18132985 0.021720901 -0.08525079
-0.096362 0.07978032 -0.11476588 0.14261983 -0.101719394 0.0060099657 0.22469288 -0.1842338
-0.17785493 0.11857638 -0.41801128 -0.27005914 -0.35863695 -0.1044211 -0.057458706 -0.27493984
-0.1978781 -0.17796127 0.06824902 0.022635303 -0.06645241 -0.23445092 -0.07946906 -0.19938594
0.2650176 0.18317544

linears.0.bias f4 [50]
00000000: 4e04 1f3a ab04 153a 6520 3c3a 46d6 5038
00000010: f415 bb37 7ea8 09ba ac8c fab5 0a98 2739
00000020: db5c beb8 a5ca 20b9 6b30 21b9 ccfd 40b9
00000030: 846e 11b9 dee8 0f3a 4548 46b9 9f23 b638
00000040: 823c 0ab9 9b8c 6e3a 865c 92b9 5255 75b9
00000050: 1e7e 463a c4af cb39 61ee 9338 7b39 1fb9
00000060: 25ba 3d39 f9ac 95b9 cd62 8d39 8c24 02b8
00000070: ac11 4bb5 cdab 3c3a 5e70 2739 f039 a138
00000080: e465 77ba 5812 9239 c3ae 0e39 7a36 2339
00000090: 707b 84b9 4f7f 7138 b1d5 eb39 6e73 2f3a
000000a0: 7cd6 b7b9 2807 883a b73e e039 2d04 58b7
000000b0: 9bb8 4539 091e f3b8 4b83 1eba 138b 3f3a
000000c0: 8c09 9b39 bea6 c9b8
0.000606601 0.00056845945 0.0007176458 4.9790622e-05 2.230236e-05 -0.00052512425 -1.8667392e-06 0.00015983
-9.077202e-05 -0.0001533428 -0.00015372194 -0.00018405094 -0.00013869448 0.0005489717 -0.00018909674 8.685071e-05
-0.00013183246 0.00090999313 -0.00027916225 -0.00023396805 0.00075718935 0.00038850133 7.053908e-05 -0.00015184835
0.00018093789 -0.0002854837 0.00026967228 -3.1028452e-05 -7.564911e-07 0.0007197231 0.00015968221 7.68787e-05
-0.0009437485 0.00027860957 0.00013607279 0.00015565185 -0.0002526897 5.7577443e-05 0.00044981905 0.00066929206
-0.00035064283 0.0010378109 0.00042771336 -1.28755755e-05 0.00018856155 -0.000115927374 -0.0006046786 0.00073067955
0.00029571017 -9.615485e-05

linears.1.weight f4 [50, 50]
00000000: 2634 5c3e 120f d7bd bef0 393d 2700 a33d
00000010: 911a 043e f95f a73d 1f40 10bd e2db 533e
00000020: 39e6 92bd 6e45 183d 35d5 1c3c cfc1 5dbd
00000030: ec2e 1a3d c566 413e 897b 773e e7f0 77be
00000040: dce0 c8bc 1a14 3cbe 1b25 7abd a921 103e
00000050: 2151 393d 6d73 63bc 8e1f 833d c377 e23d
00000060: ffa4 613c 2d54 8e3d e7f8 54bd 7ea6 493e
00000070: cf62 103d 405a a2bc eef4 993d 7bab 183e
00000080: f80f 243e 8020 b73a e46c a4be 3161 debd
00000090: 1640 ef3c 6bd0 09be a918 493e 5ab7 01be
000000a0: b86b babd 3923 94bd f721 b7bd c0fa 9c3d
000000b0: aa74 24bd c303 783e 8082 023e c466 9e3e
000000c0: f660 03be 57cc 25be d895 13be b733 393d
000000d0: 5099 90bd 3fc2 f8bd bd52 7e3d d4a8 123e
000000e0: 9bf4 eabc d43b 32be ac09 5f3d 199f 583d
000000f0: 2776 0e3e 1e10 3dbc bda9 313d 52af cf3c
00000100: 3540 163e b7a5 5fbd 7f1a b7bc 278f 77be
00000110: cf15 2ebd 919b bfbd d3eb a03d 05a6 29be
00000120: e7c3 c2be 8939 963e af83 ac3d 3b9f 63bd
00000130: 9acc 303e 0420 e33b e607 d4bd a07a d23d
00000140: 3d7a eabd 1f9f 85bd 9ecf 67bc 4355 e73d
00000150: 0204 403d 647d 6cbc 530e 773d e859 2fbd
00000160: 6c40 4d3e e310 21bc 1651 abbd eb21 fabd
00000170: eab2 bebd 29db ffbb 4775 4d3d e254 2b3e
00000180: 38eb 83be 0067 85be 8afe b5bc 4508 4dbd
00000190: f5b9 3b3d bfcb 523e f8b1 3e3e df35 07be
000001a0: fc57 4a3e efb0 d1bd 1695 eabd 73f9 16be
000001b0: f68b c1bd 766c 5abb 5a0c b73c bf12 d13d
000001c0: 51af 743e 1a29 f43d a133 e73c 9f8b 08bd
000001d0: 588e 49be e9ae ca3d 9495 dd3d 8e73 21be
000001e0: 552b bd3c ce25 053c e59a e63b 6489 4dbe
000001f0: 44d1 08bd 57f2 863d 10e5 24be 95f4 03bd
00000200: 2b9d 423e 5e2b 123d e025 18be 8ccb 29bd
00000210: 1038 a1bd 6364 fc3d 9212 98bb 5730 93bd
00000220: 2360 16bc 095e 55be 222f 8abc e1f1 d33d
00000230: 4374 06be f9c0 c23c 6f88 62be b8be 45be
00000240: e9ed f03d db60 e9bd bb32 a5bd 1d37 09be
00000250: c389 613c 95d5 383d 3a8b 87be cfd6 e7bd
00000260: 2cb3 b4bd bfc9 133e eaa5 a2bb 7bed 373e
00000270: 78db df3d 9977 93be dda6 d63c 7b44 f5bd
00000280: 98ff 2e3d 9298 dc3d ce52 413d 8074 963c
00000290: 61ca e53d ae77 66be e0f0 6c3d 938e bf3d
000002a0: 8ab1 08bc 279f 083e 17d3 053c a05a a2bd
000002b0: 5526 a53d a5b8 10be eca5 52be b482 ac3d
000002c0: 6208 acbd cf7a 21be e82d b3be e12b 3c3d
000002d0: 1b5d a43e 5f75 d9ba 98a5 083d ff06 31be
000002e0: 3cf4 85bd 7c11 573b d88d 2c3e 28f2 dbbb
000002f0: 5092 8e3d b9a9 51bd 37b8 69bc 6437 8b3e
00000300: a027 20be 0238 89bd be2a 8a3e 77b4 7c3e
00000310: daff ba3d 220f 16bd 7305 df3d 13d9 15be
00000320: bbc0 813e dee4 753d d893 23be 2ca8 c5bd
00000330: 2e0e e2bd 18e2 84bd 6411 10bd dc46 763d
00000340: dc9e 473d 92bf 9cbc 1989 183e 4fe9 05be
00000350: 610d a83e 2ce5 9dbd 38a2 863c af08 513e
00000360: 6ed8 3d3c 679d 42be 6c9b edbc 96bb f3bc
00000370: 4c8e 333e 2a17 1dbe af8e 283e b7cc 82bd
00000380: 88cb 463e 75ff 77be 927f f5bd 9e48 153d
00000390: 756b 24bd 40ec 013d 2ef6 6dbe 0eaa d33d
000003a0: 83d7 98bc 9c52 efbd e082 3cbe dffb fbbd
000003b0: f1a4 553e 2339 dabd ad1e da3d 615f 56be
000003c0: 2eb4 acbe 1863 31bd da2a d53e ab5b 383c
000003d0: 7563 a33c f5e3 f5bd 2073 58bc 5127 d83d
000003e0: 2479 b83c 438c f1bd dae4 3b3d 0ba1 b8bd
000003f0: 1196 bfbd 985c f5bb 23a6 f1bc 7764 99bc
0.21504268 -0.10500921 0.045395605 0.079590134 0.1290076 0.08172602 -0.0352174 0.20689347
-0.07172818 0.03717559 0.009572317 -0.05413991 0.037642404 0.1888686 0.24168219 -0.2421299
-0.024521284 -0.18367043 -0.061070543 0.1407534 0.045243386 -0.0138825 0.06402503 0.11057999
0.013772248 0.06949649 -0.051995184 0.19692418 0.03525048 -0.019818425 0.0751742 0.14909165
0.16021717 0.0013971478 -0.32114327 -0.108583815 0.029205363 -0.13458411 0.19638313 -0.126676
-0.09102577 -0.07233281 -0.08942025 0.07665014 -0.040150322 0.24220185 0.12745094 0.3093778
-0.12829956 -0.1619123 -0.1441263 0.045215335 -0.07060492 -0.121464245 0.062090624 0.14322215
-0.02868109 -0.17405635 0.054452583 0.052886102 0.13912259 -0.011539487 0.043374766 0.025352154
0.1467293 -0.054601397 -0.022351502 -0.24175702 -0.042501267 -0.09355844 0.0785748 -0.16567238
-0.38040087 0.2934077 0.08423554 -0.055571776 0.1726555 0.006931307 -0.10353069 0.10277295
-0.11449096 -0.065244906 -0.014148621 0.11295559 0.046878822 -0.014434192 0.060316395 -0.04281035
0.20044106 -0.009830686 -0.08365075 -0.122135006 -0.09311469 -0.0078081083 0.050160673 0.16731599
-0.25765395 -0.26055145 -0.0222161 -0.050056715 0.04583164 0.20585535 0.18622577 -0.13204144
0.19760126 -0.102388255 -0.11454217 -0.14743595 -0.094505236 -0.0033328808 0.022344757 0.10208654
0.23895003 0.11921902 0.02822286 -0.033336278 -0.19683206 0.09896643 0.108195454 -0.15766737
0.023091951 0.008126689 0.007037508 -0.20071942 -0.033402696 0.065891914 -0.16103005 -0.032215673
0.19005267 0.03568589 -0.14858198 -0.041453883 -0.07872021 0.12323835 -0.0046408856 -0.071869545
-0.009178194 -0.20836653 -0.016868178 0.10348869 -0.13130288 0.023773657 -0.22122358 -0.19311035
0.11764128 -0.11395427 -0.08066317 -0.1339993 0.013765755 0.045125563 -0.2647341 -0.11320268
-0.08823237 0.14432429 -0.004963626 0.17961685 0.10930532 -0.28802183 0.026202613 -0.11975952
0.042724222 0.10771288 0.04719811 0.018366098 0.11220241 -0.22506592 0.057846904 0.09353366
-0.00834311 0.13341962 0.0081680035 -0.079274416 0.08063952 -0.14132936 -0.20571107 0.08423367
-0.084000364 -0.15769504 -0.3499596 0.045940284 0.32102284 -0.0016590765 0.033361048 -0.17287825
-0.06540725 0.0032816818 0.16850984 -0.006712217 0.06961501 -0.05118725 -0.014265112 0.27190697
-0.15640116 -0.06700136 0.26985735 0.24678217 0.09130831 -0.036635526 0.10889711 -0.14633588
0.25342354 0.060032718 -0.15974367 -0.09651217 -0.11037861 -0.064884365 -0.035172835 0.06012617
0.048735484 -0.019134317 0.14896049 -0.13077281 0.32822707 -0.07709727 0.016434774 0.20413469
0.011587245 -0.19005357 -0.029004775 -0.029752534 0.1753475 -0.15340868 0.1646068 -0.063867025
0.19413579 -0.24218543 -0.11987223 0.036446206 -0.04014154 0.031719446 -0.23238441 0.1033517
-0.018657451 -0.11685678 -0.184093 -0.123039 0.20863701 -0.10655429 0.10650382 -0.20934822
-0.33731216 -0.043307394 0.41634256 0.011252324 0.019944886 -0.1200637 -0.013211042 0.10554374
0.022518702 -0.11794331 0.045872547 -0.090150915 -0.09354795 -0.0074878447 -0.029498165 -0.018724663

linears.1.bias f4 [50]
00000000: 525a f0b9 3589 c7b9 b74a e039 1525 1ab9
00000010: 089c a339 0443 5eba e689 c339 93cd d139
00000020: f673 323a b66d dd39 8162 02ba f030 2db7
00000030: a777 ccb9 07c3 25b9 1b16 dd39 ae68 02ba
00000040: 146b 2539 3776 8bb9 12e4 bcb9 ffa2 8739
00000050: a47f d4b9 0e52 05ba 6de6 89ba 1e9c dfb8
00000060: 392b 1dba b9a4 4a3a 9135 e139 8fed 0fb7
00000070: a39d 3dba 1b67 a6b9 7d33 1fba fc88 34b9
00000080: 3108 2b3a 741c 9836 80ac 6f3a c3f3 3b3a
00000090: 860d 33b9 3dfd abb8 d258 41b8 3bb9 66b9
000000a0: 6280 293a cefa 4eb9 f120 5c38 66ef 9e39
000000b0: 4c6b afb8 9395 e336 3ef5 2db8 9741 61ba
000000c0: 1d53 f739 47d7 13ba
-0.0004584366 -0.00038058465 0.00042780276 -0.00014700399 0.00031206035 -0.0008478614 0.0003729604 0.0004001675
0.00068074407 0.00042234146 -0.00049737847 -1.0322998e-05 -0.0003899906 -0.0001580828 0.00042168875 -0.0004974705
0.00015775516 -0.00026600223 -0.0003602808 0.00025870648 -0.0004053089 -0.00050857745 -0.0010520943 -0.00010662548
-0.00059955154 0.0007730234 0.00042955254 -8.578775e-06 -0.00072332675 -0.00031738807 -0.0006073041 -0.00017217168
0.0006524353 4.5332654e-06 0.0009142831 0.0007169807 -0.00017075808 -8.201085e-05 -4.6097506e-05 -0.00022003513
0.0006465969 -0.00019739123 5.2482766e-05 0.00030314474 -8.364636e-05 6.78254e-06 -4.1474814e-05 -0.00085928425
0.00047173435 -0.0005639684

linears.2.weight f4 [50, 50]
00000000: 798c 6dbc 64e9 a53d b2e0 e93d 06b6 afbd
00000010: aaab 3cbe 3eae ffbd 687c 803d 5b23 8e3e
00000020: 627e 6cbd e91b 86bd f32f 34bd 8faa f4bc
00000030: 1b01 b7bd 3a9b 4bbe 8273 c93d 4d06 16be
00000040: 335b 4fbe 29c8 fdbc cbd6 b23d ef70 2b3d
00000050: 8615 fd3d 3977 84bd 41d9 39bd 6176 623e
00000060: 72bf c9bd 86b4 b53e 0130 6cbd 5a3b 9a3e
00000070: 7bec d13c f49b 913d 83db 81bd d3ec f43d
00000080: 29fb d13d 9c79 d0bd 35c6 8f3d 09b3 e6bc
00000090: 8fee 10bd 0ad6 c3bc 716c 0bbd f3d5 7b3d
000000a0: 1c68 d8bd bbd4 4a3e ea7d 3dbe 5afe a0bd
000000b0: c0c6 133e 8fbe 783e 2623 bf3c 5c35 993d
000000c0: 38f2 6c3d 3884 083e a2a6 b0bd 04ac 9ebe
000000d0: 536b 603e 180e 153e a425 4ebe 8133 da3d
000000e0: 1ece a23d b3bb 2a3e ab2c 76be 8746 2e3e
000000f0: dc76 663d 581e 373e 091e 82bd e4c1 f03d
00000100: eaaa 45be 90b4 d23d 5fc5 ca3d 1505 01be
00000110: 1344 b1bb 94d1 68bd 8f9b 243e f7a7 e43d
00000120: 0b2d 643e 0446 8538 0078 41bb c75b 9cbe
00000130: 0022 b23c 67ee 6ebe 90dd 5e3e 0fd4 3cbe
00000140: b8b3 ec3c a652 4cbd 0a14 29be b95f 923d
00000150: 9f3d 553e 573c c0bd 5df5 8b3d 52b3 c83d
00000160: ffc2 2bbd 785e 49bd b10f 163e 0731 2c3e
00000170: 7b75 393a e165 4abe c073 2f3e 8521 cbbd
00000180: 09c6 353e 8b8a 5abd 5666 423e 466b 053d
00000190: f158 583c 7ddb f9bd 56a1 76bd f3e2 41be
000001a0: cb2e d33e e08b 30bd 3bd7 bcbc 4b94 29be
000001b0: 4c50 663c 15cb c13d 0f1b f2bc e172 06be
000001c0: c922 043e 75d3 8d3d 037d 8dbc b403 aebd
000001d0: 1857 b23e e174 24be d59a a13d 1e57 3dbe
000001e0: 6df4 6d3d f850 663d 4d00 aebc 09c6 6ebd
000001f0: 1c0b 99bb c9bf d6bd 7c9f 623d 4169 bf3e
00000200: 966e f4bd 9dd6 11be 71d7 6ebd 9e37 dd3d
00000210: d594 c3bc 0c8b 8a3b 8114 863e 5b4a 8d3d
00000220: 828d a53d 81f0 1abd ad0b 8dbb 90c9 f5bc
00000230: 937b 2a3b ae1c 98bd 8cc1 30bc 4218 1cbe
00000240: ed31 fb3d b4ba 833e 1045 983b 5b51 c0bd
00000250: b7e7 ac3b b0ce 7e3d 083e 0e3d 4418 ff3d
00000260: 0739 dd3d d10e 733d 58f0 8abc 96c3 163e
00000270: 6f6e 08be b8aa a6bc bcd3 103d 41aa a73d
00000280: 4f1f 8f3d 6fc6 523c e1a4 aabd 3d20 de3d
00000290: 51d0 21be 6073 04bd 2568 ec3d 3164 afbd
000002a0: 56df 693e f65b cf3c f5c3 863d ecf0 283e
000002b0: e3c1 90bd caac 6f3e 635f 383d 7948 f2bb
000002c0: e463 30bd 63c0 053e 84e0 e0bc 2af9 51be
000002d0: 454c 57be 66ce 28be 77dd febd 38cb a03c
000002e0: ce28 c03c eb4a 32be 5a04 97bb 58a4 273e
000002f0: ea93 b1bd 3028 b6bc c31b 1dbc 49d9 363e
00000300: e83e 13be 50bb 1bbe 64b3 923b 7edc 2cbe
00000310: 0351 3e3e 5c0e b4bd 498a 06be 3c40 403e
00000320: 3358 9b3c 62ee 36be 1440 37be 3410 31bd
00000330: 989c ef3d e543 b43d 6393 a83d d88e 25be
00000340: 6630 63bd 8a8e 993e 16cc c1bd 5bba 3d3d
00000350: 1e57 efbb 233c bd3c 0f4d debd 90aa 273e
00000360: 422a 7c3e 7ddd 3f3e 562c 3c3e a213 dfbd
00000370: ef80 fbbc 17d7 ffbc 934d 36be 0d24 cb3d
00000380: a7b5 793e 82d2 0abe a619 b6bd b16d 083e
00000390: daf4 f23d 5d44 6d3c 3e71 843e e0df 4b3c
000003a0: 5cd2 1bbe 9d30 203e 0600 0f3d e7c1 8c3d
000003b0: f4fb 20bd 74ad b7bc 45d9 333e 15b4 623b
000003c0: be41 603e 6363 90bd fc51 e9bb b744 4fbe
000003d0: f500 65bd e23c d7bc 2431 4abc 3636 5f3e
000003e0: 0cba 3abe 83e1 083d 80de a33d 9f83 d73d
000003f0: b52c e53d 6fb3 8e3d 02f4 893c b5cb b23d
-0.014498823 0.08101156 0.1141981 -0.0857964 -0.1842486 -0.12484406 0.062737286 0.2776135
-0.057737716 -0.06548292 -0.04399104 -0.029866485 -0.08935758 -0.19883433 0.098364845 -0.14650841
-0.20249633 -0.030979233 0.08732375 0.04185575 0.12357621 -0.064680524 -0.045373205 0.2211547
-0.098509684 0.3548929 -0.057662968 0.30123407 0.025625458 0.07109824 -0.06340697 0.11959233
0.10252983 -0.10179445 0.07020227 -0.028161542 -0.035383757 -0.023905773 -0.034038965 0.061483335
-0.10566732 0.19807713 -0.18505064 -0.07861014 0.14431286 0.24291442 0.02333219 0.074808806
0.057848185 0.13331687 -0.08625533 -0.30990613 0.21915941 0.14556158 -0.20131546 0.10654355
0.0794947 0.16673164 -0.24040477 0.17019092 0.056265697 0.17882669 -0.06353385 0.11755732
-0.1930348 0.10288346 0.09900927 -0.12599595 -0.0054097264 -0.056840494 0.16074966 0.11164849
0.22282808 6.3549756e-05 -0.0029520988 -0.3053877 0.021744728 -0.23333131 0.21764207 -0.18440269
0.02889429 -0.049883507 -0.1651155 0.07147164 0.20824288 -0.09386509 0.06833909 0.09799828
-0.04193401 -0.049162358 0.14654423 0.16815577 0.0007074696 -0.19765426 0.17133999 -0.09918503
0.17751326 -0.05335478 0.1898435 0.032573007 0.013204799 -0.12200067 -0.060212456 -0.1893423
0.41246638 -0.043102145 -0.023051849 -0.16560476 0.01405723 0.09462563 -0.029553918 -0.1312976
0.12903894 0.06925098 -0.017271524 -0.084968 0.34832072 -0.16060211 0.0789086 -0.18490264
0.05809443 0.05622956 -0.021240378 -0.05829433 -0.004670514 -0.10485799 0.055327877 0.3738499
-0.11935155 -0.14242025 -0.05831093 0.10801624 -0.02387468 0.0042280015 0.26187518 0.06898948
0.08083631 -0.03782702 -0.0043043704 -0.030003339 0.0026013597 -0.07427345 -0.010788333 -0.15243629
0.12265382 0.2572838 0.0046469048 -0.09390517 0.005276646 0.06220883 0.034727126 0.124558
0.10801893 0.059340302 -0.016960308 0.14723048 -0.13323377 -0.020345077 0.035358176 0.0818677
0.069883935 0.012864693 -0.083322294 0.10845993 -0.15802123 -0.032336593 0.115433015 -0.08564032
0.22839102 0.025312405 0.065803446 0.16498154 -0.07068231 0.23405758 0.045012843 -0.0073938933
-0.043064013 0.13061671 -0.027450807 -0.20505205 -0.21025188 -0.16484985 -0.12444585 0.019628152
0.023456957 -0.17411391 -0.004608673 0.16371286 -0.086707905 -0.02223596 -0.009589138 0.17856325
-0.14379466 -0.15208173 0.0044769514 -0.16880986 0.18585591 -0.08791801 -0.13138689 0.18774503
0.018962955 -0.17864373 -0.17895538 -0.043228343 0.1169979 0.08802012 0.08231237 -0.16167772
-0.05546608 0.2999156 -0.094627544 0.0463203 -0.0073040863 0.023099964 -0.108545415 0.16373658
0.24625495 0.18736835 0.18376288 -0.108924165 -0.030701129 -0.031230493 -0.1780303 0.099189855
0.24385701 -0.13556865 -0.08891611 0.13323094 0.11863108 0.014481631 0.25867647 0.012443513
-0.15216964 0.15643544 0.03491213 0.068729214 -0.03930278 -0.022421576 0.1756335 0.00345922
0.21900079 -0.070502065 -0.007120369 -0.20241056 -0.055909116 -0.026274148 -0.012340818 0.21798024
-0.18235034 0.03341819 0.08001423 0.105231516 0.11190168 0.06967818 0.016839985 0.0873026

linears.2.bias f4 [50]
00000000: e34a 8e39 0be0 01b9 f05b 10b8 46ba 2dba
00000010: 0e46 c0b7 d55e 393a 7ab6 80b9 c1fc 813a
00000020: 0bcd c238 9fe6 9b38 f8c3 0b39 1673 97b9
00000030: 1fd1 2839 f044 07b7 d569 973a 15ed 5a39
00000040: 98e2 a8b9 cdb0 3eba f48e 2739 e8cd 193a
00000050: 58ea 98b8 7cc2 a43a 646d 2739 dce7 d339
00000060: 987a 59b8 9018 fd39 c427 c8b8 2f4f 7eba
00000070: 821e 7fb9 dd7c 12ba 72e8 7bba c121 6fb8
00000080: 1a65 ee39 3b59 d436 30bd d2b9 79d3 c037
00000090: 8974 7d39 ff33 873a 34cd 9238 dcee 65ba
000000a0: a512 9d39 cd4c ffb9 ad91 b7b8 2ca2 07ba
000000b0: 4554 1f39 897c 683a 0447 b537 8f14 81b9
000000c0: 4789 a539 75cc b738
0.00027140146 -0.00012385861 -3.44179e-05 -0.0006627183 -2.2920805e-05 0.0007071321 -0.00024550018 0.0009917245
9.288833e-05 7.4339325e-05 0.00013329077 -0.0002888671 0.00016099632 -8.062678e-06 0.0011551926 0.0002087842
-0.00032212283 -0.000727427 0.00015979615 0.0005867169 -7.291575e-05 0.0012570168 0.00015967112 0.00040417805
-5.1851006e-05 0.0004827422 -9.54415e-05 -0.00097011303 -0.0002433006 -0.0005588064 -0.0009609527 -5.7013476e-05
0.00045470224 6.32848e-06 -0.00040195277 2.2986658e-05 0.00024171373 0.0010315179 7.0000446e-05 -0.00087712496
0.00029959265 -0.0004869461 -8.753254e-05 -0.0005174007 0.00015194814 0.0008868655 2.160995e-05 -0.00024620115
0.00031573532 8.764203e-05

linears.3.weight f4 [50, 50]
00000000: fbae 2b3e 766a 8dbe 8766 49bd 70f6 5bbe
00000010: 90fd 243c 70ab 7a3d fae4 393e b4f6 e8bd
00000020: 8139 6cbe a57d afbe 8adf 5e3e 16bb 213d
00000030: 3e8a 563e 87fc 373e 435e 273e 8d75 213e
00000040: f353 a9ba f625 4bbe 4e82 153d 1623 14be
00000050: b795 19bd 00f0 613e 482d 6fbe ecc1 943e
00000060: 7a05 77be 27ea 933a 2a2a 513e c055 ad3e
00000070: 3392 8dbd f627 953d 0c14 4b3e 69c3 86be
00000080: c4aa eabd e2a9 ecbd 6f53 44be d338 44be
00000090: 98d8 3dbd c086 01be 0a31 dc3d f9e0 38bd
000000a0: 33c1 a6bd 3376 86be 1d22 503e 1fa4 033e
000000b0: e916 d83d 540a bf3c 7a8d 2cbd 28c3 6dbe
000000c0: c108 1b3e aa94 c63d 1b67 203e dfc2 6d3e
000000d0: 3061 8fbc 3822 2bbe fa5a 3a3e 409e 223e
000000e0: f940 80be c1b6 e8bd b3f8 f2bd a9fb 503d
000000f0: c49d ba3d 541d 71be b237 debd 17a3 d53c
00000100: 07c7 b03c fd37 c83d f754 f3bb 4b58 35bd
00000110: 7581 6d3d 8917 70be b158 1c3b f6f0 a3bd
00000120: d655 9abe 31fe b9bd 1d73 283e 564b 2bbe
00000130: 3dd2 523e 5527 633c 46c7 3f3e bcf4 353d
00000140: cb60 2abe f5a8 9c3d e268 40be 4911 e2bb
00000150: 5c48 d6bd fc74 27be af10 8fbd a26a 263e
00000160: b238 943d 3e46 a43c 2964 76be acf1 e73d
00000170: eb6e 963d 0d45 afbd bb0f 403e 113f 23be
00000180: 2937 bf3d ac6b e43c f7dc c83c 94ff 9f3d
00000190: a7b9 243d a7a1 6bbd c9c5 fcbd 2b8c f03d
000001a0: b8bd b3bc 08ba c13c 49ee 743e 3463 933d
000001b0: 5c96 1bbd 7f1a f73c 64b4 693e 0ff4 4c3e
000001c0: 7f76 e0bd dd9b 17be 2515 0a3e b8c7 10be
000001d0: 6201 f6bd 8781 e43d b589 bf3e 0b54 173e
000001e0: f28d 1fbe 0b38 0b3e 29b5 303e 32e3 22bc
000001f0: 81ec 8d3d a404 54bd 8da1 fabd b10b 02bd
00000200: 50ff 123e 4ee1 193d 61b8 923e 136e 82be
00000210: 0e7b a13d 687e 393c 1a64 253d dd47 13be
00000220: 494d 41bd 8034 733e f41a 433d 8107 a2be
00000230: 6eb6 143c 6dc3 16be e19f 99bb d6c0 bb3a
00000240: 6e76 4abd 81c7 1b3d 0132 e03d b35e 3abe
00000250: 6f37 29bd 42d8 963d c905 b03d b133 02be
00000260: 053d 22be 98b0 313e 8328 aabd 3cdc 843d
00000270: 95a9 3d3d e0ce b13d 779e 17be 1a0c a13d
00000280: cac1 bc3b 4e7c 01be 5e9a 813d 8697 8e3d
00000290: 7ce2 c7bd 06e2 54bd 454c 46bb fcb3 b53e
000002a0: b6da 14bd ee32 4ebc 6eaa 0cbc f34c 7fbc
000002b0: 47d0 80bc a5cc 053e c327 4bbe fe3f 963d
000002c0: ee2e 713d 1fc0 2bbd df72 3cbd aadf 05be
000002d0: b345 51bd 712c 98bd c888 963d 3703 143e
000002e0: dc9c 863e 8d53 a1bd 5151 43bc 08d1 d93c
000002f0: 0cc8 3fbe e2f8 8dbd 3d19 44be e87d 01bc
00000300: a711 793e bff7 9f3e f711 2ebe 713d 02bd
00000310: dd27 17bd c923 6abe 57e3 293e 5260 863d
00000320: 4ded a3bd 88f4 07bd 01c5 243e e0f5 10be
00000330: 57d1 66bd 12c5 343e ee45 943d 8e77 a1be
00000340: ca5e ad3d dbbe d63d e8c4 293e 1310 2d3e
00000350: 5994 053e 1467 4c3e 488c 0cbc 2552 3fbd
00000360: f939 ab3e 0b23 323e 05df 8b3e 67d8 1dbe
00000370: 1896 ddbd cebf 3abe 27fc 0e3e 4664 a9bd
00000380: 19fa e23d 0aaf 30bc a05b 1ebe 06e8 67bd
00000390: af29 2b3e 489d 05be 6b1c 8d3e d6c5 66bd
000003a0: ff4d 813c 2675 613e 7884 97bd cd60 4d3e
000003b0: 60c2 243c 99da 08be 1172 433e 6d3a 063e
000003c0: c046 0c3e 3bcc 89bd 6a86 e5bc 2eb5 233c
000003d0: c335 f03d 1f7e 1f3e 2071 c1bd 80fb 6c3d
000003e0: 9a21 fb3d 2db5 69be 77ca f0bb 1ee3 85bd
000003f0: 9e57 fc3d 5511 a9bd aed4 8bbc 6679 4dbd
0.16765969 -0.27620286 -0.049170043 -0.21480727 0.01007022 0.06119865 0.18153754 -0.1137518
-0.23068811 -0.34275547 0.21764961 0.03948506 0.20951173 0.17967425 0.16344552 0.15767498
-0.0012918696 -0.198387 0.03650122 -0.14466509 -0.037496295 0.22064209 -0.23357117 0.290542
-0.24123183 0.0011284993 0.2042624 0.33854485 -0.06912651 0.072830126 0.19831866 -0.2632096
-0.11458352 -0.1155584 -0.19172452 -0.19162302 -0.046349138 -0.1264906 0.10751541 -0.045136426
-0.081423186 -0.26262054 0.20325513 0.12855576 0.10551245 0.023320355 -0.04212711 -0.23218977
0.15140058 0.09696324 0.15664332 0.23218869 -0.017502397 -0.16712272 0.18198767 0.1588068
-0.2504957 -0.113629825 -0.11863842 0.05102125 0.09112123 -0.23546344 -0.10850467 0.026078744
0.021579279 0.09776304 -0.0074259 -0.044273656 0.057984788 -0.23446478 0.0023856575 -0.08004944
-0.30143613 -0.09081686 0.16450162 -0.16727957 0.20588012 0.013864358 0.1872836 0.04442285
-0.16638486 0.076494135 -0.1879001 -0.006899033 -0.1046302 -0.1635322 -0.06985604 0.16251615
0.07237376 0.020053025 -0.24061646 0.11325392 0.07345375 -0.08558092 0.18756 -0.15942027
0.09336693 0.027883373 0.024519427 0.078124195 0.040216114 -0.05752721 -0.12342412 0.11745485
-0.02194105 0.023648277 0.23919024 0.07196656 -0.03798519 0.030164002 0.2282272 0.20014976
-0.10960101 -0.14805551 0.13484628 -0.14138687 -0.120119825 0.11157518 0.3740975 0.14778154
-0.15581492 0.13595597 0.17256607 -0.009941863 0.06929875 -0.05176224 -0.122378446 -0.03174943
0.14355206 0.037568383 0.28656295 -0.25474605 0.07884799 0.0113216415 0.040378667 -0.14382882
-0.047192845 0.23750496 0.047633126 -0.3164635 0.009076698 -0.14722987 -0.0046882485 0.0014324437
-0.04942935 0.03803206 0.109470375 -0.18200187 -0.04131263 0.07365467 0.085948534 -0.12715031
-0.1584359 0.17352521 -0.08308508 0.06487319 0.046304304 0.086820364 -0.14806543 0.07863636
0.005760406 -0.12645075 0.06328271 0.069624946 -0.09759995 -0.051973365 -0.0030257863 0.3548888
-0.03634139 -0.012585385 -0.0085855555 -0.015582311 -0.015724314 0.13066347 -0.19839387 0.07336424
0.058882646 -0.041931268 -0.046007987 -0.13073602 -0.05109186 -0.074303515 0.07350308 0.14454351
0.2629155 -0.07877264 -0.011921243 0.026588932 -0.18728656 -0.06932236 -0.19150253 -0.007903554
0.2432314 0.31243703 -0.1699904 -0.031796876 -0.03690325 -0.22865213 0.1659063 0.065613404
-0.08004246 -0.033192188 0.16090776 -0.14156294 -0.056351986 0.17653301 0.072399005 -0.31536525
0.08465345 0.104856215 0.1657902 0.16900663 0.13044871 0.19961196 -0.0085783675 -0.0467092
0.33442667 0.1739618 0.27318588 -0.15414582 -0.10819644 -0.1823723 0.13963376 -0.08271079
0.110828586 -0.01078392 -0.1546464 -0.05661776 0.1671512 -0.1304828 0.27560744 -0.056341015
0.015784262 0.22017345 -0.07398313 0.20056458 0.010056108 -0.13364638 0.19086482 0.13108225
0.13698864 -0.06728407 -0.028018195 0.009991927 0.11729004 0.15575455 -0.09445405 0.057857037
0.12262268 -0.2282302 -0.0073483544 -0.0653746 0.12321399 -0.08255259 -0.017069187 -0.050164603

linears.3.bias f4 [50]
00000000: 03aa 5239 4b84 c4b9 b6a5 8f3a caa6 5239
00000010: bcb6 03ba 8986 ae39 eaec 1f3a 24cb c13a
00000020: 14cc 5d39 bd52 4f38 75fe cb39 049e ee38
00000030: e39d a0b9 ed7d b2b9 cdcc 09ba ceed 4ab9
00000040: 7015 8738 4d29 9739 6f2b d338 ee96 b039
00000050: 5cc9 00b9 2adb 7439 cb67 5ab9 43a9 6f3a
00000060: d26d 8bb9 8e08 e139 613a 0ab9 ab37 0fba
00000070: 52fe 453a 9c5d 273a 0bb9 d039 2898 a3b9
00000080: f9ed 9d39 0bb1 e9b8 1a80 0fba abb2 bd38
00000090: 6279 4a3a ea19 aa39 d9c6 77b9 b372 773a
000000a0: 6917 9b39 62fc eeb9 e353 21ba eda5 c039
000000b0: 28d3 b638 3402 e839 ac09 d9b7 f03e 69ba
000000c0: beab 3eba 3cbb 9fb8
0.00020090495 -0.000374826 0.001095942 0.00020089294 -0.0005024483 0.00033288103 0.00061006716 0.0014785272
0.00021152227 4.9429702e-05 0.00038908763 0.00011378157 -0.00030635213 -0.00034044628 -0.0005256653 -0.0001935281
6.441295e-05 0.00028831736 0.00010069354 0.00033681787 -0.00012282043 0.00023351298 -0.00020828766 0.00091423484
-0.00026593969 0.00042921718 -0.00013182453 -0.0005463312 0.00075528503 0.00063844933 0.0003981072 -0.00031203148
0.00030122677 -0.000111432826 -0.0005474106 9.045502e-05 0.0007723776 0.00032444234 -0.00023629832 0.0009439394
0.00029581346 -0.00045582937 -0.00061541627 0.00036744718 8.717767e-05 0.0004425213 -2.587292e-05 -0.0008897623
-0.00072735164 -7.616586e-05

linears.4.weight f4 [50, 50]
00000000: 6b0f 653e bb66 0c3d f7bd 73bd a871 2dbb
00000010: 70c0 c73d 9c51 e13d f9ef f63d 4487 1b3d
00000020: ab85 74be d665 193c fbba 57bd 1df0 683d
00000030: 30fa 7d3e 4262 0bbd 3f97 ecbd e9cf 8a3d
00000040: cfb4 873d 2157 953d 55af 8d3e c987 00be
00000050: b092 a73d 8588 89bd 3c3e 293d f2b4 273e
00000060: 8dde 033e 46c1 c93c ac4a 88be 6845 1bbe
00000070: 2802 e9bd 79fb 83be af0e 693d a20c 0dbe
00000080: 3c1a e93c 30a9 173e 2fbb 13be 22f4 843e
00000090: 2434 303d 2b4b 70be b6ff 403e 755d c6be
000000a0: b533 473d 4c20 07be 91a9 703e b8a6 b2bc
000000b0: 9c3d 0b3c 7325 073e 2f9b 923d d69f 393e
000000c0: 9177 de3c efdc 073e bdd7 213e 8817 b2bd
000000d0: 3cac af3d 8b36 b3bd 5653 80bd bf30 473c
000000e0: fdd6 f7bc 5247 aabc 5f59 003d 0d27 1e3e
000000f0: fca4 4b3d fba6 1dbd 723e 363e 3086 b53d
00000100: 34e3 26bc 1126 953e 60f4 383e 0c72 60be
00000110: 4ae6 2c3e 554a f3bd e461 4cbe c6fb 933e
00000120: 9c57 33bd a422 55bd cb4d a2ba 0970 4abe
00000130: eade 8fbd ffe0 19bd 4af1 f7bd 165d 43bd
00000140: fa73 83be 9b51 ebbd 1acf 81be 10ca 38be
00000150: 522c e23d d8d3 4e3c 4a71 813d 86cc 153e
00000160: 3b3e e9bd f0f9 9dbd 1bbb 20be bd9a d2bd
00000170: 06ee 063e d53f c6bd 8ca4 363e 86d9 8d3e
00000180: 88a0 4bbd 6f16 5f3d 9d46 a2bc c073 d83c
00000190: f06f 81bc 773e 9cbe a258 17be 6e07 533d
000001a0: 4064 b2bd b809 7f3e f2a9 9dbd 60a3 253d
000001b0: 44a4 f4bb ae2d 4f3e 6e43 213e 6043 c43d
000001c0: 0445 c2bc fbcf 9abe a82b 273c 8bc1 86be
000001d0: 5783 d3bc 4496 3fbd 5860 ba3c e8dd 1f3d
000001e0: 1458 65bd 53b1 663d 3b99 483e 195e 083e
000001f0: 91dc 923d c0a9 8abd c697 043d 0b71 f33c
00000200: 2e79 8fbd 2897 9a3c 5970 303e 649f 2c3e
00000210: 6b5a 02be 50ec b5bb db80 3a3e e350 8cbd
00000220: 805d 01be 2d54 373e 4b75 d83b 2d2c 863e
00000230: d9cb 9cbd e5f2 633d bb37 fc3c 4a7b edbc
00000240: a134 a9bd 7b22 9c3c 3647 c3bc 3492 ca3c
00000250: f8af 16be 804d 8a3d 9bce 7ebe e87b 8dbd
00000260: 1932 683e e494 88bd a0d9 1a3d 902d febd
00000270: 00ce f03c 1181 e4bc 76fb 6b3e 5f17 50be
00000280: c400 2bbb a35c 08be 403f a83d 1003 29be
00000290: 5cd5 b1bd c145 7b3d 41a6 61be c7ce 093d
000002a0: 4017 103e d9f3 883d def1 6a3d 15c0 bfbd
000002b0: 3f5c 713d 7ce9 cbbd 4df6 96bd ed10 46be
000002c0: 4bec 5f3e d09b 2f3e 6952 b1bd a1a7 1e3e
000002d0: 54ff 2cbd cd3f 043d 63a5 03be 5be1 b5bd
000002e0: 2cd5 2bbb fa7c c63d a28e f6bd dd1a c33c
000002f0: 98a7 4c3d cad6 023e 1ecb 5bbe 51f0 57bd
00000300: ffaa 1ebe 1aaf 4bbe 6d13 dbbe 1325 c8ba
00000310: fb94 e13d 01f2 053e e519 64be 3be0 15bc
00000320: 5dc2 c6bd ee01 aabd 6803 233c c07d 8fbc
00000330: e7ff 5abe 6cc3 32be 03f4 d73e 3879 343e
00000340: 4652 b2bd 9500 903e 953e 46be a368 e73d
00000350: e249 743d 055c 9b3d 50ae 15be 0b5e d6bd
00000360: f7f8 03bd 3497 0abe d523 ecbc 00b7 3abd
00000370: 9350 cabc 646d 2fbe 9f16 593d b170 c93c
00000380: 7ab4 64bd ab78 2cbd 5b1e a13d 894e 393d
00000390: 4f57 643b 0a9f a7bc 4a05 febd 1420 1e3e
000003a0: 53bb b4bd ba09 34bd 57ff 433e cf93 813e
000003b0: 3af7 a63e 3038 723b beb5 b53c ad80 d53b
000003c0: 23c3 6f3d b6f8 49bd 5836 22bc b3a1 6a3d
000003d0: bd6e d6bd e532 773e 405d 14be 02e4 48be
000003e0: 6be2 b9bd d9a5 203d ca8e 473e 5043 fd3c
000003f0: fbc9 583d 25c3 05be 8cfb 6abe 7791 e73d
0.22369163 0.03427766 -0.059507336 -0.002646545 0.097535014 0.11001894 0.1205749 0.037970796
-0.23879115 0.0093626585 -0.052668553 0.056869615 0.2480247 -0.034029253 -0.115522854 0.06777937
0.066262834 0.07292009 0.2767283 -0.12551798 0.08182275 -0.06715492 0.041319117 0.16377619
0.12877865 0.024628293 -0.2661947 -0.15163195 -0.113773644 -0.25777796 0.05689877 -0.1377435
0.028454892 0.14810634 -0.14426874 0.2596751 0.043018475 -0.23466174 0.18847546 -0.38743177
0.048633296 -0.13195914 0.23502184 -0.021808013 0.008498576 0.1319788 0.07158505 0.18127379
0.027156623 0.13267873 0.15804954 -0.086958945 0.08577773 -0.087506376 -0.06265895 0.012157618
-0.030253882 -0.020785961 0.03133523 0.15444584 0.04971789 -0.038489323 0.17797258 0.08863485
-0.010186005 0.29130605 0.18061972 -0.21918505 0.16884723 -0.11879412 -0.19959217 0.28903025
-0.043784723 -0.05203499 -0.0012382803 -0.197693 -0.07024939 -0.03756809 -0.12106569 -0.047696196
-0.2567442 -0.114901744 -0.25353318 -0.1804583 0.1104361 0.01262375 0.06320436 0.14628801
-0.11388823 -0.077136874 -0.15696375 -0.1028342 0.13176736 -0.09680144 0.17836207 0.2770502
-0.04971364 0.054464754 -0.019809062 0.026422381 -0.015800446 -0.30516407 -0.14779904 0.051520757
-0.087105274 0.24906051 -0.0769843 0.04043901 -0.007465871 0.20232269 0.15748379 0.09583163
-0.02371455 -0.30236802 0.01020328 -0.26319537 -0.025819464 -0.046774164 0.022751018 0.039029986
-0.0559922 0.056321453 0.19589703 0.13317145 0.07170976 -0.067706585 0.032371305 0.029716989
-0.07005535 0.018870905 0.17230357 0.16857678 -0.12729804 -0.0055518523 0.18213217 -0.068513654
-0.12633324 0.17903204 0.0066057793 0.26205578 -0.07656068 0.055651564 0.030788293 -0.028989453
-0.08261991 0.01905941 -0.023837667 0.024727918 -0.14715564 0.06753063 -0.24883501 -0.06908399
0.2267536 -0.06669024 0.0378052 -0.12411034 0.029395103 -0.027893575 0.23045143 -0.20321415
-0.0026092986 -0.13316588 0.08215189 -0.16505075 -0.08683273 0.06134582 -0.22036077 0.033644464
0.14071369 0.06687135 0.05735957 -0.093628086 0.058925863 -0.09956643 -0.07371197 -0.19342394
0.21867482 0.17149282 -0.086582966 0.15493633 -0.042235687 0.032287408 -0.12856059 -0.08880874
-0.002621959 0.09691806 -0.12038924 0.02381652 0.049964517 0.12777248 -0.21464202 -0.052719418
-0.15494917 -0.19891015 -0.42788258 -0.0015269838 0.11014744 0.13080598 -0.22275503 -0.009147699
-0.097050406 -0.08301149 0.009949543 -0.017516017 -0.21386681 -0.1745736 0.42178354 0.17624366
-0.08707099 0.28125444 -0.1935981 0.11299255 0.059640773 0.07585911 -0.14617276 -0.10467156
-0.032219853 -0.13534242 -0.02882568 -0.04558468 -0.024696624 -0.17131573 0.05300009 0.024589868
-0.05583618 -0.042107265 0.07867118 0.045240913 0.003484208 -0.020461578 -0.124033526 0.15441924
-0.08824792 -0.04395459 0.19140373 0.25308082 0.32610494 0.003695976 0.022181388 0.0065155835
0.058535706 -0.049309455 -0.009900652 0.057283115 -0.104703404 0.24140508 -0.14488697 -0.19618228
-0.09076389 0.039220665 0.19488063 0.030915886 0.052927 -0.13062723 -0.2294752 0.11307042

linears.4.bias f4 [50]
00000000: 1758 a5b8 4038 4aba 4984 c039 0001 c0b9
00000010: 6514 2c39 4bf8 1eba 311d 833a f14a 03ba
00000020: 1350 98b9 8b4b 44b9 37aa 9f39 b0d9 13ba
00000030: c8bc 78b9 18f5 24ba 888f 4039 6f17 9eb9
00000040: e034 07ba afb1 91b9 6026 cc39 2631 1bb8
00000050: 1d83 cf37 9cc3 923a a90c 77ba 846a 833a
00000060: 4d45 a3b9 a11b f5b8 f91e 2938 30a5 0e39
00000070: 19f1 6d39 8f05 de39 7343 2d3a 54b6 58b9
00000080: 4360 4b3a a41a ddb7 edbe 15ba 1fdc 93b9
00000090: e3fd 2fba 7035 28ba 0b7d c8b9 1487 eb39
000000a0: 3981 ac39 1094 a8ba 13d5 9639 74f9 9038
000000b0: 823c 0b3a 212c 69b9 f159 03ba 180b d0b9
000000c0: ca67 feb9 e996 acb8
-7.884221e-05 -0.00077140704 0.00036719654 -0.0003662184 0.00016410796 -0.000606422 0.0010003207 -0.00050084206
-0.0002905136 -0.00018720159 0.00030453663 -0.0005640043 -0.0002372145 -0.00062926253 0.00018364016 -0.00030153568
-0.00051577203 -0.0002778894 0.00038938504 -3.7000653e-05 2.4737377e-05 0.0011197212 -0.0009424189 0.0010026251
-0.00031141416 -0.00011687657 4.0321585e-05 0.00013603712 0.00022691897 0.0004234728 0.0006609477 -0.00020667288
0.00077581796 -2.6357658e-05 -0.0005712349 -0.00028202028 -0.0006713552 -0.0006416654 -0.00038240137 0.00044923334
0.00032902675 -0.0012861509 0.00028768982 6.912919e-05 0.00053114456 -0.00022237051 -0.0005010656 -0.00039681117
-0.00048523984 -8.229708e-05

linears.5.weight f4 [50, 50]
00000000: 8ba5 533e 8059 fd3d c23f bbbd e9c0 513d
00000010: c260 c13d 9204 7b3d 3825 3b3c ce3d f2bd
00000020: 8f01 603d 232c 403d bc24 cc3d 7747 c03d
00000030: 18be cb3c 9c2c 63bd 9f2c 40be e1aa 9cbd
00000040: d042 8dbe aa48 48bd 36b2 603e 812e 44be
00000050: c99d b2bd a42b c03e c143 aebd d389 ba3d
00000060: 42b3 cebc ff42 803e d3c3 433d 667e bbbd
00000070: c724 cd3d 8797 6abe 8b93 103d f4da 0a3e
00000080: 9ada b83d 39fa 9bbc 7443 1abe 58b5 29bd
00000090: 2853 0bbe fa52 423d 247a 94bd 866b 92be
000000a0: 44e4 59bd e089 9abe b17f 1c3e 3a9a 02be
000000b0: 5bbf cfbb 5ce4 3b3e 47ed 50be cb19 143e
000000c0: 9649 afbc 0ffd 113e 6578 93bd 147e 5abe
000000d0: a767 29bc 8392 66be 04a5 4fbe 5538 3dbe
000000e0: 4cf4 2b3e 5834 b23d b61f a73d acd2 4d3d
000000f0: 3e22 143d b833 a83d 6346 39be 6495 ab3d
00000100: 32a3 54bd 6c04 d63d 6719 f83d 10f1 91bc
00000110: c494 b43d 8a6b efbd 9cda 55bb 9bff 383e
00000120: a509 2ebe 4d0e debd 90a4 ba3d adde c5bd
00000130: a8dd e5bc a2f4 ec3d 4b5f 823d 7eae b6bb
00000140: 62cc 583e 6337 083e dca4 b43c be96 403e
00000150: 020e 58be 54f3 1f3d ad81 113d c12e 6cbd
00000160: 4723 e2bd 10c6 693e 5a86 60be c37a 393c
00000170: 3016 f73d 3fca 243d 0356 863d c653 25bd
00000180: 93f2 22be d6a9 9bbe 3891 a93d 14d6 91bd
00000190: f79a 7abe fc29 c33d 3922 51be c304 bcbe
000001a0: 1123 8abe f5f1 00bd a231 0b3d 20bd 6ebe
000001b0: 2290 5a3e f73c adbd d191 a13c 120a 67bc
000001c0: bf62 8b3d cb26 84be dc74 9cbd 997a 67bc
000001d0: 7c35 cdbe 18b7 193d 5f0b 34bc 64ef debd
000001e0: 5c19 1fbe eb2e d9bd 7d7c e73b 888d 1fbc
000001f0: 9756 9f3d b39c 123e 8c50 2f3e c227 a93e
00000200: 9ada bf3d 113e bb3d 7016 67be 8b79 a13d
00000210: 2e99 c03c 8dcf 26be b935 8cbc 3f17 00be
00000220: 5d64 5bbe fe67 c9bd c361 c33d a78d 603d
00000230: ad50 38be e8c3 713e 51aa 883d 3dea a2bd
00000240: 403c 3ebe f35e a23e b8b9 403e 9164 7cbc
00000250: 259f 773e 0281 363e b6dc 823d 117a 383e
00000260: d6a5 2c3e b6b2 73bd 0e8c 4abe c188 d33d
00000270: 80d8 363c 2c52 c43e 2e87 adbd e471 aa3d
00000280: e845 6bbe d7de 473e 9021 ea3d 9b43 283e
00000290: 1067 85be a4a8 ae3c cc95 32bc 11cd 6c3e
000002a0: 045d 873e 240a 103c 696d dfbd ea73 1c3d
000002b0: 40db e0bc 20b4 5ebe 0648 593e 01e2 8b3d
000002c0: b578 11bd 9641 7bbd a9a6 ef3d bee0 efbd
000002d0: eff4 fdbc 7565 433e 16f6 cf3d 61d5 c73c
000002e0: d01e 85bd 2a64 cdbd 8907 3d3e c800 403e
000002f0: 1cbc 623d 1c5e cebd 7eb4 42be 7ea8 c8bd
00000300: 39eb a13d 1b1a be3c ed36 363d e6b1 03be
00000310: 3047 a83d 7499 d93d 2d48 ba3c ffca a83e
00000320: 08b1 373c a436 f7bb 302e 67be a1a9 10be
00000330: b195 5c3e 8d84 d83a 901a 833d ce48 863e
00000340: 004f 3fbd f881 0b3d 498d a3be 9215 10be
00000350: fd65 523c 8b46 3fbe c318 efbc f766 0ebe
00000360: d712 2c3d e2d0 733e 4b2c 8d3c 6032 00be
00000370: 8074 c8b8 fd41 ca3d 2a67 4f3d 8913 2c3e
00000380: b451 6dbc 6a86 fc3d 02a0 ff3b 9440 8d3e
00000390: 2b16 31be f9cd c93d 8d8e 473e 9153 24bd
000003a0: 0c9b c4bd 91a7 de3b eab9 40bd 9c06 4b3e
000003b0: 36e7 4b3e d814 143e fa85 8ebe f0ca 74bd
000003c0: b810 83bd 10c4 8fbd 8c0c 073e 3f78 5cbd
000003d0: 2960 65bc 6f85 773d ed3f 4cbe 1b22 fd3d
000003e0: 08d7 02bd b62c c93d 6d43 4f3e 2063 40be
000003f0: b28e 95bd d9ee 603c 92e2 59be 89eb bdbc
0.20668618 0.123705864 -0.0914302 0.051209364 0.09442283 0.061283655 0.011422448 -0.118281946
0.054688986 0.046917092 0.09967944 0.09388631 0.024870917 -0.055462465 -0.18767022 -0.0764978
-0.27590036 -0.048897423 0.21942982 -0.19158365 -0.087215014 0.37533295 -0.08509017 0.09108319
-0.025231961 0.25051114 0.047794174 -0.09154968 0.1001678 -0.22909366 0.035296958 0.13560086
0.0902607 -0.019040214 -0.15064794 -0.04143271 -0.1360594 0.047442414 -0.07249859 -0.2859766
-0.053196207 -0.30183315 0.15283085 -0.12754145 -0.00633995 0.18348831 -0.20403014 0.14462964
-0.021397393 0.1425669 -0.07200698 -0.21337157 -0.010339654 -0.22516827 -0.20277792 -0.1847852
0.1679241 0.0870139 0.08160345 0.05024974 0.03616547 0.082129896 -0.18093257 0.083781034
-0.051913448 0.10450062 0.1211422 -0.017815143 0.08817437 -0.11690433 -0.0032631522 0.18066256
-0.16995867 -0.108425714 0.09113419 -0.09661613 -0.028059795 0.115700975 0.06365832 -0.0055750003
0.21171716 0.13302378 0.022051267 0.18807504 -0.21099094 0.039050415 0.03552406 -0.057661775
-0.11041885 0.22829461 -0.21926251 0.011320773 0.12064779 0.04023194 0.06559374 -0.040363096
-0.15912847 -0.30403012 0.082796514 -0.0712091 -0.24473177 0.09529492 -0.20423211 -0.36722383
-0.2697988 -0.03148075 0.03398288 -0.23314333 0.21344045 -0.08458894 0.019722851 -0.014101522
0.06805944 -0.25810847 -0.07639477 -0.014128351 -0.40079868 0.037528127 -0.010989039 -0.10885504
-0.15537018 -0.10604652 0.0070644007 -0.0097383335 0.077801876 0.14317589 0.1712057 0.33038145
0.09367867 0.091426976 -0.22567153 0.078845106 0.023510542 -0.16290112 -0.01711546 -0.12508868
-0.21425004 -0.09834288 0.09540131 0.05482259 -0.17999525 0.23609889 0.0667311 -0.07954834
-0.18577671 0.31713066 0.18820846 -0.015404836 0.24181803 0.1782265 0.063897535 0.18015315
0.16860136 -0.059496604 -0.19779989 0.10328818 0.011160016 0.38343942 -0.08473049 0.08322504
-0.22975886 0.195186 0.11432183 0.1643204 -0.26055193 0.021320648 -0.010899972 0.23125102
0.26438153 0.00879148 -0.1090954 0.03819648 -0.027448297 -0.217484 0.21218881 0.06830216
-0.035515506 -0.061341844 0.1170171 -0.11712788 -0.031000583 0.19081672 0.10154359 0.02439374
-0.06500018 -0.100288704 0.18459906 0.18750298 0.055355176 -0.10076544 -0.19014165 -0.09797762
0.07906193 0.023205807 0.044485975 -0.12860832 0.08216703 0.10624972 0.022739494 0.32967374
0.011211641 -0.0075443555 -0.22576213 -0.14127208 0.21541478 0.0016518995 0.06401551 0.2622742
-0.0467062 0.034059495 -0.3194373 -0.14070728 0.012841699 -0.18679254 -0.029186612 -0.13906465
0.042010155 0.23810151 0.017233035 -0.12519217 -9.558443e-05 0.098758675 0.050635494 0.16804327
-0.014484812 0.12330325 0.007801057 0.27588332 -0.17293613 0.09853739 0.19487973 -0.040118758
-0.09599885 0.006794878 -0.0470523 0.1982674 0.19912419 0.14461076 -0.2783659 -0.05976385
-0.06399673 -0.07019818 0.1318838 -0.053825613 -0.013999977 0.060429987 -0.19946261 0.12360021
-0.03194335 0.09822981 0.20240565 -0.18787813 -0.073026076 0.013728821 -0.21277836 -0.023183601

linears.5.bias f4 [50]
00000000: 0d90 993a 2d95 b439 f09c cab9 7108 53ba
00000010: a33b ae38 0dfb 45b9 4d52 a637 8c19 78b8
00000020: 4f05 2039 6471 fab9 79eb b4b9 3415 b139
00000030: 0461 3f3a 13e7 063a 223b 7a38 d0ea 6639
00000040: 2477 f0b9 623f af39 1b8e 0939 00d4 003a
00000050: 6753 11ba e9c4 dab8 971e a337 a09f 4b39
00000060: c176 8739 7c91 86ba a675 b6b9 5aa0 1238
00000070: 06e2 2b39 62f2 443a 68a0 aab9 8320 04b9
00000080: 1fc7 bc38 df3b 96b8 e0f5 9439 be93 8e39
00000090: 95f1 3c39 6ebd 7cb9 2ffe 523a 1e98 bab9
000000a0: a3cb 1f39 a69f 2d3a a83a 5339 ad37 82ba
000000b0: 2a85 1a3a 060e ceb9 0888 08ba f5bb 5eb8
000000c0: 5c13 a939 a357 9cb8
0.0011715904 0.0003444342 -0.0003864537 -0.0008050269 8.308075e-05 -0.00018880908 1.9827066e-05 -5.91516e-05
0.00015260767 -0.00047768198 -0.00034507716 0.00033775868 0.0007300528 0.0005146127 5.9659716e-05 0.00022021984
-0.00045865134 0.00033425825 0.00013118277 0.0004914403 -0.0005543739 -0.000104317274 1.9445359e-05 0.00019419054
0.00025837685 -0.0010266746 -0.000348014 3.495845e-05 0.00016392031 0.00075129245 -0.0003254444 -0.00012600613
9.001628e-05 -7.163709e-05 0.0002841195 0.00027194427 0.00018019073 -0.00024103161 0.00080487406 -0.0003559002
0.00015239282 0.0006623216 0.00020144379 -0.0009934806 0.0005894477 -0.0003930183 -0.00052082585 -5.3103973e-05
0.00032248616 -7.454983e-05

linears.6.weight f4 [50, 50]
00000000: 2c5c ee3c 7a7d 85be 47b0 1a3e 5058 063d
00000010: 04fe 063e bfb2 e7bd 463d 953d ce82 513d
00000020: 1b56 373d efc5 28be 5ade a73c 33a7 4dbe
00000030: 54ca c83c 5f39 5dbe 12f2 5e3d 5ae6 39be
00000040: 502d 19be bc16 063e 75f0 2d3e a1af f33c
00000050: 3ccc 133b 42ab be3b 7930 49be 3829 ad3d
00000060: bcc8 203e 99e6 97bd a53f 6b3e 7f9a 20be
00000070: 5763 06be efb6 70bd 9179 723e 642a de3d
00000080: ec02 d63d c22b 813d 9570 e5bd 1798 8b3d
00000090: 8375 193e 6e3c 923b 8dd8 0dbe 95bd c53d
000000a0: 9c16 4e3d 8520 04bd ad4d 563d 3277 fb3d
000000b0: 5a19 8ebe df42 77bd 9f84 373e 7181 78bd
000000c0: 74d2 89bd 770b bb3d 6328 01be ecea ad3d
000000d0: 9509 383d 47ce 103e cca4 0cbd 248a df3d
000000e0: c395 153e 52a0 54be de87 bcbd 03d0 103b
000000f0: ef15 1e3e 689f 1a3e 1dc1 24be d756 bfbd
00000100: 7d4c 913d 55fd d5bd 0248 4b3e aa0d 2cbe
00000110: c1a7 12be b058 22be b2a0 66be 5ed8 32be
00000120: 5f2b a93d 8d2d 213e a823 c7bc 5ce2 443d
00000130: 5039 4abc 3470 5f3e a7a2 743e 89dd 733e
00000140: 4d04 083e f23f d23c 6d86 d4bd 028e 03be
00000150: 30f5 563c 8e25 28be 90a6 623e 94c2 90bb
00000160: 3fc9 93bb 84f5 50be 74d6 e0bc bfbb 803e
00000170: 6735 5cbe 28f6 113e eab9 5b3c f083 423d
00000180: acbd 813e 94e0 a43d 7715 b8be be0f 983d
00000190: 333e 72bd 991b 323d 9b6b a0bd 85ff 5cbe
000001a0: 5b29 b13b 7210 333e 6ba2 1b3d 4f54 d43d
000001b0: 7d02 d2bb 2f88 94bd e5c2 16bc b52d 0bba
000001c0: 4bd2 e73d 4ff2 27be 8a54 b93d 1e27 6d3e
000001d0: 4a4c 8f3e 48b1 5fbd 5b76 343e c745 51be
000001e0: 845d 18be 5a6e f1bd a9af 82be e211 653b
000001f0: 58d7 cbbc 9caf a0bd 0412 b83d 678a 7e3d
00000200: 2479 593e 2949 08bd 15f3 48be 837f 093e
00000210: 472b 7e3e 0e2a 69bc 1cf0 94bd c67e 1c3e
00000220: 8cd2 d6bd b805 19bc 6106 f43d 2e4d 183e
00000230: 0bfc 36bd dbf2 7a3e 7389 bdbb 04e1 0cbe
00000240: e0e2 b3bb 1026 2a3d c728 333c 6dd2 9dbd
00000250: 0229 d4bd c980 77bd 4e3a 1cbd 3941 9d3d
00000260: d26d 82be 246c 9ebe 14ce 9c3d 0957 b3bd
00000270: 3189 74bd 1ca1 b9be 2564 54bd caed 3dbc
00000280: c5ba 9abe a22d f0bd 4eaa a0bd d283 9b3d
00000290: 4743 073e 14d7 61be a1af a9bc e884 41bd
000002a0: 8fb5 483e c198 123d 937c 383e 1e40 e5bd
000002b0: ba95 043e 941c 06be 2845 7dbe ff12 a7be
000002c0: 0006 593e 56cf b53c 134e 90be 4209 243d
000002d0: e97d 0dbd 277a 28be 13b3 3bbd 6f8f 453e
000002e0: 770f 15bd 5e97 cbbd cb45 3abe 5289 77bd
000002f0: b4ae 32bd 1b31 643e 10ad 223e ab79 2f3e
00000300: ab5b 143c 3d7a 8b3d 2ca7 3abe c569 e93d
00000310: e86e 8f3e 729e 203e 82ff f8bc 4812 febd
00000320: 1148 503d 6159 123d b107 2dbd 8657 16be
00000330: 4067 443c a9dc 2b3d 4494 5bbe be8e ee3c
00000340: d14f 9abc 2af4 593d dce7 c8bd 0a8f 81bd
00000350: 1b20 dabc 4787 b03e 538a fbbd 9a9c 1e3d
00000360: cdb1 ad3d 29ca 4e3e f232 32be d502 0cbd
00000370: 2daf 82bc 3236 193d 0c37 7f3d efd2 0abe
00000380: eb1d 2b3c 803e f1bd 83b4 b8bc 5b50 51be
00000390: 9f63 bdbd 13c6 423d 48ae 9abd a10c 8cbd
000003a0: 5c4c 11be 6f9b 01be 5dac 273e 6387 ddbd
000003b0: b77b 643c bc77 0abc 8f1d 9a3c 0c4a 61bd
000003c0: e597 b53e 8fe3 bbbd 2df3 2bbd 7123 c2bd
000003d0: a86e 19bc ef48 393e 80b6 a4bd 86c4 25bd
000003e0: 3b48 f73d a84b 06be 4622 143e 4998 013e
000003f0: d668 21bd 0311 153d 23b5 ad3d b45f 8a3d
0.029096685 -0.26072294 0.15106307 0.032799065 0.13182837 -0.1131339 0.072870776 0.051150136
0.04475985 -0.16481756 0.020491768 -0.20083313 0.02451054 -0.21603917 0.054430075 -0.18154278
-0.14958692 0.1309461 0.16986258 0.029746832 0.0022552153 0.0058187554 -0.19647397 0.084551275
0.15701574 -0.0741703 0.22973497 -0.15683936 -0.13123833 -0.05876821 0.23679186 0.10847929
0.10449776 0.06307174 -0.11203114 0.06816118 0.14986233 0.00446277 -0.13852139 0.096553005
0.05031453 -0.032257576 0.05232017 0.12278594 -0.27753717 -0.060366508 0.17921685 -0.06067032
-0.06729594 0.09133046 -0.12613063 0.084920734 0.044931013 0.14141189 -0.03433685 0.1091502
0.14607911 -0.20764282 -0.09205602 0.002209664 0.15438055 0.15099871 -0.16089292 -0.09342735
0.07094667 -0.1044871 0.19851688 -0.16802087 -0.14321806 -0.15854144 -0.22522238 -0.1746535
0.082602255 0.15740032 -0.024308994 0.048067436 -0.012342766 0.21820146 0.23890172 0.23814978
0.1328289 0.025665257 -0.10377202 -0.1284714 0.013119981 -0.16420576 0.22133851 -0.004417727
-0.0045100744 -0.20406157 -0.02744601 0.2514324 -0.21504746 0.14254057 0.013411025 0.047489107
0.2534002 0.080506474 -0.35953876 0.074248776 -0.05914135 0.04348335 -0.07833024 -0.21581848
0.0054065413 0.17486742 0.03799669 0.10367643 -0.006408988 -0.072525375 -0.00920174 -0.000530924
0.11319407 -0.16401027 0.09049328 0.23159453 0.2798789 -0.054612428 0.17623274 -0.20436774
-0.14879423 -0.11788626 -0.25524643 0.0034953286 -0.024882957 -0.07845995 0.08987811 0.06214371
0.21237618 -0.033272896 -0.19623978 0.13427548 0.24821196 -0.014231218 -0.0727236 0.15282735
-0.104893774 -0.009339742 0.11915279 0.14873192 -0.04467396 0.24506705 -0.0057842075 -0.13757712
-0.005489692 0.041540205 0.010935015 -0.07706151 -0.10359384 -0.060425553 -0.03814154 0.07678456
-0.2547441 -0.3094188 0.07656494 -0.08756835 -0.05970115 -0.3625573 -0.051853318 -0.011592338
-0.3022062 -0.11727454 -0.07844983 0.07593502 0.13209258 -0.22054702 -0.02071363 -0.04724589
0.19600509 0.03579021 0.18016271 -0.1119387 0.12947741 -0.13096839 -0.24733412 -0.3263168
0.21193695 0.022193592 -0.28184566 0.04004789 -0.034543905 -0.16452847 -0.045825075 0.19292997
-0.0363917 -0.099409804 -0.18190686 -0.060433693 -0.04362364 0.22284357 0.1588633 0.17136256
0.0090550585 0.068104245 -0.18227834 0.11397127 0.28014302 0.15685442 -0.030395273 -0.124058306
0.050849978 0.03572977 -0.042243663 -0.14681825 0.011987507 0.041958485 -0.21443278 0.0291208
-0.018836888 0.05321137 -0.09809849 -0.06326111 -0.026626637 0.34478208 -0.122822426 0.038723566
0.084811784 0.20194305 -0.17402247 -0.03418239 -0.015952671 0.0374052 0.062308356 -0.13557027
0.010444145 -0.11779499 -0.022547012 -0.2044081 -0.09247517 0.04755218 -0.07552773 -0.06838346
-0.14189285 -0.1265695 0.16374345 -0.108168386 0.013945512 -0.008451398 0.018812923 -0.055002257
0.3546745 -0.09174263 -0.041979957 -0.09479416 -0.009364761 0.18094228 -0.080426216 -0.040470622
0.12074324 -0.13114798 0.144662 0.12655748 -0.03940662 0.036393177 0.08481815 0.06756535
