Archived Code/Stan TPAMI/Inverse/HT/stan_tune/inv_HT_stan_tune13_0.pt (torch, 101789 bytes, 22 tensors)

beta f4 [50, 10]
0.29881787 0.24335138 0.17003429 0.23331773 0.35189438 0.20703886 0.30705228 0.26739243
0.19478986 0.078123145 0.25675726 0.2230171 0.07225977 0.3268626 0.19180064 0.32473832
-0.044088878 -0.017832384 0.2998148 -0.61158484 0.25780204 0.22259107 0.20168571 0.31524822
0.16745387 0.18906967 0.4787069 0.2152041 0.36554104 0.284251 0.26323518 0.19579026
0.26727074 0.2519231 0.2683773 0.30350715 -0.0047053057 0.21178564 0.19753608 0.20474198
0.25028744 0.2861945 0.2678488 0.2471881 0.25360158 0.31153724 0.35493368 0.1285117
0.23767914 0.21408619 0.25175342 0.27789828 0.30728608 0.25395894 0.21979931 0.071565636
0.0672302 0.6296825 0.20234652 0.23907016 0.22712573 0.21400946 0.21230829 0.24280244
0.29201525 0.36900747 0.23430757 0.23680314 0.34758756 0.24745551 0.22939269 0.24213907
0.28404003 0.18899015 0.27454528 0.38417372 0.39291424 0.0022909667 0.3004461 0.2821835
0.38317478 0.22108936 0.38433912 0.25413838 0.28049564 0.4369124 0.13905069 0.2837405
0.2325081 -0.3137647 0.19449496 0.17884608 0.26014698 0.2696129 0.24308063 0.3351556
0.14294887 1.0811793 0.3263149 0.08124955 0.32361156 0.17718193 0.3288084 0.3234959
0.23904827 0.13399816 0.24669604 0.20117329 -0.0046450645 0.20295253 0.10014308 0.13569348
0.44682992 0.1862478 0.41555646 0.3682971 0.19306564 0.19598633 0.022389889 0.6694879
0.20105451 0.25325796 0.18276495 0.316955 0.3380662 0.32566747 0.6367587 0.6812028
0.19728465 0.3867222 0.2509875 0.23972447 0.23511778 0.25241247 0.3311112 0.05048242
0.33271202 0.272108 0.3019011 0.24909948 0.24248832 0.4428478 0.596184 0.24649543
0.2582403 0.28554413 0.3877719 0.22168377 0.31511235 0.22186284 0.22105826 0.30296722
0.22637579 0.29139575 0.2510107 -0.05976017 0.601043 0.5224424 0.6915468 0.35299218
0.2572732 0.20262358 0.19116372 0.27941406 0.260365 0.08301079 0.30519268 -0.07333144
0.36147985 0.23074013 0.17782596 0.34036767 0.31510037 0.3368202 0.32104892 0.1972895
0.43601063 0.3122845 0.15453951 -0.3191672 0.27355993 0.2092433 0.26506913 0.26238546
0.27435356 0.14980327 0.15973449 0.19217852 0.13901444 0.3267064 0.3899999 0.2562713
0.2264096 0.33934918 0.3071102 0.33475694 0.15799154 0.3588259 0.2971656 0.19053078
0.23760302 0.24301122 0.30982384 0.18310876 0.35787687 0.2357636 0.12753285 0.27803797
0.24169916 0.2737056 0.26510817 0.3336696 0.22339845 0.24652265 0.22859237 0.25116706
0.1951702 1.0837204 0.21578315 0.25328302 0.22732419 0.28404227 0.28569037 0.30156818
0.2766146 0.4700664 0.23028569 0.35767457 0.2834489 1.1936655 0.2993964 0.33459023
0.26189503 0.2851935 0.1591531 0.25038975 0.70027006 0.20230207 0.23620933 -0.1132256
0.24592109 0.23746036 0.18055837 0.2404785 0.19026677 0.27743232 0.8808468 0.20092243
0.16182804 0.26036042 0.2453121 0.27010068 0.08379424 0.16121618 0.27808395 0.20812993
00000000: a8fe 983e 1b31 793e 781d 2e3e d8ea 6e3e
00000010: 802b b43e ff01 543e f535 9d3e a9e7 883e
00000020: fe76 473e 07ff 9f3d b075 833e 985e 643e
00000030: eefc 933d 895a a73e 6367 443e 1a44 a63e
00000040: 8a96 34bd 3815 92bc 5381 993e d390 1cbf
00000050: a1fe 833e eaee 633e b386 4e3e 3768 a13e
00000060: 0779 2b3e 7b9b 413e 1219 f53e 775e 5c3e
00000070: 3228 bb3e 5989 913e c3c6 863e 3e7d 483e
00000080: b6d7 883e 11fc 803e c068 893e 4a65 9b3e
00000090: f72e 9abb 56de 583e e646 4a3e e2a7 513e
000000a0: ad25 803e 1688 923e 7a23 893e e11e 7d3e
000000b0: 11d8 813e cf81 9f3e deb9 b53e 9298 033e
000000c0: 2962 733e 6939 5b3e d3e5 803e af48 8e3e
000000d0: 9a54 9d3e e806 823e 1213 613e 0191 923d
000000e0: fdaf 893d df32 213f ed33 4f3e cfce 743e
000000f0: a693 683e 4c25 5b3e 5867 593e 34a1 783e
00000100: 0683 953e 8cee bc3e 53ee 6f3e 867c 723e
00000110: fff6 b13e fa64 7d3e ebe5 6a3e 4ef3 773e
00000120: b26d 913e a286 413e 3391 8c3e 6bb2 c43e
00000130: 0e2c c93e 0b24 163b 12d4 993e 5b7a 903e
00000140: 7c2f c43e 4065 623e 19c8 c43e 6d1e 823e
00000150: 209d 8f3e fbb2 df3e 4e63 0e3e 6f46 913e
00000160: 9a16 6e3e c4a5 a0be b029 473e 6d23 373e
00000170: fc31 853e b40a 8a3e 21ea 783e 8499 ab3e
00000180: 3061 123e 1564 8a3f bf12 a73e 2a66 a63d
00000190: 6ab0 a53e 2e6f 353e 9359 a83e 41a1 a53e
000001a0: 12c9 743e d036 093e e39d 7c3e 5f00 4e3e
000001b0: a035 98bb cad2 4f3e d117 cd3d 3bf3 0a3e
000001c0: e4c6 e43e beb7 3e3e d1c3 d43e 7091 bc3e
000001d0: 00b3 453e a4b0 483e 006b b73c 8f63 2b3f
000001e0: 3ce1 4d3e 07ab 813e bc26 3b3e ed47 a23e
000001f0: 0317 ad3e e3bd a63e 9e02 233f 4f63 2e3f
00000200: fd04 4a3e 7400 c63e 6f81 803e 557a 753e
00000210: b7c2 703e 353c 813e 6887 a93e a7c6 4e3d
00000220: 3b59 aa3e bd51 8b3e c892 9a3e ef13 7f3e
00000230: dc4e 783e f2bc e23e 849f 183f 4c69 7c3e
00000240: 1338 843e d732 923e 0a8a c63e 1201 633e
00000250: 6856 a13e 0330 633e 195d 623e 851e 9b3e
00000260: 0ecf 673e d331 953e 7984 803e 14c7 74bd
00000270: f4dd 193f c9be 053f 3609 313f 64bb b43e
00000280: 50b9 833e 8e7c 4f3e 6cc0 433e 5c0f 8f3e
00000290: 904e 853e 9001 aa3d 3742 9c3e cb2e 96bd
000002a0: e313 b93e 2447 6c3e 0218 363e ac44 ae3e
000002b0: d654 a13e b273 ac3e 8660 a43e 4206 4a3e
000002c0: c93c df3e c1e3 9f3e 9b3f 1e3e e269 a3be
000002d0: 0c10 8c3e e043 563e 24b7 873e 6357 863e
000002e0: 1278 8c3e 0766 193e 7091 233e 72ca 443e
000002f0: cd59 0e3e 1046 a73e 11ae c73e fe35 833e
00000300: ebd7 673e 2dbf ad3e 8c3d 9d3e 4365 ab3e
00000310: 89c8 213e 07b8 b73e 1726 983e 801a 433e
00000320: 354e 733e efd7 783e 3ba1 9e3e dd80 3b3e
00000330: a33b b73e 036c 713e f997 023e fe5a 8e3e
00000340: fc7f 773e 2423 8c3e 42bc 873e bed6 aa3e
00000350: 90c2 643e 6f70 7c3e 1e14 6a3e f898 803e
00000360: b2da 473e 5ab7 8a3f 42f6 5c3e 50ae 813e
00000370: acc7 683e fd6d 913e 0246 923e 2567 9a3e
00000380: 6ea0 8d3e 8bac f03e 03d0 6b3e 1f21 b73e
00000390: 3720 913e 08ca 983f 7c4a 993e 694f ab3e
000003a0: 1b17 863e e204 923e 08f9 223e 1633 803e
000003b0: e644 333f 4628 4f3e dce0 713e d3e2 e7bd
000003c0: bdd2 7b3e cf28 733e 4be4 383e ff3f 763e
000003d0: 4bd5 423e 9c0b 8e3e 2d7f 613f 9cbe 4d3e
000003e0: 40b6 253e f64d 853e 1833 7b3e a34a 8a3e
000003f0: 519c ab3d db15 253e 0561 8e3e 0320 553e

linears.0.weight f4 [50, 2]
-0.22315192 -0.17551327 -0.31642613 -0.068584085 -0.18178226 -0.030254051 -0.13452111 -0.076844916
-0.35688093 0.27992636 -0.05223024 0.15033072 0.47708103 -0.10847351 0.015235619 0.0019457162
-0.6009576 -0.008732755 -0.36758536 -0.058795508 -0.71695215 -0.11576861 0.60752136 0.0063801613
0.58794934 -0.12375902 0.010591385 -0.046731126 -0.007550935 -0.19613752 0.15382622 -0.11137964
0.2771232 0.08508757 0.25944793 0.1614651 -0.11037653 0.041106038 -0.14973682 -0.5707105
0.19245896 -0.011437548 -0.45061725 0.14230582 -0.1935314 -0.045909464 -0.19136289 -0.26859188
-0.057208776 0.023362054 -0.18310823 0.079257056 0.019843297 0.26018524 0.43962017 0.013050522
-0.11829816 -0.02929461 0.61910844 -0.15348719 0.273926 0.012463292 0.1264264 -0.22990373
-0.23692836 0.056059085 0.15920931 0.15560825 -0.21574517 -0.2387635 -0.31352833 -0.10214409
0.23462538 0.13756199 0.18862522 -0.19423428 0.2650813 -0.032570522 0.7543598 -0.14069992
-0.28570265 -0.4919312 -0.07736217 0.24318294 -0.08403031 -0.23440027 -0.074046366 -0.25268045
0.060590103 0.058892433 -0.109330334 -0.12590739 0.5093372 -0.032220952 0.519157 0.021854555
-0.44457778 0.11547952 -0.3080941 0.16743432
00000000: f081 64be c0b9 33be 9b02 a2be d075 8cbd
00000010: 2125 3abe 58d7 f7bc e7bf 09be de60 9dbd
00000020: 19b9 b6be 8252 8f3e 60ef 55bd 4cf0 193e
00000030: f743 f43e 5c27 debd d19e 793c 6707 ff3a
00000040: 5bd8 19bf d413 0fbc 2634 bcbe 8fd3 70bd
00000050: 2d8a 37bf 1818 edbd 8586 1b3f ac10 d13b
00000060: d983 163f 5e75 fdbd 7d87 2d3c 2369 3fbd
00000070: d56d f7bb 46d8 48be 9f84 1d3e 021b e4bd
00000080: 18e3 8d3e 6442 ae3d 5cd6 843e 1b57 253e
00000090: 170d e2bd ce5e 283d 9c54 19be 151a 12bf
000000a0: f613 453e 8e64 3bbc 4eb7 e6be 9eb8 113e
000000b0: 182d 46be 900b 3cbd a2f4 43be e084 89be
000000c0: c053 6abd c761 bf3c b980 3bbe 8651 a23d
000000d0: 698e a23c 0037 853e e515 e13e dbd1 553c
000000e0: 4e46 f2bd 40fb efbc e47d 1e3f bf2b 1dbe
000000f0: 0740 8c3e d632 4c3c ec75 013e e26b 6bbe
00000100: 599d 72be 369e 653d c407 233e c557 1f3e
00000110: 4dec 5cbe 6b7e 74be c986 a0be ec30 d1bd
00000120: a341 703e 0ddd 0c3e f826 413e 5ae5 46be
00000130: bcb8 873e ab68 05bd b91d 413f a413 10be
00000140: 9e47 92be 68de fbbe 0f70 9ebd f304 793e
00000150: 1518 acbd a006 70be 9fa5 97bd 555f 81be
00000160: 542d 783d 3139 713d 95e8 dfbd deed 00be
00000170: ec63 023f 1efa 03bd 79e7 043f 5308 b33c
00000180: b39f e3be 8780 ec3d 83be 9dbe e773 2b3e

linears.0.bias f4 [50]
-0.06568751 0.5240171 -0.26027223 -0.09418259 -0.046638995 0.51709116 -0.22987999 -0.5099852
0.68777734 0.37094694 -0.46666557 0.5689357 -0.26787633 0.27959096 -0.085759714 -0.10177538
-0.16972834 -0.0086294105 0.48701566 -0.24728073 -0.12295694 -0.4837766 -0.3698058 -0.65958744
-0.10745554 -0.15307313 0.116464004 -0.33770382 -0.2512461 -0.12480438 0.10400528 -0.02579119
0.142063 -0.10776323 0.102988064 0.1696283 0.5433793 0.2214543 0.13004106 -0.014267527
-0.3243939 0.17460614 0.19055454 0.120712824 -0.22690232 -0.30739957 -0.38721702 -0.43517584
-0.14199507 -0.06419334
00000000: 2c87 86bd fc25 063f 6742 85be cde2 c0bd
00000010: 8808 3fbd 1660 043f a965 6bbe 648e 02bf
00000020: 2d12 303f c2ec bd3e caee eebe c5a5 113f
00000030: 1627 89be 8c26 8f3e caa2 afbd 9c6f d0bd
00000040: 44cd 2dbe 5f62 0dbc 1e5a f93e 2937 7dbe
00000050: d9d0 fbbd 91b1 f7be 3057 bdbe b9da 28bf
00000060: a611 dcbd 34bf 1cbe ae84 ee3d 84e7 acbe
00000070: 54a3 80be 7099 ffbd b800 d53d 0c48 d3bc
00000080: f778 113e f8b2 dcbd 68eb d23d 0bb3 2d3e
00000090: e81a 0b3f ebc4 623e 7c29 053e 58c2 69bc
000000a0: f516 a6be f4cb 323e bb20 433e 4938 f73d
000000b0: 1559 68be 7a63 9dbe 4f41 c6be 5ecf debe
000000c0: 2867 11be cc77 83bd

linears.1.weight f4 [50, 50]
0.17585553 -0.11337851 -0.03270146 -0.19103146 -0.0030581553 -0.08613386 -0.012404683 -0.015154594
-0.07832679 -0.089265235 0.15612708 -0.16485693 -0.023347829 -0.0022884964 -0.04045991 0.16043955
0.24285875 0.3946889 -0.111641765 0.09935893 0.052743923 -0.0047152205 -0.08435897 0.009359359
-0.28260887 -0.0036300067 0.10667819 0.22389746 -0.29668194 0.04734923 -0.008369461 0.0669613
-0.0011858664 0.19340084 -0.09677097 -0.009571726 0.16368154 -0.15897326 -0.076688305 -0.18719736
-0.13481614 0.1699541 -0.24708056 -0.17368397 0.16916628 -0.050666265 0.018935444 0.18127449
-0.15443043 0.14567834 0.04210497 0.013874237 0.17325744 0.04005377 0.0961412 -0.08826671
0.019270988 -0.25210816 0.14891504 0.0092994245 -0.12014556 -0.2902177 -0.091859594 0.19428436
-0.065331526 -0.24162428 -0.08319158 0.16627683 -0.05511763 -0.11823759 0.25338572 0.16127753
0.021983739 0.08638988 0.15917274 -0.09397363 0.006268918 -0.10113751 0.22055037 -0.16757718
0.12565576 -0.19987588 0.085253716 -0.034933247 0.15114054 0.07616894 0.3286578 -0.23539251
-0.028535822 -0.27073985 0.034914847 -0.025162956 0.20077354 -0.01477292 0.16613108 0.20120755
-0.038965326 -0.17544426 0.061939795 -0.07046108 -0.08079267 0.08027403 -0.09983829 -0.050841898
-0.07005678 0.13280813 -0.22818731 -0.04181316 0.3566906 -0.006910628 -0.19277617 0.050333407
-0.115124196 0.15815707 -0.10520626 0.086149886 -0.23931535 0.022221576 0.08056038 0.4480554
-0.0016207795 -0.0032898434 -0.023259465 -0.31115782 -0.07670357 0.14112212 -0.0076329024 -0.06410323
0.09373212 0.045693148 0.0029346938 -0.15667854 0.22048932 -0.06662829 0.2701743 -0.15001845
-0.05688515 0.19381343 0.044584814 -0.004683389 0.17657538 0.15545754 0.33239442 -0.046651993
-0.043636452 0.009907495 -0.01847344 0.088241465 -0.095186256 0.13019906 -0.12427072 0.011648699
0.09523436 -0.14785892 0.09942498 -0.18453611 -0.30778968 0.2041214 -0.11191555 -0.04415071
0.028707268 -0.07385073 -0.02708835 -0.12082569 -0.13378793 0.115513496 0.043428354 0.2287201
-0.23651709 -0.050447255 0.12343777 -0.07137143 0.030196777 0.12473363 -0.004827934 0.064908
0.20704928 0.042679418 0.33125344 -0.36570495 0.17853892 0.004375836 -0.14546168 0.24044488
0.19348717 0.14202492 -0.13859564 0.16349798 0.00082826486 0.065008596 0.19341916 0.07687927
-0.09806794 0.0110494215 0.07453147 0.10784409 0.11073964 0.051241852 0.12584835 -0.02917675
-0.004986073 -0.26628542 -0.020308828 0.0686411 -0.02046419 0.20630996 0.10034044 0.34676835
-0.26147515 -0.1720534 0.14469099 0.0021592614 0.18902689 -0.09683101 0.070920765 -0.1099053
-0.014863636 0.17847201 -0.0005333786 -0.031942267 0.14141345 0.052693535 -0.0827206 0.19706814
0.08952981 0.20379744 0.097139485 0.18118738 -0.040650234 0.07895203 0.30435792 -0.08168647
-0.12395749 0.3360654 -0.11202224 0.008835865 0.054009087 -0.015846018 0.11238284 0.08739876
0.12427424 0.16593345 -0.17688984 -0.04704648 0.23773564 -0.020182598 0.20768997 -0.01404144
0.20169315 -0.13866448 -0.06275952 0.1524566 -0.014641701 -0.2045178 0.12639727 -0.0005268543
00000000: 7913 343e fe32 e8bd f7f1 05bd c09d 43be
00000010: 556b 48bb f366 b0bd 033d 4bbc f94a 78bc
00000020: cc69 a0bd b1d0 b6bd c7df 1f3e 41d0 28be
00000030: f243 bfbc 99fa 15bb 4ab9 25bd 444a 243e
00000040: f7af 783e aa14 ca3e 70a4 e4bd b27c cb3d
00000050: 030a 583d 2382 9abb 65c4 acbd ff57 193c
00000060: 1cb2 90be 68e5 6dbb 187a da3d 6045 653e
00000070: b2e6 97be 44f1 413d 1020 09bc 0223 893d
00000080: 136f 9bba df0a 463e dc2f c6bd bbd2 1cbc
00000090: 229c 273e e3c9 22be c20e 9dbd aab0 3fbe
000000a0: 3e0d 0abe 7308 2e3e b002 7dbe 36da 31be
000000b0: ed39 2d3e 6e87 4fbd 811e 9b3c 05a0 393e
000000c0: 0323 1ebe b42c 153e 4376 2c3d c550 633c
000000d0: 666a 313e 6c0f 243d ade5 c43d 2dc5 b4bd
000000e0: 31de 9d3c 5214 81be 2f7d 183e 9d5c 183c
000000f0: e00e f6bd 6a97 94be e220 bcbd 7bf2 463e
00000100: 89cc 85bd 5b6c 77be 5960 aabd 7944 2a3e
00000110: 06c3 61bd 8d26 f2bd c6bb 813e f025 253e
00000120: 3e17 b43c 2ded b03d 2efe 223e 3f75 c0bd
00000130: 7f6b cd3b 2f21 cfbd f5d7 613e 5a99 2bbe
00000140: e7ab 003e 43ac 4cbe 8099 ae3d 2a16 0fbd
00000150: 96c4 1a3e 76fe 9b3d d645 a83e bc0a 71be
00000160: f5c3 e9bc 6a9e 8abe df02 0f3d 8b22 cebc
00000170: 9497 4d3e 1e0a 72bc 441e 2a3e 5a09 4e3e
00000180: 1b9a 1fbd a9a7 33be 95b4 7d3d e64d 90bd
00000190: a176 a5bd b666 a43d 0478 ccbd 983f 50bd
000001a0: ee79 8fbd dbfe 073e efa9 69be 4744 2bbd
000001b0: 26a0 b63e 8d72 e2bb 1e67 45be 672a 4e3d
000001c0: 3cc6 ebbd edf3 213e 6176 d7bd 5a6f b03d
000001d0: 150f 75be 060a b63c d7fc a43d 8467 e53e
000001e0: 5670 d4ba 6a9a 57bb a28a bebc 1450 9fbe
000001f0: c316 9dbd 5182 103e 6d1d fabb 8e48 83bd
00000200: a0f6 bf3d bd28 3b3d fe53 403b 5770 20be
00000210: f4c7 613e 6a74 88bd 4954 8a3e 709e 19be
00000220: 6700 69bd 0777 463e 919e 363d 1d77 99bb
00000230: 2dd0 343e 4330 1f3e 9a2f aa3e 2916 3fbd
00000240: 23bc 32bd 0c53 223c 9d55 97bc f1b7 b43d
00000250: 03f1 c2bd e752 053e a681 febd 2fda 3e3c
00000260: 3b0a c33d 5468 17be 539f cb3d 09f7 3cbe
00000270: 9c96 9dbe 3305 513e fb33 e5bd 60d7 34bd
00000280: 812b eb3c 0d3f 97bd 63e8 ddbc 7673 f7bd
00000290: b4ff 08be 5792 ec3d eee1 313d 9a35 6a3e
000002a0: 8931 72be c8a1 4ebd f1cc fc3d 2f2b 92bd
000002b0: 3b5f f73c 5874 ff3d a533 9ebb 7cee 843d
000002c0: ba04 543e 9dd0 2e3d 0d9a a93e ae3d bbbe
000002d0: e8d2 363e 2c63 8f3b e8f3 14be 2f37 763e
000002e0: 8021 463e fb6e 113e 04ec 0dbe 046c 273e
000002f0: ea1f 593a 3a23 853d ac0f 463e e172 9d3d
00000300: d8d7 c8bd a208 353c f5a3 983d 5ddd dc3d
00000310: 77cb e23d fae2 513d 64de 003e 1404 efbc
00000320: 3662 a3bb 9056 88be b35e a6bc b493 8c3d
00000330: 84a4 a7bc eb42 533e 4a7f cd3d 9f8b b13e
00000340: 12e0 85be c42e 30be e029 143e 6582 0d3b
00000350: 4490 413e 564f c6bd e83e 913d 0816 e1bd
00000360: 9c86 73bc 5ec1 363e 6fd2 0bba e5d5 02bd
00000370: b0ce 103e 2dd5 573d 6b69 a9bd 3bcc 493e
00000380: 685b b73d 47b0 503e 11f1 c63d 2f89 393e
00000390: dc80 26bd 9ab1 a13d cdd4 9b3e 3c4b a7bd
000003a0: 6ddd fdbd c410 ac3e eb6b e5bd 4ec4 103c
000003b0: a238 5d3d 82cf 81bc f928 e63d 1ffe b23d
000003c0: 7e83 fe3d 75ea 293e 9c22 35be cfb3 40bd
000003d0: f970 733e fa55 a5bc aeac 543e 110e 66bc
000003e0: a688 4e3e 10fe 0dbe 1088 80bd 951d 1c3e
000003f0: bfe3 6fbc 1d6d 51be 496e 013e 981c 0aba

linears.1.bias f4 [50]
-0.05028795 -0.2593623 0.16156521 -0.18603322 -0.231607 0.03191879 0.15826988 0.06145724
0.096890256 -0.09279163 -0.3142489 -0.71604276 -0.1381291 -0.039042644 -0.9500532 -0.32638815
0.047391444 -0.18846688 -0.2127627 -0.022608213 -0.08772818 -0.43121722 0.29318026 0.2445931
0.17953822 -0.13678196 0.10539172 -0.41256624 -0.30782825 -0.45221317 0.047918215 0.2852119
-0.07463181 -0.7355716 -0.07936487 0.26181707 0.33339164 -0.4889343 0.67854226 0.27279022
0.21080492 -0.074044116 -0.1111351 0.18040833 -0.17274883 0.31530795 -0.13079509 -0.15838806
-0.09202856 -0.26463586
00000000: bdfa 4dbd 23cb 84be 5a71 253e 7e7f 3ebe
00000010: 632a 6dbe 47bd 023d 8011 223e 96ba 7b3d
00000020: 666e c63d 8a09 bebd 3be5 a0be 944e 37bf
00000030: b771 0dbe 2eeb 1fbd b036 73bf 591c a7be
00000040: 881d 423d 76fd 40be 77de 59be dc34 b9bc
00000050: d5aa b3bd 81c8 dcbe b91b 963e 9d76 7a3e
00000060: ded8 373e 9210 0cbe 9dd7 d73d e23b d3be
00000070: aa9b 9dbe 7c88 e7be e445 443d 4b07 923e
00000080: 90d8 98bd 6c4e 3cbf 0d8a a2bd e30c 863e
00000090: 4fb2 aa3e 9955 fabe f2b4 2d3f 29ab 8b3e
000000a0: 3fdd 573e 71a4 97bd cd9a e3bd f6bc 383e
000000b0: 12e5 30be 0b70 a13e 26ef 05be 7b30 22be
000000c0: 7879 bcbd 5a7e 87be

linears.2.weight f4 [50, 50]
-0.2185502 -0.22191614 -0.16475499 0.17376748 -0.049091373 -0.26455444 0.09062881 -0.14037322
-0.13472351 0.12747793 -0.051839836 -0.25371844 0.12755033 -0.16081044 -0.09254306 -0.03289402
0.012124542 0.15753922 -0.1265572 0.2053538 -0.067849465 -0.048160706 -0.24104622 -0.16630113
0.33662483 -0.1848998 -0.08340487 0.009824011 -0.26692262 -0.11124552 0.31712535 -0.10125566
-0.22076002 -0.14295183 0.28331357 0.3567609 -0.14416276 -0.37866184 0.16630466 0.14093009
0.04233917 -0.11478229 -0.40722457 -0.2285055 0.26301178 0.21070753 -0.13392007 -0.23760991
-0.13513257 0.20579907 -0.0046486696 0.0008199134 -0.008496621 -0.0931146 -0.045961197 -0.0981492
0.19713981 0.042516325 -0.1100512 0.08110544 0.1061698 0.0028609543 0.43244156 -0.12871926
-0.04581624 -0.09152854 -0.030987263 0.091245614 0.1498263 -0.08174379 -0.073408075 0.02596785
0.23329537 -0.0005760257 0.04507046 0.13018715 -0.05081791 0.16717377 -0.016740799 0.067640655
-0.08092563 0.13473071 0.119949915 -0.21792501 0.0008363246 -0.17027564 0.27715033 0.052519925
0.33897218 0.22768046 0.06649503 0.16796955 0.20177472 -0.07545725 -0.36166993 -0.04410001
0.3717705 -0.00791914 -0.11864789 -0.09998963 0.0017160289 0.023782171 -0.06495431 -0.096081264
-0.079698324 -0.03375224 -0.03388048 -0.21562764 -0.22144349 0.06757236 0.09751912 -0.2703399
0.10706647 -0.22923161 0.25744173 0.013941047 0.035894938 0.23448966 0.037287075 -0.15248372
0.103968844 0.08547448 -0.115792744 0.34960815 0.05102784 -0.3673413 0.024604699 -0.14729115
0.07716969 -0.04028875 -0.22505346 0.06307722 -0.13292478 0.02406266 0.2920003 -0.08386271
0.3655513 -0.17711665 -0.067162186 0.019173034 0.15465572 -0.078830555 0.5103032 0.23550186
-0.04350035 -0.018979803 0.21113262 -0.0123747615 0.16655806 -0.017574236 -0.011827875 0.216908
0.13533664 0.046284325 -0.2513805 -0.078511775 -0.043936886 -0.16183026 -0.11143768 0.15716311
-0.099409714 -0.14649 0.092416175 -0.10613718 -0.21814315 -0.13121842 0.041790858 -0.20760445
0.046050943 -0.14219707 0.11608878 0.12573457 0.09682162 0.05704362 0.18735132 0.022626989
-0.14234763 -0.29511198 -0.17204428 0.022061128 0.32754177 -0.023599993 -0.09166974 -0.32636648
0.20753475 0.04572384 0.15987985 -0.0014080429 -0.06107081 -0.047584757 -0.17956515 0.28690282
-0.02452537 0.1472248 -0.13392141 -0.029922167 -0.021941213 0.07497425 0.112247735 0.111298814
-0.288863 0.0069838325 -0.18990359 -0.071044706 -0.1201566 -0.17162752 -0.1165339 -0.15516211
0.17874172 -0.09939427 0.14581025 0.083489046 0.19331206 0.18667243 0.21740301 -0.4873729
-0.14834698 0.057963554 0.24533801 0.011944425 -0.04803537 0.07112449 0.13724573 0.036774524
-0.14098576 0.14456734 -0.04931061 0.353914 0.01893474 0.22520043 0.089260146 0.008192591
0.12626828 -0.07468731 -0.06518066 -0.17156458 -0.25008616 -0.06484644 -0.13077137 -0.07021149
0.076328784 0.18165435 0.026565837 0.22585961 0.011822754 0.039621167 0.05860284 -0.012150667
-0.13570867 -0.07956901 0.008126131 0.18040875 0.04354316 -0.15497841 0.13476557 0.24583593
00000000: a0cb 5fbe fc3d 63be 88b5 28be 1af0 313e
00000010: 0914 49bd ae73 87be 999b b93d ffbd 0fbe
00000020: f6f4 09be 9389 023e 0256 54bd 62e7 81be
00000030: 8e9c 023e 7eab 24be 3787 bdbd e1bb 06bd
00000040: 04a6 463c f651 213e 3698 01be 4448 523e
00000050: a9f4 8abd 2944 45bd d2d4 76be d84a 2abe
00000060: 175a ac3e 6056 3dbe 2cd0 aabd e3f4 203c
00000070: 15aa 88be b1d4 e3bd 415e a23e 215f cfbd
00000080: ea0e 62be f761 12be 7a0e 913e 5da9 b63e
00000090: 679f 13be f7df c1be c54b 2a3e fa4f 103e
000000a0: d66b 2d3d fa12 ebbd bd7f d0be 59fd 69be
000000b0: 7ba9 863e b7c3 573e 5822 09be 0350 73be
000000c0: 3160 0abe febc 523e de53 98bb 75ef 563a
000000d0: 6935 0bbc deb2 bebd cf41 3cbd 7302 c9bd
000000e0: 05df 493e 9925 2e3d 8662 e1bd 9c1a a63d
000000f0: 8d6f d93d d97e 3b3b fb68 dd3e fbce 03be
00000100: cfa9 3bbd 5173 bbbd 00d9 fdbc fbde ba3d
00000110: 116c 193e 4a69 a7bd f956 96bd 87ba d43c
00000120: fbe4 6e3e 6e00 17ba cd9b 383d c84f 053e
00000130: 7126 50bd 9a2f 2b3e 0024 89bc 2f87 8a3d
00000140: 56bc a5bd d9f6 093e 4da8 f53d bc27 5fbe
00000150: cb3c 5b3a bd5c 2ebe a6e6 8d3e 221f 573d
00000160: c38d ad3e 1125 693e 8c2e 883d 3600 2c3e
00000170: 089e 4e3e 5589 9abd cd2c b9be 36a2 34bd
00000180: b458 be3e 48bf 01bc aafd f2bd 5dc7 ccbd
00000190: 60ec e03a d4d2 c23c c406 85bd 41c6 c4bd
000001a0: e038 a3bd ca3f 0abd 42c6 0abd 7ecd 5cbe
000001b0: 15c2 62be 6163 8a3d 1bb8 c73d fe69 8abe
000001c0: aa45 db3d b1bb 6abe 67cf 833e fd68 643c
000001d0: 9206 133d 0f1e 703e 55ba 183d b124 1cbe
000001e0: 9eed d43d 3f0d af3d bf24 edbd d7ff b23e
000001f0: 9102 513d 2914 bcbe cb8f c93c 7ed3 16be
00000200: 240b 9e3d d105 25bd 6a74 66be a12e 813d
00000210: 6f1d 08be 0e1f c53c 1081 953e 36c0 abbd
00000220: 8a29 bb3e 115e 35be 548c 89bd c410 9d3c
00000230: 125e 1e3e ea71 a1bd 3ba3 023f 6627 713e
00000240: 6c2d 32bd 887b 9bbc 2633 583e 83bf 4abc
00000250: 328e 2a3e d8f7 8fbc b4c9 41bc 211d 5e3e
00000260: b095 0a3e a294 3d3d f2b4 80be c8ca a0bd
00000270: 2af7 33bd d5b6 25be 7039 e4bd 5eef 203e
00000280: 5297 cbbd 7901 16be b144 bd3d 735e d9bd
00000290: eb60 5fbe 1f5e 06be e42c 2b3d 4396 54be
000002a0: ea9f 3c3d 1c9c 11be f4bf ed3d 90c0 003e
000002b0: 6a4a c63d 92a6 693d 06d9 3f3e 3c5c b93c
000002c0: 94c3 11be eb18 97be 602c 30be 8ab9 b43c
000002d0: 8eb3 a73e c654 c1bc 58bd bbbd 8219 a7be
000002e0: fd83 543e ec48 3b3d 8bb7 233e 148e b8ba
000002f0: 6325 7abd 3ce8 42bd eddf 37be ede4 923e
00000300: 6ee9 c8bc 19c2 163e b222 09be 551f f5bc
00000310: 0fbe b3bc 198c 993d 24e2 e53d a2f0 e33d
00000320: dae5 93be a2d8 e43b 1676 42be e37f 91bd
00000330: aa14 f6bd 20bf 2fbe 53a9 eebd d1e2 1ebe
00000340: 1208 373e 398f cbbd 484f 153e 4efc aa3d
00000350: 99f3 453e 0f27 3f3e e59e 5e3e f188 f9be
00000360: 45e8 17be 316b 6d3d e339 7b3e 8db2 433c
00000370: bcc0 44bd b7a9 913d 258a 0c3e e2a0 163d
00000380: 925e 10be 7609 143e ecf9 49bd 3734 b53e
00000390: 071d 9b3c f19a 663e 06ce b63d 383a 063c
000003a0: 794c 013e a9f5 98bd 707d 85bd a0ae 2fbe
000003b0: 4b0b 80be 36ce 84bd eee8 05be 0bcb 8fbd
000003c0: 4452 9c3d 9903 3a3e 99a0 d93c be47 673e
000003d0: 39b4 413c ce49 223d 8809 703d 9713 47bc
000003e0: 37f7 0abe 14f5 a2bd 7723 053c 12bd 383e
000003f0: 505a 323d a9b2 1ebe fcff 093e 6abc 7b3e

linears.2.bias f4 [50]
0.33967364 -0.43514156 0.17855392 0.31233168 -0.14633334 -0.3107235 -0.39627692 -0.113235936
-0.09186444 0.42629987 0.37521338 0.61197895 -0.13442837 0.8859437 0.040855676 0.25343204
0.60823727 -0.65913206 0.11648823 0.033704653 -0.50073576 -0.2517102 0.018302916 0.39549074
0.06016089 -0.4253782 -0.034811914 0.40374556 0.28126824 0.29531148 -0.5679388 0.007480055
0.17053503 -0.32526508 0.11606914 -0.07131221 0.23736867 0.1527831 0.005875864 0.08814989
0.24629793 0.30892268 0.3160072 -0.47042903 -0.24955823 -0.110120274 -0.04423936 0.14277601
0.67867166 -0.049146093
00000000: b4e9 ad3e e0ca debe d7d6 363e f0e9 9f3e
00000010: 68d8 15be 2717 9fbe cfe4 cabe 3ee8 e7bd
00000020: 6c23 bcbd fa43 da3e f81b c03e a7aa 1c3f
00000030: 97a7 09be 35cd 623f 4858 273d d8c1 813e
00000040: 70b5 1b3f e1bc 28bf 6291 ee3d e40d 0a3d
00000050: 3830 00bf 29e0 80be ffef 953c c37d ca3e
00000060: 446b 763d 2ccb d9be f096 0ebd bdb7 ce3e
00000070: 6402 903e 1133 973e 7064 11bf 401b f53b
00000080: bca0 2e3e 2589 a6be a8b5 ed3d 230c 92bd
00000090: c610 733e 2c73 1c3e 528a c03b ee87 b43d
000000a0: 8635 7c3e 1d2b 9e3e b2cb a13e 13dc f0be
000000b0: 318c 7fbe bd86 e1bd 5534 35bd e033 123e
000000c0: 6dbd 2d3f 6a4d 49bd

linears.3.weight f4 [50, 50]
-0.1501258 0.07387405 0.114553936 -0.17611559 0.0011729515 -0.17501757 -0.079004414 -0.016166339
0.13703099 -0.07141648 -0.2128466 -0.012604774 0.005952805 0.0958344 0.070764124 -0.0072297193
0.19953129 0.03878005 0.034621336 -0.05917361 -0.04324508 -0.08840228 0.09084974 -0.056684636
-0.0026557306 0.2602716 0.070037216 0.11829174 -0.13495217 0.26782247 0.08590215 0.058666546
0.12659574 0.045944825 0.05100171 0.101791926 -0.101090975 -0.022604685 0.13607787 0.27309912
-0.13340966 0.10282013 0.22061244 -0.13303588 0.2839145 0.011061607 -0.088983946 -0.150974
-0.14317349 0.18516968 0.07564027 0.23319644 0.26524568 -0.2514411 0.0019325699 -0.15075552
0.0021203542 -0.211096 -0.0419977 -0.00065047893 0.012416183 -0.038854364 0.22693554 0.09118174
0.10562486 -0.17424493 0.023621162 0.16685614 0.43821675 -0.0018712571 0.34644833 0.096837506
0.053085975 -0.21295016 0.14654432 0.072590806 -0.04525772 0.3035234 0.16877596 0.11195156
-0.1806127 -0.1925189 -0.07858137 -0.011719886 0.24818571 -0.001216674 -0.2559398 -0.08233436
0.17389348 -0.080855764 -0.11662411 -0.021374134 -0.08695597 -0.1397417 -0.12737203 -0.04205774
0.02502538 0.119200766 0.07495236 -0.009490421 0.14156297 -0.13193958 -0.2996947 -0.18724795
0.16747294 -0.13777694 0.14812069 0.25881696 0.13169475 -0.07559431 0.06437341 -0.07754376
0.0006779092 -0.24107844 -0.081779316 0.1250787 0.03499367 0.12912181 0.22164975 -0.062781185
0.27881286 -0.016183408 -0.06736206 -0.4687203 0.15960805 -0.014711632 -0.17712724 -0.14561476
-0.17243698 0.12193509 -0.10161426 -0.00840632 -0.08234475 0.0668222 0.17164907 0.065360494
0.18549769 0.016743066 0.16022554 0.21116352 -0.10782905 0.17769621 -0.11883761 -0.103808604
0.11784662 0.010082806 -0.16259596 0.190724 0.0016359728 0.100819 0.22824498 -0.093062826
-0.1550237 0.26016623 -0.045832254 -0.07112709 -0.09380635 0.09881083 0.018431421 -0.05415142
-0.06698546 0.20691486 -0.14787666 0.22598144 0.10456121 0.16210838 0.16150826 0.021980716
0.06375642 0.04016985 -0.037872363 -0.102533385 0.13102949 0.27656427 -0.11613785 -0.104523756
-0.09196967 -0.062958725 0.06294895 0.1291445 0.3201674 0.17645502 -0.34851032 -0.08911144
0.07004056 -0.015312987 0.26100314 0.13873406 -0.067438856 0.055672124 0.26356417 0.05001395
-0.07313157 0.10627163 0.021979058 0.23747283 -0.023903009 0.17454727 -0.09454948 -0.010415432
-0.23761052 -0.23970129 0.01022056 0.12680681 -0.16509852 0.097287424 0.09102603 0.022239206
-0.036249656 -0.13102221 0.15635543 0.12788786 -0.058636945 0.04524052 0.16348957 0.024854178
0.13648805 -0.22083499 0.17544718 -0.019221263 -0.004802488 -0.15412007 -0.24160902 -0.016696524
-0.16032875 -0.017884998 -0.14118695 0.105280526 0.3158651 0.003540076 -0.0016267482 0.14463574
0.0049457946 0.059649717 -0.1927533 -0.24820809 -0.18012647 -0.026006281 0.31796896 -0.080532104
0.16472332 -0.29770225 0.021980619 -0.15589672 -0.05766629 -0.07725215 0.17102858 0.07748205
0.21005984 -0.019185629 0.12630107 0.03920054 -0.24019043 -0.1399392 -0.15109926 -0.09488946
00000000: 94ba 19be 474b 973d 419b ea3d a557 34be
00000010: b9bd 993a ce37 33be 11cd a1bd 456f 84bc
00000020: da51 0c3e ce42 92bd 76f4 59be 4184 4ebc
00000030: bf0f c33b d344 c43d c8ec 903d 48e7 ecbb
00000040: ee51 4c3e d4d7 1e3d 1acf 0d3d 0760 72bd
00000050: c121 31bd 410c b5bd 6e0f ba3d 262e 68bd
00000060: c40b 2ebb 5242 853e ac6f 8f3d f142 f23d
00000070: e730 0abe 0720 893e 77ed af3d 554c 703d
00000080: 50a2 013e a430 3c3d 2be7 503d 4978 d03d
00000090: c908 cfbd 762d b9bc ff57 0b3e a6d3 8b3e
000000a0: 8b9c 08be 5c93 d23d 3ae8 613e 8f3a 08be
000000b0: 3e5d 913e be3b 353c 373d b6bd ee98 1abe
000000c0: 129c 12be 1f9d 3d3e 49e9 9a3d 0ccb 6e3e
000000d0: 48ce 873e e3bc 80be 494e fd3a a85f 1abe
000000e0: a4f5 0a3b 8d29 58be c805 2cbd e784 2aba
000000f0: 3f6d 4b3c c125 1fbd ca61 683e 7ebd ba3d
00000100: d951 d83d 436d 32be 2b81 c13c 56dc 2a3e
00000110: f25d e03e f844 f5ba ad61 b13e be52 c63d
00000120: ae70 593d 9b0f 5abe b70f 163e 7daa 943d
00000130: 2960 39bd 6b67 9b3e 9bd3 2c3e dc46 e53d
00000140: 89f2 38be ad23 45be 45ef a0bd c404 40bc
00000150: 6524 7e3e ce78 9fba 8b0a 83be eb9e a8bd
00000160: 2211 323e b597 a5bd 9fd8 eebd cf18 afbc
00000170: f915 b2bd 7318 0fbe d06d 02be bd44 2cbd
00000180: 0702 cd3c 881f f43d 9f80 993d b67d 1bbc
00000190: e2f5 103e 2b1b 07be 9571 99be edbd 3fbe
000001a0: 077e 2b3e 6615 0dbe f3ac 173e a883 843e
000001b0: fdda 063e 31d1 9abd 35d6 833d 43cf 9ebd
000001c0: b7b5 313a 44dd 76be ea7b a7bd a114 003e
000001d0: 8655 0f3d 8238 043e 27f8 623e 6c93 80bd
000001e0: 8fc0 8e3e 1193 84bc 1ff5 89bd 1bfc efbe
000001f0: 4b70 233e 0f09 71bc d860 35be 091c 15be
00000200: 5293 30be 1bb9 f93d 231b d0bd a9ba 09bc
00000210: 5da4 a8bd 14da 883d c6c4 2f3e b9db 853d
00000220: 1bf3 3d3e c128 893c 2a12 243e 403b 583e
00000230: 7ad5 dcbd fff5 353e 2261 f3bd 9b99 d4bd
00000240: 9259 f13d 5b32 253c 8e7f 26be 274d 433e
00000250: 236e d63a 317a ce3d 0db9 693e b997 bebd
00000260: 88be 1ebe 8234 853e 9aba 3bbd 14ab 91bd
00000270: 8b1d c0bd 555d ca3d 7efd 963c e1cd 5dbd
00000280: ac2f 89bd 7de1 533e fb6c 17be ae67 673e
00000290: 3024 d63d bdff 253e 6c62 253e e710 b43c
000002a0: ba92 823d 2489 243d 0d20 1bbd 06fd d1bd
000002b0: 982c 063e d599 8d3e aed9 edbd 8d10 d6bd
000002c0: 985a bcbd 81f0 80bd 61eb 803d 753e 043e
000002d0: fbec a33e a0b0 343e f26f b2be 0f80 b6bd
000002e0: 6d71 8f3d 53e3 7abc 34a2 853e 4d10 0e3e
000002f0: 621d 8abd 7408 643d e2f1 863e 6ddb 4c3d
00000300: 01c6 95bd f1a4 d93d 6d0d b43c 142c 733e
00000310: 3ed0 c3bc 85bc 323e 28a3 c1bd 7da5 2abc
00000320: 2c50 73be 4174 75be 2374 273c a5d9 013e
00000330: 960f 29be a13e c73d db6b ba3d ff2e b63c
00000340: 857a 14bd b02a 06be a31b 203e 09f5 023e
00000350: 4b2d 70bd 204e 393d cf69 273e fd9a cb3c
00000360: 86c3 0b3e 9122 62be 6da8 333e e975 9dbc
00000370: 305e 9dbb a7d1 1dbe 5b68 77be 26c7 88bc
00000380: 382d 24be 8f83 92bc 5093 10be 519d d73d
00000390: 12b9 a13e 9f00 683b 9d38 d5ba 641b 143e
000003a0: 5510 a23b 4353 743d 1f61 45be 432a 7ebe
000003b0: 1373 38be 200b d5bc d4cc a23e 04ee a4bd
000003c0: 3bad 283e 6e6c 98be b310 b43c 64a3 1fbe
000003d0: 7d33 6cbd 6036 9ebd 1e22 2f3e e9ae 9e3d
000003e0: ed19 573e 2e2b 9dbc 1155 013e bf90 203d
000003f0: 7bf4 75be 394c 0fbe c4b9 1abe 6855 c2bd

linears.3.bias f4 [50]
-0.04656588 0.13759124 -0.053495258 0.1943478 0.54981196 0.1949557 0.5462626 0.3104321
0.089526415 0.68296236 -0.33331105 -0.45635784 0.51327276 -0.0054716934 0.04594074 -0.045336608
0.1337727 -0.74849725 0.547781 0.09371448 0.009735936 0.010981171 -0.6156732 -0.6074971
0.21353745 -0.37520957 -0.073695004 0.29300925 0.23266856 0.061813787 -0.29708847 0.36801386
-0.23686449 -0.1453197 0.35650483 -0.34339222 -0.21984753 -0.20862631 0.27177048 0.31136632
-0.16170211 0.22079912 -0.60774976 -0.31534046 0.16389564 -0.2651978 0.032098863 0.46313676
0.31733692 -1.0098943
00000000: ddbb 3ebd b8e4 0c3e d81d 5bbd 1c03 473e
00000010: 7ac0 0c3f 78a2 473e ded7 0b3f f5f0 9e3e
00000020: a059 b73d 9fd6 2e3f bfa7 aabe bca7 e9be
00000030: d865 033f e44b b3bb 5b2c 3c3d e1b2 39bd
00000040: b6fb 083e 849d 3fbf 603b 0c3f 61ed bf3d
00000050: 7a83 1f3c 5fea 333c c29c 1dbf ee84 1bbf
00000060: 90a9 5a3e 781b c0be 68ed 96bd 4f05 963e
00000070: ab40 6e3e 7430 7d3d fb1b 98be 506c bc3e
00000080: 9b8c 72be b0ce 14be cd87 b63e 1bd1 afbe
00000090: b61f 61be 23a2 55be 8025 8b3e 686b 9f3e
000000a0: 3d95 25be 2a19 623e 7d95 1bbf 4e74 a1be
000000b0: 42d4 273e 02c8 87be 197a 033d 4320 ed3e
000000c0: fc79 a23e 3744 81bf

linears.4.weight f4 [50, 50]
0.12932159 0.28376058 -0.06419074 0.046252318 -0.11866797 0.1278373 0.010532315 -0.08008364
0.17746957 -0.11071835 -0.08843265 0.05375272 -0.124878906 -0.08353532 0.19976205 -0.13450028
-0.102879934 0.30890688 0.04849198 0.07064576 0.020858278 -0.21938421 0.2740212 0.16924122
-0.24298327 0.33047637 0.103203185 -0.21445824 0.2864451 -0.10695001 -0.021462152 -0.26308677
-0.19160919 0.107254475 -0.02692102 0.20337865 0.22531605 -0.17050077 -0.02886539 -0.28645286
-0.05741721 -0.085299976 0.045586046 -0.38404107 0.047337577 -0.1956194 0.13616426 -0.04163227
0.33130017 0.06405539 -0.14067152 0.05333703 0.2653333 0.04032122 -0.025317272 -0.06836762
-0.14443214 -0.037359204 -0.13291334 0.16785899 -0.34738693 -0.11379632 0.23459281 -0.3769528
-0.005297372 -0.06670199 0.05307334 -0.24421826 -0.014849104 0.37054378 0.1616694 0.103264265
0.1153019 -0.031475738 -0.025254926 -0.03197094 0.22550853 0.159897 0.08169236 0.16480945
0.31650344 -0.16222323 -0.09123742 0.057704747 -0.07868216 0.116626695 -0.023008494 0.2957966
-0.07989873 0.13360332 0.16895117 0.09439994 0.04010752 -0.021874508 -0.015702732 -0.15188684
-0.09627335 -0.024424287 -0.08752457 -0.11103451 -0.10294423 -0.07094857 0.17074598 -0.02972055
-0.06967613 0.04842345 0.06431726 -0.27505133 -0.061567873 0.042806435 -0.12192559 -0.012558748
-0.270695 0.3670155 -0.0784404 0.076036744 0.1131145 -0.16735129 -0.021363191 -0.2718233
-0.06438967 -0.08773923 -0.24199767 0.086199574 -0.15900917 0.1390308 -0.0753986 -0.082562774
-0.0017574636 -0.06298762 0.087839544 0.0768008 -0.15588544 -0.15145938 0.004374979 -0.109388806
-0.045134634 -0.18074395 -0.43927497 -0.22058658 0.14165565 0.10830112 0.22352178 -0.10851739
-0.35635436 0.035263337 -0.27046826 0.10565163 -0.17609116 -0.1570844 0.14215466 0.013746647
-0.054546494 -0.35362127 -0.084183015 -0.016046181 0.21739158 0.03610507 0.020846754 0.25495225
-0.053370096 -0.06648076 0.076112255 0.24463864 0.023778532 -0.006156256 -0.39811903 -0.08356681
0.048252843 -0.0019094184 -0.06646603 0.06787301 -0.20881894 -0.10585343 -0.22798152 -0.085928515
-0.06292454 -0.0014807554 0.0171706 0.07904024 -0.059849385 0.076355316 0.13672648 0.06380337
0.07684191 -0.11027618 -0.07507129 0.09325042 0.021843739 0.06551792 -0.14266999 0.04633588
0.046123683 0.21240771 -0.095773555 -0.19917418 0.14782746 0.111755766 0.20058042 -0.24491884
0.036665864 0.11269156 0.04200597 0.16527204 -0.22586566 0.022319037 0.06312419 0.016622506
-0.12562786 0.14336488 -0.120600946 -0.045709535 -0.157179 -0.06802177 0.22063512 -0.104082465
-0.075031884 -0.094439164 0.1575971 0.048253607 -0.12151866 0.04382256 0.1728997 0.09505929
0.3016005 0.1285789 0.0084030265 0.057808973 -0.17897125 0.02401711 -0.049496215 -0.14752005
0.022003358 -0.014263153 -0.18885702 -0.0998453 0.10053746 0.25878417 0.031474307 -0.005158333
0.20860137 -0.30978274 -0.17864794 -0.11654009 0.24216203 -0.1116855 0.044886425 -0.21653779
-0.117973775 0.5961562 0.038746092 0.06957614 0.44758502 -0.09015375 -0.13950883 0.12910628
00000000: e16c 043e 1149 913e 6f76 83bd 1273 3d3d
00000010: 3108 f3bd c8e7 023e bb8f 2c3c e402 a4bd
00000020: 95ba 353e 4dc0 e2bd 2d1c b5bd d02b 5c3d
00000030: 83c0 ffbd 9114 abbd 6c8e 4c3e 71ba 09be
00000040: b7b2 d2bd 0b29 9e3e 879f 463d b9ae 903d
00000050: fbde aa3c 41a6 60be 824c 8c3e 924d 2d3e
00000060: 9bd0 78be 3334 a93e 315c d33d f19a 5bbe
00000070: efa8 923e 9b08 dbbd 65d1 afbc 4fb3 86be
00000080: 3335 44be 3ca8 db3d 7989 dcbc 7e42 503e
00000090: 40b9 663e c197 2ebe 1c77 ecbc f3a9 92be
000000a0: 4f2e 6bbd c1b1 aebd 6fb8 3a3d 08a1 c4be
000000b0: 0ce5 413d 7450 48be a56e 0b3e 9986 2abd
000000c0: 2da0 a93e 792f 833d 320c 10be ee77 5a3d
000000d0: c4d9 873e dd27 253d 2b66 cfbc 5304 8cbd
000000e0: 05e6 13be f705 19bd 6f1a 08be 3ae3 2b3e
000000f0: b3dc b1be 0c0e e9bd 1939 703e f5ff c0be
00000100: 9495 adbb 0e9b 88bd 6e63 593d 5a14 7abe
00000110: a849 73bc eab7 bd3e aa8c 253e 377c d33d
00000120: 6723 ec3d b4ec 00bd 6be3 cebc f6f3 02bd
00000130: b5eb 663e 0abc 233e 534e a73d cfc3 283e
00000140: bd0c a23e d91d 26be afda babd d05b 6c3d
00000150: 1d24 a1bd fad9 ee3d 4f7c bcbc a772 973e
00000160: f2a1 a3bd 4fcf 083e 8901 2d3e c154 c13d
00000170: c847 243d 2b32 b3bc 04a3 80bc 3988 1bbe
00000180: f62a c5bd 7115 c8bc 1540 b3bd 1066 e3bd
00000190: 6dd4 d2bd 7c4d 91bd 09d8 2e3e 8378 f3bc
000001a0: 5cb2 8ebd ab57 463d c5b8 833d 87d3 8cbe
000001b0: 982e 7cbd cd55 2f3d 20b4 f9bd 35c3 4dbc
000001c0: 8998 8abe 75e9 bb3e 5ca5 a0bd 27b9 9b3d
000001d0: 93a8 e73d 235e 2bbe dc01 afbc 6c2c 8bbe
000001e0: bbde 83bd a0b0 b3bd 3dce 77be 6789 b03d
000001f0: 4dd3 22be 175e 0e3e 956a 9abd ac16 a9bd
00000200: b15a e6ba a7ff 80bd 38e5 b33d bd49 9d3d
00000210: 6fa0 1fbe 2b18 1bbe fc5b 8f3b 3d07 e0bd
00000220: 18df 38bd f114 39be a6e8 e0be 73e1 61be
00000230: 2e0e 113e facc dd3d e5e2 643e 5e3e debd
00000240: 1474 b6be 4a70 103d d17a 8abe e25f d83d
00000250: 3e51 34be bcda 20be fe90 113e 9e39 613c
00000260: 256c 5fbd d90d b5be 2568 acbd 4873 83bc
00000270: e69b 5e3e e9e2 133d d0c6 aa3c 1a89 823e
00000280: 9a9a 5abd 1127 88bd bee0 9b3d 8d82 7a3e
00000290: 32cb c23c 6bba c9bb 42d6 cbbe 1325 abbd
000002a0: c6a4 453d 7345 faba 581f 88bd 0101 8b3d
000002b0: a2d4 55be afc9 d8bd fd73 69be 4afb afbd
000002c0: 95de 80bd e815 c2ba 5ca9 8c3c d9df a13d
000002d0: a124 75bd 2d60 9c3d 0702 0c3e 57ab 823d
000002e0: 4b5f 9d3d 7ad8 e1bd fabe 99bd 14fa be3d
000002f0: a4f1 b23c 422e 863d 1518 12be b1ca 3d3d
00000300: 30ec 3c3d 6881 593e ed24 c4bd 51f4 4bbe
00000310: 1560 173e 35e0 e43d f464 4d3e 01cc 7abe
00000320: f22e 163d d5ca e63d 740e 2c3d 133d 293e
00000330: 5449 67be 6ad6 b63c 4147 813d ec2b 883c
00000340: 97a4 00be 3ece 123e a1fd f6bd ec39 3bbd
00000350: 88f3 20be ff4e 8bbd 2cee 613e 3029 d5bd
00000360: 51aa 99bd 5269 c1bd 2261 213e 93a5 453d
00000370: c6de f8bd 497f 333d 9e0c 313e 72ae c23d
00000380: 616b 9a3e 30aa 033e d9ac 093c 1ac9 6c3d
00000390: 3d44 37be 88bf c43c 8bbc 4abd 7f0f 17be
000003a0: 6340 b43c 00b0 69bc bc63 41be b17b ccbd
000003b0: 95e6 cd3d 5c7f 843e 34eb 003d 3c07 a9bb
000003c0: 999b 553e d89b 9ebe 7cef 36be 92ac eebd
000003d0: 53f9 773e 5ebb e4bd d4da 373d 15bc 5dbe
000003e0: 3c9c f1bd b19d 183f 39b4 1e3d ef7d 8e3d
000003f0: dd29 e53e 87a2 b8bd 67db 0ebe 7034 043e

linears.4.bias f4 [50]
-0.22874908 -0.096902825 0.29484397 0.48853353 -0.5789935 -0.29567686 0.0666637 -0.62800235
-0.29727626 -0.5583274 -0.5946811 0.82272434 -0.255572 -0.1901772 -0.0017598924 0.32374662
0.16939826 0.5366133 0.4120788 -0.2264228 0.29229805 -0.19337855 -0.03503546 -0.2053479
-0.018825164 -0.3113319 -1.0182053 0.24253273 -0.26579186 -0.41785133 0.4882142 0.119810894
-0.15555744 -0.27478787 -0.3216686 -0.14231208 -0.40180567 -0.11830976 0.039512765 -0.15750127
0.29447567 -0.5013236 0.3278996 -0.64321077 -0.6350361 -0.20186113 -0.012862843 -0.38768977
0.36520678 0.82616436
00000000: 333d 6abe fd74 c6bd caf5 963e 1121 fa3e
00000010: eb38 14bf f562 97be fa86 883d c3c4 20bf
00000020: 9834 98be 8bee 0ebf 053d 18bf 109e 523f
00000030: 55da 82be d0bd 42be 31ac e6ba 1ec2 a53e
00000040: bd76 2d3e 7d5f 093f fefb d23e 61db 67be
00000050: 17a8 953e 0705 46be 5881 0fbd b846 52be
00000060: 3b37 9abc e566 9fbe 8d54 82bf 805a 783e
00000070: df15 88be 9cf0 d5be 36f7 f93e 6a5f f53d
00000080: 734a 1fbe ffb0 8cbe bfb1 a4be 42ba 11be
00000090: 79b9 cdbe 634c f2bd 23d8 213d 0348 21be
000000a0: 84c5 963e be56 00bf 75e2 a73e 76a9 24bf
000000b0: ba91 22bf afb4 4ebe adbe 52bc 467f c6be
000000c0: 62fc ba3e 827f 533f

linears.5.weight f4 [50, 50]
-0.02026294 -0.0888764 -0.1813947 -0.15455143 -0.12763287 -0.021713398 0.3728918 0.12328785
-0.22365047 -0.13339101 -0.012398379 -0.091604605 0.27793714 0.36006528 0.047757246 -0.122411706
-0.2709336 0.09526065 0.24407078 -0.044923596 -0.021063961 -0.015698625 0.14109716 0.10568768
-0.0844571 0.28072372 -0.14307418 -0.43087727 -0.020917295 -0.3587734 -0.32669672 0.019473294
0.096453615 0.46628034 -0.20074575 0.10260175 -0.0010061759 -0.0525821 -0.19946799 -0.16895747
-0.20468053 0.1299675 -0.058928356 0.05254755 -0.17821942 0.10951941 -0.18168478 0.042380486
-0.070305705 -0.21344101 0.11028816 0.024596864 0.13860656 -0.09853574 -0.055883534 -0.18992214
0.102088764 0.04824321 -0.035318967 -0.030296952 -0.20461115 0.33834854 -0.19917212 0.12214078
-0.16155028 0.08055129 0.087741226 0.034163233 0.040093224 -0.09061461 0.25932258 -0.1372241
-0.10873269 -0.088089086 -0.30947918 -0.13657176 0.0036361308 0.021124095 -0.052846614 0.21760431
0.44524792 -0.21507718 -0.21724316 0.034495294 0.17107192 -0.07676638 -0.01565602 0.25588492
0.023005141 0.16757752 0.21949401 0.14757736 0.4390641 -0.11834589 -0.014418916 -0.14269009
-0.079305194 0.049759626 0.12306341 0.16695735 -0.18285213 0.11916133 0.035985325 0.07741784
0.08212518 -0.18450986 -0.26501423 0.10060446 0.13186514 -0.20115967 -0.05922298 0.27358103
0.002301726 -0.14280806 -0.18575335 -0.1587705 -0.10117896 -0.10636268 -0.0032663506 0.24359477
-0.12280528 0.1034285 -0.03786137 -0.068675414 0.0010420649 -0.00044680314 -0.040532794 0.12772177
-0.25294092 -0.0014129097 0.23503727 0.10670834 -0.24554186 -0.38081202 0.21522509 -0.20637503
0.075184196 -0.27788338 -0.0658649 -0.08085207 -0.12506945 0.2185828 -0.079748414 0.14594606
0.075059496 0.1601367 0.09957586 -0.0038621794 -0.059165023 -0.079752006 -0.35866004 -0.08792732
-0.015300493 -0.10582611 0.10549322 -0.14032644 0.18662928 0.10495889 0.14976147 -0.25428137
-0.18237878 0.07766186 0.15044878 -0.024928903 -0.07864577 0.017658604 -0.31695637 -0.04889651
0.23854211 -0.09930056 -0.05657386 -0.11985908 -0.011181826 -0.06932736 -0.2545133 0.15824749
-0.12930556 0.15122636 -0.16643429 -0.23097318 -0.15772244 -0.23867635 -0.043585878 0.08905629
0.00521758 0.20605777 -0.035145998 -0.108223565 -0.07222375 0.16384894 0.26158428 -0.065709434
0.28815305 -0.08097442 -0.041231915 -0.15446939 -0.18274389 -0.20611241 0.021547599 0.12460099
-0.23029166 -0.11807952 0.16191985 -0.03336711 0.025871916 0.061618794 0.12664433 0.14374498
-0.27570513 0.012476285 0.045760848 0.1770119 0.036777712 -0.121203445 -0.10077046 0.14069688
-0.091405004 -0.022497505 -0.15659279 0.038585335 0.17594865 -0.21921681 0.0040734317 0.13968277
0.011940905 0.18240292 0.22561507 0.03665407 0.15148127 0.07327757 0.082700305 0.19523184
0.0028619838 -0.0127396 -0.04748548 -0.014044487 -0.20982485 -0.14671227 0.08555567 -0.16005902
0.22991006 -0.22081496 0.11138596 0.09718843 0.18280347 0.009461666 -0.12912354 -0.06499559
-0.056341488 0.03991684 -0.0994819 -0.07272812 0.18553248 -0.013191416 -0.049638312 -0.1253356
00000000: 77fe a5bc d404 b6bd 88bf 39be bb42 1ebe
00000010: 31b2 02be 4ce0 b1bc adeb be3e 577e fc3d
00000020: a104 65be a797 08be 9222 4bbc 329b bbbd
00000030: c74d 8e3e 7a5a b83e 1a9d 433d fdb2 fabd
00000040: cfb7 8abe 0418 c33d b1ed 793e ce01 38bd
00000050: 548e acbc 679a 80bc c67b 103e c872 d83d
00000060: d8f7 acbd 05bb 8f3e 0a82 12be f29b dcbe
00000070: bf5a abbc 26b1 b7be cb44 a7be 7586 9f3c
00000080: 7989 c53d 4cbc ee3e 4b90 4dbe de20 d23d
00000090: a9e1 83ba 5460 57bd 5641 4cbe 3003 2dbe
000000a0: c697 51be 3316 053e dc5e 71bd 1a3c 573d
000000b0: 277f 36be b64b e03d 930b 3abe 2997 2d3d
000000c0: 70fc 8fbd 4890 5abe c2de e13d 5d7f c93c
000000d0: e1ee 0d3e 1bcd c9bd 22e6 64bd f37a 42be
000000e0: ea13 d13d ac9a 453d 9faa 10bd 5031 f8bc
000000f0: 9685 51be 053c ad3e c7f3 4bbe f224 fa3d
00000100: 706d 25be 13f8 a43d acb1 b33d bfee 0b3d
00000110: cb38 243d 2794 b9bd eec5 843e 7984 0cbe
00000120: 3faf debd 0d68 b4bd 0e74 9ebe 78d9 0bbe
00000130: 274c 6e3b 700c ad3c b175 58bd aad3 5e3e
00000140: 89f7 e33e 313d 5cbe fe74 5ebe f04a 0d3d
00000150: 7a2d 2f3e b137 9dbd 0e41 80bc 5903 833e
00000160: 4775 bc3c 7199 2b3e 0ac3 603e 851e 173e
00000170: 02cd e03e 545f f2bd 513d 6cbc 5a1d 12be
00000180: c36a a2bd c0d0 4b3d ab08 fc3d def6 2a3e
00000190: 973d 3bbe db0a f43d 5965 133d 3f8d 9e3d
000001a0: 3f31 a83d 27f0 3cbe f2af 87be b609 ce3d
000001b0: a807 073e cdfc 4dbe cc93 72bd d012 8c3e
000001c0: 8ed8 163b 473c 12be 2036 3ebe bc94 22be
000001d0: ea36 cfbd add4 d9bd 4510 56bb e870 793e
000001e0: 5681 fbbd 52d2 d33d 8614 1bbd b2a5 8cbd
000001f0: e595 883a e740 eab9 b705 26bd 7fc9 023e
00000200: 7981 81be 6231 b9ba 9cad 703e e789 da3d
00000210: 536f 7bbe cbf9 c2be f763 5c3e fa53 53be
00000220: 2cfa 993d bb46 8ebe 2de4 86bd c595 a5bd
00000230: 3512 00be 2bd4 5f3e 2353 a3bd e272 153e
00000240: cbb8 993d e0fa 233e 6eee cb3d 9e1c 7dbb
00000250: 0657 72bd 0555 a3bd 4aa2 b7be 3d13 b4bd
00000260: ebae 7abc 5cbb d8bd d40c d83d bcb1 0fbe
00000270: bf1b 3f3e b0f4 d63d 125b 193e 2b31 82be
00000280: 81c1 3abe 2e0d 9f3d 3f0f 1a3e b337 ccbc
00000290: 0911 a1bd c7a8 903c 1b48 a2be b547 48bd
000002a0: 6244 743e 185e cbbd feb9 67bd ad78 f5bd
000002b0: fa33 37bc 81fb 8dbd 914f 82be a10b 223e
000002c0: ad68 04be 15db 1a3e c06d 2abe 3c84 6cbe
000002d0: fe81 21be 9367 74be 1b87 32bd 2563 b63d
000002e0: 3cf8 aa3b cf00 533e 40f5 0fbd 51a4 ddbd
000002f0: 0cea 93bd 04c8 273e 60ee 853e ab92 86bd
00000300: cc88 933e ebd5 a5bd cce2 28bd 392d 1ebe
00000310: 3721 3bbe 220f 53be 9784 b03c ce2e ff3d
00000320: 94d1 6bbe add3 f1bd 51ce 253e f3ab 08bd
00000330: 57f1 d33c fd63 7c3d 0daf 013e e231 133e
00000340: 3929 8dbe 5569 4c3c ba6f 3b3d 9c42 353e
00000350: 3aa4 163d 8339 f8bd be60 cebd d812 103e
00000360: 8c32 bbbd b04c b8bc dc59 20be a80b 1e3d
00000370: e22b 343e 5f7a 60be 6c7a 853b 0009 0f3e
00000380: c9a3 433c d5c7 3a3e a307 673e 9422 163d
00000390: e81d 1b3e 8d12 963d c75e a93d dbea 473e
000003a0: 1f90 3b3b c1b9 50bc 2280 42bd d91a 66bc
000003b0: 53dc 56be be3b 16be d037 af3d 83e6 23be
000003c0: 8b6d 6b3e 511d 62be 521e e43d ba0a c73d
000003d0: d530 3b3e 1b05 1b3c f638 04be 681c 85bd
000003e0: 55c6 66bd d77f 233d 2bbd cbbd 7bf2 94bd
000003f0: 3afc 3d3e cf20 58bc 8b51 4bbd fa57 00be

linears.5.bias f4 [50]
0.26084742 0.037214097 -0.0916963 0.22078669 0.45114413 0.44617224 0.6596043 -0.5037997
0.21015507 -0.20748673 0.11841366 -0.1829993 0.41789183 0.56586355 0.14089374 0.45826778
0.729386 0.34154585 0.95482606 0.2515078 -0.02803324 0.039715104 0.13256814 -0.27460486
0.0026051272 -0.35780805 0.29086167 0.0152519345 0.19052704 0.9594724 0.3986219 -0.36428165
-0.10453215 -0.05428521 0.027829254 -0.271001 0.37694898 0.20698169 0.029845059 0.2649614
-0.04343764 -0.5358363 0.45317957 0.51404756 -0.49041775 -0.9240746 -0.30093908 -0.08790352
-0.24582617 0.36856914
00000000: cb8d 853e cf6d 183d 45cb bbbd e815 623e
00000010: 5dfc e63e b070 e43e d4db 283f 04f9 00bf
00000020: e432 573e 6777 54be dc82 f23d 2b64 3bbe
00000030: ebf5 d53e 6fdc 103f 7346 103e 13a2 ea3e
00000040: 0ab9 3a3f 19df ae3e 7b6f 743f a1c5 803e
00000050: f7a5 e5bc 4eac 223d f1bf 073e 0299 8cbe
00000060: c8ba 2a3b 9e32 b7be d2eb 943e 40e3 793c
00000070: 8519 433e fc9f 753f 2b18 cc3e 2083 babe
00000080: f414 d6bd 2b5a 5ebd 2dfa e33c a5c0 8abe
00000090: 75ff c03e 02f3 533e a07d f43c 05a9 873e
000000a0: abeb 31bd 912c 09bf 2707 e83e 9f98 033f
000000b0: 0918 fbbe 2790 6cbf b014 9abe c306 b4bd
000000c0: dbb9 7bbe 18b5 bc3e
