Archived Code/Stan TPAMI/Regression/Smooth1/atanh_tune/Regr_atanh_tune18_9.pt (torch, 35588 bytes, 10 tensors)

alpha f4 [50, 4]
1.3347431 1.0025573 0.7752993 1.6343046 1.036555 0.6616 0.96239126 1.0842248
0.829292 0.8868341 1.0719895 1.6170917 1.0855012 1.1167629 1.1910706 1.0628508
0.7365575 1.3997571 1.0036359 0.8037834 0.64462703 0.75884753 0.9212934 0.95196235
1.116391 0.9786328 1.0644997 1.4414632 0.51851666 1.1049241 1.1938463 1.1812061
1.2446985 0.85830367 1.0598902 1.787977 0.9914126 0.78342694 0.74974674 2.0008779
1.2050259 0.8805989 1.1480919 1.163682 0.71920216 1.082388 0.9606405 1.4091399
1.0495969 0.8234289 1.1049087 1.2725222 1.0976584 0.9569099 1.1374671 1.0404
1.4571496 1.4739344 1.2818241 1.3896292 0.7497051 0.8783312 1.0834018 1.091161
1.3145326 1.1546481 0.90100133 1.1074578 0.44537494 1.1349871 1.0461097 1.0436206
1.2340744 0.9241716 0.9559199 1.5736814 0.5405293 1.0261366 0.6913694 1.5141908
0.485414 1.0571592 0.8641115 1.1714681 0.8630127 0.9667196 1.117615 1.0226699
0.75536597 0.9085672 0.7937952 1.0022963 0.9926954 1.066811 0.9585139 0.90938234
0.95754814 1.2339251 0.75416774 0.8776017 0.5215139 1.2138001 0.78349495 1.3783545
1.2403942 0.9455517 0.99053925 1.4170352 0.4469926 1.0888952 1.0086595 1.0626255
1.1802572 0.99748874 1.249845 1.7815071 0.9940637 0.77411497 1.1771216 1.1081125
0.79646033 1.0321454 0.9571156 1.2976111 0.84813845 1.2852359 1.1230973 1.1842254
0.92554337 1.0707089 0.65569 1.3601745 1.003337 1.0357 1.2984058 1.6782212
0.87948614 1.5324985 1.0792595 0.9780696 1.0293789 1.0442312 1.0359762 1.0596199
1.0510148 1.1468126 1.052466 1.1600184 0.75389653 1.0374858 0.8861909 1.0363389
0.31716296 1.0883076 0.86564773 1.3173428 1.4144098 0.9734766 0.6105363 1.1315218
1.0742302 1.1120573 1.130442 1.5481856 1.0261402 0.80695856 1.1721032 0.9395969
0.7059186 1.4653947 1.0289581 1.1585786 0.7259351 0.94816107 1.065075 1.1791816
0.61568403 0.69321597 1.0039308 1.6843591 1.0725526 1.1166525 1.0247465 1.0393896
0.7939203 0.9172048 1.0067178 1.0651798 0.5994684 1.0916452 0.88913894 1.0287619
1.0933203 1.2565808 0.77388173 1.0370198 0.7140051 0.82908094 1.07029 1.082943
00000000: ddd8 aa3f cc53 803f 047a 463f e530 d13f
00000010: d6ad 843f 9e5e 293f 465f 763f e1c7 8a3f
00000020: 7b4c 543f 8f07 633f f436 893f dcfc ce3f
00000030: b4f1 8a3f 16f2 8e3f 0075 983f 7f0b 883f
00000040: 088f 3c3f 3e2b b33f 2477 803f c0c4 4d3f
00000050: 4706 253f d543 423f e2d9 6b3f ceb3 733f
00000060: e6e5 8e3f ae87 7a3f 8741 883f de81 b83f
00000070: 82bd 043f 276e 8d3f f5cf 983f c331 973f
00000080: 4852 9f3f cab9 5b3f 7baa 873f 6edc e43f
00000090: 37cd 7d3f ab8e 483f 67ef 3f3f 620e 0040
000000a0: 4a3e 9a3f ee6e 613f adf4 923f 88f3 943f
000000b0: a21d 383f b18b 8a3f 89ec 753f b25e b43f
000000c0: 3159 863f 3dcc 523f a66d 8d3f 02e2 a23f
000000d0: 1280 8c3f 0cf8 743f 8698 913f d42b 853f
000000e0: e183 ba3f e2a9 bc3f d012 a43f 5fdf b13f
000000f0: acec 3f3f 50da 603f e9ac 8a3f 2aab 8b3f
00000100: 9b42 a83f 82cb 933f 06a8 663f 2dc1 8d3f
00000110: 2f08 e43e 4247 913f ece6 853f 5c95 853f
00000120: 26f6 9d3f 8396 6c3f 2bb7 743f 646e c93f
00000130: 2160 0a3f 7258 833f 96fd 303f 01d1 c13f
00000140: 2f88 f83e fe50 873f 6936 5d3f abf2 953f
00000150: 66ee 5c3f f07a 773f 020e 8f3f d9e6 823f
00000160: aa5f 413f dc97 683f 2a36 4b3f 3f4b 803f
00000170: 4921 7e3f 438d 883f 2b61 753f 48cd 683f
00000180: e021 753f 42f1 9d3f 2311 413f 81aa 603f
00000190: ef81 053f cd5d 9b3f 2093 483f ec6d b03f
000001a0: 3dc5 9e3f ad0f 723f fb93 7d3f 6961 b53f
000001b0: 37dc e43e eb60 8b3f c11b 813f 1d04 883f
000001c0: ab12 973f 6c5b 7f3f ecfa 9f3f 6d08 e43f
000001d0: f57a 7e3f 662c 463f ecab 963f a1d6 8d3f
000001e0: d3e4 4b3f 571d 843f 8705 753f 1f18 a63f
000001f0: 9a1f 593f 9c82 a43f a7c1 8f3f b394 973f
00000200: 69f0 6c3f fd0c 893f 4ddb 273f 331a ae3f
00000210: 596d 803f d191 843f 2932 a63f f4cf d63f
00000220: 0126 613f e928 c43f 2d25 8a3f c562 7a3f
00000230: b0c2 833f 5ea9 853f de9a 843f a0a1 873f
00000240: a787 863f c1ca 923f 35b7 863f 7c7b 943f
00000250: 5dff 403f 56cc 843f 68dd 623f c1a6 843f
00000260: 2f63 a23e aa4d 8b3f 179b 5d3f b09e a83f
00000270: 610b b53f c335 793f 1b4c 1c3f b5d5 903f
00000280: 6080 893f e557 8e3f 53b2 903f f22a c63f
00000290: 9058 833f d694 4e3f 7a07 963f 6c89 703f
000002a0: 15b7 343f 0e92 bb3f e6b4 833f 4e4c 943f
000002b0: e2d6 393f afba 723f 6154 883f 6cef 963f
000002c0: 789d 1d3f 9a76 313f ce80 803f 1499 d73f
000002d0: 6749 893f 78ee 8e3f e52a 833f b80a 853f
000002e0: 5c3e 4b3f efcd 6a3f 21dc 803f d057 883f
000002f0: c376 193f 08bb 8b3f 9c9e 633f 78ae 833f
00000300: ebf1 8b3f a4d7 a03f 1d1d 463f 11bd 843f
00000310: 0ac9 363f a63e 543f 43ff 883f e09d 8a3f

linears.0.weight f4 [50, 1]
-0.41138592 -0.15923774 0.022098104 -0.49470526 0.09433174 -0.15132129 0.36883676 0.0342183
0.36862868 0.24320276 -0.6639739 -0.24248165 0.48279914 -0.5351558 0.84734464 0.30074582
0.89384544 0.027638406 0.7650846 -0.22382864 0.018417314 -0.3017932 0.14365523 0.45494795
-0.55779904 0.006795399 0.5566731 0.050602783 -0.41780743 -0.3897236 0.15762919 0.38921362
-0.20617417 0.55706906 0.029813284 -0.48157525 -0.6780517 0.30028096 0.125943 -0.4844381
0.39313245 -0.031064734 0.048999425 0.008044315 -0.31034818 0.39623722 -0.13716567 0.01865939
0.42701852 -0.31823784
00000000: 2da1 d2be 380f 23be 1507 b53c 024a fdbe
00000010: 0031 c13d f8f3 1abe 2cd8 bc3e 7d28 0c3d
00000020: e6bc bc3e 250a 793e 32fa 29bf 1c4d 78be
00000030: 7331 f73e f8ff 08bf 94eb 583f 5bfb 993e
00000040: 0ed3 643f f069 e23c 96dc 433f 5633 65be
00000050: e8df 963c a384 9abe 5b1a 133e f0ee e83e
00000060: ebcb 0ebf f0ab de3b 2182 0e3f dd44 4f3d
00000070: dbea d5be da89 c7be 8c69 213e 0247 c73e
00000080: 521f 53be 149c 0e3f fd3a f43c 0891 f6be
00000090: cc94 2dbf 6dbe 993e 34f7 003e 4508 f8be
000000a0: a848 c93e 787b febc 9fb3 483d 4dcc 033c
000000b0: f5e5 9ebe 9bdf ca3e 2875 0cbe 94db 983c
000000c0: 2ca2 da3e 12f0 a2be

linears.0.bias f4 [50]
0.10369739 -0.13343075 -0.024587482 -0.086462215 0.021022784 -0.009077315 -0.016399905 -0.057181504
-0.091584586 -0.060881887 0.024941389 0.0030300918 0.050642576 -0.03437681 -0.04184097 -0.07464371
-0.05817858 -0.08717936 0.037175898 0.07451715 0.0045778244 -0.04657635 -0.056751315 -0.023796845
0.0001829364 -0.025475753 -0.040267132 -0.05695651 0.037834574 -0.073052585 -0.021376206 0.011031693
0.19156727 -0.009893233 0.080311514 0.06460783 0.041175686 0.0633115 0.021667818 0.060981467
-0.018485237 0.18178688 -0.043097917 0.028457299 -0.01840006 -0.03469744 0.026699184 -0.0013358875
0.099286094 0.019640382
00000000: 4c5f d43d 12a2 08be b06b c9bc 1a13 b1bd
00000010: f937 ac3c 05b9 14bc 1859 86bc 2737 6abd
00000020: b390 bbbd 495f 79bd e251 cc3c 8194 463b
00000030: 976e 4f3d b3ce 0cbd 7061 2bbd cdde 98bd
00000040: aa4c 6ebd 188b b2bd c145 183d 739c 983d
00000050: 9301 963b d8c6 3ebd 1174 68bd 9af1 c2bc
00000060: 9ed2 3f39 87b2 d0bc 26ef 24bd 3b4b 69bd
00000070: 6df8 1a3d 989c 95bd 271d afbc 46be 343c
00000080: 362a 443e 3a17 22bc 5d7a a43d 1c51 843d
00000090: d6a7 283d 76a9 813d b580 b13c b4c7 793d
000000a0: 5a6e 97bc 5726 3a3e 7187 30bd 481f e93c
000000b0: b9bb 96bc e71e 0ebd 3fb8 da3c f218 afba
000000c0: 8256 cb3d dee4 a03c

linears.1.weight f4 [50, 50]
0.014026277 -0.026480915 0.012969913 -0.29474932 0.011069728 0.037109222 -0.008288056 0.1079952
-0.28627962 0.02879144 -0.038916674 0.27865857 -0.006758634 -0.09824716 0.020096987 0.094934456
0.010209383 0.040649366 0.3331093 0.044392437 0.07281691 -0.24191533 -0.2689966 -0.2501177
-0.1758326 -0.025982177 0.068299085 0.046395466 -0.037207007 -0.03789345 -0.034105275 0.03544154
0.122671895 0.20804082 0.019315053 -0.025615301 -0.07234241 0.12627037 -0.15393826 -0.07603701
-0.121484995 -0.137815 0.21193917 0.10425809 -0.3187362 0.006230126 0.10692635 -0.23902658
-0.068261854 0.0042096255 0.22596166 0.028792743 -0.21018374 0.2056318 -0.19857398 -0.20286192
-0.2386374 0.20745698 0.18609408 0.05051594 0.23086 0.16724217 -0.20879842 0.24450274
-0.3580649 0.17315651 -0.34763545 -0.046784215 0.028555883 0.08045036 -0.25433108 0.0031051114
0.04142665 -0.12614305 0.20373002 -0.061231606 -0.22121167 0.058851797 0.17962433 0.6768882
0.2908139 -0.1352352 -0.004078695 0.089788094 0.21450502 0.26665455 -0.042690363 -0.35289213
-0.11487013 0.036516502 -0.2798539 0.2107417 0.24275647 -0.11622814 -0.036091775 -0.3659347
0.3335392 -0.19911386 -0.11297556 -0.19917396 0.12968108 -0.3059098 -0.20975043 -0.22418071
-0.14876458 0.08948303 0.0076427185 0.25782946 -0.050256323 -0.12206561 -0.052198548 0.0029080096
0.21349087 -0.017532974 0.13445225 -0.015102603 -0.013516355 0.0067244032 0.2744819 0.19596258
0.120321944 0.079506494 -0.18740782 -0.034519292 -0.101027474 0.105518475 0.025115743 0.14304097
-0.050604526 -0.016148364 0.13308772 0.20143992 0.07708639 0.18471453 -0.03740781 0.19510353
-0.17404519 0.16862765 0.24616788 0.3349741 -0.12985119 0.07592055 0.08169976 -0.17579189
0.0194872 -0.081066854 0.024988884 -0.29369083 0.036386155 0.15370075 -0.05974769 0.39907393
0.19048117 0.17256625 0.20560871 -0.20881818 0.10433623 -0.3509226 0.017375633 -0.16173792
0.008371314 0.0997254 -0.2610182 0.20196398 -0.11479953 0.0668638 0.011675977 0.018569
-0.079136945 -0.034807097 0.08953661 0.462786 0.23992367 0.13575152 0.10769382 0.25633308
0.13578898 -0.14360343 -0.014819353 0.23842159 -0.030236276 -0.20968173 -0.21158667 -0.30429688
-0.2113274 0.04831526 0.0081530195 0.031048987 -0.08764978 -0.35643235 0.098077334 -0.24797133
0.045566462 0.043790735 0.25116163 0.12234833 0.00366865 0.08799088 -0.36543748 0.060584765
0.19945052 -0.21064483 -0.10370923 -0.39761153 -0.035399172 -0.011946204 0.005847617 0.07376411
-0.20745008 -0.28218013 -0.19537124 -0.19693437 0.30967936 -0.35712382 0.32221842 0.060330432
0.2920808 -0.2219945 0.565459 0.06501974 -0.13596764 -0.2753835 -0.1078506 0.049806334
-0.2835826 -0.14202294 0.1159331 -0.02385146 -0.1195005 -0.34451923 0.06719636 0.17482467
0.4254281 0.31995097 0.20782575 0.10049842 -0.1040803 0.20173438 -0.049828187 0.024303397
0.14237364 0.34165117 -0.17977273 0.15671666 -0.20916735 0.14473589 -0.0931271 -0.053921744
0.2989445 -0.09523532 -0.0049192207 -0.14318517 -0.027591217 0.021897897 -0.2000387 0.11338102
00000000: 78ce 653c 81ee d8bc c27f 543c 62e9 96be
00000010: ce5d 353c d7ff 173d a0ca 07bc 962c dd3d
00000020: 3e93 92be 07dc eb3c 1767 1fbd 56ac 8e3e
00000030: 8877 ddbb cf35 c9bd 70a2 a43c ff6c c23d
00000040: 4245 273c f37f 263d 4d8d aa3e d8d4 353d
00000050: 0821 953d a7b8 77be ecb9 89be 6d0f 80be
00000060: 760d 34be 93d8 d4bc 64e0 8b3d 2c09 3e3d
00000070: 6066 18bd 2a36 1bbd f9b1 0bbd 262b 113d
00000080: 673b fb3d a708 553e 9a3a 9e3c 2ed7 d1bc
00000090: 4228 94bd 054d 013e fea1 1dbe 4bb9 9bbd
000000a0: 20cd f8bd 601f 0dbe 9506 593e 4485 d53d
000000b0: 6431 a3be 1626 cc3b 34fc da3d 62c3 74be
000000c0: dfcc 8bbd e6f0 893b 7e62 673e c2de eb3c
000000d0: 683a 57be 2591 523e fa56 4bbe 09bb 4fbe
000000e0: 5d5d 74be 9a6f 543e 728f 3e3e cde9 4e3d
000000f0: 9066 6c3e 8841 2b3e 41cf 55be ed5e 7a3e
00000100: 4854 b7be f14f 313e 46fd b1be cea0 3fbd
00000110: 07ee e93c 29c3 a43d af37 82be 207f 4b3b
00000120: feae 293d a52b 01be 9a9e 503e fecd 7abd
00000130: 5085 62be 950e 713d 71ef 373e 8c48 2d3f
00000140: 8fe5 943e 197b 0abe 93a6 85bb d2e2 b73d
00000150: 34a7 5b3e f286 883e 17dc 2ebd 47ae b4be
00000160: 0841 ebbd 5492 153d 0349 8fbe accc 573e
00000170: 2795 783e 0509 eebd f8d4 13bd cb5b bbbe
00000180: a6c5 aa3e 81e4 4bbe bb5f e7bd 42f4 4bbe
00000190: 1ecb 043e 36a0 9cbe d1c8 56be a18f 65be
000001a0: be55 18be e142 b73d c56f fa3b 3902 843e
000001b0: 93d9 4dbd 89fd f9bd 25ce 55bd 4e94 3e3b
000001c0: 5a9d 5a3e 50a1 8fbc daad 093e e870 77bc
000001d0: b473 5dbc 6258 dc3b e488 8c3e 6aaa 483e
000001e0: 5a6b f63d 4dd4 a23d d6e7 3fbe 1a64 0dbd
000001f0: 7ee7 cebd 121a d83d 88bf cd3c 5579 123e
00000200: b146 4fbd 9349 84bc 2648 083e 4446 4e3e
00000210: 78df 9d3d ce25 3d3e ef38 19bd 38c9 473e
00000220: e738 32be baac 2c3e 6f13 7c3e ba81 ab3e
00000230: b6f7 04be 3c7c 9b3d 3452 a73d ca02 34be
00000240: 9fa3 9f3c 6106 a6bd 7db5 cc3c a55e 96be
00000250: a609 153d bb63 1d3e feb9 74bd 6b53 cc3e
00000260: 7f0d 433e 35b5 303e 178b 523e 6fd4 55be
00000270: 3cae d53d 21ac b3be 5857 8e3c a09e 25be
00000280: d627 093c d53c cc3d 2da4 85be a5cf 4e3e
00000290: 041c ebbd e3ef 883d 994c 3f3c 041e 983c
000002a0: 8d12 a2bd e391 0ebd f85e b73d 49f2 ec3e
000002b0: 8dae 753e 7202 0b3e 948e dc3d 173e 833e
000002c0: 440c 0b3e c70c 13be dfcc 72bc ca24 743e
000002d0: 11b2 f7bc cfb6 56be 2daa 58be cdcc 9bbe
000002e0: 3666 58be 39e6 453d 3e94 053c 725a fe3c
000002f0: ba81 b3bd 4d7e b6be c5dc c83d 32ec 7dbe
00000300: e6a3 3a3d ea5d 333d 4298 803e c391 fa3d
00000310: bc6d 703b 9034 b43d 9f1a bbbe bb27 783d
00000320: c23c 4c3e 47b3 57be 8165 d4bd bd93 cbbe
00000330: b9fe 10bd 03ba 43bc 5e9d bf3b a311 973d
00000340: cb6d 54be ea79 90be 660f 48be 2aa9 49be
00000350: 4b8e 9e3e efd8 b6be d0f9 a43e 0b1d 773d
00000360: 9d8b 953e 8752 63be ecc1 103f 1229 853d
00000370: 1a3b 0bbe 11ff 8cbe c6e0 dcbd ba01 4c3d
00000380: bd31 91be 766e 11be 556e ed3d 2364 c3bc
00000390: aebc f4bd d364 b0be 3f9e 893d 3d05 333e
000003a0: b6d1 d93e 9dd0 a33e 46d0 543e 1ed2 cd3d
000003b0: 0d28 d5bd 7593 4e3e a418 4cbd eb17 c73c
000003c0: 65ca 113e e7ec ae3e 5816 38be 557a 203e
000003d0: f72f 56be a535 143e 6cb9 bebd 0cdd 5cbd
000003e0: 410f 993e bc0a c3bd 6a31 a1bb 229f 12be
000003f0: fa06 e2bc 3863 b33c f2d6 4cbe 4f34 e83d

linears.1.bias f4 [50]
0.045003396 -0.00291837 0.08241968 -0.07774698 0.1471019 0.049856283 -0.047787562 0.06294017
0.10008522 0.13533199 0.00038377498 -0.12811781 0.18079071 0.103639044 -0.112701304 -0.066414595
0.10631304 0.10271407 0.14986946 0.06790438 0.06406039 -0.07831362 -0.011291951 0.06568485
0.06763136 -0.0061426978 -0.075921275 -0.05419631 -0.061230037 0.06044069 -0.050829843 0.057583857
0.057702124 0.09366852 -0.090555854 -0.05339289 -0.119473435 -0.08932295 -0.14689068 -0.063316315
0.030282393 0.009616428 0.07511454 -0.15361845 0.10393597 -0.17748487 0.17137411 -0.00010580416
0.068876676 0.10593904
00000000: 7b55 383d 2042 3fbb a6cb a83d cf39 9fbd
00000010: e1a1 163e 1a36 4c3d e4bc 43bd c7e6 803d
00000020: 7bf9 cc3d 7894 0a3e 6835 c939 5131 03be
00000030: 3321 393e b540 d43d f1cf e6bd 6004 88bd
00000040: a7ba d93d c15b d23d 6177 193e 7411 8b3d
00000050: 1832 833d e462 a0bd e001 39bc c785 863d
00000060: 4f82 8a3d af48 c9bb 9d7c 9bbd f3fc 5dbd
00000070: 59cc 7abd a890 773d f432 50bd 0ddd 6b3d
00000080: 1059 6c3d 48d5 bf3d 5975 b9bd 81b2 5abd
00000090: 7dae f4bd f3ee b6bd 836a 16be fcab 81bd
000000a0: c812 f83c 398e 1d3c a7d5 993d 284e 1dbe
000000b0: 62dc d43d 98be 35be b27c 2f3e 2de3 ddb8
000000c0: 370f 8d3d 91f6 d83d

linears.2.weight f4 [50, 50]
-0.10376632 -0.15024577 0.015260348 -0.17681295 0.36304003 0.13822208 -0.073499486 0.32188022
0.14969106 0.09768466 0.24840507 -0.081023425 0.46594983 0.070406 -0.15621322 0.1057322
-0.084887594 0.43707532 0.15238836 0.04716988 -0.01191035 -0.014153602 0.47489327 0.14455117
-0.15885353 0.13208693 0.25881058 0.031057348 -0.007125977 -0.04461539 -0.07443336 -0.17023861
0.09020378 0.015650693 0.06400332 -0.21100822 0.048360836 0.06807903 -0.27350107 -0.2498627
0.051559143 0.15054448 -0.17086874 0.12591644 0.018325131 -0.1529276 0.36177823 0.16088168
-0.19221343 0.0709469 -0.038519647 0.09784526 -0.051202934 0.14376988 0.05398781 -0.15381697
-0.14408278 -0.014685605 -0.20082785 -0.21398783 -0.06889521 0.025990363 -0.092073604 -0.19220975
0.0665223 0.03812414 0.0029834718 -0.10051874 -0.35825947 0.03364365 -0.08854743 0.14150044
0.17241517 0.014790219 -0.04267372 -0.19511262 0.031614587 0.28945777 -0.26859236 0.09207536
-0.2023772 -0.116763264 0.022382291 -0.29001656 -0.1580601 0.22126788 0.048672482 -0.07831979
0.24043648 -0.0033411477 0.08648185 -0.09268166 -0.0037904116 -0.02529906 -0.049763374 -0.015108565
-0.24082166 -0.15543643 -0.15997145 -0.097281136 -0.010769969 0.034671947 -0.12594667 0.028923085
-0.87216616 -0.0048424555 0.12305886 -0.18718265 -0.3483767 0.107083306 -0.12956068 0.17694287
0.08662166 0.10549682 0.061495047 -0.18468475 0.0147221275 0.24427734 0.26387966 -0.04089611
-0.08698828 -0.043210194 -0.058505524 -0.36407152 -0.3013065 0.11908413 -0.20381628 -0.16824555
0.13401635 -0.016786309 0.3517757 0.15121119 -0.016492566 -0.18229108 -0.045572862 0.064484246
0.08980118 0.015045886 0.16603984 0.27234808 0.03842462 0.010612995 -0.4928774 0.17292787
-0.15206298 0.04201784 0.082639426 0.008463015 0.38453898 0.042623907 -0.3504518 0.21278146
0.18214448 0.26406345 -0.31746858 -0.09197447 0.20809203 -0.2529284 0.015334986 -0.40341026
-0.0002637806 0.1159688 -0.017976716 -0.21477473 0.09416044 -0.15841174 -0.23299588 0.0029148916
-0.65044266 -0.11653737 -0.17862181 -0.10177081 -0.13718441 -0.13180134 -0.13538502 0.10249687
-0.43690985 -0.0064452053 0.09871104 0.069752775 0.19301198 -0.0016640902 -0.2747039 -0.21447714
0.5149131 0.112067506 0.1976305 0.021066995 0.0899762 -0.34155083 0.17653172 -0.22450294
0.22250423 -0.05402307 -0.20110112 0.047217805 -0.14533667 -0.10826285 -0.02113661 -0.28157067
0.05457782 -0.009752301 -0.110398315 0.007937928 0.068908945 0.084105894 0.06573543 0.031299125
0.07963768 0.10855695 0.08610951 0.06800021 -0.11005427 0.14132187 0.16026132 -0.14065231
-0.61666554 0.039848108 0.020512564 -0.124623396 -0.12818739 -0.002249599 0.14889659 -0.07670779
0.029215273 0.24095155 0.14455727 0.42422992 0.20768549 -0.10735624 -0.10147848 -0.032946635
-0.11293117 0.08028367 0.24388668 0.014789033 -0.018873993 0.3246857 -0.0235135 -0.28658906
-0.44539118 -0.09602216 -0.24076618 0.03099874 0.0361775 0.07324235 -0.11332591 -0.036815356
-0.08767361 -0.16085392 0.20210335 -0.0023079177 0.09200921 -0.2421838 0.055072844 0.116528355
00000000: 7083 d4bd 07da 19be 8a06 7a3c 740e 35be
00000010: 62e0 b93e 178a 0d3e e686 96bd 7ccd a43e
00000020: 9d48 193e e50e c83d e65d 7e3e 9cef a5bd
00000030: fa90 ee3e 0531 903d 5cf6 1fbe 208a d83d
00000040: 8cd9 adbd 56c8 df3e b20b 1c3e 3435 413d
00000050: a123 43bc 82e4 67bc 3625 f33e 3905 143e
00000060: 80aa 22be cc41 073e d282 843e fb6b fe3c
00000070: 0781 e9bb a1be 36bd 8470 98bd 0853 2ebe
00000080: c2bc b83d e235 803c 2c14 833d 8a12 58be
00000090: 0316 463d 056d 8b3d 5508 8cbe 02dc 7fbe
000000a0: ae2f 533d 5528 1a3e 37f8 2ebe 3df0 003e
000000b0: 961e 963c 0e99 1cbe ff3a b93e 2bbe 243e
000000c0: 99d3 44be 9c4c 913d c7c6 1dbd 1863 c83d
000000d0: 2bba 51bd 6938 133e 5222 5d3d 3282 1dbe
000000e0: 708a 13be e49b 70bc d1a5 4dbe a01f 5bbe
000000f0: ef18 8dbd bee9 d43c 1691 bcbd a2d2 44be
00000100: d83c 883d 0f28 1c3d 5a86 433b c5dc cdbd
00000110: c96d b7be edcd 093d 5b58 b5bd 7ee5 103e
00000120: 9a8d 303e ad52 723c a3ca 2ebd 9acb 47be
00000130: 4c7e 013d cf33 943e f084 89be 0292 bc3d
00000140: f83b 4fbe 9421 efbd 115b b73c 0d7d 94be
00000150: 82da 21be 0c94 623e cc5c 473d 2066 a0bd
00000160: fb34 763e 28f7 5abb 651d b13d e2cf bdbd
00000170: 8e68 78bb f93f cfbc aed4 4bbd ea89 77bc
00000180: f499 76be ba2a 1fbe 8ecf 23be 553b c7bd
00000190: 8674 30bc 2c04 0e3d 2af8 00be 1bf0 ec3c
000001a0: 4846 5fbf 76ad 9ebb 4906 fc3d cfac 3fbe
000001b0: 6e5e b2be 7e4e db3d 8eab 04be 8330 353e
000001c0: b266 b13d b70e d83d 3be2 7b3d 001e 3dbe
000001d0: 1435 713c d723 7a3e 3c1b 873e ae82 27bd
000001e0: e926 b2bd 2cfd 30bd 7da3 6fbd 9567 babe
000001f0: d844 9abe 61e2 f33d 37b5 50be 9048 2cbe
00000200: 953b 093e 7183 89bc f21b b43e 1bd7 1a3e
00000210: 6b1b 87bc 83aa 3abe 9caa 3abd 5110 843d
00000220: aee9 b73d 0583 763c 5906 2a3e 3571 8b3e
00000230: 2263 1d3d 21e2 2d3c 6d5a fcbe 0114 313e
00000240: 66b6 1bbe e61a 2c3d dc3e a93d 75a8 0a3c
00000250: 4be2 c43e 6896 2e3d 6b6e b3be 62e3 593e
00000260: 1584 3a3e 5333 873e 3e8b a2be 1c5d bcbd
00000270: 1416 553e d57f 81be 983f 7b3c ca8b cebe
00000280: 084c 8ab9 0d81 ed3d e843 93bc e8ed 5bbe
00000290: 30d7 c03d b036 22be 7996 6ebe c407 3f3b
000002a0: 6983 26bf 25ab eebd a3e8 36be 376d d0bd
000002b0: 127a 0cbe eef6 06be 5fa2 0abe e1e9 d13d
000002c0: a6b2 dfbe 4d32 d3bb 0429 ca3d 8bda 8e3d
000002d0: efa4 453e 9a1d daba fda5 8cbe e59f 5bbe
000002e0: 58d1 033f a683 e53d a65f 4a3e b194 ac3c
000002f0: 7145 b83d c0df aebe bbc4 343e 19e4 65be
00000300: 26d8 633e 4b47 5dbd 74ed 4dbe 7567 413d
00000310: 23d3 14be eab8 ddbd af26 adbc 082a 90be
00000320: fe8c 5f3d 1dc8 1fbc 8318 e2bd 150e 023c
00000330: 2220 8d3d b63f ac3d 4ca0 863d 8333 003d
00000340: 1419 a33d 1b53 de3d 2f5a b03d b243 8b3d
00000350: 2264 e1bd aeb6 103e 8b1b 243e 2907 10be
00000360: cbdd 1dbf c537 233d f709 a83c 8d3a ffbd
00000370: 8e43 03be 026e 13bb 5978 183e f918 9dbd
00000380: de54 ef3c 01bc 763e d206 143e aa34 d93e
00000390: 81ab 543e 97dd dbbd f3d3 cfbd 0df3 06bd
000003a0: 7548 e7bd c46b a43d 6ebd 793e b34d 723c
000003b0: a29d 9abc 343d a63e 629f c0bc cdbb 92be
000003c0: 500a e4be 44a7 c4bd 698b 76be 12f1 fd3c
000003d0: dc2e 143d 1600 963d 6a17 e8bd b3cb 16bd
000003e0: 398e b3bd e4b6 24be 2ef4 4e3e 6f40 17bb
000003f0: 536f bc3d 08ff 77be 1094 613d 6ba6 ee3d

linears.2.bias f4 [50]
0.02415961 0.016559998 -0.04415403 -0.064128496 -0.016538838 0.110996895 0.032719165 0.025950372
-0.052736595 0.052499637 0.1070222 -0.07474577 -0.09437197 -0.074997626 -0.054371145 -0.078401215
0.020366648 -0.0731006 0.047269087 0.010073895 0.024879426 0.0058596805 0.00032481793 0.078544915
-0.030022416 -0.14760505 -0.045952614 -0.0021474166 -0.1656924 0.084189944 -0.07467488 -0.08586731
-0.07305624 -0.12408363 0.052968405 0.062900186 -0.17521363 0.08742714 0.14715 0.031106072
-0.08011397 0.17236117 0.030407587 -0.16710491 -0.13137344 0.048907712 -0.08290605 0.11564777
0.060294185 0.05152248
00000000: 60ea c53c d5a8 873c dbda 34bd cd55 83bd
00000010: 757c 87bc 5752 e33d 8804 063d e095 d43c
00000020: 5402 58bd dc09 573d 752e db3d 4f14 99bd
00000030: 1746 c1bd 5b98 99bd 47b4 5ebd d190 a0bd
00000040: f5d7 a63c c4b5 95bd 3b9d 413d fa0c 253c
00000050: f0cf cb3c 9002 c03b 534c aa39 28dc a03d
00000060: 92f1 f5bc c725 17be cf38 3cbd acbb 0cbb
00000070: 45ab 29be c76b ac3d 25ef 98bd 33db afbd
00000080: 839e 95bd 8f1f febd 66f5 583d d0d1 803d
00000090: 346b 33be 000d b33d 7dae 163e 29d2 fe3c
000000a0: cb12 a4bd 727f 303e 5519 f93c 8d1d 2bbe
000000b0: c286 06be 7453 483d a6ca a9bd bdd8 ec3d
000000c0: 09f7 763d 3c09 533d

linears.3.weight f4 [50, 50]
0.056929007 -0.1529216 -0.6238222 0.08995932 0.023305789 -0.027042529 0.07234258 0.009094943
-0.05200728 -0.40664664 -0.08684806 0.015714843 0.020897914 -0.030278385 -0.5721835 -0.10647536
0.38304076 0.19565645 -0.042281907 0.22040808 -0.053537287 -0.15541029 0.013644584 -0.11924859
0.1583562 -0.5766229 0.08156471 -0.17153849 -0.11333972 -0.1459835 0.025813082 0.11484796
0.20242094 -0.33537415 0.121051066 0.38323507 0.12845546 0.090023376 0.12097872 0.15531799
0.23338653 -0.1308567 0.06500101 0.027046643 0.33828384 0.12984058 -0.06787559 0.14496048
-0.07757653 -0.2042028 -0.082919784 -0.017518772 -0.012872403 -0.19473664 -0.13978171 0.034038443
0.088248245 -0.16846412 0.049319226 -0.10718662 0.11180521 -0.16693598 0.10707291 0.24429554
0.09882726 0.0618761 0.24421623 -0.32259193 0.061361525 -0.12371812 0.1916768 0.07263682
0.08531313 0.19483428 0.01705087 -0.018802887 0.09950773 -0.070852675 -0.04566583 0.019460246
-0.05074386 0.14582293 0.017358523 -0.026900146 -0.059169948 0.052841444 -0.13523678 0.15572219
-0.2460011 0.02164492 0.15494426 0.1423231 -0.042574868 -0.09226988 -0.19835311 -0.12757248
-0.14004762 0.27685776 -0.08893545 0.018507147 -0.19080313 0.26314536 0.44273797 -0.41605663
0.32040763 0.07199563 0.109867364 -0.0984984 0.071163565 0.3383706 -0.013533326 -0.13026458
-0.11079917 -0.22627363 0.3784306 -0.1399898 -0.23816119 -0.101508275 0.176806 0.077227905
-0.115138836 0.048389792 -0.26654613 -0.115355305 -0.08047739 0.1914853 -0.28291607 0.062518045
0.07637184 0.18731536 -0.061899163 0.007968615 0.103550404 0.17483415 -0.2296364 0.1286137
-0.031761944 -0.13948976 -0.0055258675 -0.17064919 0.43614674 -0.19556421 -0.01626287 -0.10832226
0.05438111 -0.18701953 0.0921818 -0.09533755 -0.08084992 0.19886006 0.29493937 -0.06527305
0.1423718 -0.14596263 -0.04024564 0.038730793 -0.29670593 -0.13065858 -0.30959713 0.23301029
0.119921476 -0.04430214 -0.24509579 0.05005707 -0.109182306 0.018027829 -0.025769869 0.04973636
-0.04025504 -0.0332501 -0.035847593 -0.14642255 -0.15552828 -0.2022685 -0.21612906 -0.31019306
0.31340545 0.012910581 -0.1299494 -0.06101917 0.021572173 -0.12862916 -0.072635874 0.28089288
0.4059671 0.05981179 -0.35826582 0.31127605 -0.034750395 -0.15335912 0.0015924232 -0.08474087
-0.20438151 -0.089478225 -0.2897028 0.13073038 -0.066843875 0.07714303 0.1218338 0.29268157
-0.15651384 0.10780681 0.0654021 0.014187102 0.3361541 -0.008583819 -0.1198352 0.3558759
0.05793339 -0.15195273 -0.13113363 0.1961788 0.0159894 0.03779881 -0.007035141 -0.0005419697
0.17759413 0.17609026 -0.14477852 0.12372706 -0.058198895 0.13003376 0.027002763 -0.35067737
0.092483364 -0.08479661 -0.16782853 0.35939714 0.1251891 -0.0023151613 0.13108057 0.05471038
0.052331343 -0.23312202 -0.23304862 -0.22365442 0.10353656 -0.08540771 -0.091078095 0.09736294
0.28025833 -0.17430195 -0.19139513 0.019025132 0.3314092 0.3295848 0.35086945 0.010061745
0.051466413 -0.22344035 -0.019906865 0.102584615 0.01179238 0.14671242 -0.20442246 0.31615868
00000000: 642e 693d 7b97 1cbe d0b2 1fbf 983c b83d
00000010: c8eb be3c 4b88 ddbc 5928 943d f502 153c
00000020: 9605 55bd fd33 d0be 65dd b1bd 6abc 803c
00000030: 1a32 ab3c 600a f8bc 9e7a 12bf c10f dabd
00000040: eb1d c43e 2a5a 483e cb2f 2dbd a8b2 613e
00000050: ea49 5bbd e023 1fbe 898d 5f3c 9b38 f4bd
00000060: 2128 223e 8f9d 13bf 660b a73d c9a7 2fbe
00000070: a81e e8bd b37c 15be f575 d33c 6835 eb3d
00000080: 6f47 4f3e 29b6 abbe 9fe9 f73d 6337 c43e
00000090: d489 033e 2d5e b83d b1c3 f73d ae0b 1f3e
000000a0: e1fc 6e3e 4cff 05be 401f 853d ec90 dd3c
000000b0: 8a33 ad3e eef4 043e 5b02 8bbd 8570 143e
000000c0: 72e0 9ebd 8a1a 51be d9d1 a9bd 8783 8fbc
000000d0: c5e6 52bc 0b69 47be f022 0fbe e56b 0b3d
000000e0: 7fbb b43d dc81 2cbe f502 4a3d a984 dbbd
000000f0: 21fa e43d 44f1 2abe 0b49 db3d 9c28 7a3e
00000100: f265 ca3d cb71 7d3d d213 7a3e c52a a5be
00000110: 3956 7b3d ed5f fdbd ec46 443e 9dc2 943d
00000120: a6b8 ae3d a382 473e 44ae 8b3c 8308 9abc
00000130: b5ca cb3d 351b 91bd 180c 3bbd 186b 9f3c
00000140: cbd8 4fbd 9b52 153e 7633 8e3c b25d dcbc
00000150: 305c 72bd 4570 583d 837b 0abe a375 1f3e
00000160: b6e7 7bbe b050 b13c b5a9 1e3e 26bd 113e
00000170: fc62 2ebd fef7 bcbd 141d 4bbe 5ca2 02be
00000180: a568 0fbe 4dc0 8d3e ca23 b6bd 4d9c 973c
00000190: e561 43be fdba 863e 8dae e23e 6005 d5be
000001a0: 780c a43e 7272 933d 2402 e13d 87b9 c9bd
000001b0: 34be 913d e93e ad3e e2ba 5dbc 1464 05be
000001c0: adea e2bd 46b4 67be a8c1 c13e 7c59 0fbe
000001d0: 87e0 73be 92e3 cfbd a20c 353e aa29 9e3d
000001e0: e9cd ebbd 6034 463d bc78 88be 673f ecbd
000001f0: 54d1 a4bd b914 443e 60da 90be 7609 803d
00000200: d768 9c3d 99cf 3f3e fa89 7dbd cb8e 023c
00000210: 3c12 d43d b907 333e ce25 6bbe 4fb3 033e
00000220: d018 02bd 67d6 0ebe 5612 b5bb a9be 2ebe
00000230: a04e df3e fc41 48be b639 85bc 10d8 ddbd
00000240: babe 5e3d 0c82 3fbe d0c9 bc3d 5540 c3bd
00000250: a594 a5bd f9a1 4b3e 4b02 973e e0ad 85bd
00000260: eac9 113e 3a77 15be 9dd8 24bd 2ea4 1e3d
00000270: d7e9 97be 5dcb 05be 8483 9ebe 409a 6e3e
00000280: 6499 f53d 2976 35bd 64fa 7abe a408 4d3d
00000290: f99a dfbd 19af 933c 551b d3bc 5ab8 4b3d
000002a0: 78e2 24bd 4231 08bd edd4 12bd cbef 15be
000002b0: ce42 1fbe 791f 4fbe f050 5dbe a0d1 9ebe
000002c0: ae76 a03e e786 533c 7511 05be 3def 79bd
000002d0: 20b8 b03c 5db7 03be 1ec2 94bd 31d1 8f3e
000002e0: ebda cf3e 35fd 743d 9e6e b7be 935f 9f3e
000002f0: 6e56 0ebd 2c0a 1dbe dbb8 d03a 9f8c adbd
00000300: 6349 51be 5c40 b7bd ed53 94be 2fde 053e
00000310: 71e5 88bd 2afd 9d3d 0084 f93d 5cda 953e
00000320: 2a45 20be d1c9 dc3d 89f1 853d 0571 683c
00000330: 641c ac3e 25a3 0cbc 286c f5bd 5e35 b63e
00000340: 904b 6d3d 7f99 1bbe e547 06be 18e3 483e
00000350: 34fc 823c edd2 1a3d 0a87 e6bb f912 0eba
00000360: 3cdb 353e 0151 343e d240 14be 9d64 fd3d
00000370: f761 6ebd 9227 053e e634 dd3c fc8b b3be
00000380: eb67 bd3d d8a9 adbd 3edb 2bbe e702 b83e
00000390: 9231 003e f6b9 17bb fc39 063e fe17 603d
000003a0: 6459 563d 8ab7 6ebe 4ca4 6ebe aa05 65be
000003b0: fa0a d43d 3dea aebd 2787 babd 3966 c73d
000003c0: 057e 8f3e 367c 32be 16fd 43be 98da 9b3c
000003d0: 77ae a93e 57bf a83e 29a5 b33e 04da 243c
000003e0: 72ce 523d 8ccd 64be b913 a3bc e217 d23d
000003f0: d434 413c c83b 163e 1f54 51be 8ddf a13e

linears.3.bias f4 [50]
-0.017152179 0.06723612 -0.053019013 0.060358092 -0.16730009 0.048044715 0.027631015 0.15456885
0.058545988 0.1095045 -0.08095549 0.041070886 -0.049246144 0.06167295 0.1215705 -0.02364587
0.017734148 -0.114891276 -0.04117217 0.12547208 -0.037007418 0.08229488 -0.20220749 -0.078216314
-0.03304123 -0.06799389 0.009810517 -0.03671942 0.010241125 0.07123918 0.04551775 -0.061173033
0.13668056 -0.013511791 -0.059090547 -0.032780405 0.062142856 0.036304485 -0.02270738 -0.067001216
0.053207625 -0.034406256 -0.06517536 -0.11167614 0.060130894 -0.07301735 0.057812426 -0.00527828
-0.08337402 -0.06360057
00000000: ba82 8cbc 17b3 893d 772a 59bd 0c3a 773d
00000010: b750 2bbe 89ca 443d 705a e23c 4c47 1e3e
00000020: ebcd 6f3d e543 e03d fecb a5bd f239 283d
00000030: 53b6 49bd c69c 7c3d f4f9 f83d fcb4 c1bc
00000040: 3447 913c 1e4c ebbd 26a4 28bd c17b 003e
00000050: 1795 17bd 388a a83d 7b0f 4fbe e02f a0bd
00000060: 3e56 07bd 6140 8bbd 4abc 203c 1a67 16bd
00000070: 64ca 273c d9e5 913d d270 3a3d 9390 7abd
00000080: fdf5 0b3e 8f60 5dbc ee08 72bd bf44 06bd
00000090: 8289 7e3d 03b4 143d d404 babc ef37 89bd
000000a0: 3df0 593d 93ed 0cbd a97a 85bd 76b6 e4bd
000000b0: d04b 763d 1f8a 95bd b9cc 6c3d 6cf5 acbb
000000c0: 00c0 aabd 0441 82bd

linears.4.weight f4 [1, 50]
-3.2950377 1.6411384 2.9153202 1.6128808 -1.557251 1.7550241 -3.3071744 1.7095804
2.9806325 -2.4651198 -1.6746655 1.5061233 -1.7244526 1.7507108 3.5572267 -1.8971359
1.3301806 -1.6045408 -3.3699017 -3.3212593 -3.6990395 1.5931376 2.5838706 1.5063783
-3.3775516 -3.7527204 -3.1860042 -1.2906551 3.0558555 1.8179038 3.343179 -1.6189466
1.7261708 -1.351554 -1.6495229 -1.1823626 2.608376 1.0508333 1.1614224 -1.5572892
3.0353513 -1.7040592 -1.8532141 2.7319832 3.4630733 -1.6246929 1.703821 3.300126
-1.7462423 -1.6332443
00000000: e6e1 52c0 d310 d23f 9b94 3a40 e172 ce3f
00000010: 0054 c7bf a1a4 e03f bfa8 53c0 88d3 da3f
00000020: afc2 3e40 86c4 1dc0 705b d6bf a6c8 c03f
00000030: ddba dcbf 4b17 e03f 9aa9 6340 59d5 f2bf
00000040: 5c43 aa3f 9861 cdbf 78ac 57c0 838f 54c0
00000050: 10bd 6cc0 efeb cb3f 235e 2540 01d1 c03f
00000060: ce29 58c0 922c 70c0 7ee7 4bc0 3034 a5bf
00000070: 2393 4340 12b1 e83f a5f6 5540 a439 cfbf
00000080: 2af3 dc3f b9ff acbf 9123 d3bf a857 97bf
00000090: a2ef 2640 b581 863f 7da9 943f 4155 c7bf
000000a0: 3243 4240 9d1e dabf 1f36 edbf d0d8 2e40
000000b0: fea2 5d40 f0f5 cfbf ce16 da3f 4435 5340
000000c0: de84 dfbf 260e d1bf
