Archived Code/Stan TPAMI/Regression/Smooth1/atanh_tune/Regr_atanh_tune3_0.pt (torch, 35588 bytes, 10 tensors)

alpha f4 [50, 4]
00000000: 3480 7f3f 3148 803f 50a9 7f3f b7aa 803f
00000010: 180f 803f 1253 7f3f ed0b 803f 1753 803f
00000020: b07e 7f3f 910f 803f c8a4 7f3f 0b46 803f
00000030: 6f44 803f bb6e 7f3f 9e5d 803f ac87 7f3f
00000040: 8e97 7f3f fae7 7f3f 5102 803f b14e 803f
00000050: 6b3c 803f 5ead 7f3f 35fc 7f3f 8889 7f3f
00000060: 4450 803f 0b35 803f 7151 803f f390 7f3f
00000070: 210b 803f f621 803f 63f4 7f3f c63c 803f
00000080: 661f 803f 7d10 803f a15b 7f3f 0668 803f
00000090: 1f50 803f ff00 803f d43d 803f 9879 803f
000000a0: 0610 803f 150c 803f cc4b 803f 9b74 803f
000000b0: 88d6 7f3f d1ee 7f3f 56ac 7f3f ac89 803f
000000c0: 1724 803f 570c 803f 2476 7f3f 46da 803f
000000d0: 0d2a 803f 32c2 7f3f 06a3 7f3f 989a 7f3f
000000e0: 3867 803f da22 803f 3458 803f 0c7f 803f
000000f0: 781f 803f 59d3 7f3f 558a 7f3f 7d4e 803f
00000100: ff30 803f e628 803f ca31 803f e975 803f
00000110: 2d50 803f f339 803f 3903 803f 6730 803f
00000120: 150e 803f 5e12 803f 7d7e 7f3f f716 803f
00000130: 4877 7f3f f64d 803f f14d 7f3f 967b 803f
00000140: c002 803f e931 803f 398e 7f3f d432 803f
00000150: b28a 7f3f 5fb1 7f3f 5b40 803f 30e2 7f3f
00000160: 5062 7f3f c138 803f 49a5 7f3f 3928 803f
00000170: 11c7 7f3f 80ec 7f3f fd4e 803f 37d8 803f
00000180: eaf1 7f3f 1623 803f 2462 803f 156a 803f
00000190: 6b02 803f e335 7f3f 65e4 7f3f 0d19 803f
000001a0: fca7 7f3f 1f60 803f 2e14 803f 9606 803f
000001b0: 494a 803f eee7 7f3f c3fb 7f3f eb1f 803f
000001c0: b83b 803f 0f31 7f3f d242 803f 8154 803f
000001d0: b901 803f 2d03 803f 7b28 7f3f 0f6f 803f
000001e0: cd13 803f 284b 803f cbba 7f3f 6f47 803f
000001f0: 6a83 7f3f a3fd 7f3f 8718 803f c571 803f
00000200: e223 803f e52e 803f 57fe 7e3f 5a99 803f
00000210: 7b08 803f a754 803f b65b 7f3f 6636 803f
00000220: adf1 7f3f ff5f 7f3f c118 803f 5862 803f
00000230: ffb4 7f3f 9481 7f3f 1b01 803f ea8b 803f
00000240: edf0 7f3f 9613 803f ff3a 803f c9ba 7f3f
00000250: abd0 7f3f a269 7f3f e8c7 7f3f 6f29 803f
00000260: 03f0 7f3f 26f3 7f3f 1545 803f fae4 7f3f
00000270: 2032 803f c450 803f f6e1 7f3f e920 803f
00000280: 8f16 803f 4880 7f3f 6d4f 803f 1200 803f
00000290: 8e55 803f 577c 803f 836f 7f3f 4833 803f
000002a0: d1b9 7f3f 201c 803f 5e47 7f3f cd8f 803f
000002b0: f4cf 7f3f 5f14 803f 7a4c 803f b1b9 7e3f
000002c0: c22f 803f 8c55 803f cd2e 803f 0227 803f
000002d0: dbee 7f3f bcaa 7f3f f65d 803f 6e82 803f
000002e0: ae3c 803f e04a 803f c6d5 7f3f bf24 803f
000002f0: cb61 803f dadf 7f3f cf1f 7f3f c2e6 7f3f
00000300: f5af 7f3f 36df 7f3f 52e9 7f3f 5e68 803f
00000310: deaa 7f3f cd16 803f f34f 803f 5e59 803f
0.99805 1.0022031 0.99867725 1.0052098 1.0004606 0.9973613 1.000364 1.0025357
0.99802685 1.000475 0.9986081 1.0021375 1.0020884 0.99778336 1.002857 0.99816394
0.9984063 0.99963343 1.0000707 1.0024015 1.0018438 0.9987391 0.9999421 0.9981923
1.0024495 1.0016187 1.0024854 0.9983055 1.0003396 1.0010364 0.9998228 1.0018547
1.0009582 1.0005032 0.9974919 1.0031745 1.0024451 1.0000304 1.0018868 1.0037107
1.000489 1.0003687 1.0023131 1.0035585 0.99936724 0.9997378 0.9987234 1.0042014
1.0011014 1.0003766 0.99789643 1.0066612 1.0012833 0.99905694 0.9985813 0.99845266
1.00315 1.0010636 1.0026917 1.0038772 1.0009604 0.99931866 0.9982045 1.0023953
1.0014952 1.0012481 1.0015194 1.0035983 1.0024468 1.0017685 1.0000983 1.0014771
1.0004297 1.0005605 0.9980238 1.0007008 0.99791384 1.0023792 0.99728304 1.0037715
1.0000839 1.0015231 0.9982639 1.0015512 0.9982101 0.9988002 1.001964 0.9995451
0.9975939 1.001732 0.9986158 1.0012275 0.99913126 0.99970245 1.0024105 1.0065984
0.99978507 1.0010707 1.002995 1.0032374 1.0000738 0.996916 0.9995788 1.0007645
0.998657 1.0029334 1.0006158 1.000201 1.002267 0.9996327 0.9999353 1.000974
1.0018225 0.9968423 1.0020392 1.0025789 1.0000526 1.0000969 0.99671143 1.0033892
1.0006043 1.0022936 0.998944 1.00218 0.99809897 0.99996394 1.0007485 1.003472
1.001095 1.0014311 0.9960684 1.0046799 1.0002588 1.0025834 0.99749315 1.0016601
0.9997814 0.99755853 1.0007554 1.0030012 0.99885553 0.99807096 1.0000337 1.0042698
0.99977 1.0005977 1.0018004 0.99894387 0.9992778 0.9977056 0.9991441 1.0012645
0.99975604 0.9998039 1.0021082 0.99958766 1.0015297 1.0024648 0.99954164 1.0010043
1.0006884 0.99805117 1.0024239 1.0000021 1.0026109 1.0037946 0.9977953 1.001565
0.9989291 1.0008583 0.9971827 1.0043885 0.99926686 1.0006217 1.0023339 0.9950209
1.0014575 1.0026107 1.0014282 1.0011904 0.9997384 0.99869895 1.0028675 1.0039804
1.0018518 1.002285 0.9993557 1.0011214 1.0029844 0.99950945 0.9965791 0.99961483
0.99877864 0.9994997 0.99965394 1.003185 0.998701 1.0006958 1.0024399 1.0027273

linears.0.weight f4 [50, 1]
00000000: 342b 5f3e f2a3 14be 22e8 533e 5428 733b
00000010: 41fe c43e dc8e d7ba de2a 57be e452 ee3c
00000020: d9bf 19bf b446 03bc 91ce 073f ab65 b1bd
00000030: 899f 11be 9515 a0be 99f9 ccbd 470f f6bd
00000040: f9b6 233d b245 c63e a90e 963d b121 49be
00000050: 4be0 54bd d92a 6c3e 6970 b63e bb57 903d
00000060: 34ec 943d 6708 fabd 444f 053e 56c4 c9be
00000070: 6882 5c3e 384e 00be 27af c5bd 652f b93e
00000080: 3d5f 10bc 8c7b 9cbe 8f7d 3ebe 1486 03bc
00000090: 0d25 99be e7ab 5abe 005d 093e ed47 203e
000000a0: a166 f3bc c9ce 87be 5b53 763e a5c0 f3bd
000000b0: a287 bdbd 529d ecbc 4150 bd3d ba28 1a3d
000000c0: 659c 37be 7ff9 c9bc
0.21793824 -0.14515665 0.2069402 0.0037102895 0.3847523 -0.0016445774 -0.21012446 0.02909226
-0.6005836 -0.008012462 0.5304957 -0.0866197 -0.14221014 -0.31266466 -0.100085445 -0.12014633
0.03996942 0.38725048 0.07327015 -0.19641759 -0.051971715 0.2306322 0.35632637 0.07047983
0.07271615 -0.12208634 0.13018519 -0.39407605 0.21534121 -0.12529838 -0.09652548 0.36168972
-0.008811769 -0.3056301 -0.18602584 -0.008027572 -0.2991108 -0.21354638 0.13414383 0.15652438
-0.029712023 -0.26524952 0.24055235 -0.119019784 -0.092543855 -0.02888361 0.09243823 0.037636496
-0.17930754 -0.024655102

linears.0.bias f4 [50]
00000000: 45b6 e6ba c910 8db9 34ef a3ba 76aa bbba
00000010: 8e47 e739 d9cc e73a 7801 fd3a 41ed 953a
00000020: d728 0aba 0941 a8ba bee7 8f3a dab3 f4b9
00000030: 76eb 28bb 5016 d43a 0acb 9bba 276d a3ba
00000040: 25ac 25bb 3d95 0f3b 2173 0b3a 2ad8 b83a
00000050: 14ad b7ba cdaa d63a 0d61 8c3a e0df c93a
00000060: fd06 ebba 7ab3 85ba bb95 c9b8 af5a 80ba
00000070: a8dc b63a 7090 063a ddda 0e3b a125 40bb
00000080: b3a4 55ba 3487 eb39 dcf7 f5b9 8764 cbb9
00000090: f713 ee3a 9af4 0c3b b63a e8ba dc5a 8a38
000000a0: f477 a7ba b9f6 bfba ac55 f0ba 0668 8bb9
000000b0: d05b 0bba 1132 0d3b 2448 e5ba 0bac daba
000000c0: e9aa 7c3a 73bc aeba
-0.0017601928 -0.00026906122 -0.0012507201 -0.0014317769 0.00044113066 0.0017684951 0.0019302806 0.0011438505
-0.0005270368 -0.0012836765 0.0010979099 -0.00046673306 -0.0025775111 0.0016180966 -0.0011886072 -0.0012468443
-0.0025279608 0.0021909021 0.0005319585 0.0014102508 -0.0014013373 0.0016377807 0.0010710076 0.0015401803
-0.001793116 -0.0010200583 -9.612316e-05 -0.0009792651 0.0013951259 0.0005133217 0.0021797933 -0.0029319304
-0.0008149847 0.00044923427 -0.0004691471 -0.00038794076 0.0018163909 0.0021508099 -0.0017717693 6.597277e-05
-0.0012776838 -0.0014645673 -0.0018336079 -0.0002658965 -0.00053161103 0.0021544734 -0.0017492813 -0.0016683353
0.00096385047 -0.0013331309

linears.1.weight f4 [50, 50]
00000000: 0903 e43d 28cb 503b 2a50 2a3c de1c d3bd
00000010: 8856 9e3c 2b70 c8bc 62cd 003d 243f 753e
00000020: 389b 95bd 79e4 e0bd a3e5 63bd 738e 153d
00000030: ef74 d8bc 216f 833d c723 513e b026 41bc
00000040: 0058 e73d 3f12 17be 1488 07bd 92b9 6b3e
00000050: 6b01 223e 3ed1 e23c 5699 1bbe a229 583e
00000060: f9d6 71bc 6de3 93bd ea01 b63d 543c 88bd
00000070: 76c0 133e f7a6 a9be 9951 6cbe 429c c3bd
00000080: 8d49 2e3e fdeb 95bd 492b 44be 699a f5bc
00000090: 673e a2bc fab4 74bd b53b 9a3c bc78 053e
000000a0: 9a76 e93d c46d 5fbe 2a96 7c3e 792d 093e
000000b0: 491d a7bd 34d3 60be 1fb0 0b3d 133d 803d
000000c0: ad54 16bb 54e2 203e deed 68be 7ac2 e93c
000000d0: 3a66 8a3d 5f80 e63d 4e0d f13b f5e7 503d
000000e0: e88d aa3e 249f f1bd b43d 7e3e 620d 273e
000000f0: bc30 b23d a54f 5c3d f182 80bc ddec 463e
00000100: ead4 0abe 5f11 1e3d 1e4b 21be f715 743e
00000110: a596 853e 3884 ee3c eb59 83be cde2 fdbd
00000120: e94d 2dbe c988 12be c189 a8be 0e9f 423e
00000130: 4d8b 2e3d 1186 943d f551 84bd ad98 0f3e
00000140: 9c27 5c3d f3c0 debd a288 083e 98e9 0c3e
00000150: 4382 923c 3dd8 03be 335b bf3c b915 823d
00000160: 6c45 33be 417a 3b3e 6fcf a23d 3a8a d53d
00000170: 993b 4d3e 9254 2b3e 286a 5cbe e437 533d
00000180: 124a 9cbe 15d1 253d 81fa 4a3d 1ad0 3e3c
00000190: 9d6d e43c b1b6 3bbd ef8f 1d3d ff7a 213d
000001a0: 0d73 3fbe 7463 3fbe 5794 f23d 3a1c 483e
000001b0: f48a 8d3b d484 e5bb 013a a43d 20c0 273e
000001c0: 05db 95bd 459a 45bc a6e9 343e cef0 e83d
000001d0: a87d 0e3e 7545 123e ff98 c7bc 78ad 4a3e
000001e0: e5b2 23be 5cb0 083e f66b 2a3e 53f2 1cbe
000001f0: b628 353d 7454 023d ab77 96be 901a afbe
00000200: aa71 eebd 59ae f83d 5159 d23a 7c6d e5bd
00000210: c380 c8bc 5ee0 4b3b 0a37 f7bd d676 0d3e
00000220: 6401 693e b2b0 dfbd 649b 0d3e 566f 7ebe
00000230: dc43 7bbc e2db c6bd 80cf 62bd 7f70 563e
00000240: 4e69 a33d 9907 39be 499b a4bd e980 a3bd
00000250: c81d 043e dd5a 2cbe 63ab 063e d5be 09bb
00000260: 9474 0b3d b1be 41be 4fa2 623e 5f17 043e
00000270: e316 f13d c6b0 13be bb3b 4fbd 1070 37be
00000280: 670a 393d b1eb 8c3d c6f1 1abc 308d f03d
00000290: 773c 6abb dd11 203e bf49 133a 59f5 e43d
000002a0: 5d70 5dbd 9ae7 b7bc 4b44 5b3c ee02 9a3d
000002b0: cbbb c7bc e546 77be 8011 723d 9211 da3c
000002c0: 0b50 03bd f181 103e bbb7 5abe 4c30 a1be
000002d0: af30 79bd 24a4 353e b5c5 053e 1ccc aabc
000002e0: 17ed 4dbd 7ade cebb 1ed4 033e 8b9b 3dbe
000002f0: b9ad b3b8 a420 823e ef70 f0bd e505 2d3e
00000300: cdeb d0bc 9464 e13d 463e 073d ec6b 1e3e
00000310: ea3c 013d ff4f 2c3e 9842 583e d500 113e
00000320: f6e5 e73d 2f9e 0e3e 5c4e 22be faa5 553d
00000330: 7c2a 723e 7cab 9abc b12e 84bd 25ef 2d3d
00000340: 1c1d a73d f2cb 06bd 2824 ff3c 74b1 25bd
00000350: 1ec0 1a3e d8be 843c 3d63 dc3d 57aa d93d
00000360: cbf1 b73d 2590 133e cd89 973d 26d8 013e
00000370: 06cd 2d3e b397 5cbe f6d1 6bbe d354 ae3e
00000380: 5235 8a3d 739e f5bd ed40 093e df48 5c3c
00000390: e2ff 423d 722a 133d ca64 77be cf03 b0bd
000003a0: 4b6e 953e c3f2 ee3d 518b 923d c430 a4be
000003b0: 1f21 c4bc 38e2 80bd 3719 d73d 12c1 37bc
000003c0: 0019 943d 18c6 f5bd b818 7c3d 2f51 8dbd
000003d0: 55c7 0ebe a536 423d 03ae 7c3d 7b5e 77bc
000003e0: 0645 24bd 082c d9bc a48f 603e f92e 27be
000003f0: e409 e9bd 4e00 d6bd cb34 8abd 0fdc 473e
0.111333914 0.0031859372 0.010395089 -0.1030824 0.01932837 -0.024467548 0.03144587 0.23949867
-0.07304996 -0.10981078 -0.05563892 0.036512803 -0.026422946 0.064176805 0.20423804 -0.011789009
0.112960815 -0.14753054 -0.03308876 0.23020008 0.15820853 0.027687665 -0.15195212 0.21109632
-0.014760726 -0.072211124 0.08887084 -0.06652132 0.14428887 -0.33135197 -0.23078002 -0.09551288
0.17020245 -0.07320402 -0.19157137 -0.029980855 -0.019805146 -0.059742905 0.018827299 0.13034338
0.113995746 -0.21819216 0.24666658 0.13396253 -0.081598826 -0.21955568 0.03410351 0.06261649
-0.0022938654 0.15711337 -0.22746989 0.028535116 0.067577794 0.112549536 0.0073563224 0.05100246
0.3331139 -0.11797932 0.24828225 0.16313699 0.087007016 0.053786892 -0.015687438 0.19426294
-0.13557783 0.038590785 -0.15751311 0.23836504 0.26091495 0.029115781 -0.2565454 -0.123967744
-0.16924252 -0.14309992 -0.32917598 0.19005987 0.042613316 0.07252134 -0.064609446 0.14023085
0.053748712 -0.10876646 0.13333371 0.13760984 0.01788438 -0.12875457 0.023358917 0.063517995
-0.17506951 0.18308355 0.07949721 0.10426755 0.20042266 0.1673148 -0.2152487 0.051566973
-0.3052526 0.0404826 0.049555305 0.011646295 0.027884299 -0.045828525 0.038467344 0.03942394
-0.18696232 -0.18690282 0.118447 0.19542018 0.004319543 -0.0070043597 0.08018876 0.16381884
-0.07317165 -0.0120607065 0.17667255 0.11374055 0.13915122 0.14284308 -0.024364946 0.19792736
-0.15986212 0.13348526 0.16642746 -0.15326814 0.044228278 0.031818822 -0.29388174 -0.34199953
-0.116427734 0.12142629 0.0016048347 -0.11202523 -0.02447546 0.0031109075 -0.12071045 0.13814864
0.22754437 -0.10922374 0.13828808 -0.24847159 -0.015336003 -0.09709908 -0.05537367 0.20941351
0.0797907 -0.18069305 -0.08037431 -0.07983572 0.12901986 -0.16831537 0.13151316 -0.0021018286
0.034046724 -0.18920399 0.22132228 0.1289954 0.117719434 -0.14422902 -0.050594073 -0.17913842
0.045175936 0.06880892 -0.009457057 0.117456794 -0.0035741606 0.15631814 0.0005618594 0.11179609
-0.054062236 -0.022449303 0.0133829815 0.0752009 -0.024381539 -0.24148138 0.05909872 0.026619706
-0.032058757 0.14112069 -0.2135915 -0.3148216 -0.060837444 0.17738396 0.130637 -0.02084928
-0.050274935 -0.0063131424 0.12873885 -0.18516366 -8.5677435e-05 0.25415528 -0.117402904 0.1689678
-0.025503064 0.11005512 0.033018373 0.15470856 0.031552233 0.16827391 0.21119153 0.14160474
0.113231584 0.1392753 -0.15850204 0.05216024 0.23649019 -0.018880598 -0.06454218 0.042464394
0.08159849 -0.03290934 0.03114517 -0.040452436 0.1511235 0.016204283 0.10761116 0.10628193
0.08981665 0.14410456 0.0739933 0.1268011 0.16972741 -0.21542244 -0.23029312 0.3404909
0.06748451 -0.119931124 0.13403673 0.013445108 0.04760731 0.03592915 -0.24159542 -0.085944764
0.2918571 0.11667397 0.07155479 -0.32068455 -0.023941575 -0.06293148 0.10502856 -0.011215465
0.07231331 -0.12000674 0.06154701 -0.0690025 -0.13943227 0.047415394 0.061689388 -0.0150982095
-0.04010489 -0.026510254 0.21929795 -0.16326512 -0.113788396 -0.10449277 -0.06748351 0.1951754

linears.1.bias f4 [50]
00000000: fc5b d9ba ef25 4c3b fd1c 163b 3a49 c3ba
00000010: e983 0d36 9565 ebba 77a3 c6ba 056f 07bb
00000020: ec76 ce3a b4af b93a 72d4 343b d56a 23ba
00000030: 2e23 c0ba 5c9e 2a3a d4e4 cd3a 95bd 5e39
00000040: 3b7f a23a 358b dd3a 2785 88ba 0058 e2ba
00000050: 7566 f13a 5734 2739 e448 373b 3c9e 5c3a
00000060: 1df2 5a3a 84bd 9f3a f103 3e3a a543 e33a
00000070: ad3e 353b b41a 753a a916 3cbb 93b1 573a
00000080: 2dfe 17bb dccd 0b3b 5583 243b fd80 6339
00000090: 71da 6c3a ca2b 17bb 7709 06bb a004 023b
000000a0: b007 ecba a623 cb3a a586 37ba 6e3a 9eb9
000000b0: b4e1 e93a e712 8338 b83a e7ba 8166 70ba
000000c0: 2b09 97ba b430 c4ba
-0.00165832 0.003115054 0.0022905462 -0.0014899143 2.108742e-06 -0.0017959351 -0.0015154917 -0.0020665538
0.0015751994 0.0014166743 0.0027592448 -0.0006233876 -0.0014658922 0.0006508583 0.0015708455 0.00021242195
0.0012397537 0.0016902449 -0.0010415659 -0.0017268658 0.0018417375 0.00015945859 0.002796703 0.0008415913
0.0008352118 0.0012187217 0.0007248512 0.0017338885 0.0027655766 0.00093499874 -0.002870003 0.000822806
-0.0023192272 0.0021332419 0.0025102694 0.00021696459 0.0009035236 -0.0023066872 -0.0020452419 0.0019839182
-0.0018007662 0.0015498295 -0.00070009596 -0.00030179642 0.0017843754 6.2500876e-05 -0.0017641401 -0.0009170548
-0.0011523118 -0.0014968128

linears.2.weight f4 [50, 50]
00000000: 22bd cbbd 8927 2ebe 6b3a e13d 5923 62bd
00000010: ffe9 9b3d 331e 6f3e a339 01be 78eb b83c
00000020: 22b2 17be 8888 2c3e 7a94 bebd 2d20 333e
00000030: 6827 9d3d 1743 d9bc ea42 7fbe a88e a73d
00000040: 66b8 23be b74b 3c3e 9dfc 1ebd 6282 a5bd
00000050: 61b8 353e eb79 4e3e bd4f 673e bf01 693d
00000060: 99c2 363d 0558 573d 820b b5bc 6518 083d
00000070: dc38 29be 11de 9dbd d33d 423c 03c0 42be
00000080: b73c 33be 10b3 383e 98ff 213e 5f36 893e
00000090: 002e 753e f781 883d 0445 dfba c0e4 c8bd
000000a0: 23a2 683d 36b3 553d 5a11 8fbd 4450 e8bc
000000b0: 45a8 adbd af87 9b3e 3c2c e9bd 9569 063d
000000c0: 5791 193e 9ef9 523d ee4c 4d3d 7226 72bc
000000d0: 9444 cebc 0d99 b9bd 5c2f 8f3d 64d0 843c
000000e0: 1cd0 8abe ed89 86bd 6f50 6c3e 1961 b23d
000000f0: 65c5 473e 9f95 473d 8eee 2a3e 75fb d4bc
00000100: f47e da3e b732 2e3e 1233 f5bd 8eb0 25be
00000110: 1ab7 05bb 6a9b 883d 4c12 c33c a8d5 34be
00000120: 9eb6 1cbd 2f13 2ebc 137b 8d3e 7877 2bbe
00000130: 6a47 5b3d dcea a63e e928 a83d b7ba 45bd
00000140: b538 31bc 7c3c 523e de0f 813e d665 bdbd
00000150: bbc4 d8ba 1706 fdbd f8b9 8ebe b7af 8dbb
00000160: f4c2 003d 6ea6 943c b2e1 b13d 0bd0 2a3e
00000170: 0c93 40be 0d68 94bd fad1 e2bd d10d 76be
00000180: 6674 083e b634 a1bd 5faa 16be 498f 8fbc
00000190: c84a 4b3e 39f3 50bd d891 193d c96d 613e
000001a0: 7d6a 533e 5b72 013d 9f60 293e fe6d 2a3e
000001b0: cefe 50be d4c4 9bbd 5e53 5bbd 90ee f4bc
000001c0: 5430 f6bc c14f c23e d603 74be c9c7 37bb
000001d0: 25a7 443d d3b3 143d 91c4 90be e274 89be
000001e0: 0be9 1abe 3821 3f3e c376 bd3b 9f4f 7fbe
000001f0: 1c9b ecbd cb18 12be b983 043e 5fee d93d
00000200: 9f70 4a3d 652b d13d 513e 9f3b a5ce 2e3e
00000210: 1026 14be b65f 923c 43d6 383e 9aba eb3d
00000220: 403c 033e 0390 be3d f41f 5a3e 96df 8e3e
00000230: 5de4 55be 30be 0dbc 63e2 10be cb95 21ba
00000240: b5f1 78bc d531 d7bd fd43 353e b977 ebbd
00000250: 59c0 c63b 4c61 263c b709 9abd dc8b aebd
00000260: 7a5e f7bb 4527 a3bd a886 b53d dd13 a9bd
00000270: ec2d cbbd b490 7c3c 706a e23c 6d24 82be
00000280: 019f fc3d 70e5 013e ba22 633e 3152 1d3d
00000290: a5ce c1bd eb62 d8bd 587e 9bbd de8e 85bd
000002a0: 1685 efbc ac6b ff3c 04bd 4a3b d00c ae3d
000002b0: aa9c 38bd df03 f03d e89a 4cbb d6a0 5ebe
000002c0: 9bee 163e 7f84 e93d c581 6ebe eb3c 413d
000002d0: 720c 883e 492f 1fbc 9214 273d 4c23 1a3e
000002e0: 2bb1 0f3e 5aa6 253e 0723 0ebe 3fcd 9d3d
000002f0: bbf1 073e e2df 29bd 2ee0 093d f464 acbd
00000300: 8abc 513e 2087 443e 2c08 c93d ef03 c9bd
00000310: 187e 6abc 035b 5b3e e9a1 c43d 68fa fa3c
00000320: 98b0 cd3c 11af 5bbe d2d4 313e d1aa f13c
00000330: 83b3 56bd b539 82bd 08a8 133d 7492 ca3d
00000340: ec03 34bd 0fa3 7dbd 290b eabc 08ce e1bd
00000350: cc95 a3bd d68f 983d 3cb7 073d 0ae7 94bc
00000360: 0236 693e 2928 5bbe 83b0 27bd 8b47 a53d
00000370: 4615 89be 1922 8cbe 3f72 51be 7afe 8e3d
00000380: 906d 603e 39ea 103c 3584 15be b1d8 86bd
00000390: 9b3b 353d 1cbe c0ba 4298 2dbe 88c4 ff3d
000003a0: 360d 9f3d f591 31bd dcc8 b3bd 8ca3 153e
000003b0: 0060 7b3d 8ed6 0dbe 1ea7 433e 2e89 30bc
000003c0: 8780 193b 84cd 8fbd 53e3 81be 9dc0 5ebe
000003d0: 27c6 8f3d f6d5 56ba 59dd b7bd 179b 66be
000003e0: 8a86 40be d38e a63d 4f4f 24be 6607 04bd
000003f0: 3e56 9bbe 95f7 10be 77b4 84bd 7792 ff3d
-0.099481836 -0.17007269 0.109974705 -0.05520949 0.076129906 0.23351364 -0.12619643 0.022573218
-0.14814046 0.16848958 -0.093056634 0.17492743 0.07673532 -0.026521249 -0.2492787 0.081815064
-0.15988311 0.18388258 -0.03881513 -0.08081509 0.17746116 0.20163696 0.22589011 0.05688643
0.044619177 0.052574176 -0.022100214 0.03322639 -0.16525596 -0.077083714 0.01185556 -0.19018559
-0.1750363 0.18037057 0.15820158 0.26799294 0.23943329 0.06665414 -0.0017034118 -0.098092556
0.05679525 0.052172862 -0.069857314 -0.028358586 -0.084793605 0.30376956 -0.1138539 0.032815535
0.14996849 0.051507585 0.050122194 -0.014779674 -0.025179185 -0.09062395 0.06991455 0.01621265
-0.271119 -0.06569276 0.23077558 0.08709926 0.19508894 0.048726674 0.16692564 -0.02599881
0.42674983 0.17011534 -0.119726315 -0.16180632 -0.0020403326 0.06670268 0.023812436 -0.17659628
-0.038260095 -0.010624691 0.2763296 -0.16744792 0.053534903 0.32601058 0.08210928 -0.04827377
-0.010816743 0.20530885 0.25207418 -0.09247939 -0.0016538122 -0.12354677 -0.27876258 -0.0043239254
0.03143592 0.018145766 0.08685626 0.16680925 -0.18806094 -0.072464086 -0.11075206 -0.24028708
0.13325652 -0.07871382 -0.14713429 -0.017524378 0.19852746 -0.051013205 0.037492603 0.22014536
0.20646091 0.0316032 0.16540764 0.16643521 -0.204097 -0.07605901 -0.053546302 -0.029898912
-0.030052342 0.37951472 -0.23829588 -0.0028042665 0.048010964 0.036304306 -0.28274968 -0.26846987
-0.15127961 0.18665016 0.0057819798 -0.24932717 -0.11553022 -0.1426727 0.12940873 0.10641169
0.04942381 0.10213355 0.0048597236 0.17071016 -0.14467645 0.017867904 0.18050484 0.11510201
0.12815952 0.09304812 0.21301252 0.27904958 -0.20887895 -0.008651301 -0.1414886 -0.00061639835
-0.015194346 -0.105075516 0.17701717 -0.11497445 0.00606541 0.010155033 -0.07521384 -0.0852277
-0.0075491043 -0.079664744 0.08863574 -0.08255742 -0.09920868 0.015415359 0.027638644 -0.25418416
0.12335015 0.1268518 0.22181216 0.038408462 -0.094632424 -0.10565742 -0.075924575 -0.065213904
-0.029238265 0.031179272 0.0030935416 0.084985375 -0.04507128 0.11719488 -0.003122026 -0.21741042
0.14739458 0.11402225 -0.2329169 0.047177237 0.26571995 -0.0097158635 0.0407911 0.15052527
0.14032428 0.1617674 -0.1388055 0.07705163 0.13275807 -0.041473277 0.03366106 -0.08417693
0.20482078 0.19192171 0.09816012 -0.098152034 -0.01431229 0.21421437 0.096011944 0.030636981
0.02510862 -0.21453501 0.17366341 0.029500397 -0.05241729 -0.06358663 0.03604892 0.09891215
-0.043949053 -0.061923083 -0.028569775 -0.110256255 -0.07987556 0.074493095 0.03313373 -0.018176574
0.22774509 -0.21402039 -0.04093982 0.08070286 -0.26774043 -0.27369764 -0.20453738 0.06982131
0.21916795 0.0088449055 -0.14601214 -0.06584299 0.044246297 -0.0014705095 -0.16952613 0.12488657
0.07766192 -0.043352086 -0.08778545 0.1461317 0.06137085 -0.13851377 0.19106719 -0.010774894
0.0023422556 -0.07021621 -0.25368747 -0.21753164 0.070202164 -0.0008195335 -0.089777656 -0.225201
-0.18801323 0.0813271 -0.16045879 -0.03223362 -0.30339235 -0.14156945 -0.064797334 0.12479108

linears.2.bias f4 [50]
00000000: 4b17 b1ba 5099 673a 7696 423a 75a5 30bb
00000010: 2054 83ba 432e 8439 a418 b83a 30fa 283a
00000020: ee7b 56bb 0230 003b 9714 81ba 4b0f 73ba
00000030: bc80 29bb 2437 9937 5655 083b bfb0 8f3a
00000040: 435f d3ba 63dc b33a 091b 13bb e329 cf39
00000050: 6ee4 08bb 9268 093b ee14 82b9 e284 d7ba
00000060: e5c1 bbba f2e0 9eba 0c42 bab7 8ec7 9538
00000070: 385b 073b 7528 66ba 3475 a539 46cc 143a
00000080: 039c b5ba d420 9fba 48b6 23bb d918 afba
00000090: 286c b43a d6c4 b738 32dd c63a c2e1 70b9
000000a0: e4a2 59bb c9c3 13bb 4a28 2e3b 24c2 e4ba
000000b0: d907 01bb f591 f3ba 7f81 21ba ca5f 793b
000000c0: 9dfb f83a f75f 193b
-0.001351097 0.0008834796 0.0007422933 -0.0026954089 -0.0010019578 0.0002521147 0.0014045429 0.0006445972
-0.0032727676 0.0019559865 -0.0009848055 -0.0009271993 -0.0025864085 1.8264698e-05 0.0020802817 0.0010962709
-0.0016126413 0.0013722297 -0.0022446534 0.00039513325 -0.0020888108 0.002096687 -0.00024811126 -0.00164428
-0.0014324753 -0.0012121482 -2.2203683e-05 7.1420436e-05 0.0020653736 -0.0008779832 0.00031558576 0.0005676191
-0.0013855699 -0.0012140521 -0.0024980474 -0.0013358846 0.0013765143 8.7627835e-05 0.0015172123 -0.00022972285
-0.0033208663 -0.0022547117 0.0026574307 -0.0017452878 -0.0019688515 -0.0018582927 -0.0006160959 0.003805148
0.0018995885 0.0023403147

linears.3.weight f4 [50, 50]
00000000: 0e1c 553d 9f61 a83d b84e 80be 96f7 883e
00000010: da80 d53d ffa1 cd3d bdab 2b3c 2a1a 063e
00000020: a689 453d 2651 81be 6ba5 513c 568e 57be
00000030: 3fa7 823d 6a4d bf3b 9323 463d 4f82 4e3e
00000040: 602c 36bd 9566 74bc 7b83 4bbd 0a64 1a3e
00000050: a564 9ebd 7f81 963d b741 95be 0d76 0a3d
00000060: f2d7 e5bc ab48 89bd fcdb a93e 4a60 a2bd
00000070: 3424 ebbe 9676 3b3e e027 453d b8fc 1a3e
00000080: fbcb 41be c427 6e3d d0af 94bd 046e 90bd
00000090: dcbb a8be f944 203d a000 bc3d f4ae 4e3c
000000a0: e5c8 2f3e efeb b93d 1a90 1c3e 9589 96bd
000000b0: 9de1 ca3b 827a f1bd 4abf 5e3d 56d5 163e
000000c0: 9136 4b3e c89d 9bbd d353 1d3d bf2a 15be
000000d0: a68d 023d 9e5f d43c 70be b63d f24f 66bd
000000e0: 25d9 ba3d 0cfa 6ebd ec10 f53d a2b8 43be
000000f0: dede acbd e845 603d 6ca8 243e 57c8 d5bd
00000100: b4b7 c83d 19ef b1bd b828 6b3d b8dd 9dbd
00000110: 534d 913d ea7a 57be eb53 9cbc 05f2 d33d
00000120: fc4d 8f3d da23 683e 055b 133e 2c34 e13d
00000130: 5640 2f3e cc77 e03d 27a4 88be d50b f4bd
00000140: 148a 3cbd cd58 303d 9c5b 82be ea2c 333d
00000150: eb67 973e 6575 023e 4cb9 213d 60d2 75bb
00000160: 4b21 7abe 5726 ee3d 934c 693e c57a 243e
00000170: 4999 d7bd 0032 923c a2e2 b3bc 30cd 273e
00000180: ec13 9a3e 5676 cf3d 679b 473c 4770 17bd
00000190: 0662 743d a16f 6d3e bed6 abba 155c 123e
000001a0: 2c5a 723e 9811 b0be 9415 323d f1d4 d8bd
000001b0: 5307 823b 51df 3cbe 25ef 8fbd 7cd3 15be
000001c0: a005 f53d 27fb 193e 6a74 243d cd39 263e
000001d0: 34db 04be a5d9 c93d db52 a8bd 8580 33bd
000001e0: ddb9 23be a4f2 933d 9431 413e 9f47 b23a
000001f0: 006f d4bd 77d4 ee3c 7d86 77bd 8f7a fb3d
00000200: fe3b 1e3d 021e 5abe c9e0 133d 49a4 8bbb
00000210: 856a adbd 8118 50be e32e ae3d 34ad c43d
00000220: 2a28 fdb9 5730 093e 2be0 fdbd fd1f 643e
00000230: 3f24 2bbe a236 16be d10f d8bd 21f9 eabc
00000240: 54f8 7ebd 100e 52be 4e93 8c3e b92a b2be
00000250: 5deb 423e 0311 a03d 9c8c 7b3e 9c0d 033e
00000260: 7981 09bd 50e4 8a3e 7f88 0d3e 654c 933e
00000270: b5a1 c23b 029a 8fbd b028 87bd e06b a5bd
00000280: ecc7 183e f458 503c e66e 473e d4a3 a8bd
00000290: d2b9 293e 6498 c1be 9bcb a0bb a1b3 d63e
000002a0: 2b33 aa3c 9868 303e d4dc 6c3e 25fb 30be
000002b0: e0fd e53d ea62 423e 23e9 30be b6a3 40bd
000002c0: 1467 b93d 7a58 98bd 139b a0bc 3296 3bbd
000002d0: bd00 3ebd 3a8e 923e 0d73 a63c eeac a03d
000002e0: 0218 5abe b618 b3bd 2c08 89bd 329d 20be
000002f0: e1d5 22bc 4609 2fbe daa7 bfbe 9415 0a3e
00000300: 5b1e a0bc f38f 523d f1cc ccbd 8456 163c
00000310: b94b 06be 9e25 2abe eeaf 373e f932 453e
00000320: 178a 50bd a873 db3d dfe8 933e ffc0 7c3e
00000330: 730d 4b3e e37c 173d 92e4 6cbd 9805 433e
00000340: f88f 09be 45ea 483e 702d e9bd 3300 da3d
00000350: ba62 173e 9662 96bc 2778 34bd 5f78 d33d
00000360: ba80 6cbd 5e39 afbe 926c 733d 1d89 083d
00000370: 7768 3ebd ec7b 40bd 9c9d 08bd 94ab 14be
00000380: a252 833e 8c27 90be b87f ac3d 80d9 9d3e
00000390: 1bde 993d 1228 08be a4f3 3ebd 8049 0cbe
000003a0: 40e8 0bbd 1729 d0bb ba4d 33bd b966 4bbe
000003b0: ab26 9f3d 6b52 a9bc ca9a 4c3e 972b d9bd
000003c0: 7ccd ff3d 9ab1 0d3e dfde 8fbe 9d93 4f3d
000003d0: fa6d 943d a4d1 323e 2966 8c3e db3c 023e
000003e0: 97f3 a7bd a58f 8dbd ffeb 43bd 31f2 1bbe
000003f0: 1f46 1dbe b94f 60bd 20d2 97bc b0f4 6abe
0.05202871 0.08221745 -0.25060058 0.26751393 0.10424967 0.10040664 0.010477957 0.13095918
0.048226975 -0.25257224 0.012795786 -0.2105039 0.06379556 0.005838086 0.04837377 0.20166896
-0.044475913 -0.014917036 -0.049685936 0.15077224 -0.0773404 0.07348918 -0.291517 0.03380399
-0.028057072 -0.067033134 0.33175647 -0.07928522 -0.45926058 0.18306956 0.04813373 0.15135467
-0.18925469 0.058143392 -0.07260096 -0.07052234 -0.32955825 0.039128277 0.09179807 0.012614954
0.17166479 0.09078204 0.15289345 -0.073504604 0.006191446 -0.11790945 0.054381646 0.14729819
0.19845034 -0.07598454 0.03841002 -0.14567088 0.031873368 0.0259245 0.08923042 -0.056228586
0.09123448 -0.058343932 0.11966118 -0.191134 -0.08440946 0.054754168 0.16079873 -0.104386024
0.098006636 -0.086881824 0.05741188 -0.07708305 0.070948265 -0.21042982 -0.019082984 0.10348896
0.06997296 0.22669926 0.1439019 0.10996279 0.17114386 0.109603494 -0.26687738 -0.11916319
-0.04603012 0.043053437 -0.25460517 0.043744005 0.2957147 0.12740095 0.039483353 -0.0037509426
-0.24426763 0.116284065 0.22783117 0.16062458 -0.10527284 0.017846107 -0.021958653 0.16386867
0.30093324 0.10129993 0.012183047 -0.03697231 0.059663795 0.23187114 -0.0013110263 0.14292939
0.2366721 -0.34388423 0.04347761 -0.1058749 0.0039681583 -0.18444563 -0.07028035 -0.14631456
0.119639635 0.15037213 0.040150084 0.16232987 -0.12974244 0.098559655 -0.082189284 -0.043823738
-0.1598887 0.072240144 0.18866569 0.0013601667 -0.10372734 0.029154046 -0.060430992 0.122792356
0.03863143 -0.2130051 0.036103044 -0.0042615277 -0.084675826 -0.20321847 0.08505037 0.096033484
-0.00048285845 0.13397346 -0.12396272 0.22277828 -0.16713046 -0.14669278 -0.10549892 -0.028683247
-0.062248543 -0.20513177 0.27456135 -0.3479822 0.19035096 0.07815745 0.24565357 0.1279816
-0.03357074 0.27127314 0.138216 0.28769222 0.005939687 -0.070117965 -0.065995574 -0.08077216
0.14920014 0.012716521 0.19475898 -0.08234373 0.16574791 -0.37811577 -0.004907084 0.4193392
0.020776352 0.172274 0.23131114 -0.17283304 0.112300634 0.18983045 -0.17276435 -0.047031127
0.09052864 -0.074387506 -0.019605195 -0.045797534 -0.046387423 0.28624135 0.020318532 0.07845484
-0.21298221 -0.087449476 -0.06691012 -0.15684965 -0.009938688 -0.17093381 -0.37432748 0.13484794
-0.019545725 0.051406812 -0.10000027 0.0091759 -0.13114823 -0.16615912 0.17938206 0.19257726
-0.050912943 0.10715419 0.28888604 0.24682997 0.19829349 0.036984336 -0.05783517 0.19045103
-0.13433826 0.19620617 -0.1138562 0.10644569 0.14783755 -0.018357556 -0.0440599 0.10325693
-0.05773995 -0.34223455 0.059429713 0.033333886 -0.046486344 -0.04699318 -0.033353433 -0.14518577
0.2564898 -0.28155172 0.08422798 0.30830002 0.075130664 -0.13296536 -0.046619073 -0.13699913
-0.034157038 -0.0063525545 -0.043775298 -0.19863404 0.07771047 -0.020669183 0.19980922 -0.10604017
0.12490365 0.13837281 -0.28099725 0.050677884 0.07247539 0.17462784 0.27421692 0.12718527
-0.08200758 -0.06912164 -0.047832485 -0.15229107 -0.1535878 -0.05476353 -0.018532813 -0.22944903

linears.3.bias f4 [50]
00000000: 0e9d abbb 6e0e 33bb 0095 973a 6385 ebba
00000010: 419b 02bb 64e9 2e3b 2d3f 853a 1b2c 153a
00000020: 2b74 283a e0d1 39bb 012c b13a ea17 253b
00000030: 52ad dbbb edf3 873b 3438 4f3b 0231 89bb
00000040: d3f1 38bb 64fc 4f3a 4434 2bba 3951 ed3a
00000050: 3074 c73a ce15 85bb 1894 4a3b a956 ea3b
00000060: b6cf 75bb 2e4e 31ba 2973 dd3a 6947 50ba
00000070: 4897 ebba e047 45bb 87e1 193b b6ca 9bb8
00000080: dd12 923b 8620 95bb 4822 49bb 6828 45bb
00000090: bf2c 523a 7834 8d3b ff43 003a c010 09ba
000000a0: 7773 d239 dd8b 603b 35db 8c3b e9b2 c8bb
000000b0: 8e3f 8d3a 267b cdba 288a 443a bcd1 a5b9
000000c0: b1e1 67b9 d55c 7e3a
-0.0052372282 -0.0027321833 0.0011564791 -0.001796883 -0.0019928964 0.0026689405 0.0010165923 0.0005690471
0.0006426002 -0.0028353855 0.0013517143 0.0025191256 -0.006704011 0.0041489513 0.0031619193 -0.0041867504
-0.002822031 0.00079340325 -0.00065309205 0.0018105871 0.0015217122 -0.004061437 0.0030911025 0.007151444
-0.0037507839 -0.0006763664 0.0016895282 -0.0007945211 -0.0017974162 -0.0030102655 0.0023480372 -7.428734e-05
0.004457815 -0.0045509962 -0.00306906 -0.0030083898 0.0008017532 0.0043092333 0.00048929447 -0.0005228631
0.0004014035 0.0034263053 0.0042985925 -0.0061248434 0.0010776387 -0.001567696 0.00074973935 -0.00031627517
-0.00022113953 0.0009703164

linears.4.weight f4 [1, 50]
00000000: ea5d a4be 9a96 9fbe 839a 9a3e c8d7 f8bd
00000010: 58f5 55bd ad3a 44bd fb92 a93e e225 90bd
00000020: 2af9 8e3e aa82 57be 281c 3a3d bfb6 333e
00000030: dc00 17bd ba9e d4bc f63b 333d 6f2c 8cbc
00000040: a647 3abe 81ed a03e fa9e 253d 2c85 1e3e
00000050: 82cf 0b3e 71e2 17bf 6f7b e6bd 2e19 203c
00000060: c306 a5bd b23a 2cbe b891 2d3e 9808 53bd
00000070: eda6 b0bc 3ffd 48be 6732 e03d 730c b8be
00000080: 0a5a 483d cbae c7bc 0a63 a0bd 954b 603e
00000090: ed5a 053e 94f8 be3d 0e0c 903c 499c bcbe
000000a0: a5ee a63e 4be9 943e e541 2f3e a631 8fbe
000000b0: 9d09 c63e 2ed2 7cbc 0c4b 9a3d b89a babd
000000c0: 8ddd 353e 83fc 99be
-0.321029 -0.31169587 0.30196008 -0.12150532 -0.05223593 -0.04790752 0.3311995 -0.070384756
0.27924472 -0.21045938 0.04543701 0.17550181 -0.036866054 -0.025954593 0.043758355 -0.017111031
-0.18191394 0.314312 0.040434815 0.15480489 0.13653377 -0.593299 -0.11254012 0.009771628
-0.0805793 -0.16819265 0.16950119 -0.051521868 -0.021563971 -0.19627856 0.109471135 -0.35946998
0.048913993 -0.02437534 -0.0783139 0.21903832 0.13022967 0.09324756 0.017583873 -0.36837986
0.32603946 0.29084238 0.1711498 -0.27967566 0.3867921 -0.01543097 0.07533845 -0.091115415
0.17760296 -0.30075464
