Archived Code/Stan TPAMI/3D/rowdy_tune/3D_HTTP_rowdy_tune6_2.pt (torch, 89632 bytes, 22 tensors)

omega1 f4 [9, 1]
000000 38 9a 21 3f 0c e8 3e 3f d3 ca 21 3f 3f bb 84 3f
       0.63125944 0.74572825 0.6320011 1.0369643
000010 38 9c 6c 3f 13 0a 57 3f fa da 4d 3f c3 93 7e 3f
       0.9242587 0.8399975 0.80412257 0.99444216
000020 43 21 e7 3f
       1.8057026

alpha f4 [2, 9]
000000 0c 31 a3 3a a2 b6 3e 3c 86 8a 6b 3f b4 2b 1f 3f
       0.001245053 0.011640223 0.92008245 0.6217606
000010 04 ec 83 3e 91 e3 2b 3e 73 1d 04 3d a8 08 a8 3f
       0.25766003 0.16786028 0.032254647 1.3127642
000020 df 31 c0 40 f8 00 4d be 4c 8c 27 be e5 2d 8a be
       6.006088 -0.20019901 -0.16362113 -0.2698814
000030 f9 b2 0c be b7 ec f9 be b3 cf 91 be 30 b0 91 bf
       -0.13740148 -0.48813412 -0.28478774 -1.1381893
000040 96 37 62 3e a9 b2 b3 40
       0.22091517 5.615559

omega f4 [2, 9]
000000 4b fe b1 3e f3 b2 ca 3e 4f d9 7f 3e 70 5b ad 3e
       0.34764323 0.39589652 0.2498524 0.33858824
000010 ac 8e a0 3e 24 2b 91 3d 37 99 b4 3e 80 a7 e6 3e
       0.3135885 0.070883065 0.35273144 0.45049667
000020 c5 0e 42 3f f8 27 26 3e 5a 93 90 3e e0 ad 97 3f
       0.75803787 0.16226184 0.2823742 1.1849937
000030 74 de 8c be b2 d1 07 3e 3e 00 37 3e 42 2e 1f 3d
       -0.27513468 0.13263586 0.17871186 0.038862474
000040 91 5f 2d be 62 4e 57 3e
       -0.16930987 0.21025994

linears.0.weight f4 [50, 3]
000000 b2 ac 72 bc 21 44 bb be cd 08 1e bf 67 67 7f be
       -0.014811682 -0.36575416 -0.6173218 -0.24941789
000010 22 0d 78 3e 93 fa 10 3f 6a 56 b4 be 89 09 fd be
       0.2422376 0.56632346 -0.3522218 -0.49421337
000020 e6 b4 f5 be 52 e3 61 3e 1b a4 56 be 63 69 b7 be
       -0.47989577 0.22059372 -0.20961039 -0.3582259
000030 cb 58 19 be 2d 02 a3 bd e0 0d 7b 3e b7 d1 05 be
       -0.14975278 -0.07959399 0.24517012 -0.13068281
000040 a8 e7 c3 be 37 c9 d5 bc 4b 43 41 be 00 60 f3 bc
       -0.38262677 -0.026096923 -0.18873326 -0.029708862
000050 bd 07 48 bd e7 06 24 be 1e 4c 0c be 2c 2b 51 bf
       -0.048835505 -0.16018258 -0.13700911 -0.817065
000060 99 2d e1 be d4 b2 48 be 47 44 94 be b1 eb 9e 3d
       -0.439801 -0.19599468 -0.2895834 0.07759798
000070 6e 42 0f bd 7b 37 41 3d cf b7 12 3e 5a e2 b3 3e
       -0.03497546 0.04717205 0.1432793 0.3513363
000080 60 c9 10 3f 7d b9 19 3e 97 16 a3 bd 8f 6c 7a 3e
       0.56557274 0.15012164 -0.07963293 0.24455474
000090 0d 14 0b 3e 9e 52 d0 3e a2 88 2c 3f d8 ae b9 3d
       0.13581868 0.40688032 0.67395985 0.09066552
0000a0 e9 5e 43 3e 88 fa a5 3f b5 ff 78 3e 69 ad da 3e
       0.19079174 1.2967081 0.24316294 0.42710426
0000b0 04 11 71 3e d3 8e 9c 3d 41 55 80 3e 34 5c 57 3f
       0.23541647 0.07644429 0.25065044 0.84125066
0000c0 46 6e 9b 3e 9a 66 be 3e 9d da a1 3d a4 5b 3d bd
       0.3035757 0.37187654 0.07903025 -0.046229973
0000d0 05 7c a6 3e ae c7 57 bd 1c e4 b9 3d 21 21 13 3e
       0.32516494 -0.052680664 0.090767115 0.14368106
0000e0 ab 37 97 3e 8b b2 45 bd cb 69 55 be 3c e1 99 be
       0.2953466 -0.048265975 -0.20841138 -0.30054653
0000f0 a0 ef 23 3e 55 d1 bc 3e dc 02 8a 3e f1 df 55 3c
       0.16009378 0.36878458 0.26955307 0.01305388
000100 8b c1 a5 be 84 69 74 3b a6 6f 00 3e b3 a9 c2 3c
       -0.32374224 0.0037294338 0.1254259 0.02376256
000110 e2 8c 41 3f 18 95 42 be 95 48 84 3e 3a c9 1f 3f
       0.75605595 -0.19002187 0.25836626 0.6241642
000120 c7 3a 2f 3e 25 68 f8 3d d7 91 08 3f ee 67 99 bd
       0.17112266 0.12129239 0.53347534 -0.07490526
000130 3a 89 f2 bd c3 58 f4 bd aa ac c8 be 88 72 46 bc
       -0.1184258 -0.119309925 -0.39194232 -0.012112267
000140 d2 da cb be 6a 86 0f bc 29 18 bc bc 0d 10 c7 3d
       -0.39815384 -0.008760074 -0.02296074 0.09719858
000150 6d 18 db 3e 4e 05 77 3e 92 b6 44 3f a8 c3 f0 3d
       0.42792073 0.24123117 0.7684108 0.117560685
000160 1f 8e 54 be 8e 6d 7b be bf 1f 85 3e 01 14 cf 3d
       -0.2075734 -0.2455351 0.26000783 0.10111237
000170 34 a4 62 3e 69 6c 1c 3e ae 2e 44 bd 21 6e 0f be
       0.22132951 0.1527573 -0.04789608 -0.14006855
000180 3c e1 0d 3e c4 25 0f bf ca 9d c3 3e 14 27 5d bd
       0.13855451 -0.55917 0.3820632 -0.053992346
000190 c6 2d 88 be 9d d7 19 bf 19 3f 46 bd 3f 84 be be
       -0.26597422 -0.60094625 -0.04840002 -0.3721027
0001a0 34 70 05 be c0 80 a1 bd 7d 23 e7 bd 4c 7d 9f be
       -0.13031083 -0.07885885 -0.11286066 -0.3115028
0001b0 a9 c2 e9 bd 7b 92 22 3d c8 8e c6 be 81 33 80 3e
       -0.114140816 0.039690476 -0.38780808 0.25039294
0001c0 db 55 f2 bb 7e 31 76 3e ef f7 ad 3e a5 d7 7f 3e
       -0.0073954887 0.24042317 0.3397822 0.24984606
0001d0 ad ab 5d 3f 5f 21 c0 3e 50 ce b2 bc 62 1e 05 be
       0.8659008 0.3752546 -0.021826893 -0.12999871
0001e0 5e 9c ce be 93 92 2a be 57 4f fe bc 39 03 98 3e
       -0.40353674 -0.16657476 -0.031043692 0.2968996
0001f0 23 40 9a 3e 0d 1b 8d 3e d9 8f 9e bd 9b 3d e9 be
       0.30127057 0.275597 -0.077422805 -0.45554814
000200 19 19 b6 be ee 59 8e 3e 0b c9 3a 3e b6 7c 47 3f
       -0.35566023 0.27802986 0.18240754 0.7792467
000210 e0 63 46 3e bd ad a9 be d7 8f 84 be 80 fa 1d bd
       0.19374037 -0.33140364 -0.2589099 -0.038568974
000220 92 7f 28 bd 60 4e 35 bf 95 2f 09 be 4c 45 b9 bd
       -0.041137286 -0.70822716 -0.13397057 -0.090464205
000230 d6 ed 82 3b 6b c0 00 3f a9 75 08 3f 63 d7 52 3f
       0.0039956374 0.50293607 0.53304535 0.82359904
000240 9d e1 68 bc ae 84 98 3d 03 fe df 3e 3e 06 f1 3c
       -0.014213947 0.07447182 0.43748483 0.029421922
000250 a7 a8 d2 be 21 cf 31 bf
       -0.41144297 -0.6945668

linears.0.bias f4 [50]
000000 f7 86 05 3f a5 f9 8a be 98 7d b3 bd bc b9 37 be
       0.52159065 -0.2714359 -0.087641895 -0.17941946
000010 45 0f 9f 3e 26 0c f2 bd c9 0c 66 3e fc 3f 23 3d
       0.31066337 -0.118187234 0.22465815 0.039855942
000020 e7 36 23 3f dd fa a4 3d e8 cb 1d 3d a0 36 ee 3b
       0.6375565 0.08055661 0.03852454 0.0072696954
000030 a3 c6 da bc 27 f0 18 bf b1 a3 99 be 22 4f ed be
       -0.026706045 -0.59741443 -0.300077 -0.46349436
000040 09 fd ca 3d 77 c8 f9 3c 33 3c f8 bd 8d 6e ad 3d
       0.09911544 0.030491097 -0.12120857 0.084683515
000050 06 49 a7 3e 03 41 0e 3e 6c 3b 13 3d 9f 6d 32 3d
       0.326729 0.13891988 0.03594534 0.043561574
000060 67 75 ad be 62 58 92 be 4c 47 0d 3f 06 7b 2c 3e
       -0.33878633 -0.28583056 0.55186915 0.16843805
000070 20 f5 9e 3e c5 1c c5 3e 68 13 1c 3b 15 d1 23 be
       0.3104639 0.38498512 0.0023815278 -0.15997727
000080 ce 3b b1 be 4d 6e 80 3d b6 da f4 3e 7d f5 5d bd
       -0.3461594 0.06271038 0.47823113 -0.054189194
000090 78 23 ff 3d d0 3f d4 be 0e ee b1 3d 4e 18 81 be
       0.12457937 -0.41454935 0.086879835 -0.25213856
0000a0 8b df a7 3e 9f 22 d8 3d a5 1a 9d 3e 36 0c 8c 3c
       0.32787737 0.105534784 0.3068439 0.017095666
0000b0 8b 67 41 3e ff ca eb bd c3 18 04 bc 42 1b 2e 3d
       0.18887155 -0.11513328 -0.008062544 0.042506464
0000c0 01 64 bb bc bf 31 2e bd
       -0.022874834 -0.04252791

linears.1.weight f4 [50, 50]
000000 cc 65 b6 be b1 d3 12 3e ba 68 88 be 21 36 1c bc
       -0.3562454 0.14338566 -0.266424 -0.00953439
000010 a9 8c 0a bd 66 49 d4 3c af f4 07 bd 13 6e 53 3d
       -0.03382555 0.025913905 -0.033192333 0.051618647
000020 b0 dc 01 bf ad 35 08 3e 33 c4 10 bc 8e c0 27 3e
       -0.5072737 0.13301726 -0.00883584 0.16382048
000030 51 02 89 3e 82 01 68 3e bc 8d 82 bd 0f 35 9d 3c
       0.2675958 0.22656825 -0.0637469 0.01919034
000040 ae 51 6b 3e 36 5b 30 be dd 50 c9 bc aa d7 67 be
       0.22980377 -0.17222294 -0.024574691 -0.22640863
000050 97 13 c0 3d f2 c8 b6 be e2 6e 46 3d 12 d7 27 be
       0.093787365 -0.35700184 0.04844559 -0.16390637
000060 ad c2 95 3d 20 56 f3 3d 2a 89 0d be 63 96 5c bd
       0.07312522 0.118816614 -0.13821855 -0.053854357
000070 8c c7 be 3d e1 bc a1 be fb af 95 bd 3e 5e 7d bd
       0.09315404 -0.31589416 -0.07308956 -0.061857454
000080 c5 9b 3c 3e cb 38 4e be 29 f7 05 bf 21 72 1d 3c
       0.18418796 -0.20138852 -0.5233026 0.00960973
000090 49 d9 65 be 42 3b 89 3e bb c5 a5 bd 9f 29 b5 bd
       -0.22446169 0.26803023 -0.08094355 -0.08845829
0000a0 ef 09 87 bd 8d e2 4c 3e b0 70 23 be d2 cd 07 be
       -0.065936916 0.20008297 -0.15960956 -0.13262108
0000b0 5d 74 7c be 63 e0 73 3e b9 65 71 be ab a0 dd 3e
       -0.24653764 0.23816065 -0.2357396 0.43286642
0000c0 ad 61 7f 3e 3d 9e 7e be f9 4a db bd 85 1d 3d bc
       0.24939604 -0.2486505 -0.10707659 -0.011542683
0000d0 94 a3 13 bc 85 7b 78 3e 69 ed c7 bd ec 6a 8c be
       -0.009011168 0.24265869 -0.09762079 -0.27425325
0000e0 1a 7e a1 3e 46 c0 e3 be af 2e a4 be 02 d9 48 bd
       0.3154152 -0.4448263 -0.32066867 -0.04903508
0000f0 2f d6 99 be 69 d3 63 bd 31 a2 88 3d e1 c1 42 3e
       -0.30046222 -0.05562154 0.066715606 0.19019271
000100 3b 8d fc 3d 6a ef c5 3e a9 d5 df 3d 96 88 8f 3d
       0.12331625 0.3865922 0.10929424 0.070084736
000110 24 c6 0a be 11 12 a7 3d 89 ca 4d 3d c1 e4 3d be
       -0.13552147 0.08157743 0.05024198 -0.18544294
000120 8b 57 4a 3d 91 ff e3 3b 74 69 ab 3d bf 48 31 be
       0.049399894 0.006957956 0.08369723 -0.17312907
000130 90 eb 33 bd 07 41 93 bd ac a3 83 3d 7f a2 30 be
       -0.04392582 -0.07190137 0.06427702 -0.17249487
000140 6c 1b 4a 3d 0b 15 89 be 51 02 2d 3e ca 3a 9a bd
       0.049342558 -0.26773867 0.16895415 -0.075307444
000150 cb f9 7d 3c 7a 6a 23 be 24 31 35 bd 53 a3 dc 3e
       0.01550145 -0.15958586 -0.044236317 0.43093356
000160 ff c0 94 3e 36 a1 11 3d d1 1e 68 3e 5a ad 94 3e
       0.29053494 0.035554133 0.22668006 0.29038507
000170 22 83 18 be 82 98 67 be 9e 5b 8b be a0 0f 1f bd
       -0.14893773 -0.22616771 -0.27218336 -0.03883326
000180 3c b5 ef be 41 dd 8d 3e 85 f4 6b 3e ec 22 3d bc
       -0.46817958 0.27707866 0.23042496 -0.011543971
000190 1c 62 9c bc 32 fa bd bd 97 a0 49 be 70 d8 64 3d
       -0.019089751 -0.092762366 -0.19690166 0.055870473
0001a0 6a ca b4 bd cb ce 8a be 36 b5 ea bd ac 24 d3 be
       -0.0882767 -0.27110896 -0.114603445 -0.41238916
0001b0 ae 85 b9 be c5 1e ac 3d fc 28 b5 bd bc 02 25 bd
       -0.36234802 0.08404306 -0.08845708 -0.04028581
0001c0 66 f5 79 3d dc a3 af 3e 50 54 ea 3d f3 7b 2a 3d
       0.061025046 0.34304702 0.114418626 0.041622113
0001d0 a7 7e 88 3d 78 d4 19 be b2 12 91 be 20 ea 74 bd
       0.06664782 -0.15022457 -0.28334576 -0.05979359
0001e0 60 0f 23 3e 48 6b 01 bd 33 85 1c 3d 33 c5 70 bd
       0.15923834 -0.031596452 0.038212966 -0.058781814
0001f0 b5 06 88 3d 84 71 bc 3d 79 7e 03 bf fc e2 c6 bd
       0.06641904 0.09201339 -0.51364857 -0.097112626
000200 c2 30 6f 3d 47 a5 a1 bd fe 73 38 be c3 2c 38 be
       0.05839611 -0.07892852 -0.18012998 -0.17985825
000210 a8 5f 47 3e 00 95 09 be 72 ca 49 bc ca 43 66 be
       0.19470084 -0.13435745 -0.012316333 -0.22486797
000220 11 6a dc 3c 5f e0 1a 3e ed 41 40 3e 92 85 4a 3e
       0.026906045 0.15124653 0.18775149 0.19777516
000230 3d 42 fd bc cb cc 29 bd 68 1a 84 be f8 00 ff bd
       -0.030915374 -0.04145507 -0.25801396 -0.12451357
000240 9e 8c ee 3d 07 7d 98 3e 1b 9d 91 be b8 b8 6c 3e
       0.11647914 0.29782888 -0.28440174 0.2311734
000250 6b af ac 3a d3 c5 87 be cb 99 5d bd ec 25 93 3e
       0.0013174837 -0.26518115 -0.054101747 0.2873987
000260 60 3e 8d 3e b2 eb 36 be 67 d8 4e 3e 70 96 f1 bc
       0.2758665 -0.17863348 0.20199738 -0.02949068
000270 dc 0d ee 3d ee 4e 6f 3d 45 43 4d 3e 2a 9a 27 bd
       0.11623737 0.058424883 0.20045193 -0.040918507
000280 a0 81 19 bd 0d 37 7d 3b 14 a2 1b be 0a 4d ef bd
       -0.037477136 0.003863755 -0.15198547 -0.11684616
000290 6a 6b 9b be 16 13 2a bd d7 ef ab 3d 0d 32 72 3d
       -0.30355388 -0.041522108 0.08395355 0.059129763
0002a0 92 fb 50 3e 2c bf 7e bd da 10 3a 3e b7 67 c6 3d
       0.20408466 -0.062194034 0.18170491 0.09687751
0002b0 cd 4c 00 3d 8e 1b 2b be 3d 1b 80 3d 84 34 1d be
       0.031323243 -0.1670973 0.06255195 -0.15352064
0002c0 75 39 1c 3e 8f 11 1d be 55 56 80 bd f5 4d 6d 3e
       0.15256293 -0.1533873 -0.062664665 0.2317427
0002d0 8b bb a5 bd 15 de 9a 3d 96 85 4b be 90 c6 da 3d
       -0.080924116 0.0756189 -0.19875178 0.10682404
0002e0 e2 1d bc 3e ab 8b ee bd 09 19 a8 bd f4 1c 9f be
       0.3674155 -0.11647733 -0.082079 -0.31076777
0002f0 b9 20 6b be 91 77 71 be 90 eb 7e 3d d0 4a c2 be
       -0.22961701 -0.23580767 0.06223637 -0.37947702
000300 72 27 14 be 98 6e 63 3e f7 fd 07 3c e0 bf a7 bd
       -0.14468172 0.22210157 0.008300296 -0.08190894
000310 d7 f4 eb 3d 98 dd 97 bd 2b b5 96 3c 3a cb ac bd
       0.11521309 -0.074153125 0.018396934 -0.084372
000320 0b 0f 2c 3e 62 b0 9d be 54 fd 4d bc 53 ab ec 3c
       0.16802613 -0.30798632 -0.012572605 0.028890288
000330 97 8a 61 3e 51 09 47 bd ec c5 1c bd 1f 69 05 3e
       0.22025524 -0.04859287 -0.03827469 0.13028382
000340 05 5e c9 3e ab 53 1b be be 89 0f 3e 4f 35 cd bc
       0.39329544 -0.15168636 0.14017388 -0.025049834
000350 07 f8 2c bc fe 46 9b be 3e c6 9b be 98 ee 8f bd
       -0.010557181 -0.303276 -0.30424684 -0.0702793
000360 b8 6b 14 be f9 a7 f1 3d 7e 49 03 be 19 27 59 3e
       -0.14494216 0.11799616 -0.12821004 0.21206321
000370 8a 7c b6 3d ed 8a 1d be a1 ce f1 bd 9e 99 46 3e
       0.08910473 -0.15385027 -0.118069895 0.19394538
000380 c8 3a 36 be e3 73 05 be 48 aa dd 3c 8e 35 fc 3d
       -0.17795861 -0.13032489 0.027058735 0.12314902
000390 d1 f6 5f be 25 50 79 3e 82 56 49 3e bd 70 7c 3d
       -0.21871497 0.24346979 0.19661906 0.061630953
0003a0 ca 2c 65 bd 01 cf 90 bd 69 dc 27 3e db 1e ee 3c
       -0.055950917 -0.07070733 0.16392674 0.029067447
0003b0 81 17 10 3d 87 61 82 be 2b 21 aa be ec c0 97 bd
       0.035178665 -0.25465032 -0.3322843 -0.07409844
0003c0 b3 32 60 3e d2 df 23 3e b2 b1 5c 3e 31 1a c3 3a
       0.2189434 0.1600335 0.2155216 0.0014885125
0003d0 6d e4 18 be 22 60 b8 3d 00 80 19 3e 32 ba a3 bd
       -0.14930888 0.09002711 0.14990234 -0.07994498
0003e0 84 4b 80 bd ad c7 f2 3d 0b 04 37 ba cc 99 18 be
       -0.062644035 0.118544914 -0.00069814984 -0.14902419
0003f0 c1 14 d8 3b 29 75 1c 3d 1f f3 ab 3d bc 97 97 3d
       0.006594271 0.03819767 0.08395981 0.07401988

linears.1.bias f4 [50]
000000 93 13 d5 3b 4b 79 cb 3d b8 4b 4b 3e 24 8d 08 3e
       0.0065025776 0.09935244 0.19853103 0.13335091
000010 89 ac 5d 3e 5a cb 76 3d 04 eb 84 3e cf 24 90 be
       0.21647848 0.060252525 0.25960553 -0.28153083
000020 66 98 21 3e 59 7f 25 3d 4e c9 21 bf 10 f9 80 3e
       0.15780792 0.04040465 -0.6319779 0.2519002
000030 57 e2 43 3d 65 bc b1 bd 7c 9e 7c 3e 6f de 0b 3d
       0.047823276 -0.086785115 0.24669832 0.034147676
000040 c6 26 96 bd cd d9 41 be 72 52 90 be c7 e9 27 3e
       -0.07331614 -0.1893074 -0.281879 0.16397773
000050 cf 24 ba be d0 d1 3a 3e a6 7f 66 3c 60 89 c5 3d
       -0.36356208 0.182441 0.01406852 0.09645343
000060 cc 85 e4 3d 07 9f 4d be 87 e1 0c 3f 4b 52 31 be
       0.11158332 -0.20080195 0.5503163 -0.17316549
000070 99 44 f7 3c 7e d2 e4 3d 92 ad 4a bd 37 24 93 3d
       0.030184077 0.11172961 -0.049481936 0.07184642
000080 a8 da 51 3d e9 d1 92 bc eb 81 99 bd 8a 58 8c be
       0.051233917 -0.017922359 -0.07495483 -0.274113
000090 86 1a 5d 3e 4f 69 3e bd ba d3 79 bd 9f 76 98 be
       0.21592149 -0.04648715 -0.060992934 -0.29778
0000a0 ec 94 3d be 39 b4 8a be 71 9f 17 3e db 0c 86 bc
       -0.1851384 -0.27090624 0.14806916 -0.016363552
0000b0 5b 2e 20 be a5 06 91 3e 93 9e b6 be d4 8f ac bd
       -0.15642683 0.28325382 -0.35667858 -0.084258705
0000c0 95 f5 8d bd 93 de 2a bc
       -0.06931607 -0.010429042

linears.2.weight f4 [50, 50]
000000 5e 8b 1d bd aa 86 0a bc 35 c6 06 3e 0f 57 16 3e
       -0.03846299 -0.008454958 0.13161547 0.14681648
000010 21 4c e9 bc 26 62 3c 3d 24 db 60 3e 91 83 25 be
       -0.028478684 0.04599204 0.21958596 -0.1616347
000020 b8 c8 5b bc 03 34 5d 3e b1 5e f3 bd e7 b1 80 bb
       -0.013414554 0.21601872 -0.11883295 -0.0039274576
000030 4d fb e6 3d ae b1 7f 3e 7d 79 ef bc 74 4c 46 3d
       0.112784006 0.24970123 -0.029232735 0.048412755
000040 3e d4 47 3e f4 23 d0 bd d1 f8 52 be 31 89 e2 3d
       0.19514558 -0.101631075 -0.20602728 0.110613234
000050 a9 d0 ca 3d 6e b3 2d be 3c dc d7 3d f3 71 98 3e
       0.0990308 -0.16962978 0.10540053 0.29774436
000060 e8 1e 9c bd 80 9f a7 be da c8 59 3e 9a b4 a7 be
       -0.076230824 -0.32738876 0.21268025 -0.32754976
000070 36 68 3e be 83 da 2c be f9 f6 74 3b b6 5c d6 bc
       -0.18594441 -0.1688023 0.0037378652 -0.026167255
000080 ae 39 5a 3e 0d 66 a0 bd 5b d5 5f be 60 64 03 be
       0.21311066 -0.07831965 -0.21858732 -0.12831259
000090 e6 33 42 be 6f e0 aa bd 18 cb 29 3d f9 24 98 bd
       -0.1896511 -0.083435886 0.04145345 -0.07428927
0000a0 cf 45 5f 3d 90 0c 9e bc 06 78 cc 3d 61 46 44 3e
       0.054509934 -0.0192931 0.0998383 0.19167472
0000b0 e6 cd 32 bc be 06 26 3d f8 7b af 3c 2f 3f 64 bd
       -0.010913348 0.040533774 0.021421418 -0.05572432
0000c0 75 c4 e2 bb 72 2e df 3c f8 85 d1 be 20 26 97 3e
       -0.006920392 0.027243827 -0.40922523 0.29521275
0000d0 e7 af 21 3e f4 18 c4 bd 7f 7f e0 3d 09 1b 22 be
       0.15789758 -0.09575072 0.10961818 -0.15830626
0000e0 9d 19 f2 bd 75 46 2e be b2 97 50 3d 0e 9f e6 3b
       -0.118212916 -0.17019065 0.050925918 0.0070380038
0000f0 85 97 0b 3e 25 fe bd 3d 93 f9 12 3e 74 53 34 3d
       0.13632019 0.0927699 0.14353018 0.0440249
000100 86 1c ad be 5b f8 4a 3e 8d 4b cf 3d 00 80 fb 3c
       -0.33810824 0.19821303 0.10121832 0.030700684
000110 d1 a2 28 be a7 ba 34 3c b9 70 15 be bd a5 27 be
       -0.1646836 0.0110308295 -0.14593782 -0.16371818
000120 c3 f4 7d bd e4 f6 86 3c d0 74 51 3d 87 14 04 3d
       -0.062001 0.016475148 0.05113679 0.03224614
000130 db 8e c9 3d c1 04 86 bd e9 1c 82 3d 6b c7 f0 bd
       0.09841701 -0.065438755 0.063531704 -0.11756786
000140 90 19 10 3e ef eb d6 3d 56 2a a2 bd e5 92 91 3e
       0.14072251 0.104942195 -0.07918231 0.28432384
000150 a7 c3 57 be 60 aa 4f 3e 2f d1 e6 3d 4f b6 44 3e
       -0.21070729 0.20279837 0.11270367 0.1921017
000160 e1 db 8b bb 39 23 30 3e bb f6 af be c7 16 c9 3c
       -0.004268155 0.17200936 -0.34367928 0.024546994
000170 de a0 ac bd 9a 4e 22 3e 8b 07 c6 3e 72 ce 08 3b
       -0.084291205 0.15850297 0.3867763 0.0020875004
000180 f6 4d 66 bd ad 7d fa bd 17 9d 99 3d 8b 90 2f bd
       -0.056226693 -0.12231002 0.07500666 -0.042862456
000190 ab 93 b5 3d 6d 96 e5 3b 03 cc b6 bc d3 a3 89 3e
       0.08866056 0.0070064575 -0.022314077 0.268828
0001a0 8a 43 81 be 48 fc 6c 3d af f0 7a 3d 82 c2 ad bd
       -0.2524684 0.05785778 0.06126469 -0.08484365
0001b0 67 42 f4 bd 1b fa 8b 3d f1 8e 2e be 70 f1 47 be
       -0.11926728 0.06834813 -0.17046715 -0.19525695
0001c0 10 2c 1f 3e d1 c4 9b 3b b8 f4 a9 3d 49 77 c1 bc
       0.15544152 0.004753687 0.082986295 -0.02361645
0001d0 ac 45 1c 3e 71 ac 04 be b6 21 21 3e 1f 0c 1f 3d
       0.15260953 -0.12956406 0.15735516 0.03882992
0001e0 23 14 9f bd 01 8a 48 3e a6 36 4e bc 77 8a 17 3e
       -0.07767513 0.19583894 -0.012586271 0.14798914
0001f0 c5 0d 9a 3b 17 24 f1 3b 24 ad c8 3e 2b 75 86 be
       0.0047013485 0.0073590386 0.39194596 -0.26261267
000200 5c 0a 4f bd c3 fe 6c be f1 b2 d0 bd 66 7f db 3e
       -0.05054699 -0.23144059 -0.1019038 0.42870635
000210 0d c8 73 3e bd d0 80 3e d6 1c 4c 3e 6b 44 bc 3c
       0.23806782 0.25159255 0.19932875 0.022981843
000220 70 70 6e 3e 56 53 19 3e 7b 67 67 bd 2b 48 22 be
       0.23285079 0.14973196 -0.05649517 -0.15847842
000230 0c c5 b8 bc df 6a 44 3e e7 db e2 3d b2 96 9a bd
       -0.022554897 0.19181393 0.11077099 -0.07548274
000240 46 59 0c be bf 1a 3d 3e a2 fc f1 bd c1 50 52 bd
       -0.1370593 0.18467234 -0.11815764 -0.051346544
000250 d4 5c 31 be b4 30 a8 be cd 96 06 be 53 f2 40 bd
       -0.17320567 -0.32849658 -0.13143463 -0.0471061
000260 30 46 41 be 45 49 17 bf 18 ff 09 bd 92 46 b8 3d
       -0.1887443 -0.59096175 -0.033690542 0.08997835
000270 94 73 a0 be 46 4f 9a 3e 92 dc ec bd e2 52 8d be
       -0.3133818 0.30138606 -0.11565508 -0.27602297
000280 ea 26 bc 3e a1 46 47 3e 3b d3 22 be d2 39 9e 3d
       0.3674844 0.19460537 -0.1590089 0.07725872
000290 fe 8f 5b 3d 2e 96 7c bc 48 23 18 be 74 05 a4 3c
       0.05360412 -0.015416665 -0.14857209 0.020022132
0002a0 c6 a9 66 3e ca 65 d0 bd af 2b 7e bd 80 8a 7f 3e
       0.22525701 -0.10175665 -0.06205338 0.24955177
0002b0 de c1 51 bd c3 d4 df be 20 76 32 be 6b 69 84 3e
       -0.051210277 -0.43717012 -0.17427874 0.25861678
0002c0 10 9f 53 be a2 50 c3 3e 66 42 08 3d 6b 08 b2 3e
       -0.20666146 0.38147455 0.033266447 0.34772047
0002d0 e5 ac af 3d 75 6e df bd cc 49 e2 bd 2f 21 ae 3b
       0.08577899 -0.1090974 -0.11049232 0.0053140144
0002e0 a0 bb 81 bd 2e 3d 6b bb f6 83 ec 3d ba 49 9c 3e
       -0.06334615 -0.003589462 0.11548607 0.30525
0002f0 bf ff c5 3d 2d 85 02 3f 5d 4e 41 3d 18 7e 97 bd
       0.0966792 0.5098446 0.047193874 -0.07397097
000300 2a 8f a9 3d d9 c2 d0 bd 3b 78 e7 3d fc a4 50 be
       0.082792595 -0.10193414 0.11302229 -0.20375437
000310 7c 94 54 3e 92 7d 90 3e 50 42 34 bd e1 53 a0 3e
       0.20759767 0.28220803 -0.044008553 0.31313995
000320 2b 13 f9 bd 64 f0 6d bd 6c f4 f0 bd 3f b9 9b be
       -0.12161859 -0.058090582 -0.1176537 -0.3041477
000330 82 39 8d be 8b 1b 44 bd cc 1b 79 be 2e 42 20 3f
       -0.27582937 -0.04787783 -0.2432701 0.6260098
000340 f3 07 3c be 9e f1 ba bd 8d ae 2a 3e 7e cc 4a be
       -0.18362407 -0.09128116 0.16668148 -0.1980457
000350 85 90 60 bd 0d df 55 be 9a 69 99 be 94 83 59 be
       -0.054825325 -0.20885868 -0.2996338 -0.212416
000360 b9 b1 8f bc 13 f7 9c 3e 12 79 98 3d 55 92 ee bd
       -0.0175408 0.30657253 0.07444967 -0.11649004
000370 fe 31 fe 3e 29 08 4f 3e 3e 0c 4e be 52 d5 de bd
       0.49647516 0.20217957 -0.20121858 -0.10880531
000380 cf 02 85 3e 07 1e bb 3d 73 f2 14 be 3a f9 4e 3e
       0.25978705 0.09136587 -0.14545612 0.2021226
000390 ba 09 7d 3e 0d fa 66 3d a1 e6 cd 3e f8 0b 40 be
       0.24710742 0.05639081 0.40215018 -0.18754566
0003a0 60 5d 1f be b3 4b 29 be 8f ca 17 be bc 1c d6 3d
       -0.15562963 -0.16532783 -0.14823364 0.104546994
0003b0 2e fa 3f be e8 1c 50 3e e0 c0 80 3e aa 81 14 3e
       -0.1874778 0.20323527 0.25147152 0.14502588
0003c0 24 2f 9a 3d 7e b4 80 bd 41 e5 95 bd 24 d1 b5 bc
       0.075285226 -0.06284426 -0.07319117 -0.022194453
0003d0 bf df f1 3c 6a 8d 50 be 92 8a 13 3e c5 28 ec 3d
       0.029525636 -0.20366445 0.14408329 0.11531214
0003e0 88 b7 d7 bb 2a c5 07 3e fe a8 cc 3e a9 11 5f 3c
       -0.006583158 0.13258806 0.3997268 0.01361505
0003f0 83 1d e4 3d d4 0a 16 3e ff 09 6b 3c 08 84 4b bc
       0.111384414 0.14652568 0.014345645 -0.012421615

linears.2.bias f4 [50]
000000 2e c2 97 3d 9b f2 1c be 69 c7 39 3c 94 fe 4c bb
       0.07410084 -0.15326922 0.011339047 -0.003127967
000010 1f d0 d6 bd 71 32 e1 bd 30 c4 5e be 6f 30 e1 be
       -0.10488915 -0.10995949 -0.21754527 -0.43982264
000020 a1 4d cb 3e dc d1 30 be 21 1a 7d 3e 2e 26 1a 3e
       0.39707664 -0.17267555 0.24716999 0.15053627
000030 4e f4 34 3d 4c c6 3a 3e 3c d2 e7 ba 25 b3 cf bd
       0.0441783 0.18239707 -0.0017686556 -0.10141591
000040 c5 a1 26 3d ce 34 1c be 3e 0a 55 be 8c 76 2f be
       0.04068162 -0.15254518 -0.20804688 -0.17135066
000050 50 3a b8 3d f0 69 14 be d4 a7 ce 3b cd 37 31 3d
       0.08995497 -0.14493537 0.0063066278 0.043266106
000060 b9 21 59 be a8 49 14 3d 12 9e 8b 3e f0 96 3c be
       -0.2120427 0.036203057 0.27269036 -0.18416953
000070 4a bc a6 be 05 51 ed bd b9 f6 03 3e 90 b3 15 bd
       -0.32565528 -0.11587719 0.12887086 -0.036548197
000080 37 fe 9c bd 52 a1 60 bd 70 fd 4e 3e 28 e5 b2 bd
       -0.07665675 -0.054841347 0.20213866 -0.08735114
000090 eb a7 03 3e b8 6d 27 be 98 c1 da 3d 3b ea d5 3d
       0.12857024 -0.16350448 0.10681456 0.104450665
0000a0 69 26 55 be 52 3b 3d bd 61 0d 8e bb d0 c7 d6 3d
       -0.20815434 -0.04619915 -0.004335091 0.1048733
0000b0 0a 8a 98 bd 0a 16 e5 3e ce d8 bf 3d 96 75 b2 3c
       -0.07448204 0.44743377 0.09367524 0.021784585
0000c0 54 03 43 be 1a 22 12 3e
       -0.19044238 0.14270821

linears.3.weight f4 [50, 50]
000000 9b 92 6b be 7a 73 08 3d 04 be 02 3c 3f ea 21 be
       -0.23005144 0.033313252 0.007979874 -0.15812014
000010 83 49 f2 3c f9 6b 6c 3d ef a1 26 3d b6 c5 07 3e
       0.029576069 0.05772016 0.040681776 0.13259014
000020 bb 46 22 3e f8 94 3d 3d 47 e5 d2 3c af d3 cb bc
       0.15847294 0.046284646 0.025744094 -0.024881212
000030 5b ce 0d 3d 46 10 7c 3d 5c 3f 25 3e b6 4d dc 3d
       0.034620624 0.061538957 0.16137451 0.1075701
000040 e4 f2 5b be 76 6d 29 be fb ff 5f 3e ec 78 54 3d
       -0.21479374 -0.16545662 0.21874993 0.051873133
000050 b4 27 eb 3d d1 73 07 3e 9a 85 a5 bd b4 d8 00 be
       0.11482182 0.13227774 -0.08082123 -0.12582666
000060 23 88 29 3e 05 0f 8d be 87 8b e1 bd 11 57 03 bd
       0.16555838 -0.27550521 -0.11012941 -0.032065455
000070 84 8b 0e 3d 41 08 d6 3d 2c 9b 1f bc 45 e7 4e bd
       0.03480102 0.10450793 -0.009741586 -0.050513525
000080 dd c4 2f bd 94 87 f3 3d fc e9 a9 3e 2f 23 3b be
       -0.042912353 0.11891094 0.33186328 -0.1827514
000090 f5 b9 30 be 3b 29 1e 3e 1f 30 50 be 25 b8 c4 3d
       -0.17258437 0.15445416 -0.20330857 0.09605435
0000a0 58 d5 a9 3c 2c 69 d7 bd 94 b0 24 3d 89 f8 90 bd
       0.020731613 -0.10518107 0.04020746 -0.07078654
0000b0 77 bc 0c 3e 07 e9 89 be d6 ec 50 bd e0 ff 08 be
       0.13743769 -0.26935598 -0.051007114 -0.13378859
0000c0 d0 2b 1f 3e 49 3b 24 be 4d a4 c3 bd 50 e1 59 3d
       0.15544057 -0.1603824 -0.09552822 0.05319339
0000d0 3b c6 4a bd 25 d5 e3 3c 3e 32 f8 bc 99 cd d9 3d
       -0.049505454 0.027811596 -0.030297395 0.10634918
0000e0 3a 5c 46 3e 2e 96 9c 3e 7a b1 32 bd f0 a0 c1 3d
       0.19371119 0.30583328 -0.043626286 0.094545245
0000f0 2f 1c b3 3d dc ed b0 be 21 66 d8 bd 88 50 da bd
       0.0874561 -0.34556472 -0.105663545 -0.10659891
000100 54 23 2b be 34 60 64 3d 6c 00 e1 3d d6 20 82 3d
       -0.16712695 0.05575581 0.109864086 0.06353919
000110 cf dd 1b bd 74 0e 72 3e 08 e7 4b 3d 02 01 41 bd
       -0.03805333 0.23638326 0.049780875 -0.0471201
000120 09 3d a6 3d 5a a6 b5 3d 4c 45 43 3e 70 8a dc bc
       0.0811711 0.0886962 0.19069403 -0.02692148
000130 39 f5 7c 3d 42 ed 6e bd 88 e9 50 3d 2c 1f 39 be
       0.0617573 -0.058331735 0.051003963 -0.18078297
000140 d6 82 91 3d 10 2d 0b bb 15 d5 a3 bd 65 de b3 3d
       0.07105033 -0.0021236576 -0.079996265 0.08782653
000150 6f a8 05 3e 4c 0a 12 be 6c c4 21 3e f8 c2 49 3e
       0.13052534 -0.1426174 0.15797585 0.19703281
000160 8f d7 17 3e 5e cc 37 3e 2f 1b 9f 3d 7d 99 a3 3e
       0.14828323 0.17949054 0.07768857 0.3195304
000170 80 3b 85 be 39 c0 1a be 80 84 9a bd cd 10 31 3e
       -0.26021957 -0.1511239 -0.075448036 0.17291565
000180 1c 52 ab be b4 60 a3 bd a2 65 a4 3d 95 42 69 3e
       -0.33461082 -0.07977429 0.080271974 0.22779305
000190 62 d4 80 bd 6a c5 82 be 4b 3f ca 3d 06 53 80 3e
       -0.06290509 -0.2554124 0.098753534 0.25063342
0001a0 38 50 57 3e 6b 23 54 be 81 12 11 3c ba b9 2b be
       0.21026695 -0.20716636 0.008854509 -0.16770068
0001b0 c7 87 13 3e 69 ed 61 bd ce b9 15 be fa f8 62 3e
       0.14407264 -0.055158053 -0.1462166 0.2216529
0001c0 96 76 b6 bd b1 9d dc bd e0 55 7e be 89 15 30 bd
       -0.08909337 -0.10772265 -0.24837446 -0.042989288
0001d0 17 aa 1d 3e 1c 95 f3 bd 87 ac 5f 3c a0 24 85 bd
       0.15396915 -0.11893675 0.013651974 -0.06501126
0001e0 26 82 cd be 0e f9 40 3e 61 d1 f8 bd 76 e4 7c 3d
       -0.40138358 0.18845007 -0.12149311 0.061741315
0001f0 94 16 8f bd c9 28 29 3e b2 d9 cb 3d 6f 9e 18 be
       -0.06986728 0.16519465 0.099536315 -0.14904188
000200 ea fe e4 3b 28 65 15 be 8b 9e 29 3e d6 8f 9d bd
       0.006988396 -0.1458937 0.16564386 -0.0769345
000210 37 b5 64 be cd ff 9a 3d eb 72 fc bd 34 78 0c 3e
       -0.22334753 0.075683214 -0.12326606 0.13717729
000220 c6 ba 39 ba d4 4c f5 3c 83 1f 20 3e 8c 24 42 be
       -0.00070850214 0.029943861 0.15637021 -0.18959254
000230 32 f4 ac bc 96 4e 3a be 35 34 82 3e f4 42 04 3e
       -0.021112535 -0.1819404 0.25430456 0.12916166
000240 3d b7 7c 3e e7 47 18 bd 7c ce 3e 3d 41 ef 86 3d
       0.24679275 -0.037177946 0.046583638 0.06588603
000250 99 5d 66 3b bf 5a ca 3d 4c 5e d3 be 39 7a be 3e
       0.0035151003 0.0988059 -0.4128288 0.37202623
000260 62 a2 5c bd 03 a0 28 3e 07 6c 7e 3d 12 87 bb 3e
       -0.053865798 0.1646729 0.06211474 0.36626488
000270 38 ce d9 bd 38 b2 08 3f b8 bb aa be b8 19 fe bc
       -0.10635036 0.5339694 -0.33346343 -0.031018123
000280 6f 3c d5 3c c6 ad 6c bd e3 8f 89 3e 08 93 8d 3d
       0.026029794 -0.05778291 0.2686759 0.069128096
000290 c0 6f d4 3e 42 5a 0a 3e ea 5a 5f be 5f a8 a7 be
       0.41491508 0.13510993 -0.21812025 -0.32745644
0002a0 1b d5 85 bd 1f 79 3d 3e 89 7f b6 3d 71 59 8c bd
       -0.06534787 0.18503235 0.08911044 -0.06852997
0002b0 8a 50 b7 bd b7 01 19 3e 08 81 49 3e 00 fb 83 be
       -0.089509085 0.1494206 0.19678128 -0.25777435
0002c0 db 5c be bd 75 3f 87 3d d9 6d d2 3e e8 04 cb 3d
       -0.092950545 0.066039 0.41099432 0.09913045
0002d0 a9 94 7c be 0d ba 75 be 00 bf 13 3e 18 bd 1c be
       -0.24666084 -0.23996754 0.1442833 -0.15306509
0002e0 5a e6 90 3e cc b8 2c 3d 8b 71 92 be c2 13 b3 3e
       0.28300744 0.042168424 -0.2860225 0.34976012
0002f0 02 f3 c4 3c 5d 2c 5d 3e 79 eb 05 3e 74 d9 c5 3d
       0.024041656 0.21598954 0.13078107 0.096606165
000300 36 31 45 3e b1 44 d6 3e fa ba 9f bd 0e 13 d8 be
       0.19257054 0.41849282 -0.07799335 -0.42202038
000310 6b 05 8c bb ad b8 8e be b5 69 8c 3e 92 c1 d3 be
       -0.004273107 -0.2787527 0.27424398 -0.4135862
000320 e3 66 12 3e f3 4e e5 3d d1 c1 8f be 9e cc 1a 3e
       0.1429706 0.11196699 -0.28077558 0.15117118
000330 ee 04 2b be f6 99 1a be d8 2f 6f bc 14 37 cf bd
       -0.167011 -0.15097794 -0.014598809 -0.10117927
000340 15 07 f7 bd 87 d9 51 bd 56 b7 df bd ed 7a b3 bc
       -0.12061898 -0.05123284 -0.109236404 -0.021909202
000350 fe c7 43 bd 2b 80 06 be 50 12 c7 3d 73 0c 91 3c
       -0.04779815 -0.1313483 0.0972029 0.017706132
000360 eb ce 50 be 24 3c 0e 3e 8a b1 9f be 1a 4d 01 bc
       -0.20391433 0.1389013 -0.3119014 -0.007891918
000370 62 58 32 bd 98 4c 7a 3c bf 1b a7 bc ea 54 a7 bd
       -0.04354132 0.01527705 -0.020398973 -0.08170493
000380 5b 6b 4f be bb 09 ad 3d 78 93 8e 3e 69 16 82 bd
       -0.20255797 0.084491216 0.27846885 -0.06351931
000390 7e 36 8a bd 6c fa 8d be 8a e4 31 3e db bf a3 3b
       -0.06748675 -0.2773012 0.17372337 0.004997236
0003a0 c6 40 d0 3c f6 e4 9f be 62 15 17 be e8 b9 c2 3d
       0.025421511 -0.3122937 -0.1475425 0.09508115
0003b0 62 21 6c 3e 0c 11 1a be f9 f0 92 3d bd aa 08 be
       0.2305961 -0.15045565 0.07174868 -0.13346381
0003c0 0a 8a b6 3d 8b c3 2d bc 73 ca 78 3c 72 63 08 be
       0.089130476 -0.010605703 0.015184986 -0.13319185
0003d0 d4 ff 0d 3e 59 f4 dc bc 88 c4 55 3d f5 c7 33 3e
       0.13867122 -0.026971983 0.05218938 0.17556746
0003e0 7d 35 19 3d c1 83 07 3d 52 b4 fe 3d 1a 5d 42 3e
       0.037404526 0.033084635 0.12436737 0.18980828
0003f0 cf 61 be bc 46 20 c0 3d 14 96 87 be aa 7f 1f 3d
       -0.023239998 0.09381156 -0.26481688 0.03894011

linears.3.bias f4 [50]
000000 c6 3a db 3d 10 95 c3 3d 86 52 da bd c1 d3 f8 bd
       0.107045695 0.09549916 -0.10660271 -0.12149764
000010 eb 51 9d 3d a3 98 15 3e 51 ea 81 bd 1f bd e6 3d
       0.0768164 0.14609008 -0.063435204 0.11266541
000020 da bc 8a be f2 b1 d2 bd e4 54 0e 3e b1 19 4b 3c
       -0.27097207 -0.102878466 0.1389957 0.012396262
000030 1b 0f fb 3a 8a 69 02 be 72 1a e4 bd 06 66 00 be
       0.0019154282 -0.12735572 -0.111378565 -0.12538919
000040 f8 1e 2e be 87 5d a1 3d e4 a4 8b 3d 15 d6 1e be
       -0.17004001 0.07879167 0.0681856 -0.15511353
000050 7d 3b a4 3d 30 80 b0 bd 9f 17 e3 bc 38 4b c4 bd
       0.08019159 -0.086182 -0.027721224 -0.09584659
000060 76 82 bb 35 34 4b 72 3c a7 9f e5 bd e0 89 b9 3d
       1.3970555e-06 0.014788438 -0.11212092 0.09059501
000070 44 66 91 be 27 60 0b be a0 16 05 3c 9d 9a 48 3e
       -0.28398335 -0.13610898 0.00812307 0.1959023
000080 c0 4f 83 3e 03 ce 68 3d 7a 48 52 bd 1d f0 8f 3d
       0.25646782 0.056837093 -0.05133865 0.0702822
000090 6b 2e b6 bb a7 48 02 3e 4e eb a6 b9 a5 b5 86 3d
       -0.0055597327 0.12723027 -0.00031837303 0.06577615
0000a0 38 c8 0c be 76 35 30 be 4c 56 87 3e 47 5a 16 3e
       -0.13748252 -0.17207894 0.26433027 0.14682876
0000b0 d6 9e be bb b7 e6 94 bc 80 12 38 3b 0b 8c ae bd
       -0.0058172746 -0.01817642 0.0028087199 -0.08522805
0000c0 1a 4a 52 3e 4a e4 83 3e
       0.2053608 0.25760108

linears.4.weight f4 [50, 50]
000000 5e da 76 3d 89 24 ca bd c3 9d 9d 3d 57 e2 2c 3e
       0.060266845 -0.0987025 0.07696106 0.16883217
000010 1c 65 cf 3d 5b a9 c4 bd f9 fc ab bd 92 ef a8 be
       0.10126707 -0.096026145 -0.0839786 -0.32995278
000020 4a 52 89 bd 42 59 9c bd b1 0d 5f 3d 9d cc 3d 3e
       -0.067051485 -0.07634212 0.054456417 0.18535085
000030 56 51 ae bd f8 d1 13 bd cd 59 40 be 97 ce f9 bd
       -0.08511607 -0.036088914 -0.18784256 -0.12197607
000040 7d 8d 5d 3d 1d 6a 7b bd cf 13 cd bd 97 0c b6 3e
       0.054090012 -0.061380494 -0.10013544 0.3555648
000050 1e 59 20 be 55 f9 d5 3d 63 21 6c bd d5 f4 08 3d
       -0.15658996 0.10447947 -0.057649028 0.033436615
000060 ac fb 08 be c4 ac 55 ba 1f 5b 19 be 26 9f b2 bc
       -0.13377255 -0.0008151049 -0.14976166 -0.021804404
000070 39 1c 04 3e b6 61 49 3e 29 70 e9 bd 2d c2 8a be
       0.12901391 0.1966618 -0.11398346 -0.2710127
000080 2d cc 73 3e 02 d2 77 3e 4f fc 70 3d 92 54 87 be
       0.23808356 0.24201205 0.05883437 -0.2643171
000090 82 36 c0 be e7 7b 20 3e bd c7 ce 3d 43 5d 0d 3d
       -0.37541586 0.15672265 0.10096691 0.03451277
0000a0 07 48 3f 3d 70 dd 8e 3d 1a b3 42 be 37 36 e6 3d
       0.04669955 0.069758296 -0.19013634 0.112408094
0000b0 bb e1 31 be 67 d3 d4 bd 03 f4 6c be 57 96 50 37
       -0.17371266 -0.10391884 -0.23139958 1.243277e-05
0000c0 78 5b 49 bd 54 bd 8e 3d fe c1 b1 3e 3a a7 2b bd
       -0.049159497 0.06969705 0.34718317 -0.041907527
0000d0 f7 8c d4 bd 28 ba 22 3e d3 93 91 ba fb 39 8d 3e
       -0.103784494 0.15891325 -0.0011106677 0.27583298
0000e0 1e 28 52 3d 25 d2 d3 bd ec 09 31 3e a9 aa 23 3e
       0.05130779 -0.10342816 0.17288941 0.1598307
0000f0 42 23 8e be 30 b1 bf 3d c3 dc 79 3d 1a ac 08 be
       -0.27761275 0.09359968 0.06100155 -0.13346902
000100 a9 79 b5 3d e5 20 5d be 2c 6a 03 bd 9c e7 bf 3d
       0.088610955 -0.2159458 -0.032083675 0.09370348
000110 9c 78 6c bd 67 8f fd bd 6f a5 3d be 0e 37 28 3c
       -0.05773221 -0.123808675 -0.18520139 0.010267032
000120 02 76 86 3c 05 f3 94 3d f0 24 9c 3d 6c 93 04 3e
       0.016413692 0.07272915 0.07624233 0.12946862
000130 cb ae 1a bd f6 b3 db bd 91 ec 88 3d cd b4 82 bd
       -0.03776435 -0.10727684 0.066857465 -0.06382141
000140 f9 ba 97 3d b6 ea ab 3c 22 33 0f bd 79 95 04 bd
       0.07408709 0.020985942 -0.034960873 -0.03236911
000150 b3 59 85 be e3 a0 0a 3f ad c9 01 be e6 bb af 39
       -0.26044998 0.54151744 -0.1267459 0.00033518596
000160 05 7c 83 be 39 84 a1 3d 5f c1 85 bd c9 0e 9b 3c
       -0.25680557 0.078865476 -0.06531023 0.018927949
000170 c3 a8 1d bd a6 eb c1 bd 04 2d fd bd f0 1c 34 bd
       -0.03849102 -0.094687745 -0.12362102 -0.04397291
000180 d8 3e 9f 3d 7e f8 7f 3c 28 85 8d 3d c2 a4 b8 3b
       0.07775658 0.01562321 0.06910163 0.005634875
000190 5b db 11 bb 8c 04 dc bd f2 f4 8d 3a 34 b8 af 3d
       -0.002225599 -0.10743055 0.0010830446 0.08580056
0001a0 9d a0 2c 3b 87 0d cc 3e 4a 56 cb bd a1 65 c2 bd
       0.002634085 0.3985407 -0.09928568 -0.094920404
0001b0 a4 aa af 3e 17 49 e3 3d eb b8 79 3d 2d 54 10 be
       0.34309876 0.11097925 0.060967367 -0.1409461
0001c0 d0 81 23 3d cd 78 2d bc e5 5a df 3c 4f ea 77 bd
       0.03991872 -0.010587883 0.027265022 -0.06052619
0001d0 f1 e7 19 3e b6 58 75 3d 6f 1a 9d 3d e1 7a 42 be
       0.15029885 0.059899054 0.076710574 -0.18992187
0001e0 b8 70 a8 bd 21 63 46 be fb da 65 be 5a fd a3 3d
       -0.082246244 -0.19373752 -0.22446816 0.08007307
0001f0 69 7a f3 3d fa ef 88 bd 86 58 e7 3c b5 92 cd 3d
       0.11888582 -0.06686397 0.028240453 0.10037748
000200 5b b1 e6 3d 8e fb 3f be af db e6 bd f8 40 72 3c
       0.112642966 -0.18748304 -0.1127237 0.014785998
000210 6a 00 3d be 06 43 f5 3d ed 08 4c 3d 58 2b 53 3e
       -0.18457189 0.11975674 0.0498132 0.20622003
000220 b9 70 90 bd 3b 7a 29 be 01 65 38 3d c2 b0 c6 bc
       -0.0705275 -0.16550533 0.0450182 -0.024254207
000230 ee 95 1a be 7a ea e3 3e 0d bd cd 3c 52 fa 02 be
       -0.15096256 0.4451483 0.02511456 -0.12790802
000240 aa 0c 85 3e 06 13 b9 3d c8 10 0a 3d 51 52 f8 3d
       0.25986224 0.090368316 0.03370741 0.121250756
000250 1b 02 17 3d 62 55 d9 bd 46 42 98 bd d5 09 8e bd
       0.036867242 -0.106119886 -0.07434516 -0.06935469
000260 5b 98 8e 3c 3a f1 cc bd 8f 1a 0b 3e 0b 33 ad bd
       0.017406633 -0.10006948 0.1358435 -0.08457001
000270 77 cb 47 be 66 c5 1d bd 2b d5 f9 3d d0 b0 27 3d
       -0.1951121 -0.038518332 0.12198862 0.040940106
000280 d6 67 10 3e 95 76 e1 bd c7 18 ec 3d 95 16 b3 3e
       0.1410211 -0.11008946 0.115281634 0.34978166
000290 ec 04 28 be b2 e5 72 3d 52 e4 c6 bb f5 ca 5e 3c
       -0.16408128 0.059301086 -0.0060696984 0.013598193
0002a0 45 73 a4 be 70 3d 97 3e 92 49 f2 3d e9 1d 7b 3c
       -0.32119194 0.2953906 0.11830439 0.015326955
0002b0 60 a3 93 3c 02 71 c3 3d c0 5b 08 3d e6 b0 2d 3e
       0.01802224 0.09543039 0.033290625 0.16962013
0002c0 eb b2 6c 3e be 16 a8 bc 04 61 c1 3d 9e ca 41 be
       0.23115127 -0.020518657 0.094423324 -0.18924949
0002d0 7b 8a 50 3d 8c 68 dd 3c ce b0 56 bc b5 ef 20 3e
       0.050913315 0.02702739 -0.013103677 0.15716441
0002e0 23 12 3c be 8b 2b 61 3e 5f 77 a1 be 0f 38 31 3d
       -0.18366294 0.21989267 -0.31536385 0.043266352
0002f0 6b df e0 3d 46 fc 1d be ca 20 f2 bc 55 be fa 3c
       0.109801136 -0.15428266 -0.02955665 0.030608336
000300 a5 d3 95 bd f9 56 38 3d fd d7 38 be 57 03 3f 3e
       -0.073157586 0.04500482 -0.18051143 0.18653618
000310 f8 e9 a5 3e e5 47 80 3e 1a fe 85 bc 47 50 97 be
       0.32405066 0.2505485 -0.016356517 -0.29553434
000320 84 60 16 3e b5 1a 4f be 56 28 2d bc 73 2a 5f 3e
       0.14685255 -0.20225032 -0.010568699 0.21793537
000330 6d d2 4a be ff 35 d0 bd 17 8d 7b be 50 f9 4a 3e
       -0.19806834 -0.10166549 -0.2456554 0.19821668
000340 26 d9 83 3e ba 01 fb 3d d1 34 70 bd 4c 64 41 be
       0.2575161 0.12256189 -0.05864412 -0.18885916
000350 13 64 63 3e 17 84 60 3e 5a 06 ea bb b8 da e9 bc
       0.22206144 0.21925388 -0.0071418704 -0.028546676
000360 0f 37 78 bd 73 00 cb 3d 31 bc bd 3e 9f b0 9a be
       -0.060599383 0.09912195 0.3705764 -0.30212876
000370 ce 1b b2 bd e4 d8 71 be d9 15 e6 3d 05 29 36 be
       -0.086967096 -0.23617893 0.11234636 -0.17789085
000380 ed 79 5c bd d4 5f 92 3e fc 55 5a 3e 1b ee 98 3d
       -0.053827215 0.28588736 0.21321863 0.0746729
000390 6a e0 e5 3e 2c 69 cf 3e 26 79 7a 3e a4 8f f5 3d
       0.44897777 0.40509927 0.24460277 0.11990288
0003a0 ca ae 5d bd 9d f2 c4 bd b2 6e e8 3c fa a7 7c 3e
       -0.05412177 -0.09616587 0.028373096 0.24673453
0003b0 80 06 db be c4 f0 40 bd da cf 12 bf d6 36 b3 be
       -0.42778397 -0.047104612 -0.57348406 -0.35002774
0003c0 92 aa b5 bd 14 d6 f5 3e eb de c2 bd 1d dd ad bd
       -0.08870424 0.4801489 -0.095151745 -0.0848944
0003d0 fa 79 82 bd e6 a0 60 3d a9 d9 a0 bd d5 e8 ae 3d
       -0.063709214 0.054840945 -0.078540154 0.08540503
0003e0 af 1d dd 3b 06 e9 c5 be 1c 31 9d 3d c1 7e dd bc
       0.0067479233 -0.38654345 0.076753825 -0.02703798
0003f0 19 c2 81 bc 8d 78 56 be 4d db 8c bd fa d6 df 3d
       -0.015839623 -0.20944424 -0.06877766 0.109296754

linears.4.bias f4 [50]
000000 a5 5a 21 bd 23 59 77 bc 91 f9 d5 3b 3e c6 83 3d
       -0.039393086 -0.015096935 0.006529995 0.06434296
000010 71 2e 00 be eb c5 11 bd 87 89 1d be 52 40 d8 bc
       -0.12517716 -0.03558914 -0.15384494 -0.026397858
000020 55 be ae bc 71 1e 10 bd 09 96 5e 3c 85 c4 00 bd
       -0.021330992 -0.03518528 0.013585576 -0.031437416
000030 84 f1 b3 bb b0 e1 b0 bd 3b a3 80 bd 2c a5 d4 3d
       -0.0054914374 -0.086367965 -0.06281134 0.103830665
000040 5f b2 09 bd 66 50 a0 bd 5b 48 a4 bd 3b 65 de bc
       -0.033617374 -0.07827835 -0.08021613 -0.02714788
000050 b2 bf 29 3e 1f 8e 50 3e a3 14 90 bd 27 40 dd 3d
       0.16577032 0.20366715 -0.07035186 0.10803252
000060 a6 5c 0a 3d 34 fd 6b 3d 8c a5 ce be 03 3e 95 3d
       0.033779763 0.05761452 -0.40360677 0.072872184
000070 f5 19 2e be 6f b7 58 3e 98 f3 55 3d 6a 1f 47 bd
       -0.1700209 0.21163724 0.052234262 -0.048613943
000080 90 c0 4c 3e 6d f0 fe bc 41 60 1a 3e 13 20 c1 bd
       0.19995332 -0.031120503 0.1507578 -0.09429946
000090 d1 68 98 3d 47 af 8f 3d 55 d0 14 be 71 94 d6 3d
       0.07441867 0.070158534 -0.14532597 0.10477532
0000a0 af db 2b bd 01 c5 d1 3d 98 64 43 3c a0 70 ee bd
       -0.041957553 0.10242654 0.011925839 -0.11642575
0000b0 19 23 a2 39 94 5c 65 3b a6 9a 95 3d 87 81 1f be
       0.00030925198 0.0034997808 0.073048875 -0.15576755
0000c0 45 4d 6b bd 50 4b 8f bd
       -0.057446737 -0.069967866

linears.5.weight f4 [50, 50]
000000 d1 07 f8 3d 1d 03 1d be ff 48 09 bd bf d1 19 3e
       0.12110866 -0.15333219 -0.03351688 0.15021418
000010 04 a4 82 be 6d 40 97 bd f7 66 a2 be 66 9e 37 be
       -0.2551576 -0.07385335 -0.3171918 -0.17931518
000020 90 e5 01 3e de 59 05 3e 14 25 40 3e 59 8e 41 bd
       0.12685227 0.13022563 0.18764144 -0.047254894
000030 e1 d2 bf 3e f1 31 ae be a7 8c e6 be 5f 62 52 be
       0.37465575 -0.34022477 -0.45029184 -0.20545338
000040 da 45 2b bd bd ca 56 3e 5d a4 62 3d b2 5a f9 bb
       -0.041814663 0.20975776 0.05533253 -0.0076096887
000050 bd 64 f6 3d 9d 50 33 3e 62 a6 3f be 91 60 ae be
       0.12030933 0.1751122 -0.18715814 -0.3405805
000060 8b 6a 61 3e 12 0b 85 3c 11 9b 93 be 88 0e c3 3d
       0.22013299 0.01624063 -0.28829244 0.09524256
000070 50 20 d7 be a1 a6 d0 b9 56 df 3f 3d 08 e9 8f 3d
       -0.4201684 -0.00039797 0.04684385 0.07026869
000080 d3 39 25 be b8 b5 9b 3d 5c cc a5 3c 5c 3e 4e be
       -0.1613534 0.076030195 0.020239048 -0.20140976
000090 6b 32 13 be 12 9a fe 3d 6a 87 69 bd 97 e8 19 be
       -0.14374702 0.1243173 -0.057013907 -0.15030132
0000a0 74 27 d3 3c e9 e6 5c 3d 25 84 96 3d bb 77 e7 bd
       0.025775649 0.05393115 0.07349423 -0.11302134
0000b0 c7 5d 9b 3e 35 9d 82 bd bc b6 21 3e db dd 99 bc
       0.30344984 -0.06377641 0.15792364 -0.018782547
0000c0 79 83 8e be 74 9e 19 3e 32 af 0b be 1c d1 3c be
       -0.2783468 0.15001851 -0.1364105 -0.18439144
0000d0 93 60 44 3d 16 31 08 bd 91 a4 94 bd 87 a2 58 be
       0.047943663 -0.033249937 -0.07257951 -0.2115575
0000e0 e1 ae 1c be 8f cc a6 bc a0 bd 07 be 55 ef 93 bc
       -0.15301086 -0.020361213 -0.1325593 -0.018058458
0000f0 0c 31 f0 bb ea 62 45 bd e7 1d 3d bc ac 7a 47 be
       -0.0073300656 -0.048190035 -0.011542774 -0.1948039
000100 06 6e 1d be 9e b9 fd bd 55 a7 80 3e 49 fc 13 be
       -0.15374002 -0.12388919 0.25127664 -0.14451708
000110 38 a6 b8 bc 68 20 81 be 1e 95 af bc dc ed 48 3d
       -0.022540197 -0.25220037 -0.02143341 0.049054965
000120 93 d1 1b be 33 82 88 3d 3d cc 42 3e 33 a4 eb 3d
       -0.15216665 0.066654585 0.19023223 0.11505928
000130 c0 f9 62 3d 3d b9 1e 3d 1b eb 80 3c 7f 18 1e 3d
       0.05541396 0.038750876 0.015737107 0.03859758
000140 cb 26 98 be 95 65 6c be ef 47 73 bc 9c 5a 35 be
       -0.29717097 -0.23085625 -0.014848693 -0.17710346
000150 f4 97 cf bd 27 f7 de 3d 27 3d 5d 3e c9 9a 78 3a
       -0.10136405 0.10886984 0.21605359 0.0009483514
000160 6c c9 80 be ec 7c 18 be 62 11 ab bd 37 76 3b be
       -0.25153673 -0.14891404 -0.08352925 -0.18306814
000170 a7 c6 4e 3e 03 e4 8b be 40 9e 76 be 65 ad a9 3d
       0.20192967 -0.27322397 -0.24083805 0.082850255
000180 62 d8 aa bd 46 2d e8 bd cd 30 63 be f3 46 c1 3d
       -0.08342053 -0.1133676 -0.22186585 0.094373606
000190 74 49 34 be dc 3b e1 3d 78 a7 07 3e 85 aa 2d be
       -0.17606145 0.109977454 0.13247478 -0.1695958
0001a0 83 23 3e 3e 06 bb 17 3e fd 9b d2 3e bd 1c 37 3e
       0.18568234 0.14817438 0.41134635 0.17882057
0001b0 35 99 e0 3d 9e de 02 be 63 e8 81 be a4 28 d8 bc
       0.10966722 -0.12780234 -0.2537261 -0.026386566
0001c0 d7 e1 1e be f9 58 a6 bd 53 66 9e 3e b2 a4 1a 3d
       -0.15515839 -0.08122439 0.30937442 0.037754722
0001d0 bc ab 44 3c 30 1b 7a bd de 0a 00 3e ea 6a c9 bb
       0.012003835 -0.061061084 0.12504146 -0.0061467784
0001e0 32 cc c0 3d e1 d7 18 be 25 f1 a7 bd e5 8e 44 3e
       0.09413947 -0.14926101 -0.082002915 0.19195135
0001f0 1e 00 10 3c 77 1f 2f be 9a 74 e8 3e 2e 4b a6 be
       0.00878909 -0.17101847 0.4540146 -0.32479233
000200 0f 8a a5 3d fd c2 0b be 1d 69 32 bb 81 c6 80 bd
       0.08082973 -0.13648601 -0.0027223297 -0.062878616
000210 09 82 8f 3e b9 88 29 3e be ae 6a bd fc 79 6c be
       0.28028896 0.16556062 -0.057295553 -0.23093408
000220 3e 95 47 be bd 95 3d 3e a2 36 ca 3e 97 e6 e3 bd
       -0.19490525 0.18514152 0.39494807 -0.11127966
000230 20 bd 99 bd 9d 3c 65 3e 8b 9a 1c be 03 36 ef 3c
       -0.07506776 0.22386403 -0.15293328 0.02920056
000240 87 4c 00 be a8 de 8f bd 52 0b 98 bd 8b dc 61 be
       -0.12529193 -0.0702489 -0.07424034 -0.22056787
000250 e9 cf 23 3e 2b 1b 0c bd e8 73 05 3e f7 b6 1b 3d
       0.1599728 -0.034205597 0.13032496 0.038016286
000260 0f 0c 80 bc df 38 ee bd 9d 24 b9 bd 78 b6 11 bc
       -0.01563075 -0.11631941 -0.090401866 -0.008893602
000270 99 35 ea 3e 9e 81 6c 3e 3f 42 2e 3e f6 93 25 3e
       0.45744017 0.2309632 0.17017458 0.16169724
000280 5f 5a 1d 3d b6 bc 6e 3d 91 cf 4a be 64 04 35 3e
       0.038416263 0.058285438 -0.19805743 0.17677456
000290 ff 76 95 3d f7 52 4d 3e c9 a7 32 3e b6 e0 a6 bc
       0.07298087 0.2005118 0.17446817 -0.020370822
0002a0 20 73 e4 bc e5 a5 6b 3e 76 8d 8a be f3 bc a9 be
       -0.027886927 0.23012502 -0.2706105 -0.3315197
0002b0 66 32 9f 3c ea 91 30 bd eb 79 16 be e4 e9 3b bc
       0.019433212 -0.043107904 -0.14694946 -0.011469338
0002c0 d3 ec d9 3e d4 06 e6 3d da 93 0b 3f f1 76 44 be
       0.42563495 0.11231771 0.5452248 -0.19185998
0002d0 2f c4 b5 be 7a 92 44 3e 3f 36 a1 3c 54 b4 fe 3a
       -0.3550124 0.19196501 0.019679187 0.0019432404
0002e0 e7 06 e8 bc d3 4b c3 bd 17 5b 2b be cb 3f 93 bd
       -0.028323604 -0.09535947 -0.16733967 -0.07189902
0002f0 ab 07 03 be df 6a 33 be 5b 64 9f 3d 5e 3c 74 be
       -0.12795894 -0.17521237 0.07782813 -0.23851153
000300 0a de ad bd 1f be b7 bd c2 4e 66 bd 33 2b 14 3d
       -0.08489616 -0.089718096 -0.056227453 0.03617401
000310 34 33 32 bc 9c 33 62 3e b4 71 86 3d e7 c0 52 be
       -0.010876466 0.2209 0.06564656 -0.20581399
000320 aa 37 5c bd 3a f5 a9 bd 7f c1 a9 be 16 95 8d 3d
       -0.053764023 -0.082987264 -0.33155438 0.069132015
000330 5e be 62 bc e3 87 0f 3e f0 b0 c2 bd cd 42 eb bd
       -0.013839332 0.1401668 -0.095064044 -0.114873506
000340 70 81 92 3c be 0c 67 be 18 41 83 3d 1d 2f 87 3d
       0.017883986 -0.22563455 0.064089 0.06600783
000350 33 d3 87 3e c0 99 f9 3d 95 4f 51 3e 6e d6 02 be
       0.2652832 0.121875286 0.20440514 -0.12777111
000360 0a 88 58 be 2c 33 f9 3d 27 a4 2a bc 90 ff 3e 3e
       -0.21145645 0.121679634 -0.0104151135 0.18652177
000370 f9 94 a3 bd 81 b1 f4 3d bf a7 90 3c ff 0d a8 bd
       -0.07987399 0.11947919 0.017658113 -0.082057945
000380 29 d1 b6 3d f4 30 d5 3d 70 63 90 bd de 98 59 bd
       0.08926613 0.10409728 -0.07050216 -0.0531243
000390 d0 62 c7 be 8f ee 62 3e 37 17 d0 3c a3 df 4d 3d
       -0.38942575 0.22161315 0.025401695 0.050262105
0003a0 9f 6f 6a 3d 87 5b bf 3d bb bd e4 3d 7c 70 84 be
       0.057235356 0.09343629 0.11169001 -0.2586707
0003b0 fe fd a9 bb e9 5e 2d 3e 5f 3e 0d 3d 04 2d 48 bd
       -0.005187749 0.16930737 0.03448331 -0.048871055
0003c0 9c 69 e7 3d 05 b8 ac 3d 5c 26 6c bd 6f 12 f5 be
       0.1129944 0.084335364 -0.05765377 -0.47865626
0003d0 77 3d b2 bd 37 29 68 3e 0d 98 69 be 4e 24 d3 bc
       -0.0870313 0.22671972 -0.22811909 -0.025774147
0003e0 71 2d 35 be e6 90 2d bd 90 37 e8 3d 06 a8 5f 39
       -0.17693116 -0.042374514 0.11338723 0.00021329531
0003f0 e2 fd 50 be 34 da b3 3d b4 b1 68 be 09 5c 5c 3e
       -0.20409349 0.08781853 -0.22724038 0.21519484

linears.5.bias f4 [50]
000000 c4 c4 c7 bc 7e a6 73 3c af 29 a0 3d a8 26 6c be
       -0.024385817 0.014871238 0.078204505 -0.23061621
000010 93 90 9c 3d 8c 29 34 3d 7f f6 2a 3d a2 54 9e 3c
       0.07644763 0.043984935 0.041738983 0.019327465
000020 8f 15 cb 3d bf e3 1f be 19 bb c5 3d 50 67 44 bc
       0.09916221 -0.15614222 0.09654827 -0.011987522
000030 a1 74 0b be 4b a3 f8 bd 9f 37 1a bd ce f0 82 bc
       -0.13618709 -0.12140521 -0.0376507 -0.015983965
000040 6f ce 90 bd 48 c3 7f bd 0a 07 8a 3d eb f5 69 bd
       -0.07070624 -0.062442094 0.06739624 -0.05711929
000050 d1 8a 54 3d a2 12 b9 bd 24 e4 0d bd ca 50 f1 bc
       0.0518902 -0.09036757 -0.0346414 -0.029457469
000060 63 58 af bc f4 93 ef 3b 57 81 23 be 21 2c f6 3d
       -0.02140445 0.0073113386 -0.15967308 0.12020136
000070 d9 19 92 3d b3 de 43 3e 69 b6 05 3c bb ae 42 be
       0.07133836 0.19127922 0.008161166 -0.19011967
000080 05 28 1f bc 91 fe 0d 3e 0a a4 ff bc 9c dd c6 bb
       -0.009714131 0.1386664 -0.03120615 -0.0060688984
000090 c7 77 64 3c b0 fc 1e be 91 07 ad 3c b0 7c e5 bb
       0.013944573 -0.1552608 0.021121772 -0.0070033893
0000a0 c1 70 c3 3d 3b 23 90 3c 8f 50 71 bc d7 7b f8 3d
       0.095429905 0.017594924 -0.014728679 0.121329956
0000b0 df c6 8c bd ac 91 04 be b7 2b d5 3c 15 c2 d8 bc
       -0.06873869 -0.12946194 0.026021821 -0.026459733
0000c0 1e ca 72 3c d5 6f 3c bd
       0.014818696 -0.04600509
