Code/Regression/swish/Regr_disc_swish_medium_1.pt (torch, 35588 bytes, 10 tensors)

beta f4 [50, 4]
000000 81 9f 88 40 f4 9f 8b 40 f4 c0 86 40 df 91 12 40
       4.2694707 4.3632755 4.211054 2.2901533
000010 fb c6 b0 be d0 88 32 40 d8 07 2a 40 17 be 26 3e
       -0.3452681 2.7896004 2.6567287 0.16283451
000020 b3 f0 03 3f 28 82 e1 3f e9 e5 1a 40 0f cd 11 40
       0.5153915 1.7617846 2.4202826 2.2781408
000030 0a a9 b5 3e aa 47 61 3e 92 e9 27 40 c7 31 22 40
       0.3548053 0.21999994 2.623631 2.5342882
000040 f5 26 98 40 eb 49 95 40 46 4d cd 3f d2 a8 8d 40
       4.7547555 4.665273 1.6039207 4.426858
000050 c5 c4 89 3f bd 64 60 40 03 e2 e5 3f c9 5e 24 40
       1.0763174 3.5061486 1.7959598 2.5682852
000060 50 a9 78 40 09 3d 43 40 dc 11 14 40 2a 88 8f 40
       3.885334 3.0506003 2.31359 4.4853716
000070 11 84 7e 40 df 83 05 40 ae 90 28 c0 98 b6 78 bf
       3.9768107 2.0861738 -2.6338305 -0.97153616
000080 66 e5 3e bf 42 c2 28 40 ac bb 19 c0 8f fc 9a 40
       -0.74568784 2.6368566 -2.4020796 4.84333
000090 aa b3 2a 40 df da 7b 40 69 4d 47 40 74 65 91 40
       2.6672158 3.9352338 3.1140997 4.5436344
0000a0 2a 2a d5 3f 55 30 7b 3f 19 fe 84 3f e7 91 91 40
       1.6653492 0.98120624 1.0390044 4.5490603
0000b0 46 c1 88 40 9d 68 41 40 9e 51 80 40 a8 b6 7b 3f
       4.273593 3.02201 4.009963 0.98325586
0000c0 c1 75 95 40 c3 41 f4 3f 1a 98 04 40 1a fd 17 40
       4.6706243 1.9082569 2.0717835 2.374823
0000d0 0e fa a5 40 c9 62 9a 40 f8 9a 25 40 0a f0 03 c0
       5.1867743 4.8245587 2.5875835 -2.0615258
0000e0 b5 46 fe 3e 55 0f 8d 40 85 d2 3f 40 3b c3 49 40
       0.4966332 4.4081216 2.997224 3.152541
0000f0 4a 92 8d 40 ad fd f6 3f ac 46 21 40 da 4e cd 40
       4.4241076 1.9296166 2.5199385 6.4158754
000100 85 a1 87 40 b9 2c 20 40 1c 06 7b 40 dd b3 07 bf
       4.2384667 2.5027297 3.922248 -0.53008825
000110 61 51 c9 bf d5 bc 73 40 9f 0a f7 3f 3c 5a e4 3f
       -1.572796 3.8084004 1.9300116 1.7840037
000120 e3 e7 31 40 8c b7 2c 40 58 ca 93 40 84 6f 7d c0
       2.7797782 2.6987028 4.61845 -3.9599314
000130 c9 41 79 bf a6 56 54 3f f9 32 95 40 e6 8f 9e 40
       -0.97366005 0.82944715 4.6624722 4.9550657
000140 8c 33 3f 3f 57 39 2e 40 a8 fc 84 c0 07 03 d6 3f
       0.7468803 2.7222497 -4.155842 1.6719674
000150 59 d8 82 c0 f6 0e 03 40 d8 ac 20 40 90 8a 16 40
       -4.0889096 2.0477881 2.5105495 2.3522072
000160 55 6c 5b 40 57 3b 13 40 81 6c 80 40 e1 4a b4 40
       3.428487 2.3004968 4.013245 5.6341405
000170 d1 a6 d4 3f c2 31 ff 3f 63 cd 1e 40 9e ec 8b 40
       1.6613408 1.993706 2.4812858 4.372634
000180 e1 5c 4f 3f 6d be 2a 40 64 b3 47 3f a2 75 3c 40
       0.81001097 2.6678727 0.78008103 2.9446797
000190 79 60 17 bf 25 47 4f 40 89 f8 66 40 cf 3e 7e 3e
       -0.5913158 3.2387173 3.6089194 0.24828647
0001a0 8d 51 81 40 51 7d 48 40 0c 5d f2 3f a4 cd 40 c0
       4.041205 3.1326487 1.8934646 -3.0125513
0001b0 7b ee e6 40 c6 5e fe 3f 24 d1 84 40 0b a8 66 40
       7.2166114 1.9872673 4.15053 3.6040065
0001c0 13 c9 1a 40 6b ca 47 40 38 0c a1 3f 4f 77 40 40
       2.4185226 3.1217296 1.2581854 3.007282
0001d0 8f 52 05 be 22 5c 8e 40 ba da 85 40 b1 68 5b 3f
       -0.13019775 4.4487467 4.18295 0.8570662
0001e0 af 01 55 40 f1 ec 3b 40 50 c8 32 40 0d 34 12 c0
       3.3282278 2.9363368 2.793476 -2.284427
0001f0 75 15 f4 bf c4 b5 15 c0 5a 6c 1e 40 16 54 49 40
       -1.9069048 -2.339219 2.4753633 3.1457572
000200 d4 e4 0d 40 9a d3 27 c0 54 0f 6e 3f 1c 01 61 40
       2.2170916 -2.6222901 0.9299214 3.5156927
000210 04 f5 80 40 f7 cc 99 40 c5 b6 51 3f 77 9d 4e c0
       4.029909 4.80627 0.8191951 -3.228361
000220 09 91 f0 bf 3b 5e 2c 3f f5 5e 84 40 a6 41 1a c0
       -1.8794261 0.67331284 4.1365914 -2.4102569
000230 f7 ed 67 40 56 6a 7b 3f 76 08 59 40 2d 30 01 3f
       3.6238992 0.9820913 3.3911414 0.50464135
000240 7e a1 60 40 d9 be 2d 3f aa b5 20 40 d6 17 55 40
       3.5098567 0.67869335 2.511088 3.3295798
000250 83 6f 1b 3f 72 59 03 c0 43 45 4c 40 9b 9c f5 3f
       0.6071703 -2.0523343 3.1917274 1.9188417
000260 ec 93 b9 be 04 2f 23 40 3b 80 f2 3f 33 bc fc 3f
       -0.36245668 2.5497446 1.8945383 1.9744934
000270 71 64 77 40 e0 40 2f c0 1e 02 18 c0 c7 ef 17 c0
       3.8655055 -2.7383347 -2.3751292 -2.3740098
000280 e9 d7 8c bf 88 fd 53 40 b7 51 05 40 a2 b3 86 40
       -1.100339 3.3123493 2.0831125 4.209428
000290 a0 1a 5c 40 5f 0c 40 40 b2 20 02 40 a3 c4 16 40
       3.439125 3.000755 2.0332456 2.3557518
0002a0 f6 08 06 40 ad ab 6c 40 a6 ae 85 40 8f 73 11 3f
       2.094297 3.6979783 4.1775694 0.56816953
0002b0 c0 b6 3a 3f 22 26 94 40 75 51 65 40 2c fb d7 3d
       0.72935104 4.629655 3.5830967 0.10545954
0002c0 e8 f4 24 40 a4 2d 4f c0 37 9b 51 40 b1 32 4c 40
       2.577448 -3.2371607 3.2750986 3.190594
0002d0 7b 2d 86 40 50 83 ef 3f 30 f8 3c 40 5c a9 a3 40
       4.193052 1.8711948 2.9526482 5.1144238
0002e0 b7 27 c2 bf 60 6d 21 40 fd e2 5a 3f bc 25 b1 3f
       -1.516837 2.5223007 0.85502607 1.3839641
0002f0 4d 23 2e bf 2e c7 ca 40 aa a4 f5 3f db 81 76 40
       -0.68022615 6.336814 1.9190876 3.8516757
000300 50 90 ae bf 9a 94 32 40 0f cc 4a c0 f8 b8 2a 40
       -1.3637791 2.79032 -3.1687047 2.6675396
000310 32 91 a0 40 6a 34 0f 40 1d 5a 19 c0 2a 54 23 40
       5.017724 2.237574 -2.396125 2.552012

linears.0.weight f4 [50, 1]
000000 9a 54 bd 3f 29 21 e7 3f 96 90 12 bf 8b 38 c8 3e
       1.4791443 1.8056995 -0.5725187 0.3910564
000010 cd 87 3b bf 18 e2 e6 3f 03 71 33 bd cf 9a 70 3d
       -0.7325409 1.8037748 -0.04380895 0.058741387
000020 e5 f0 3a 3f 30 7d 9e bf 7c ed 19 c0 ee 0e b8 3e
       0.73023826 -1.2381954 -2.40512 0.3594889
000030 d3 18 0d 3f 53 d8 b2 bf 43 52 c8 3f 5c 34 85 3f
       0.55116004 -1.3972267 1.5650104 1.0406604
000040 2e dd 15 be 7d 74 44 3e f5 d0 cd bf 12 0f cd 3f
       -0.14635155 0.19185062 -1.6079394 1.6020224
000050 dc 9f ad bf 02 79 fd 3f c0 e4 da 3f b0 80 20 c0
       -1.356441 1.9802554 1.7101059 -2.5078545
000060 01 14 3e c0 d4 10 50 3f dd c0 71 3d 3d ac 17 c0
       -2.969971 0.8127568 0.05902182 -2.3698876
000070 ff 53 6d bf 37 98 a2 3c c0 b1 cd bf 77 32 c1 bf
       -0.9270629 0.019847972 -1.606987 -1.5093526
000080 48 78 04 c0 7b dc c3 bd 3f 05 05 40 16 1f 6b 3f
       -2.0698414 -0.09563538 2.0784452 0.9184431
000090 a1 73 b2 bf 31 1a f0 3f b8 7b 2e c0 e8 98 64 bf
       -1.3941537 1.8757993 -2.7263012 -0.89295816
0000a0 6a 2a 8b 3f b7 f1 20 40 b4 fb a9 3e 57 a3 f8 bf
       1.0872319 2.514753 0.33199847 -1.9424847
0000b0 26 b2 2e c0 f2 85 23 be 29 84 83 40 ec 63 6f 3d
       -2.7296233 -0.15969065 4.109883 0.058444902
0000c0 e7 95 c6 bf af e1 1b 3e
       -1.5514497 0.1522281

linears.0.bias f4 [50]
000000 04 9e 4b c0 9d 8d b2 bf c0 70 9e bf a7 89 57 c0
       -3.1815195 -1.3949467 -1.2378159 -3.3677766
000010 f3 36 75 c0 a7 e8 5f c0 90 96 f3 bf ec 2f 81 c0
       -3.8314788 -3.498575 -1.9030323 -4.0371
000020 27 20 87 3f 4d 36 00 c0 ea 05 0e c0 4f 89 c3 bf
       1.0556687 -2.0033143 -2.219111 -1.5276278
000030 c2 45 ea bf 48 fc 68 40 47 df 59 bf 2a 98 b4 bf
       -1.8302538 3.640398 -0.8510632 -1.4108937
000040 bc fe b2 c0 7a 95 03 be e3 63 5c c0 e6 64 9b 3f
       -5.5935955 -0.1284999 -3.4435966 1.2140167
000050 5e 2a 24 3e ba 7a 86 40 57 40 49 c0 8d cf 04 c0
       0.16031787 4.2024813 -3.144552 -2.075168
000060 9e 97 c9 bf c9 31 97 3f 23 30 72 c0 69 63 7d c0
       -1.5749395 1.1812068 -3.784188 -3.9591925
000070 49 fa bc bf 3b d0 0b c0 3a 54 90 c0 f9 aa 2a 40
       -1.4763881 -2.1845844 -4.5102816 2.6666853
000080 5b 51 44 c0 74 ae 81 c0 34 66 ed bf ea 85 79 c0
       -3.0674655 -4.0525455 -1.8546815 -3.8987985
000090 5b db 6b c0 e3 c4 8b bf 55 86 ce 3f 07 86 52 3f
       -3.6852634 -1.091946 1.6134745 0.8223576
0000a0 28 14 ca 3f 0a ea 4e c0 24 50 35 c0 b6 6f e4 3f
       1.5787401 -3.2330346 -2.8330164 1.7846591
0000b0 c0 2a 64 40 06 ee 99 c0 23 d9 a9 bf d2 10 13 c0
       3.5651093 -4.8103056 -1.326939 -2.2979016
0000c0 81 cc 1d 3f eb 1c 2a c0
       0.61640173 -2.658015

linears.1.weight f4 [50, 50]
000000 1e 87 fb 3f aa 6c 3b 40 c9 ac 6b 3e 70 65 01 40
       1.965061 2.9285073 0.23015131 2.0218163
000010 59 ad 15 3f 57 45 62 3f f6 d4 65 be b3 a6 6e 3f
       0.5846763 0.88387054 -0.2244452 0.9322311
000020 3e 8b f8 bf 2b e6 b2 3e 39 76 9c 3f c7 97 14 be
       -1.9417493 0.3494123 1.2223579 -0.14511023
000030 87 70 7a bf a6 7c d1 3f 2d 7e f2 3f b6 5c 4b bf
       -0.97827953 1.6366165 1.8944756 -0.7943834
000040 d0 11 6a c0 96 22 8c c0 ca 35 b8 3f 30 6a 20 bf
       -3.6573372 -4.379222 1.4391415 -0.6266203
000050 54 70 da 3e a4 b0 a8 be 75 71 5f 3f 9b 76 21 40
       0.42663825 -0.32947266 0.87282497 2.522864
000060 08 7b ec 3e 9b fc ba bf 8b 8d 34 3f f9 95 6e bf
       0.46187615 -1.4608339 0.7052848 -0.9319759
000070 98 f7 61 3f 38 60 7a 3e 5d d9 f4 3e 97 0e 42 3f
       0.88268423 0.24450767 0.47822085 0.7580351
000080 22 e9 c9 3f 9b e0 6f bf 8e 9e b8 bb 8c 3d 1b 3e
       1.5774271 -0.93702096 -0.0056341356 0.15160197
000090 09 1d 08 3f 1f 68 14 40 11 24 5d 3f 97 bd 38 c0
       0.53169304 2.318855 0.8638316 -2.8865716
0000a0 31 33 95 be 51 dd 10 3f b9 9f 83 c0 63 5b 2d bd
       -0.29140618 0.565877 -4.1132474 -0.04232348
0000b0 eb 8a 10 3f 55 58 1c bf 7a a1 d6 3f e9 18 b4 3f
       0.5646197 -0.61072284 1.6768029 1.4070102
0000c0 79 77 70 3f 58 bb 86 bf 23 90 c5 40 28 ca 28 be
       0.939323 -1.0525923 6.173845 -0.16483366
0000d0 ab 05 9a 3f 56 f4 b9 40 56 11 6a 40 40 15 ca 3f
       1.203298 5.811076 3.657308 1.5787735
0000e0 d5 3f f1 bf 0d 78 9a 40 f2 7f 43 3f f4 0b ab 3f
       -1.8847605 4.8271546 0.76367104 1.3363023
0000f0 13 33 08 40 15 8b f1 bf 4c e5 e5 bf 97 36 08 c0
       2.1281173 -1.887057 -1.7960601 -2.128332
000100 75 63 ec 3f 02 61 e1 bf 03 04 7d 40 df de 52 40
       1.8467852 -1.760773 3.9533699 3.294853
000110 2d e9 04 40 9a 99 d1 3e f4 14 5f 40 ed a7 22 c0
       2.076732 0.409375 3.4856539 -2.5414994
000120 0b b7 27 40 b0 f6 97 be 48 dc 1c be 98 b6 23 be
       2.620547 -0.29680395 -0.15318406 -0.15987623
000130 87 77 81 40 c1 8d 9c 3e c7 8e 9f bf b3 03 96 40
       4.0458407 0.305769 -1.2465447 4.6879516
000140 20 0c 81 3f 3a 62 36 c0 19 2a 02 40 e2 fa 86 40
       1.0081825 -2.8497453 2.0338194 4.2181253
000150 af f4 9f 40 cc 57 83 40 84 fe ea 3f c6 dd af 3f
       4.9986186 4.1044674 1.8358922 1.3739555
000160 63 21 ea 3f 19 bc 07 bf 7f be 58 3e 1b 2f c0 40
       1.8291439 -0.5302139 0.21166418 6.00575
000170 9a ca 50 40 6b 28 69 40 2a f0 18 c0 2a e3 ae 40
       3.2623658 3.643092 -2.3896585 5.46523
000180 e2 81 82 3f b0 d0 90 40 07 9f e0 bf 77 59 d6 bf
       1.0195887 4.5254745 -1.7548531 -1.6746053
000190 6f a5 6a 3e 31 92 93 40 e0 57 35 3d dd 79 5b be
       0.2291467 4.6115956 0.044273257 -0.21433206
0001a0 1b 6b ed 3f 11 08 a0 40 b7 c3 f0 be 24 ba 0e 40
       1.8548311 5.0009847 -0.4702432 2.2301111
0001b0 52 35 d4 bf 19 8e 51 40 eb df a7 40 ac 67 26 bf
       -1.6578772 3.274298 5.2460837 -0.6500194
0001c0 45 09 f1 bd 88 ad ae c0 03 f0 b2 40 62 93 17 bf
       -0.11769346 -5.458683 5.5917983 -0.59209263
0001d0 6c fd a3 3f d3 0d e2 3d c4 cb b5 40 2c 27 28 c0
       1.2811713 0.11037793 5.6811237 -2.6273909
0001e0 f1 3e 78 40 63 4d 1f c0 21 9f 93 40 df 17 e3 3f
       3.8788416 -2.4890983 4.613175 1.774166
0001f0 89 72 65 40 80 33 15 c0 ad a1 19 40 85 84 f9 3f
       3.5851157 -2.3312683 2.400493 1.9493567
000200 de 7c de 3f a2 69 2d be b6 d6 5b 40 c5 ee 99 c0
       1.7381856 -0.16934827 3.43498 -4.8103967
000210 1b 99 aa 40 37 d8 14 40 ab 22 ae be d9 8e 20 40
       5.3311896 2.3256967 -0.34010825 2.5087187
000220 1b cf 66 40 a5 31 b8 40 81 13 a3 40 83 8e 0d c0
       3.6063907 5.75606 5.096131 -2.2118232
000230 d4 98 20 c0 c6 3a f6 3f a1 8d 14 be d0 df 7c 40
       -2.509328 1.9236686 -0.14507152 3.9511604
000240 bb a6 ab c0 94 8e 36 40 da da ae 40 2b c3 1e 3d
       -5.364103 2.8524523 5.4642153 0.038760345
000250 1f c0 a0 c0 5b 86 f5 bc b4 9e f0 3f 7f 53 14 40
       -5.0234523 -0.029971292 1.8798432 2.3175962
000260 2d b4 3a 40 00 f0 9c 3f 9a 05 f4 3f 49 79 d2 40
       2.917247 1.2260742 1.906421 6.5773053
000270 8f 05 1c 40 24 15 11 40 5d d7 95 c0 ac 2f a3 40
       2.4378393 2.2669153 -4.6825395 5.0995693
000280 84 a0 86 40 0a 84 24 40 ab 53 e2 3f 98 0a eb c0
       4.207094 2.570559 1.7681783 -7.345043
000290 62 4c 03 40 6a 2a e0 3f e8 f7 02 40 a1 14 2a c0
       2.051537 1.7512944 2.046381 -2.657509
0002a0 41 9a 43 40 c5 5e 94 c0 46 50 9f 40 cb 44 f2 bf
       3.05629 -4.6365685 4.978549 -1.8927244
0002b0 e3 c2 d3 40 31 1b cf 40 b7 55 d5 40 6e c1 9c c0
       6.61754 6.4720693 6.666713 -4.898612
0002c0 b3 0f 1b 40 a8 8c 9e 3e dc 69 6d 40 53 29 07 40
       2.4228332 0.30966687 3.7095861 2.1118972
0002d0 d2 e2 4a 40 28 5b a4 c0 03 d7 4a 40 82 5d 28 40
       3.170094 -5.1361275 3.1693733 2.6307073
0002e0 33 89 21 40 ee f5 26 40 38 02 92 40 da 27 fe 3f
       2.523999 2.6087604 4.562771 1.9855912
0002f0 47 a0 ab 40 b1 a9 42 c0 fb 8b 95 c0 16 49 18 40
       5.363315 -3.0416071 -4.6733375 2.3794608
000300 f3 65 0b c0 ea cb 9f 40 21 61 d9 c0 6f 9f 1a 40
       -2.1780975 4.993642 -6.7931066 2.415981
000310 ec 0f 51 40 a4 bb 1c 40 c7 ca 22 c0 65 af e0 3f
       3.2665968 2.4489527 -2.5436265 1.7553526
000320 31 52 c3 3f 51 8c b0 40 75 68 fc bf 73 b2 8d 3f
       1.5259458 5.5171285 -1.9719378 1.1070083
000330 d5 38 27 40 a5 a3 b6 40 44 e4 94 40 f9 15 32 40
       2.6128438 5.707476 4.6528645 2.782591
000340 4e 96 91 c0 84 6a 5e 40 0d 95 91 40 d9 65 89 40
       -4.5495977 3.4752512 4.5494447 4.2936826
000350 c6 eb 7f 40 da 42 a0 c0 53 10 b2 40 c3 38 7f 40
       3.9987655 -5.0081606 5.5644927 3.9878395
000360 96 85 6c 40 f9 81 9a bf 26 43 2b bf 6f 6e 61 c0
       3.6956534 -1.2070915 -0.66899335 -3.5223653
000370 a2 96 80 40 fa 44 15 c0 73 5f b3 40 5e 98 a4 40
       4.018388 -2.332335 5.6054015 5.1435995
000380 bc 77 7e 40 e7 e0 80 c0 a7 5e 1e 40 16 45 2d 40
       3.976058 -4.027454 2.4745271 2.7073417
000390 5e 68 66 40 95 d9 6d 3f ab 30 17 3e 09 8d 9a c0
       3.60012 0.9291013 0.14764659 -4.829716
0003a0 f7 d8 6a 3f 16 aa 2b 40 4e bf 53 3f 8f 56 1a 40
       0.9173731 2.6822562 0.8271378 2.411533
0003b0 c4 a5 61 40 e0 80 b6 40 67 0e ba 40 f3 3e b0 3e
       3.5257425 5.703232 5.814258 0.34423026
0003c0 8f 72 36 c0 12 93 1a 40 05 d7 c9 be 5b 2b 85 40
       -2.850742 2.4152265 -0.3942186 4.1615424
0003d0 33 15 9d c0 bc d1 15 40 8a 8d a4 40 3c 0b 0b 3f
       -4.908838 2.3409262 5.1422777 0.5431402
0003e0 fd 07 a0 c0 94 63 79 40 80 4b 81 be bb 22 e6 3f
       -5.000975 3.8967028 -0.25252914 1.7979349
0003f0 c4 28 3b 40 84 45 86 bf 36 38 07 40 50 04 90 40
       2.9243631 -1.0489964 2.1128058 4.5005264

linears.1.bias f4 [50]
000000 97 cd 0f bf 05 c0 21 c0 34 ea 91 c0 0d 78 ce c0
       -0.5617308 -2.527345 -4.5598392 -6.4521546
000010 b2 ad 7e c0 28 85 b2 c0 4e 82 b7 c0 52 52 f8 c0
       -3.9793515 -5.5787544 -5.7346563 -7.760049
000020 29 d8 a7 c0 f4 06 89 c0 55 6d 27 c0 3c 77 e7 bf
       -5.2451367 -4.282099 -2.616048 -1.8083262
000030 83 d4 e9 be 85 de 57 bf c3 da 59 c0 22 f7 46 3f
       -0.45669946 -0.8432391 -3.4039772 0.77720845
000040 83 5b 82 c0 f0 3e 80 c0 5a 77 2a c0 fc 43 44 c0
       -4.073671 -4.007683 -2.6635346 -3.0666494
000050 5f c0 e8 be da cc 2a c0 d5 fd ac c0 3c d6 fb c0
       -0.45459267 -2.6687531 -5.4059854 -7.8699017
000060 20 69 a9 c0 69 9a c0 c0 1f 27 15 bd 54 b3 85 bd
       -5.2940826 -6.018849 -0.036414262 -0.06528345
000070 c5 4b 70 bf 0b 27 4b c0 43 b5 8d c0 f6 52 73 40
       -0.93865615 -3.174258 -4.4283767 3.8019385
000080 34 26 5e be cd a2 81 c0 88 ab 99 bf 64 8d be c0
       -0.21694261 -4.051123 -1.2005472 -5.9547596
000090 c1 57 05 c0 7d ac fc bf 8d de fd 3f 57 c9 6e 40
       -2.083481 -1.9740139 1.9833542 3.7310388
0000a0 72 27 81 c0 1c f1 d7 bf 06 01 b6 c0 eb aa a4 bd
       -4.036065 -1.6870456 -5.687625 -0.080404125
0000b0 9d 1d 98 40 61 36 e3 bd 48 22 2a bf 4f 2e ae 3e
       4.753615 -0.11094356 -0.6645856 0.34019706
0000c0 c1 a9 93 c0 fb bd 96 c0
       -4.614472 -4.710691

linears.2.weight f4 [50, 50]
000000 44 c7 5d c0 84 81 40 c0 c5 bb 8f bf 5a 2a 57 c0
       -3.4652872 -3.007905 -1.1229178 -3.36196
000010 dd ee 10 c0 4e 7c 5f bf 69 9d a7 bf d1 af 80 bf
       -2.264579 -0.8729905 -1.3094913 -1.0053655
000020 f2 39 f4 bf 39 a1 86 c0 bc 0e 9a 3d d8 30 25 c0
       -1.9080184 -4.2071805 0.075223416 -2.5811062
000030 ca 82 22 c0 fa 3e f0 bf 49 31 94 c0 5f be 0f 3e
       -2.5392327 -1.8769219 -4.6310163 0.14037465
000040 65 8c ac 3f 15 63 51 bf 01 95 45 bf 58 a8 7d bf
       1.3480345 -0.8179181 -0.77180487 -0.99085
000050 dc e5 9d 3e 13 23 6a bf 79 76 81 3f ed 16 1e c0
       0.3083943 -0.9145977 1.011428 -2.4701493
000060 94 a0 15 3e 89 d1 70 bd 48 ca 55 bf dc dc be 3f
       0.14612037 -0.05879358 -0.8351178 1.4911151
000070 7c d5 ba bf e6 cc e7 bf 55 b1 16 c0 41 ea cf 3f
       -1.45964 -1.8109405 -2.3545735 1.6243364
000080 5d 81 af 3e f3 92 8c bf 01 c7 9a c0 56 e0 0f c0
       0.34278384 -1.0982345 -4.8367925 -2.2480674
000090 7c 9e 1e c0 f1 ed 7f bf 5b a9 e3 bf 13 cb d3 bf
       -2.478423 -0.99972445 -1.7786058 -1.6546348
0000a0 bb 31 07 c0 bc 36 bb bf 94 bd b6 bb dd 48 2d c0
       -2.1124103 -1.4626079 -0.0055767987 -2.7075722
0000b0 cf 7b 06 bf 51 e7 3a bf 4e 25 80 bf 00 76 ff c0
       -0.52532667 -0.7300921 -1.0011384 -7.9831543
0000c0 86 da 24 40 13 9b 06 c0 51 00 3f c0 2e fc aa bd
       2.5758376 -2.103215 -2.9843943 -0.08348881
0000d0 82 2a ae 3f 92 2d 40 c0 03 43 0a be 74 4a 08 40
       1.3606722 -3.0027814 -0.13502125 2.1295443
0000e0 21 38 c7 bf c5 af 58 40 06 42 13 c0 8d 32 98 bf
       -1.5564004 3.3857281 -2.3009048 -1.1890427
0000f0 20 c8 57 40 d4 bc 88 c0 1f d1 2a c0 a6 02 11 bf
       3.3715897 -4.2730503 -2.6690137 -0.56644666
000100 15 76 01 c0 4c 31 8e c0 44 42 fa 3e a0 22 82 c0
       -2.0228322 -4.4435177 0.48878682 -4.0667267
000110 2b a8 51 40 f9 ba ff 3f a6 53 7c bf 60 6c b2 be
       3.2758892 1.9978935 -0.9856514 -0.3484831
000120 38 66 30 c0 77 b6 48 3d b0 25 65 c0 f8 4b 5d c0
       -2.756239 0.049002137 -3.5804253 -3.4577618
000130 7b 94 fa bf 98 6e ab bf f1 43 80 bf b4 92 48 bf
       -1.9576563 -1.3393126 -1.0020734 -0.7834885
000140 7c 9b b8 bf 9f ef 07 40 9f 20 32 c0 04 6f 23 bf
       -1.442245 2.1240003 -2.783241 -0.6384127
000150 42 5f d4 bd e9 d2 54 c0 f2 45 78 c0 e9 87 14 40
       -0.103697315 -3.325373 -3.8792691 2.3207953
000160 85 07 0b c0 8a b1 e2 3f 1a f7 b0 bd 60 f0 e1 bf
       -2.172334 1.7710431 -0.08640881 -1.7651482
000170 05 3c 97 3e 1b 47 2c c0 ae 1a 0d 40 0b 95 a5 3e
       0.2953798 -2.69184 2.2047534 0.32340273
000180 43 eb 28 c0 00 e6 f5 bf 37 23 4c c0 b1 54 a3 bf
       -2.6393592 -1.9210815 -3.1896493 -1.2760221
000190 5a 01 b6 bd f4 65 86 bf 74 2e 1e be 8d 8c 28 3f
       -0.088869765 -1.0499864 -0.15447408 0.65839463
0001a0 39 55 77 3f 45 b4 a0 3f 3f 6d 7e 3f 7d 17 0d c0
       0.96614414 1.2555014 0.99385446 -2.2045586
0001b0 d5 f7 fa be a3 29 04 3d 6d 3e 0d 40 92 76 09 40
       -0.49017206 0.03226627 2.2069352 2.147862
0001c0 c1 87 42 3f dd 88 fd 3f 26 fd de 3e e1 7a 19 c0
       0.75988394 1.9807392 0.43552512 -2.398125
0001d0 11 db ef bf 4d 67 6a be 9b 1a 90 3e b1 66 15 40
       -1.8738729 -0.22890969 0.28145298 2.3343928
0001e0 18 b0 61 3f 1b 6d 65 c0 ae f7 2c 40 36 8e 03 3f
       0.8815932 -3.5847843 2.7026172 0.5138887
0001f0 a8 b9 11 be f9 b8 ed bf 85 13 25 3f d2 a2 9c 3f
       -0.14230978 -1.8572074 0.6448291 1.2237189
000200 60 6f ed 3d 16 84 6a bf 91 b4 5a bc 42 1c a0 40
       0.11593509 -0.916078 -0.013348714 5.0034494
000210 16 e5 3a 40 7b 24 e9 3e e8 4f 0e 3f af d7 63 40
       2.9202323 0.45535645 0.5559068 3.5600393
000220 3a 04 60 3e 0c 0c a5 3f ee f2 c3 3f 4d 61 a1 3f
       0.21876612 1.2894301 1.5308511 1.2607819
000230 9c 3c 69 3f e0 bb 27 3e 46 5b 0a c0 fa e3 9c 3f
       0.9110811 0.16380262 -2.161821 1.2257073
000240 1e a6 2a 3f fe 3e 41 c0 cb d6 98 3f ad cd 05 bf
       0.66659725 -3.0194697 1.194055 -0.5226696
000250 cd 22 32 c0 2e d0 e7 3f 59 e6 a0 c0 64 55 eb bf
       -2.783374 1.8110406 -5.0281186 -1.8385434
000260 f4 4c da 3f 90 de 76 40 33 0e c9 3b 72 cb 30 40
       1.7054734 3.8573341 0.006135726 2.7624173
000270 d0 f1 94 3f f3 6e 73 40 e3 6f 00 c0 82 e1 71 c0
       1.1636295 3.8036468 -2.006829 -3.779389
000280 1a cc 0c 40 bc 38 9c c0 e8 b5 7b c0 4f 21 68 c0
       2.1999574 -4.8819256 -3.9329777 -3.627033
000290 3e 6a 8f c0 49 5a 71 3f f6 21 0f 3e 73 1c 26 c0
       -4.481719 0.9427839 0.13977799 -2.5954864
0002a0 64 4e 22 40 fd aa 63 3f bb f6 0b 40 f8 44 07 c0
       2.5360346 0.8893278 2.1869342 -2.1135845
0002b0 1e 67 0f c0 35 cd 6a 3e b0 a4 17 c0 76 48 f6 bf
       -2.2406688 0.22929843 -2.3694267 -1.9240863
0002c0 b3 e1 e4 3f f4 81 e3 3f 5f c6 c5 3f 53 bf 85 c0
       1.7881378 1.7774034 1.5451163 -4.179605
0002d0 99 49 bd 3f 2c 93 be 3f 6d a6 c8 3f da 60 d1 be
       1.4788085 1.4888663 1.5675789 -0.40894204
0002e0 3a ea 02 40 9e 0f 34 c0 f1 56 92 c0 52 c3 0d 40
       2.045546 -2.8134532 -4.573113 2.2150464
0002f0 05 d3 e1 3f c7 78 19 40 e9 9e b3 3e 86 84 b9 3f
       1.7642523 2.3979967 0.35082176 1.4493568
000300 3f 39 7f 3f e4 be 6a c0 ab 85 15 40 be 2f ad 3e
       0.99696726 -3.667901 2.3362834 0.33825487
000310 9e 0f ca 3f b6 54 98 c0 f5 85 fe 3e 28 dc 8a 3f
       1.5786016 -4.7603407 0.49711576 1.0848436
000320 0e 18 71 c0 65 06 0c c0 f4 53 da 3f 30 32 7c bf
       -3.7670932 -2.1878903 1.705687 -0.9851408
000330 f9 58 54 c0 bb 17 3e bf 63 e4 4f c0 9f 93 14 40
       -3.3179305 -0.7425496 -3.2483146 2.32151
000340 40 3d 9b 3f 1d 77 c4 3f 30 89 aa be e2 4e d4 3d
       1.2128067 1.534885 -0.3330779 0.10366608
000350 cb 73 b4 bf 3f b4 65 bd e8 96 80 c0 ca fb 8a be
       -1.4097837 -0.0560801 -4.018421 -0.27145225
000360 e5 e0 98 be 80 fc 0b bf c4 1a 3e be c2 72 39 3e
       -0.2985908 -0.5468216 -0.18564898 0.18110183
000370 8b 28 09 40 0c 97 b7 3d 85 69 8d bf 3e 7b 30 c0
       2.1430995 0.08964357 -1.1047827 -2.757522
000380 f0 49 f3 be 74 d5 8a bf c7 c8 47 c0 30 1d 06 40
       -0.47517347 -1.0846391 -3.1216295 2.0955315
000390 a4 11 4c c0 f4 fb f9 3d 74 83 4c c0 f2 22 05 3e
       -3.1885767 0.12206259 -3.1955233 0.13001612
0003a0 d7 71 05 40 5e ad 45 c0 d1 c2 30 c0 4f 18 93 be
       2.0850732 -3.0887065 -2.7618906 -0.28729483
0003b0 83 06 24 bf 1c 94 16 3e 63 4e 17 bf b5 e5 c9 be
       -0.64072436 0.14704937 -0.59103984 -0.39433065
0003c0 39 16 75 bf 31 8a 66 c0 bb c6 b4 3f 3a 09 3c bf
       -0.95737034 -3.6021845 1.4123148 -0.7345158
0003d0 ec 24 96 be 77 0c 26 c0 01 e3 79 be d9 5d 52 c1
       -0.29325044 -2.5945108 -0.24403001 -13.147912
0003e0 59 46 bd 3e 6b c1 36 40 ff 9a 27 3e c3 57 29 c0
       0.36967734 2.8555553 0.1636772 -2.6459816
0003f0 79 df 40 c0 27 5d 52 be b7 1c 3a c0 a3 b4 54 40
       -3.0136397 -0.20543347 -2.9080026 3.3235252

linears.2.bias f4 [50]
000000 8a 95 d2 be bd 86 0b c0 cf be 92 bf 69 35 a8 c0
       -0.41129714 -2.1800988 -1.146448 -5.25652
000010 90 2f 6f c0 20 7c 3a c0 21 27 aa c0 de 2a 0f c0
       -3.737278 -2.913826 -5.3172765 -2.2369914
000020 87 1e ad 3e 82 9f 56 c0 21 c5 8d c0 9f 70 ad 3f
       0.33812353 -3.3534856 -4.4303136 1.3549994
000030 66 7b a3 c0 23 66 a0 c0 05 0a 3b c0 df b1 f1 bd
       -5.1088133 -5.012468 -2.9224865 -0.11801504
000040 22 90 80 c0 a4 21 4c c0 fb fc 85 bf 55 2a cd bf
       -4.0175943 -3.1895533 -1.0467829 -1.6028544
000050 b5 73 4d c0 ea 5a a8 c0 d4 db 4c bf 5c 0c b8 3f
       -3.2101872 -5.261098 -0.8002293 1.4378772
000060 af b8 e3 c0 29 69 a0 bf e5 7d 5d c0 98 ad 08 40
       -7.1162944 -1.2532092 -3.460809 2.1355953
000070 16 00 01 c0 56 5a 07 40 46 a4 56 c0 7d 46 97 c0
       -2.0156302 2.1148887 -3.3537765 -4.7273545
000080 a4 46 f0 c0 64 95 e9 bf 55 af 8c c0 71 fb 46 c0
       -7.508623 -1.8248715 -4.396403 -3.1090968
000090 6b 44 e3 bf cf ad de bf e8 de 10 c0 c6 c5 ab 40
       -1.7755255 -1.7396792 -2.263605 5.3678923
0000a0 e6 90 0f c0 af b4 37 3e df f9 4e c0 69 99 92 3e
       -2.243219 0.17940019 -3.234001 0.28632668
0000b0 0b a5 44 c0 9b 73 60 c0 f2 61 bb c0 23 5d 1d c0
       -3.0725734 -3.507056 -5.855706 -2.4588096
0000c0 21 a0 08 40 22 ef 62 40
       2.1347735 3.5458455

linears.3.weight f4 [50, 50]
000000 f6 09 9a bf 45 a4 05 c0 ac 0f 13 bf f2 35 32 c0
       -1.203429 -2.0881512 -0.5744579 -2.7845426
000010 85 50 db 3f 23 3e 6f bf ce 05 71 c0 27 5d 7e 3f
       1.7133948 -0.9345419 -3.7659793 0.9936089
000020 a6 f7 73 3e 2e a9 5b c0 2c 1c 3a bf 50 7b a8 bf
       0.23824939 -3.432201 -0.72699237 -1.3162632
000030 b8 b8 b4 3f 21 60 2e c0 01 c4 77 c0 67 c9 aa 3d
       1.4118872 -2.7246172 -3.8713381 0.08339196
000040 06 ba 1f 40 bb 39 47 c0 3d 19 a1 3d 68 c7 07 c0
       2.495729 -3.1128986 0.07866142 -2.1215458
000050 82 10 c3 be 1a 88 b7 3f 67 dc 1b c0 6b 9d 28 c0
       -0.38098532 1.433841 -2.4353273 -2.634608
000060 28 8d 10 c0 96 fc 0e bc 86 3b fa 3f 3f 6b f1 3b
       -2.2586155 -0.008727213 1.9549415 0.007367521
000070 47 83 1a 40 21 be 27 c0 db 56 9b bf 0b b3 28 c0
       2.4142625 -2.6209795 -1.2135881 -2.635928
000080 50 0a 0d be ab a8 3f c0 19 18 65 40 80 a5 4e bf
       -0.13773465 -2.9946697 3.5795958 -0.8072128
000090 f3 a0 b5 3d 7a 48 90 be 27 f1 0e c0 b3 4a cb 3f
       0.08868589 -0.28180295 -2.2334688 1.5882171
0000a0 da 17 24 bf 1b de 24 be bb eb 0f be d5 50 ca be
       -0.64098895 -0.16100352 -0.14054768 -0.39514795
0000b0 ed 58 3b bf 30 1a 68 c0 53 8e 1f 40 23 9d cb 3e
       -0.73182565 -3.6265984 2.4930618 0.39768323
0000c0 47 f9 9c 3f f8 57 5d bf 7c 3e 35 bf 5d 75 0b c0
       1.2263573 -0.86462355 -0.7079847 -2.1790383
0000d0 86 b4 64 c0 46 7d 14 c0 e5 73 0a 40 bd 58 87 40
       -3.5735183 -2.320146 2.1633236 4.2295823
0000e0 5b df b5 3e 1c 7b 98 3f b5 5c 71 3f 8e 09 82 be
       0.3552197 1.191257 0.94282085 -0.25397915
0000f0 62 53 03 3f 3f 84 47 bf b3 64 ad bd 36 ff e8 bf
       0.5129911 -0.77936167 -0.084664725 -1.8202884
000100 4e 00 e5 bf b4 35 cc 3d 2f 41 1f 3e 33 44 1c c0
       -1.7890718 0.099711806 0.1555221 -2.4416625
000110 89 6e 58 bd 62 ea 18 c0 c9 fe 9b bf de e4 de bf
       -0.05283979 -2.3893056 -1.2187129 -1.7413595
000120 7c 11 3a c0 20 aa a5 bf 84 43 68 bf 31 78 4e bd
       -2.9073172 -1.2942543 -0.9072802 -0.050407592
000130 de 54 58 c0 95 05 d9 be 9c 25 8f 3f 41 e6 86 c0
       -3.38018 -0.4238707 1.1183352 -4.215607
000140 70 cd e6 bf 88 b7 85 c0 dc 83 0b c0 e5 38 28 be
       -1.8031445 -4.1786537 -2.179923 -0.16427954
000150 d1 41 b2 c0 e3 20 35 3f 12 ce a9 3d e6 02 6e bf
       -5.570534 0.70753306 0.08291258 -0.9297317
000160 53 59 06 bf 06 f5 c3 3f a3 c8 97 bf d1 b1 4b 40
       -0.5248005 1.530915 -1.1858104 3.182728
000170 c7 73 f6 bf db a7 d0 bf 6c 25 8f 3c 5d f2 47 c0
       -1.9254082 -1.6301225 0.017473899 -3.1241677
000180 0b ce 55 bf d8 93 b3 bc be 64 c9 3f 92 63 8d 3f
       -0.8351752 -0.021921083 1.5733869 1.1046011
000190 16 07 39 bf 42 71 02 c0 20 18 75 bf 38 14 39 c0
       -0.7227644 -2.0381627 -0.95739937 -2.891859
0001a0 51 89 98 3f be fc 5d bf 29 ec 75 c0 6f 5d 10 3f
       1.1916906 -0.8671378 -3.842539 0.5639257
0001b0 08 09 37 3e 96 79 79 c0 3e a2 05 bf cb e7 48 bf
       0.17874539 -3.898046 -0.52200687 -0.7847869
0001c0 72 7c 68 3f 74 a6 20 c0 35 51 86 c0 49 80 0b 3e
       0.9081489 -2.5101595 -4.197413 0.13623156
0001d0 85 79 0b 40 0b a6 44 c0 cb 7b 36 3e f7 e8 05 c0
       2.179292 -3.0726345 0.17820661 -2.092344
0001e0 2c 0b f9 be 06 2b bf 3f 03 bd 42 c0 db b2 12 c0
       -0.48641336 1.4935005 -3.0427864 -2.2921665
0001f0 34 68 16 c0 57 90 79 3e b4 a7 dc 3f fc 64 9e 3b
       -2.35011 0.24371468 1.7238679 0.0048338156
000200 ea 0a 12 40 19 a7 21 c0 b1 b2 93 bf f7 90 26 c0
       2.2819161 -2.5258238 -1.1538907 -2.602598
000210 76 be 87 3c 8f 28 3c c0 d9 b2 76 40 95 16 a8 bf
       0.016570311 -2.9399755 3.854666 -1.3131891
000220 a3 c4 45 3c f3 1d 9c be 92 d2 44 3f be 81 09 3b
       0.012070808 -0.304916 0.76883805 0.0020981873
000230 d1 cb 69 bf 00 d3 89 3e 4f f1 60 be dc 26 0a 3d
       -0.91326624 0.26918793 -0.21967052 0.033728465
000240 2a 79 95 bf ac 70 70 c0 00 3a 19 40 ef 66 92 3f
       -1.1677601 -3.756877 2.394165 1.1437663
000250 cc ad 99 3f 5f e2 5d bf 90 1d cd bf 73 32 ed be
       1.2006164 -0.8667354 -1.6024647 -0.46327552
000260 3a 62 17 c0 ca 3e 18 bf c7 af 6d 3f 1f 86 e9 3f
       -2.3653703 -0.5947081 0.9284634 1.8244056
000270 98 a8 87 bf 86 f9 45 be c9 7f f6 3e da 09 45 c1
       -1.0598326 -0.19333467 0.48144367 -12.314905
000280 67 d3 fa be 36 c5 a4 bf 67 c8 97 3e 2d 45 80 bf
       -0.48989412 -1.2872684 0.29645082 -1.0021111
000290 18 bd 1d bf bb 12 d7 be 2c 34 d7 3e 77 11 98 3e
       -0.6161666 -0.42006478 0.4203199 0.29700825
0002a0 3f c9 31 bf 9e fa 0b be 78 0c 51 be a2 5c 49 c0
       -0.694477 -0.13669822 -0.20414913 -3.1462789
0002b0 58 7a ca be cf 6f aa bf 90 d4 40 bf 48 a6 a1 be
       -0.39546466 -1.3315371 -0.75324345 -0.31572175
0002c0 76 62 1f 3e 8d 28 af be 6a 0e 44 c0 a6 a0 c3 bf
       0.15564904 -0.34210625 -3.0633798 -1.5283401
0002d0 b6 9a 5e c0 fb 4e ca be ac 9c b5 3e b7 e0 63 be
       -3.4781928 -0.39513382 0.35471094 -0.2225369
0002e0 86 cb 11 c0 7e 10 9f be ce 42 d2 be 24 19 d8 be
       -2.278047 -0.3106727 -0.41066593 -0.4220668
0002f0 43 b4 15 c0 8b e5 19 40 60 c9 20 bf 29 bf 02 bf
       -2.3391273 2.4046352 -0.62807274 -0.5107294
000300 6c 06 34 c0 c9 6a d4 bf f8 09 4e bd 54 7e eb bd
       -2.812892 -1.6595088 -0.050302476 -0.114987046
000310 be 66 ee bd e7 06 cd be 4e 7f 93 be 9e c1 65 3e
       -0.1164069 -0.4004433 -0.28808063 0.2243714
000320 50 3c 93 be 53 4f b8 bf c2 43 36 c0 5d 5f 08 c0
       -0.28756952 -1.4399208 -2.8478856 -2.1308205
000330 25 a8 21 3e ce aa e5 3d b9 87 0b bf 63 25 79 bd
       0.15786798 0.11214219 -0.5450397 -0.06082667
000340 66 3b 9b 3f ab f8 18 c0 fb fe 6f 3e 7a 6f d6 bd
       1.2127502 -2.3901775 0.23437111 -0.10470481
000350 18 0a 72 3d 61 28 6a be 26 c3 ca bf e1 b5 7b be
       0.059091657 -0.22866966 -1.5840805 -0.245811
000360 e1 10 5a 3e a4 6e a2 bf f9 e7 a4 be c4 a0 82 bf
       0.21295501 -1.2690015 -0.3220823 -1.0205312
000370 cb a0 19 3c 16 fb 2f c0 f7 df a3 be f3 33 3c bf
       0.009376715 -2.7497 -0.3200681 -0.7351677
000380 49 5b d8 bd 0e 13 f7 bd d3 0f bc be 8e d0 92 3c
       -0.10564286 -0.12064181 -0.36730823 0.017921712
000390 27 d6 35 c0 51 4d 04 c0 5f 5a 58 c0 40 6d 1b c0
       -2.8411958 -2.067219 -3.3805158 -2.428543
0003a0 da 21 d2 3d e4 2f 57 3e 6a 5f 0d c0 5b c5 c1 be
       0.10260363 0.21014363 -2.2089486 -0.37845883
0003b0 da c3 5b be 66 ab 4a be f3 6f 19 bf 2e 0e 83 3f
       -0.2146143 -0.19791946 -0.59936446 1.0238702
0003c0 e8 0c 2d bf 14 44 51 be 69 dc 35 c0 8c 52 c4 bf
       -0.6759782 -0.20436126 -2.8415778 -1.5337691
0003d0 48 be af bc 91 99 48 c0 63 d2 21 3e fb 24 a2 3d
       -0.021453038 -3.134373 0.15802912 0.0791721
0003e0 13 23 86 3f 2b 70 f5 3d 6d 66 84 be 7d 1b d6 bf
       1.0479454 0.11984285 -0.25859395 -1.6727139
0003f0 ee 70 ef bf 92 58 58 c0 b7 c6 89 3f 0b 81 b6 bf
       -1.8706338 -3.380406 1.0763768 -1.4258131

linears.3.bias f4 [50]
000000 6d 39 46 c0 ab de ad c0 df df f5 bf 57 2d 9a bf
       -3.097255 -5.433431 -1.9208945 -1.2045087
000010 76 38 b6 3f 4f a3 37 c0 b6 59 9c bf 09 3e 34 40
       1.423598 -2.8693426 -1.2214878 2.8162863
000020 e8 da 06 40 44 97 83 3f db 0d 96 3f dd 56 60 c0
       2.107111 1.0280538 1.1722978 -3.5053017
000030 38 ca 9e c0 b0 18 76 40 20 e7 82 c0 4e ec 1f c0
       -4.962185 3.8452568 -4.0907135 -2.498798
000040 6c 0c 94 3f f1 3e 8f bf 8f 7e 06 c0 eb f7 60 3f
       1.1566291 -1.1191083 -2.1014745 0.8787829
000050 a2 71 92 c0 0c 14 42 c0 ae be cc bf 68 b3 26 3e
       -4.576371 -3.0324736 -1.5995691 0.16279376
000060 39 38 85 bf 89 21 6d c0 e6 6e 28 ba 1e d5 13 c0
       -1.0407783 -3.7051718 -0.00064252166 -2.3098826
000070 28 38 67 c0 e6 59 92 c0 1e d1 02 40 83 da 21 c0
       -3.6128025 -4.573474 2.0440135 -2.528962
000080 26 ab 40 c0 6c 96 1b bf 08 d6 01 c0 2c d1 92 c0
       -3.010446 -0.607764 -2.0286884 -4.5880337
000090 15 26 7a 3e 76 ad 69 c0 da dc e0 bf 42 15 00 c0
       0.2442859 -3.6512122 -1.7567399 -2.0012975
0000a0 0b e6 b1 3f f8 fa 59 c0 b1 bb 1c c0 d0 8a 92 c0
       1.3898329 -3.405943 -2.4489558 -4.579445
0000b0 be 04 47 c0 c0 c4 ab bf 04 4c 78 c0 98 b1 b9 bf
       -3.1096644 -1.3419418 -3.8796396 -1.4507322
0000c0 a6 da 39 3f a1 2d fa bf
       0.72599256 -1.9545175

linears.4.weight f4 [1, 50]
000000 0a 4b b5 bf 76 bf 91 bf 92 f3 a9 bf 6c 8f dc 3e
       -1.4163525 -1.1386554 -1.3277457 0.43078172
000010 b7 04 19 40 2f 51 00 c0 5a ef ed bf b8 86 b8 bf
       2.3909128 -2.004955 -1.8588669 -1.4416113
000020 81 86 1a 40 d9 ed 10 40 b2 40 12 40 36 6c f5 3f
       2.4144595 2.264517 2.2851987 1.9173648
000030 f7 b4 13 40 35 3e 16 3e 5f 76 e0 3f ec 81 a3 3f
       2.3079202 0.14672168 1.7536124 1.2774024
000040 fc 0f 00 c0 b8 4e 0b 40 3f 15 a6 bf 40 82 a4 be
       -2.0009756 2.1766796 -1.2975234 -0.32130623
000050 1c b1 b6 3f 17 5f cb 3e c2 7c 23 bf 46 b6 df 3f
       1.42728 0.39720985 -0.6386224 1.74775
000060 b6 56 0a 3e 24 2f 85 3f 16 19 e6 bf a0 57 d9 bf
       0.1350964 1.0405011 -1.7976406 -1.6979866
000070 b1 53 0c bf 34 6c 0a bf b3 eb b6 bf e0 37 41 40
       -0.548152 -0.54071355 -1.429068 3.0190353
000080 9b 63 fa 3e e6 9c 0f 40 9c 5e 10 be ea 76 e6 3f
       0.48904118 2.2439513 -0.1409859 1.800504
000090 1a 08 10 40 89 33 20 40 f6 25 b6 3e 9d 29 a1 bf
       2.2504945 2.5031455 0.35575837 -1.2590824
0000a0 54 5a 1b 40 69 23 c2 bf 5f 38 07 40 a2 12 bc 3f
       2.4273882 -1.5167056 2.1128156 1.4693186
0000b0 44 19 ef 3f 29 9f af 3f b9 4c 2d 40 40 96 0d c0
       1.8679585 1.3720447 2.7078078 -2.2122955
0000c0 ab 29 11 40 7c 7b f1 3f
       2.2681682 1.886581
