Code/1D/SODE/swish/1D_SODE_swish_high_8.pt (torch, 90406 bytes, 20 tensors)

beta f4 [50, 9]
1.0007267 1.021156 0.99954885 1.0565962 0.9852785 0.9923206 0.9928947 1.0000378
0.99997586 0.9999629 1.0031255 1.0000392 0.9985013 1.0000405 0.9990837 1.0003966
1.0000345 0.9984403 1.0005587 1.000209 1.0144789 1.0045108 0.9870783 1.0000191
1.0019577 1.0089619 0.999915 0.98060423 0.9997498 1.0031033 1.0017774 1.0198933
0.9999463 0.99766755 1.0014676 1.0000122 0.9999708 0.9996924 0.9939407 1.0006757
1.0002694 1.0087308 1.0000161 0.99036837 1.000105 0.9998692 1.0006467 1.0039136
1.0007507 1.0018119 1.0023295 1.0076213 0.9994336 1.0000935 0.9951091 0.9991256
1.0007311 0.9987077 0.9680752 0.9960832 1.0000077 1.0080464 1.0011266 1.0032262
1.0007641 0.9988545 1.0010054 0.999975 0.9994178 0.9966839 1.0000889 0.9998254
0.9987718 0.99934936 1.0000508 0.9999558 0.9999237 1.0000165 0.9997681 1.0044311
0.9997272 0.99960965 0.9972595 0.99984974 0.99975026 0.9991244 1.0117623 0.9975989
1.0010033 1.0001346 1.0083891 1.0020738 1.0356146 0.99989194 0.99999475 1.0058106
1.0002713 1.0003469 1.0000244 0.9967009 1.0071429 1.0009006 1.0102503 1.0023761
0.99806863 1.000199 0.9986753 1.0023018 0.99603933 0.9993158 1.000155 0.9962409
0.9954278 1.0000193 1.0003158 0.99906147 0.9997704 1.0320576 0.9968127 1.0001161
1.00934 1.0000272 1.0002606 1.0001854 1.0006858 1.0096216 0.9996995 1.0059234
0.9931314 0.9959156 0.998946 0.9992056 1.0005312 0.9970695 0.9996805 1.000205
1.0180064 0.99656785 1.0000371 1.0002916 1.0002666 1.0011677 1.000133 0.99997747
0.99975985 0.99560815 1.0043343 1.0002086 0.9999523 1.0001959 1.0002084 1.0015746
0.9988617 1.2473294 1.004296 0.9992862 1.012589 0.9988168 0.97930336 0.9991392
0.99886453 1.0002263 0.9865647 1.0042505 0.9513963 1.0070554 0.9974783 0.9893689
0.99997944 1.0012896 0.98984706 1.0002577 0.9935806 1.0010533 0.99259794 1.0003734
1.0000451 0.9995803 1.000096 1.0011168 0.9992047 1.0001541 0.9543666 1.0078274
0.9997714 1.0021362 1.0006198 1.0003266 1.0000404 1.0015792 1.0183775 1.0290548
1.0008262 1.0002975 1.001192 0.9167492 1.0008804 1.0007713 0.9992428 0.9998398
0.99967146 1.0006969 0.9963382 1.0004737 0.9999972 0.9999502 1.000012 0.99975425
0.9964759 1.0003165 1.0056832 1.0000056 1.0001004 1.0015525 1.0070581 1.0000268
1.0665096 1.0686129 1.0077347 1.0000107 1.0003544 1.0466504 0.99976397 1.0021976
1.0100803 1.0158675 1.0057901 1.0181137 1.0008177 0.9946712 0.99597794 1.0040582
0.99879056 0.9999681 1.0044051 0.99958843 1.0286349 0.99471444 0.9379961 0.98525715
1.0163087 0.9998275 0.9633413 0.9980241 0.9990014 1.0025111 0.9571181 0.9992732
0.9952659 0.9989168 1.0108329 1.003678 1.0204437 0.9980833 0.99406886 0.9786713
00000000: d017 803f 3db5 823f 6fe2 7f3f 8b3e 873f
00000010: 363b 7c3f b908 7e3f 592e 7e3f 3d01 803f
00000020: 6bfe 7f3f 92fd 7f3f 6b66 803f 4901 803f
00000030: c89d 7f3f 5401 803f f3c3 7f3f ff0c 803f
00000040: 2101 803f c999 7f3f 4f12 803f d906 803f
00000050: 72da 813f cf93 803f 2ab1 7c3f a000 803f
00000060: 2640 803f aa25 813f 6efa 7f3f e108 7b3f
00000070: 9aef 7f3f b065 803f 3e3a 803f dd8b 823f
00000080: 7bfc 7f3f 2467 7f3f 1730 803f 6600 803f
00000090: 16fe 7f3f d7eb 7f3f e672 7e3f 2416 803f
000000a0: d408 803f 171e 813f 8700 803f c888 7d3f
000000b0: 7103 803f 6ef7 7f3f 3115 803f 3e80 803f
000000c0: 9918 803f 5f3b 803f 554c 803f bcf9 803f
000000d0: e1da 7f3f 1003 803f 78bf 7e3f b2c6 7f3f
000000e0: f517 803f 4fab 7f3f c7d3 773f 4fff 7e3f
000000f0: 4100 803f aa07 813f eb24 803f b769 803f
00000100: 0a19 803f eeb4 7f3f f220 803f 5dfe 7f3f
00000110: d8d9 7f3f ad26 7f3f ea02 803f 8ff4 7f3f
00000120: 82af 7f3f 5cd5 7f3f aa01 803f 1afd 7f3f
00000130: 00fb 7f3f 8a00 803f cdf0 7f3f 3391 803f
00000140: 1fee 7f3f 6be6 7f3f 664c 7f3f 27f6 7f3f
00000150: a2ef 7f3f 9ec6 7f3f 6d81 813f a462 7f3f
00000160: e020 803f 6904 803f e512 813f f443 803f
00000170: 058f 843f ebf8 7f3f a8ff 7f3f 67be 803f
00000180: e408 803f 5e0b 803f cd00 803f ca27 7f3f
00000190: 0fea 803f 831d 803f e24f 813f dc4d 803f
000001a0: 6d81 7f3f 8506 803f 2fa9 7f3f 6d4b 803f
000001b0: 6ffc 7e3f 29d3 7f3f 1405 803f a509 7f3f
000001c0: 5bd4 7e3f a200 803f 590a 803f 7ec2 7f3f
000001d0: f4f0 7f3f 771a 843f 1e2f 7f3f ce03 803f
000001e0: 0e32 813f e400 803f 8a08 803f 1306 803f
000001f0: 7916 803f 483b 813f 4eec 7f3f 19c2 803f
00000200: dc3d 7e3f 53f4 7e3f edba 7f3f f0cb 7f3f
00000210: 6811 803f f23f 7f3f 10eb 7f3f b806 803f
00000220: 094e 823f 121f 7f3f 3701 803f 8e09 803f
00000230: bc08 803f 4326 803f 5c04 803f 86fe 7f3f
00000240: 43f0 7f3f 2de0 7e3f 078e 803f d606 803f
00000250: e0fc 7f3f 6b06 803f d406 803f 9933 803f
00000260: 66b5 7f3f 7da8 9f3f c58c 803f 38d1 7f3f
00000270: 849c 813f 75b2 7f3f a0b3 7a3f 96c7 7f3f
00000280: 96b5 7f3f 6a07 803f 818f 7c3f 488b 803f
00000290: b58e 733f 31e7 803f bd5a 7f3f 4847 7d3f
000002a0: a7fe 7f3f 422a 803f 9e66 7d3f 7208 803f
000002b0: 4c5b 7e3f 8422 803f e61a 7e3f 3c0c 803f
000002c0: 7a01 803f 7fe4 7f3f 2503 803f 9824 803f
000002d0: e1cb 7f3f 0d05 803f 5f51 743f 7d00 813f
000002e0: 05f1 7f3f 0046 803f 4f14 803f b40a 803f
000002f0: 5301 803f bf33 803f 325a 823f 11b8 833f
00000300: 131b 803f c009 803f 0f27 803f 13b0 6a3f
00000310: d91c 803f 4619 803f 60ce 7f3f 80f5 7f3f
00000320: 78ea 7f3f d616 803f 0510 7f3f 860f 803f
00000330: d1ff 7f3f bcfc 7f3f 6500 803f e5ef 7f3f
00000340: 0b19 7f3f 5f0a 803f 3aba 803f 2f00 803f
00000350: 4a03 803f df32 803f 48e7 803f e100 803f
00000360: 6383 883f 4fc8 883f 73fd 803f 5a00 803f
00000370: 9d0b 803f a4f8 853f 88f0 7f3f 0348 803f
00000380: 504a 813f f207 823f bbbd 803f 8d51 823f
00000390: cb1a 803f c6a2 7e3f 69f8 7e3f fb84 803f
000003a0: bdb0 7f3f e9fd 7f3f 5990 803f 07e5 7f3f
000003b0: 4faa 833f 9ba5 7e3f 8320 703f d039 7c3f
000003c0: 6716 823f b2f4 7f3f 899d 763f 827e 7f3f
000003d0: 8ebe 7f3f 4952 803f b105 753f 5ed0 7f3f
000003e0: bfc9 7e3f 03b9 7f3f f962 813f 8578 803f
000003f0: e69d 823f 6382 7f3f 4c7b 7e3f 348a 7a3f

linears.0.weight f4 [50, 1]
0.34075695 0.015778525 -0.09670154 0.03130552 0.041247826 0.03601955 -0.03588928 0.041528266
0.27962717 0.1966031 -0.23826452 0.025943402 -0.013765738 -0.515866 0.25209653 0.25145143
-0.082457975 -1.4523792 0.21428527 0.030038511 -0.070914365 -0.24168369 0.1726517 -0.009586461
-0.7067349 -0.26980096 0.2658473 0.0765703 -0.23869076 0.27204564 -0.6469268 -0.24045455
-0.42184347 -0.013553772 0.07307349 -0.08237714 0.123953976 -0.09664974 -0.280415 0.07193861
0.15174693 -0.015726987 0.037448913 -0.04081108 -0.07249351 -0.39342803 0.09281854 -0.19473244
0.023733636 0.025159448
00000000: b277 ae3e f741 813c 750b c6bd 383a 003d
00000010: 7bf3 283d 3c89 133d a300 13bd 8b19 2a3d
00000020: 4b2b 8f3e 5352 493e 9dfb 73be 4287 d43c
00000030: b189 61bc cb0f 04bf cc12 813e 3ebe 803e
00000040: badf a8bd 90e7 b9bf 996d 5b3e 5313 f63c
00000050: 8d3b 91bd ee7b 77be 9bcb 303e 8810 1dbc
00000060: 94ec 34bf 5a23 8abe 231d 883e e4d0 9c3d
00000070: 5a6b 74be 9149 8b3e ff9c 25bf b839 76be
00000080: defb d7be a410 5ebc 8ea7 953d 59b5 a8bd
00000090: 95db fd3d 4df0 c5bd 8e92 8fbe 8d54 933d
000000a0: 8c63 1b3e e2d5 80bc 0864 193d 8529 27bd
000000b0: 7a77 94bd 666f c9be a617 be3d f167 47be
000000c0: 0b6d c23c 301b ce3c

linears.0.bias f4 [50]
0.042884734 -0.0041676247 0.0027563183 -0.08924048 0.023464626 -0.0009685538 0.005676776 0.012609742
0.01819802 0.008890193 -0.010864914 -0.014883352 -0.024956442 -0.00576075 0.033073287 0.017023463
-0.01395893 -0.22397509 -0.016721971 0.015945654 -0.043176744 0.009407488 -0.00501102 -0.031703103
-0.034807604 0.0039790315 0.013773785 -0.041718308 -0.018191997 0.044095412 0.0016195683 0.005909354
-0.027881967 0.016991884 0.023182312 0.0028449704 0.022952434 -0.0038329682 0.008455823 0.0045164595
0.0070134527 -0.01970076 -0.047482133 -0.016399259 0.00623969 0.014634563 -0.011001291 0.035497405
-0.014611867 -0.018908583
00000000: e7a7 2f3d 9290 88bb 59a3 343b b6c3 b6bd
00000010: e338 c03c 8ce6 7dba 4004 ba3b 1799 4e3c
00000020: 0414 953c 2ca8 113c c102 32bc 4ed9 73bc
00000030: 7471 ccbc acc4 bcbb db77 073d ca74 8b3c
00000040: ffb3 64bc ba59 65be 84fc 88bc 76a0 823c
00000050: 19da 30bd dd21 1a3c 7c33 a4bb 1ddb 01bd
00000060: 6b92 0ebd 8962 823b 71ab 613c d1e0 2abd
00000070: 6207 95bc 649d 343d b247 d43a 41a3 c13b
00000080: b968 e4bc 9032 8b3c d5e8 bd3c af72 3a3b
00000090: be06 bc3c 8932 7bbb 4b8a 0a3c cffe 933b
000000a0: 1bd1 e53b 7d63 a1bc a07c 42bd bd57 86bc
000000b0: 5076 cc3b cec5 6f3c c23e 34bc ba65 113d
000000c0: 9d66 6fbc 2ce6 9abc

linears.1.weight f4 [50, 50]
-0.14793663 -0.060422678 -0.23314343 0.11966407 0.037877608 0.0066252416 -0.013128949 0.11388865
0.026871124 -0.108151846 -0.071502045 0.029861785 0.1578982 -0.06576137 0.37032875 -0.10821823
0.15229408 0.47818127 -0.17604735 -0.06288234 -0.03250217 -0.107674725 -0.12574874 0.17138645
0.030200986 0.021882148 -0.06999806 -0.38799092 0.053056665 -0.26034275 0.18956672 -0.082372576
-0.019405032 -0.01307866 0.032629408 0.18743798 -0.1772898 0.00772981 0.029583775 0.068579584
-0.11890026 0.25132477 -0.32090312 0.18469238 -0.08932965 0.1718501 -0.18977275 -0.12304259
0.038112227 -0.37326273 0.27077198 -0.19828013 -0.08653855 0.08015066 0.0030002857 -0.09746944
-0.041163735 0.29704612 0.1924999 0.1286366 -0.1490724 -0.12065154 -0.14274241 -0.18591641
-0.2021958 -0.023298165 0.027295016 0.40703648 -0.10236345 0.12736754 0.1778042 0.08085497
0.22361784 0.16140296 -0.0023426902 0.16683118 0.05085953 0.3107399 0.041165903 0.09245613
0.009957886 0.009806387 -0.062005036 -0.020702895 0.2722645 0.02057348 -0.04849434 -0.18582688
0.01564764 0.25108922 0.07023087 0.008107281 0.33594647 0.23930883 -0.20866738 -0.1100078
-0.18022844 -0.19121772 -0.10817612 -0.015304613 -0.14862318 -0.16266967 -0.17574906 -0.10070757
-0.05096304 0.05065808 -0.020592432 -0.21169262 0.044207532 -0.12769933 0.1463471 -0.06295829
0.12036377 0.0028315694 -0.39375818 0.08103197 -0.0592946 0.059509628 0.09018839 -0.027681576
0.025224527 -0.06987049 0.07340673 0.037537765 -0.07969831 0.03300694 0.03294455 -0.08547564
-0.04244069 -0.23000401 0.28564122 -0.016191272 0.12553902 0.07086074 -0.015117734 -0.026815472
-0.18392518 0.049714327 0.011432102 0.03023608 -0.22384983 -0.1235319 0.112496465 0.06857383
0.09975512 0.09756844 -0.2863039 0.080435 0.13965125 -0.06699177 -0.06793024 -0.056680802
-0.08669343 -0.03835279 -0.14880875 -0.048479468 -0.06851091 -0.056880325 0.025061103 -0.05737836
0.08038064 -0.15092796 0.07384542 0.12051886 -0.04491888 0.09799911 0.18498975 -0.18497531
-0.048126027 -0.12864037 -0.027006289 0.09407515 0.10153797 0.29017344 0.12047618 -0.065406166
0.12425582 -0.107687555 0.13663276 -0.119601324 0.042107545 -0.038657006 0.13475567 0.06737805
0.124639854 -0.0017565148 -0.032605547 0.058633566 0.31754765 0.22067137 0.075600274 0.10394696
0.1397331 0.03562824 -0.23424965 -0.19810072 0.14715192 0.1568994 0.42049733 0.07245838
0.119974196 -0.01208778 -0.37758985 -0.20176603 -0.07413143 -0.030740947 -0.11191685 -0.12636092
-0.042124398 -0.16178128 0.09104012 0.19692639 0.096394464 -0.0763794 -0.11540221 -0.109552346
-0.23186901 0.4745966 -0.006633225 0.21645519 0.094937496 0.13757017 -0.06359229 0.0365768
-0.031568106 -0.09393896 -0.058224626 -0.03325234 -0.05215819 -0.2178926 -0.12778077 0.018493157
-0.1290599 0.23578548 -0.23899126 -0.027178343 0.043509945 0.20173876 -0.15216532 0.32926846
0.17674476 -0.17225052 -0.0692063 0.15691596 -0.056649636 0.07684045 -0.033265747 -0.040870287
0.046642505 0.12509 0.31503126 0.34542844 0.19236793 0.008821555 -0.049464054 -0.041838944
00000000: b37c 17be c57d 77bd 27bd 6ebe 7012 f53d
00000010: 8d25 1b3d 8e18 d93b ce1a 57bc 743e e93d
00000020: d520 dc3c b77e ddbd aa6f 92bd b4a0 f43c
00000030: 11b0 213e e6ad 86bd bb9b bd3e 85a1 ddbd
00000040: fbf2 1b3e 2dd4 f43e c245 34be 75c8 80bd
00000050: ff20 05bd 9184 dcbd 47c4 00be ee7f 2f3e
00000060: 0f68 f73c 3142 b33c 255b 8fbd bfa6 c6be
00000070: f251 593d a54b 85be c71d 423e f4b2 a8bd
00000080: 4df7 9ebc e047 56bc 6aa6 053d beef 3f3e
00000090: 758b 35be 594a fd3b ac59 f23c 7473 8c3d
000000a0: fb81 f3bd a4ad 803e 6a4d a4be 0020 3d3e
000000b0: 77f2 b6bd 79f9 2f3e ca53 42be c1fd fbbd
000000c0: 911b 1c3d 4b1c bfbe a0a2 8a3e f209 4bbe
000000d0: 203b b1bd 0726 a43d 71a0 443b 0f9e c7bd
000000e0: 4e9b 28bd 6e16 983e b21e 453e 50b9 033e
000000f0: 6fa6 18be 2818 f7bd 112b 12be df60 3ebe
00000100: 6a0c 4fbe cbdb bebc cc99 df3c 1667 d03e
00000110: eea3 d1bd a36c 023e 4e12 363e 4a97 a53d
00000120: 13fc 643e d146 253e d287 19bb cbd5 2a3e
00000130: 1552 503d 4d19 9f3e 949d 283d a459 bd3d
00000140: 6726 233c f8aa 203c fef8 7dbd 1e99 a9bc
00000150: 4166 8b3e b789 a83c 00a2 46bd 6749 3ebe
00000160: 7b2f 803c c48e 803e 34d5 8f3d 67d4 043c
00000170: 2d01 ac3e 600d 753e e7ac 55be c54b e1bd
00000180: ce8d 38be 94ce 43be 718b ddbd 33c0 7abc
00000190: ad30 18be e192 26be 90f7 33be c53f cebd
000001a0: 9fbe 50bd d97e 4f3d 76b1 a8bc f3c5 58be
000001b0: f512 353d 9dc3 02be 04dc 153e 47f0 80bd
000001c0: 4881 f63d da91 393b ac9a c9be 17f4 a53d
000001d0: e5de 72bd 5ec0 733d b1b4 b83d 79c4 e2bc
000001e0: aba3 ce3c 4218 8fbd 4556 963d 33c1 193d
000001f0: de38 a3bd 4932 073d ddf0 063d da0d afbd
00000200: 4ad6 2dbd 2c86 6bbe 913f 923e 8fa3 84bc
00000210: 4d8d 003e 701f 913d 5fb0 77bc 1fac dbbc
00000220: e256 3cbe 40a1 4b3d b64d 3b3c a8b1 f73c
00000230: e438 65be 4bfe fcbd 8c64 e63d 7070 8c3d
00000240: 6a4c cc3d f6d1 c73d 6d96 92be 1bbb a43d
00000250: bd00 0f3e fb32 89bd 021f 8bbd 212a 68bd
00000260: 538c b1bd d117 1dbd 5261 18be 6892 46bd
00000270: 734f 8cbd 58fb 68bd f14c cd3c 9205 6bbd
00000280: 9b9e a43d dc8c 1abe 443c 973d 98d2 f63d
00000290: dcfc 37bd c2b3 c83d f46d 3d3e 2b6a 3dbe
000002a0: cc1f 45bd 4dba 03be 4b3c ddbc 79aa c03d
000002b0: 24f3 cf3d 9d91 943e 37bc f63d abf3 85bd
000002c0: d679 fe3d 4b8b dcbd 75e9 0b3e 8af1 f4bd
000002d0: f678 2c3d cf56 1ebd 64fd 093e 81fd 893d
000002e0: 2e43 ff3d db3a e6ba 658d 05bd c029 703d
000002f0: 9b95 a23e adf7 613e 51d4 9a3d 25e2 d43d
00000300: 3216 0f3e ebee 113d 24df 6fbe eada 4abe
00000310: feae 163e 3caa 203e 6d4b d73e 0f65 943d
00000320: 08b5 f53d d30b 46bc 7553 c1be c19b 4ebe
00000330: 38d2 97bd 70d4 fbbc a934 e5bd c264 01be
00000340: a28a 2cbd fea9 25be 3e73 ba3d 12a7 493e
00000350: 766a c53d ce6c 9cbd fe57 ecbd fb5c e0bd
00000360: 126f 6dbe 53fe f23e 865b d9bb 6ea6 5d3e
00000370: 976e c23d 32df 0c3e ad3c 82bd 8ed1 153d
00000380: 8f4d 01bd 1263 c0bd f27c 6ebd 9b33 08bd
00000390: d4a3 55bd 3d1f 5fbe f6d8 02be f67e 973c
000003a0: 4728 04be c071 713e 20ba 74be 1ea5 debc
000003b0: 7c37 323d 9b94 4e3e 3ad1 1bbe e095 a83e
000003c0: 94fc 343e 7162 30be 08bc 8dbd 94ae 203e
000003d0: 7309 68bd 875e 9d3d aa41 08bd 9a67 27bd
000003e0: 360c 3f3d 9817 003e c74b a13e ffdb b03e
000003f0: 19fc 443e 4988 103c d29a 4abd 505f 2bbd

linears.1.bias f4 [50]
0.002727777 0.054526784 -0.0016084331 -0.015485142 -0.061548978 -0.0019790528 0.011577881 -0.005712189
0.013501944 -0.056282043 0.0283928 0.038301215 0.008101309 -0.024208004 -0.00043200082 0.028161068
-0.09341959 0.007924296 -0.003199269 -0.002401607 0.020693297 0.018843705 -0.004363082 -0.0011874132
-0.0050315806 0.03648945 -0.032368224 0.005302301 0.010673329 -0.01292152 0.018175373 -0.112208255
-0.10599805 -0.092805535 -0.0873347 -0.0026153612 0.012756298 -0.045981895 -0.0013477041 0.023654636
-0.012933627 0.013690508 0.022203432 -0.022318484 0.012217763 0.08808152 -0.008139247 -0.070334345
-0.02373091 -0.04269042
00000000: 81c4 323b 7a57 5f3d 0fd2 d2ba 65b5 7dbc
00000010: c81a 7cbd ffb2 01bb 27b1 3d3c 502d bbbb
00000020: 4237 5d3c 0088 66bd 0498 e83c bce1 1c3d
00000030: 5abb 043c dd4f c6bc 2b7e e2b9 0ab2 e63c
00000040: c552 bfbd e8d4 013c d4aa 51bb 4864 1dbb
00000050: fd84 a93c 1d5e 9a3c 2ff8 8ebb faa2 9bba
00000060: f5df a4bb f675 153d 8b94 04bd edbe ad3b
00000070: 30df 2e3c c8b4 53bc 85e4 943c 71cd e5bd
00000080: 8115 d9bd d410 bebd 89dc b2bd 7b66 2bbb
00000090: cbff 503c 8357 3cbd 72a5 b0ba 5ec7 c13c
000000a0: 90e7 53bc 274e 603c f9e3 b53c 41d5 b6bc
000000b0: 032d 483c 1564 b43d 7a5a 05bc 740b 90bd
000000c0: 5367 c2bc 26dc 2ebd

linears.2.weight f4 [50, 50]
-0.07755689 0.0848746 0.0035871891 0.08696399 -0.10324916 -0.2443389 0.17026164 -0.07644338
-0.06819739 -0.1269814 0.14932236 -0.06593236 -0.06395088 -0.20732017 -0.09050882 0.11075698
0.038838904 0.052758083 -0.115728416 0.05455466 -0.0029346999 -0.072788216 0.14725097 -0.052971575
-0.003701458 -0.13570836 -0.08358071 0.060277738 0.21746139 -0.017460614 0.029977681 -0.12882882
0.1778641 0.017570611 0.0052588237 0.07894343 0.10272194 -0.103103645 0.0824603 -0.14510801
0.037784643 -0.14268282 -0.06833813 -0.0028959438 -0.012001719 0.06796059 -0.1999417 -0.22077516
-0.09250979 0.062326644 -0.12333817 0.2484092 0.0847632 -0.0018358566 0.08963044 -0.11219021
-0.023853257 0.057715632 -0.21777855 0.22917135 0.23515417 0.032245312 -0.18986845 0.024301434
0.18685886 0.018618612 -0.023945596 0.08095293 0.1981301 -0.10039922 0.13475001 -0.025690336
-0.1119097 -0.19018617 -0.0038109308 -0.15531056 -0.076472394 -0.09139765 -0.0037556996 -0.17565373
-0.107710406 -0.055352386 -0.08661718 -0.10840792 0.10076039 0.021561269 -0.16107439 -0.05041592
-0.2896355 0.2471745 0.19906634 0.0625301 -0.12100796 0.12452244 -0.019483387 0.06639794
-0.110024 0.1274649 0.05822367 0.121720746 0.13804354 0.18980478 0.08010824 -0.05989474
0.14132959 0.006780502 0.059652008 0.05674792 -0.053442705 0.0995648 0.23375683 0.20563164
0.099630974 0.026285456 0.07144526 -0.00355478 -0.18477027 0.03223818 0.034084853 -0.108934954
-0.015542508 0.07807382 -0.008478438 0.14502865 0.100767195 0.3374941 -0.042665783 -0.08540933
-0.0033468402 0.17576645 -0.105218686 0.01875518 -0.08836302 -0.08215021 0.074643254 0.048278283
0.09996608 -0.010151123 0.16490844 0.0120357 0.19261326 -0.20575629 -0.13968797 0.13216108
0.06523889 0.2130301 0.030381775 0.048824403 -0.13749908 0.037296254 0.07023536 0.059962
-0.26530185 0.23454218 0.051511545 -0.16105068 0.18941739 0.07248474 0.069978446 0.12908824
0.061290108 -0.0768899 -0.04767697 0.3449499 0.110038675 0.19923298 0.06979741 -0.038126875
-0.14936152 0.012952106 -0.07103837 0.05712281 -0.17283295 -0.3197588 -0.001389227 0.20448253
-0.06263623 0.106659286 0.07225031 -0.037742525 0.28282517 -0.10346567 -0.22282022 -0.084562495
-0.023266574 -0.36019766 0.2156539 -0.13670565 -0.17143025 0.05035705 -0.02133259 -0.26263693
-0.106468536 0.039463148 -0.21763581 -0.21867651 0.24397492 -0.05670033 -0.02322257 -0.14971733
-0.091479674 -0.12346191 0.07264299 -0.04625666 0.06921555 -0.12613346 0.08536408 0.0047872486
-0.085524745 0.054886647 -0.09424113 -0.15919265 0.113820344 0.09121619 0.024568787 0.0937179
0.16548774 0.1149568 0.06922556 0.004937381 0.05906782 0.22259112 -0.12144516 -0.07058341
-0.09077837 -0.028521225 -0.048397772 0.18206717 0.07751287 -0.2775153 0.25662854 0.0067685116
-0.040388983 0.03304479 0.055916365 0.18003806 0.17461015 0.0054807155 0.25792402 0.13805775
0.09039829 0.16847481 -0.052303955 -0.112639815 0.19580682 0.11269742 -0.020594781 -0.050516624
-0.29868764 -0.2847472 0.15636425 0.21646242 -0.03177325 -0.34974238 0.117623374 -0.098232396
00000000: 26d6 9ebd bcd2 ad3d 0c17 6b3b 2d1a b23d
00000010: 4c74 d3bd fa33 7abe 1159 2e3e 598e 9cbd
00000020: 13ab 8bbd 6a07 02be f6e7 183e 8c07 87bd
00000030: aef8 82bd bd4b 54be b05c b9bd 8ed4 e23d
00000040: 8b15 1f3d dc18 583d 0503 edbd b574 5f3d
00000050: 1854 40bb fd11 95bd f5c8 163e b9f8 58bd
00000060: 2994 72bb 22f7 0abe 5d2c abbd cae5 763d
00000070: 33ae 5e3e 9009 8fbc c193 f53c b4eb 03be
00000080: 0222 363e 3ef0 8f3c 3652 ac3b 18ad a13d
00000090: e15f d23d 0128 d3bd f2e0 a83d 3297 14be
000000a0: 12c4 1a3d 721b 12be ddf4 8bbd e0c9 3dbb
000000b0: dca2 44bc ec2e 8b3d 84bd 4cbe e212 62be
000000c0: c675 bdbd 394a 7f3d b998 fcbd fb5e 7e3e
000000d0: 5498 ad3d 20a1 f0ba 2a90 b73d fbc3 e5bd
000000e0: e867 c3bc 3a67 6c3d 5701 5fbe e5ab 6a3e
000000f0: 41cc 703e a913 043d e06c 42be cd13 c73c
00000100: ee57 3f3e 0f86 983c 8e29 c4bc a6ca a53d
00000110: 9ee2 4a3e 1b9e cdbd e8fb 093e 8a74 d2bc
00000120: ea30 e5bd 2ac0 42be cfc0 79bb bb09 1fbe
00000130: 8f9d 9cbd b12e bbbd 2f22 76bb 92de 33be
00000140: 4697 dcbd 2fb9 62bd 5964 b1bd f904 debd
00000150: 775b ce3d 42a1 b03c aff0 24be ec80 4ebd
00000160: 1b4b 94be 501b 7d3e 0cd8 4b3e c80f 803d
00000170: 05d3 f7bd 9f05 ff3d a09b 9fbc a5fb 873d
00000180: 4354 e1bd 2986 023e f17b 6e3d ba48 f93d
00000190: 495b 0d3e 2f5c 423e ca0f a43d 3054 75bd
000001a0: b4b8 103e f92e de3b aa55 743d 8270 683d
000001b0: bde6 5abd a1e8 cb3d f35d 6f3e 1a91 523e
000001c0: 530b cc3d 9954 d73c e451 923d 50f7 68bb
000001d0: 6b34 3dbe 2f0c 043d 8f9c 0b3d 4a19 dfbd
000001e0: 01a6 7ebc 2be5 9f3d 25e9 0abc 6482 143e
000001f0: 085f ce3d 07cc ac3e 51c2 2ebd 16eb aebd
00000200: a956 5bbb 1ffc 333e e57c d7bd 77a4 993c
00000210: acf7 b4bd 5f3e a8bd 90de 983d 73bf 453d
00000220: 04bb cc3d e550 26bc c2dd 283e 6231 453c
00000230: 693c 453e c7b1 52be 5d0a 0fbe 3c55 073e
00000240: f89b 853d 9024 5a3e 33e3 f83c 19fc 473d
00000250: 8fcc 0cbe f5c3 183d 8ed7 8f3d b79a 753d
00000260: a5d5 87be d32b 703e c5fd 523d 78ea 24be
00000270: a2f6 413e e172 943d dc50 8f3d b52f 043e
00000280: 560b 7b3d 7478 9dbd ed48 43bd 469d b03e
00000290: f55b e13d bb03 4c3e f2f1 8e3d ed2a 1cbd
000002a0: 3af2 18be 1235 543c 917c 91bd 9cf9 693d
000002b0: 1ffb 30be 6db7 a3be b916 b6ba de63 513e
000002c0: 6c47 80bd 2f70 da3d f8f7 933d e897 1abd
000002d0: 76ce 903e cfe5 d3bd fc2a 64be 1a2f adbd
000002e0: 8b99 bebc d46b b8be 60d4 5c3e 91fc 0bbe
000002f0: 698b 2fbe 3243 4e3d afc1 aebc 5978 86be
00000300: 2d0c dabd 1ca4 213d ecdb 5ebe bcec 5fbe
00000310: 90d4 793e 9b3e 68bd 423d bebc 804f 19be
00000320: b259 bbbd 99d9 fcbd d9c5 943d a077 3dbd
00000330: e2c0 8d3d 2129 01be 5dd3 ae3d 5ade 9c3b
00000340: 9927 afbd d2d0 603d 7e01 c1bd 6603 23be
00000350: a41a e93d 8ecf ba3d 7b44 c93c 2cef bf3d
00000360: 9e75 293e 796e eb3d 21c6 8d3d c1c9 a13b
00000370: 19f1 713d edee 633e 3db8 f8bd 098e 90bd
00000380: 03ea b9bd 58a5 e9bc be3c 46bd d16f 3a3e
00000390: 11bf 9e3d 7c16 8ebe d164 833e 64ca dd3b
000003a0: eb6e 25bd f959 073d 8f08 653d e65b 383e
000003b0: 01cd 323e 9397 b33b 9e0e 843e 035f 0d3e
000003c0: bd22 b93d a984 2c3e ac3c 56bd b4af e6bd
000003d0: 9581 483e e8cd e63d 63b6 a8bc 85ea 4ebd
000003e0: 96ed 98be 63ca 91be f31d 203e 53a8 5d3e
000003f0: ab24 02bd 6f11 b3be 86e4 f03d 112e c9bd

linears.2.bias f4 [50]
-0.00367765 0.027811168 0.028092423 -0.0059149265 -0.024632918 0.019685695 0.019790333 -0.030342722
-0.02792889 0.018770173 0.056811705 0.02098718 -0.012067491 -0.018894095 -0.01946849 -0.010788181
0.025448572 0.011223945 -0.1571847 0.013883637 -0.045714047 0.049394898 0.0055661043 -0.036122497
0.014608894 0.027872162 0.008911146 0.006622466 -0.030403381 -0.027247762 0.027350184 -0.06929696
-0.02326184 0.017861411 -0.0030208775 -0.037627764 -0.022735553 0.014720008 0.012781383 -0.0059623225
-0.076204345 -0.0034376867 0.03511203 0.007650746 -0.0255784 -0.017136335 0.021064388 0.03932169
0.031439554 0.048451114
00000000: ba04 71bb 3fd4 e33c 1522 e63c 00d2 c1bb
00000010: f9ca c9bc e543 a13c 561f a23c 4d91 f8bc
00000020: 21cb e4bc e8c3 993c 64b3 683d 4eed ab3c
00000030: bab6 45bc cac7 9abc 627c 9fbc e9c0 30bc
00000040: 8679 d03c a3e4 373c 07f5 20be 3278 633c
00000050: a73e 3bbd 4e52 4a3d de63 b63b 2ff5 13bd
00000060: 245a 6f3c 2954 e43c 0e00 123c 4501 d93b
00000070: 8310 f9bc b336 dfbc 7e0d e03c 91eb 8dbd
00000080: 9d8f bebc 1852 923c eaf9 45bb 921f 1abd
00000090: e93f babc 302c 713c 0169 513c 965f c3bb
000000a0: 0611 9cbd d04a 61bb a2d1 0f3d 1cb3 fa3b
000000b0: cb89 d1bc 8061 8cbc 398f ac3c c80f 213d
000000c0: c3c6 003d ad74 463d

linears.3.weight f4 [50, 50]
-0.02322051 0.21767813 -0.07827423 -0.044145413 -0.32044408 0.20395148 0.13980426 0.00797898
0.14256063 0.085088976 0.3087245 0.02385003 0.031789914 -0.07288574 -0.13600837 -0.16059683
0.059047054 0.28802884 -0.11683985 0.19215441 -0.21160905 0.2735325 -0.1684415 0.25225252
0.16008916 0.23788887 0.16133665 -0.07755549 -0.14621507 -0.003982414 -0.15865043 0.14505722
0.1591695 0.10295025 -0.11042269 -0.18034941 -0.16157176 0.14962304 -0.052875016 0.11324178
-0.05856543 -0.36144403 0.18929817 -0.14551209 -0.16708042 0.13808052 0.014111817 -0.070760675
-0.1735277 0.0067003355 0.11173984 0.035874046 -0.100460626 0.15251398 -0.02081737 -0.08537612
0.056944337 -0.046995074 -0.251642 0.096138105 0.02462826 -0.097565256 -0.1551536 0.04329069
-0.06541869 0.11635941 0.011473681 0.115824506 0.009813818 -0.07309193 0.20959434 0.16326126
-0.015115201 -0.31575954 0.032476302 -0.18224162 -0.08412265 0.19746804 -0.11956259 0.18548244
-0.31290692 -0.35882282 0.08238431 0.44041464 -0.118128926 -0.19417983 0.05763534 -0.017606966
-0.105085224 -0.031478796 -0.07271321 -0.011600939 -0.013855348 0.035150714 0.3414407 0.10059289
-0.13796279 -0.08314442 -0.018995957 -0.08916563 0.012643059 0.23905845 0.04150122 -0.29927403
-0.2328805 0.06896468 -0.01843085 -0.020510297 0.018297281 -0.008843784 0.06207566 -0.124199286
-0.14253251 -0.0908783 -0.14491268 -0.17342515 0.19818857 -0.27757978 -0.17480339 0.05561168
-0.1243731 0.060220137 -0.04407714 0.2091306 -0.07497198 -0.019859048 -0.024393532 0.019376589
-0.06296794 0.31899923 -0.055642825 0.12375352 0.027298547 0.1537869 -0.12978932 -0.055237178
-0.08243977 -0.0027178486 0.05790586 -0.084652156 -0.036135834 0.17378786 -0.04335353 0.021568656
0.057282258 0.15377 0.006976276 -0.09099083 -0.057270892 0.017330142 -0.011609191 0.036888663
0.034350757 0.09646432 0.09772652 0.14743176 0.18253615 -0.23047516 0.04028715 0.0041492074
0.04755907 0.21075203 -0.24176711 -0.028157756 0.01267322 -0.038292453 0.14951275 0.16062915
-0.20508097 0.14885026 0.08209049 0.20520198 -0.1456809 -0.016449071 -0.031667158 0.19009234
-0.108523786 -0.03676227 -0.047539707 -0.12869167 0.033861224 0.10055547 0.047588427 -0.03727046
0.007985424 -0.029148871 -0.0013158484 0.0032092736 -0.3191676 -0.10009528 0.11744023 -0.39618394
0.105407685 -0.120264195 -0.12749922 0.1722414 -0.21379717 -0.012688486 0.010963282 -0.045821894
-0.33195662 0.09322562 0.09408395 -0.043891273 0.12578619 -0.07403123 -0.08669374 -0.14931014
0.008226192 0.112017885 -0.13660641 0.030348226 0.113592334 0.027320027 0.13418055 0.24018523
0.06524541 0.19313869 -0.03673925 0.16989048 0.044511452 0.010908969 0.052926946 0.08079596
-0.1593375 0.005216305 0.06591224 0.036821425 -0.01851849 -0.22774738 0.15789272 0.06422014
-0.06122283 0.016120607 -0.15107325 0.014966193 -0.15602072 0.21274531 0.007645359 0.19114746
-0.020071946 -0.11867838 0.12191912 -0.06607281 -0.2364826 -0.009462893 0.15990676 -0.0023054515
0.23306662 0.17442106 0.11051341 0.12126656 -0.059478004 0.13206291 -0.18050717 -0.14031948
00000000: f038 bebc 04e7 5e3e 3d4e a0bd d2d1 34bd
00000010: 3f11 a4be a8d8 503e d928 0f3e 45ba 023c
00000020: 6afb 113e 2143 ae3d 2311 9e3e 2361 c33c
00000030: 2436 023d 1e45 95bd c745 0bbe 7f73 24be
00000040: 53db 713d 8478 933e bb49 efbd 20c4 443e
00000050: 0bb0 58be 740c 8c3e ee7b 2cbe 3e27 813e
00000060: 6aee 233e 2499 733e 6f35 253e 6ad5 9ebd
00000070: 67b9 15be e97e 82bb 4275 22be e189 143e
00000080: 54fd 223e 95d7 d23d 4b25 e2bd 84ad 38be
00000090: 1173 25be c836 193e 7993 58bd 4eeb e73d
000000a0: 4ee2 6fbd 310f b9be 61d7 413e 1f01 15be
000000b0: 2117 2bbe fb64 0d3e 4035 673c f9ea 90bd
000000c0: 3fb1 31be 7d8e db3b dbd7 e43d aaf0 123d
000000d0: 4dbe cdbd a02c 1c3e 3089 aabc add9 aebd
000000e0: 773e 693d e87d 40bd 38d7 80be 0ee4 c43d
000000f0: 34c1 c93c 4bd0 c7bd 96e0 1ebe 9451 313d
00000100: 3cfa 85bd d84d ee3d 1bfc 3b3c 6635 ed3d
00000110: 23ca 203c 39b1 95bd e69f 563e f62d 273e
00000120: bfa5 77bc 3cab a1be df05 053d 8c9d 3abe
00000130: 7f48 acbd 1035 4a3e 3bdd f4bd 1cef 3d3e
00000140: 5635 a0be a0b7 b7be 1bb9 a83d 077e e13e
00000150: 94ed f1bd 14d7 46be 0913 6c3d 7c3c 90bc
00000160: ec36 d7bd e9ef 00bd aaea 94bd dd11 3ebc
00000170: 8b01 63bc 32fa 0f3d 51d1 ae3e a503 ce3d
00000180: 1e46 0dbe 9f47 aabd 699d 9bbc 789c b6bd
00000190: d524 4f3c bdcb 743e 2ffd 293d 723a 99be
000001a0: 3a78 6ebe 5b3d 8d3d 4bfc 96bc 3605 a8bc
000001b0: 2ee4 953c 85e5 10bc 0c43 7e3d 325c febd
000001c0: 0bf4 11be 671e babd fd63 14be 5d96 31be
000001d0: f2f1 4a3e f01e 8ebe a9ff 32be 13c9 633d
000001e0: 53b7 febd 64a9 763d 3b8a 34bd 5526 563e
000001f0: e98a 99bd 71af a2bc f2d4 c7bc a7bb 9e3c
00000200: 56f5 80bd de53 a33e bbe9 63bd 7c72 fd3d
00000210: 34a1 df3c 507a 1d3e 7ee7 04be 6140 62bd
00000220: 2fd6 a8bd ef1d 32bb b22e 6d3d 1c5e adbd
00000230: 2b03 14bd 72f5 313e 7993 31bd c0b0 b03c
00000240: cda0 6a3d e275 1d3e 3f99 e43b 6659 babd
00000250: e294 6abd f1f7 8d3c 7a34 3ebc 9118 173d
00000260: 61b3 0c3d 168f c53d d724 c83d 5af8 163e
00000270: c2ea 3a3e ae01 6cbe 2304 253d 13f6 873b
00000280: 4dcd 423d 61cf 573e cc91 77be 18ab e6bc
00000290: 56a3 4f3c 8cd8 1cbd df19 193e f87b 243e
000002a0: bf00 52be 346c 183e 0f1f a83d 7820 523e
000002b0: 602d 15be 34c0 86bc 6cb5 01bd 91a7 423e
000002c0: b841 debd 0994 16bd ffb8 42bd c0c7 03be
000002d0: 11b2 0a3d 07f0 cd3d 15ec 423d e9a8 18bd
000002e0: 4cd5 023c 9dc9 eebc 8c78 acba ad52 523b
000002f0: f069 a3be c1fe ccbd 8184 f03d 9fd8 cabe
00000300: fcdf d73d 134d f6bd 288f 02be 0d60 303e
00000310: a5ed 5abe 5ee3 4fbc 569f 333c bdaf 3bbd
00000320: 38f6 a9be 13ed be3d 16af c03d 56c7 33bd
00000330: 18ce 003e af9d 97bd 7d8c b1bd c2e4 18be
00000340: 26c7 063c a269 e53d 8de2 0bbe d89c f83c
00000350: 19a3 e83d 40ce df3c a066 093e 1ef3 753e
00000360: 639f 853d 26c6 453e e57b 16bd c5f7 2d3e
00000370: a451 363d 88bb 323c edc9 583d 5a78 a53d
00000380: 5f29 23be 8aed aa3b fffc 863d 10d2 163d
00000390: 17b4 97bc 9c36 69be a1ae 213e d985 833d
000003a0: cac4 7abd 5d0f 843c f2b2 1abe c334 753c
000003b0: e5c3 1fbe e8d9 593e eb85 fa3b 29bc 433e
000003c0: ec6d a4bc a70d f3bd bbb0 f93d 2e51 87bd
000003d0: 7f28 72be 400a 1bbc 99be 233e 0f17 17bb
000003e0: 04a9 6e3e 6f9b 323e db54 e23d 9a5a f83d
000003f0: 359f 73bd 803b 073e dfd6 38be e9af 0fbe

linears.3.bias f4 [50]
-0.01572889 -0.005360264 0.026763204 0.03664956 0.055466328 0.0078104003 -0.0012825084 0.035888694
-0.06433559 0.022712898 -0.002214152 0.040278435 -0.011841999 0.06661716 -0.059348505 0.035721842
0.02467002 0.034743413 0.016089834 -0.053683754 0.015847547 0.0010778708 -0.00019059982 -0.012539383
0.02065334 0.03252961 -0.08868254 -0.12114441 -0.10149084 0.070329025 0.0250438 0.064197086
0.016025307 -0.06387724 0.050905693 -0.035198588 0.0024075538 0.01545753 0.018368302 -0.034757715
-0.055934846 -0.018761612 0.04986678 0.026225246 0.03167747 -0.0680654 -0.014691875 0.005443593
-0.03869076 -0.0008987803
00000000: e0d9 80bc 27a5 afbb 823e db3c d91d 163d
00000010: a930 633d 63ee ff3b d719 a8ba 0600 133d
00000020: 61c2 83bd 6610 ba3c 4e1b 11bb 00fb 243d
00000030: f204 42bc 946e 883d 6b17 73bd 1151 123d
00000040: c818 ca3c 1c4f 0e3d d4ce 833c 7fe3 5bbd
00000050: b7d2 813c 5847 8d3a c0db 47b9 fc71 4dbc
00000060: 3131 a93c c53d 053d 319f b5bd 8f1a f8bd
00000070: 6eda cfbd aa08 903d a828 cd3c c379 833d
00000080: 8147 833c 12d2 82bd 7d82 503d 652c 10bd
00000090: 0dc8 1d3b 9441 7d3c 1f79 963c 1b5e 0ebd
000000a0: f01b 65bd f4b1 99bc 1c41 4c3d 54d6 d63c
000000b0: 3cc0 013d df65 8bbd 31b6 70bc 2b60 b23b
000000c0: 347a 1ebd 209c 6bba

linears.4.weight f4 [50, 50]
-0.14275722 0.31747922 -0.01844725 0.013561136 0.037654907 0.17435877 0.13914467 0.00075779494
-0.12931484 0.047914453 0.09956602 0.13418694 -0.21072926 -0.27404526 0.30745706 -0.102315255
0.010733426 -0.122583106 0.06569697 0.030666368 -0.032639626 -0.01657566 -0.07720909 -0.1767585
0.06925204 -0.047613 -0.02556458 -0.008193954 -0.041473854 0.18211208 -0.041418698 0.09839057
0.018620797 0.24143578 -0.11645358 0.05497607 -0.066921696 -0.10625167 -0.054271538 0.100623414
-0.1652509 0.0065202676 -0.1661961 0.1887543 -0.025725631 0.40317407 -0.04715545 0.056205634
-0.13668251 -0.03922429 0.14491838 0.15111603 -0.19305362 0.20046397 0.047135547 0.07017811
-0.20787203 0.04114303 0.07146039 0.14111315 -0.17939283 -0.07779953 -0.07284499 0.20551853
-0.09529976 -0.18042442 0.33876768 0.042275514 -0.0269268 0.06405558 0.05486074 -0.12298441
0.022574663 -0.049697306 0.20277765 0.006275726 -0.02602091 0.2584151 -0.19272135 0.09405538
0.09890826 -0.10790595 -0.29724184 0.07675154 -0.0051197177 0.09155436 0.08739461 0.0033279161
-0.021747388 -0.01372904 -0.19580114 0.13521585 0.022726884 -0.08785958 -0.28717977 0.1728941
-0.1052455 0.11023816 0.00555755 -0.07100289 0.025222985 0.03604583 0.08622679 0.070813246
0.11124422 0.03012309 -0.09968679 -0.08800417 0.050848957 -0.094451055 -0.12036359 -0.08822406
-0.09884302 -0.21918258 0.30768797 -0.14669178 -0.054515846 -0.21591783 -0.10006368 0.04271184
-0.029347474 -0.10563786 0.08938604 0.07004697 -0.23078725 -0.31863958 0.21375278 0.022572866
0.22549418 -0.12928633 -0.22377858 -0.05630222 -0.032256924 -0.017870015 -0.23989944 -0.24346441
-0.023757612 -0.1305574 0.22862206 0.09757071 0.15665565 -0.077444315 0.11416355 0.17290951
-0.12237786 0.27412528 -0.16253625 0.102593996 -0.2587196 -0.055345926 0.23417792 -0.14199305
-0.13157256 -0.28315914 0.00033874548 0.09483083 -0.06334092 -0.11632759 -0.26500452 -0.012270364
-0.122992955 0.104390465 -0.16837133 -0.1404855 -0.27277365 0.15558767 0.08775567 0.14623278
0.03961033 0.12760302 0.27008423 0.15448226 0.15930262 0.31518987 -0.1956971 -0.08190227
0.16892777 0.05115248 -0.08293368 0.17001827 0.18800342 0.22958067 -0.027911792 0.063576
-0.037128627 -0.1570098 0.10772655 -0.05236589 0.13090363 0.12507167 0.13338014 0.03998928
-0.0020606376 0.039981775 -0.001913491 -0.044292424 -0.00687417 0.07673794 0.027828205 -0.054571345
0.088979825 0.20812885 -0.10609163 -0.008633431 -0.21957116 -0.09594358 -0.13845743 -0.030921195
0.027479539 0.092048965 0.007981674 0.14211014 0.15998082 -0.2964019 -0.29962328 0.041412156
0.026224624 0.22300597 -0.1043751 0.0035140624 -0.00519177 -0.26643848 0.09991761 0.066222735
-0.0706886 0.03340752 0.008992533 0.16830237 -0.00914453 0.0042856396 0.0595843 0.10637654
0.058157425 -0.0002650621 -0.14561868 0.26099318 -0.027565302 -0.0043473737 -0.14195514 0.17755623
-0.02792668 0.081756815 0.03237684 -0.0981027 0.21693051 -0.035033774 -0.017292451 0.028518623
0.1653899 0.23775768 0.23255447 -0.031143567 0.11087297 -0.042842716 -0.2406511 0.19187273
00000000: f32e 12be a38c a23e b01e 97bc 872f 5e3c
00000010: 083c 1a3d 1b8b 323e f17b 0e3e c2a6 463a
00000020: 1c6b 04be f241 443d 45e9 cb3d 4d68 093e
00000030: 69c9 57be a94f 8cbe 036b 9d3e a98a d1bd
00000040: 40db 2f3c da0c fbbd 228c 863d 0938 fb3c
00000050: 21b1 05bd aec9 87bc cd1f 9ebd 2e00 35be
00000060: 03d4 8d3d d905 43bd cf6c d1bc ef3f 06bc
00000070: 7de0 29bd 977b 3a3e a7a6 29bd ff80 c93d
00000080: a48a 983c f13a 773e 377f eebd 962e 613d
00000090: 3e0e 89bd 7a9a d9bd d54b 5ebd a613 ce3d
000000a0: 8837 29be f8a7 d53b 4f2f 2abe cf48 413e
000000b0: 8fbe d2bc d56c ce3e 1326 41bd e137 663d
000000c0: 80f6 0bbe a6a9 20bd 7c65 143e 29be 1a3e
000000d0: d9af 45be 6d46 4d3e 3411 413d 8ab9 8f3d
000000e0: 68dc 54be 9885 283d d359 923d f77f 103e
000000f0: c1b2 37be 5c55 9fbd c12f 95bd 7373 523e
00000100: 852c c3bd 2ec1 38be f572 ad3e 1729 2d3d
00000110: 9895 dcbc 922f 833d a8b5 603d 40df fbbd
00000120: 80ee b83c 678f 4bbd f2a4 4f3e 9ba4 cd3b
00000130: ce29 d5bc fc4e 843e bf58 45be 1ba0 c03d
00000140: 6a90 ca3d cbfd dcbd 1530 98be e92f 9d3d
00000150: 4ec3 a7bb da80 bb3d f2fb b23d 2b19 5a3b
00000160: 9427 b2bc c4ef 60bc 1880 48be 0676 0a3e
00000170: bb2d ba3c b9ef b3bd 3a09 93be 270b 313e
00000180: f48a d7bd 8bc4 e13d 1c1c b63b f769 91bd
00000190: 6fa0 ce3c cba4 133d ac97 b03d 8906 913d
000001a0: 02d4 e33d b3c4 f63c 9628 ccbd 883b b4bd
000001b0: ff46 503d 8e6f c1bd 3081 f6bd d1ae b4bd
000001c0: 366e cabd 6671 60be 4789 9d3e 5f36 16be
000001d0: 024c 5fbd 9019 5dbe 30ee ccbd 9cf2 2e3d
000001e0: 1d6a f0bc aa58 d8bd 0710 b73d c974 8f3d
000001f0: 7e53 6cbe ba24 a3be 02e2 5a3e bbea b83c
00000200: f2e7 663e a363 04be 3626 65be 289d 66bd
00000210: d61f 04bd 2364 92bc 33a8 75be bc4e 79be
00000220: 539f c2bc d7b0 05be e71b 6a3e 27d3 c73d
00000230: 576a 203e 209b 9ebd 94ce e93d 310f 313e
00000240: 3ea1 fabd 265a 8c3e e76f 26be cd1c d23d
00000250: e576 84be 69b2 62bd 56cc 6f3e a066 11be
00000260: f5ba 06be 3cfa 90be a699 b139 ab36 c23d
00000270: e2b8 81bd 293d eebd acae 87be a309 49bc
00000280: bbe3 fbbd abca d53d 8969 2cbe 6edb 0fbe
00000290: fda8 8bbe 6052 1f3e 3fb9 b33d 0cbe 153e
000002a0: 713e 223d 5eaa 023e 7b48 8a3e 9930 1e3e
000002b0: 3a20 233e 9160 a13e d264 48be 61bc a7bd
000002c0: 67fb 2c3e 4385 513d 22d9 a9bd 4519 2e3e
000002d0: f883 403e 3217 6b3e 45a7 e4bc 2234 823d
000002e0: 3014 18bd 2dc7 20be bd9f dc3d 9e7d 56bd
000002f0: 9a0b 063e ca12 003e ce94 083e cdcb 233d
00000300: c30b 07bb eec3 233d 1bce faba f96b 35bd
00000310: b840 e1bb c828 9d3d faf7 e33c 3486 5fbd
00000320: 0e3b b63d bb1f 553e 9246 d9bd 3c73 0dbc
00000330: 43d7 60be 117e c4bd c9c7 0dbe 724e fdbc
00000340: c51c e13c 2b84 bc3d 91c5 023c 5285 113e
00000350: 03d2 233e fdc1 97be 3968 99be cb9f 293d
00000360: 06d5 d63c ad5b 643e 9dc2 d5bd 2f4c 663b
00000370: b91f aabb a06a 88be 9ba1 cc3d c99f 873d
00000380: 2fc5 90bd 53d6 083d 6b55 133c 7557 2c3e
00000390: f0d2 15bc 8d6e 8c3b ab0e 743d f2db d93d
000003a0: 7b36 6e3d 08f8 8ab9 101d 15be e6a0 853e
000003b0: a1d0 e1bc 6a74 8ebb b05c 11be 4dd1 353e
000003c0: 7ec6 e4bc 1e70 a73d 949d 043d 12ea c8bd
000003d0: 0823 5e3e 937f 0fbd e6a8 8dbc e39f e93c
000003e0: f85b 293e c076 733e c222 6e3e cb20 ffbc
000003f0: 5e11 e33d d87b 2fbd 3e6d 76be 497a 443e

linears.4.bias f4 [50]
-0.059776574 0.018512463 -0.09802973 0.06145947 0.01272263 0.013384043 0.0045869555 0.04191799
0.07533735 -0.051993314 -0.104485676 0.01956886 -0.018470014 -0.040378783 -0.0815556 0.030437754
0.006814663 0.007477252 -0.07498028 0.030455228 0.012606025 0.07028902 -0.070674494 0.016269177
0.00047728082 0.015286378 -0.19658293 -0.050046988 0.0013988354 -0.051256504 -0.013201544 -0.01955052
0.031693954 0.025704786 -0.02423131 -0.0064342497 0.018516103 -0.04184523 -0.031365618 -0.09616266
0.010489536 -0.018900998 0.03389261 -0.09548501 -0.04080889 0.039559986 0.01019407 -0.03596133
0.046941426 0.07502971
00000000: 48d8 74bd 73a7 973c d0c3 c8bd edbc 7b3d
00000010: 9472 503c bf48 5b3c 2c4e 963b 33b2 2b3d
00000020: 784a 9a3d f1f6 54bd 96fc d5bd e04e a03c
00000030: 6d4e 97bc 3964 25bd 9f06 a7bd 9958 f93c
00000040: 894d df3b bc03 f53b 438f 99bd 3e7d f93c
00000050: 8089 4e3c b1f3 8f3d cabd 90bd f046 853c
00000060: 8c3b fa39 b773 7a3c 094d 49be 12fe 4cbd
00000070: 2159 b73a 57f2 51bd 4a4b 58bc 6a28 a0bc
00000080: 85d1 013d d892 d23c bd80 c6bc 66d6 d2bb
00000090: 15af 973c e765 2bbd 3c79 00bd eef0 c4bd
000000a0: 4edc 2b3c 44d6 9abc fad2 0a3d a58d c3bd
000000b0: 3927 27bd a709 223d 0705 273c 304c 13bd
000000c0: a745 403d 2da9 993d

linears.5.weight f4 [50, 50]
-0.04312218 -0.01661986 -0.017324856 0.004246732 0.15208963 -0.068462394 -0.009742477 0.06370918
-0.10900542 0.16425079 -0.18222861 -0.057860408 -0.04772212 -0.0043340796 -0.06940059 0.2525609
0.07598969 -0.07516839 -0.13453855 -0.06169964 -0.004380586 -0.008663388 -0.03770597 -0.04429402
-0.2807871 -0.12647322 0.05238586 0.06875662 0.11822735 -0.20927556 0.25166425 0.38795522
-0.09249382 0.11409804 -0.010191294 -0.12672617 -0.16542594 0.20040616 -0.21703766 -0.04446303
0.12196305 0.019720541 0.08079483 0.14235759 -0.03536324 0.09767328 0.048053622 -0.18304573
0.018205872 -0.10828933 -0.17821057 0.11493511 -0.31150812 -0.057324998 -0.07997112 -0.2869165
0.10159883 -0.14779639 -0.031991955 0.06364212 0.17836782 -0.082165405 -0.025038766 0.20865841
-0.053647272 0.018985506 0.063848786 0.023010038 0.022843417 -0.08636651 -0.017164867 -0.028017556
0.19142428 -0.35367283 0.22327612 -0.014259636 -0.13066703 -0.059008617 0.0127741005 -0.08525973
-0.007151559 0.04974724 -0.0070227557 0.089710556 -0.20369181 -0.092404395 -0.12920079 0.088268705
0.13643596 0.10353984 0.030737067 0.036526594 -0.28988662 0.081687585 -0.05864289 -0.0017473456
-0.112337604 0.07712829 -0.09794509 0.021473533 0.040794007 0.00042053143 0.10124276 -0.07882471
0.026024979 0.03573418 0.010269942 0.15099871 0.0489049 -0.08305166 -0.02468358 0.15607911
-0.06860332 0.04588124 0.069214255 -0.07863834 0.0550908 0.0735392 0.22602394 -0.005483944
0.121072136 -0.12501873 -4.6665897e-05 -0.10056517 -0.07634806 0.29209304 -0.05731125 0.23368269
0.18100508 -0.10742223 0.051896952 -0.1841766 -0.015993685 0.1622337 -0.009564936 0.00042681355
-0.028320896 -0.121828645 -0.058708675 -0.040285747 -0.05033251 -0.09062964 0.07565611 -0.011783554
0.17047459 0.0834685 0.03665531 -0.15342113 -0.054333847 -0.36202425 -0.07186635 -0.0037390452
0.047939196 0.083004564 -0.047510237 0.01627944 -0.07282943 -0.16597967 -0.022045124 0.021173935
0.025314163 0.024984118 0.03626451 0.030044507 -0.06963325 0.13939776 0.057019386 0.12040766
0.1227374 0.14233576 -0.22997046 -0.17114119 -0.21209951 0.1304845 -0.058629964 -0.023423035
-0.009150797 0.033170626 -0.012748196 0.071013555 -0.009366199 -0.16388313 -0.016484872 0.21940948
0.118828684 -0.038495164 0.061631624 -0.21898021 0.039158907 -0.14429018 -0.16620465 -0.0072150505
-0.1361427 -0.009640261 0.13492592 0.29384655 0.10360954 0.09352855 -0.040093232 -0.07768625
-0.0118917795 0.053705122 -0.33848774 0.3973279 0.07512214 0.13142304 0.049758904 -0.12613277
0.074517004 0.08236954 0.15129584 0.18238312 -0.14277904 0.0071458644 0.049587376 0.06011115
-0.057795517 0.30423373 -0.03292178 -0.13658236 -0.14478384 -0.16626182 -0.05088004 0.24203616
0.041887887 -0.12497117 -0.24776211 0.046534956 -0.067791276 -0.2649971 0.19703865 -0.030539235
0.12568171 0.13482985 0.00836362 -0.01697317 0.07586586 -0.03931364 0.1925207 0.007719841
-0.038106482 -0.09255424 -0.232405 -0.18623435 0.18348521 -0.100929484 0.0642215 0.07633307
0.21662831 0.112479895 0.15329295 0.013146627 0.02921149 -0.07092365 0.046296705 0.21247165
00000000: e2a0 30bd 5f26 88bc dbec 8dbc 2c28 8b3b
00000010: 62bd 1b3e 0336 8cbd e99e 1fbc f579 823d
00000020: 3c3e dfbd 5c31 283e 239a 3abe 09ff 6cbd
00000030: 4578 43bd e504 8ebb e621 8ebd aa4f 813e
00000040: 7ca0 9b3d e3f1 99bd 79c4 09be c3b8 7cbd
00000050: 058b 8fbb e2f0 0dbc 9371 1abd a56d 35bd
00000060: 54c3 8fbe 3282 01be 8e92 563d 45d0 8c3d
00000070: 2e21 f23d 554c 56be 23da 803e 11a2 c63e
00000080: 666d bdbd 3cac e93d 63f9 26bc 81c4 01be
00000090: 6b65 29be 4637 4d3e 1f3f 5ebe de1e 36bd
000000a0: c3c7 f93d f98c a13c c377 a53d 30c6 113e
000000b0: 0bd9 10bd ee08 c83d e0d3 443d 5770 3bbe
000000c0: 7b24 953c ccc6 ddbd d57c 36be 1963 eb3d
000000d0: fe7d 9fbe 9ecd 6abd e6c7 a3bd b8e6 92be
000000e0: 0c13 d03d f057 17be ff09 03bd cd56 823d
000000f0: 0ea6 363e 5646 a8bd 191e cdbc 8daa 553e
00000100: 3ebd 5bbd 7e87 9b3c 27c3 823d 8c7f bc3c
00000110: 1e22 bb3c ede0 b0bd 569d 8cbc 1385 e5bc
00000120: ba04 443e 9b14 b5be 7fa2 643e 40a1 69bc
00000130: 94cd 05be 05b3 71bd 764a 513c a79c aebd
00000140: a057 eabb c3c3 4b3d 251f e6bb 2bba b73d
00000150: 9694 50be 843e bdbd 364d 04be 39c6 b43d
00000160: deb5 0b3e b20c d43d 4dcc fb3c e99c 153d
00000170: 056c 94be d24b a73d 8733 70bd 3007 e5ba
00000180: 4211 e6bd 70f5 9d3d 6f97 c8bd 43e9 af3c
00000190: 9e17 273d c67a dc39 5d58 cf3d d96e a1bd
000001a0: 5632 d53c 015e 123d 4243 283c 689f 1a3e
000001b0: 8150 483d fd16 aabd 3835 cabc 34d3 1f3e
000001c0: e67f 8cbd f8ed 3b3d 34c0 8d3d 230d a1bd
000001d0: e4a6 613d b89b 963d d272 673e a8b2 b3bb
000001e0: abf4 f73d e904 00be 20bb 43b8 1df5 cdbd
000001f0: 5f5c 9cbd 388d 953e 34bf 6abd 844a 6f3e
00000200: 6559 393e 3000 dcbd e691 543d ca98 3cbe
00000210: 3005 83bc 9720 263e 40b6 1cbc f2c5 df39
00000220: 3901 e8bc 4c81 f9bd 8278 70bd ab02 25bd
00000230: 7629 4ebd 089c b9bd 97f1 9a3d cf0f 41bc
00000240: e490 2e3e 88f1 aa3d e123 163d 6e1a 1dbe
00000250: 2b8d 5ebd 3e5b b9be aa2e 93bd c50a 75bb
00000260: e45b 443d 4cfe a93d 189a 42bd 765c 853c
00000270: 9927 95bd 93f6 29be fa97 b4bc f674 ad3c
00000280: a65f cf3c 7eab cc3c 188a 143d e61f f63c
00000290: e19b 8ebd 49be 0e3e 298d 693d 4b98 f63d
000002a0: bf5d fb3d 77c0 113e 607d 6bbe a33f 2fbe
000002b0: 9d30 59be bb9d 053e f925 70bd aae1 bfbc
000002c0: 39ed 15bc ecdd 073d cfdd 50bc 8e6f 913d
000002d0: b074 19bc fbd0 27be 480b 87bc e1ac 603e
000002e0: 745c f33d 1bad 1dbd 7171 7c3d 593c 60be
000002f0: 1765 203d cec0 13be 8d31 2abe 3b6c ecbb
00000300: fe68 0bbe 2ff2 1dbc 052a 0a3e 0e73 963e
00000310: 3d31 d43d e58b bf3d cd38 24bd f819 9fbd
00000320: bdd5 42bc e7f9 5b3d 444e adbe 906e cb3e
00000330: a3d9 993d c393 063e fecf 4b3d f328 01be
00000340: 5f9c 983d 5db1 a83d 4ced 1a3e a4c2 3a3e
00000350: ab34 12be db27 ea3b 221c 4b3d 1c37 763d
00000360: feba 6cbd 86c4 9b3e fdd8 06bd 3fdc 0bbe
00000370: 3742 14be 8a40 2abe 9767 50bd 54d8 773e
00000380: a292 2b3d e3f0 ffbd 5ab5 7dbe 709b 3e3d
00000390: 27d6 8abd b3ad 87be 80c4 493e 6b2d fabc
000003a0: b5b2 003e d610 0a3e 9107 093c 510b 8bbc
000003b0: 8f5f 9b3d 5707 21bd 2524 453e b8f6 fc3b
000003c0: 8b15 1cbd 148d bdbd 94fb 6dbe 38b4 3ebe
000003d0: 8ce3 3b3e 1eb4 cebd 9086 833d 8354 9c3d
000003e0: d0d3 5d3e dc5b e63d d4f8 1c3e f364 573c
000003f0: ef4c ef3c 6b40 91bd 9da1 3d3d 2b92 593e

linears.5.bias f4 [50]
-0.018874725 -0.0077950214 -0.035888426 0.008756537 0.060078982 0.038310304 -0.021553325 -0.06896522
0.0036483074 0.046955258 0.023743346 -0.014171581 -0.020329649 -0.025005229 0.00036388385 0.0030262875
0.03899098 -0.08932805 -0.08122568 -0.019218542 0.013667816 0.0067106183 -0.0066964 -0.011816984
-0.012109169 -0.05124648 -0.12140785 0.01417031 0.010513726 0.058422673 0.1218576 -0.05670709
-0.12751396 -0.036152463 0.006461339 0.04492839 -0.0047592707 -0.0016522834 -0.03836361 -0.00038150427
0.04287021 -0.009201909 -0.03672909 -0.019871974 0.041531015 0.0484512 0.01539441 -0.019620366
0.015861772 0.0014588055
00000000: 2b9f 9abc 616d ffbb beff 12bd 9477 0f3c
00000010: 6115 763d 44eb 1c3d 9990 b0bc a33d 8dbd
00000020: 7118 6f3b 2854 403d 6881 c23c eb2f 68bc
00000030: 5d8a a6bc c4d7 ccbc aac7 be39 ae54 463b
00000040: 01b5 1f3d a0f1 b6bd a659 a6bd 3470 9dbc
00000050: faee 5f3c bfe4 db3b 7a6d dbbb 069c 41bc
00000060: 8965 46bc d4e7 51bd aea4 f8bd 972a 683c
00000070: c341 2c3c 9d4c 6f3d 7a90 f93d b245 68bd
00000080: 0593 02be 9b14 14bd a4b9 d33b d506 383d
00000090: a8f3 9bbb 6e91 d8ba 2923 1dbd a304 c8b9
000000a0: ac98 2f3d 9bc3 16bc 3e71 16bd 8dca a2bc
000000b0: 6d1c 2a3d c474 463d d638 7c3c e4ba a0bc
000000c0: 8cf0 813c 6435 bf3a
