Archived Code/Stan TPAMI/Regression/Smooth1/rowdy_tune/Regr_smooth_rowdy_tune49_5.pt (torch, 35518 bytes, 12 tensors)

omega1 f4 [4, 1]
000000 82 ad b6 3f 05 96 0f 40 9f 39 ab 3f 5d 20 0d 3f
       1.42717 2.2435315 1.337696 0.5512751

alpha f4 [6, 4]
000000 1e 06 c9 40 dd 6a 9c 40 dc 49 2f bf 71 56 ba bd
       6.2819967 4.888045 -0.68472075 -0.09098519
000010 40 37 7b c0 92 90 80 c0 b9 20 34 3f af 22 88 3b
       -3.9252472 -4.0176477 0.7036243 0.004154525
000020 a9 94 45 3f ac 12 b6 bf 54 f7 2d 40 84 4e 16 bc
       0.7717996 -1.4224448 2.7182207 -0.009173993
000030 88 11 39 40 e9 ca 95 c0 5c e2 a7 3f fd a8 31 3d
       2.891695 -4.6810193 1.3115954 0.04337405
000040 c1 e7 99 40 45 6f 42 3f 87 7a b8 40 71 88 ee 3c
       4.8095403 0.75951034 5.764957 0.029117795
000050 5f ab a0 40 71 c1 80 3e 29 1d 19 c0 5f 7f 00 be
       5.0209193 0.25147584 -2.3924048 -0.12548588

omega f4 [6, 4]
000000 7f 84 8e 40 fd d5 6d 3f 91 ba 6a bf ea a2 5a c0
       4.453674 0.92904645 -0.9169093 -3.4161935
000010 1d ee 06 bf b9 c5 63 c0 ea 5f 0a c0 1f 9b 8a bf
       -0.5270708 -3.558943 -2.1621041 -1.0828589
000020 62 d9 23 3f 45 df b8 40 6b 44 11 c0 c3 05 7c 3f
       0.64003575 5.7772546 -2.269801 0.9844629
000030 e5 e7 83 be f6 bc b3 40 4b dd d3 be bb c5 16 bf
       -0.2576286 5.6168165 -0.4137977 -0.5889546
000040 a0 ae d3 c0 d4 48 b1 3f be 19 04 c0 55 ee 8f 40
       -6.6150665 1.385035 -2.0640712 4.4978433
000050 fe b4 12 c0 66 dd 66 3f fe 77 32 c0 31 ee d0 3f
       -2.292297 0.9018158 -2.7885737 1.632269

linears.0.weight f4 [50, 1]
000000 b9 fb 77 40 1f b1 10 c0 d1 b5 f0 3f 08 d9 67 40
       3.874739 -2.2608106 1.8805486 3.6226215
000010 31 10 82 bf db f6 8b 40 4f 96 78 c0 6e 47 e4 c0
       -1.0161191 4.3738837 -3.884174 -7.1337194
000020 2a a9 85 3f 12 0e e3 3c a3 34 8d c0 84 76 78 3f
       1.044225 0.02771667 -4.4126754 0.9705584
000030 3d 49 00 c1 10 c8 4f bd f6 54 5e 3f 85 69 b7 40
       -8.01788 -0.050727904 0.8684839 5.731631
000040 e2 c6 0d c0 c7 d4 4a 3f 28 50 80 c0 af c4 23 3e
       -2.2152638 0.7923092 -4.0097847 0.15992998
000050 4c 02 f3 bf 27 de b2 40 4a 5c db 3f 0d db 89 40
       -1.8985076 5.589618 1.7137539 4.3079896
000060 45 67 7b c0 f3 09 9e bf 69 8a 68 40 bf d1 94 40
       -3.928178 -1.2346786 3.633448 4.650604
000070 c8 23 cb c0 a4 64 60 3f fa 25 8e 40 1b 4c e5 40
       -6.348118 0.87653565 4.442136 7.16554
000080 f7 03 af 40 0e 14 cf 3f 7c cf 0b 3c 33 85 af 40
       5.469234 1.6177995 0.008533355 5.4850097
000090 b1 65 18 c0 7d 2f bc 40 1e be 44 c0 e5 d1 fb bf
       -2.3812068 5.880797 -3.0741038 -1.967343
0000a0 a4 9e 14 41 d4 ae f4 bf 5a 27 9e c0 94 6b ef be
       9.288731 -1.9115853 -4.9423037 -0.46761763
0000b0 f5 2e a0 c0 ac ed 08 c0 ef 6d 92 c0 94 2a 9b 40
       -5.005732 -2.1395063 -4.5759196 4.8489475
0000c0 f8 52 0f c1 6c 58 01 bf
       -8.957756 -0.50525546

linears.0.bias f4 [50]
000000 ba 13 61 40 f7 64 0a 3f 8c e0 8b 3f 76 54 31 3d
       3.516829 0.5406031 1.0927901 0.04329344
000010 04 29 c7 3f 6c fe 63 40 4a 38 d2 bf 76 e5 18 c1
       1.5559392 3.5624037 -1.6423428 -9.556021
000020 4f b9 d5 3e dc cd 0c 3f a0 11 a1 c0 6e e0 13 bf
       0.41742942 0.55001616 -5.0334015 -0.5776433
000030 e1 db 02 c1 33 a5 24 40 c6 19 3b be 6d 6d 0e 41
       -8.178681 2.572583 -0.1827155 8.901715
000040 32 ca 97 c0 bb de a9 be 39 07 a7 c0 8e b9 55 40
       -4.743432 -0.33177742 -5.2196317 3.3394504
000050 72 6c 0a c1 4b c2 99 40 70 74 f0 3d d4 78 8e 40
       -8.651476 4.8049674 0.11740959 4.4522495
000060 2a 45 7d c0 3f ac 33 c0 68 5a 5d 40 4c 1a cb 40
       -3.9573464 -2.807388 3.458643 6.34696
000070 1b 53 fa c0 ee 23 bb bf d8 6e 96 40 87 05 ae 40
       -7.8226447 -1.462034 4.7010307 5.4381747
000080 82 38 1e 40 c2 c0 4c 40 6d 62 2d c0 09 74 6b 40
       2.472199 3.199265 -2.7091324 3.6789572
000090 ea c8 d6 c0 d1 a8 f5 40 5c 5c 4d c0 f1 d1 05 3f
       -6.7120256 7.6768575 -3.2087622 0.5227347
0000a0 b1 3d 05 41 49 b5 eb 3d 35 23 50 c0 69 48 07 c0
       8.327561 0.11509187 -3.2521489 -2.1137946
0000b0 ac e9 86 c0 42 8f b7 3f d0 76 83 c0 62 e4 e8 40
       -4.2160244 1.4340594 -4.1082535 7.2778788
0000c0 e9 7c f1 c0 01 79 65 3f
       -7.546498 0.8963776

linears.1.weight f4 [50, 50]
000000 8a 62 ee 40 a8 e2 33 3e 14 bc 9b 3f 13 71 a9 40
       7.4495287 0.17566931 1.2166772 5.295053
000010 9a 5c 2d c0 20 1f 2a c0 41 78 77 bf 8a 2f 10 3f
       -2.708777 -2.6581497 -0.9666787 0.5632254
000020 bd 78 b6 bf 15 48 1a 40 86 c2 e5 bf 45 4d b3 c0
       -1.4255596 2.4106495 -1.7949989 -5.6031823
000030 a3 fb 1b c0 68 3b c2 c0 cf 71 9b c0 b1 82 6c bf
       -2.4372337 -6.0697517 -4.8576427 -0.9238692
000040 14 0a 55 c0 ea 94 ea 3f fd 48 0c 41 d7 0d a4 40
       -3.3287401 1.8326695 8.767819 5.1266894
000050 d1 93 29 40 95 d6 9c 40 fb af b8 c0 d0 37 e8 3e
       2.649647 4.901194 -5.771482 0.45355082
000060 6e 06 2c be c8 3b c3 c0 73 4a bb c0 cd 27 93 c0
       -0.16799328 -6.1010475 -5.852838 -4.5986085
000070 54 cb 79 3f c6 df 76 3f 14 26 d3 bf 02 59 0d c0
       0.9757588 0.964352 -1.6495996 -2.2085576
000080 41 8c 91 40 b0 be f1 bf 64 3d fd c0 0e d6 1d bf
       4.548371 -1.8886318 -7.913744 -0.61654747
000090 44 b2 7e bf c3 25 88 c0 de 36 16 c0 12 2f d9 bf
       -0.9949076 -4.2546096 -2.3470988 -1.696749
0000a0 78 6c 89 c0 61 d2 32 c0 7a 6f 04 c0 e2 40 96 c0
       -4.294491 -2.7940905 -2.069304 -4.6954203
0000b0 02 c3 34 c0 af b9 5c be 69 15 80 3f 83 6f 8e 3e
       -2.8244023 -0.21555208 1.0006534 0.27819452
0000c0 38 fc e4 bf 55 35 d6 40 d8 90 8d c0 f2 bd c3 c0
       -1.7889471 6.6940103 -4.423931 -6.1169367
0000d0 91 87 4d c1 ad 18 8b c0 ce 11 34 40 7f de be 40
       -12.845597 -4.346762 2.8135867 5.96466
0000e0 2a 6b 7e 3e 95 cf a2 bf 1c be e6 3f a4 3c 32 bd
       0.24845567 -1.2719599 1.8026767 -0.043514863
0000f0 c5 8a fd c0 3b 43 d4 c0 f2 be 46 3f ec 02 86 3f
       -7.9231896 -6.633207 0.7763511 1.0469642
000100 ca 6a 2e 41 6f 8a e9 c0 77 e6 48 3f cd ec 32 c0
       10.901072 -7.2981486 0.7847666 -2.7957032
000110 3f ac 03 bf c3 c3 eb c0 76 29 df 3d 54 09 84 40
       -0.514347 -7.3676467 0.1089658 4.1261387
000120 82 4c 86 c0 a0 57 c6 40 28 91 b3 c0 1e 74 0b 40
       -4.1968393 6.1981964 -5.6114693 2.1789622
000130 b7 f4 25 c1 cc 2d 90 bf c6 0d b8 3e 39 ab b9 3e
       -10.372245 -1.1263976 0.35948008 0.36263445
000140 70 3e 05 40 f8 8d 0a c1 78 ff 6c 3e 54 6b 7a c0
       2.081936 -8.65966 0.23144329 -3.9128008
000150 a4 d5 58 c0 63 a4 e5 bf 9d 9e 00 40 30 2f 85 c0
       -3.3880396 -1.7940792 2.009681 -4.16201
000160 92 d9 2e c0 c8 bb 2d bf c4 ae 31 be 9c dc b7 c0
       -2.7320294 -0.67864656 -0.17351824 -5.74568
000170 c4 19 b3 40 1a bd 5a 40 85 d2 4b c0 a0 62 c0 c0
       5.596895 3.4177918 -3.184724 -6.012039
000180 b6 fb 6b c0 b2 ab 1e 40 d2 91 23 c0 f5 74 36 c0
       -3.6872382 2.4792295 -2.5557752 -2.8508885
000190 7d 33 89 40 5f 48 2c 40 25 40 1e be 49 78 83 c0
       4.287535 2.6919172 -0.15454157 -4.1084332
0001a0 30 95 ea c0 27 75 d8 bf b4 78 e9 be 53 ef ba 40
       -7.3307114 -1.6910752 -0.45599902 5.8417144
0001b0 7e ab 6a 3f fc f7 20 40 42 2c 2b 40 5e b7 88 c0
       0.91667926 2.5151358 2.6745763 -4.2723837
0001c0 3e a0 dd c0 24 1b 30 3f 3a cf b1 3f fb 66 65 c0
       -6.925811 0.68791413 1.3891366 -3.5844104
0001d0 9a 4d 91 40 7a d0 82 c0 7f 15 a1 c0 63 7c 85 c0
       4.540723 -4.087949 -5.033874 -4.171434
0001e0 47 bb 15 40 a7 45 61 40 34 1b 29 41 b3 de ed c0
       2.3395555 3.5198762 10.569141 -7.433435
0001f0 35 ed 1d 41 6e a3 52 c0 ac 51 05 3f 97 02 94 3f
       9.870412 -3.291225 0.52077746 1.156329
000200 a8 32 f9 3f 69 2a c7 40 3c e8 96 3f cc 45 25 40
       1.9468584 6.223927 1.1789622 2.582385
000210 b8 c0 0e bc 7c 58 25 40 e0 c1 d4 40 1a dc 9a 3f
       -0.00871294 2.5835257 6.6486664 1.209842
000220 a2 e8 88 40 35 7a 32 40 ff 76 0c c1 82 af 6e 40
       4.2783976 2.788709 -8.779052 3.7294621
000230 55 bd 2b be 47 2d 05 3f 81 5c a2 40 5d 1e bf c0
       -0.16771443 0.5202221 5.073792 -5.9724565
000240 92 2b c8 40 ff de 2c c1 74 c1 83 c0 7e fb 80 c0
       6.2553186 -10.804442 -4.117365 -4.0306997
000250 2e 44 af 3f 95 17 91 c0 ca 31 af c0 2b 97 e3 bf
       1.3692682 -4.5341287 -5.474828 -1.7780508
000260 e5 e3 00 3e 01 2f 57 3f 79 01 dd bf 75 f9 ae c0
       0.12586935 0.840561 -1.7266074 -5.4679513
000270 d6 e3 9b 3d f8 17 1f 40 c4 06 d3 40 b1 ff e2 3f
       0.07611816 2.485838 6.594576 1.7734281
000280 0a 2b 12 41 a4 9e c6 40 ba 87 07 c0 09 33 1b 40
       9.135508 6.2068653 -2.117659 2.42499
000290 da 77 52 c0 98 fe 10 c1 0a c5 d1 bd 4c 8a 89 40
       -3.2885652 -9.062157 -0.1024266 4.298132
0002a0 a6 a0 15 40 1f e0 17 3f c9 b4 93 40 27 b4 98 bf
       2.3379302 0.59326357 4.6158185 -1.1929978
0002b0 41 c4 45 40 95 3b 16 40 d2 ce 1d 40 a1 f5 fd c0
       3.0901034 2.3473866 2.4657483 -7.936234
0002c0 1e 8a 24 40 f2 c6 b7 40 45 8e c7 40 ad 5b ac bf
       2.57093 5.7430353 6.236117 -1.3465477
0002d0 79 c7 31 40 b3 86 c0 c0 99 f8 62 bf fe 51 89 c0
       2.7777998 -6.016443 -0.8866058 -4.291259
0002e0 e7 44 d6 bf 59 cd d4 40 a3 cc d3 40 82 76 6f 41
       -1.6739777 6.650067 6.61873 14.966433
0002f0 bb 22 5d be 65 3f 7a bf 96 b9 07 c0 72 0c 2b 40
       -0.2159528 -0.9775298 -2.1207023 2.6726346
000300 5c 86 dc bf 23 47 f2 bf 63 a5 c5 c0 e1 64 01 41
       -1.7228503 -1.8927959 -6.176439 8.087129
000310 fe fa f8 bf 0c d0 11 40 91 69 f4 c0 e1 75 af bd
       -1.9451597 2.2783232 -7.6378865 -0.085674055
000320 4f 6d a8 bf e7 f5 9b bf a1 46 a4 40 f0 02 73 c0
       -1.3158358 -1.2184418 5.1336217 -3.7970543
000330 04 0a e1 40 7f ad 0a 41 db 14 13 c1 ee 6f be c0
       7.0324726 8.667357 -9.192592 -5.9511633
000340 d5 a1 20 c0 5d cf 73 40 0d 5d 28 bf e5 bb 0e c0
       -2.5098774 3.8095315 -0.65766984 -2.2302182
000350 9f 9a fc 3e 92 92 8b c0 87 c0 07 40 21 f5 b8 be
       0.49336717 -4.361642 2.121126 -0.3612452
000360 80 9d 9e 40 9f 74 b4 40 d7 b1 8d c0 6d fb c1 bf
       4.956726 5.639236 -4.427959 -1.5154854
000370 9c 60 95 40 3a 01 44 3f f7 64 18 bf fd de 9c c0
       4.668043 0.7656437 -0.5952906 -4.9022202
000380 35 0c 33 c0 f4 0e 0d c0 24 59 ae c0 4a 14 bf 40
       -2.79762 -2.2040377 -5.4483814 5.9712267
000390 2e 8c d6 bf 91 f9 80 40 0f 24 fb 3f 2b 16 48 3e
       -1.676153 4.0304646 1.9620379 0.19539706
0003a0 ad 77 91 3e bf ee 01 40 54 4c 24 40 07 ed 63 bf
       0.28411618 2.030197 2.5671587 -0.8903355
0003b0 e6 3b 26 c0 70 08 db 3f 3b 09 44 40 2f df 97 bf
       -2.597406 1.711195 3.0630634 -1.1864985
0003c0 06 cb 03 40 8e 2f 96 3f 7e cd 87 c0 f7 59 5b 3d
       2.0592666 1.1733263 -4.2438345 0.053552594
0003d0 9c 72 4b bf 4d 40 8b 40 f9 92 51 c0 6f 3a 67 40
       -0.79471755 4.351599 -3.2745955 3.6129415
0003e0 23 27 1b 41 22 75 ac 40 37 d5 3e 3f f9 2f c4 c0
       9.697055 5.3892984 0.7454409 -6.130856
0003f0 fd 0c e9 bf 7b 96 98 40 b0 ec 26 c0 90 b5 0c bf
       -1.8207089 4.768369 -2.6081963 -0.5496454

linears.1.bias f4 [50]
000000 2e 84 f6 bf 5d 58 3e bf 67 86 9a 3f 37 26 94 40
       -1.9259088 -0.7435358 1.2072266 4.629665
000010 f3 c3 e5 3f 7e a7 bd bf 20 47 8c 40 57 b6 f9 3e
       1.7950424 -1.481674 4.3836823 0.48771927
000020 a7 ce 0a c1 e8 50 dd 40 93 20 90 c0 e2 ad d2 3c
       -8.675452 6.9161263 -4.5039763 0.02571768
000030 56 a0 a1 3f 73 5b a8 3c a3 98 dc be 8b 66 e3 c0
       1.2627056 0.020551419 -0.43085203 -7.1062675
000040 d1 d2 1c c0 a9 6e ab 3f e0 ba b9 40 9c b1 a7 c0
       -2.4503672 1.3393146 5.804062 -5.240431
000050 0e cc 78 40 b7 38 88 40 3c 86 61 40 ea 4e e2 c0
       3.8874545 4.256923 3.523818 -7.072133
000060 52 67 73 c0 b4 f2 70 bf 27 56 99 40 9b 19 85 c0
       -3.8031812 -0.94120336 4.7917666 -4.1593757
000070 c1 cb 4f 3e 94 31 17 40 3d 9c 34 c0 3a e2 0f bf
       0.2029257 2.362401 -2.822036 -0.5620457
000080 73 3c 0a bf b1 7e c8 c0 32 28 5d 40 86 83 c9 c0
       -0.5399849 -6.2654653 3.4555783 -6.297305
000090 d5 0f f2 3f 41 c5 fb bf e2 56 80 c0 57 92 72 40
       1.8911082 -1.9669572 -4.010606 3.7901819
0000a0 81 68 46 c0 98 90 6f 40 d9 34 ff be d0 12 06 c0
       -3.1001284 3.7432003 -0.49845007 -2.0948982
0000b0 3d 16 9d bf 79 d2 f7 be 95 7d 0e c0 1b f3 27 40
       -1.2272412 -0.48402765 -2.226415 2.624213
0000c0 7c 5f 8b 3f 90 82 83 40
       1.0888515 4.109688

linears.2.weight f4 [50, 50]
000000 50 ba 29 c0 bd 2b b8 c0 44 26 bb 40 d7 42 3b 3f
       -2.6519966 -5.755339 5.848421 0.73148865
000010 a5 07 0b 3f 60 ef d8 bf de ab b9 be 6b f9 3f c1
       0.5430854 -1.6948051 -0.36263937 -11.998393
000020 c9 31 84 40 35 15 73 c0 c4 cc 88 3e 3b 91 95 3f
       4.1310773 -3.7981694 0.26718724 1.1684946
000030 25 49 e4 40 20 e2 1c be c0 d2 dc 40 55 c3 f5 40
       7.133929 -0.15320635 6.9007263 7.6800942
000040 7d 0f 37 40 be 83 cd bf a0 e0 82 40 bd 48 85 40
       2.8603203 -1.605583 4.08992 4.165129
000050 3c 2a c6 bf dd ea 44 bf 1a 81 27 c0 bb 7c 00 bf
       -1.5481639 -0.7692087 -2.6172547 -0.50190324
000060 83 32 0d 41 87 1a a1 3f 40 9f 33 bf 39 aa 29 40
       8.824832 1.258622 -0.7016487 2.6510146
000070 6a 0f 7e c0 78 ac 8a bf 60 c0 df 40 02 bc 6c c0
       -3.9696908 -1.0833883 6.9922333 -3.698975
000080 21 ae be bf 3d 7f a4 bf 1c 50 87 c0 6e cc 5c 40
       -1.489689 -1.285133 -4.228529 3.4499774
000090 63 86 2b 3f 98 51 08 bf 85 47 16 bf 32 26 89 c0
       0.6700193 -0.532495 -0.5870288 -4.2859125
0000a0 3d 2c b7 40 80 27 0f 3f 64 d5 be c0 63 49 ef bf
       5.72415 0.5591965 -5.9635487 -1.8694271
0000b0 26 c4 30 40 be b3 ac c0 79 85 24 41 6d ba 8d c0
       2.761972 -5.396941 10.282586 -4.429007
0000c0 11 0e 94 3f db 64 c4 3f c5 5b 79 40 5a 7e c1 bf
       1.1566793 1.5343279 3.8962262 -1.5116684
0000d0 67 68 4f c0 16 81 ff 40 73 37 e9 3f 2d 2f 74 40
       -3.2407472 7.9845076 1.8220047 3.8153794
0000e0 22 8f 1f c0 65 57 87 c0 15 1a 1d 40 6b 36 8e 3f
       -2.4931111 -4.2294183 2.454717 1.1110357
0000f0 90 b9 cd 40 cd d1 f9 c0 eb 6f a8 40 d7 f3 5b 40
       6.4289017 -7.8068604 5.263662 3.4367578
000100 a9 32 e5 c0 0a 49 f0 3f 1b f7 fe 40 cb a3 90 c0
       -7.162434 1.877229 7.9676642 -4.5199943
000110 c1 9a 4f bf a7 51 09 c1 4a ab 59 c0 05 b7 33 c0
       -0.8109551 -8.582435 -3.4010797 -2.8080456
000120 63 5c 5e 40 7f d0 b3 3f 9b 09 81 bf b1 53 af 40
       3.4743888 1.4048003 -1.0081056 5.478966
000130 e7 ba 03 40 65 58 12 3f 4f b4 96 3f c9 94 fd bf
       2.0582826 0.5716613 1.1773776 -1.9811031
000140 25 f7 6d c0 b2 18 88 c0 47 6f ec 40 32 6a bb bd
       -3.7182095 -4.2530146 7.3885837 -0.091511145
000150 60 5b 9e 40 7b 42 d9 3f 63 ee 29 40 e5 28 f9 bf
       4.948654 1.6973413 2.655175 -1.9465605
000160 8d d0 15 c0 0d ec a1 3d f7 95 93 be 7e e0 c0 3f
       -2.340854 0.07906351 -0.28825352 1.506851
000170 31 86 0f c0 4d 2e 78 3e 6a 98 60 c0 dc b6 e4 bf
       -2.2425654 0.24236412 -3.5093026 -1.7868304
000180 00 40 c3 c0 f5 9d 97 40 30 7a 5f c0 ec 2e ac c0
       -6.1015625 4.738032 -3.4918327 -5.380728
000190 86 5a 28 be b1 49 21 c0 24 b9 8c 3d e2 33 cc 3f
       -0.16440782 -2.5201228 0.0687125 1.5953333
0001a0 63 26 0c 3f 60 cc d6 bf aa 93 a1 c0 f2 f1 1b c0
       0.54746073 -1.678112 -5.0492754 -2.4366422
0001b0 70 bc d5 3f b7 c0 1a bf 65 aa b0 c0 a3 ae be 40
       1.6698132 -0.6045031 -5.5208 5.958818
0001c0 7f ab 28 40 36 fe ef 3d 1a 48 c8 c0 93 7f 91 3f
       2.6354673 0.11718409 -6.2588015 1.1367058
0001d0 8b 9e 07 3f 59 98 d0 bf 75 a5 23 40 43 5f 66 40
       0.5297629 -1.6296493 2.5569737 3.5995643
0001e0 b7 b4 0d 40 3b a5 f0 3f c2 74 14 c0 49 f9 46 c0
       2.214155 1.8800424 -2.3196263 -3.1089652
0001f0 e8 e1 c6 40 f0 07 36 c0 26 07 78 bf f3 7e 16 bf
       6.2150764 -2.8442345 -0.9688591 -0.5878746
000200 30 84 51 3f 87 f1 05 c1 fc 2d 58 c0 43 09 53 c0
       0.8184233 -8.371467 -3.3778067 -3.2974403
000210 63 a1 32 c0 ba f1 90 40 7e 33 67 40 46 45 31 c0
       -2.7911003 4.5295076 3.6125178 -2.769853
000220 36 a0 c1 c0 1b 53 6b 40 7d cd bb c0 f2 6e 7f c0
       -6.050807 3.6769474 -5.868834 -3.9911466
000230 4e 86 32 3e 81 8d 5f c0 bc 3a 50 c0 22 25 9c 3f
       0.17434046 -3.4930117 -3.2535849 1.2198832
000240 d6 c6 6d 40 e6 f3 84 40 fe af 75 40 4a 3c 3f c0
       3.715261 4.1547728 3.8388667 -2.9880548
000250 d9 8c c3 3f 78 86 4a bf 15 ad 6d c0 3f 40 da 3f
       1.5277358 -0.79111433 -3.713689 1.7050856
000260 37 6d 75 3f 12 bc 98 be 0b 6b 31 c0 d8 92 9e bf
       0.95869774 -0.29830986 -2.7721584 -1.2388563
000270 cf 17 be bf de d9 fe 3f 3a 4e d7 c0 f1 ca 05 bf
       -1.4851016 1.9910238 -6.728299 -0.5226279
000280 1e c6 70 3f 2f 55 a6 40 df b5 22 bf a9 78 3d 3f
       0.940523 5.1978984 -0.63558763 0.7401224
000290 5f 07 31 3f 23 6e bf 3f 21 66 86 3e d0 2f db bf
       0.6915187 1.4955486 0.26249793 -1.7123966
0002a0 85 51 e0 bf 1e 10 25 c1 77 63 82 40 50 20 e0 3f
       -1.7524878 -10.316435 4.0746417 1.7509861
0002b0 29 39 48 40 58 02 c6 40 e9 49 4c c0 5b ba 96 c0
       3.1284888 6.187786 -3.192011 -4.7102485
0002c0 a1 14 f8 bf 15 00 09 c0 94 6f 91 3e 59 ac 3e bf
       -1.9381295 -2.14063 0.2840544 -0.7448173
0002d0 0c f6 b4 c0 43 bc 38 c0 ff a1 59 40 5c 84 06 40
       -5.655035 -2.8864906 3.4005125 2.1018286
0002e0 b1 c2 9d 40 a6 67 05 40 f3 70 6a c0 93 2f 60 bf
       4.930016 2.0844512 -3.6631439 -0.8757259
0002f0 68 60 7d c0 44 6b c9 3f 89 aa db 40 4a 86 e5 c0
       -3.9590092 1.573586 6.8645673 -7.1726427
000300 9d 4f 16 40 03 5f 4a 40 c7 c3 d0 3d 8f f9 6c 3f
       2.3486092 3.162049 0.101935916 0.92568296
000310 00 7f b2 40 62 68 fd 40 e8 a4 02 c0 e7 58 50 c0
       5.578003 7.918992 -2.041315 -3.2554262
000320 b6 df ef 3f 59 81 b1 c0 83 7e 3b c0 bb 15 36 40
       1.8740146 -5.5470395 -2.9295967 2.8450763
000330 01 10 1b c0 c7 f3 dc bf 2e e6 ed bc c6 98 83 c0
       -2.4228518 -1.7261895 -0.029040422 -4.112399
000340 67 6f b9 40 29 0d ad 3d 46 97 46 bd cc dc bd 40
       5.794849 0.08449776 -0.04848411 5.9332027
000350 13 6f 0b 40 d7 5b 7c be 36 9c d9 bf 64 cb f9 c0
       2.1786544 -0.24644409 -1.7000797 -7.806078
000360 31 39 83 40 23 f6 1e 41 f3 7b 4c c0 a7 5d 52 c0
       4.1007314 9.935092 -3.1950653 -3.286966
000370 05 db 50 40 2e ce 2b c0 bd 55 a2 3f 4e 03 4b c0
       3.263368 -2.6844592 1.2682415 -3.1720767
000380 79 12 91 c0 8c b4 e5 40 0d b7 1d bf f8 92 b1 bf
       -4.533505 7.1782894 -0.6160744 -1.3872976
000390 e8 cf 30 40 f0 d8 0d 3e 76 da bb be f9 72 6a 40
       2.7626896 0.13852286 -0.3669011 3.6632674
0003a0 8d 3f 09 3e b6 6f 2a 40 a3 d0 c0 bf c8 df 09 bf
       0.13403149 2.6630683 -1.5063671 -0.5385709
0003b0 69 c9 e1 c0 97 ea d5 bf 65 d9 fb c0 3e b1 03 c1
       -7.055836 -1.6712216 -7.8702874 -8.230772
0003c0 16 1d 7a bf 65 bb 4c 40 f9 b7 cf c0 5f ed cb 40
       -0.9770063 3.1989377 -6.4912076 6.372726
0003d0 63 94 02 c1 f2 fd 42 40 38 74 9c 40 6d 3c 4f c0
       -8.161227 3.0467496 4.889187 -3.238063
0003e0 46 6d cb 40 ee 68 2d 3f 84 c8 a3 bf c6 59 ff 40
       6.357089 0.67738235 -1.2795568 7.9797087
0003f0 87 07 07 c0 11 d8 f1 bf 06 a8 b1 3e f5 08 8d c0
       -2.1098344 -1.8894063 0.34698504 -4.4073434

linears.2.bias f4 [50]
000000 1c 69 04 3f 1f 77 68 3f 41 d4 b0 bf c4 ce 17 bf
       0.51722884 0.90806764 -1.3814775 -0.59299874
000010 23 28 8c c0 e6 25 d7 3f fc 4a b4 bf 8a da 08 c1
       -4.3798995 1.6808441 -1.4085383 -8.553354
000020 15 cd e1 3f 9f f7 65 40 9b 6b 7d 40 45 32 ed 3f
       1.7640711 3.5932386 3.9596927 1.8530966
000030 b3 d9 37 bf 6e 45 4b c0 05 19 5a 3f af 86 5e 3f
       -0.7181656 -3.1761127 0.85194427 0.8692426
000040 e0 ff 0c c1 5c 36 d3 3e 8b 8d 03 40 88 c8 3b 40
       -8.8124695 0.4125241 2.055514 2.9341145
000050 54 8f e9 3f 77 45 47 bf 92 a8 ab 3f 2f 09 c4 c0
       1.8246865 -0.7784037 1.3410819 -6.126121
000060 53 35 cc 40 82 d4 33 bf 8c e8 55 40 da 71 ce 40
       6.3815093 -0.70246136 3.3423185 6.451398
000070 d0 bf e0 40 cb 4f af c0 5e d5 07 c0 aa 5a 1f 41
       7.0234146 -5.4784904 -2.122398 9.959635
000080 91 6b c4 3f 4e ba 44 c0 7d 2b 7e 3f 93 f1 94 bf
       1.5345327 -3.0738711 0.9928511 -1.1636223
000090 d2 09 80 bf 9c 5c 74 40 a8 7b 80 bf 63 65 0c 40
       -1.0002997 3.8181524 -1.0037737 2.1936882
0000a0 3e 6c 8c 40 d9 6a 63 40 07 a7 f3 bf 11 e4 c1 40
       4.388213 3.5533965 -1.9035348 6.05909
0000b0 8d 66 1c c0 b4 04 ca bf e4 84 a1 c0 30 41 21 40
       -2.4437592 -1.5782685 -5.047472 2.5196037
0000c0 21 ef 76 be 4f 55 be bf
       -0.24114658 -1.4869784

linears.3.weight f4 [50, 50]
000000 d8 91 b9 40 d6 ec f9 3f 9a 29 04 bf f0 f4 5e 3f
       5.799053 1.9525402 -0.5162598 0.87092495
000010 09 52 b2 bf 7a 16 4c 3f 4a 81 0b c0 55 d1 98 3f
       -1.3931285 0.79721797 -2.1797662 1.1938883
000020 2c be 48 3f f5 70 ce 3e 9c b9 49 40 c8 82 6c bf
       0.7841518 0.40320554 3.1519537 -0.92387056
000030 25 3b 0a c0 bb 87 ab c0 1c 2e f2 3f b5 27 39 c0
       -2.15986 -5.3603187 1.8920321 -2.8930485
000040 c5 60 3d c0 5c 27 f2 bf d3 97 0a c0 c4 70 44 40
       -2.9590313 -1.8918262 -2.1655166 3.0693827
000050 a4 37 a4 3f c5 38 9a 3f 1a 34 78 40 fd 1b df 3f
       1.282948 1.2048575 3.87818 1.7430416
000060 12 eb 0b 40 34 34 3b 40 b8 79 63 bf 6f d5 82 40
       2.1862226 2.9250612 -0.88857603 4.088554
000070 88 ba 61 c0 c6 11 b1 c0 b3 07 ba c0 4f 56 2a c0
       -3.52701 -5.5334196 -5.81344 -2.6615179
000080 13 37 c9 3f 87 d2 0d 40 6c 53 c7 c0 7a 4c fe 3f
       1.5719932 2.2159746 -6.2289333 1.9867089
000090 39 bf d2 3f 11 15 3b c0 f2 98 8e c0 d0 8b e9 40
       1.6464607 -2.9231608 -4.45617 7.298317
0000a0 31 d3 83 bf 1c 2e e2 40 ad 3a eb bf f5 7d ba bf
       -1.0298826 7.0681286 -1.8377281 -1.4569689
0000b0 8e a2 13 c0 00 d2 05 c0 31 d9 d2 bf ec 68 f2 bf
       -2.3067966 -2.0909424 -1.6472532 -1.893827
0000c0 c4 df 27 bf 9d e6 63 bf 79 5a a3 3d a4 f9 00 40
       -0.65575814 -0.8902376 0.07976241 2.0152369
0000d0 e0 44 20 c0 8f 7e 57 be 46 c7 33 40 e1 b8 03 c0
       -2.5042038 -0.21044372 2.8090377 -2.058159
0000e0 0a 41 cc bf a9 e2 52 3f c6 b8 e3 c0 fa 4c c4 40
       -1.5957348 0.82377106 -7.1163054 6.1343966
0000f0 11 76 38 bf cd c9 c8 bf 9b 5e 26 40 16 99 58 40
       -0.72055155 -1.5686585 2.5995243 3.3843436
000100 98 5f ed bf fd 5d 4d be 12 dc 06 c0 e8 79 c7 c0
       -1.8544798 -0.20055385 -2.107182 -6.233631
000110 c0 f0 f2 bf 92 5e 06 40 4f e1 60 3f b7 3e cf 3f
       -1.8979721 2.099522 0.87843794 1.6191014
000120 47 3b 2c bf 79 2d a5 bf 54 7e a6 bf 4a 3c 52 c0
       -0.6727795 -1.2904502 -1.3007302 -3.2849298
000130 66 b1 15 3f f6 d4 28 be 87 68 a1 c0 27 4a bf bf
       0.58473814 -0.16487488 -5.0440097 -1.4944504
000140 ac 2a 22 bf 1d 9c 09 40 ce 9a 4f be 17 20 3e c0
       -0.6334636 2.1501534 -0.20273897 -2.9707086
000150 90 9a 8e 3f e1 98 78 40 6a d9 92 3f 64 d3 a4 be
       1.1140919 3.884331 1.14726 -0.32192528
000160 c6 cb d8 bd 51 dd d9 3f 54 7c d4 3b 91 a9 fe 3c
       -0.10585742 1.7020665 0.0064845476 0.031086715
000170 be f0 b4 3f c1 60 b0 bf b1 26 35 40 db 17 2a 40
       1.4135969 -1.3779527 2.8304865 2.657706
000180 f7 79 98 bf 35 dc 8b 3d 0f 1d 98 c0 77 67 19 c0
       -1.1912221 0.068291105 -4.753547 -2.39694
000190 58 6d c4 c0 6c 40 8b 40 79 a2 8d 40 03 5c 87 3f
       -6.1383476 4.351614 4.426083 1.0574955
0001a0 4a ce 13 40 83 82 be bf 53 2e 58 c0 ae 0e ae bf
       2.309466 -1.4883579 -3.3778274 -1.359823
0001b0 d7 88 9b c0 ee 64 ae bf eb d8 7c be 05 20 d9 bf
       -4.860454 -1.3624551 -0.24692123 -1.6962897
0001c0 a2 9e 77 3f 11 db e0 bf fc 41 3f bf 68 dd e7 c0
       0.9672643 -1.7566854 -0.7471006 -7.245777
0001d0 e5 2d 83 bf eb 98 ee 3d 35 84 c6 40 18 c0 aa 3f
       -1.0248381 0.116502605 6.2036386 1.3339872
0001e0 a2 ea 8a bf fc e7 0c 3f d6 c3 15 40 72 d9 6d c0
       -1.0852854 0.5504148 2.3400779 -3.7163968
0001f0 09 e1 81 c0 91 16 4c bf 40 9d 93 3f 16 68 c4 3e
       -4.05872 -0.79721934 1.1532364 0.3836066
000200 2a 55 94 bf 4e 3d f1 3f ec ad 1a c0 a7 11 17 40
       -1.158849 1.8846834 -2.4168653 2.3604524
000210 13 2e 76 c0 3b ae 85 40 e1 eb 19 c0 d2 a1 f8 bd
       -3.8465621 4.1775184 -2.405022 -0.1214024
000220 0f a5 02 40 2f 13 2d 40 56 fd 54 40 45 e0 46 40
       2.0413244 2.7042959 3.3279624 3.1074383
000230 c2 e7 82 3f 6e d8 1b 3f 2c 38 40 40 ba c9 13 c0
       1.0226977 0.6087712 3.0034285 -2.3091874
000240 76 b9 5a c0 ba fe 24 3f 15 83 bb 3f 69 78 f0 3f
       -3.4175696 0.6445118 1.4649378 1.8786746
000250 b4 7d 9c 3f 93 03 d6 3e 16 b5 75 3e 69 2c 3e c0
       1.2225862 0.41799602 0.2399486 -2.9714606
000260 30 bc 83 40 ae ef 61 bf cd 40 ab 3f 98 8e 6c bf
       4.116722 -0.8825635 1.3379151 -0.9240508
000270 2f cc af c0 9f 77 d6 3f 5c 17 4f 3d 95 94 ce 3e
       -5.4936748 1.6755255 0.050559387 0.40347734
000280 31 5e 02 40 5f 65 39 c0 b6 7c d9 40 07 54 70 40
       2.036999 -2.8968122 6.7964735 3.7551286
000290 6d 4a 0d bd 47 19 21 c0 b6 f1 4a 3f 8c 29 bb 3f
       -0.034494806 -2.5171678 0.7927507 1.4622054
0002a0 48 98 32 c0 de 19 7e 40 37 4b 64 bf 85 b0 52 c0
       -2.7905445 3.9703288 -0.8917727 -3.292024
0002b0 c9 dd cb bf a6 97 08 40 d9 01 2a c0 24 13 79 3d
       -1.5927058 2.134256 -2.6563628 0.06080927
0002c0 15 0e 29 40 a9 b9 1b 40 ab 98 e6 c0 9b 00 63 bf
       2.6414845 2.4332068 -7.206136 -0.886728
0002d0 e9 cd 4e c0 51 15 9a 40 3d 63 3b 40 5b 84 3c c0
       -3.2313178 4.815102 2.927932 -2.9455783
0002e0 25 70 8c 3e 0f bf c4 bf b5 82 41 40 22 c9 42 c0
       0.2742931 -1.5370806 3.0236027 -3.0435262
0002f0 6a 3d 9a 3f 30 b3 1a c0 2c 6c 27 40 dc d6 9a 40
       1.2049992 -2.4171867 2.6159773 4.838728
000300 fb 83 f0 bf 75 14 a6 bf ba 32 0a 40 7e 47 da bf
       -1.8790277 -1.2974993 2.159346 -1.7053068
000310 a2 c9 81 c0 b5 18 21 be 71 16 1d 40 42 15 cb 3f
       -4.0558634 -0.15732081 2.4544947 1.5865862
000320 f9 5c 7d bf 7d d7 5a 3f f1 78 0d bf 49 5a 31 bf
       -0.9896999 0.8548506 -0.55262667 -0.6927839
000330 67 46 22 c0 02 12 7b 3f f3 99 d7 be dc e2 ab 3f
       -2.535547 0.9807435 -0.4210964 1.3428607
000340 1d 4d 4a c0 4e c7 a1 3d cf 5b 57 bf cf 19 62 c0
       -3.1609566 0.078993425 -0.84124464 -3.5328252
000350 da 44 f8 40 c0 85 b7 c0 47 a3 9c 40 c0 00 69 40
       7.7584047 -5.735077 4.8949313 3.6406708
000360 8c cc 97 bf 8d 0a c8 40 eb a9 10 c0 9d 08 81 3f
       -1.1859298 6.251288 -2.260371 1.0080754
000370 41 cc 10 bf 85 a4 67 40 2e 11 92 3f a8 c0 1c c0
       -0.56561667 3.6194165 1.1411493 -2.4492588
000380 47 0b 3e c0 a7 a7 7e 3e 46 b8 a6 3e 52 0a c4 3f
       -2.9694383 0.24868642 0.32562464 1.531565
000390 a1 48 09 40 24 b8 af 3f 29 25 da bf 5a 58 32 c1
       2.145058 1.372807 -1.704259 -11.14657
0003a0 13 75 a7 40 61 2e fd bd c8 de f0 bf fc bd 12 3f
       5.2330413 -0.12362362 -1.8817987 0.57321143
0003b0 58 78 f4 be 8c bc 10 3f 8c 24 00 40 72 0d 1f 40
       -0.47748065 0.565377 2.0022306 2.4851956
0003c0 e1 2b 1e 40 16 09 f8 bf e1 98 50 3e 1b 34 ca bf
       2.4714282 -1.9377773 0.20370819 -1.5797151
0003d0 c9 ae b8 bf d6 67 ed 3f 03 d5 de 3f 6f 60 0f c0
       -1.442834 1.8547313 1.7408756 -2.2402608
0003e0 25 28 41 c0 28 4b 15 40 a7 13 1c 3f 84 74 ae 3f
       -3.0180752 2.3327122 0.6096749 1.3629308
0003f0 62 f9 e7 be d7 5a a2 be 3b 87 65 3f 8b 8d b3 3f
       -0.4530745 -0.3170993 0.8965947 1.402757

linears.3.bias f4 [50]
000000 05 52 1f c0 46 65 14 bf 86 c5 c4 3e a9 9f cb bf
       -2.489381 -0.5796703 0.38431948 -1.59081
000010 21 59 eb bf 1a 8f 6f 40 2d 6a ee 3f 1c b1 9f 3e
       -1.8386575 3.7431092 1.8626152 0.3118981
000020 bc 8c 70 40 bf 6a 43 c0 a1 35 80 c0 38 5e af bf
       3.7585897 -3.0533903 -4.0065465 -1.3700628
000030 fd b0 18 40 a2 78 b3 40 b8 d0 c7 bf 98 4e 1f 40
       2.3858025 5.6084757 -1.5610571 2.489172
000040 05 f0 99 be be c7 4f c0 6c 23 72 40 82 29 86 3f
       -0.30065933 -3.2465663 3.783412 1.0481417
000050 41 7c 69 c0 58 f3 56 40 98 0d a1 3e ab 63 16 bf
       -3.6482089 3.3586025 0.31455684 -0.5874583
000060 87 a8 c3 bf 1b 01 04 c0 2a d6 86 3e 57 b2 25 3f
       -1.5285805 -2.0625675 0.2633527 0.6472525
000070 c6 03 a1 bf 1e ff 5b 40 2c 2c 4e c0 01 1f 13 40
       -1.2579277 3.437446 -3.221446 2.2987673
000080 d3 c7 b1 40 17 79 5a c0 be 12 11 40 ca 5f cb bc
       5.5556426 -3.4136407 2.266769 -0.02482595
000090 3a b1 43 c0 7d d8 84 40 df 95 71 3f 01 03 2d c0
       -3.057692 4.151427 0.9436931 -2.7033083
0000a0 0c 22 10 40 b7 f0 a9 be 27 4f dc bf 3f 43 15 3f
       2.252078 -0.33191463 -1.7211655 0.58305734
0000b0 34 9b 97 be a3 38 e9 be f3 49 52 bf 25 8e 0c bf
       -0.29610598 -0.45551023 -0.8214409 -0.54904395
0000c0 14 8f 47 40 8a 67 0b c0
       3.1181078 -2.1781945

linears.4.weight f4 [1, 50]
000000 fd 1c 47 3c 48 f1 89 bd 11 5b 1b be 19 dc d2 be
       0.012152907 -0.06735474 -0.15171458 -0.41183546
000010 68 6e 22 3d ab e4 08 3e 85 e0 8a 3d 8c 33 56 3d
       0.039656073 0.1336848 0.06781105 0.052295253
000020 98 70 61 bd 1f 27 74 3e 83 99 0e 3c e6 54 f4 3e
       -0.05503902 0.23843049 0.008703592 0.47721022
000030 2d 05 0d bc 3a 83 c6 be 8e cd 37 3e 6b b5 b2 3c
       -0.008607191 -0.38771993 0.17949507 0.021815022
000040 96 c2 85 be e9 9d 2c 3e 88 74 ec 3d 06 02 0c bd
       -0.2612502 0.16857113 0.11545664 -0.034181617
000050 b5 88 82 3e 07 a5 6e 3e b2 ba c9 3e a8 19 da 3e
       0.25494924 0.2330514 0.3940025 0.425977
000060 82 90 6e 3d 56 37 29 bd ed f5 21 bd 9b 9f 27 3d
       0.058243282 -0.041312538 -0.039541174 0.040923696
000070 63 c5 26 be bb 01 b3 3d 22 3e 16 be f7 33 b8 3c
       -0.16286235 0.087405644 -0.1467214 0.022485716
000080 5c e9 20 3e 79 37 e0 3e 21 9d 4b 3e cb 54 e1 ba
       0.1571402 0.43792322 0.19884159 -0.0017191408
000090 ff b7 da 3e 5a f9 be bd 77 46 b1 3e 5b 26 01 3f
       0.42718503 -0.09324904 0.34624073 0.5044915
0000a0 2c 5e 4d 3e 53 c9 a9 ba 36 8e 2c 3d 3f 3e b9 bd
       0.20055455 -0.0012953676 0.04212781 -0.090450756
0000b0 80 a4 ad 3b 9d 02 27 be d7 cc b6 be 37 d8 d0 3d
       0.005299151 -0.1630959 -0.35703155 0.1019749
0000c0 2f 36 f2 3e db ad de 3d
       0.47306964 0.10873004
