Archived Code/Stan TPAMI/Regression/Smooth1/rowdy_tune/Regr_smooth_rowdy_tune12_4.pt (torch, 35390 bytes, 12 tensors)

omega1 f4 [4, 1]
1.0601534 1.0723757 1.1727691 1.3929058
00000000: 1bb3 873f 9b43 893f 4c1d 963f bd4a b23f

alpha f4 [2, 4]
0.06733255 0.1674859 0.28230035 0.40983474 0.061994236 0.11144297 0.26941594 0.42301956
00000000: a6e5 893d 6c81 2b3e ac89 903e dcd5 d13e
00000010: abed 7d3d 363c e43d e3f0 893e 0596 d83e

omega f4 [2, 4]
0.27731976 0.3203357 0.37544125 0.3323033 0.25072587 0.19377434 0.18666552 0.16613884
00000000: dbfc 8d3e 0a03 a43e d639 c03e a823 aa3e
00000010: 245f 803e c86c 463e 3f25 3f3e 4d20 2a3e

linears.0.weight f4 [50, 1]
0.1561547 -0.17602777 0.037426177 0.08266805 -0.13976796 -0.31432533 0.37145582 -0.13612935
-0.117713064 0.27658898 0.3251367 -0.21109958 -0.05783751 0.003662381 -0.024610851 0.29919213
0.49168918 -0.3723357 -0.43482625 -0.104939744 -0.25344265 -0.075812876 -0.14998314 0.4272128
-0.00464072 0.21113463 0.14290944 0.036809355 0.28233257 -0.18056993 0.44055018 0.12625426
0.19143958 -0.031808984 0.13848709 -0.1902144 0.33557484 -0.15071158 -0.32913554 0.11391886
-0.008493383 -0.20306934 -0.1661816 -0.118485875 -0.27459255 -0.2252695 -0.0338694 0.12664694
-0.47194755 -0.06520509
00000000: 05e7 1f3e a040 34be 314c 193d de4d a93d
00000010: 551f 0fbe 40ef a0be 752f be3e 7e65 0bbe
00000020: 8c13 f1bd 129d 8d3e 5178 a63e 7d2a 58be
00000030: 06e7 6cbd 8f04 703b b29c c9bc b62f 993e
00000040: afbe fb3e c9a2 bebe 8ca1 debe a6ea d6bd
00000050: 3cc3 81be c843 9bbd 2e95 19be a3bb da3e
00000060: 2e11 98bb ad33 583e da56 123e 68c5 163d
00000070: e58d 903e 53e7 38be cb8f e13e cc48 013e
00000080: bd08 443e 234a 02bd 8fcf 0d3e 90c7 42be
00000090: 77d0 ab3e 2354 1abe 7484 a8be 4b4e e93d
000000a0: d527 0bbc 69f1 4fbe 822b 2abe b9a8 f2bd
000000b0: 6597 8cbe 0cad 66be a4ba 0abd bcaf 013e
000000c0: 1ca3 f1be 3f8a 85bd

linears.0.bias f4 [50]
0.066422455 -0.0028629557 0.02302963 0.014083838 -0.00407274 0.054952726 -0.05387337 -0.004882098
-0.048338182 -0.024341157 0.024279416 0.0085217375 -0.0158595 0.0061903093 -0.00077949045 -0.01650974
-0.037871733 0.09025189 0.013071619 -0.023257973 -0.015383104 0.045682296 -0.010584954 -0.04316347
-0.008940596 -0.01805936 -0.00041611775 -0.06560702 -0.027082104 0.00037451196 -0.008093647 0.007176535
-0.021213213 -0.02082765 -0.073798455 0.03904535 -0.0008584554 0.066739745 0.021299861 0.044088405
-0.040350057 -0.004841921 0.0015721911 -0.0157442 0.048082054 -0.008357764 0.0145145655 -0.07358098
0.012276252 0.07514553
00000000: 7f08 883d 6da0 3bbb a2a8 bc3c e6bf 663c
00000010: 9f74 85bb 1c16 613d 53aa 5cbd 02fa 9fbb
00000020: 42fe 45bd 1b67 c7bc a0e5 c63c c29e 0b3c
00000030: c8eb 81bc 14d8 ca3b b856 4cba 6f3f 87bc
00000040: 641f 1bbd fcd5 b83d 582a 563c 8187 bebc
00000050: 6a09 7cbc 5c1d 3b3d 846c 2dbc 2ecc 30bd
00000060: 947b 12bc 39f1 93bc 612a dab9 f95c 86bd
00000070: 4adb ddbc 255a c439 379b 04bc 2429 eb3b
00000080: 55c7 adbc bf9e aabc a523 97bd 04ee 1f3d
00000090: f709 61ba d9ae 883d 0c7d ae3c 0b96 343d
000000a0: 1a46 25bd faa8 9ebb fb11 ce3a fbf9 80bc
000000b0: b0f1 443d 01ef 08bc 80ce 6d3c a0b1 96bd
000000c0: 5522 493c e6e5 993d

linears.1.weight f4 [50, 50]
0.12495583 0.18014577 0.09981917 0.365395 -0.1541076 0.14084269 0.04030281 -0.019841172
-0.41555044 0.12902139 -0.02045654 -0.002914736 -0.19805881 0.20957285 -0.19549309 -0.14203978
-0.040140416 -0.1119305 0.057149284 -0.17453398 -0.0201559 -0.10922831 -0.044430133 -0.09155221
-0.23134711 -0.065328345 0.063377954 0.025805768 0.030201279 0.19862282 -0.0930614 -0.0196459
-0.12558609 0.08482819 -0.078074194 -0.11886143 0.14642568 0.17051342 0.16074713 0.1710665
-0.22728707 0.04635602 0.29532462 0.17931493 0.47806972 -0.04546418 0.14625497 -0.102580525
-0.057913385 0.06847888 -0.02665608 0.38345397 -0.17659597 0.07065082 -0.15834005 -0.11553154
-0.07904455 -0.19045188 -0.21652378 -0.1183872 -0.09290328 0.020731013 0.28452995 -0.2317202
-0.17446238 -0.015135705 0.1036708 -0.12823164 0.03228499 0.24114548 0.30015808 0.009680397
0.25053683 -0.022143686 0.035141546 0.088928156 -0.08269369 -0.07513535 -0.12789258 0.20750287
0.045508116 -0.02216742 -0.15936537 -0.08119887 0.060519714 0.31679797 -0.16667268 -0.15597507
0.086082086 -0.025420504 0.35297018 0.06572819 -0.033099342 -0.03281745 -0.10717973 0.120770946
0.14420131 -0.161291 0.123605385 -0.23051484 -0.2598252 -0.22280955 0.095146455 0.15062924
-0.0720888 -0.083901785 -0.17954904 0.030057112 0.009215333 0.09253769 -0.021685101 -0.13424364
0.26073077 -0.10347445 0.04931162 0.048903767 -0.08777886 -0.0054924833 0.196665 -0.09338105
0.097604565 -0.028350567 -0.17143814 -0.17725235 -0.08882532 -0.01891365 0.18620259 0.33946842
0.28512156 -0.14232829 0.28658792 0.029681789 0.045262713 0.10015848 0.015604396 -0.17263548
-0.003982352 -0.13376483 -0.07138039 0.11548793 0.18594337 0.23778722 0.13364035 0.09178498
0.08138314 -0.012409298 0.07115197 0.12131689 -0.10277403 0.026511557 -0.20800357 0.23630574
-0.33166027 0.0056992657 0.02271295 -0.19085075 -0.090103075 0.009450694 0.20930849 0.01707004
0.14473675 0.07955021 0.11315984 -0.24870698 0.13606526 0.065397575 -0.07805024 -0.057906307
0.010238749 0.13775463 0.09412797 -0.13837081 0.0047049774 0.34352493 0.074145496 -0.050105833
-0.26162958 0.046571027 0.05151835 -3.8679667e-05 0.16043103 0.14968236 -0.14659326 0.15916114
-0.033266604 -0.10239776 -0.043845057 0.1787849 0.30989647 0.11885876 0.19706292 0.10546216
-0.093281835 -0.0027544645 -0.25799415 -0.038360126 -0.05949806 0.07598063 -0.31640303 0.032980092
0.089380376 0.18447849 -0.047551904 -0.15254545 0.31726247 -0.03804751 0.101116166 -0.07722883
0.01508254 -0.19361961 0.038398538 0.16238622 0.11440384 -0.25281712 0.03552068 -0.2009295
-0.12403545 0.4219165 0.15667996 -0.05768152 0.032359418 0.11268718 0.36896464 -0.49536815
0.14135712 -0.019328145 0.08776772 -0.15948871 -0.11922896 -0.07771354 0.12571996 0.09638714
0.07035725 0.27685302 -0.22110665 0.007331642 -0.116009906 0.20040669 0.19620635 0.066036895
0.011429839 0.2631562 0.17968185 -0.14909302 0.014420006 -0.018018745 0.08150909 0.08433676
0.21413717 0.13529305 -0.21420564 0.27243555 -0.053998567 -0.015034844 0.11697328 -0.19708098
00000000: d8e8 ff3d 2278 383e fe6d cc3d 0e15 bb3e
00000010: 62ce 1dbe 1139 103e 8f14 253d f489 a2bc
00000020: 07c3 d4be 2f1e 043e 7994 a7bc 2805 3fbb
00000030: eecf 4abe 449a 563e 572f 48be e072 11be
00000040: 476a 24bd d13b e5bd 5e15 6a3d 09b9 32be
00000050: fc1d a5bc 18b3 dfbd 5ffc 35bd ba7f bbbd
00000060: 42e6 6cbe deca 85bd 4dcc 813d 9e66 d33c
00000070: ac68 f73c c863 4b3e fa96 bebd 70f0 a0bc
00000080: a499 00be 67ba ad3d 5de5 9fbd 9f6d f3bd
00000090: 9df0 153e 129b 2e3e e59a 243e 0e2c 2f3e
000000a0: f1bd 68be cfdf 3d3d ca34 973e 559e 373e
000000b0: 8ec5 f43e a638 3abd ddc3 153e bd15 d2bd
000000c0: 9636 6dbd a83e 8c3d da5d dabc 1454 c43e
000000d0: 93d5 34be 61b1 903d e523 22be cd9b ecbd
000000e0: 1ce2 a1bd d105 43be 69b8 5dbe fd74 f2bd
000000f0: 1344 bebd 16d4 a93c e9ad 913e 0f48 6dbe
00000100: 44a6 32be bffb 77bc 5b51 d43d 284f 03be
00000110: 443d 043d d7ee 763e 52ae 993e 879a 1e3c
00000120: 5d46 803e ad66 b5bc 95f0 0f3d f71f b63d
00000130: 4f5b a9bd 90e0 99bd 46f6 02be a27b 543e
00000140: b866 3a3d 7398 b5bc ad30 23be 984b a6bd
00000150: 85e3 773d 5833 a23e 3eac 2abe eeb7 1fbe
00000160: ce4b b03d a93e d0bc 82b8 b43e 809c 863d
00000170: 2d93 07bd 976b 06bd 0c81 dbbd c256 f73d
00000180: 82a9 133e 7829 25be d224 fd3d 150c 6cbe
00000190: cf07 85be 3028 64be 25dc c23d 8d3e 1a3e
000001a0: 4ba3 93bd b3d4 abbd b4db 37be 553a f63c
000001b0: e8fb 163c 6784 bd3d f4a4 b1bc 2a77 09be
000001c0: 817e 853e 6aea d3bd fbfa 493d 514f 483d
000001d0: 67c5 b3bd 4afa b3bb 8d62 493e 903e bfbd
000001e0: e7e4 c73d 733f e8bc 7b8d 2fbe a481 35be
000001f0: 0dea b5bd cdf0 9abc e4ab 3e3e cece ad3e
00000200: 74fb 913e 82be 11be a7bb 923e 3927 f33c
00000210: 6565 393d e41f cd3d 95a9 7f3c 5bc7 30be
00000220: 647e 82bb a6f9 08be e22f 92bd f084 ec3d
00000230: f067 3e3e 7e7e 733e 04d9 083e c3f9 bb3d
00000240: 34ac a63d 5e50 4bbc 20b8 913d fd74 f83d
00000250: 317b d2bd c42e d93c e3fe 54be 22fa 713e
00000260: 60cf a9be e8c0 ba3b 8210 ba3c 616e 43be
00000270: f687 b8bd 15d7 1a3c f754 563e 78d6 8b3c
00000280: df35 143e 38eb a23d 59c0 e73d 0bad 7ebe
00000290: b154 0b3e 2aef 853d ced8 9fbd 2a2f 6dbd
000002a0: 6dc0 273c 8d0f 0d3e 2ac6 c03d 14b1 0dbe
000002b0: 362c 9a3b 80e2 af3e 98d9 973d c63b 4dbd
000002c0: 50f4 85be 43c1 3e3d e804 533d fa3b 22b8
000002d0: 0848 243e 5546 193e 8b1c 16be 23fb 223e
000002e0: 9042 08bd ebb5 d1bd e096 33bd 6413 373e
000002f0: c0aa 9e3e 396c f33d ddca 493e 8cfc d73d
00000300: 8c0a bfbd 3f84 34bb cf17 84be 821f 1dbd
00000310: 3db4 73bd bc9b 9b3d 94ff a1be 2216 073d
00000320: 0f0d b73d eee7 3c3e c9c5 42bd e034 1cbe
00000330: 3a70 a23e b5d7 1bbd fe15 cf3d 262a 9ebd
00000340: c21c 773c 3844 46be c947 1d3d 9348 263e
00000350: 8f4c ea3d 3f71 81be 227e 113d 76c0 4dbe
00000360: 4c06 febd 7105 d83e b670 203e 7543 6cbd
00000370: 4f8b 043d 89c8 e63d efe8 bc3e e5a0 fdbe
00000380: ecbf 103e 0f56 9ebc 90bf b33d 0251 23be
00000390: 502e f4bd 4728 9fbd bcbc 003e 9f66 c53d
000003a0: 7617 903d aebf 8d3e c869 62be 453e f03b
000003b0: 9a96 edbd 6937 4d3e 51ea 483e 5a3e 873d
000003c0: 3844 3b3c 69bc 863e 85fe 373e d7ab 18be
000003d0: e441 6c3c 0c9c 93bc 3dee a63d c0b8 ac3d
000003e0: c646 5b3e 438a 0a3e b958 5bbe ac7c 8b3e
000003f0: 9a2d 5dbd b554 76bc b08f ef3d 99cf 49be

linears.1.bias f4 [50]
0.060760338 -0.074223325 0.021830132 -0.08138912 0.013048221 -0.03810544 -0.021519769 -0.04918985
0.041102186 -0.0484465 0.06018194 -0.05977687 -0.059606627 0.021680502 -0.01998364 -0.0150354225
0.05020815 -0.008040131 0.012770968 -0.02708287 -0.03717601 0.053708702 0.00081574655 0.017844412
-0.018889192 0.019372933 -0.02120373 0.038405843 -0.017182695 0.033172365 -0.031318072 0.044149444
-0.014992687 0.024368092 0.0053453716 0.014290833 -0.066587664 -0.013226511 0.06843262 0.07165293
-0.08208297 0.007379452 0.006311395 -0.046095513 0.07145242 0.02814755 -0.017746491 0.0067678974
-0.013173283 0.029551422
00000000: d5df 783d 6602 98bd 1bd5 b23c 57af a6bd
00000010: 35c8 553c 7314 1cbd 3a4a b0bc 4c7b 49bd
00000020: c45a 283d d66f 46bd 5781 763d 97d8 74bd
00000030: 1426 74bd 4f9b b13c bbb4 a3bc 2257 76bc
00000040: 10a7 4d3d c1ba 03bc 523d 513c e5dc ddbc
00000050: df45 18bd a8fd 5b3d d3d7 553a 722e 923c
00000060: 82bd 9abc fcb3 9e3c 72b3 adbc 724f 1d3d
00000070: b9c2 8cbc bfdf 073d 6147 00bd 0cd6 343d
00000080: e3a3 75bc 989f c73c 3a28 af3b 1924 6a3c
00000090: 1d5f 88bd 02b4 58bc 6726 8c3d c5be 923d
000000a0: 1e1b a8bd 55cf f13b d2cf ce3b a6ce 3cbd
000000b0: a555 923d b195 e63c 1761 91bc 3dc5 dd3b
000000c0: c1d4 57bc d315 f23c

linears.2.weight f4 [50, 50]
0.06758973 0.16538604 0.09173289 -0.16170332 0.021886084 -0.08911525 0.026967015 0.08340356
0.055952646 -0.15976244 0.11430888 0.2985089 -0.17473318 0.0997587 0.14019692 -0.046647295
0.15728003 -0.12124645 0.12779015 -0.10010857 0.10351422 -0.13387373 0.09610213 -0.01959415
0.05822644 -0.38936323 -0.11921773 0.10246271 -0.0019166868 0.028880212 -0.1447964 0.17463568
0.18911932 0.048217192 0.17167205 0.15882625 -0.104409665 0.11234401 0.15740915 -0.039531466
0.009526383 0.22741583 -0.083147205 -0.13587596 -0.21810544 0.062172428 -0.06635304 0.06629436
-0.037687767 0.053152367 -0.009073938 -0.088400796 0.0021295943 0.07229229 0.08767119 0.100890934
0.16619448 0.14758335 0.10415363 -0.0005699524 -0.09108038 -0.00785601 -0.19368969 -0.19973291
0.18527453 -0.115895875 -0.068618365 -0.1661528 0.12760171 0.011102961 0.36230162 0.063262165
0.15775582 0.13776712 -0.2644479 0.07539147 -0.18632807 0.14973685 -0.089097805 0.022728117
-0.1505216 -0.36191976 0.45153233 -0.06255098 0.12663189 0.26730758 -0.13251366 0.24398877
0.08674673 0.2579823 0.15384027 0.13374357 0.049052432 0.0068419497 -0.16146132 0.011056408
0.14695987 -0.16994062 0.10186171 -0.05694605 0.032627124 0.21500503 -0.13119449 -0.1542306
0.27537647 0.017555756 -0.13168819 -0.041546855 -0.10481712 0.17152403 0.020186787 -0.07157561
0.08966321 0.06443451 0.20216742 -0.2819057 -0.063093446 -0.22194028 0.34485105 -0.06181378
0.042940915 -0.13090119 0.37514842 0.28624225 0.08522389 -0.026548471 0.12364677 0.07112605
-0.03384817 0.006575384 -0.21586923 -0.12768227 -0.1198027 0.059009496 -0.0377234 -0.030760987
-0.19427203 -0.09947561 -0.07349474 0.1705553 0.03954303 -0.22418873 -0.04873287 -0.021009922
0.035522193 0.12140678 -0.17793253 -0.2372235 -0.030185368 -0.075146206 -0.09169657 0.24114768
-0.13713317 0.07994303 0.24469678 0.009290074 0.09259345 -0.0065545957 -0.25532806 0.22124168
-0.12135812 -0.07498806 -0.018164864 0.13279997 0.13199136 -0.0659051 -0.04244396 -0.07583973
0.017676597 -0.07611881 0.07403444 -0.0137795005 -0.045798283 -0.11861727 -0.051302843 0.0937592
0.24360412 -0.16543259 -0.27303687 -0.112648875 0.01691208 0.07661415 -0.022945963 -0.039066788
0.09592937 -0.24358825 -0.04157356 -0.050052315 0.079388276 -0.06764969 0.084953316 -0.0068861544
0.023389438 -0.060313895 0.13312937 0.079725884 0.17789403 -0.08803101 -0.034941364 0.21368143
0.017015822 0.06412559 -0.026005173 -0.03797853 0.10170833 0.3322728 -0.020843437 -0.012780917
0.11269811 0.016607318 0.05494376 0.08556447 -0.050766263 0.13323991 -0.0009635649 -0.08293196
-0.3117166 -0.09351393 -0.020695476 -0.20387721 0.086683385 -0.009653109 -0.03463558 0.1988442
-0.19679035 0.061297853 -0.049902894 0.07551357 0.016578607 -0.04249588 -0.14969885 -0.33931306
-0.10483092 -0.16872121 -0.028697975 0.23085083 0.22834943 -0.0640739 -0.24250533 -0.19207212
0.020474924 0.00093493506 0.057754096 0.09919876 0.06751708 0.14360417 0.025354825 -0.21273649
0.18684898 -0.033766087 0.16521981 -0.14639576 -0.19499622 -0.04306503 -0.26063335 -0.045378592
00000000: 7c6c 8a3d f55a 293e 74de bb3d 8e95 25be
00000010: 724a b33c 0e82 b6bd eee9 dc3c 7ccf aa3d
00000020: 9a2e 653d c498 23be c61a ea3d 29d6 983e
00000030: 41ed 32be 4a4e cc3d c88f 0f3e 3c11 3fbd
00000040: 040e 213e 0f50 f8bd 6cdb 023e b905 cdbd
00000050: 43ff d33d 3216 09be 32d1 c43d e983 a0bc
00000060: d97e 6e3d 9e5a c7be 6d28 f4bd f8d7 d13d
00000070: 5639 fbba 3296 ec3c 8245 14be b2d3 323e
00000080: 7fa8 413e 647f 453d ccca 2f3e 59a3 223e
00000090: bcd4 d5bd 9e14 e63d dd2f 213e bfeb 21bd
000000a0: 8c14 1c3c b2df 683e 1549 aabd 1123 0bbe
000000b0: 0857 5fbe 84a8 7e3d 1ae4 87bd 56c5 873d
000000c0: 7d5e 1abd 4cb6 593d dbaa 14bc 7a0b b5bd
000000d0: aa90 0b3b fb0d 943d f48c b33d e89f ce3d
000000e0: e32e 2a3e 1720 173e 804e d53d dc68 15ba
000000f0: 5a88 babd 7fb6 00bc 9756 46be c986 4cbe
00000100: 9bb8 3d3e d15a edbd c987 8cbd f623 2abe
00000110: 06aa 023e 32e9 353c 997f b93e 988f 813d
00000120: be8a 213e d312 0d3e b765 87be d866 9a3d
00000130: c9cc 3ebe 9e54 193e e978 b6bd 5130 ba3c
00000140: 5622 1abe 8c4d b9be 3f2f e73e ba1a 80bd
00000150: caab 013e 8adc 883e a9b1 07be 31d8 793e
00000160: 45a8 b13d 4216 843e 4e88 1d3e 13f4 083e
00000170: 34eb 483d 6f32 e03b 1e56 25be f025 353c
00000180: a67c 163e ea04 2ebe df9c d03d 4340 69bd
00000190: 05a4 053d 472a 5c3e d957 06be a0ee 1dbe
000001a0: 25fe 8c3e 17d1 8f3c 45d9 06be 092d 2abd
000001b0: 5caa d6bd ffa3 2f3e c35e a53c 3c96 92bd
000001c0: 58a1 b73d 3ef6 833d fa04 4f3e f255 90be
000001d0: 2337 81bd 5044 63be 5190 b03e 7230 7dbd
000001e0: d0e2 2f3d f60a 06be 7413 c03e 588e 923e
000001f0: dd89 ae3d 2e7c d9bc 853a fd3d 89aa 913d
00000200: 61a4 0abd 5276 d73b d30c 5dbe 24bf 02be
00000210: 1e5b f5bd f1b3 713d da83 1abd 77fe fbbc
00000220: 3fef 46be deb9 cbbd 6984 96bd 0ca6 2e3e
00000230: dff7 213d bb91 65be 1e9c 47bd 001d acbc
00000240: b87f 113d 1ea4 f83d f233 36be b8ea 72be
00000250: 4e47 f7bc 41e6 99bd 69cb bbbd 6bef 763e
00000260: a36c 0cbe 2cb9 a33d cb91 7a3e 6535 183c
00000270: a2a1 bd3d efc7 d6bb 5cba 82be 2e8d 623e
00000280: 9b8a f8bd 5793 99bd 7bce 94bc b7fc 073e
00000290: be28 073e 41f9 86bd b8d9 2dbd dc51 9bbd
000002a0: 83ce 903c 2ee4 9bbd 5e9f 973d 6ac3 61bc
000002b0: fb96 3bbd 9ced f2bd ee22 52bd d304 c03d
000002c0: 5c73 793e 2967 29be 7dcb 8bbe 74b4 e6bd
000002d0: 348b 8a3c e1e7 9c3d 2cf9 bbbc 7f04 20bd
000002e0: 9e76 c43d 336f 79be 0a49 2abd a803 4dbd
000002f0: 5296 a23d ec8b 8abd 01fc ad3d 40a5 e1bb
00000300: 359b bf3c b40b 77bd 1153 083e 5347 a33d
00000310: da29 363e 9a49 b4bd ad1e 0fbd 4ecf 5a3e
00000320: c464 8b3c 4754 833d cd08 d5bc 608f 1bbd
00000330: 754c d03d a91f aa3e dbbf aabc 0d67 51bc
00000340: 44ce e63d 120c 883c b50c 613d 6d3c af3d
00000350: 49f0 4fbd 0b70 083e bf97 7cba 3bd8 a9bd
00000360: 5199 9fbe 3b84 bfbd 8f89 a9bc 30c5 50be
00000370: 0f87 b13d 1328 1ebc 0ade 0dbd d09d 4b3e
00000380: 6983 49be 7513 7b3d fa66 4cbd dca6 9a3d
00000390: dccf 873c 2910 2ebd a84a 19be 71ba adbe
000003a0: 98b1 d6bd 41c5 2cbe 0418 ebbc 2964 6c3e
000003b0: 6fd4 693e 2d39 83bd 5153 78be 8eae 44be
000003c0: 07bb a73c 6e16 753a 8f8f 6c3d b828 cb3d
000003d0: 6546 8a3d f90c 133e ecb4 cf3c 98d7 59be
000003e0: 5755 3f3e 4f4e 0abd 622f 293e c5e8 15be
000003f0: 17ad 47be f564 30bd bc71 85be e7de 39bd

linears.2.bias f4 [50]
0.0049982914 0.04396196 0.026348809 -0.014431551 -0.010804495 0.06367056 -0.009181958 0.037231974
-0.013245352 -0.039254766 -0.010117486 -0.02356522 -0.04214814 0.0085575 0.012466979 -0.023589054
-0.030747186 0.027280413 0.06315662 0.017975075 -0.012100908 -0.0382171 0.053398333 0.04226007
0.031234037 -0.0022602913 0.015718607 0.045503803 0.046295635 0.048738986 0.0031499416 -0.0029354712
-0.00022972492 -0.008625481 0.06521842 0.027182069 0.06507845 0.04156871 -0.023622774 -0.047212172
-0.054072734 -0.040733494 -0.043581504 0.03274782 -0.03559855 0.014467469 0.07912902 -0.01795942
-0.04138009 0.037013438
00000000: b5c8 a33b 7511 343d 75d9 d73c 5072 6cbc
00000010: 5605 31bc b665 823d ec6f 16bc 8e80 183d
00000020: 0803 59bc 9bc9 20bd d0c3 25bc d90b c1bc
00000030: 87a3 2cbd c234 0c3c 4d42 4c3c d53d c1bc
00000040: 86e1 fbbc 2c7b df3c 4258 813d 7740 933c
00000050: e342 46bc 8989 1cbd 36b8 5a3d e518 2d3d
00000060: 86de ff3c 6521 14bb 4fc4 803c 3262 3a3d
00000070: 7ea0 3d3d 88a2 473d 406f 4e3b 0961 40bb
00000080: 50e2 70b9 e451 0dbc 3c91 853d eeac de3c
00000090: da47 853d f443 2a3d 8c84 c1bc 8d61 41bd
000000a0: 5f7b 5dbd 2ad8 26bd 8582 32bd 9422 063d
000000b0: c9cf 11bd f708 6d3c 650e a23d a21f 93bc
000000c0: 2b7e 29bd 679b 173d

linears.3.weight f4 [50, 50]
-0.026855748 0.09802833 -0.32903868 -0.025416227 0.095984936 -0.23907545 0.007259896 0.23350957
0.2057359 0.23480724 0.22326659 0.09653832 0.27450883 0.13931198 0.116809115 0.34132862
0.25258833 0.19940309 -0.2306005 0.07708677 -0.06885052 -0.21482508 0.19256723 0.17010286
-0.36433753 0.16155216 0.28577912 -0.20910564 -0.059120443 -0.09300804 0.31912577 -0.04318054
0.13550799 -0.019258484 -0.0046808035 -0.005613429 -0.13251773 0.10898141 0.020595491 0.08222521
0.23114741 0.012235977 -0.24128008 0.0033471591 -0.15655997 -0.1178912 0.17401153 0.009549829
0.089856036 -0.1300162 -0.13350716 0.03090867 0.29750922 0.15130034 0.18574885 0.16753069
-0.0021853428 0.2161491 0.0043907175 -0.2577812 0.04181311 -0.2132029 -0.29663083 0.1978117
0.06167403 -0.19002959 0.11466842 -0.13781969 0.29597288 -0.08917957 -0.011833168 -0.1005865
0.004858482 0.18430124 0.031761058 0.1146677 -0.0006524648 0.37572077 0.05179637 -0.025866603
0.05059339 -0.1277988 0.055515196 -0.15529455 0.5114532 0.15097417 -0.013695998 0.095088676
-0.054293685 0.0063026054 0.26868045 -0.14645156 -0.24493979 0.019419631 0.1192502 0.041783758
0.06479326 -0.13232037 0.06489168 -0.07514642 0.13789779 -0.10026071 -0.14156494 -0.054516695
0.17137852 -0.15102279 0.25769386 -0.15930289 -0.068922 0.04052959 -0.013649159 0.15460743
-0.17396308 0.056683887 0.20355381 0.24443278 0.045054853 -0.062257465 -0.35316324 0.064801544
-0.11193688 0.22242385 0.008076442 0.122311294 -0.121332385 -0.22556931 0.131764 0.017559348
-0.10968141 -0.3222985 0.064417936 0.29576018 0.093868166 0.09196879 0.01759956 -0.24896555
0.15049201 0.055279978 0.16946845 0.09805413 0.09483265 -0.009164465 -0.012574051 -0.10270546
-0.15687783 0.14602031 -0.057062738 0.05308772 0.21512926 -0.08438698 0.01320853 0.097795755
0.23730353 0.20714374 0.055028938 0.34927344 -0.061492927 0.26671755 0.09924582 -0.11155034
0.016548203 0.0064377333 -0.07482202 0.12078368 0.083996825 0.022193227 -0.078096755 0.041103963
0.09664263 0.15059255 -0.04953031 -0.14603847 0.392873 0.16267182 -0.002045719 0.037065435
0.21095178 -0.1693051 0.27447128 0.111550204 -0.06357319 -0.12972656 -0.034891434 0.2635122
0.3260846 0.097996294 -0.030887024 -0.080784 0.22912762 0.02332524 0.11362486 0.048423063
0.10092303 0.07841887 -0.1966452 -0.15757313 0.38447997 0.012034437 0.16728432 0.27099207
-0.07336494 0.06251177 -0.016364357 0.16446172 -0.3383534 0.2277086 -0.04287926 -0.25808573
-0.12657814 -0.3028572 0.10599855 -0.2972223 -0.39261767 0.014297947 -0.10778392 -0.084334776
-0.07228188 0.044792272 0.14622486 0.16771388 0.18731709 0.0012418686 -0.2205133 -0.15839605
0.061083406 -0.04676219 -0.2208667 0.14632791 -0.21968192 -0.13374849 0.054466743 -0.17007451
-0.16424532 -0.3399863 0.0497037 -0.19760701 0.08309289 -0.28353295 -0.046442762 -0.206591
-0.15303683 -0.053123094 -0.24804169 0.12088484 0.3059231 0.26651207 0.123282194 -0.11844817
-0.040571958 0.35611787 -0.18024488 0.21525581 0.3046702 0.19087568 0.220983 0.13684642
00000000: 9600 dcbc 14c3 c83d c277 a8be b135 d0bc
00000010: c093 c43d 32d0 74be 6ce4 ed3b 221d 6f3e
00000020: 6fac 523e 4f71 703e ff9f 643e e2b5 c53d
00000030: 6c8c 8c3e cda7 0e3e 9e39 ef3d a0c2 ae3e
00000040: 4253 813e 5330 4c3e 8a22 6cbe abdf 9d3d
00000050: 8001 8dbd 1bfb 5bbe 5830 453e 722f 2e3e
00000060: 738a babe ee6d 253e a451 923e ca1f 56be
00000070: 4728 72bd 007b bebd 7464 a33e 14de 30bd
00000080: 9bc2 0a3e f8c3 9dbc 6d61 99bb dbf0 b7bb
00000090: bab2 07be a531 df3d e0b7 a83c b165 a83d
000000a0: e8b1 6c3e 6879 483c 2012 77be 035c 5b3b
000000b0: 4251 20be f170 f1bd 1430 323e e376 1c3c
000000c0: 7106 b83d f722 05be 1ab6 08be 2e34 fd3c
000000d0: 2153 983e 7aee 1a3e f234 3e3e 2a8d 2b3e
000000e0: f837 0fbb 3156 5d3e 02e0 8f3b e6fb 83be
000000f0: 3944 2b3d dc51 5abe ffdf 97be 268f 4a3e
00000100: e89d 7c3d 1e97 42be 47d7 ea3d 9b20 0dbe
00000110: c289 973e c7a3 b6bd e7df 41bc 4b00 cebd
00000120: e733 9f3b 77b9 3c3e e217 023d e6d6 ea3d
00000130: 2c0a 2bba 795e c03e 6e28 543d 33e6 d3bc
00000140: 043b 4f3d b0dd 02be e763 633d 8905 1fbe
00000150: 99ee 023f f998 1a3e 2e65 60bc dabd c23d
00000160: 0e63 5ebd 1686 ce3b 7c90 893e 66f7 15be
00000170: 7fd1 7abe eb15 9f3c 7339 f43d 7225 2b3d
00000180: 54b2 843d fe7e 07be eee5 843d 5ee6 99bd
00000190: 1435 0d3e 7d55 cdbd 66f6 10be e64c 5fbd
000001a0: da7d 2f3e b8a5 1abe 73f0 833e 4c20 23be
000001b0: fa26 8dbd 5b02 263d b9a0 5fbc 6951 1e3e
000001c0: 6123 32be 5d2d 683d 6970 503e 964c 7a3e
000001d0: 708b 383d af01 7fbd d0d1 b4be acb6 843d
000001e0: 2a3f e5bd 14c3 633e 0e53 043c 587e fa3d
000001f0: 1d7d f8bd a4fb 66be 24ed 063e 9fd8 8f3c
00000200: a6a0 e0bd 4f04 a5be 8ded 833d e16d 973e
00000210: f43d c03d 225a bc3d f42c 903c d3f0 7ebe
00000220: 941a 1a3e 426d 623d 2389 2d3e 9bd0 c83d
00000230: 9f37 c23d 8d26 16bc 6403 4ebc 3d57 d2bd
00000240: 95a4 20be 5986 153e 9eba 69bd 8272 593d
00000250: d84a 5c3e 15d3 acbd 9768 583c 2449 c83d
00000260: b2ff 723e 7d1d 543e 0666 613d f8d3 b23e
00000270: 02e0 7bbd 348f 883e 6441 cb3d 8174 e4bd
00000280: 1990 873c 9ff3 d23b 4a3c 99bd 6f5d f73d
00000290: 8706 ac3d 92ce b53c 31f1 9fbd a15c 283d
000002a0: 92ec c53d ef34 1a3e 4be0 4abd 1c8b 15be
000002b0: a626 c93e 7193 263e 7811 06bb edd1 173d
000002c0: be03 583e 515e 2dbe 8087 8c3e 6f74 e43d
000002d0: a932 82bd 0ad7 04be 52ea 0ebd 12eb 863e
000002e0: 90f4 a63e 48b2 c83d c906 fdbc 1572 a5bd
000002f0: 6ea0 6a3e 9314 bf3c 27b4 e83d 4357 463d
00000300: bcb0 ce3d 139a a03d 5c5d 49be da5a 21be
00000310: 8fda c43e 162c 453c 954c 2b3e 79bf 8a3e
00000320: 5c40 96bd 2c06 803d 8b0e 86bc a768 283e
00000330: a83c adbe 712c 693e 2aa2 2fbd d023 84be
00000340: b39d 01be 1910 9bbe c515 d93d 852d 98be
00000350: 2f05 c9be f041 6a3c d1bd dcbd b6b7 acbd
00000360: 8608 94bd 1a78 373d f8bb 153e 30bd 2b3e
00000370: 0dd0 3f3e 32c6 a23a 3dce 61be 9332 22be
00000380: 9832 7a3d b689 3fbd e12a 62be fcd6 153e
00000390: 4cf4 60be 5df5 08be 8518 5f3d 0328 2ebe
000003a0: ed2f 28be af12 aebe 1b96 4b3d 7e59 4abe
000003b0: 9b2c aa3d 3b2b 91be c43a 3ebd 978c 53be
000003c0: b0b5 1cbe 9a97 59bd a4fe 7dbe 7992 f73d
000003d0: f4a1 9c3e 4574 883e 607b fc3d f494 f2bd
000003e0: c82e 26bd 1555 b63e 1d92 38be 056c 5c3e
000003f0: bcfd 9b3e ea74 433e 5e49 623e 7821 0c3e

linears.3.bias f4 [50]
0.013657958 -0.021718953 -0.059586044 0.041683234 -0.033516593 -0.05299924 -0.12582485 0.02215403
-0.054373693 0.06551224 0.02798547 0.0026774483 0.040020097 -0.045710135 0.023267495 0.07356647
-0.07097083 -0.058510274 0.033559043 -0.053402543 0.060048863 -0.0023026264 0.019042796 0.020928677
-0.053116616 -0.057024334 0.050878868 -0.04888653 -0.02747579 0.056656655 0.024092702 0.053725984
-0.04523223 0.009728379 -0.03336911 -0.0016596761 -0.027489798 0.015658356 0.040530697 -0.00039816715
-0.06580201 0.06013196 -0.024858452 0.007315346 0.033038046 0.047987092 -0.040870544 -0.03635588
-0.017464755 0.0017954741
00000000: a1c5 5f3c f2eb b1bc 7f10 74bd 0abc 2a3d
00000010: b248 09bd bb15 59bd 3bd8 00be 5e7c b53c
00000020: f3b6 5ebd 482b 863d c941 e53c 2178 2f3b
00000030: 1dec 233d 8d3a 3bbd 799b be3c 04aa 963d
00000040: 2859 91bd 78a8 6fbd 3575 093d a0bc 5abd
00000050: ccf5 753d a9e7 16bb a3ff 9b3c 9e72 ab3c
00000060: cf90 59bd 5992 69bd 5c66 503d 3e3d 48bd
00000070: e814 e1bc cf10 683d 0f5e c53c c70f 5c3d
00000080: 6e45 39bd c763 1f3c 0cae 08bd 7d89 d9ba
00000090: 4932 e1bc f445 803c 8403 263d 17c1 d0b9
000000a0: 34c3 86bd ee4c 763d f4a3 cbbc 92b5 ef3b
000000b0: e752 073d 1d8e 443d df67 27bd e7e9 14bd
000000c0: 3f12 8fbc 1d56 eb3a

linears.4.weight f4 [1, 50]
-0.5341256 0.7099406 -0.42478853 0.5226045 0.73274493 -0.8407054 -0.49338716 0.6593971
-0.624455 0.4928844 0.6301958 -0.5126842 0.43849486 -0.48269862 -0.6258602 0.69254
-0.660236 -0.71391636 0.40812048 -0.6590748 0.6749687 -0.54795665 0.7210328 0.88291043
-0.5052958 -0.58346087 0.54768115 -0.6449401 -0.60364723 0.86513674 0.48010036 0.6780828
-0.40450662 0.7785054 -0.6229416 -0.4851459 -0.7092183 0.5636383 0.54475963 0.6514104
-0.48624554 0.6791428 -0.49253383 -0.5659157 0.5047493 0.7140623 -0.53114593 -0.48766536
0.4162125 0.7267742
00000000: 75bc 08bf abbe 353f e27d d9be 69c9 053f
00000010: 2c95 3b3f 7838 57bf 3e9d fcbe 40ce 283f
00000020: 48dc 1fbf 585b fc3e 8354 213f 463f 03bf
00000030: 6682 e03e 4624 f7be 6038 20bf 4d4a 313f
00000040: 3a05 29bf 39c3 36bf 2bf5 d03e 20b9 28bf
00000050: c0ca 2c3f e346 0cbf 9b95 383f 6b06 623f
00000060: 115b 01bf b15d 15bf d534 0c3f cb1a 25bf
00000070: a088 1abf 9a79 5d3f b7cf f53e d696 2d3f
00000080: 7e1b cfbe 214c 473f 1a79 1fbf 0b65 f8be
00000090: 558f 35bf 9a4a 103f 5e75 0b3f d5c2 263f
000000a0: 2df5 f8be 4ddc 2d3f 652d fcbe dadf 10bf
000000b0: 4037 013f c9cc 363f 2ef9 07bf 46af f9be
000000c0: ce19 d53e e00d 3a3f
