Archived Code/Stan TPAMI/Inverse/HT/rowdy_tune/inv_HT_rowdy_tune24_5.pt (torch, 100503 bytes, 24 tensors)

omega1 f4 [10, 1]
0	0x3f7b12a4	0.9807532
1	0x3f744cbc	0.9542959
2	0x3f712c76	0.94208467
3	0x3f80e885	1.0070959
4	0x3f7bdb4c	0.98381495
5	0x3f80e691	1.0070363
6	0x3f7ed8e0	0.99549675
7	0x3f7cafd7	0.9870581
8	0x3f7d4b98	0.9894347
9	0x3f8889f2	1.0667098

alpha f4 [2, 10]
0	0xbddd8a75	-0.10817424
1	0xbcb72035	-0.022354225
2	0xbe9a8281	-0.30177692
3	0xbe01a1c8	-0.12659371
4	0xbe0db39b	-0.13838045
5	0xbac0ec07	-0.0014718779
6	0xbebb244b	-0.36551127
7	0xbbcdbad9	-0.0062783775
8	0x3e243803	0.16036992
9	0x3f869587	1.0514382
10	0xbe77dc2c	-0.24205083
11	0xbdff310a	-0.12460525
12	0xbeabae5f	-0.33531472
13	0xbdb59c90	-0.088677526
14	0xbe1bbc8f	-0.15208648
15	0x3d7a20c4	0.061066404
16	0xbdffb486	-0.12485604
17	0xbeb53e76	-0.35399216
18	0x3ee8733e	0.45400423
19	0x3fcd6765	1.6047179

omega f4 [2, 10]
0	0x3b9306f1	0.0044869115
1	0x3d2016c2	0.039084204
2	0xbd03bd67	-0.03216305
3	0x3d4fe37c	0.050754055
4	0x3de0f7ea	0.10984786
5	0x3cdc0686	0.02685858
6	0x3e350d92	0.17680958
7	0x3daadef9	0.0834331
8	0x3b8396dd	0.004015787
9	0x3d8173b7	0.06320899
10	0x3d045b3c	0.03231357
11	0x3d92ecca	0.0717407
12	0x3d88cd67	0.066798024
13	0x3c03b1e0	0.008038014
14	0x3d61a88d	0.055092383
15	0xbce32509	-0.02772762
16	0xbd37ee7d	-0.044905175
17	0xbc898087	-0.01678492
18	0x3bb93e21	0.0056531583
19	0x3cdaddd7	0.02671711

linears.0.weight f4 [50, 2]
0	0xbcc65c13	-0.024213826
1	0x3e593c23	0.21214347
2	0xbe6d9558	-0.23201501
3	0x3e0f4612	0.13991573
4	0x3ca4762b	0.020075878
5	0xbd106dfc	-0.03526114
6	0xbea5751c	-0.3231591
7	0xbd881721	-0.066450365
8	0x3cd40704	0.025882252
9	0xbe273b39	-0.16331185
10	0x3e32765b	0.17427962
11	0x3e1527e3	0.14565997
12	0xbe883399	-0.26601866
13	0xbd5dfcf4	-0.054196313
14	0xbdddbe30	-0.10827291
15	0x3d616e5c	0.055036888
16	0xbdd6cc1c	-0.104881495
17	0x3e5d7594	0.21626884
18	0x3d79839d	0.06091653
19	0xbe85756f	-0.26066157
20	0xbe047191	-0.12933947
21	0xbe7b8df6	-0.24565873
22	0x3e965890	0.29364443
23	0x3d84a3fb	0.06476589
24	0x3d2392af	0.03993481
25	0x3ee01644	0.43766987
26	0x3c2bd67d	0.01048815
27	0xbe5e003e	-0.2167978
28	0x3ec2bea8	0.38036084
29	0xbdb8ebda	-0.0902936
30	0x3df8d950	0.12150824
31	0xbe2d65ab	-0.16933315
32	0xbd3a30de	-0.04545676
33	0x3e5ecd19	0.21757926
34	0xbe33e569	-0.17567982
35	0x3e194381	0.14967157
36	0x3e123e84	0.1428166
37	0xbe219e9b	-0.1578316
38	0xbee02f2c	-0.4378599
39	0xbe7eb127	-0.24872266
40	0xbf09cddd	-0.5382975
41	0xbeb4d8c3	-0.35321626
42	0x3c90c082	0.01766992
43	0x3e6cac3e	0.2311258
44	0xbd4c986b	-0.049950045
45	0x3d645aae	0.05575054
46	0x3d200b99	0.03907356
47	0xbe70f354	-0.23530322
48	0x3ee6fe5b	0.45115933
49	0xbe29af42	-0.16570762
50	0x3dfd74f0	0.1237582
51	0x3dc31a21	0.09526468
52	0xbe7f0a60	-0.24906301
53	0x3dc99aef	0.09844004
54	0x3d7eb7f2	0.062187143
55	0xbd9d9b97	-0.07695692
56	0xbf00298e	-0.5006341
57	0xbdb400bc	-0.087892026
58	0x3e66d039	0.22540368
59	0x3e36cd90	0.17851853
60	0x3d9dc8d5	0.07704321
61	0x3b31ae3b	0.0027111906
62	0x3cf1114d	0.029427195
63	0xbe9b17b8	-0.30291533
64	0x3e339dfd	0.17540736
65	0xbd523207	-0.05131724
66	0xbc045bfe	-0.008078573
67	0x3e295c81	0.16539194
68	0x3e861f06	0.26195544
69	0xbd13099c	-0.035897836
70	0x3df85315	0.12125222
71	0xbe144153	-0.14478044
72	0xbd949ea8	-0.07256824
73	0x3e1cc73d	0.15310378
74	0x3f117e0f	0.56832975
75	0xbdfaa074	-0.12237635
76	0xbe8105d6	-0.25199765
77	0x3d4e14b6	0.05031272
78	0x3c6182ca	0.013764093
79	0x3e41c03a	0.18920985
80	0xbd2f8cb9	-0.042858813
81	0xbd915f13	-0.07098212
82	0x3dde05b4	0.108409315
83	0x3cf2a8ba	0.02962147
84	0x3d710ada	0.05884824
85	0xbd169f5c	-0.03677307
86	0x3ed93ebb	0.42430672
87	0xbd45d939	-0.048302863
88	0xbe33487b	-0.17508118
89	0x3e63b36c	0.22236413
90	0x3e8ca90f	0.2747273
91	0xbdcb9528	-0.09940559
92	0xbe874f62	-0.26427752
93	0xbdb63e05	-0.08898548
94	0x3d2e7815	0.042594988
95	0x3d82a69e	0.06379436
96	0xbe0e0637	-0.13869558
97	0x3d100958	0.03516516
98	0x3d1debd2	0.038554974
99	0x3ddc7902	0.10765268

linears.0.bias f4 [50]
0	0x3e5ea904	0.21744162
1	0xbeb25e51	-0.34837583
2	0xbe8f95e1	-0.28044036
3	0xbe67b688	-0.22628224
4	0x3ca62c10	0.020284683
5	0x3e2365dd	0.15956827
6	0xbdc0c3f8	-0.09412378
7	0x3df925eb	0.121654354
8	0x3d06900e	0.032852225
9	0x3e2419f5	0.16025527
10	0xbdf9f23d	-0.122044064
11	0x3d22775d	0.039664615
12	0xbccff8db	-0.025387218
13	0x3de2cd6e	0.11074339
14	0xbd847893	-0.0646831
15	0xbd784f33	-0.060622405
16	0x3e01707b	0.12640564
17	0x3de5e241	0.11224795
18	0x3e6ec829	0.23318543
19	0xbedd88d9	-0.4326847
20	0xbe71f0c3	-0.23627
21	0x3ccca0a3	0.024978941
22	0xbc9520be	-0.01820409
23	0xbe2b9de5	-0.1675945
24	0xbe56cdb2	-0.20976904
25	0x3e9ec1a9	0.31007126
26	0xbe000c1a	-0.12504616
27	0x3da427fc	0.08015439
28	0x3e099c79	0.13438596
29	0x3cc2287e	0.023700949
30	0x3e775d14	0.241566
31	0xbdc226ba	-0.09480043
32	0xbd9666fa	-0.0734386
33	0x3e60aaae	0.21940109
34	0x3dbd5d3e	0.092463
35	0x3c823a50	0.015896946
36	0x3d869892	0.06572069
37	0x3daf533b	0.08560797
38	0xbe617caa	-0.22020212
39	0x3e0c18b2	0.13681296
40	0xbe17aff5	-0.14813216
41	0xbe146378	-0.1449107
42	0x3ec205af	0.3789496
43	0x3e81afa0	0.25329304
44	0xbe5f4bbd	-0.21806236
45	0x3e18302e	0.14862129
46	0xbe604791	-0.219023
47	0x3c66d3df	0.0140886
48	0xbdfd74be	-0.123757824
49	0x3e33f035	0.175721

linears.1.weight f4 [50, 50]
0	0x3cf35a22	0.029706065
1	0x3c81b63d	0.015833968
2	0xbe4e99d2	-0.20175865
3	0x3e2cb2b4	0.16865045
4	0xbc8c6260	-0.017136753
5	0xbc3caba0	-0.011515528
6	0xbd10b7f6	-0.03533169
7	0x3ddcd93b	0.10783621
8	0x3e6015e6	0.21883354
9	0x3cc12e4a	0.023581643
10	0xbd88cf60	-0.06680179
11	0xbe7865d4	-0.24257594
12	0x3d85dd6c	0.065363735
13	0xbe665c6c	-0.22496194
14	0xbd1d0962	-0.038339026
15	0x3e208288	0.15674794
16	0x3a97188a	0.0011527699
17	0xbb98a575	-0.004658396
18	0xbe825755	-0.25457254
19	0xbd93aaeb	-0.072103344
20	0x3e8d3524	0.27579606
21	0xbe9deaff	-0.3084335
22	0x3de11d60	0.10991931
23	0x3e029cd3	0.12755136
24	0xbcbcb546	-0.023035657
25	0xbe7094cf	-0.23494266
26	0xbd662576	-0.05618807
27	0xbdc04acf	-0.093892686
28	0xbdb29c32	-0.08721198
29	0xbb468bbc	-0.003029569
30	0x3e54c5bc	0.20778555
31	0x3c8f8be9	0.017522769
32	0xbdd00d8d	-0.101588346
33	0x3d77d0c0	0.060501814
34	0xbd845299	-0.06461067
35	0x3e4115a4	0.18855911
36	0xbd5ce4c5	-0.05392911
37	0x3e345468	0.17610323
38	0x3dc93a45	0.09825567
39	0xbdcf3979	-0.10118384
40	0x3da7979b	0.08183213
41	0xbd2c3347	-0.04204109
42	0xbe4efb4e	-0.20213053
43	0x3c0f1144	0.008732144
44	0xbc6ecc19	-0.014575028
45	0xbd972847	-0.07380729
46	0x3d305654	0.04305108
47	0xbcf9fada	-0.030515123
48	0xbe7d4537	-0.24733435
49	0xbe05de03	-0.13072972
50	0x3d8d2adc	0.068929404
51	0xbdbed635	-0.093182005
52	0xbe78209c	-0.2423119
53	0xbdddeba3	-0.1083596
54	0x3d2ff357	0.042956676
55	0xbdd773d7	-0.105201416
56	0x3c0119e7	0.007879711
57	0x3e9d5457	0.3072841
58	0xbe034283	-0.12818341
59	0xbd7f02b5	-0.06225844
60	0x3be01ef7	0.006839629
61	0xbe10b41b	-0.14131205
62	0x3d5987c5	0.053107996
63	0xbd253032	-0.040329166
64	0xbd0b5726	-0.034018658
65	0xbbe1a620	-0.0068862587
66	0xbe144be3	-0.14482073
67	0x3e338e49	0.17534746
68	0x3d89d7eb	0.06730636
69	0x3bafc3ba	0.0053639086
70	0xbd806bf5	-0.06270591
71	0xbd3ced6a	-0.046124853
72	0x3e3a893f	0.18216418
73	0x3d5f3a83	0.05449916
74	0xbd31c0cb	-0.043396752
75	0xbd7ce9e5	-0.061746497
76	0xbdb8ffad	-0.09033141
77	0xbd2056ce	-0.039145283
78	0x3dbb50fa	0.091463044
79	0x3d50ce03	0.050977718
80	0x3debc1c5	0.11511568
81	0xbde754cc	-0.112954706
82	0xb8e9b1e4	-0.000111434405
83	0x3dc6f67d	0.09714983
84	0xbe1225b3	-0.14272194
85	0x3d98c918	0.074602306
86	0x3c83a8aa	0.016071636
87	0x3c3bbfcb	0.011459301
88	0xbdc95832	-0.09831275
89	0x3e10df51	0.14147688
90	0xbd8d9375	-0.06912891
91	0xbc1106d7	-0.008851728
92	0x3e00b888	0.12570393
93	0xbd3c71dc	-0.046007022
94	0x3c821cb1	0.015882822
95	0xbe31384f	-0.17306636
96	0x3de32593	0.11091151
97	0xbe592212	-0.21204403
98	0xbdc5f196	-0.096652195
99	0x3e747a0e	0.23874685
100	0xbe8b1259	-0.27162436
101	0x3e33e58f	0.17568038
102	0xbd0cf5ad	-0.034413982
103	0x3d8a1924	0.067430764
104	0x3b289028	0.002572069
105	0xbe4f3243	-0.20234017
106	0x3d2d5540	0.04231763
107	0x3da7f074	0.0820016
108	0xbe2b7e0c	-0.16747302
109	0x3c6b1486	0.014348155
110	0x3d45077f	0.048102852
111	0xbe35bb63	-0.17747264
112	0xbe882821	-0.26593116
113	0x3e3b225d	0.18274827
114	0x3d151936	0.036400996
115	0xbd53675f	-0.051612254
116	0x3d1e13d3	0.038593125
117	0x3d860d8a	0.06545551
118	0xbe79b66b	-0.24385993
119	0xbc23a688	-0.009988435
120	0x3e493727	0.19649945
121	0xbd575503	-0.052571308
122	0xbe68fe44	-0.22753245
123	0xbdc0386d	-0.09385762
124	0xbe3b452d	-0.18288107
125	0xbd06aa7e	-0.032877438
126	0x3da2ed5b	0.07955428
127	0xbe060900	-0.1308937
128	0x3dae9d57	0.08526104
129	0xbd62361d	-0.055227388
130	0xbd99cf22	-0.075102106
131	0x3e26abaa	0.16276422
132	0xbdcd14cc	-0.10013732
133	0x3d7fb18d	0.062425185
134	0xbdfa2f01	-0.122159965
135	0xbd6fc030	-0.058532894
136	0xbd77ae40	-0.060468912
137	0xbd3098d5	-0.043114502
138	0x3e05faa1	0.13083889
139	0x3e58d134	0.21173555
140	0x3e319b37	0.17344366
141	0xbda357bb	-0.07975718
142	0xbe1fc1cb	-0.1560127
143	0xbe982a87	-0.29719946
144	0x3dea25b1	0.1143297
145	0xbe6d839c	-0.23194736
146	0xbe169eb5	-0.1470898
147	0xbcea90cf	-0.028633503
148	0xbe230e91	-0.15923525
149	0xbe64b070	-0.2233293
150	0x3e2ab83e	0.16671845
151	0xbe00f4c2	-0.12593368
152	0xbd6a1296	-0.05714663
153	0x3deec270	0.1165818
154	0x3dce17dd	0.10063145
155	0xbcaa5317	-0.020791573
156	0x3df856e2	0.121259466
157	0xbd164b2c	-0.036692783
158	0xbda0e28f	-0.078557126
159	0xbe1a839a	-0.15089265
160	0x3d849cdc	0.06475231
161	0x3de8a36f	0.113592975
162	0xbd953c9e	-0.072869524
163	0xbd19ee09	-0.037580524
164	0x3d7f5839	0.062339995
165	0x3bd41026	0.0064716516
166	0xbe0b2b88	-0.13590825
167	0x3de18df7	0.11013406
168	0x3e96f7fe	0.29486078
169	0xbe192004	-0.14953619
170	0x3d6251a4	0.05525364
171	0xbe1755ff	-0.14778899
172	0x3dba8593	0.091075085
173	0xbe325511	-0.17415263
174	0xbe7df594	-0.24800712
175	0xbcc4ae27	-0.024008824
176	0xbe087412	-0.13325527
177	0x3e7c16ce	0.24618074
178	0xbd792332	-0.06082458
179	0x3e571561	0.21004249
180	0xbe408623	-0.18801169
181	0xbde105c6	-0.10987429
182	0xbc96d8d3	-0.018413937
183	0x3e97fb01	0.29683688
184	0xbea94679	-0.3306158
185	0xbe159848	-0.14608872
186	0xbe6c74ab	-0.2309138
187	0xbea04026	-0.3129894
188	0xbe095f8b	-0.13415353
189	0xbe316319	-0.17322959
190	0x3e0c0e5a	0.1367735
191	0xbcbebc6c	-0.023283206
192	0x3d4b9532	0.04970283
193	0xbc1ca8e6	-0.009561753
194	0xbd052e71	-0.032514993
195	0x3e2f1e7c	0.17101473
196	0x3d8ea199	0.06964416
197	0x3d553dbc	0.052060828
198	0x3d4f0213	0.050539088
199	0xbe23ad08	-0.15983975
200	0x3d881ac9	0.06645734
201	0x3e4563ea	0.19276395
202	0x3d13e914	0.036110952
203	0x3de18a06	0.11012654
204	0x3d9e9136	0.077425405
205	0x3d1e5ec6	0.0386646
206	0xbd0edd8c	-0.034879252
207	0xbd9c8e95	-0.07644383
208	0x3dba45de	0.09095357
209	0x3d7cd57a	0.061727025
210	0xbe695502	-0.22786334
211	0x3d219320	0.03944695
212	0xbd9dd9b2	-0.07707538
213	0xbe84fe26	-0.2597515
214	0x3d9f4f84	0.07778838
215	0x3d071873	0.0329823
216	0xbe79d98d	-0.24399395
217	0x3e3417d6	0.17587218
218	0xbe0431b4	-0.12909585
219	0x3e0b0a67	0.13578187
220	0xbdce1e24	-0.100643426
221	0xbdbd1128	-0.09231788
222	0xbb86653f	-0.004101425
223	0x3e3671f6	0.1781691
224	0xbd0a2447	-0.033726003
225	0xbe91ae39	-0.28453234
226	0xbe05b411	-0.13056971
227	0x3d41ac51	0.047283474
228	0x3cdebd65	0.02718992
229	0x3d45d746	0.048301004
230	0x3c16e099	0.009208822
231	0x3d59889f	0.053108808
232	0xbd59a9e0	-0.05314052
233	0xbca74f29	-0.020423489
234	0x3c1275bc	0.008939203
235	0x3e425150	0.18976331
236	0x3d9b99bf	0.07597684
237	0xbd98323f	-0.07431459
238	0xbd749790	-0.059714854
239	0x3d67171d	0.056418527
240	0x3dbfd4cc	0.0936676
241	0xbc111d9d	-0.008857158
242	0xbdec68de	-0.11543439
243	0xbd74822e	-0.05969446
244	0x3c853808	0.01626207
245	0xbc0bab81	-0.008524776
246	0x3eb14689	0.34624127
247	0xbcee1b88	-0.029065862
248	0x3e3357d9	0.1751398
249	0xbd135f99	-0.03597984
250	0xbcbf36e9	-0.023341613
251	0xbddff8f8	-0.10936159
252	0x3dab5008	0.08364874
253	0xbd955e40	-0.072933674
254	0xbd90ab8f	-0.07063972
255	0x3da0f800	0.07859802

linears.1.bias f4 [50]
0	0xbc13b559	-0.009015405
1	0xbc9033a9	-0.017602758
2	0xbd8ad0e1	-0.06778122
3	0xbbbd6baf	-0.005780659
4	0xbde77f46	-0.11303572
5	0xbda66c37	-0.08126109
6	0xbdc1495e	-0.09437822
7	0xbe4442af	-0.19166063
8	0xbd9b5af4	-0.07585707
9	0xba421d8f	-0.0007404917
10	0xbc272e6c	-0.010203939
11	0xbcb91246	-0.022591721
12	0x3d1350d0	0.03596574
13	0x3c9a3f31	0.01882896
14	0xbe090b5f	-0.13383244
15	0xbd4beaca	-0.04978446
16	0x3e1d0684	0.15334517
17	0xbdca4f4d	-0.09878407
18	0x3e244ca0	0.16044855
19	0x3decb270	0.11557472
20	0x3de2132c	0.11038813
21	0x3bd1bd04	0.0064007062
22	0xbe0c2ce5	-0.13689001
23	0xbd9dbd71	-0.07702149
24	0x3a4978da	0.000768555
25	0x3de5e31c	0.11224958
26	0x3e1099b2	0.1412113
27	0x3d1f422f	0.038881477
28	0xbd8d179f	-0.06889271
29	0x3cb31fdb	0.021865776
30	0xbdb8aa45	-0.09016851
31	0xbe43f82a	-0.19137636
32	0xbe00f1f6	-0.12592301
33	0x3d95d080	0.07315159
34	0x3dab2410	0.08356488
35	0xbde0968f	-0.10966217
36	0xbbaec238	-0.0053332113
37	0x3d78a1ef	0.060701307
38	0x3d782451	0.06058151
39	0x3db00e0c	0.08596429
40	0xbd7ca895	-0.06168421
41	0x3d054b0a	0.032542266
42	0xbd6ec1d4	-0.058290318
43	0x3d93c742	0.0721574
44	0x3d99d1b1	0.075106986
45	0x3d2f4b0f	0.04279619
46	0xbdaa8c9e	-0.08327602
47	0xbd0512f8	-0.032488793
48	0x3dc21b7a	0.09477897
49	0x3d1c998c	0.03823237

linears.2.weight f4 [50, 50]
0	0x3db1229e	0.08649181
1	0x3e1f2172	0.15540102
2	0xbd989653	-0.07450547
3	0x3ac89885	0.0015304243
4	0xbd92b913	-0.07164206
5	0xbdfe7212	-0.12424101
6	0x3d9da908	0.07698256
7	0x3dfd3b9d	0.12364886
8	0x3d9c1a5f	0.076222174
9	0x3cc7efd0	0.024406344
10	0xbc960faa	-0.018318016
11	0x3d9b8195	0.07593075
12	0x3e64bcbc	0.22337621
13	0x3e3700b3	0.1787136
14	0xbaff5225	-0.0019479437
15	0xbe1b820f	-0.15186332
16	0x3dc8d06a	0.09805377
17	0xbdbecf14	-0.09316841
18	0xbcb938c5	-0.022610078
19	0xbdaf7686	-0.085675284
20	0x3e0403d3	0.12892084
21	0x3dcd487b	0.1002359
22	0x3d8b7646	0.06809668
23	0x3cd1a72a	0.025592405
24	0x3e5e5798	0.21713102
25	0x3d77e1ca	0.060518064
26	0xbe9002b8	-0.28127074
27	0x3d776ed2	0.06040842
28	0xbe5c9ac5	-0.21543415
29	0xbe63c8bc	-0.22244543
30	0x3e060db4	0.13091165
31	0xbe2ad1d9	-0.16681613
32	0x3e1c64b9	0.15272798
33	0x3d9d378b	0.076766096
34	0x3dae1133	0.08499374
35	0x3ecaf8f8	0.39643073
36	0xbe715466	-0.23567352
37	0xbc19d7c1	-0.009389819
38	0xba926131	-0.0011167881
39	0x3c78bcb0	0.015181705
40	0xbdc4971c	-0.09599134
41	0xbd8ee4f6	-0.069772646
42	0x3d9835e0	0.07432151
43	0x3b9b90ae	0.004747472
44	0x3e0a2844	0.13491923
45	0x3bf573ce	0.0074906116
46	0x3e991d5e	0.29905218
47	0xbe6ffe26	-0.23436794
48	0x3e1eceb3	0.15508537
49	0xbe3865d6	-0.18007597
50	0xbe128cde	-0.14311549
51	0x3dc4e2ff	0.096136086
52	0xbe85237c	-0.26003635
53	0x3de66154	0.112490326
54	0x3e09e0ba	0.13464633
55	0xbd973ff2	-0.073852435
56	0xbd6b51ae	-0.057450943
57	0xbd9e7767	-0.07737618
58	0x3ebb4eda	0.36583596
59	0xbe392bfd	-0.18083186
60	0x3dfa8b98	0.12233657
61	0x3e504968	0.20340502
62	0x3e2e46b5	0.1701916
63	0xbd6e7c71	-0.058224145
64	0xbd933670	-0.071881175
65	0x3d3a25cf	0.045446213
66	0x3e0ed0c6	0.13946828
67	0x3e13b0b0	0.1442287
68	0xbd4ee102	-0.050507553
69	0x3e313a9f	0.17307518
70	0xbe25800e	-0.1616213
71	0xbdd73a2f	-0.105091445
72	0x3c8f34bf	0.017481206
73	0xbe65be38	-0.22435844
74	0xbdc48d16	-0.095972225
75	0x3e844e9d	0.25841227
76	0xbd09c610	-0.033636153
77	0x3e279310	0.16364694
78	0x3d9a5a9b	0.07536813
79	0x3d8d30ed	0.068940975
80	0xbd42691e	-0.04746353
81	0x3e1aff31	0.1513641
82	0x3d89bb89	0.067252226
83	0xbcb8088b	-0.022465011
84	0xbe3f7135	-0.18695529
85	0xbe36da80	-0.17856789
86	0xbcc2ef63	-0.02379579
87	0x3da53a5d	0.080677725
88	0xbcbb9977	-0.022900326
89	0xbd03319c	-0.032029733
90	0x3e027651	0.12740447
91	0xbdf95d8c	-0.12176046
92	0x3e5456b5	0.20736201
93	0x3da06357	0.078314476
94	0x3c50abfe	0.012736319
95	0xbda92dd9	-0.08260698
96	0x3e2a9483	0.16658215
97	0x3e5acf1a	0.21368065
98	0xbd3019b6	-0.04299327
99	0x3df4c44b	0.119515024
100	0x3d071fc2	0.03298927
101	0x3e0e9876	0.13925347
102	0xbc1e9f39	-0.009681516
103	0xbe04710b	-0.12933747
104	0xbc904915	-0.017612973
105	0xbecb87fa	-0.3975218
106	0x3db287c7	0.08717304
107	0x3d48aa4e	0.04899054
108	0xbd7c59c6	-0.061609052
109	0x3d866380	0.06561947
110	0x3e98bf35	0.2983338
111	0x3dbcfb60	0.092276335
112	0xbdfc385f	-0.123154394
113	0xbd047f63	-0.032348048
114	0x3b9973d9	0.0046829996
115	0x3e023c2b	0.12718265
116	0x3d64a49d	0.05582105
117	0x3d75fe15	0.060056765
118	0xbe0c18cb	-0.13681333
119	0x3d92d4d7	0.07169502
120	0x3e2bea0b	0.16788499
121	0x3dcfc906	0.10145764
122	0xbdaf95d0	-0.08573496
123	0x3e16856b	0.14699332
124	0x3c9014d7	0.017588062
125	0xbe6dcdd6	-0.23223051
126	0xbd004c72	-0.031322904
127	0xbcded8f6	-0.027203064
128	0x3dd72b0b	0.10506257
129	0x3e7f78a8	0.2494837
130	0x3e33354e	0.17500803
131	0x3cc39467	0.023874475
132	0xbe0adcd1	-0.13560797
133	0x3e2d331c	0.16914028
134	0xbcce9468	-0.02521725
135	0x3d27ed78	0.040997952
136	0xbca293ac	-0.019845806
137	0x3df0dac3	0.117604755
138	0xbdb8de68	-0.090267956
139	0xbd33c00f	-0.043884333
140	0xbe06555c	-0.131185
141	0xbdfebf3d	-0.124388196
142	0xbe6b7fb4	-0.22997934
143	0xbe6e5a69	-0.23276676
144	0xbc94fc2b	-0.01818665
145	0x3d075e5e	0.03304898
146	0x3c4b2510	0.012398973
147	0x3cc0852b	0.023501
148	0xbdd3f035	-0.1034855
149	0x3df60e6d	0.1201447
150	0xbe2b1b56	-0.16709647
151	0xbd0dc6eb	-0.03461353
152	0xbc68248f	-0.0141688725
153	0x3d5b17e2	0.053489573
154	0x3ddff8ed	0.10936151
155	0x3d965529	0.07340462
156	0xbd922982	-0.07136823
157	0xbdb2c534	-0.0872902
158	0x3d285e01	0.041105274
159	0xbe02d21a	-0.1277546
160	0xbd8ac797	-0.0677635
161	0xbe1598b0	-0.14609027
162	0x3d9ae499	0.07563133
163	0xbe233030	-0.15936351
164	0xbe259465	-0.1616989
165	0x3d38f293	0.04515321
166	0x3d89f776	0.067366526
167	0xbccfbc89	-0.025358455
168	0xbd89465f	-0.06702875
169	0x3e2182d1	0.15772559
170	0x3e36d8bc	0.17856115
171	0x3df0d52b	0.117594086
172	0xbd5f25b2	-0.05447931
173	0xbe1a89a3	-0.15091567
174	0xbe2b0c6c	-0.16703957
175	0xbdb33d3e	-0.087519154
176	0x3dcab95c	0.09898636
177	0xbe0ba2d3	-0.13636331
178	0x3e2e272f	0.17007135
179	0xbdbbf278	-0.091771066
180	0x3d45479d	0.048164
181	0xbe8c6d33	-0.27427062
182	0x3d521ba6	0.0512959
183	0x3dfde7bd	0.12397716
184	0x3cd3ed38	0.02586995
185	0x3e095a59	0.13413371
186	0xbe5e5c3e	-0.21714875
187	0x3d8cf540	0.06882715
188	0x3e42a9d3	0.19010095
189	0xbbbc9d14	-0.00575603
190	0xbe997ed5	-0.29979578
191	0x3dd68606	0.10474782
192	0x3df4299e	0.11922
193	0x3c711913	0.014715451
194	0xbd23932f	-0.039935287
195	0x3e3c38ba	0.18381014
196	0xbc9864bd	-0.018602723
197	0xbdfd86d6	-0.123792335
198	0x3e8fe20e	0.28102154
199	0x3ce6da53	0.028180277
200	0x3cae9794	0.021312512
201	0xbd1a94b9	-0.03773949
202	0xbe01e6c1	-0.12685682
203	0xbda9ee1f	-0.08297371
204	0xbe5cc853	-0.21560793
205	0xbe458ce1	-0.19292022
206	0x3d7348c2	0.05939556
207	0x3e80bb9f	0.25143144
208	0xbd468736	-0.04846879
209	0x3d159a70	0.036524236
210	0x3dc5e5b9	0.09662957
211	0x3ea2c1ce	0.31788486
212	0xbd0fcf77	-0.035109963
213	0xbd8c5a63	-0.068531774
214	0xbd55a6e0	-0.052161098
215	0x3cb33242	0.02187455
216	0xbe0d3117	-0.13788258
217	0x3e522ab9	0.2052411
218	0xbe5735e1	-0.21016647
219	0xbe01889d	-0.1264977
220	0xbd5b5eca	-0.053557195
221	0xbcd2cebb	-0.025733342
222	0xbca2948b	-0.019846221
223	0xbd1d4d57	-0.038403835
224	0x3d553348	0.05205086
225	0xbbe2d312	-0.006922134
226	0xbd81fcce	-0.06347047
227	0xbdc9dda3	-0.09856727
228	0x3e5746df	0.21023129
229	0x3d16578d	0.03670459
230	0x3e154c1b	0.14579813
231	0x3c2b9397	0.0104722
232	0xbc6c7924	-0.014433179
233	0x3bbf9fbe	0.0058479
234	0x3e08e2b5	0.13367732
235	0x3e34ab46	0.1764346
236	0xbe1b6603	-0.15175633
237	0x3d84e91d	0.06489775
238	0x3ed270dd	0.41101733
239	0xbdca8774	-0.09889117
240	0xbe513151	-0.20428969
241	0x3d48aad2	0.048991032
242	0x3d549254	0.051897362
243	0x3d33df65	0.043914218
244	0x3eac0335	0.33596197
245	0xbda0700d	-0.07833872
246	0x3b3995a4	0.0028317953
247	0xbe6e6cc7	-0.23283683
248	0xbc901bf9	-0.017591463
249	0xbd39b3c4	-0.045337453
250	0x3ed83ca8	0.42233777
251	0xbe8b9c01	-0.2726746
252	0x3e2525e2	0.16127732
253	0x3ea63218	0.32460093
254	0xbd35de6e	-0.04440158
255	0x3db74040	0.089478016

linears.2.bias f4 [50]
0	0xbc686ac1	-0.014185608
1	0x3d5a6ecb	0.053328317
2	0x3ca5159a	0.020151902
3	0x3e441d42	0.19151786
4	0xbd9a8d96	-0.075465366
5	0xbd905565	-0.07047538
6	0xbe80ba21	-0.25142005
7	0x3cc6d889	0.024273174
8	0xbd96a09d	-0.07354853
9	0x3d265aaa	0.040613808
10	0x3d04bdb8	0.032407492
11	0xbdd75cf2	-0.10515775
12	0x3d8ce359	0.068793006
13	0x3e4d7cdc	0.20067161
14	0x3d3e2980	0.046426296
15	0x3dcba625	0.09943799
16	0x3ce75d85	0.028242836
17	0x3d4185b5	0.047246654
18	0xbdac5296	-0.084141895
19	0x3da0f4f9	0.07859225
20	0x3d60ec61	0.05491293
21	0xbc1f1df2	-0.009711729
22	0x3e142c91	0.14470126
23	0xbe657ace	-0.22410128
24	0x3cf02d36	0.029318433
25	0x3c51aefc	0.012798067
26	0xbe06bec0	-0.13158703
27	0x3e164ce1	0.14677764
28	0xbd2e34bd	-0.042530764
29	0x3d57e205	0.052705783
30	0xbcda7ff0	-0.026672333
31	0xbc5c034a	-0.013428519
32	0xbe35edb2	-0.17766455
33	0x3d336f07	0.043807056
34	0xbdc72c4a	-0.09725244
35	0x3d3c5797	0.04598197
36	0x3e142570	0.14467406
37	0xbe40b86f	-0.18820356
38	0x3e29a714	0.16567641
39	0xbd5a4dc7	-0.05329683
40	0xbbe5a20a	-0.007007842
41	0xbcf0b38d	-0.029382491
42	0x3da514fe	0.080606446
43	0x3e4bff8b	0.199217
44	0xbe0bb9e5	-0.13645132
45	0x3dae2827	0.08503752
46	0xbe126c14	-0.14299041
47	0x3e2c565c	0.16829818
48	0xbde8cf2e	-0.113676414
49	0x3d6ff3cb	0.05858211

linears.3.weight f4 [50, 50]
0	0xbe1af0d7	-0.15130936
1	0xbd386c3e	-0.045025103
2	0xbd3d75c8	-0.046254903
3	0xbddbdf37	-0.10735934
4	0x3d810698	0.06300086
5	0x3df265b6	0.11835806
6	0x3e2ac8c6	0.16678151
7	0x3d84f334	0.064917
8	0x3d65c2b5	0.05609389
9	0xbe97fbdd	-0.29684344
10	0xbddede55	-0.1088225
11	0xbc1b553e	-0.009480773
12	0xbe278803	-0.16360478
13	0x3d9b4ddd	0.075832106
14	0xbdfe24d9	-0.12409372
15	0xbddb4166	-0.10705833
16	0x3cd93cbe	0.026518222
17	0x3d3d0f94	0.046157435
18	0x3dc7a48a	0.0974818
19	0x3dc28946	0.09498839
20	0xbde94bd4	-0.11391416
21	0xbe17d6c9	-0.14828028
22	0x3d89d6a4	0.067303926
23	0x3e62f7fe	0.22164914
24	0xbe6fbe37	-0.23412405
25	0xbcee3009	-0.02907564
26	0x3e3c7aa2	0.18406156
27	0xbe9b1c47	-0.3029501
28	0x3dfd654e	0.12372838
29	0x3d8df634	0.06931725
30	0x3d04cf92	0.032424517
31	0xbd47f35d	-0.048816074
32	0xbe2a5d0c	-0.16637057
33	0x3a7cb51e	0.00096400257
34	0x3e07b032	0.13250807
35	0x3e11086a	0.14163366
36	0xbda217b0	-0.07914674
37	0x3e9cfba5	0.3066074
38	0xbe15f274	-0.1464327
39	0x3e8f08aa	0.27936298
40	0x3da0ee93	0.078580044
41	0x3e4483b0	0.1919086
42	0x3e6d9bbe	0.23203942
43	0xbd24a885	-0.040199775
44	0x3e45b3f5	0.1930693
45	0x3b241d36	0.0025041825
46	0xbdaafa37	-0.08348506
47	0xbd9496ec	-0.072553486
48	0x3dc2d092	0.09512438
49	0x3e076d58	0.13225305
50	0x3dc725e2	0.097240224
51	0x3d6ba3e9	0.057529364
52	0xbe83c55d	-0.25736514
53	0x3e054730	0.13015437
54	0x3c891fed	0.016738856
55	0x3d85f379	0.06540579
56	0x3cd90745	0.026492724
57	0xbdab6c8e	-0.083703145
58	0x3e66faee	0.2255666
59	0xbd3cdfaa	-0.04611174
60	0xbd4f4ab5	-0.050608356
61	0x3e196b78	0.14982402
62	0x3db1cf18	0.08682078
63	0x3c43788b	0.011930595
64	0x3db5780c	0.08860788
65	0x3d046010	0.032318175
66	0x3e2fd74b	0.17171971
67	0xbe0c8c67	-0.13725434
68	0xbe1a5710	-0.15072274
69	0xbd6ab387	-0.057300117
70	0xbea968ab	-0.33087668
71	0xbe375a5f	-0.17905568
72	0x3d223a7a	0.03960655
73	0xbb2303c1	-0.0024874064
74	0x3d0f9819	0.03505716
75	0x3e50b2b5	0.20380671
76	0x3d8972bb	0.06711336
77	0xbbeef5bd	-0.007292478
78	0x3dbe6de4	0.09298304
79	0x3d80a5fe	0.062816605
80	0x3d887685	0.06663231
81	0xbcf0ff8e	-0.029418733
82	0xbea40e77	-0.32042286
83	0x37125287	8.721493e-06
84	0x3c993c8f	0.018705634
85	0xbc3216e7	-0.010869718
86	0x3e166855	0.14688237
87	0x3e4e5333	0.20148925
88	0x3e3c25b5	0.18373759
89	0x3d43243f	0.04764199
90	0x3cac9e29	0.02107151
91	0xbb223f2f	-0.0024756899
92	0xbe3776a1	-0.17916347
93	0x3ca0c0e7	0.019623233
94	0x3d364615	0.04450043
95	0x3e75289d	0.23941274
96	0xbdad937e	-0.084753975
97	0xbdaddb8b	-0.0848914
98	0xbd9b0d42	-0.07570888
99	0x3da0420e	0.07825099
100	0x3cde9de8	0.027174905
101	0xbbee53f0	-0.0072731897
102	0x3e135f45	0.14391811
103	0xbe52bb74	-0.2057932
104	0xbdfe1ae2	-0.12407471
105	0x3e885945	0.26630607
106	0xbdf244c6	-0.11829524
107	0x3d7b40cc	0.061341092
108	0xbe4197e8	-0.18905604
109	0xbd9ae24e	-0.075626954
110	0x3d775c1f	0.060390588
111	0xbcefe473	-0.029283738
112	0x3e5635ac	0.20918912
113	0x3d8100f5	0.06299011
114	0xbd02c227	-0.03192344
115	0x3e276bc7	0.16349708
116	0x3e350e1c	0.17681164
117	0xbddd124f	-0.10794508
118	0x3d9d9d50	0.076960206
119	0x3d49c613	0.049261164
120	0xbcbdd0e2	-0.023170892
121	0x3c6af59e	0.014340786
122	0x3dd0b02d	0.10189853
123	0xbe51a350	-0.20472455
124	0xbd910a86	-0.07082085
125	0xbe1b5489	-0.15168966
126	0x3e5d9a29	0.21640839
127	0xbddaebdb	-0.10689517
128	0xbe304bc9	-0.1721641
129	0x3e9bf454	0.30459845
130	0xbd80fad1	-0.062978394
131	0x3e2c8195	0.16846307
132	0x3e8fc64e	0.28080982
133	0xbe8598e8	-0.2609322
134	0xbdc0bd01	-0.0941105
135	0xbd872203	-0.06598284
136	0x3e3fba2b	0.18723361
137	0xbd98987d	-0.0745096
138	0xbe52c3a0	-0.20582438
139	0xbcbd5612	-0.02311233
140	0x3dce4ba2	0.100730196
141	0xbe104833	-0.14090042
142	0xbe02fce5	-0.12791784
143	0x3e03d11e	0.1287274
144	0xbe1c014e	-0.15234873
145	0x3c53a8b7	0.012918643
146	0xbb433138	-0.0029783975
147	0xbe176651	-0.14785124
148	0x3da2ede4	0.0795553
149	0xbddde5b7	-0.1083483
150	0xbd077b29	-0.03307644
151	0xbebd42f1	-0.36965135
152	0x3d48cdf9	0.049024556
153	0xbda289cc	-0.07936439
154	0x3cf16f84	0.02947212
155	0x3d9634b9	0.07334275
156	0x3e8ce775	0.27520338
157	0x3d2cd208	0.04219249
158	0x3d959bcf	0.07305109
159	0xbbd2c2dd	-0.006431921
160	0x3e7d46f0	0.24734092
161	0x3d2e2d25	0.042523522
162	0xbea8e9f3	-0.3299099
163	0x3e18b1c2	0.14911559
164	0x3d6826d2	0.056677647
165	0x3eab2a8a	0.33430892
166	0xbe5abd63	-0.21361308
167	0xbbd8ed44	-0.006620081
168	0xbe15b6af	-0.1462047
169	0x3ccf3048	0.025291577
170	0x3cd4a360	0.02595681
171	0xbe23b82a	-0.15988222
172	0x3d7992bd	0.060930956
173	0xbe30fda9	-0.17284264
174	0xbe4234bd	-0.1896543
175	0xbe1ff54a	-0.15620914
176	0x3c8e4fb1	0.017371984
177	0x3e20bdbb	0.15697376
178	0xbe90ba58	-0.2826717
179	0xbdc5afad	-0.09652648
180	0x3e8beb28	0.27327847
181	0xbd90e404	-0.070747405
182	0xbcdce93d	-0.026966685
183	0xbdc29daa	-0.09502728
184	0xbdc1fdd3	-0.09472241
185	0x3e03f6c5	0.12887104
186	0x3e1b5fcc	0.15173262
187	0x3b468776	0.0030293143
188	0xbd8263e6	-0.0636671
189	0xbe630275	-0.22168906
190	0xbd8179b6	-0.06322043
191	0xbe020647	-0.12697707
192	0xbdda40f5	-0.10656921
193	0xbe8427ad	-0.2581152
194	0xbd82425a	-0.06360312
195	0xbe12d777	-0.14340006
196	0x3cc71d7d	0.024306053
197	0x3d899407	0.06717687
198	0xbcdbcad2	-0.02683011
199	0x3e1c8ba5	0.15287645
200	0x3d9029f7	0.07039254
201	0x3ecb8c1c	0.39755332
202	0xbe1511a0	-0.14557505
203	0x3e3600ce	0.17773744
204	0x3d849e53	0.064755104
205	0x3da22737	0.07917636
206	0xbd4372b5	-0.047716815
207	0x3ddd74bc	0.10813281
208	0xbd0adbdf	-0.03390109
209	0xbd94ccb6	-0.07265608
210	0x3b3b1dab	0.002855162
211	0x3e536c3b	0.20646755
212	0x3d9f328e	0.077733144
213	0xbd0d10c1	-0.034439806
214	0x3db4999a	0.0881836
215	0xbd56dba9	-0.052455578
216	0xbe176935	-0.14786227
217	0x3e213ee3	0.15746646
218	0xbb8a6502	-0.004223467
219	0xbdf8b699	-0.12144203
220	0xbe46282f	-0.19351266
221	0xbdd92f63	-0.106047414
222	0xbe3d719e	-0.18500373
223	0xbcbc8125	-0.0230108
224	0xbc395137	-0.011310867
225	0x3e921b5c	0.285365
226	0x3c99acd7	0.018759174
227	0x3e3b7a23	0.1830831
228	0x3e457b2f	0.19285272
229	0xbe92098b	-0.28522906
230	0x3d84ac7c	0.06478211
231	0xbe7b14db	-0.24519674
232	0xbed19c7d	-0.40939704
233	0xbe8bc324	-0.27297318
234	0xbd725874	-0.059166387
235	0x3c10740d	0.008816731
236	0xbe1f5a09	-0.1556169
237	0x3d11cfda	0.035598613
238	0x3c7861e4	0.015160058
239	0xbca8e96a	-0.020619113
240	0x3d425f5a	0.047454216
241	0xbdd97d16	-0.106195614
242	0xbe920686	-0.28520602
243	0xbc8434cd	-0.016138459
244	0xbe02b280	-0.12763405
245	0xbca5c87d	-0.020237202
246	0xbdc49281	-0.09598256
247	0xbdfa239a	-0.12213822
248	0x3e5bcdbf	0.21465205
249	0xbddb8ebc	-0.10720584
250	0x3e02cb18	0.12772787
251	0xbd897eb7	-0.06713622
252	0xbe864866	-0.2622711
253	0xbd17666c	-0.03696291
254	0x3d9040ac	0.07043585
255	0xbe1df9e0	-0.15427351

linears.3.bias f4 [50]
0	0xbeaf501d	-0.3424081
1	0xbd5b88ae	-0.053597145
2	0xbc337141	-0.010952295
3	0xbda45680	-0.08024311
4	0xbdb79d83	-0.0896559
5	0xbe48bb70	-0.19602752
6	0x3db0c98c	0.08632192
7	0xbe08d032	-0.1336067
8	0x3e8548aa	0.26032
9	0xbd94ee95	-0.072720684
10	0xbe7debe0	-0.2479701
11	0xbe498447	-0.19679366
12	0xbaa98566	-0.0012933433
13	0x3e0cbaef	0.13743185
14	0x3e0f4d8e	0.13994429
15	0x3dd939a6	0.10606699
16	0xbe4794b9	-0.19490327
17	0x3c594700	0.013261557
18	0x3c7f0c44	0.015566889
19	0x3e452443	0.19252114
20	0xbe1aadb1	-0.1510532
21	0x3a921988	0.0011146525
22	0xbd94bbb9	-0.07262368
23	0x3dab288e	0.083573446
24	0x3d4f19ff	0.0505619
25	0xbdbc71bc	-0.092013806
26	0xbd6b740e	-0.057483725
27	0x3d1cc40b	0.0382729
28	0xbad23507	-0.0016037532
29	0x3db5eb9d	0.0888283
30	0xbe0d69f5	-0.1380995
31	0xbe3fec31	-0.18742444
32	0x3db958db	0.09050151
33	0x3d1ab783	0.037772667
34	0x3daca1d4	0.08429304
35	0xbd90976a	-0.0706013
36	0xbd60bebb	-0.054869395
37	0x3cfc59a4	0.030804463
38	0xbdc8579c	-0.09782335
39	0x3e9752a3	0.29555234
40	0x3d877d20	0.066156626
41	0x3db31c4f	0.08745634
42	0xbd9ea7ec	-0.07746872
43	0x3c8dffc0	0.017333865
44	0xbe147e7c	-0.14501375
45	0x3d95d811	0.07316602
46	0x3dfff6d0	0.124982476
47	0xbd2fc0ea	-0.042908587
48	0xbc84cef0	-0.016211957
49	0xbd1c2530	-0.038121402

linears.4.weight f4 [50, 50]
0	0xbdf910dc	-0.12161419
1	0xbdbf4904	-0.093400985
2	0x3b583365	0.0032989618
3	0xbc4e206c	-0.012580972
4	0x3df43f58	0.11926144
5	0x3de5cf79	0.11221213
6	0x3e653104	0.22381979
7	0xbd180c15	-0.037120897
8	0xbc6272f3	-0.013821351
9	0x3e3455a9	0.17610802
10	0xbd9487d5	-0.072524704
11	0xbdba18f3	-0.0908679
12	0x3c4d419a	0.012527848
13	0xbe07255b	-0.13197844
14	0x3e8a1114	0.26966155
15	0xbd2cd5bb	-0.042196017
16	0x3e0c736b	0.13715903
17	0x3eac9ace	0.33711857
18	0xbd4db6b9	-0.050223086
19	0x3debdc99	0.11516685
20	0xbd90a738	-0.070631444
21	0x3e4ef7cd	0.20211716
22	0xbde70794	-0.11280742
23	0xbcc8b34b	-0.024499556
24	0x3dbf704c	0.09347591
25	0xbdeca90f	-0.11555683
26	0xbd08070a	-0.033209838
27	0xbc7a1cd0	-0.0152656585
28	0xbdb797a1	-0.08964468
29	0x3e0e9d6e	0.13927242
30	0xbe170d06	-0.14751062
31	0x3db16f57	0.086638145
32	0x3ca7257d	0.020403618
33	0x3ca9d0a3	0.020729369
34	0x3e53b8eb	0.2067601
35	0x3d098980	0.033578396
36	0xbd1cc275	-0.038271386
37	0xbe9b6c7a	-0.303562
38	0xbbcb68c2	-0.0062075565
39	0x3d1810c9	0.037125383
40	0x3e89cefe	0.26915735
41	0xbd54520c	-0.05183606
42	0xbc8380e2	-0.016052667
43	0x3d408dac	0.04701011
44	0x3e162623	0.14662986
45	0x3e10aef5	0.14129241
46	0xbd21bd6a	-0.03948728
47	0x3d1acd45	0.037793417
48	0xbc0aba13	-0.008467215
49	0x3c98f7e0	0.018672884
50	0x3d1abee7	0.037779715
51	0xbeb661b2	-0.3562141
52	0xbde01f17	-0.1094343
53	0x3da24329	0.07922966
54	0x3dd22657	0.10261219
55	0x3e82d244	0.25551045
56	0xbe1281b7	-0.14307295
57	0xbe9428f0	-0.28937483
58	0xbd88a049	-0.06671197
59	0x3e1b0c99	0.15141524
60	0x3e2313b1	0.1592548
61	0xbdafb89d	-0.08580134
62	0xbe404a10	-0.18778253
63	0xbe817918	-0.252877
64	0x3d9ec9bc	0.077533215
65	0xbc8399df	-0.016064582
66	0x3e27a925	0.16373117
67	0xbd74e03e	-0.059784167
68	0xbe03778a	-0.1283857
69	0xbdd56b4a	-0.104208544
70	0x3dda46f4	0.106580645
71	0x3d879603	0.06620409
72	0xbd9f64ee	-0.07782923
73	0xbe3ecc99	-0.18632735
74	0x3e8b2e15	0.27183595
75	0xbdac464b	-0.08411845
76	0x3da00961	0.07814289
77	0xbd69b88e	-0.05706077
78	0xbd176a38	-0.036966532
79	0xbe11f58d	-0.14253826
80	0x3d74268b	0.05960707
81	0x3d71c966	0.05902996
82	0x3e210de2	0.15727952
83	0xbe35fd05	-0.177723
84	0x3e943cf7	0.28952762
85	0xbe333e06	-0.17504129
86	0x3e987e7e	0.29784006
87	0x3da482b5	0.08032743
88	0x3dbd980c	0.09257516
89	0xbe14642d	-0.14491339
90	0x3d109e76	0.03530737
91	0xbd13dcd9	-0.03609929
92	0x3e9a1261	0.30092147
93	0xbdaa62cd	-0.08319626
94	0xbc2f5ae2	-0.0107028205
95	0x3dfa79f8	0.12230295
96	0x3e308296	0.17237315
97	0xb9c293df	-0.00037112736
98	0x3c51f49c	0.012814667
99	0x3dd89a4d	0.105763055
100	0xbd99aa78	-0.075032175
101	0x3da7b949	0.08189637
102	0xbd8f0893	-0.06984057
103	0xbdc58ae0	-0.09645629
104	0xbe6f6793	-0.23379354
105	0x3e22d484	0.15901381
106	0xbd58ca1c	-0.05292712
107	0xbdda446d	-0.106575824
108	0xbd888b3c	-0.06667182
109	0x3e67fcb2	0.2265499
110	0x3da02f81	0.07821561
111	0x3e0c5dcd	0.13707657
112	0xbce08308	-0.02740623
113	0x3e4d9dc6	0.20079717
114	0x3d1f272a	0.03885571
115	0xbcf88f3b	-0.030341735
116	0xbb819226	-0.00395419
117	0xbd97655e	-0.07392381
118	0x3c0aaa84	0.008463506
119	0xbda8798d	-0.08226309
120	0xbdcc1881	-0.09965611
121	0xbbb1e453	-0.0054288297
122	0xbe0aae52	-0.1354306
123	0xbebd992d	-0.37030926
124	0xbd9c7fc0	-0.07641554
125	0x3c5e6ea6	0.013576185
126	0x3d7696db	0.06020246
127	0x3e8b0594	0.27152693
128	0xbe01a390	-0.1266005
129	0xbdb3d8f9	-0.087816186
130	0xbdce62df	-0.10077452
131	0x3e34b5cd	0.17647476
132	0xbe28d903	-0.16489033
133	0xbd9c01a3	-0.076175
134	0xbdd9456d	-0.10608945
135	0xbdb68e39	-0.089138456
136	0x3dbbb4da	0.09165354
137	0xbc2dea60	-0.010614961
138	0x3dfbf524	0.12302616
139	0xbbc27767	-0.005934644
140	0x3d0ac3af	0.033878025
141	0xbe8c9b32	-0.27462155
142	0xbd87f5a6	-0.066386506
143	0xbe13abc4	-0.14420992
144	0xbe3a6d1b	-0.18205683
145	0xbd35030c	-0.04419236
146	0x3e40968a	0.18807426
147	0x3daca83a	0.08430524
148	0x3e24206c	0.16027993
149	0xbdc8a863	-0.09797742
150	0xbe99b26f	-0.30018947
151	0xbdf906a5	-0.121594705
152	0xbeb25cb9	-0.34836367
153	0xbe33f97d	-0.17575641
154	0xbdb6078e	-0.0888816
155	0xbdeedff6	-0.11663811
156	0x3a0a9112	0.00052858994
157	0xbe4a3e23	-0.19750266
158	0xbe89f434	-0.26944125
159	0x3ddc56f5	0.10758773
160	0xbe0ee8e0	-0.13956022
161	0xbd7ce28e	-0.061739497
162	0x3e4fc069	0.20288242
163	0x3eb8506c	0.35998857
164	0xbda3f328	-0.08005363
165	0x3e474ccb	0.19462888
166	0x3d9d860d	0.07691584
167	0xbc8fc535	-0.01755009
168	0xbe3fe3e8	-0.18739283
169	0x3d6a8d6d	0.05726378
170	0xbe0d78f6	-0.13815674
171	0x3e07b506	0.13252649
172	0xbe928088	-0.28613687
173	0x3c819911	0.015820058
174	0x3b8e38f9	0.0043402878
175	0x3e43211c	0.19055599
176	0xbcab63fc	-0.0209217
177	0x3cc25fc7	0.02372731
178	0xbe029102	-0.12750629
179	0x3dab8469	0.083748646
180	0xbdb76fd3	-0.08956876
181	0xbd958bbd	-0.073020436
182	0x3e2b1161	0.16705848
183	0xbe4b280b	-0.19839494
184	0x3e023a64	0.12717587
185	0xbdcf4bf0	-0.10121906
186	0xbe326ff1	-0.17425515
187	0x3e011633	0.12606125
188	0x3e5ae0b7	0.21374784
189	0xbe0b74f5	-0.13618834
190	0x3d9141b7	0.07092612
191	0xbe236679	-0.15957059
192	0xbca8b372	-0.020593379
193	0xbdc05428	-0.093910515
194	0xbdc7da20	-0.09758401
195	0x3dbc99bb	0.09209009
196	0xbd0006a7	-0.031256344
197	0xbd75f0f3	-0.06004424
198	0xbe63e7bb	-0.22256367
199	0xbc533a16	-0.012892267
200	0x3e208229	0.15674652
201	0xbc1ed977	-0.009695402
202	0xbe432601	-0.19057466
203	0xbea58e34	-0.32335055
204	0xbd456798	-0.048194498
205	0x3dc754f0	0.097329974
206	0x3b141855	0.002259751
207	0xbe279669	-0.1636597
208	0xbdc6ee95	-0.09713475
209	0x3e1b0598	0.15138853
210	0x3d586ee9	0.052840147
211	0xbbc3f9c7	-0.0059807035
212	0xbd9815c6	-0.07426028
213	0x3deeca04	0.11659625
214	0x3db22be7	0.0869978
215	0xbd555167	-0.052079584
216	0xbd8f5fe2	-0.0700071
217	0x3d3d4435	0.046207625
218	0xbcac5117	-0.02103476
219	0x3c713e31	0.0147243
220	0xbe993aa4	-0.29927552
221	0x3bed5a55	0.0072434344
222	0x3da5fd7f	0.08104991
223	0x3ddced8a	0.107874945
224	0x3e87920b	0.2647861
225	0x3d986acd	0.07442246
226	0x3df61de7	0.12017422
227	0x3df1230a	0.11774261
228	0x3bafd6c4	0.005366178
229	0xbe5b4f14	-0.21416885
230	0x3da32029	0.079651184
231	0xbe84610f	-0.258553
232	0xbe120583	-0.14259915
233	0x3debdd90	0.11516869
234	0x3e2b40e9	0.1672398
235	0xbda0be6f	-0.07848822
236	0xbe1c5f92	-0.15270832
237	0xbde73d48	-0.11290985
238	0x3cec992b	0.02888163
239	0x3e8ae812	0.2713018
240	0x3d6e5510	0.05818659
241	0x3daf31a7	0.08554392
242	0x3d5b4126	0.053528927
243	0xbcbc9325	-0.023019383
244	0xbe774463	-0.24147181
245	0x3ccce9bf	0.025013803
246	0x3c60a4af	0.013711139
247	0xbe49266d	-0.19643565
248	0x3e298194	0.16553336
249	0xbbf2d918	-0.0074111335
250	0x3d6e4dd9	0.05817971
251	0xbd912c9a	-0.07088585
252	0xbdf6f526	-0.12058477
253	0x3e9ca62a	0.30595523
254	0x3e172216	0.14759097
255	0xbd84e711	-0.06489385

linears.4.bias f4 [50]
0	0x3df060b3	0.11737194
1	0xbe41b536	-0.18916783
2	0x3dde1484	0.10843757
3	0x3d8cfdab	0.06884321
4	0x3da2c9b6	0.079486296
5	0xbe78acda	-0.24284688
6	0xbe6bfe19	-0.2304615
7	0xbe961f46	-0.29320735
8	0xbe7cdb44	-0.24693018
9	0xbe8a3895	-0.26996294
10	0x3d85a0ff	0.06524848
11	0xbdda8091	-0.10669053
12	0xbe345719	-0.1761135
13	0x3d8de5b7	0.0692858
14	0x3e6ef53d	0.23335738
15	0x3db708ea	0.08937247
16	0xbe568f6a	-0.20953146
17	0xbdf5590f	-0.11979877
18	0x3b82fdbf	0.003997534
19	0xbe112b52	-0.14176682
20	0xbe2d2446	-0.16908368
21	0xbd852a0b	-0.0650216
22	0x3d9990b7	0.07498305
23	0x3c27926b	0.01022778
24	0x3c257cc0	0.0101005435
25	0xbd9be800	-0.0761261
26	0x3da00011	0.07812513
27	0x3e5db38d	0.21650524
28	0x3dcf9d15	0.10137383
29	0x3e28154a	0.16414371
30	0xbdb3386b	-0.08750995
31	0x3dd32bfe	0.10311125
32	0xbdf2e11e	-0.11859344
33	0xbc6d6740	-0.014489949
34	0x3e0cc5df	0.13747357
35	0x3e495e7e	0.19664952
36	0x3e2d5f08	0.16930783
37	0xbe24913c	-0.16071028
38	0xbe4285d5	-0.18996365
39	0x3e754d1e	0.23955199
40	0xbd61a7b9	-0.055091593
41	0x3ece8972	0.40339237
42	0x3e2c62e6	0.16834602
43	0x3e50eae4	0.20402104
44	0x3db236c0	0.08701849
45	0x3cdcc71c	0.026950411
46	0x3d51f3c3	0.05125786
47	0xbea63e12	-0.3246923
48	0x3e54e5ef	0.20790838
49	0xbb4409e6	-0.0029913126

linears.5.weight f4 [50, 50]
0	0xbe73fb30	-0.23826289
1	0x3df07343	0.117407344
2	0xbe2e8781	-0.17043878
3	0xbd24ec0b	-0.04026417
4	0xbda14c70	-0.078759074
5	0xbd6f8646	-0.058477663
6	0xbd11d22a	-0.03560082
7	0x3e2daf9d	0.16961522
8	0x3d53c9c0	0.051706076
9	0xbdd28401	-0.10279084
10	0x3dbd04de	0.09229444
11	0x3e07e67a	0.13271514
12	0xbd67ee6a	-0.056623854
13	0xbd9f3e67	-0.07775574
14	0x3deb0339	0.11475224
15	0xbe5648b2	-0.20926169
16	0x3dcef8eb	0.10106071
17	0x3bbff3f9	0.005857941
18	0x3e894b95	0.26815477
19	0x3d15fe9b	0.036619764
20	0x3df7bc19	0.12096424
21	0x3de55cb1	0.1119932
22	0x3af997a6	0.0019042387
23	0xbdf6e469	-0.120552845
24	0x3b0206b9	0.0019840433
25	0xba80e87d	-0.0009834912
26	0xbe803c67	-0.25046083
27	0xbd0e6f42	-0.034774072
28	0xbe410a0a	-0.18851486
29	0xba681eaa	-0.0008854667
30	0xbd591ccc	-0.05300598
31	0x3e6b6303	0.22986989
32	0xbdc73441	-0.097267635
33	0xbe569548	-0.20955384
34	0xbdf0560d	-0.11735163
35	0x3c9f04a8	0.0194114
36	0xbe3b61ad	-0.18298979
37	0x3bf41d65	0.007449793
38	0xbd0a2c05	-0.033733387
39	0x3e63e021	0.22253467
40	0x3e8c7666	0.2743408
41	0x3c01bd19	0.00791862
42	0xbd430087	-0.047607925
43	0xbe019a8e	-0.12656614
44	0xbdb76c17	-0.089561634
45	0xbafe4d8e	-0.0019401775
46	0x3e054843	0.13015847
47	0x3de57329	0.11203606
48	0x3e02aa94	0.12760383
49	0x3e5a4b00	0.21317673
50	0xbcb1d467	-0.021707727
51	0x3cb64733	0.022250747
52	0xbc75ff5a	-0.015014494
53	0x3d344f01	0.044020656
54	0x3dcbe69f	0.09956097
55	0x3daf8835	0.08570901
56	0xbd5a48ae	-0.05329197
57	0xbc4d6429	-0.012536087
58	0xbe029d87	-0.12755404
59	0xbe277425	-0.163529
60	0x3e148ed6	0.14507613
61	0xbd8d6a82	-0.069050804
62	0xbeb1cff2	-0.34728962
63	0xbe1faa64	-0.15592343
64	0x3e22d64a	0.15902057
65	0xbe2339c0	-0.15939999
66	0xbd62fd99	-0.05541763
67	0xbd200b30	-0.03907317
68	0x3da3a6f9	0.07990832
69	0xbe170614	-0.14748412
70	0xbdfdc06a	-0.12390216
71	0xbe39ef82	-0.18157771
72	0xbd84ceee	-0.06484781
73	0x3dd3b869	0.10337908
74	0x3d5557b4	0.052085593
75	0x3ced1644	0.028941281
76	0x3dcd4f61	0.10024906
77	0xbc2b0baf	-0.010439797
78	0x3e150fe7	0.14556848
79	0x3e2dc58f	0.16969894
80	0xbe31a335	-0.17347415
81	0xbd10174a	-0.03517846
82	0x3c6a2ba0	0.014292628
83	0x3de5feea	0.112302616
84	0xbc294662	-0.010331722
85	0x3e4d1d0b	0.2003061
86	0xbe6cc613	-0.23122434
87	0xbe04ae2f	-0.12957071
88	0xbb5a924c	-0.003335136
89	0xbe37f481	-0.17964365
90	0xbde2e832	-0.11079444
91	0xbe08f324	-0.13374001
92	0x3e1503ca	0.14552227
93	0xbece3959	-0.40278128
94	0x3e8b636c	0.2722429
95	0x3de28211	0.110599644
96	0x3cf61279	0.030038105
97	0x3d8b267a	0.06794448
98	0xbc3e760a	-0.011624822
99	0xbe3bc724	-0.18337685
100	0x3d4bcd6e	0.04975646
101	0x3d35db6a	0.044398703
102	0x3ceabb33	0.028653717
103	0x3cd3adf6	0.025839787
104	0x3da3c9d6	0.079974815
105	0x3d24aa95	0.040201742
106	0x3d48e95e	0.04905068
107	0xbe96eff4	-0.29479945
108	0x3d63fd03	0.055661213
109	0xbe5d54de	-0.21614406
110	0xbdd44dfe	-0.10366438
111	0xbe2fcc20	-0.17167711
112	0x3c7cf109	0.015438327
113	0xbc7eab6b	-0.015543799
114	0xbd89a3dd	-0.067207076
115	0xbd142e0c	-0.036176726
116	0xbc934d7e	-0.017981287
117	0xbe149f7f	-0.14513968
118	0x3ded52b8	0.11588043
119	0xbca3889a	-0.019962598
120	0x3d56e8de	0.052468173
121	0x3e9e19e5	0.3087913
122	0x3e5996b2	0.21248892
123	0xbe295b0d	-0.1653864
124	0x3c55c27b	0.013046856
125	0x3d2536c9	0.04033545
126	0x3c700e61	0.014651866
127	0xbc96dc9b	-0.01841574
128	0x3e7fa2fe	0.2496452
129	0xbe5dcb9f	-0.21659707
130	0x3e53c572	0.20680788
131	0x3da0799e	0.07835697
132	0xbd8422b7	-0.06451934
133	0xbcf290fd	-0.029610151
134	0xbd1d12f4	-0.038348153
135	0x3de67933	0.11253586
136	0xbe6a10cf	-0.22857974
137	0xbe3433d2	-0.17597893
138	0xbd7b06d0	-0.061285794
139	0xbd4774de	-0.048695438
140	0x3d831680	0.06400776
141	0xbe156707	-0.14590083
142	0x3d2657e3	0.04061116
143	0x3c7aacfb	0.015300031
144	0x3c0bdbc8	0.008536287
145	0x3d635725	0.05550303
146	0xbe30e6d6	-0.17275557
147	0x3d888132	0.06665267
148	0xbc9129f4	-0.0177202
149	0xbd6fc4b7	-0.05853721
150	0xbace9a82	-0.00157626
151	0xbe52b7cf	-0.2057793
152	0xbdd46388	-0.103705466
153	0x3de9c6e6	0.1141489
154	0x3d6d6e50	0.05796653
155	0x3e286d35	0.16447909
156	0xbd29b3f9	-0.0414314
157	0xbd61bdc3	-0.05511261
158	0x3db3f11c	0.08786222
159	0x3d8163c5	0.06317858
160	0x3d3f70b8	0.046738356
161	0xbdd0e15d	-0.10199235
162	0x3e93bb50	0.28853846
163	0x3eaafe24	0.3339702
164	0x3d350715	0.044196207
165	0x3e1516c8	0.14559472
166	0xbc53dc4a	-0.012930939
167	0xbb3c957f	-0.002877563
168	0x3e3e8005	0.18603523
169	0xbe16e72b	-0.14736621
170	0x3d56f7ed	0.052482534
171	0xbd98154f	-0.07425939
172	0xbdb6a891	-0.0891887
173	0x3e2c3d59	0.16820277
174	0xbe1168e0	-0.14200163
175	0xbc1bfdaf	-0.009520932
176	0xbd2f7cf1	-0.042843763
177	0xbc39dd82	-0.0113443155
178	0x3dd23ff2	0.10266103
179	0x3b9c52c5	0.004770609
180	0x3e533869	0.20626988
181	0x3de0beb7	0.10973876
182	0xbc46335a	-0.012097204
183	0xbe1b97ef	-0.15194677
184	0xbeae0833	-0.3399063
185	0xbd4c91bf	-0.04994368
186	0xbc9dbdf9	-0.019255625
187	0xbe7dc75f	-0.24783085
188	0x3e2c20f4	0.16809446
189	0x3e7ad351	0.24494673
190	0x3e9b2154	0.30298865
191	0x3e505a2f	0.20346902
192	0x3b894e98	0.0041902773
193	0xbdbae379	-0.09125418
194	0xbd127d76	-0.03576418
195	0xbe7288ac	-0.23684949
196	0x3c988a88	0.018620744
197	0xbe8287d3	-0.2549425
198	0x3e621a54	0.22080356
199	0x3d23dd7e	0.040006153
200	0xbba311a6	-0.004976469
201	0xbcb8cf66	-0.022559833
202	0x3e30058f	0.1718962
203	0x3e0e45c9	0.13893808
204	0x3e3543b0	0.17701602
205	0x3e3fafb0	0.18719363
206	0xbe4508fe	-0.19241711
207	0x3d7cfa4b	0.061762135
208	0x3e3a8783	0.18215756
209	0x3e848ec8	0.25890183
210	0xbe823347	-0.25429747
211	0x3dbe785e	0.09300302
212	0x3e5ee710	0.21767831
213	0x3cde5961	0.027142229
214	0xbd418813	-0.04724891
215	0x3d354cbb	0.04426263
216	0xbd54dbc9	-0.051967416
217	0xbd6b1e2b	-0.057401817
218	0xbeb30229	-0.34962586
219	0x3d4a11af	0.04933327
220	0xbd3a3cba	-0.04546807
221	0xbe755949	-0.23959841
222	0x3df5faab	0.12010702
223	0x3e823d08	0.25437188
224	0xbe5c04dd	-0.2148623
225	0xbdd126a7	-0.102124505
226	0x3db33080	0.08749485
227	0xbe034a43	-0.12821297
228	0x3e2928c9	0.16519465
229	0xbd9cfe08	-0.0766564
230	0x3ceab0b8	0.02864872
231	0x3da65b20	0.081228495
232	0xbcaba599	-0.020952987
233	0x3b3f2ae6	0.0029169857
234	0xb9059159	-0.00012738015
235	0xbd86a606	-0.06574635
236	0xbd50dc8a	-0.050991572
237	0x3d0e4bb1	0.034740154
238	0x3e296304	0.16541678
239	0xbe72ceb3	-0.23711662
240	0x3e287321	0.16450168
241	0x3e08e2d8	0.13367784
242	0x3e4e66b3	0.20156364
243	0x3db1d9ec	0.086841434
244	0x3d90498f	0.0704528
245	0x3e386b99	0.18009795
246	0x3e1b7efe	0.15185162
247	0xbd4f6a9e	-0.050638787
248	0x3e0d1b25	0.13779886
249	0xbd563b88	-0.052302867
250	0xbe4d5907	-0.20053492
251	0x3da3eca9	0.08004124
252	0xbdb7d733	-0.08976593
253	0x3e716911	0.23575236
254	0xbd183f76	-0.037169896
255	0x3a512b3b	0.0007979159

linears.5.bias f4 [50]
0	0x3e8bc533	0.2729889
1	0x3d301efb	0.042998295
2	0xbd7ec3a4	-0.062198296
3	0x3e4936e4	0.19649845
4	0x3e775994	0.24155265
5	0x3e210ff8	0.15728748
6	0xbe461278	-0.19342983
7	0xbcc8554b	-0.024454733
8	0xbd8ca79f	-0.06867909
9	0xbd8439bd	-0.06456325
10	0x3a3f46c0	0.00072966143
11	0x3e16215c	0.14661163
12	0xbea4a698	-0.3215835
13	0x3e31ea3c	0.1737451
14	0xbceae359	-0.028672861
15	0xbdb45333	-0.088049315
16	0xbdbe08b1	-0.092790015
17	0x3f06be71	0.5263434
18	0x3f3658a2	0.7122899
19	0xbdc18ab0	-0.09450281
20	0x3f1a65b9	0.60311466
21	0x3eb7d5e9	0.35905388
22	0xbdaf0cca	-0.08547361
23	0x3e5fe3fe	0.21864316
24	0xbee82c1f	-0.45346162
25	0xbd951c6a	-0.0728081
26	0x3e3bbe84	0.18334395
27	0xbea9d563	-0.33170614
28	0x3c18bb9e	0.009322075
29	0x3e7607a9	0.2402636
30	0x3eb323c3	0.34988222
31	0x3e5ff2cd	0.21869965
32	0xbf03b915	-0.5145429
33	0xbe272aca	-0.16324916
34	0xbe88806b	-0.26660475
35	0x3ecfb8cf	0.40570685
36	0x3d29c4b7	0.041447368
37	0x3ebbfd4d	0.3671669
38	0xbd47dced	-0.048794676
39	0xbe8ac049	-0.27099827
40	0xbcf575a1	-0.029963316
41	0xbe480beb	-0.19535796
42	0xbdcf5095	-0.10122792
43	0x3e30c67f	0.1726322
44	0xbc8e8e7f	-0.017401932
45	0xbe02380a	-0.1271669
46	0x3e888ff0	0.26672316
47	0xbf0a2978	-0.53969526
48	0x3b937fd9	0.0045013246
49	0xbdf0b811	-0.11753858
