Archived Code/Stan TPAMI/3D/tanh_tune/3D_HTTP_tanh_tune4_0.pt (torch, 88681 bytes, 19 tensors)

linears.0.weight f4 [50, 3]
0.3465768 1.0522903 2.3107336 0.5681001 -0.5631773 -3.2139301 -1.3795238 -0.97659695
2.1363804 0.57692224 -0.09799949 -1.4799178 -0.69726735 -0.6882041 -4.3323884 1.0062033
0.39400688 3.4558275 0.1389865 0.44567758 2.5152647 0.82919294 -0.8950508 -3.8761702
-0.2508025 1.0096908 1.3451669 2.079538 -0.6650633 -1.6591561 1.5197875 0.094819404
3.18063 0.6178495 0.63464963 2.4424388 -0.6375555 -0.9667218 0.87656546 -0.53004634
1.0947742 2.4241452 0.7899703 0.83520883 -1.2078133 -0.8844395 -0.88206124 -0.4758788
0.6704102 0.20041361 3.1082335 -0.41861758 -1.4628456 1.7243965 1.5226878 0.80415946
-0.2652657 -1.8340997 -0.020218126 1.6937425 0.1277415 -0.12727436 -0.39188737 -0.44326568
0.3488493 -0.01458286 -0.919835 0.18855523 1.0776272 2.9249187 1.9473654 4.3898387
-4.3555746 -5.6928053 -3.7907076 -0.6048286 0.7671963 3.682404 1.7994115 -0.50978345
-1.4935324 -0.18881488 -0.9351476 -0.13133563 0.3854714 -0.30049908 -1.4163034 -0.63913995
-2.5619075 -0.49880728 -0.33555788 -1.5592309 0.12258885 -0.54729384 -1.9158101 -2.5886118
2.4426978 -1.0832167 3.2005594 -0.12891199 -1.3470311 -4.177234 -0.9314156 0.92113596
1.4388175 -1.6926012 1.1037372 2.175202 -1.2218207 -1.6292269 -5.140958 -0.8108556
0.08889585 3.470935 -0.19446586 0.80785006 4.9720373 -0.8814549 -0.93551934 4.540192
1.0118712 0.3299734 1.1879282 1.4979368 -0.59877145 2.9046867 0.0015987029 -0.9404221
0.96691656 1.8174449 0.48873577 -2.4802868 -1.8061736 0.63986456 -1.3111032 0.16747889
-0.09089791 -0.05812541 -0.53554577 -1.0943593 -0.7254871 1.9966345 0.2596738 0.804427
1.2343589 0.549481 0.50716287 -1.0708232 -0.99392784 0.025878143
00000000: 8472 b13e 73b1 863f 0fe3 1340 026f 113f
00000010: 632c 10bf 08b1 4dc0 3c94 b0bf 4202 7abf
00000020: 75ba 0840 2db1 133f f5b3 c8bd f26d bdbf
00000030: 1d80 32bf 252e 30bf eda2 8ac0 45cb 803f
00000040: 45bb c93e 472c 5d40 7a52 0e3e da2f e43e
00000050: 19fa 2040 fd45 543f 0d22 65bf 2c13 78c0
00000060: 2f69 80be 8c3d 813f 6e2e ac3f 2717 0540
00000070: 9741 2abf 3a5f d4bf 6688 c23f ad30 c23d
00000080: 718f 4b40 632b 1e3f 6678 223f eb50 1c40
00000090: d636 23bf 147b 77bf 9866 603f 1eb1 07bf
000000a0: 9021 8c3f 3225 1b40 7e3b 4a3f 3fd0 553f
000000b0: a099 9abf a16a 62bf c4ce 61bf 63a6 f3be
000000c0: 01a0 2b3f 3a39 4d3e 4ced 4640 0b55 d6be
000000d0: 863e bbbf 06b9 dc3f 6fe7 c23f 65dd 4d3f
000000e0: e8d0 87be c7c3 eabf 7ca0 a5bc 8ecc d83f
000000f0: abce 023e 3654 02be 76a5 c8be b8f3 e2be
00000100: 609c b23e f3ec 6ebc 4e7a 6bbf 9f14 413e
00000110: b0ef 893f de31 3b40 4543 f93f 8f79 8c40
00000120: de60 8bc0 762b b6c0 f49a 72c0 0cd6 1abf
00000130: fa66 443f 82ac 6b40 1e53 e63f 2b81 02bf
00000140: 122c bfbf b058 41be d565 6fbf d97c 06be
00000150: 825c c53e 04db 99be 6e49 b5bf ad9e 23bf
00000160: 4bf6 23c0 ab63 ffbe 3ece abbe e194 c7bf
00000170: dd0f fb3d 731b 0cbf 4439 f5bf d1ab 25c0
00000180: 2955 1c40 d8a6 8abf f7d5 4c40 8101 04be
00000190: 846b acbf e7ab 85c0 4171 6ebf 91cf 6b3f
000001a0: 2c2b b83f 28a7 d8bf 4347 8d3f 8236 0b40
000001b0: 9f64 9cbf 828a d0bf ba82 a4c0 3c94 4fbf
000001c0: 070f b63d cd23 5e40 0f22 47be 43cf 4e3f
000001d0: ee1a 9f40 07a7 61bf 327e 6fbf 4149 9140
000001e0: ff84 813f 46f2 a83e 080e 983f 65bc bf3f
000001f0: 1649 19bf 63e6 3940 918b d13a 81bf 70bf
00000200: d887 773f 09a2 e83f 933b fa3e 05bd 1ec0
00000210: b230 e7bf 2ace 233f 3bd2 a7bf 967f 2b3e
00000220: af28 babd e914 6ebd 8719 09bf f713 8cbf
00000230: 86b9 39bf b891 ff3f f7f3 843e eeee 4d3f
00000240: 79ff 9d3f c9aa 0c3f 6dd5 013f bc10 89bf
00000250: 0e72 7ebf 66fe d33c

linears.0.bias f4 [50]
-3.2633855 1.2670845 3.362896 1.743899 1.4291584 -0.42099816 1.308569 -2.4100833
2.7110643 1.431533 -5.691289 -0.6865631 -2.5206573 -1.220613 0.019680493 -0.719054
1.1801021 1.5116804 -1.2582586 -1.1845087 -2.8041499 -0.52815706 0.46610624 -5.582952
-2.5133493 3.494381 -2.3039522 -4.2038345 2.0579257 -0.20967335 0.3209568 0.20598634
1.7250028 2.3413036 -0.26007536 1.2223817 -1.1157892 -1.9379722 -0.044271395 -3.8919
2.6271796 0.5217647 -0.7448154 2.562006 1.1421542 2.679091 -0.05358147 0.104463145
-2.6987808 -2.6650665
00000000: 4fdb 50c0 d32f a23f b039 5740 1538 df3f
00000010: aaee b63f 128d d7be 307f a73f ce3e 1ac0
00000020: 1482 2d40 793c b73f 0a1f b6c0 99c2 2fbf
00000030: 7352 21c0 0c3d 9cbf fc38 a13c ec13 38bf
00000040: 960d 973f be7e c13f 9e0e a1bf fb9d 97bf
00000050: 3177 33c0 4d35 07bf 7aa5 ee3e 8ba7 b2c0
00000060: b7da 20c0 f0a3 5f40 f473 13c0 d085 86c0
00000070: 0eb5 0340 9cb4 56be 7354 a43e 15ee 523e
00000080: e4cc dc3f ebd7 1540 9928 85be 0177 9c3f
00000090: 2ed2 8ebf 790f f8bf ec55 35bd e414 79c0
000000a0: b623 2840 5f92 053f 39ac 3ebf e8f7 2340
000000b0: 1c32 923f 3a76 2b40 3e78 5bbd c6f0 d53d
000000c0: d3b8 2cc0 7390 2ac0

linears.1.weight f4 [50, 50]
0.91059107 0.008908655 -0.75082 -0.41010073 0.03297643 -0.15583691 0.15326573 0.44381154
-0.497878 -0.3471731 0.16343972 -0.23662448 -0.5160258 0.55656683 -0.22585684 0.42888325
0.5181966 -0.38952076 0.31981996 -0.029947901 0.18560517 0.27472702 -0.18135427 0.5466287
0.7696168 -1.0412277 0.6835391 0.885111 0.08574003 0.7667132 0.2830333 -0.12501313
-0.20594375 -0.49170494 -0.2867551 -0.089992754 0.07737128 0.04665835 -0.19145383 -0.05237823
-0.73088145 -0.25791383 0.15375936 -0.008255044 0.23968223 -0.3913313 -0.28829312 0.08121941
0.46259335 0.4055532 -1.233468 -0.41165897 1.2306195 0.057057142 0.15711285 0.3596486
-0.47918758 -0.97681266 0.28755838 0.22780037 0.29637086 0.17832026 0.8442355 -0.54398006
-0.10819975 0.09738845 -0.59500474 0.41727313 -0.6242243 -0.13698484 -0.42564386 -0.49516207
-0.27290857 -0.21302734 -0.44883186 1.0007282 -1.5610701 -0.17644772 0.10840896 -0.8507554
-0.38349545 0.24217871 0.20547867 0.51690537 0.8130687 0.40481386 -0.4572479 0.19602998
0.25487658 0.42400384 0.3286687 0.32245392 0.29994175 -0.6713249 -0.045839712 0.4476871
0.31038645 -0.49436212 -0.8050328 -0.00322606 2.0043738 -0.020937955 -1.5068728 -1.0684834
0.266177 -0.62911403 0.8973131 0.6775318 -0.34690773 -0.4655633 -1.191161 0.49428248
-1.4460847 0.11751713 -0.20053938 0.10088724 0.017768633 -0.22355282 0.7217662 0.69162565
0.6445083 0.04961836 0.76209503 -0.3834567 0.84930617 -1.3384067 1.2160182 0.5247272
0.5036487 1.1334932 -0.26031438 0.21772806 -0.3388864 -0.4836764 -0.5763951 0.3464919
-0.111595504 0.2992167 -0.044616677 -0.1774777 -0.94799703 -0.88849664 -0.74684787 0.75935835
0.8291387 -0.3652653 -0.43752572 0.41101903 0.8543397 0.43794838 -0.68216354 -0.04184822
0.98407185 0.028911002 -0.3336299 0.2670225 -0.2415536 -0.5862873 0.33269164 0.34531724
-0.3943461 0.2667888 0.43461114 -0.08531297 0.2784384 -0.26027676 -0.048308972 0.47756958
-0.63161147 0.17069954 -0.19618633 -0.3056615 0.041001875 -0.46206373 -0.20156054 1.0907217
-0.434027 -0.3368 -0.02133953 -0.36047006 -0.16365801 0.1263245 0.04323696 0.41513073
0.4823078 0.07852785 -0.2896906 -0.14615424 0.42880312 0.1176331 0.17122158 0.14281169
-0.27744263 -0.5050992 -0.0069332803 0.4194405 0.19200245 -0.04835843 -0.6041311 -0.031370245
-0.3407697 -0.12714125 0.36411488 0.099170856 0.034982495 -0.105483085 -0.1295711 0.03268179
0.006816217 0.19725128 -0.037736803 -0.42328578 0.07532024 0.2754071 -0.14245227 0.062815554
0.016907098 0.23843911 -0.29802212 -0.09549382 -0.30450466 0.199518 -0.33612156 -0.27754438
-0.7524209 0.042219695 -0.18863833 -0.34612215 -0.106546916 -0.27792537 0.13608855 -0.11126257
-0.09975417 -0.22433357 -0.07548638 0.08789656 0.32588047 -0.2704627 -0.10559333 -0.16926093
0.32714525 0.19407354 0.44236067 0.059892703 0.22682938 0.15303078 -0.12638825 -0.07173937
-0.08431318 -0.21060298 -3.4668372 -0.4952482 2.8180304 1.2751685 -0.36128965 1.2594845
00000000: 7f1c 693f 9bf5 113c bd35 40bf b9f8 d1be
00000010: 4b12 073d b693 1fbe b1f1 1c3e 443b e33e
00000020: dde9 febe acc0 b1be be5c 273e b04d 72be
00000030: 441a 04bf 2a7b 0e3f 0447 67be 9696 db3e
00000040: 88a8 043f 446f c7be 71bf a33e 4d55 f5bc
00000050: 480f 3e3e 05a9 8c3e efb4 39be dcef 0b3f
00000060: 9b05 453f f346 85bf 6bfc 2e3f a296 623f
00000070: 7898 af3d 5147 443f bee9 903e 7103 00be
00000080: ebe2 52be c0c0 fbbe 91d1 92be 1f4e b8bd
00000090: d574 9e3d d31c 3f3d 790c 44be 8e8a 56bd
000000a0: 0c1b 3bbf 480d 84be 1873 1d3e 2a40 07bc
000000b0: 426f 753e 935c c8be 289b 93be 5d56 a63d
000000c0: 09d9 ec3e aba4 cf3e 48e2 9dbf f7c4 d2be
000000d0: f184 9d3f c0b4 693d 31e2 203e dc23 b83e
000000e0: 1358 f5be 6510 7abf da3a 933e 8044 693e
000000f0: ecbd 973e 9699 363e d11f 583f 4742 0bbf
00000100: d597 ddbd 9873 c73d 3b52 18bf d3a4 d53e
00000110: 2acd 1fbf c145 0cbe feed d9be e285 fdbe
00000120: acba 8bbe d723 5abe 4acd e5be dd17 803f
00000130: 25d1 c7bf b6ae 34be 8405 de3d 1bcb 59bf
00000140: 8459 c4be b2fd 773e 0069 523e e953 043f
00000150: 4525 503f c343 cf3e 661c eabe 15bc 483e
00000160: 2f7f 823e 0817 d93e 4447 a83e ae18 a53e
00000170: f791 993e f3db 2bbf 6cc2 3bbd 3e37 e53e
00000180: f9ea 9e3e 081d fdbe a116 4ebf 4e6c 53bb
00000190: a947 0040 1386 abbc 35e1 c0bf 10c4 88bf
000001a0: 5a48 883e 9e0d 21bf 50b6 653f b972 2d3f
000001b0: e49d b1be 505e eebe f777 98bf 9812 fd3e
000001c0: 4e19 b9bf d2ac f03d 325a 4dbe f89d ce3d
000001d0: 868f 913c 08eb 64be abc5 383f 610e 313f
000001e0: 7ffe 243f 9f3c 4b3d a918 433f 7054 c4be
000001f0: 216c 593f e950 abbf 7ca6 9b3f 8654 063f
00000200: 1fef 003f 4e16 913f ed47 85be 1bf4 5e3e
00000210: 8582 adbe 6fa4 f7be a18e 13bf 6367 b13e
00000220: 2f8c e4bd ee32 993e fabf 36bd b7bc 35be
00000230: efaf 72bf 8474 63bf 6c31 3fbf 4f65 423f
00000240: 6f42 543f 0e04 bbbe 5f03 e0be 1671 d23e
00000250: 02b6 5a3f c53a e03e 45a2 2ebf 0a69 2bbd
00000260: 22ec 7b3f c4d6 ec3c 8ad1 aabe 2cb7 883e
00000270: d459 77be ed16 16bf 8f56 aa3e 6ccd b03e
00000280: bbe7 c9be 8b98 883e 5a85 de3e 91b8 aebd
00000290: 7a8f 8e3e ff42 85be a1df 45bd 0084 f43e
000002a0: 4ab1 21bf dccb 2e3e 12e5 48be aa7f 9cbe
000002b0: 95f1 273d 9e93 ecbe e365 4ebe c59c 8b3f
000002c0: c938 debe 0d71 acbe 3dd0 aebc 888f b8be
000002d0: f795 27be 365b 013e 3d19 313d 048c d43e
000002e0: 0cf1 f63e 36d3 a03d 5452 94be 75a9 15be
000002f0: 158c db3e 9fe9 f03d b654 2f3e 3a3d 123e
00000300: f60c 8ebe 2e4e 01bf 9230 e3bb e8c0 d63e
00000310: 4a9c 443e 7d13 46bd 56a8 1abf 167e 00bd
00000320: 5e79 aebe 5131 02be 446d ba3e 171a cb3d
00000330: ce49 0f3d 8407 d8bd 49ae 04be 57dd 053d
00000340: 935a df3b 3dfc 493e e891 1abd eab8 d8be
00000350: 7f41 9a3d 2902 8d3e 02df 11be 71a5 803d
00000360: c180 8a3c 6229 743e 5b96 98be 4492 c3bd
00000370: 09e8 9bbe 724e 4c3e 2018 acbe 4c1a 8ebe
00000380: a89e 40bf 8fee 2c3d 682a 41be ec36 b1be
00000390: 4535 dabd 3c4c 8ebe cc5a 0b3e a1dd e3bd
000003a0: ea4b ccbd b3b7 65be 9a98 9abd 1d03 b43d
000003b0: ced9 a63e 167a 8abe 5141 d8bd bd52 2dbe
000003c0: 957f a73e 37bb 463e 197d e23e 0d52 753d
000003d0: f645 683e 1ab4 1c3e ec6b 01be 17ec 92bd
000003e0: 63ac acbd 4fa8 57be a9e0 5dc0 2c91 fdbe
000003f0: 9c5a 3440 b938 a33f f5fa b8be ca36 a13f

linears.1.bias f4 [50]
-2.757881 1.3202631 3.622008 5.406912 0.26391214 -2.4236853 2.2272785 -0.69367707
-1.5519023 -0.24309136 -0.3837522 -2.222702 0.23163952 1.7586855 2.1241803 0.72342896
1.3797104 1.116557 -6.114698 1.6731449 2.5569868 -0.7000958 3.5052974 -1.0460845
-1.8771806 -1.5891978 -3.9843354 0.40918162 -2.1618757 2.7285995 3.4484088 0.83065146
-0.86731774 0.7551062 -3.5909176 -1.3530164 0.36524746 -4.4556665 -3.0202448 -0.6622368
-2.046621 -3.5085704 -2.0131838 -0.8224834 -0.3843703 -2.1327002 5.797089 -1.3116616
-1.0986855 -2.9012628
00000000: 1f81 30c0 62fe a83f fbce 6740 6c05 ad40
00000010: 7e1f 873e a91d 1bc0 bb8b 0e40 d294 31bf
00000020: bca4 c6bf f1ec 78be 2b7b c4be c040 0ec0
00000030: e932 6d3e 9b1c e13f 92f2 0740 a432 393f
00000040: 5a9a b03f 57eb 8e3f 9bab c3c0 9d29 d63f
00000050: aca5 2340 7a39 33bf cb56 6040 19e6 85bf
00000060: 7447 f0bf d56a cbbf 5aff 7ec0 4180 d13e
00000070: 2c5c 0ac0 60a1 2e40 bbb2 5c40 93a5 543f
00000080: 8908 5ebf a44e 413f 98d1 65c0 a42f adbf
00000090: b701 bb3e d294 8ec0 b14b 41c0 5a88 29bf
000000a0: d7fb 02c0 6b8c 60c0 01d8 00c0 468e 52bf
000000b0: 2fcc c4be 297e 08c0 c181 b940 87e4 a7bf
000000c0: baa1 8cbf 4aae 39c0

linears.2.weight f4 [50, 50]
-0.37042853 -0.19266784 -0.39288512 -0.22734672 0.53618157 0.0025072682 -0.06327999 0.05663907
0.059173167 0.12338452 0.14304225 0.058280148 0.58695674 -0.30188063 0.3204691 0.046073407
-0.4432579 -0.05307688 -0.06624895 -0.11632228 0.22393693 -0.23614036 0.72884154 -0.45928085
-0.2456241 -0.0907221 -0.04811032 -0.07451581 0.4258543 0.19298956 0.17555948 0.1164125
0.4390123 0.21031329 -0.3908127 -0.16536824 0.004810742 -0.040788427 0.06978463 -0.48325723
-0.38482878 -0.061336465 -0.1323449 -0.16113694 -0.020219605 -0.18913898 0.03893649 -0.062210754
0.0009555799 -0.1333856 0.37945616 0.33464083 0.5849045 0.29086027 -0.6006323 -0.40233323
0.24775536 -0.29171172 -0.14372522 0.12807192 -0.11475612 -0.12422614 -0.32607213 0.21470416
-0.33833188 -0.18096335 0.8003816 0.02466608 -0.013475441 0.14350313 0.1140237 0.012902172
-0.5155206 0.27860752 0.5219442 0.41166312 0.53838897 0.058276888 0.21939906 -0.13275902
0.15334465 0.10870096 -0.27374735 -0.049358893 0.20930529 -0.07970466 -0.086119965 -0.13490419
0.43149537 -0.0027819118 0.42973372 0.36135232 -0.0018220422 0.21753772 -0.14159133 -0.037512235
0.75787586 -0.08979616 -0.49844828 0.5378688 1.2881558 1.4380795 1.7668463 -0.6281956
-1.1056073 -0.20634185 0.5286059 -0.23553261 -0.17163868 0.3147902 -0.933312 -0.5973808
-0.41406697 0.9672577 -0.11276433 0.004942503 1.5384911 0.8285866 -0.7143488 0.3956151
0.06245449 1.2739363 -1.3255326 0.61679155 1.5245947 -0.0041552996 0.4961428 0.22765484
-0.67618835 -0.019736905 0.7338771 0.18353847 -0.22079921 -0.5699603 0.58048475 0.11153531
-0.064437784 -0.9690987 0.97689635 0.885809 0.6170816 0.65496373 0.51057756 -0.24889891
-0.7304731 -0.05359535 1.3834202 0.021543523 -0.35002968 0.9026109 -1.1945171 -0.9232392
-1.3348266 0.39435858 1.4244506 0.21395935 -0.60981876 0.4325756 0.35760033 -0.25594196
0.76396686 0.797351 0.7076044 -1.1316103 0.6858933 0.10007958 -1.8199669 -0.42310968
0.70018756 -0.5438 -0.14931749 -0.9437729 1.3615489 -0.41863254 -1.1622267 -0.29627392
-0.5831703 -0.34574077 0.76435226 -0.03164205 -0.32839358 -0.14145744 0.39063922 0.71972084
-0.7262277 -0.16379324 0.06151219 0.78184164 -0.868774 -0.63462454 -0.9893639 -0.6823633
-0.52499205 0.14079344 0.86821723 0.020922247 -1.1836513 -0.22037852 0.5085948 -1.2394054
0.04234051 -0.33800167 -0.24374415 -0.47251517 -0.040481582 0.11484607 -0.2333191 0.06772343
0.4011632 0.01723553 0.16198911 0.17887983 -0.327016 -0.71466094 -0.20738377 -0.017267417
0.0065047215 -0.24879503 0.6151802 -0.38142523 -0.18813266 -0.17076606 -0.24280335 0.19621782
0.2348227 0.41673803 0.699015 -0.07569833 0.6125468 -0.35083792 -0.640539 -0.42248672
0.23154986 -0.18242411 0.31998977 -0.3367417 0.030218914 0.65380615 -0.24808764 0.04079119
0.22604086 0.19936036 0.2617767 0.15996768 0.0071441773 0.45405886 -0.19824208 -0.1999547
0.15932965 -0.032639243 1.2410289 0.77078396 1.2621337 -0.6266946 -0.8802204 -0.3787491
00000000: cfa8 bdbe b84a 45be 3d28 c9be 94cd 68be
00000010: 3243 093f fb50 243b f098 81bd 5ffe 673d
00000020: 905f 723d 06b1 fc3d ab79 123e 2ab7 6e3d
00000030: cc42 163f 1990 9abe 8714 a43e 78b7 3c3d
00000040: b3f2 e2be 2467 59bd 88ad 87bd 603a eebd
00000050: b94f 653e c7ce 71be 5c95 3a3f dc26 ebbe
00000060: e284 7bbe 82cc b9bd 540f 45bd bf9b 98bd
00000070: 9309 da3e 0e9f 453e ddc5 333e ad69 ee3d
00000080: 38c6 e03e 5e5c 573e 9a18 c8be 4b56 29be
00000090: 6ea3 9d3b c411 27bd 3eeb 8e3d 7e6d f7be
000000a0: 4708 c5be f23b 7bbd 6c85 07be 1501 25be
000000b0: 96a3 a5bc a6ad 41be de7b 1f3d b4d0 7ebd
000000c0: e27f 7a3a 3c96 08be 1448 c23e 0b56 ab3e
000000d0: 4dbc 153f a3eb 943e 0ac3 19bf 9ffe cdbe
000000e0: 95b3 7d3e 3d5b 95be b42c 13be 4925 033e
000000f0: 4205 ebbd 466a febd edf2 a6be 68db 5b3e
00000100: d639 adbe 754e 39be cfe5 4c3f 8510 ca3c
00000110: 19c8 5cbc 7cf2 123e 4285 e93d a263 533c
00000120: 28f9 03bf a5a5 8e3e 239e 053f 82c5 d23e
00000130: dcd3 093f bfb3 6e3d 26aa 603e fbf1 07be
00000140: 6106 1d3e 9c9e de3d 9d28 8cbe 8d2c 4abd
00000150: 2054 563e 323c a3bd aa5f b0bd 5324 0abe
00000160: f6ec dc3e bc50 36bb 0f06 dc3e 2c03 b93e
00000170: 97d1 eeba 35c2 5e3e 51fd 10be 6ea6 19bd
00000180: 2704 423f 0de7 b7bd 9d34 ffbe c5b1 093f
00000190: 4ae2 a43f fd12 b83f 0528 e23f 6dd1 20bf
000001a0: 8a84 8dbf 474b 53be b752 073f 762f 71be
000001b0: 0dc2 2fbe 2e2c a13e 89ed 6ebf f3ed 18bf
000001c0: 9600 d4be 339e 773f fcf0 e6bd b8f4 a13b
000001d0: 47ed c43f 401e 543f 90df 36bf 108e ca3e
000001e0: 48d0 7f3d 5810 a33f 0dab a9bf 0de6 1d3f
000001f0: eb25 c33f 2e29 88bb 6e06 fe3e 5a1e 693e
00000200: ae1a 2dbf 4aaf a1bc 5fdf 3b3f 82f1 3b3e
00000210: 3019 62be ebe8 11bf a69a 143f a06c e43d
00000220: f5f7 83bd da16 78bf e115 7a3f 61c4 623f
00000230: 0ff9 1d3f b4ab 273f 36b5 023f 5bdf 7ebe
00000240: 4900 3bbf cc86 5bbd ea13 b13f 0b7c b03c
00000250: 1737 b3be 8211 673f f0e5 98bf 6759 6cbf
00000260: 99db aabf 5ee9 c93e 6654 b63f 2918 5b3e
00000270: 151d 1cbf 8d7a dd3e 6417 b73e d30a 83be
00000280: 5593 433f 321f 4c3f 9025 353f 9bd8 90bf
00000290: b496 2f3f 86f6 cc3d adf4 e8bf d5a1 d8be
000002a0: 7e3f 333f 7a36 0bbf afe6 18be 1a9b 71bf
000002b0: 3c47 ae3f 0157 d6be d8c3 94bf 37b1 97be
000002c0: a64a 15bf ef04 b1be 97ac 433f 189b 01bd
000002d0: 3423 a8be 38da 10be dd01 c83e a03f 383f
000002e0: 0fea 39bf 6ab9 27be 35f4 7b3d c626 483f
000002f0: f967 5ebf c176 22bf f446 7dbf 5caf 2ebf
00000300: e165 06bf 282c 103e 7c43 5e3f 2265 ab3c
00000310: e381 97bf e8aa 61be 4533 023f d6a4 9ebf
00000320: 3e6d 2d3d 8e0e adbe 1198 79be 82ed f1be
00000330: 04d0 25bd 6b34 eb3d 34eb 6ebe 95b2 8a3d
00000340: 4365 cd3e 8731 8d3c 79e0 253e 462c 373e
00000350: a46e a7be 05f4 36bf 695c 54be 6674 8dbc
00000360: 8f25 d53b 20c4 7ebe 737c 1d3f 2b4a c3be
00000370: d9a5 40be 4cdd 2ebe 71a1 78be 53ed 483e
00000380: 5d75 703e b05e d53e a6f2 323f ba07 9bbd
00000390: decf 1c3f 07a1 b3be 5dfa 23bf 2e50 d8be
000003a0: 681b 6d3e 63cd 3abe b3d5 a33e 6869 acbe
000003b0: a88d f73c d75f 273f b00a 7ebe aa14 273d
000003c0: 4177 673e 1f25 4c3e 9807 863e 91ce 233e
000003d0: b419 ea3b 677a e83e f9ff 4abe edc0 4cbe
000003e0: 5027 233e bab0 05bd 09da 9e3f 1952 453f
000003f0: 998d a13f 0f6f 20bf 2056 61bf 67eb c1be

linears.2.bias f4 [50]
1.2254452 -1.9900113 -0.89476025 -2.1644876 -2.9043317 -3.3882394 4.390168 -2.4261215
0.7519591 -2.30107 0.015596733 1.5415354 1.9420596 -1.3484612 -3.8591304 2.8094246
1.0097017 0.2767634 0.41231942 2.3043964 2.6906981 1.3313503 -1.1084013 0.12637068
3.111157 -1.6164145 -3.385679 0.77414125 3.5597737 -0.021856522 -0.95519316 0.32794443
-1.698214 -2.8058202 -2.183002 -1.7995268 1.3370934 1.0384144 0.51302326 -1.5866468
-2.3373892 2.35205 6.856949 -2.2485394 -3.5812325 -2.0413642 2.664045 -3.5658174
-2.1398358 6.0263524
00000000: 63db 9c3f b1b8 febf 020f 65bf f786 0ac0
00000010: 92e0 39c0 ead8 58c0 427c 8c40 9345 1bc0
00000020: 6480 403f bb44 13c0 7189 7f3c 0851 c53f
00000030: 6995 f83f 609a acbf fefb 76c0 9dcd 3340
00000040: e83d 813f efb3 8d3e 881b d33e 3b7b 1340
00000050: 6634 2c40 b069 aa3f 18e0 8dbf 5167 013e
00000060: 321d 4740 ace6 cebf f7ae 58c0 1f2e 463f
00000070: 55d3 6340 730c b3bc 8a87 74bf 55e8 a73e
00000080: 145f d9bf 8f92 33c0 4eb6 0bc0 e556 e6bf
00000090: e025 ab3f c3ea 843f 7e55 033f 3e17 cbbf
000000a0: c997 15c0 fd87 1640 206c db40 12e8 0fc0
000000b0: ea32 65c0 b6a5 02c0 b77f 2a40 5a36 64c0
000000c0: 12f3 08c0 e1d7 c040

linears.3.weight f4 [50, 50]
-0.22918144 0.10960911 0.14101279 -0.016913582 0.21900184 0.42032972 -0.21696022 -0.31316313
0.12925014 0.41561523 -0.042554032 0.12435941 -0.34812135 0.08098294 -0.09671182 -0.19467708
0.10583092 0.05339801 -0.22190724 -0.012873095 -0.07004629 0.071101345 0.03800616 0.18857256
-0.017986186 0.09040286 0.3386142 0.037193425 -0.31604162 -0.13730043 0.04623994 0.28441796
-0.19556354 -0.031259846 -0.088620834 -0.014363118 0.0056495285 0.04304588 -0.20405957 0.2377628
-0.05925715 -0.315588 -0.14330427 -0.31001955 0.2758117 -0.23826323 0.005733424 -0.32146248
0.4371724 -0.09598293 -0.65931904 0.5200306 0.87136674 0.05438312 0.006031153 -0.053736955
-0.23081593 -0.1563477 1.2527485 -0.49728012 1.1693223 0.40915287 -0.3207625 0.5728165
-0.17845014 -0.22324003 0.039773367 -0.006044087 2.048766 -0.52840495 0.21845284 0.5112257
-0.55510634 0.69253546 -0.49396235 0.2637889 -1.1061803 0.0651056 -0.80835944 -0.474496
0.30686268 -0.69429845 0.37356862 0.20406632 0.0695164 2.2762125 -0.24961053 1.0075947
0.27289298 -0.6076347 -0.6034349 -0.20123687 0.8842328 -0.7311676 0.954904 0.6007771
-0.11705596 0.6284544 -0.18048537 0.24025366 -0.16264667 0.27122197 0.9061495 0.08434901
-0.07138917 0.32005572 -0.30554393 -0.22125298 1.0803494 -0.07425038 0.80886984 0.21985973
-0.63786066 0.7109284 0.3570117 -0.24204369 0.16045156 -0.09678516 1.4454051 -0.7996197
0.26117772 0.18734558 -0.34863976 0.619933 -0.75214064 1.2079694 -1.0991778 0.06250351
-0.96458566 -0.54219306 0.7851191 -0.6320369 0.41244113 0.20363437 0.07173922 1.7624538
-0.45641223 0.8467509 0.42066827 -1.0149164 -0.7382258 -0.1572664 0.040606003 -0.26513556
2.166318 1.26239 -0.5315699 0.5374069 0.4367644 -1.1649393 0.24006361 0.1521418
0.27322754 0.31618917 -0.31929523 0.039369985 -0.15973797 0.58455026 -0.23406784 -0.6254318
-0.48456147 0.4769069 -0.23637682 0.5328418 0.32560858 -0.3317795 0.007116373 -0.54420793
0.5051226 -1.0345248 0.45002326 -0.019676425 -0.1973631 -0.06249532 -0.5099914 0.98717344
-0.12474852 0.2470244 -0.44006285 0.15555644 0.6667553 -0.31261757 0.39433086 -0.38106617
0.49613544 0.38846236 -0.31168434 0.15821457 0.3819216 -0.7458353 -0.35174543 -0.09519854
-1.341476 0.5605766 1.6279618 1.225206 -0.55022454 0.27388516 -0.25727648 -0.8594186
0.7102045 0.57135725 0.13797471 1.1189471 -0.7761386 -1.02523 0.6120111 0.8662294
0.2833492 -1.5107754 -0.2640224 0.1763876 0.2011934 0.21534078 -0.0057568825 -0.11182764
-0.15142263 -0.7709533 2.2392528 -1.3563696 1.3705509 0.22296944 -0.88023 0.13266838
-0.9006437 1.6684843 -1.0764214 0.2783121 -0.60136455 -0.20424522 1.1059495 -0.7467756
0.640157 -0.16195552 1.101516 1.1361202 -0.63143426 0.35110787 0.073669545 -1.6657219
-1.0738146 -0.07570954 -0.9567972 0.5347095 2.5052242 1.2522138 -0.24030297 0.37429318
-1.1785283 -0.85648566 0.18708636 0.017620448 -0.20956236 0.31400302 -0.32753193 -0.31046927
00000000: 8aae 6abe be7a e03d a865 103e 5a8e 8abc
00000010: 0542 603e 7535 d73e d22a 5ebe eb56 a0be
00000020: 265a 043e 85cb d43e 234d 2ebd 25b0 fe3d
00000030: f63c b2be 62da a53d d910 c6bd 6e59 47be
00000040: e2bd d83d dfb7 5a3d a73b 63be ade9 52bc
00000050: 6e74 8fbd 959d 913d 59ac 1b3d 2a19 413e
00000060: c457 93bc 2225 b93d d75e ad3e 2258 183d
00000070: 35d0 a1be 7c98 0cbe 1766 3d3d 3b9f 913e
00000080: cf41 48be 530a 00bd d77e b5bd 4953 6bbc
00000090: ae1f b93b e050 303d fef4 50be 1778 733e
000000a0: a0b7 72bd c094 a1be 5bbe 12be e2ba 9ebe
000000b0: 3137 8d3e 47fb 73be 72df bb3b bb96 a4be
000000c0: 10d5 df3e b392 c4bd 22c9 28bf ba20 053f
000000d0: e411 5f3f d6c0 5e3d faa0 c53b 481b 5cbd
000000e0: 035b 6cbe 9d19 20be 105a a03f 809b febe
000000f0: 5aac 953f 7c7c d13e fb3a a4be 1aa4 123f
00000100: a2bb 36be 0999 64be 66e9 223d 7a0d c6bb
00000110: fb1e 0340 8c45 07bf 1ab2 5f3e b0df 023f
00000120: 731b 0ebf 014a 313f a2e8 fcbe 570f 873e
00000130: 5197 8dbf 1656 853d a5f0 4ebf 24f1 f2be
00000140: 1b1d 9d3e 8bbd 31bf 6344 bf3e c3f6 503e
00000150: 9d5e 8e3d 77ad 1140 e799 7fbe ddf8 803f
00000160: a1b8 8b3e f38d 1bbf b67a 1abf 0a11 4ebe
00000170: 155d 623f cd2d 3bbf 9774 743f 87cc 193f
00000180: 09bb efbd 63e2 203f 28d1 38be 0e05 763e
00000190: d98c 26be 9bdd 8a3e 6af9 673f 2cbf ac3d
000001a0: 7c34 92bd 58de a33e 4170 9cbe 2490 62be
000001b0: e448 8a3f 9510 98bd 1812 4f3f e922 613e
000001c0: d64a 23bf 67ff 353f 3dca b63e 4dda 77be
000001d0: 6a4d 243e 4c37 c6bd 0903 b93f e0b3 4cbf
000001e0: 16b9 853e 85d7 3f3e e980 b2be eeb3 1e3f
000001f0: 4a8c 40bf be9e 9a3f dcb1 8cbf d701 803d
00000200: 16ef 76bf 2acd 0abf 91fd 483f 2ccd 21bf
00000210: 7c2b d33e 8785 503e 03ec 923d 1698 e13f
00000220: ddae e9be abc4 583f d561 d73e c8e8 81bf
00000230: 5efc 3cbf 710a 21be 7b52 263d d9bf 87be
00000240: f4a4 0a40 ff95 a13f f714 08bf 8093 093f
00000250: 959f df3e bb1c 95bf 3cd3 753e 0fcb 1b3e
00000260: 7be4 8b3e 8ce3 a13e aa7a a3be 6c42 213d
00000270: 5a92 23be 16a5 153f 7baf 6fbe 4c1c 20bf
00000280: 7118 f8be 242d f43e c40c 72be 5268 083f
00000290: 2bb6 a63e 01df a9be 7730 e93b 3651 0bbf
000002a0: b74f 013f 4f6b 84bf 7369 e63e 7430 a1bc
000002b0: 8d19 4abe 18fb 7fbd cc8e 02bf 66b7 7c3f
000002c0: 277c ffbd f7f3 7c3e eb4f e1be 304a 1f3e
000002d0: 7ab0 2a3f 690f a0be bce5 c93e 1b1b c3be
000002e0: 7705 fe3e 8ae4 c63e 1795 9fbe 0003 223e
000002f0: 3a8b c33e 10ef 3ebf fa17 b4be 74f7 c2bd
00000300: 7cb5 abbf f381 0f3f 0d61 d03f 8dd3 9c3f
00000310: 84db 0cbf ad3a 8c3e beb9 83be db02 5cbf
00000320: f6cf 353f 7844 123f 3e49 0d3e a939 8f3f
00000330: 05b1 46bf bd3a 83bf c2ac 1c3f 36c1 5d3f
00000340: 2513 913e 1761 c1bf f22d 87be f39e 343e
00000350: a505 4e3e 4b82 5c3e 3ba4 bcbb e405 e5bd
00000360: 890e 1bbe 325d 45bf eb4f 0f40 859d adbf
00000370: 366e af3f 1a52 643e c156 61bf 38da 073e
00000380: 9690 66bf e590 d53f 2dc8 89bf ec7e 8e3e
00000390: 07f3 19bf a925 51be c18f 8d3f b02c 3fbf
000003a0: 54e1 233f abd7 25be 7afe 8c3f 636c 913f
000003b0: ada5 21bf 69c4 b33e 0fe0 963d 6036 d5bf
000003c0: c272 89bf 9a0d 9bbd a9f0 74bf b9e2 083f
000003d0: 9855 2040 8b48 a03f fb11 76be 5ba3 bf3e
000003e0: 04da 96bf a542 5bbf 9193 3f3e c258 903c
000003f0: 8497 56be 01c5 a03e 44b2 a7be d4f5 9ebe

linears.3.bias f4 [50]
-1.790774 -4.5154305 -7.4678345 -2.0452442 -1.8342382 0.08441103 -0.020492285 2.0068426
0.87053263 -1.0642337 2.5447812 -3.6520474 -1.873167 -2.1657927 -4.7437067 0.283986
-1.497273 -1.9731534 -1.0574298 0.03684488 0.19423689 -0.55328697 0.8052705 -0.3767536
-0.5510308 0.7018218 1.7746285 0.9712536 2.463766 1.5615857 -3.0353272 -3.1224718
-0.15279467 1.8738236 -2.5142107 1.5013746 3.1574128 -1.0496609 1.3434993 2.3854291
-3.4941473 -3.9820616 -4.9981003 -0.6380972 -0.75971323 -0.7476218 -0.032904886 -1.0470587
0.8960188 -1.6404393
00000000: 1538 e5bf 687e 90c0 80f8 eec0 48e5 02c0
00000010: 51c8 eabf b1df ac3d 70df a7bc 1c70 0040
00000020: 3adb 5e3f cf38 88bf b2dd 2240 25bb 69c0
00000030: f0c3 efbf 599c 0ac0 72cc 97c0 9d66 913e
00000040: a4a6 bfbf 4a90 fcbf dc59 87bf a8ea 163d
00000050: 09e6 463e 37a4 0dbf 3526 4e3f d9e5 c0be
00000060: 5b10 0dbf 98aa 333f 0727 e33f 13a4 783f
00000070: 58ae 1d40 0ae2 c73f cd42 42c0 94d6 47c0
00000080: 3576 1cbe 74d9 ef3f d4e8 20c0 0b2d c03f
00000090: 0d13 4a40 4a5b 86bf c9f7 ab3f dfaa 1840
000000a0: 1ca0 5fc0 19da 7ec0 70f0 9fc0 575a 23bf
000000b0: 917c 42bf 2464 3fbf 46c7 06bd 0506 86bf
000000c0: 7d61 653f eaf9 d1bf

linears.4.weight f4 [50, 50]
-0.18439043 1.4865708 4.0615325 -1.2254621 1.064905 0.08533976 0.4167559 -1.210925
-1.5594975 0.19863756 -0.22288321 2.0105433 -0.3184449 -0.6354878 0.8680085 0.9461195
-1.2214378 -0.82172096 -0.015061769 -0.3158354 1.9422572 1.1799173 -2.0246642 -0.25078413
-0.059487805 -0.29992306 -2.301577 -1.2914087 -0.62096673 -0.93701386 -0.18725996 0.14619547
-1.440603 -0.09337141 -0.40855917 0.9663432 -0.31221977 -2.2607305 -0.8307344 -0.31035355
1.2921083 -1.4899662 2.1401508 -1.2699752 -0.08324571 -0.5892324 -2.062041 -0.28372967
1.8795244 1.478108 0.13626626 0.59665525 0.95983183 -0.2434018 0.22448848 -0.28671232
-0.068857834 -0.36307287 0.024412377 0.008506054 -0.49971265 0.2969304 0.14628248 -0.08728349
0.2240827 0.12090825 -0.14087014 0.019573554 0.15841115 -0.14546473 0.061991014 -0.030722162
-0.044202153 0.4126329 -0.28317252 0.10187038 -0.3918619 -0.31891817 -0.16315217 -0.10766628
-0.22708042 0.004531051 -0.28745246 0.18967761 0.34832904 -0.19756193 -0.01786961 -0.35016534
0.07259489 0.17889673 0.37389633 -0.17215712 0.3070667 -0.27571258 -0.13755634 -0.06039775
-0.58793443 -0.05385237 0.15188669 0.39823058 0.23993158 -0.9601575 -0.8413254 0.44808474
-0.6302613 0.0004424017 0.37647602 -0.6860024 -0.38087434 0.22725467 0.48522186 -0.14500578
-0.53868866 0.26868078 0.049934447 -0.35301372 -0.19366677 -0.42084098 0.2366578 0.08877099
0.026858486 0.7527811 -0.11511642 -0.1866016 1.1371849 0.004337888 -0.09124188 0.052428395
-0.19889574 -0.015312546 0.25909594 0.7460455 0.0882578 -0.6537941 -0.08413051 -0.22318876
0.12364361 0.8838689 0.12833275 -0.008738762 -0.5192216 0.42788333 -0.15781713 0.84016514
1.2765257 0.7805964 0.32970673 -0.08138057 -0.20327862 0.09444997 -0.3950207 0.5984609
0.74837923 -0.40192178 0.18868612 -0.007707597 -0.5293765 0.36822504 -0.3520918 0.21557435
-0.27414688 0.22996955 -0.06803892 -0.22889331 0.06898972 0.5412091 -1.0968243 0.40298873
-0.4380699 -0.31279904 0.6975894 -0.18273742 -0.50633 0.05175801 -0.5412466 -0.08184178
0.08783746 -0.34678298 0.31669232 0.0034503648 -0.3608061 -0.3431695 -0.49091518 0.44518375
-0.0008366788 0.21114123 0.5529948 -0.7758236 -0.22131175 0.10228122 -0.0050052796 -0.5883152
0.0712431 -0.60652745 -0.5735336 -0.4399562 -0.4603145 -0.047615793 0.8655526 0.11690825
-0.097361624 0.5578647 0.52196985 -0.5391155 0.56969374 -0.18749829 -0.15162985 0.70227486
0.41386995 -0.059552763 -0.2857488 0.11766862 0.55418897 -0.07593693 0.3674278 0.23629023
-0.16082789 0.33282563 -0.04237907 -0.045019206 0.15080912 -0.66734093 -0.22691053 0.2674128
-0.8839734 -0.20307983 0.27323815 0.32228836 0.12621456 0.38424137 -0.100747354 -0.5719105
-0.20569886 0.3755931 -0.13545455 -0.2012668 -0.54707366 -0.55766463 -0.32652372 -0.0024228569
0.24488336 -0.5101973 0.4343885 -0.8010076 -0.9998179 -0.47280642 -0.25491014 0.094942175
0.43343282 0.07372157 0.23313437 0.92591584 2.5661793 -0.7245301 0.6273696 -0.099098936
00000000: d8d0 3cbe f447 be3f 13f8 8140 f1db 9cbf
00000010: cf4e 883f 9dc6 ae3d 0861 d53e 97ff 9abf
00000020: 9d9d c7bf a567 4b3e 7f3b 64be beac 0040
00000030: 360b a3be 54af 22bf ce35 5e3f e334 723f
00000040: 1358 9cbf 4e5c 52bf a3c5 76bc 2db5 a1be
00000050: e29b f83f 8807 973f 1994 01c0 c766 80be
00000060: 7ca9 73bd 848f 99be 0a4d 13c0 e14c a5bf
00000070: adf7 1ebf 24e0 6fbf 13c1 3fbe 44b4 153e
00000080: ae65 b8bf 8339 bfbd ab2e d1be 4562 773f
00000090: 45db 9fbe cfaf 10c0 02ab 54bf a9e6 9ebe
000000a0: ce63 a53f 36b7 bebf 3bf8 0840 8c8e a2bf
000000b0: ba7c aabd efd7 16bf 7bf8 03c0 0445 91be
000000c0: 4194 f03f a532 bd3f 6289 0b3e 66be 183f
000000d0: 8ab7 753f 523e 79be 4fe0 653e f5cb 92be
000000e0: 5605 8dbd b0e4 b9be 77fc c73c fa5c 0b3c
000000f0: 56da ffbe 4307 983e 13cb 153e b0c1 b2bd
00000100: ef75 653e bf9e f73d 4340 10be b858 a03c
00000110: 8836 223e b5f4 14be 4aea 7d3d 0bad fbbc
00000120: 510d 35bd 9f44 d33e fdfb 90be 6ba1 d03d
00000130: 1fa2 c8be 3e49 a3be 5d11 27be 2380 dcbd
00000140: c587 68be 3679 943b f82c 93be d93a 423e
00000150: 2f58 b23e ad4d 4abe 4a63 92bc df48 b3be
00000160: a1ac 943d b430 373e 576f bf3e f549 30be
00000170: d937 9d3e 332a 8dbe 92db 0cbe a263 77bd
00000180: df82 16bf 4d94 5cbd 2f88 1b3e e1e4 cb3e
00000190: a0b0 753e e2cc 75bf 1a61 57bf 5d6b e53e
000001a0: ce58 21bf 27f2 e739 77c1 c03e da9d 2fbf
000001b0: f601 c3be 73b5 683e 006f f83e 657c 14be
000001c0: 80e7 09bf 8790 893e 1088 4c3d 37be b4be
000001d0: 9550 46be 7878 d7be 6c56 723e 91cd b53d
000001e0: 5406 dc3c 43b6 403f 28c2 ebbd 7d14 3fbe
000001f0: 468f 913f d824 8e3b 06dd babd 28bf 563d
00000200: 53ab 4bbe 79e1 7abc 39a8 843e d6fc 3e3f
00000210: 81c0 b43d 0d5f 27bf 9e4c acbd 988b 64be
00000220: dc38 fd3d 3b45 623f a969 033e 062d 0fbc
00000230: b5eb 04bf 8613 db3e d09a 21be 1015 573f
00000240: 3265 a33f 2ad5 473f 52cf a83e dbaa a6bd
00000250: 4528 50be fc6e c13d 2740 cabe bc34 193f
00000260: c895 3f3f b1c8 cdbe ef36 413e 0390 fcbb
00000270: 3885 07bf fe87 bc3e 6045 b4be 86bf 5c3e
00000280: fb5c 8cbe 237d 6b3e fd57 8bbd 0263 6abe
00000290: 7b4a 8d3d ae8c 0a3f bd64 8cbf 8a54 ce3e
000002a0: b34a e0be 3227 a0be 3895 323f 851f 3bbe
000002b0: d89e 01bf 3500 543d 238f 0abf aa9c a7bd
000002c0: 20e4 b33d 8a8d b1be 7f25 a23e 841f 623b
000002d0: 94bb b8be eab3 afbe 3c59 fbbe 20ef e33e
000002e0: 9054 5bba 6835 583e 1191 0d3f 609c 46bf
000002f0: 8c9f 62be d178 d13d 5403 a4bb d39b 16bf
00000300: e7e7 913d 6245 1bbf 19d3 12bf f041 e1be
00000310: 58ae ebbe c708 43bd db94 5d3f 986d ef3d
00000320: 8865 c7bd 39d0 0e3f d19f 053f 7903 0abf
00000330: 73d7 113f 8dff 3fbe db44 1bbe 49c8 333f
00000340: c3e6 d33e 99ed 73bd ab4d 92be 3ffc f03d
00000350: 54df 0d3f d284 9bbd 7f1f bc3e 11f6 713e
00000360: 11b0 24be 1f68 aa3e ad95 2dbd 0f66 38bd
00000370: b56d 1a3e dbd6 2abf 3c5b 68be 55ea 883e
00000380: 154c 62bf 29f4 4fbe dfe5 8b3e fb02 a53e
00000390: 643e 013e 49bb c43e a154 cebd ba68 12bf
000003a0: b9a2 52be bd4d c03e 99b4 0abe e218 4ebe
000003b0: 050d 0cbf 1cc3 0ebf 1e2e a7be cbc8 1ebb
000003c0: b4c2 7a3e 4a9c 02bf 2b68 de3e d60e 4dbf
000003d0: 11f4 7fbf af13 f2be 9583 82be 0b71 c23d
000003e0: e8ea dd3e 56fb 963d c7ba 6e3e d208 6d3f
000003f0: 483c 2440 ce7a 39bf 4b9b 203f 62f4 cabd

linears.4.bias f4 [50]
-4.6558623 -0.61625576 -1.1123854 -0.39519486 0.5134401 -3.6786404 3.7044423 0.68763363
-0.6647798 -1.7753248 1.5519457 0.71826774 -0.048818946 -0.002483213 1.9768001 0.5049689
-0.2591451 0.70294714 0.31779507 0.8324767 0.8530197 3.9841402 -1.3766725 0.6104336
0.99473286 -0.92740184 -0.53027743 -0.62372595 -2.2718542 -0.2652933 -0.33632153 -4.3036647
-2.0380757 -1.7560936 1.8262511 -0.80675054 0.017605757 -2.037374 -1.7981375 -0.14045663
1.4068351 -2.9503348 -1.4639634 1.2337435 2.0614755 -1.3350362 -1.486271 1.0968149
0.27110174 0.39868498
00000000: d3fc 94c0 f0c2 1dbf a562 8ebf fb56 cabe
00000010: cf70 033f d86e 6bc0 9515 6d40 c208 303f
00000020: 022f 2abf d83d e3bf 28a6 c63f 65e0 373f
00000030: 60f6 47bd 67bd 22bb c907 fd3f a445 013f
00000040: abae 84be 58f4 333f 09b6 a23e 311d 553f
00000050: 805f 5a3f 27fc 7e40 ce36 b0bf 6045 1c3f
00000060: d0a6 7e3f 356a 6dbf 43c0 07bf 81ac 1fbf
00000070: 0f66 11c0 86d4 87be 5632 acbe 9fb7 89c0
00000080: d56f 02c0 adc7 e0bf 99c2 e93f 3487 4ebf
00000090: f339 903c 5664 02c0 5f29 e6bf ddd3 0fbe
000000a0: 2c13 b43f 49d2 3cc0 2763 bbbf 4feb 9d3f
000000b0: 37ef 0340 77e2 aabf 213e bebf 6e64 8c3f
000000c0: d9cd 8a3e 7020 cc3e

linears.5.weight f4 [50, 50]
1.22518 -0.37882534 0.6757783 1.0750097 -1.0693682 -0.2688282 -0.2201731 -1.181513
1.0472051 0.61137086 1.0791454 0.935569 -0.05768171 0.20333308 0.59964395 0.021164307
0.1468756 -0.15179001 0.045619287 0.88807595 0.7691237 -0.2825933 0.31829292 -1.2853416
-1.0710155 -0.34023497 1.1353735 -0.12944734 -0.437308 -0.5765184 -0.14570238 0.49409214
0.17529348 -0.43345654 0.00041045307 0.19830391 0.70161414 0.5065243 0.13943674 -0.16929291
-0.9839168 -0.009929666 0.7507712 -0.27219358 0.34042034 -0.7043339 0.18202302 0.16091049
-0.72511184 1.022394 0.42630023 -0.46277928 0.9656037 0.22515672 -1.2730745 -1.2802793
-0.8208388 -1.942986 1.0365378 0.5379179 1.2151024 1.1482733 -0.011321251 -0.69546205
0.47117698 0.47783312 -0.7023918 -0.049137726 0.7575189 0.50614434 0.504308 -0.2893788
-0.7378474 -0.4936125 -1.8244443 -0.860969 1.7709935 0.49504775 -0.8427702 -0.78212464
-0.6828605 0.57335794 0.048970357 -0.5709601 -0.27772835 0.25914797 0.7089096 0.38522306
-0.47059333 -0.69646525 -1.3803791 -0.10508398 0.71224195 0.07580036 0.23153333 -0.5609638
0.71016175 -0.39721376 -1.3236344 0.7478048 -0.5032468 0.12395279 0.20636295 -0.27347308
-0.045064595 -0.12731406 -0.263398 -0.6646862 -0.32680523 -0.724852 0.5976489 0.18290386
0.16884136 -0.59856355 -0.5074292 0.0144671565 -0.39121705 0.3057006 0.7590429 -0.6527615
-0.70096666 0.11690691 -0.45951372 0.28398475 -0.80311227 -0.5986831 0.87242854 0.44190088
0.22787866 -0.4344648 0.46901384 0.24182104 0.36443746 0.12410328 -0.4531952 -0.18847378
0.18429787 -0.38228106 -0.16461974 -0.41657498 -0.42332613 -0.26922363 0.17327139 0.21677458
-0.7091707 0.5713655 0.48398829 -0.6096583 -0.74404263 -0.78264517 -1.0167408 -0.38854536
-0.36241832 -0.5025017 0.55404615 -0.33336836 0.32000044 0.23242834 -0.71042794 -0.52710295
-0.08854952 -0.43894485 -0.36618027 -0.13158868 -0.34698567 -0.19096057 -0.28413492 0.30926397
-0.07978498 -0.43188906 -0.30953795 0.6221508 -0.19095892 0.9389675 0.35274062 -0.1951449
-0.3523969 0.13344343 0.12938508 0.23410131 0.25690076 -0.53313226 -0.08568097 0.0038050895
-0.088389106 0.061606307 0.5088061 -0.60541654 -0.6455367 0.22178775 0.53537935 -0.49703658
-0.48427686 0.6926862 -0.002361769 -0.059710633 0.05644356 -0.06494628 -0.2717457 -0.17459764
1.1799226 -0.03144449 1.049505 0.43718454 -1.8062497 -0.72035533 -0.24451596 -1.955875
1.5748835 0.17898712 1.3980254 1.4503877 0.39876753 -0.6027453 0.327851 0.28914934
-0.18405065 -0.11322018 1.1125268 0.348313 0.36600032 -0.21402617 -0.17769016 -1.1723474
-2.273336 -1.0098847 1.982403 0.5677045 -0.46287698 -0.91426444 -0.2214338 0.70797926
0.6193996 -0.11973824 -0.2060344 0.22994469 0.74348485 0.44504586 0.08641182 -0.9324274
-1.5629413 0.06803486 1.0582799 -0.55414253 0.0018591179 -0.21039782 0.97339404 -0.15280922
-1.455707 0.5571898 -0.813196 -0.112729415 -0.5883849 -0.45164946 1.1321764 -0.0068188854
00000000: b3d2 9c3f 65f5 c1be cfff 2c3f eb99 893f
00000010: 0fe1 88bf daa3 89be 0f75 61be d13b 97bf
00000020: d10a 863f cd82 1c3f 7021 8a3f 7381 6f3f
00000030: a843 6cbd 8c36 503e 4482 193f c560 ad3c
00000040: 8f66 163e d76e 1bbe 4adb 3a3d f258 633f
00000050: 4ae5 443f 12b0 90be 4af7 a23e 1386 a4bf
00000060: 0917 89bf 4733 aebe eb53 913f d88d 04be
00000070: d6e6 dfbe b696 13bf 0133 15be a5f9 fc3e
00000080: 2280 333e 04ee ddbe 1432 d739 2e10 4b3e
00000090: fc9c 333f 94ab 013f 81c8 0e3e 1f5b 2dbe
000000a0: f9e1 7bbf 0ab0 22bc 8b32 403f f55c 8bbe
000000b0: 934b ae3e 3a4f 34bf 3e64 3a3e b8c5 243e
000000c0: eea0 39bf cedd 823f 0644 da3e 68f1 ecbe
000000d0: ce31 773f 7c8f 663e 1bf4 a2bf 31e0 a3bf
000000e0: 7e22 52bf c4b3 f8bf 45ad 843f fdb4 093f
000000f0: 7a88 9b3f 9ffa 923f c57c 39bc cd09 32bf
00000100: 1c3e f13e 8ba6 f43e f3cf 33bf a444 49bd
00000110: c2ec 413f ad92 013f 541a 013f 7529 94be
00000120: 91e3 3cbf c7ba fcbe 6487 e9bf 7768 5cbf
00000130: eaaf e23f e676 fd3e cabf 57bf 5239 48bf
00000140: f2cf 2ebf 96c7 123f 2495 483d 712a 12bf
00000150: 6932 8ebe 0baf 843e 197b 353f f53b c53e
00000160: 9cf1 f0be 8c4b 32bf 43b0 b0bf 4536 d7bd
00000170: 7d55 363f 383d 9b3d 1317 6d3e 539b 0fbf
00000180: 29cd 353f 9a5f cbbe da6c a9bf 2370 3f3f
00000190: c8d4 00bf f6da fd3d cf50 533e aa04 8cbe
000001a0: a795 38bd 9e5e 02be 1adc 86be e028 2abf
000001b0: 0453 a7be e78f 39bf 85ff 183f 264b 3b3e
000001c0: c0e4 2c3e 763b 19bf e1e6 01bf a707 6d3c
000001d0: 9a4d c8be ca84 9c3e a350 423f 611b 27bf
000001e0: 8d72 33bf e46c ef3d 6245 ebbe 7366 913e
000001f0: c498 4dbf 4c43 19bf 7a57 5f3f d540 e23e
00000200: 0659 693e 2c72 debe 9522 f03e ef9f 773e
00000210: 8c97 ba3e dc29 fe3d 3409 e8be 45ff 40be
00000220: 95b8 3c3e 58ba c3be 1492 28be 5149 d5be
00000230: 34be d8be aed7 89be 0e6e 313e 28fa 5d3e
00000240: 368c 35bf 0245 123f 50cd f73e 9112 1cbf
00000250: 9479 3ebf 6f5b 48bf 9024 82bf 6bef c6be
00000260: e58e b9be f4a3 00bf f8d5 0d3f 42af aabe
00000270: 19d7 a33e b201 6e3e 9bde 35bf 38f0 06bf
00000280: 7359 b5bd 61bd e0be fb7b bbbe 2fbf 06be
00000290: 1ba8 b1be 2b8b 43be 227a 91be d957 9e3e
000002a0: 4f66 a3bd 9020 ddbe c27b 9ebe 4645 1f3f
000002b0: bc8a 43be 2d60 703f 6b9a b43e 11d4 47be
000002c0: 5e6d b4be 65a5 083e 867d 043e 41b8 6f3e
000002d0: 7f88 833e 5b7b 08bf 8179 afbd cf5e 793b
000002e0: 5905 b5bd e556 7c3d 1e41 023f 94fc 1abf
000002f0: e541 25bf 541c 633e 9f0e 093f 947b febe
00000300: 23f3 f7be e253 313f e9c7 1abb 2393 74bd
00000310: 5d31 673d 8e02 85bd 4122 8bbe b9c9 32be
00000320: b407 973f f0cb 00bd 2e56 863f a7d6 df3e
00000330: 3133 e7bf 3569 38bf 6462 7abe 1d5a fabf
00000340: c895 c93f 6648 373e 7ff2 b23f 4ea6 b93f
00000350: 422b cc3e 844d 1abf 16dc a73e 620b 943e
00000360: c677 3cbe fbdf e7bd 4767 8e3f 1556 b23e
00000370: 6564 bb3e ad29 5bbe 69f4 35be 7b0f 96bf
00000380: 567e 11c0 e743 81bf 62bf fd3f 1555 113f
00000390: 36fe ecbe 3c0d 6abf 8bbf 62be 213e 353f
000003a0: f990 1e3f 5339 f5bd affa 52be 9f76 6b3e
000003b0: 0655 3e3f 0ddd e33e aef8 b03d 90b3 6ebf
000003c0: 760e c8bf dc55 8b3d b775 873f 49dc 0dbf
000003d0: a5ad f33a 8772 57be 5a30 793f 057a 1cbe
000003e0: 9b54 babf fea3 0e3f 9d2d 50bf aede e6bd
000003f0: 65a0 16bf 993e e7be 28eb 903f f570 dfbb

linears.5.bias f4 [50]
1.5654835 2.881507 -0.49579555 1.032505 0.6240211 -0.4194935 -0.5300985 0.3984196
-1.9773782 0.23711853 -1.9580832 3.5421877 2.2820761 0.31571704 -0.9466149 0.77689034
-0.89722604 1.5946839 0.25204867 0.9453321 -0.47282273 1.9103117 -0.8294718 -2.2793703
-0.26167557 0.76848084 0.5863837 1.1773384 1.4806978 2.338722 -2.218845 4.3224335
-2.0979264 -0.5892079 0.980246 -0.21960986 2.506165 0.69407046 -0.7961491 1.0335126
-1.514005 1.0162016 1.094227 -1.111657 0.14550792 -1.6812646 -1.6706792 1.0336332
1.1500058 -0.006013838
00000000: c361 c83f 9c6a 3840 ead8 fdbe 2029 843f
00000010: d9bf 1f3f dac7 d6be 89b4 07bf a7fd cb3e
00000020: bb1a fdbf 33cf 723e 78a2 fabf 34b3 6240
00000030: 890d 1240 aaa5 a13e 5b55 72bf 49e2 463f
00000040: 9bb0 65bf 9a1e cc3f 860c 813e 4901 723f
00000050: d215 f2be 1885 f43f 4458 54bf 34e1 11c0
00000060: 57fa 85be 29bb 443f 3e1d 163f 06b3 963f
00000070: 8187 bd3f 9fad 1540 8e01 0ec0 6051 8a40
00000080: 6d44 06c0 54d6 16bf 67f1 7a3f 68e1 60be
00000090: 0265 2040 9aae 313f 6dd0 4bbf 244a 843f
000000a0: eaca c1bf e512 823f a10f 8c3f c74a 8ebf
000000b0: 0700 153e ae33 d7bf d1d8 d5bf 184e 843f
000000c0: 6433 933f bb0f c5bb

linears.6.weight f4 [50, 50]
-0.21558197 -0.1517705 0.34361437 0.06474247 0.15001804 -0.039644845 0.2851274 0.11575524
-0.7814665 -0.14335907 0.5138476 -0.21541853 0.1134178 -0.14639114 -0.3197157 0.027102
-0.31440714 0.5893894 0.6185037 0.18717518 -0.25596496 -0.10310817 -0.35214818 0.12792638
0.24125314 0.48498428 -0.1309241 -0.29225764 0.25438598 0.1933287 -0.5691027 0.2020611
-0.54127526 0.056241106 -0.50903434 0.24966094 0.56719005 0.2893798 -0.30384886 -0.25611287
-0.46787384 -0.14600304 0.61962616 -0.0068331026 -0.032800432 -0.029857468 0.022001479 -0.12328191
-0.5674057 -0.0319381 -0.6019792 -0.07267037 0.2348976 0.44577703 0.7014228 0.3604339
0.07598341 0.24338284 -0.9866073 -0.29006702 0.08273319 -0.30843866 -0.034624167 -0.2761578
0.058655784 0.4826249 0.75743496 0.15056011 0.3422735 -0.61912125 -0.18336715 -1.3809568
-1.3745364 0.11384774 0.51234037 0.92146784 -0.7349454 0.1531723 0.68590903 0.14419164
-0.62389153 0.7805773 -0.908319 0.29169497 -0.47378582 0.23319557 1.0990665 0.14483424
0.84574026 -0.34370843 -0.17509486 0.97074544 1.1142955 -0.030106163 0.7977995 -0.3492931
-0.032253195 -0.5966422 -0.9020963 0.7427366 -1.394249 0.282418 0.4298442 -0.038891472
1.8648204 0.25495756 0.23519786 0.08655722 -1.9716537 -0.8377244 0.6838165 -1.3777552
0.58068687 -0.060985487 -0.82128614 0.33235323 1.87816 0.40214482 -0.06804239 -1.1748941
0.23240755 -2.6759896 -2.9613628 0.9472089 1.6997573 1.5295666 -0.8414972 -0.058606293
0.3439088 0.1693013 -0.73394465 0.93086654 -0.84944516 1.2386838 -1.073163 0.6451923
1.8795979 0.57314 1.3440591 -0.9380969 -0.50388014 2.1895115 1.4109601 0.69816
1.3131248 -1.122639 -0.08507663 -1.2180959 -1.6120275 1.5758986 -0.010236415 0.00885112
-0.11743283 0.003804335 0.583687 -0.11442259 0.029162278 -0.01360343 -0.09495885 -0.33941647
0.31216356 -0.30685422 0.3419336 0.21463397 -0.109255366 0.2908275 0.47242886 -0.50300354
-0.2979227 -0.37775573 0.04299304 -0.5766021 -0.45560315 0.0014363308 0.1298972 0.31901768
0.09239766 0.17900538 0.034464955 -0.013435178 0.1445475 -0.07557707 -0.21879134 0.41555947
-0.25704217 -0.003586226 0.2680564 0.2951622 0.13027748 -0.53863454 -0.16477144 0.51671356
0.6501397 0.12899455 -0.14682321 0.028889848 -0.04246779 -0.26278275 -0.22998062 0.18319121
-0.20928274 -0.66739285 -0.46978766 -0.032193046 -0.9145687 -0.4923613 -0.34722093 -0.4651229
0.66574514 -0.109154224 1.2637681 -0.5733112 0.20875755 0.50731313 -0.5510536 -0.2103183
-0.5188388 -1.0399791 -0.13431299 0.42181256 0.29479668 0.7090031 0.6018135 0.34471524
-0.42591092 -0.7764186 0.54526633 -0.46426904 0.021693246 -0.53987616 0.27632484 -1.5157812
0.056307133 -0.3560946 -0.72854865 -0.38713783 -0.84446424 1.2921194 -0.84249085 -0.080557086
0.3556377 -1.0441322 -0.044831324 0.081007786 -1.0257462 0.95188344 1.0368159 -0.056612477
-0.48461875 -0.6524061 1.231779 -0.17206426 -0.6639946 -0.06273999 -1.8843228 -0.46588293
00000000: 85c1 5cbe ba69 1bbe 39ee af3e b397 843d
00000010: 549e 193e a262 22bd 38fc 913e 1511 ed3d
00000020: 300e 48bf b8cc 12be 848b 033f ad96 5cbe
00000030: 9747 e83d 8fe7 15be c7b1 a3be 0305 de3c
00000040: f9f9 a0be 39e2 163f 4256 1e3f daaa 3f3e
00000050: d70d 83be 602a d3bd c44c b4be 22ff 023e
00000060: 100b 773e dc4f f83e f810 06be cba2 95be
00000070: e13e 823e f5f7 453e b7b0 11bf 1be9 4e3e
00000080: 0491 0abf 135d 663d 1350 02bf 1ea7 7f3e
00000090: 5e33 113f 9729 943e 1492 9bbe 3a21 83be
000000a0: 298d efbe d281 15be d29f 1e3f 38e8 dfbb
000000b0: bf59 06bd a697 f4bc 723c b43c 3a7b fcbd
000000c0: 8041 11bf 86d1 02bd 4f1b 1abf 34d4 94bd
000000d0: ff88 703e e33c e43e 7290 333f cb8a b83e
000000e0: 319d 9b3d 5a39 793e 4c92 7cbf aa83 94be
000000f0: 0570 a93d aceb 9dbe 12d2 0dbd 8e64 8dbe
00000100: 0c41 703d 9c1a f73e 42e7 413f 6e2c 1a3e
00000110: 793e af3e bb7e 1ebf 99c4 3bbe 31c3 b0bf
00000120: cff0 afbf 0129 e93d bd28 033f 51e5 6b3f
00000130: 6225 3cbf 33d9 1c3e bc97 2f3f f9a6 133e
00000140: 5bb7 1fbf ead3 473f 9887 68bf 0b59 953e
00000150: 0e94 f2be d2ca 6e3e 36ae 8c3f 6d4f 143e
00000160: 6f82 583f 8dfa afbe 114c 33be c682 783f
00000170: 3ca1 8e3f 33a1 f6bc 973c 4c3f 8cd6 b2be
00000180: ed1b 04bd 8bbd 18bf c8ef 66bf fc23 3e3f
00000190: c076 b2bf 1899 903e 8a14 dc3e aa4c 1fbd
000001a0: 6fb2 ee3f cc89 823e b5d7 703e e944 b13d
000001b0: 265f fcbf 1b75 56bf 990e 2f3f 485a b0bf
000001c0: e5a7 143f ebcb 79bd cf3f 52bf 342a aa3e
000001d0: 8c67 f03f ede5 cd3e cf59 8bbd ee62 96bf
000001e0: 3ffc 6d3e 6a43 2bc0 f886 3dc0 487c 723f
000001f0: a691 d93f d7c8 c33f 5c6c 57bf 270d 70bd
00000200: d014 b03e 525d 2d3e cce3 3bbf 454d 6e3f
00000210: 3d75 59bf 318d 9e3f 685d 89bf 532b 253f
00000220: aa96 f03f 4eb9 123f 210a ac3f 1e27 70bf
00000230: 4afe 00bf f520 0c40 579a b43f 9dba 323f
00000240: 7914 a83f a2b2 8fbf a83c aebd 91ea 9bbf
00000250: eb56 cebf 0cb7 c93f a3b6 27bc 4a04 113c
00000260: a080 f0bd 2652 793b 836c 153f 6456 eabd
00000270: bbe5 ee3c ece0 5ebc c979 c2bd ffc7 adbe
00000280: e7d3 9f3e ff1b 9dbe ec11 af3e 02c9 5b3e
00000290: 47c1 dfbd 58e7 943e 32e2 f13e d7c4 00bf
000002a0: 5389 98be 3369 c1be 7819 303d 329c 13bf
000002b0: d144 e9be 4443 bc3a c603 053e 4956 a33e
000002c0: fc3a bd3d 304d 373e 202b 0d3d 391f 5cbc
000002d0: 4304 143e 27c8 9abd d60a 60be 36c4 d43e
000002e0: 089b 83be e306 6bbb b03e 893e 801f 973e
000002f0: 7667 053e f4e3 09bf d8b9 28be 5747 043f
00000300: 8e6f 263f 2617 043e d358 16be 67aa ec3c
00000310: b5f2 2dbd 768b 86be 0a80 6bbe 7a96 3b3e
00000320: 374e 56be 42da 2abf 0288 f0be dbdc 03bd
00000330: 2d21 6abf c816 fcbe f1c6 b1be 9724 eebe
00000340: 466e 2a3f 408c dfbd 27c3 a13f 86c4 12bf
00000350: 8ac4 553e 46df 013f d911 0dbf ae5d 57be
00000360: 9fd2 04bf 091e 85bf 5889 09be d1f7 d73e
00000370: 97ef 963e 3a81 353f 7310 1a3f 847e b03e
00000380: ff10 dabe 5fc3 46bf 9396 0b3f acb4 edbe
00000390: 09b6 b13c 5335 0abf 737a 8d3e 1e05 c2bf
000003a0: 4fa2 663d 0852 b6be 2a82 3abf ee36 c6be
000003b0: cf2e 58bf 2b64 a53f 7bad 57bf 1dfb a4bd
000003c0: 2516 b63e 20a6 85bf 0da1 37bd 69e7 a53d
000003d0: a74b 83bf a2ae 733f 62b6 843f 7ce2 67bd
000003e0: f31f f8be 1604 27bf efaa 9d3f 9d31 30be
000003f0: 8dfb 29bf d37d 80bd 7d31 f1bf 3588 eebe

linears.6.bias f4 [50]
0.67666626 -0.73707676 -2.5890436 -0.5518083 -1.6777997 1.837171 0.12840743 -0.14034748
1.7356226 0.77189976 -0.5422363 1.5493579 1.1235135 0.5068876 1.8708127 1.5589833
0.0364036 -2.144182 -0.22311816 -1.4458066 0.3945154 -0.82140756 0.5083486 0.98893845
-0.047390528 0.04776702 -1.2249967 0.17559235 1.2093457 -0.23936446 0.21015102 0.68776995
-0.9604007 1.1772377 1.9972132 -1.6076629 -0.83198124 -1.535443 -1.1265796 -0.69615763
0.37446085 -0.8638948 -0.34170386 -0.5172256 -0.27607995 -0.75623554 0.9990314 -0.8137019
0.4644829 0.5650176
00000000: 003a 2d3f 10b1 3cbf e4b2 25c0 4f43 0dbf
00000010: 24c2 d6bf 6b28 eb3f 3d7d 033e 40b7 0fbe
00000020: e228 de3f 399b 453f 00d0 0abf 5c51 c63f
00000030: 4acf 8f3f 63c3 013f ca76 ef3f c48c c73f
00000040: f11b 153d 473a 09c0 1679 64be 3110 b9bf
00000050: ecfd c93e c447 52bf 2223 023f 122b 7d3f
00000060: 921c 42bd 5aa7 433d b1cc 9cbf 7bce 333e
00000070: d7cb 9a3f f51b 75be d431 573e b111 303f
00000080: d2dc 75bf baaf 963f afa4 ff3f e6c7 cdbf
00000090: b9fc 54bf 6589 c4bf c333 90bf 6337 32bf
000000a0: 55b9 bf3e 3628 5dbf cff3 aebe e668 04bf
000000b0: 5a5a 8dbe a798 41bf 86c0 7f3f c54e 50bf
000000c0: b4d0 ed3e fea4 103f
