Archived Code/Stan TPAMI/3D/stan_tune/3D_HTTP_stan_tune3_2.pt (torch, 90790 bytes, 20 tensors)

beta f4 [50, 9]
00000000: b644 813f b704 833f a2ea 7b3f 20f4 793f
00000010: c7cb 813f ffe9 883f 2100 833f c1a8 7f3f
00000020: ca89 833f 4f87 7f3f c98f 7c3f 0862 7b3f
00000030: 5bbe 7b3f 2c17 823f a792 8b3f 9bd0 843f
00000040: dd57 863f 64b2 7f3f 05d3 803f 3e0c 7d3f
00000050: 2b00 823f ba87 7e3f 1f3e 823f b324 803f
00000060: 16a8 853f e0bf 723f de0a 823f 902b 7f3f
00000070: eea9 803f 735e 773f 7140 7b3f 67ed 803f
00000080: bc18 723f 3555 833f 7c89 853f b577 7c3f
00000090: 83d8 7f3f 8ed8 813f 957c 7a3f 192e 803f
000000a0: 6b92 873f ea8c 843f 29ef 763f cf5c 823f
000000b0: 7dd3 7b3f d9cb 703f f30f 803f 0f27 833f
000000c0: bbe0 713f f82f 7c3f 7286 7a3f 5204 803f
000000d0: e306 8d3f 0dd3 7d3f 170a 803f 602f 7a3f
000000e0: a460 7a3f 242e 803f fea3 833f c336 813f
000000f0: 4adc 803f 4269 823f 2b70 7f3f e762 813f
00000100: 632d 7f3f 27d5 683f 7a6e 813f 5979 803f
00000110: 2955 743f 9fbe 723f 2265 793f 97ec 7f3f
00000120: ecc7 6f3f 91c9 7d3f 8c23 813f c587 773f
00000130: 0051 753f 49f2 8c3f 2621 8f3f 23f2 833f
00000140: e3af 853f e4c7 7f3f e7a2 803f 7360 743f
00000150: 9bab 783f f08b 763f 2682 773f 5624 773f
00000160: 7291 7c3f 82a8 7a3f 01ce 803f de50 733f
00000170: 9949 843f 0dae 733f fbca 793f 8b7f 7d3f
00000180: efd9 703f 0c46 813f b0f9 863f 7c18 803f
00000190: 718c 7d3f 6610 793f 0888 7d3f 35a6 7b3f
000001a0: ef32 773f f6fe 833f 86a0 773f 8e56 613f
000001b0: ba9c 813f b234 833f 52b4 7a3f f449 803f
000001c0: 1d45 7d3f f567 a13f 569b 7e3f 0ec0 803f
000001d0: d892 7f3f f10b 713f 2932 803f adfa 7b3f
000001e0: 0b9b 7b3f ab30 843f f608 783f 7931 833f
000001f0: c8c2 833f 3c50 a23f ed5a 773f 68e4 7e3f
00000200: 41c9 723f 91e5 833f 0f48 7a3f 7310 7f3f
00000210: af4c 6e3f e603 7e3f 0c03 823f 6a8f 783f
00000220: 6d6a 793f 12b9 563f d023 7d3f c180 783f
00000230: 7cc6 813f 5b0a 843f c9e1 883f 994f b43f
00000240: 4cf4 7c3f a0cb 7c3f ddac 7f3f 3e81 783f
00000250: 80c3 803f 649f 8a3f 2e6d 813f 10b1 7d3f
00000260: 822b 7f3f 1c96 7c3f 027f 783f dd3b 7f3f
00000270: 1ba8 7e3f 598a 7f3f ad0f 803f e7de 7e3f
00000280: 4814 833f 21d7 773f 2154 803f 8b1b 7f3f
00000290: 4094 7f3f 6277 763f d5f7 7e3f ca7e 833f
000002a0: b819 833f a1d1 a03f 0041 883f eba2 7f3f
000002b0: b6ca 803f 4f23 813f dc08 713f c030 7f3f
000002c0: fa4c 7e3f 9f7c 943f 53f2 853f a0cf 7a3f
000002d0: 00e5 793f 07ae 7d3f 3658 7d3f ea3e 813f
000002e0: df2f 793f f0a9 883f 7d1a 853f dd60 813f
000002f0: d0e6 7d3f 4412 803f 459d 773f 2f7f 793f
00000300: ef07 803f 5606 873f adb7 7e3f f6ba 7e3f
00000310: 6e32 813f 36c8 9f3f d9f2 7c3f a169 813f
00000320: a1e7 7f3f 4a28 7e3f 5690 803f f835 7b3f
00000330: 578e 953f 1ca9 8f3f d79f 7e3f 6eea 803f
00000340: eecc 803f de04 7d3f 015a 803f 498a 7f3f
00000350: bf76 833f 94c0 813f 720b 7d3f 84a4 6f3f
00000360: 5993 7d3f 758b 813f 10e3 7b3f a369 7e3f
00000370: e6f1 843f 0519 7e3f 94b9 803f 6631 823f
00000380: 9204 853f d2e3 7f3f 0b8f 803f fbf2 7b3f
00000390: 4061 753f 6fb0 733f 5ab8 7e3f fbf9 813f
000003a0: deaf 803f 59f6 723f 5314 803f 1557 803f
000003b0: 3f89 7a3f 0155 7a3f 30c6 773f d8fd 753f
000003c0: c6ce 813f f8ae 833f 70ad 823f 7611 803f
000003d0: 60f5 7b3f 20b8 7d3f 986b 7a3f 6467 7c3f
000003e0: 7a2c 843f 1f46 823f f2c9 7e3f 60eb 733f
000003f0: 70d5 7f3f 6488 7f3f e911 793f 3765 813f
1.0099094 1.0235814 0.98404896 0.9763813 1.0140313 1.069641 1.0234414 0.99866873
1.0276425 0.9981584 0.986569 0.9819646 0.98337334 1.0163321 1.090413 1.0376161
1.0495564 0.9988158 1.0064398 0.98846805 1.0156301 0.9942585 1.0175208 1.00112
1.0441921 0.9482403 1.0159566 0.99675846 1.0051858 0.96628493 0.98145205 1.007245
0.9456899 1.0260378 1.0432582 0.9862016 0.99939746 1.0144212 0.9784635 1.0014068
1.0591558 1.0355504 0.9645868 1.0184573 0.9836958 0.94061047 1.0004867 1.0246295
0.94483536 0.98510695 0.978614 1.0001318 1.1017727 0.9915016 1.0003079 0.9772854
0.9780371 1.0014081 1.0284421 1.0094837 1.0067227 1.0188372 0.9978053 1.0108308
0.9967863 0.90950245 1.011184 1.0037032 0.95442444 0.94822115 0.9741994 0.9997038
0.9366443 0.9913569 1.0088973 0.9669154 0.9582672 1.101144 1.1181991 1.0308269
1.0444301 0.99914384 1.0049714 0.9545967 0.9713685 0.9630728 0.96682966 0.9653982
0.9865943 0.9791337 1.0062867 0.9504527 1.033496 0.95187455 0.9757535 0.9902274
0.9408254 1.0099502 1.0544949 1.0007472 0.9904242 0.9729065 0.9903569 0.98300487
0.96562093 1.0312183 0.96729314 0.88022697 1.0125954 1.0250456 0.97931397 1.0022569
0.98933583 1.260985 0.99455774 1.005861 0.9983344 0.94158846 1.0015308 0.98429376
0.9828345 1.0327352 0.96888673 1.0249473 1.0293818 1.2680736 0.96623117 0.9956727
0.9483834 1.0304433 0.977662 0.99634475 0.9308576 0.992247 1.015718 0.9709383
0.9742802 0.83876145 0.9888277 0.9707146 1.0138698 1.031566 1.0693904 1.4086791
0.9881027 0.9874821 0.99873143 0.9707221 1.0059662 1.0829892 1.0111444 0.990983
0.9967576 0.9866655 0.970688 0.9970072 0.9947526 0.99820477 1.0004784 0.9955887
1.0240564 0.96812636 1.0025674 0.996514 0.99835587 0.96275914 0.9959691 1.0273068
1.0242224 1.2563974 1.0644836 0.9985797 1.0061862 1.00889 0.94154143 0.9968376
0.99336207 1.1600531 1.0464576 0.9797306 0.9761505 0.9909367 0.98962724 1.0097325
0.9733867 1.0676861 1.0398709 1.0107685 0.99180317 1.0005574 0.9672435 0.9745969
1.0002421 1.0548809 0.99499017 0.9950403 1.0093515 1.2482975 0.98808056 1.011036
0.9996281 0.99280226 1.0044048 0.98129225 1.1684064 1.1223483 0.99462646 1.0071542
1.006254 0.9883555 1.0027467 0.9982038 1.0270613 1.0136895 0.9884559 0.93610406
0.9905296 1.0120684 0.98393345 0.9937994 1.0386322 0.99256927 1.0056634 1.0171325
1.039202 0.99957 1.0043653 0.98417634 0.95851517 0.9519109 0.9950005 1.0154413
1.005367 0.94907147 1.0006202 1.0026575 0.9786567 0.97785956 0.96786785 0.9609046
1.0141227 1.0287771 1.0209179 1.0005329 0.9842129 0.9910908 0.97820425 0.9859526
1.0326073 1.0177649 0.99526894 0.9528103 0.99935055 0.9981749 0.97292954 1.0109013

linears.0.weight f4 [50, 3]
00000000: 319d 793d 6d7e c8be bb79 d5bd 5df2 bcbd
00000010: 8033 643e deec 333d 0eab a0bd dfe2 85be
00000020: ac8a 4f3e d7ba 2a3e ecdf 82bc 5edd 6f3b
00000030: 4302 96bd 87a9 56be a52b 423d cda3 1bbe
00000040: 0428 01bf a5f6 693d 62bb 27be 0a9a 5bbd
00000050: 3d44 28ba aa8a 6dbd 6aa0 03be a49e 80be
00000060: 1294 e9be b4fb 83be 0e42 c33c 4e9b 9c3d
00000070: f068 c5bd 616e 5bbd 92e2 d4bd 4e32 1c3e
00000080: b81c 08be 7690 853d 3ffd b6bd aafe 463d
00000090: e7df 3bbe 6097 693e 1728 403e 3508 9d3c
000000a0: 827e f43e 97fe 353c 2889 12be d0e9 c73e
000000b0: 6ab7 55bd 466e 333d b975 943e c652 e8bd
000000c0: 6091 04bd 806b 9d3e f5ae 1e3c 737e 05be
000000d0: 5629 c13e 7e37 2dbe f580 22bd 0808 923d
000000e0: c63b 8abd cf67 b4bb b3b9 dc3c f77d dcbc
000000f0: 4cef 05be 90fe c6bb 3846 66bd fac6 a5bc
00000100: 2f8e 78be 74b4 05be b378 40bd 0bf3 60bd
00000110: f185 4e3e af90 bcbe 7f70 4a3d bc3e 8c3c
00000120: caa7 683c 0811 da3b b463 d6bd 219d 98bc
00000130: d96e 42bc 361a cd3d 8bb2 b2be 3d55 c2bd
00000140: 172a 0cbe d7dc f0bc 885d f3bd ce21 cd3d
00000150: bf95 143d a119 2fbe e04a 9c3d 6d60 e43d
00000160: 412c 28be 75e0 06be 258c 333e 8a2d 8a3d
00000170: ffbf 17be 3a23 073c 0680 14bd 3c87 e7bd
00000180: 10f5 173e d4d6 3fbf 870a ff3d fc21 1bbd
00000190: 37c5 25bc 0673 b1bb 72ca dd3d d083 a2be
000001a0: b51e fcbd e599 e73d 3167 103d 7516 623d
000001b0: 76f5 3fbd 2de2 e23d ba4b 4abd e1df 8e3b
000001c0: 0db2 013d 3813 56bd 7537 af3d eefe c4bd
000001d0: 94f2 0dbe bc82 6cbd 1c0c b83d 010c c63d
000001e0: 4362 78be 4b79 a9be 4449 8c3e db16 b13d
000001f0: 4b24 e63e 6960 cb3c 0b37 74bd d460 f3be
00000200: b4be 993b 4d3f 05bd 8d3a 9dbd fb47 95be
00000210: 473e 633e 9ba7 02be 20c9 42be 4a18 a3bc
00000220: 4813 c53e 7993 c1bd e4a4 56be 28f7 65be
00000230: 06ed 3bbe f8f9 6fbc f3b3 953e 994f e4bb
00000240: f023 f0bd b3cb 9a3b b993 163e 2da6 bf3d
00000250: 236b a0be b183 18be
0.060940925 -0.39158955 -0.10423609 -0.092259146 0.2228527 0.043927066 -0.07845126 -0.2614965
0.20267743 0.16672836 -0.015975915 0.003660045 -0.0732465 -0.20963107 0.047404904 -0.15199204
-0.50451684 0.057119984 -0.16380075 -0.0536137 -0.00064188597 -0.05799357 -0.12854162 -0.25121033
-0.4562078 -0.25777972 0.023835208 0.076468095 -0.09639156 -0.053572062 -0.10394777 0.15253565
-0.13292205 0.06521694 -0.089350216 0.04858271 -0.1834713 0.22811651 0.18765293 0.019168952
0.47752768 0.011108062 -0.14310133 0.39045572 -0.05217687 0.043806337 0.28996065 -0.11343913
-0.032365203 0.30746078 0.009685268 -0.13036518 0.3772685 -0.169157 -0.039673764 0.07130438
-0.06749682 -0.005505539 0.026944017 -0.026915533 -0.13079566 -0.0060728267 -0.05621931 -0.020236481
-0.24272989 -0.13057119 -0.046990108 -0.054919284 0.20168282 -0.36829135 0.04942369 0.017119758
0.01420016 0.0066548623 -0.104682356 -0.018629612 -0.011867248 0.10014765 -0.34901842 -0.09488914
-0.13687931 -0.02940218 -0.11883074 0.10016213 0.03627562 -0.1709962 0.07631469 0.11151204
-0.16423132 -0.13171561 0.1753393 0.06746967 -0.14819334 0.008248145 -0.036254905 -0.11305091
0.14839578 -0.74937177 0.1245318 -0.037874207 -0.01011782 -0.005415323 0.10829629 -0.3174119
-0.123105444 0.1130865 0.03525466 0.055197198 -0.04686495 0.11078296 -0.049388625 0.0043601845
0.031663943 -0.052264422 0.085554995 -0.096189365 -0.13862067 -0.057741866 0.08986685 0.09670258
-0.24256234 -0.33100352 0.27399647 0.086469375 0.44949564 0.024826245 -0.059622806 -0.47534811
0.004691923 -0.03253107 -0.07677183 -0.2915648 0.22191726 -0.12759249 -0.19022036 -0.019909043
0.38491273 -0.09451956 -0.20961338 -0.22457564 -0.18352136 -0.014647 0.29238853 -0.0069674966
-0.117256045 0.00472399 0.14704789 0.093578674 -0.3133174 -0.14893986

linears.0.bias f4 [50]
00000000: baa6 6cbe f9c4 18be 00d3 ea3d 88e8 abbd
00000010: 20f2 97be bec3 ffbd 5ad5 b8be 2536 383d
00000020: ae5e aebe 5746 9a3d 396f 02be 309b a73c
00000030: d8c1 6ebe 68bf 20be f7aa 053f 4275 793e
00000040: 28b2 e7bd 7893 56bd 8ac2 7d3c 2662 8bbd
00000050: 9809 e7bd 72a6 943d 2807 2dbe 08a6 8abe
00000060: 66ae 9c3e cb53 af3e 43c4 81be 6a2b 42bd
00000070: 49c2 ccbd 1647 f7bd fe36 63be 0fdb 4bbe
00000080: 4834 24bd badd b0bd c1b4 2cbe 7876 223e
00000090: e73a 55be d648 b6be 07fc 273d b4b6 893e
000000a0: 186b b1bd d28f 2c3e ef14 9ebe de99 88be
000000b0: ed30 093e 8e72 de3e 9545 cbbd 9e5e 083e
000000c0: 8f12 773e 6548 1fbe
-0.23110476 -0.14918889 0.11466026 -0.08393961 -0.29676914 -0.12488507 -0.36100274 0.04497351
-0.3405661 0.075329475 -0.1273774 0.020459741 -0.23316133 -0.15698016 0.52213997 0.24361137
-0.113132775 -0.05238673 0.015488276 -0.0680583 -0.11281127 0.072583094 -0.16897261 -0.27079797
0.30601805 0.34243616 -0.25345048 -0.047404684 -0.099979945 -0.120741054 -0.22188947 -0.19907783
-0.04008892 -0.08636041 -0.16865827 0.15865505 -0.2082325 -0.35602444 0.041011836 0.26897204
-0.08663005 0.16851738 -0.30875346 -0.2667989 0.1339757 0.43446773 -0.09925381 0.13317344
0.24128173 -0.1555496

linears.1.weight f4 [50, 50]
00000000: a309 3bbe c9f3 113e 9266 8fbe 9741 87bd
00000010: 3f8e 483d 94d0 5c3e 12e9 113d e78a 843e
00000020: 2fd3 713d e2ec 1e3e a79f 613e 7b22 6b3e
00000030: 97ff f33d d03d 09be 143c a3be a754 2dbe
00000040: 97f3 fd3d 9a7f bcbd fa5e 0d3e 54b2 fbbd
00000050: d4eb 943d 7261 13bd 43e7 04be 8188 0a3d
00000060: f205 a83c 1944 ad3d f58c 8e3e d77d d9bc
00000070: a467 04bc 41c7 58bd 6f6e 893c 2c0d 1a3d
00000080: 3cc2 a43d 5836 4dbe 0fef 2ebe 009f a63d
00000090: 4ed1 35be 7629 91be 086d 2ebe 7cc7 41be
000000a0: aa26 cf3a e718 d83d e43d c83d dec7 473e
000000b0: 834a 13bc 67a6 adbc 67fa 5c3e fef0 4c3e
000000c0: 9fef 683e ece3 e9bd 4437 3a3c 31d5 f0bc
000000d0: 77df cabd 1a76 7c3e 73a8 c1bd f572 52be
000000e0: ca43 ab3e df9f 91be e0c1 713d b94b 1abd
000000f0: 1762 00be eccc e8bc d1fc 223c 2fe0 b7bd
00000100: 2a73 333d 364b 683e 8cd1 293e 2eb5 2d3e
00000110: 2fc2 d1bc 45c7 193e c325 eb3d cf96 dc3b
00000120: f7f0 ccbd 2be5 fe3d 30b6 443d d14c 68be
00000130: 57da 693e ae2a a6bd 3300 00bc b86e 9a3c
00000140: 9b38 173e 6fbe 20be 34cd f1bc ab9e 4ebd
00000150: 2eaa 673e dae1 e3bd 5376 9f3c b0f2 263e
00000160: 7bd1 643e 7b57 463d 723d 5a3e 5444 8b3e
00000170: 16d0 75bc 63b2 3f3b d4a9 f6bd a88e ecbd
00000180: 2d33 24be 3960 4e3e a09d 383e 4029 9a3d
00000190: 4fc5 d33d e6f8 a0bd 49b2 51be 5e4d b83b
000001a0: fa32 61bd 013f 2cbe 0da3 73bd bfb0 87be
000001b0: 4239 82b9 ba52 c43d 1ed2 943d e273 193a
000001c0: 421e 9fbc 9067 003d a979 ccbd dc25 e3bd
000001d0: c3c7 2dbd 9a80 9fbd 48cc 2ebe a2bf 53bc
000001e0: 6e2f 143e 9046 273e af30 d3bd f85e 9f3d
000001f0: 1287 983b ebf9 423d 1432 81be 87d9 99bd
00000200: 485b 7bbc 2845 ca3d 90e3 f4bd 92a1 dabd
00000210: 4395 f53d 53aa 0dbe 70cc 4c3e b76f 36be
00000220: 8e72 8d3d b2d7 63be 78ec a23d 9681 c13d
00000230: d55a 803c 6ef7 1fbe 8fd2 d9bd 46b3 c43d
00000240: 13b1 813e a657 ca3d d35e dfbb 92f0 83b9
00000250: b7ad 883b 54d2 26be e01e 73bd dd60 873e
00000260: 578c 863e 4a33 1bbe dbc4 3d3e f3ee c1bd
00000270: a808 c13d dbe8 dbbb 30c8 fd3c 22fd 04bd
00000280: 532f a7bd fad1 943c 3bbc ecbd 5288 07bd
00000290: 2da1 8abe bb89 f5bb 3608 e23d bae0 283c
000002a0: 2c54 2b3e 9dbf b8bd 12d0 4e3e 35a0 0e3d
000002b0: 0c63 d33d aec6 5abe 5984 b23d 4ffa 1cbe
000002c0: f7b2 033d 9a3e 20be 8d0b 8ebb 37ff 4c3e
000002d0: 97f1 79bd 3041 7f3d 721d 21be 92ef d43d
000002e0: 9b23 9d3e f6c1 0fbe 22a7 e0bd ba75 2dbe
000002f0: 812f 3dbe 8eaf 40be 5f70 e83c e97d b2be
00000300: a726 3dbe 467f 463e 112d 57bc 93e5 25bd
00000310: 7b55 1b3b c9b8 4fbc 1cd5 f03c 0f85 c4bd
00000320: c237 ca3d 662e 8abe 5eae 3d3d 659a b53c
00000330: 5262 6f3e 6fb1 5cbd a8a0 ccbc eed1 bb3c
00000340: f6e4 653e 6d29 22be 9f11 1e3d 9598 1bbd
00000350: 1596 943d ba33 fdbd 9e14 86be 23bf 093d
00000360: e67c 14be 60cc 913d b7cc 4ebe a448 113e
00000370: 7407 d33d 187a 86be d653 0a3b b471 2b3e
00000380: 3cd3 2abe d75a febd c35d bfbd a705 063e
00000390: 376a 13be 2f48 f53d a3dc 203e 5552 08bc
000003a0: bbb3 b33d dcd3 cbbd 3063 3b3d 71e0 e3bc
000003b0: 2fdf ed3b d505 7a3c ee0b 95be 695f c0bd
000003c0: 5fa3 813e 7d6f 103e 17b2 173e 54f3 efbd
000003d0: 5eb1 82be 2c8c 173e 34c3 273c 2a34 b8bc
000003e0: 842f 92bc a5b2 913d eb48 adbd 077a 5cbe
000003f0: 654f 8d3d 484a cb3d 0d41 203d 1d93 d63b
-0.18265395 0.14253153 -0.28007942 -0.06604307 0.04896378 0.21563941 0.035622664 0.25887224
0.05903929 0.15520051 0.22033559 0.22962372 0.11913984 -0.13402486 -0.31881773 -0.16926824
0.12399977 -0.092040256 0.13805762 -0.12289873 0.07271543 -0.035981603 -0.12978844 0.033821587
0.020510647 0.08460254 0.27841917 -0.026549263 -0.0080813505 -0.0529244 0.016776292 0.037610218
0.0804486 -0.20040262 -0.17083381 0.081357956 -0.17755625 -0.28351945 -0.1703378 -0.18923753
0.001580437 0.10551625 0.0977743 0.19509837 -0.008989933 -0.02119751 0.21579896 0.20013806
0.22747658 -0.11420426 0.011365715 -0.029398533 -0.09905904 0.24654427 -0.09455957 -0.20551665
0.33450156 -0.28442284 0.059022784 -0.03766987 -0.12537418 -0.028418027 0.009947971 -0.089783065
0.043811 0.2268494 0.16583842 0.16963646 -0.02560529 0.15017422 0.11481812 0.006731845
-0.10006898 0.12446054 0.04802531 -0.22685553 0.22837196 -0.08113609 -0.0078125475 0.018851623
0.14767687 -0.15697645 -0.029516794 -0.050444286 0.22623512 -0.11127062 0.019465601 0.16303515
0.22345535 0.04842327 0.21312502 0.27200568 -0.015003225 0.0029250614 -0.12044111 -0.11550647
-0.16035147 0.20153894 0.18028879 0.07527399 0.10340368 -0.078599736 -0.20478167 0.0056244573
-0.054980256 -0.16820909 -0.05948167 -0.26502034 -0.00024838193 0.09586091 0.07266639 0.00058537547
-0.019423608 0.031348765 -0.09984142 -0.110912055 -0.042426836 -0.07788201 -0.17070115 -0.012924107
0.14471218 0.16335511 -0.1031202 0.07781786 0.0046547735 0.04760162 -0.2523352 -0.07512193
-0.015341587 0.09876472 -0.119574666 -0.10675348 0.1199136 -0.13834505 0.19999862 -0.17816053
0.06906615 -0.2225025 0.07955259 0.09448545 0.015668312 -0.1562173 -0.10635864 0.09604506
0.2533041 0.09879999 -0.006816724 -0.00025165506 0.004171099 -0.16291171 -0.059355617 0.26441088
0.26278946 -0.15156284 0.18532126 -0.09469404 0.09425479 -0.006711108 0.030979246 -0.03246797
-0.08163323 0.01816653 -0.115593396 -0.03308899 -0.27076092 -0.0074932254 0.11036722 0.010307485
0.16731328 -0.09020922 0.2019656 0.034820754 0.10321626 -0.21364853 0.087166496 -0.1532986
0.032153096 -0.1564888 -0.004334873 0.20019232 -0.061021414 0.062318027 -0.15733889 0.10397257
0.30691227 -0.14038834 -0.10969378 -0.1693944 -0.18475153 -0.18816969 0.028373895 -0.34861687
-0.18471776 0.19384488 -0.013133303 -0.040502142 0.0023702073 -0.012678334 0.029398493 -0.095956914
0.09873916 -0.26988524 0.046308868 0.022168348 0.2337735 -0.05388015 -0.02497895 0.02292725
0.22450623 -0.15836115 0.038591024 -0.03798731 0.072551884 -0.12363382 -0.26187605 0.033629548
-0.1450077 0.071190596 -0.2019528 0.14187866 0.10304156 -0.26265025 0.00211071 0.16742593
-0.16682142 -0.1241967 -0.093440555 0.13088094 -0.14395986 0.119766586 0.15709166 -0.008320411
0.08774515 -0.09952518 0.04574889 -0.027816983 0.0072592716 0.0152601795 -0.29110664 -0.09393198
0.25319955 0.1410503 0.1481403 -0.11716333 -0.25525945 0.14799565 0.010239411 -0.022485811
-0.017844923 0.07114152 -0.084611736 -0.21530925 0.06899909 0.099262774 0.039124537 0.006548299

linears.1.bias f4 [50]
00000000: 00aa b7be 4d65 653d 3d87 48bd cfb3 38bd
00000010: 1191 e1bd 1af4 993d 9ef9 b4be 036d 31be
00000020: 5970 e43c a903 c9be 93f0 083f 6e36 0d3d
00000030: ff63 4cbe a03f 313d 334c 79be 4003 afbd
00000040: 83d0 89bc d043 87be cd9a dc3d ad09 a7bc
00000050: a0c5 d0bd 98be 3fbe a845 4cbe 05b4 24be
00000060: 1ef6 83bd 0b70 9d3d 224c f5bc a7d3 203e
00000070: 366f d0bd 0e08 e73d 8a8d 78bd da93 373c
00000080: 8d24 0dbe 82a2 893d 3ec2 9e3e 7e95 11bd
00000090: 3468 583e 3cfc 583e 05e3 213f 3cea 8abd
000000a0: 1afc 86be 4960 23be e2aa b4bd 9c85 57bd
000000b0: 8cc8 54bb 7f91 2f3a 0e33 96bd ea5c 94bd
000000c0: cbae 13be b196 343d
-0.35871887 0.05600481 -0.0489571 -0.045093354 -0.11013997 0.07517262 -0.35346693 -0.17326741
0.027885603 -0.39260605 0.5349209 0.034475736 -0.1996002 0.04327357 -0.24345474 -0.08545542
-0.016823059 -0.26418924 0.107717134 -0.020390356 -0.10193944 -0.1872505 -0.19948447 -0.16084297
-0.064434275 0.07687386 -0.02994353 0.15705739 -0.10177462 0.11280833 -0.060681857 0.011204684
-0.13783474 0.06720449 0.3100757 -0.035542957 0.211335 0.2118997 0.6323703 -0.06782958
-0.26364213 -0.15954699 -0.08821656 -0.052617654 -0.0032468168 0.0006697401 -0.07333957 -0.072442845
-0.14422147 0.044089023

linears.2.weight f4 [50, 50]
00000000: 5146 cabd e613 ec3c d3f3 1d3e 125f 6a3d
00000010: dbdf b7bd e95e 4d3d c422 2a3e 51a4 60bd
00000020: 102f aabd d4a3 4f3e 8eb7 cebc 9384 a43c
00000030: c520 163e da31 5b3e 7738 613b d1c0 303b
00000040: 0a14 183e abc2 183b 00ce 4abe 1646 ac3d
00000050: 34c9 313e a038 bebd b5d4 d73d 40b8 6a3e
00000060: edba f5bd 13f2 7bbe 141c 343e 2421 65be
00000070: 8ce5 33be afee 0cbe a816 813d 4c6e 7abd
00000080: 9323 123e f004 13be 1608 4dbe 80ae 20bd
00000090: fdbe 74be 4091 683d 21ae 1f3e 632c 54bd
000000a0: 0c08 9e3d 6253 943c da91 673d dc1f 2d3e
000000b0: 84c8 f83c 7029 13bd 0060 823d 35b6 43bd
000000c0: e8ab 1d3d 84d9 c33d 3166 f8be 535b 843e
000000d0: b839 243e 9f74 e9bd 26f3 023e 6d93 09be
000000e0: b360 29be e071 09be 67c0 0f3e 7750 e8bc
000000f0: 2228 6d3e 2ae3 c63d 578d c03d a766 593c
00000100: d7a1 c1be 8374 613e 9929 9d3d ae2f 7abd
00000110: 6b72 38be a6db db38 66fb 20be dcaa 46be
00000120: 80cd 07be ba94 7cbc 835d a03d ab23 a13d
00000130: 0f2b 983d 24be 8cbc 6a4c 733d 616e debd
00000140: 25c6 eb3d fb20 833d ca45 44bd ceeb a23e
00000150: 5987 36be a115 0f3e e931 173e 9215 583e
00000160: b8c0 3c3d 69a3 443e 90dd aebe e584 563d
00000170: 1bc6 9ebd e89f 243e 3454 b23e 6f0f 963c
00000180: 64b0 80bd e39f e3bd 64d3 fd3c 09d3 76bd
00000190: 017b c8bd efd2 c0bd 46ac a2bc f10f b03d
000001a0: be5a 98be e968 263e 340c 68bd f568 40ba
000001b0: 865a e5bd 175c 00bd 3699 3d3d c60c 12be
000001c0: a2c4 f63d a285 0fbe df7b 3a3d f948 27bd
000001d0: 0592 ca3c 449c f8bd 41b3 403e bba4 0ebc
000001e0: ae1f 4ebc 1063 4d3e 967c eebd cd68 e0bc
000001f0: 1536 ff3a 9b7f 583e 1031 7f3e e2c8 3fbd
00000200: b6d4 1dbd 49c5 7ebe 03f8 33bd a406 963e
00000210: c643 3a3e 2ffb 583e 6e08 853e b772 0d3e
00000220: 4781 673e f814 b73e f0e5 8bbd 4d04 45bd
00000230: eb18 203d 3b44 853e 3a80 803d e801 a6bd
00000240: b00d b9bd 3fc6 ba3d 5060 20be ebf5 9fbc
00000250: 9f05 0abe d198 81be 8075 2e3e 520f 7fbd
00000260: a340 44be 14ac 98be 9387 9b3d 0a8b a63d
00000270: c4f1 18be 4f58 86bc 088a c6bd 8996 2bbe
00000280: 3d71 bf3c 6216 c53d 216d e6bd 7062 093e
00000290: 48fb c33d e32a e43c 7011 2f3d 5b07 19bd
000002a0: c78b 5f3e 966c 01bd db3b 69be d25b a93d
000002b0: 9407 8a3d bccd 65be 1a60 8abd 3dd7 8b3d
000002c0: 9cc7 47bd 99ce db3d f407 36bd b119 743e
000002d0: 3e0a da3a 2791 b33d 559e 4f3d 7fa1 fc3d
000002e0: aeee 4ebd 8424 17be 6802 443e d123 edbd
000002f0: 7e8e 3dbe a0bd c83e fa1e dfbd 3e8a 7abe
00000300: e965 663e e20c 00bd 3170 23bd 0851 2abc
00000310: 3053 74bc 982c 233e a5c8 1fbe 2cde 423e
00000320: f0d6 003e a936 083d 0f24 8ebd 78f4 53bd
00000330: a773 5fbe 359f d4bd 2e20 14be 16f7 e93e
00000340: fc21 03be 72ab 76bb 6a97 843c a5d9 6fbe
00000350: 4906 39bd efce 7dbd 2de4 80be 2b3f 53be
00000360: 5929 173e 4fd7 923e b7e1 153d 39b4 90bd
00000370: 40cc bb3e ea0e 0d3e e560 91bd 5564 d13d
00000380: f910 9c3e 4eea debd eac3 253c df21 97bc
00000390: cbc6 593e fb2b a13d 26ab 9b3e cdb2 a8bc
000003a0: fcb6 5cbd 7cb4 7dbd e2a0 b9bd e4a5 92bd
000003b0: 6428 d5bd 2d96 f9bd 4d56 923e c0b1 5f3c
000003c0: b2ab c33c fe4e 1ebd 8836 603d 4631 ef3c
000003d0: 0924 2cbe 1b9d 4bbd 7ac1 2c3e 9141 433d
000003e0: 2a2e d9bd 98ba 643c c337 43bc fc9c 06be
000003f0: 9ba0 603b b22a 37bd 14fb 8e3d fc3d 103e
-0.09876693 0.028818082 0.15425043 0.057219572 -0.08978244 0.05013934 0.16614825 -0.054844204
-0.08309758 0.20277339 -0.02523401 0.020082748 0.14660938 0.21405736 0.003436593 0.0026970396
0.14851394 0.002330939 -0.19805145 0.08411805 0.17361909 -0.09288144 0.105386175 0.22921848
-0.11998544 -0.24604063 0.17588836 -0.22375923 -0.17568034 -0.13762926 0.063031495 -0.061140344
0.14271383 -0.14357352 -0.20022616 -0.039228916 -0.23900981 0.056779146 0.15593769 -0.051800143
0.077163786 0.018106166 0.05653558 0.16906685 0.03036905 -0.03592819 0.06365967 -0.047781188
0.03849402 0.09562972 -0.48515466 0.25850925 0.16037643 -0.11399197 0.12788066 -0.13435145
-0.16540794 -0.13422346 0.1403824 -0.028358681 0.2315984 0.09711297 0.094019584 0.013269103
-0.37818787 0.22017102 0.0767395 -0.061080627 -0.18012397 0.000104836465 -0.15720901 -0.19401115
-0.13261986 -0.015416319 0.07830336 0.07868131 0.07430088 -0.01718051 0.059399046 -0.10860897
0.115124024 0.06402775 -0.04791812 0.3182053 -0.17825069 0.13973095 0.14765133 0.21101978
0.04608223 0.19202961 -0.34153414 0.05237283 -0.07752629 0.16076624 0.34829867 0.018317906
-0.06283644 -0.1111448 0.030984588 -0.060259853 -0.09789086 -0.094152324 -0.019857537 0.085967906
-0.2975673 0.16250958 -0.056652263 -0.00073398586 -0.111989066 -0.031337824 0.04628869 -0.14262685
0.120492235 -0.1401582 0.04552829 -0.040841077 0.02472783 -0.1213918 0.1881838 -0.008706267
-0.012580795 0.2005732 -0.11644857 -0.027393723 0.0019471074 0.21142428 0.2492106 -0.046822436
-0.038532935 -0.24879946 -0.043937694 0.2930194 0.18189916 0.21189569 0.25982994 0.13813291
0.22607909 0.35758185 -0.068309665 -0.048099805 0.039086264 0.26028618 0.06274457 -0.08105832
-0.09035814 0.09119844 -0.1566174 -0.019526443 -0.13478707 -0.25311902 0.1703701 -0.06227047
-0.19165282 -0.29818785 0.07594218 0.08131988 -0.14935976 -0.01639953 -0.09694296 -0.16756643
0.023369426 0.0962341 -0.112512834 0.13416457 0.095694125 0.027852481 0.04274124 -0.03736053
0.21830665 -0.031597696 -0.2277674 0.082694665 0.06739727 -0.22441763 -0.06756611 0.06828163
-0.048774347 0.10732765 -0.04444118 0.23837925 0.0016635132 0.0876792 0.050688107 0.123354904
-0.05052059 -0.14760023 0.19141543 -0.11579097 -0.18511388 0.39207172 -0.1089458 -0.24466798
0.22499813 -0.031262286 -0.039901916 -0.010395296 -0.014912412 0.1593498 -0.15603884 0.19030064
0.12581992 0.033255253 -0.069404714 -0.051746815 -0.21821462 -0.10381929 -0.144654 0.45696324
-0.12805933 -0.003763881 0.016185481 -0.23422869 -0.04517201 -0.061964925 -0.25174084 -0.20629565
0.14761867 0.28679892 0.03659221 -0.07065625 0.36679268 0.1377522 -0.07098559 0.10224215
0.304817 -0.10884534 0.01011751 -0.018448768 0.2126724 0.07869717 0.30404013 -0.020593071
-0.053885445 -0.0619397 -0.09063889 -0.071605474 -0.104080945 -0.12186847 0.28581467 0.013653219
0.023885582 -0.03864955 0.054739505 0.0291983 -0.16810621 -0.049710374 0.1687068 0.04766995
-0.10604508 0.013960503 -0.01191515 -0.13145822 0.0034275416 -0.04471845 0.06981483 0.14086145

linears.2.bias f4 [50]
00000000: 2e2b 7abe 7243 983e 592e 133e bc2e 44bd
00000010: 756e 17bd 5a54 a53e 75e7 19be 4a0d 9b3e
00000020: a170 08be 8300 26bd 2ecb e8bc 639c 113d
00000030: 4d10 863e 8499 0b3e 4ac6 263e 69a1 22be
00000040: 972f 17be 136a c03d 41fe 13be d1b1 a7bc
00000050: b4ce b7bd 68cc 44be 2348 d6bc a15c cd3d
00000060: 82c0 cdbd 4628 b7be 1919 15be e02a bd3c
00000070: 08b7 2fbe 0f4d b63d 3a2d 77be 8be4 2b3e
00000080: f3d5 94bb 0c62 bbba b236 7e3e 599d da3c
00000090: 08f7 2fbe f6c2 9ebc 067c 06be 94cd 693d
000000a0: f1ab 253e 684b 60ba b23a b23d b1ae 083f
000000b0: 6588 d93c da43 adbc 4d6c 9abc 0dc3 00be
000000c0: f047 6b3e 04d8 0abe
-0.24430534 0.29738957 0.14373149 -0.047896132 -0.036970574 0.32290918 -0.150297 0.30283576
-0.13324215 -0.04052783 -0.028417196 0.035549533 0.26184312 0.1363278 0.16286579 -0.15881886
-0.14764248 0.09395232 -0.14452459 -0.020470532 -0.08974972 -0.192186 -0.026157444 0.10027433
-0.100464836 -0.35772914 -0.14560355 0.023091733 -0.17159665 0.089014165 -0.24138346 0.16786401
-0.0045421063 -0.0014296188 0.24825552 0.026686357 -0.17184079 -0.019380074 -0.13133249 0.05708082
0.16178872 -0.0008556158 0.087026015 0.5339156 0.026554296 -0.021150518 -0.01885047 -0.12574406
0.2297666 -0.13558966

linears.3.weight f4 [50, 50]
00000000: e97a 68be c29e 6cbc 4a48 d2bd e75c 2dbe
00000010: 9a55 453d b650 c7bd 5a49 a5bc 754a 983d
00000020: bcc4 3b3e 64a3 0a3c f683 02bd e838 663d
00000030: 90bd f03d 3fb0 313d 9644 373e fe2c 8a3d
00000040: a41a 2dbe 65c0 30be 5937 343e 60af a0bd
00000050: 0b96 3e3d c9c7 c83d acea cdbc 3e60 19be
00000060: f98f 2b3d a384 93be e50b 3dbe a161 b4bc
00000070: b38c cdbc 5e38 ea3d 140e 61bc 94b0 58bd
00000080: 3d1c 80bd f95d ee3d c415 a93e ca9b 93bd
00000090: 1077 b4bd f5d6 0d3e 1d42 6fbe 0b87 5abd
000000a0: 84ed 7e3d 5e22 87bd 2828 763e 13d3 2a3b
000000b0: 2dea 143e 9c35 55be b727 4c3b dc22 d5bd
000000c0: 724f e63d 764c 26be a5cc 61bd a791 04bd
000000d0: 9123 3ebd f29e 2f3c cb01 143c 9d10 e8bc
000000e0: f333 243e b7c6 233e fb48 96bc 427d 883d
000000f0: 4b71 893d 5df7 78be e455 26be f8ef aebd
00000100: d81b 2bbe 9570 933d e909 0f3e fa39 8f3d
00000110: 52a7 b1bd 5fd0 0a3e 3893 3bbc e41d 45bd
00000120: b9ed 243e b242 983d 2830 f53d 5f60 e0bb
00000130: 74d5 273c 7537 cebd 6c4c 80bc 8ab5 6abe
00000140: 6d77 8c3d b66c 403d 4097 e2bd 8e16 c93d
00000150: 56d3 e03d 72e1 d0bd 6987 803e 6efb 063e
00000160: 9041 383e 7167 a43d c89e 853d 9c3d a43e
00000170: c42e bbbd 9cd1 30be 92f1 9bbd 7f80 653e
00000180: 72f1 9bbe 3d87 1dbd d096 5e3d f648 7e3e
00000190: 34cc f7bd 23e9 03be 0417 083e 668e 923e
000001a0: 5754 293e d370 64bd f9ed e13c b98f 9ebd
000001b0: 925a dc3d 2b17 f6bc 23e6 08be f1a1 a73d
000001c0: bb50 9bbd 9267 f1bd dbb5 8cbe 2692 f339
000001d0: aab7 c83d 228b e0bd 5603 8f3d 301c 243d
000001e0: bead 99be 51e8 4f3e cdef 47be 95ef a63d
000001f0: bacf fe3c 5fcd ec3d 850e 253e 4517 c2bd
00000200: 0ec9 dd3d d128 87bd 91b3 023e a3f0 26be
00000210: 6e8f 27be 3c5a 893d 1db8 b4bd ae0d 623d
00000220: 8405 e7bd 0389 ef3d ba69 cd3d 66ce c0bd
00000230: b100 673b 15f5 43be 41fb 003e 2433 e13d
00000240: 98c7 723e 533c e9bd 9dae fbbc ca38 03bc
00000250: 9541 5abd 27f5 473d c47d b5be f792 733e
00000260: 44ed 313d c1aa 093e afde a4bd 3f0d 4f3e
00000270: 3308 71be 6c2d ce3e 9920 a8be d2b5 07be
00000280: 1ce7 583a 2d4b 3a3e dce4 723e 1c29 b63c
00000290: e999 b43e 6daa adbc 6c08 68be 637f 56be
000002a0: c2ad 35be 3ae7 f33d de5a a43b 28a5 13be
000002b0: 1725 87bd d4be 233e fce8 3dbd e8a3 01be
000002c0: b170 51bd a44d 99bd a5a9 b63d 706b 70bc
000002d0: 9aa7 eebd d0fc 043b c36c 6e3e 0654 00be
000002e0: 2aba fb3d 0cc9 d43d 547b 3dbe 1ce4 b03d
000002f0: 4f2a 033e ebe0 4a3e 573b 40bc f5a2 7d3d
00000300: 9148 223e 5f62 203f 3463 2bbd 8019 25be
00000310: f034 c6bc f716 63be a7db b63e 0fd0 9ebe
00000320: b538 ea3d 997c 223e 84e3 94be d4f3 2a3e
00000330: 14d0 16be 17b9 d0bd e2fa 3ebc 52f7 87bd
00000340: ef16 07be 8c95 2dbd a9fc bcbd 9887 3bbd
00000350: 6547 49bd d9f5 22be ac0f 0d3d e0ab 433c
00000360: 3a49 66be 3590 ca3d bea5 94be b7f0 013d
00000370: df81 97bc 2f08 753b adfa 8dbd 50e2 b0bd
00000380: f795 30be 4c57 a03d 8011 973e 15a4 79bd
00000390: a998 70bc 92da 73be a776 2e3e 1977 bebc
000003a0: 7090 883d a9a5 a0be 85b8 00be 70be c03d
000003b0: 20bc 403e 0e9d f5bd cfaf 723d c177 f7bd
000003c0: ffdf bd3d 2ce0 c9bc fb0d 19bd 8d50 f6bd
000003d0: 5c2e 1c3e 6e51 1abd 681a c43b a59e 1b3e
000003e0: 8125 61bb ef20 b83c 8a1f ef3d 546c a03d
000003f0: 4fbb 77bd cd6d 863d 8da1 71be 4dbb 89bc
-0.22703137 -0.014442148 -0.10267694 -0.1692997 0.04817734 -0.09732191 -0.020176578 0.074360766
0.18336767 0.008461807 -0.03186413 0.056206614 0.11754906 0.043380972 0.17897257 0.06746863
-0.16904694 -0.17260893 0.17599238 -0.0784595 0.04652981 0.09803731 -0.025136314 -0.1497812
0.04188535 -0.2881213 -0.18461569 -0.02201921 -0.025091505 0.114365324 -0.013736267 -0.052902773
-0.06255386 0.116390176 0.33024418 -0.07207449 -0.08811772 0.13851531 -0.23365064 -0.053351443
0.06223823 -0.06598352 0.24038756 0.0026065751 0.14542456 -0.20821232 0.0031151602 -0.104070395
0.11245622 -0.16240105 -0.055126805 -0.032365467 -0.046420638 0.010719048 0.009033631 -0.028328234
0.16035442 0.15993772 -0.018345347 0.06664516 0.06711062 -0.24313112 -0.16243702 -0.08541864
-0.1670984 0.07199208 0.13968624 0.0699348 -0.08674492 0.1355605 -0.011448674 -0.04812421
0.16106309 0.07434596 0.11972076 -0.006847426 0.010243762 -0.10069171 -0.01566144 -0.22920814
0.06858716 0.046978675 -0.11064005 0.09818755 0.10977809 -0.1019925 0.2510331 0.1318185
0.1799376 0.080275424 0.06524426 0.32078254 -0.09139779 -0.1726746 -0.07614435 0.22412299
-0.30457646 -0.03845905 0.054343045 0.2483252 -0.120994955 -0.12881903 0.1329003 0.28624266
0.1653608 -0.05577166 0.027579295 -0.07742257 0.107594624 -0.030040344 -0.1336904 0.08185185
-0.075837575 -0.117873326 -0.27482495 0.0004645746 0.09800656 -0.109640375 0.06983058 0.040065944
-0.30015367 0.20303465 -0.1952507 0.081511654 0.031104911 0.11562609 0.1611882 -0.094770946
0.10829364 -0.06599582 0.12763812 -0.16302733 -0.16363308 0.06706664 -0.08824179 0.055188827
-0.11280349 0.11696055 0.10029931 -0.094143674 0.0035248215 -0.1913646 0.12595846 0.109960824
0.23708951 -0.11388459 -0.03072291 -0.008009145 -0.0532852 0.04881778 -0.35447514 0.23786531
0.043439165 0.13444044 -0.08050286 0.20219897 -0.23538284 0.4026903 -0.3283737 -0.13252953
0.0008274184 0.1819274 0.23720115 0.0222364 0.35273674 -0.02119943 -0.22659463 -0.20947032
-0.17742065 0.11909337 0.005015715 -0.14418471 -0.06598871 0.15990764 -0.04636477 -0.12660182
-0.05113286 -0.07485512 0.08919076 -0.014674053 -0.11653061 0.002029229 0.23283677 -0.12532052
0.12291367 0.10389909 -0.18504077 0.086372584 0.12809108 0.19812362 -0.011732898 0.061922986
0.15847994 0.626501 -0.041842654 -0.16123009 -0.024195164 -0.22176729 0.35714456 -0.3101811
0.11436597 0.15867843 -0.2907983 0.16694576 -0.14727813 -0.10191553 -0.011656495 -0.066389695
-0.13192342 -0.042378947 -0.092278786 -0.04578361 -0.049140353 -0.15914096 0.034438774 0.011942834
-0.22488871 0.098907866 -0.290327 0.031723704 -0.018494545 0.003738891 -0.06932578 -0.08636916
-0.17244707 0.078291506 0.2950554 -0.060947496 -0.0146848345 -0.23813847 0.1703745 -0.02325015
0.06668174 -0.3137639 -0.12570389 0.09411323 0.18821764 -0.119928464 0.059249695 -0.12083388
0.092712395 -0.024643026 -0.03736685 -0.120270826 0.1525206 -0.037675314 0.005984593 0.15197237
-0.003435463 0.022476641 0.116759375 0.07833162 -0.060481366 0.065639116 -0.23596783 -0.016812945

linears.3.bias f4 [50]
00000000: c8c9 873d 7bca 723d 8bff f3bd 1efa 173f
00000010: 0d22 46bc 66c2 9b3d 0f30 34bd 0b26 7bbd
00000020: 3bac 153d 865e 873e 9cdd dcbd 7852 09bd
00000030: 51c9 0d3d bf71 d9bd 32c3 95bd 03e1 a1bd
00000040: aaef a9bd 6e25 a1bb b427 8f3e bef9 8e3d
00000050: d72a e9bd 3845 14be 0f54 373e d972 a4bd
00000060: f7c1 ee3c 69cd 313e 60e4 00be d494 33bd
00000070: 7869 37be 3d37 abbd 6695 be3c ea95 92bd
00000080: 9c03 f1bd c7f4 243e 5f5c 6d3a b1ad 29be
00000090: 9270 d3bd efcd 78bd 9c01 253c f8f3 ed3b
000000a0: 266a 0cbe 1bd7 d03e fca7 b83d 29f5 343e
000000b0: aaa0 4fbc 6ac1 b53c 826f 743c 0e21 8a3e
000000c0: 53c5 933e fec9 2bbd
0.066302836 0.05927513 -0.11913975 0.59366024 -0.012093079 0.07605438 -0.043991145 -0.061315577
0.036541205 0.26439303 -0.10784456 -0.033525914 0.03461582 -0.106173985 -0.07312621 -0.07904246
-0.082976654 -0.004917792 0.2795998 0.06981228 -0.11385124 -0.1447953 0.1790316 -0.08029718
0.029145224 0.17363514 -0.12587118 -0.043843105 -0.17911327 -0.08360145 0.023264598 -0.071575
-0.117682666 0.16109 0.0009054597 -0.16570164 -0.103242055 -0.06074327 0.0100711845 0.0072617494
-0.13712367 0.40789112 0.090164155 0.17671646 -0.012672583 0.022186954 0.014919164 0.26978344
0.28861484 -0.04194068

linears.4.weight f4 [50, 50]
00000000: df08 cfbb 72e1 2dbe 0ca6 453d 0051 523e
00000010: a791 eb3d 5574 c33d 8838 36be 2e2d b3be
00000020: bceb c83a 59f8 8cbd 0dc6 b6ba 80c1 0a3e
00000030: 9c45 8dbc 9f12 e4bc a902 5fbe fe5f 01be
00000040: 168b 443d 3805 0abe f673 fbbd 3fb1 e43e
00000050: 8b58 45be 8a64 563c bde3 47bd f4d8 07bd
00000060: c9cc 81bd e35d 833d eb5e 7bbe 70a2 dfbc
00000070: 30ef 9f3d 1a97 67bd d9f9 6cbe 9004 ccbe
00000080: 3b6f 683e b728 883e 821f 243c 1c82 9ebe
00000090: fe47 bbbe 303d 2c3e 3831 423d b9fd 573d
000000a0: c6aa 123d b19b 063e 6609 1bbe c87d c53d
000000b0: b8d4 00be e047 e5bd cd7a 94be c88f 8abc
000000c0: b553 ad3c b8dc 333e 47db 463e 233f 3d3d
000000d0: 54b8 09be 20c4 b33d 5c83 5a3d 2d3c 5e3e
000000e0: 66b7 de3c eea7 2fbe 84fb 953c 29d3 fe3c
000000f0: e242 27be b404 563e b23a c1bb 3d54 0dbe
00000100: 6a0d 003e ee84 25be a17f 2a3c e28b c33d
00000110: 0ede e9bd 49ab 03bc 4786 9abd d605 923b
00000120: 7234 aa3d 41e1 3e3d f9fa 003e b04a 133e
00000130: 25b8 6fbd d502 0abe 0e75 f5bd d83a 48be
00000140: e359 12bd 4ceb 8b3d ae83 043c 9e06 333b
00000150: 3185 b8be f611 ee3e 82ac 8cbd 9804 a7bc
00000160: 84da c8bd 0129 353d 4262 cdbd 2835 4abd
00000170: 3fed a13d 2784 fbbd 1a91 06be b27f d4bd
00000180: f8d8 c83d 6a16 2fbd ce4e 653d dd68 d63d
00000190: 2a65 45be a2c6 1dbe 4f29 443b c490 1c3e
000001a0: 06ce 353d 7087 c93e be09 6fbe 0f7a efbd
000001b0: 5401 cd3e ea84 8abd 5cba 2dbc f32f 31be
000001c0: 24d6 1ebc a9e5 443d fbfb 243d 601c 23bd
000001d0: 5f2e 313e 4b7b 513c fca9 803d 22f2 67be
000001e0: acfb 69bd 9140 8bbe d163 48be 7fbb 2f3c
000001f0: 5f96 233e 3064 dcbd c449 36bc 96da 71bc
00000200: 1ce4 d03d 353f d1be 0b51 9dbe c968 c1bd
00000210: 1819 1bbe 2263 133e ac4d e7bd f304 d43c
00000220: ae71 c1bd a45a 7bbe 20c5 213d 2e38 80bd
00000230: 75d1 48be 234f a63e 1848 193e e37d adbd
00000240: 2a31 eb3d f146 4f3e 27c6 263d 93b9 963d
00000250: f6f8 db3d dc74 06be 0b24 903d fdf2 c3bd
00000260: 9ce9 3ebd 7cb9 62bd 0adf 413e fddc d33d
00000270: 1e33 8cbd f213 7e3d 4235 db3d cd2b 203e
00000280: abd6 d43d c3f1 acbd c6dd 5e3e 33c8 293e
00000290: 2323 65be 5d1e 9e3d 555b 63bd 7bef 613d
000002a0: 1075 a5bd 2386 933e 895e 073d 1047 17bd
000002b0: b6e3 ae3d df69 a33d 82b2 963b d293 4c3e
000002c0: 3d92 b53d 564f cc3c c716 b03c 4b99 64be
000002d0: 536c b23e 53ed d3bd e8c8 1dbc 68a5 503e
000002e0: 1f87 333d e2d6 103e df95 87bd 6bfb 543e
000002f0: 607d 9b3e ebc9 1ebc 24c6 223e f325 573c
00000300: b47b 45bd f44e f3bd d661 393c bfe4 b63b
00000310: 8c83 4a3e 9c9d 203e 9acc f7bd f88e 54bd
00000320: 7cfc 573d fa53 c2bd 7eee 34be b9a1 d93d
00000330: 7034 87bd 9d49 00bd 4ffc 2cbe ebc9 893e
00000340: 2b5c 2ebd a02e b53c eec1 023e 9a3a 0abd
00000350: 47d5 303e bc00 e23d f7d3 25bc eb77 0b3d
00000360: 89dc cebd 8df4 b93d 3673 e13e e421 3dbe
00000370: 2c9a b2bd 7859 57be 7a45 833e 5f50 84be
00000380: fe3e a3bc 64fd 7c3e 199b a23d 6027 743c
00000390: 4f98 ea3d 6e2c 943e f1d7 733e 7b96 093e
000003a0: 9f0a 953c d628 8cbd 4a63 823d 17e5 a73d
000003b0: c919 17be 4b5d b2bd 6fa4 a7be 7bda 8fbe
000003c0: 7964 823c 0aa6 8c3e 3157 323d 34f8 f8bd
000003d0: a2eb 333d 52d6 b2bd 82f0 78be 9a09 9abd
000003e0: 2777 a6bd 51d5 96bd 4114 d23b ecab 023c
000003f0: 6d4c 403d a3f0 81bd c497 fbbd cb37 693b
-0.006318196 -0.16980532 0.048254058 0.20538712 0.1150239 0.09543673 -0.17795002 -0.34995407
0.0015329043 -0.06883306 -0.0013944522 0.13550377 -0.017245106 -0.02784091 -0.21778359 -0.12634274
0.047984205 -0.13478553 -0.12277977 0.44666478 -0.19272058 0.013085494 -0.048801173 -0.033165887
-0.06337888 0.06414392 -0.24547927 -0.027299136 0.07809293 -0.056540586 -0.23142184 -0.3984723
0.22698681 0.26593563 0.010017278 -0.3095864 -0.36578363 0.16820216 0.04741022 0.052732203
0.035807393 0.13145329 -0.15140304 0.096431315 -0.12581146 -0.1119535 -0.2899994 -0.016914263
0.021158079 0.17564666 0.19419585 0.04620279 -0.13449222 0.08777642 0.05334793 0.21702643
0.02718706 -0.17153904 0.018308409 0.031106548 -0.16334108 0.20900232 -0.0058968896 -0.13801666
0.12505117 -0.1616399 0.010406406 0.09548165 -0.11419307 -0.008036443 -0.075451426 0.004456262
0.083107844 0.046601538 0.12595738 0.1438396 -0.058525223 -0.13477643 -0.11985217 -0.19553697
-0.035730254 0.06831989 0.0080880355 0.0027317177 -0.36039117 0.46498078 -0.06868841 -0.020387933
-0.098073035 0.044228557 -0.10028507 -0.0493671 0.07906579 -0.122810654 -0.1314129 -0.103759184
0.098070085 -0.042745985 0.055983357 0.1046922 -0.19276872 -0.15407804 0.0029931848 0.15289599
0.044385932 0.39361143 -0.2334356 -0.11693203 0.40040076 -0.067636326 -0.010603514 -0.17303447
-0.00969461 0.048070583 0.04027937 -0.039821982 0.17302845 0.012785743 0.06282422 -0.2265096
-0.05712478 -0.27197698 -0.19569327 0.010725855 0.15975331 -0.10761297 -0.0111259855 -0.014761588
0.101997584 -0.40868536 -0.30725893 -0.09443814 -0.15146291 0.14393285 -0.112941116 0.025881266
-0.09445511 -0.24546295 0.039494634 -0.062607154 -0.19611152 0.32482252 0.14968908 -0.084712766
0.11483987 0.20241906 0.040716317 0.07359614 0.10740845 -0.13130516 0.07038125 -0.09567831
-0.046609506 -0.055352673 0.18932739 0.103448845 -0.06845687 0.06203074 0.107035175 0.15641709
0.10392507 -0.0844455 0.21764287 0.16580276 -0.22376685 0.07720635 -0.055507023 0.055160027
-0.080789685 0.28813276 0.03304914 -0.036933005 0.08539526 0.07979178 0.0045989165 0.19978264
0.08865783 0.024940174 0.021495236 -0.22324102 0.3484827 -0.103480004 -0.009630419 0.20375597
0.043830033 0.14144471 -0.066203825 0.20799033 0.3036909 -0.009691696 0.15895897 0.013131606
-0.048213676 -0.118802935 0.01131483 0.005581468 0.19776744 0.15685123 -0.120995715 -0.051894158
0.052731022 -0.094886735 -0.17669103 0.10626549 -0.066017985 -0.031320203 -0.16893123 0.26911864
-0.042568367 0.02211696 0.12769291 -0.033747293 0.17268859 0.11035296 -0.010121337 0.03404991
-0.101006575 0.090798475 0.4403321 -0.1846996 -0.08720812 -0.21030223 0.25638944 -0.25842568
-0.019927498 0.24706036 0.07939739 0.014901966 0.11454832 0.28940147 0.23812844 0.1343631
0.018193541 -0.06843726 0.06366594 0.08197992 -0.1475593 -0.087092005 -0.3274264 -0.28096375
0.01591705 0.27470428 0.043540183 -0.12156716 0.04392589 -0.087322846 -0.24310496 -0.075213626
-0.08128195 -0.073649056 0.006411106 0.00797556 0.046947885 -0.06344726 -0.12284806 0.0035586234

linears.4.bias f4 [50]
00000000: 783d a63d 10f4 86bd e46c 2e3e 1904 a9bb
00000010: a6f1 adbc 0ab3 4e3e f1f0 c03d 08fa 14be
00000020: 6ab2 093e 4051 d8bc 210a c73d b9e6 433e
00000030: 3ce2 e7bc 1b6b 9d3e cf3f be3d 9974 603e
00000040: bf87 393d 29f1 933c 4341 31bd d107 7dbb
00000050: d147 4d3d aae1 08be 4326 f83d 694a d03d
00000060: 3df4 5dbd 1a02 8f3c ad40 01be 8950 5cbd
00000070: 4253 4c3e 6f37 eebc 82be 65bd b20f f2bd
00000080: 36c8 243e 3457 c5bc 039e 6bbe b179 88bb
00000090: 23d0 0e3c 0f5b 163e 6a0f 3b3d bafe c03d
000000a0: 899b e5bd 50b5 083e 4335 87bd 0683 b63b
000000b0: 5676 633e b70b b8bd 52e4 0ebd 445b c63c
000000c0: f51c 7b3e 72ab 18be
0.08117193 -0.0658952 0.17033726 -0.005157959 -0.021233391 0.20185485 0.09420956 -0.14548504
0.13446966 -0.02640593 0.09718729 0.19130982 -0.02830612 0.30745777 0.09289514 0.21919478
0.045295473 0.01805933 -0.04327513 -0.0038609395 0.050117318 -0.13367334 0.12116673 0.101704426
-0.054188002 0.017457057 -0.12622328 -0.05378774 0.19953635 -0.029079167 -0.056089886 -0.118194
0.16092 -0.024089433 -0.23009495 -0.0041648974 0.008716616 0.14683174 0.045668997 0.09423585
-0.112113066 0.13350415 -0.06601956 0.0055698184 0.2221311 -0.089866094 -0.034885712 0.02421344
0.24522765 -0.14909151

linears.5.weight f4 [50, 50]
00000000: a47c 993c b047 9cbd 131e 673c f13b 3ebe
00000010: 37c2 4dbe 0db2 173d e557 a6bd 476d 9ebd
00000020: 4090 e03c 545c d23d 3765 663d 0166 34bd
00000030: e85e 773e 2323 cebe 415b a8be cae6 92be
00000040: d966 763d 67b5 45bd 94ea 053e d652 483d
00000050: 6e77 523d 9c7d cf3d c02e 5bbe 10f2 5bbe
00000060: c614 433e 6163 08be 57dc 1b3c 12e6 98bc
00000070: d9ea a4be fd1f 8fbd eff4 cdbd be33 513d
00000080: 252a 55be ff75 033d 832d da3d 6e58 0dbe
00000090: c76c aebd 2cfa 0ebd e651 d03c 61b9 47be
000000a0: 8d02 42bd 6fae 24bd 44cc df3c 802a 033d
000000b0: aa61 a53e ac85 65be 0f91 e93d b418 64bd
000000c0: fd59 74be a752 833d 1a21 10be ecff 43be
000000d0: 094c 4e3c 2558 94bd 2893 1ebe c60e 57be
000000e0: 9220 51be 63b3 3dbd 0996 32be 0591 9bbc
000000f0: fbed b8bc 1269 b8bd dc16 20bd 530f 90be
00000100: f997 2ebe 65bd 15be d4c4 6c3e 8b84 09be
00000110: 784f 19bd dcb8 79be 1ea4 98bd e3af ea3c
00000120: 60cd 20be 4e18 cb3d 1399 033e 4227 b03d
00000130: 7aee 033d 7941 003d ae50 a2bb 7550 063d
00000140: fa4b 9abe 893b 96be ded4 cabd bd5c 2bbe
00000150: d843 01be 9568 d23d b7c1 5a3e b238 ddbd
00000160: 0f85 9cbe 5779 0abe de8b c2bd e2f1 2cbe
00000170: c464 343e c698 b0be d7ba 81be 93dd c03d
00000180: 867e bebd 3830 0dbe 9e89 9bbe 5d27 333d
00000190: f8d7 7dbe 5758 a03d e674 3bbd 58f7 debd
000001a0: 3cf7 f13d eba4 993d 3428 433e 95de d33d
000001b0: e717 bd3c d206 7ebd 1b7c 12be 0ad3 00bb
000001c0: 258a 4fbd ebfc e3bd fc98 b73d f7b7 95bd
000001d0: 1090 053c 5ee9 663c ad2c da3d c745 573c
000001e0: 1f05 863e 9a06 09bd 1173 5abe 62a5 9fbd
000001f0: 4080 c53d fe4c 90bd 2fb6 8c3e 93bd 59be
00000200: c144 6dbd 5e71 84bd 9f70 973d 33da 553d
00000210: 3258 8f3e a851 213e 06e1 07be 0952 8dbe
00000220: 81d4 5abe 0d86 9f3e 1fc2 673e d3ca eebd
00000230: b036 b43c 7432 e93d 07dc ccbc bf93 b23c
00000240: a406 e0bd 2846 10be 715d b83c 664a 2fbe
00000250: 0170 afbc e806 2d3d 4073 733e c093 8cbc
00000260: 8dfe 82bd a191 ef3d bb5b 33be 8f69 ab3a
00000270: 03b1 833e 1e60 3d3e c30e 563e 6e68 213e
00000280: 6267 773d edd1 a9bb f15a f3bd 49f2 613e
00000290: dcea d33a c5be ac3e 20c5 983d 2b1c 2a3e
000002a0: 6638 c8bd 3ab3 263e 45a1 a5be ee26 afbe
000002b0: 3b5e dd3d ef79 3dbd 22fe 55be 5278 863d
000002c0: e899 253e e313 133e 7ff8 f53e 4064 14be
000002d0: dda5 8abe 2f8e e03d 7ee8 f43b 13cc a63d
000002e0: 2b7f cabd 8ff3 1ebe 6753 75be 26ff 823c
000002f0: 19b8 48be 8a85 24bd 6ab2 f43d a8be 5cbd
00000300: 9301 0ebd b360 69be 505b 123d b9b8 4a3e
00000310: 2631 94bc 0e09 743e 8e05 8d3c 3318 03be
00000320: d03d 293c d49e e8bb c7b6 d0be 1cff b0bd
00000330: 31a3 9c3e 3775 863e c84a 713e a153 02be
00000340: 7757 0a3e cff5 68be 577d 023c 19a2 51bc
00000350: 598a 5b3e 62c7 a73e 1eca 943e ec03 28be
00000360: d24e 0ebe bed6 53bd 4347 6e3d e077 5f3e
00000370: 551c 45be d44d c13d 392b 283e 9982 983c
00000380: 40ca ae3e b3df bc3b 03bb be3d a156 81bd
00000390: 4e9f dabe e990 2a3e 0670 1fbd 4292 aa3d
000003a0: 5afa 193e 9551 6c3d 5c20 3c3e 5be9 56be
000003b0: 07d7 5e3d 394e fe3e 5d1f 983e c41b 7fbc
000003c0: 53b2 913d 42c0 bf3d 7355 543d fa12 8cbe
000003d0: cf04 1fbe 1854 0e3e 6350 77be 6146 2a3c
000003e0: 5210 81be 6455 053d 3bcc 7a3d f7da 6d3c
000003f0: 1f8d 7dbe 475c acbd ca80 08be a0af e73d
0.018736191 -0.07630861 0.014106291 -0.18577553 -0.20093618 0.037035037 -0.08122233 -0.07735687
0.027412534 0.102715164 0.05624887 -0.04404259 0.24157298 -0.40261182 -0.3288212 -0.28691703
0.060156677 -0.048268702 0.13077766 0.048907124 0.05138343 0.1013138 -0.21404552 -0.21479058
0.19050893 -0.1331916 0.009512982 -0.018664394 -0.32210425 -0.06988523 -0.10056483 0.051074736
-0.20816858 0.03209495 0.10653212 -0.13803264 -0.085168414 -0.03490655 0.025429677 -0.1950431
-0.047365714 -0.040205415 0.027319081 0.032022953 0.32301074 -0.22414273 0.11404621 -0.05568762
-0.23862453 0.06412249 -0.14075127 -0.19140595 0.01259137 -0.07243375 -0.15485823 -0.2100173
-0.20422581 -0.046313655 -0.17440046 -0.01899005 -0.022574415 -0.090044156 -0.0390843 -0.2813669
-0.1705016 -0.1462303 0.23121959 -0.13429467 -0.037429303 -0.24386925 -0.07453178 0.028648322
-0.15703344 0.09916745 0.12851362 0.08601238 0.03220985 0.03131244 -0.0049534654 0.032791574
-0.3013609 -0.29342297 -0.099038824 -0.16734596 -0.12623537 0.10273854 0.21362959 -0.108018294
-0.30570266 -0.1352285 -0.09499334 -0.16889146 0.17616564 -0.34491557 -0.2533786 0.09417262
-0.09301476 -0.13787925 -0.3037843 0.04373871 -0.24789417 0.078293495 -0.04576578 -0.10887021
0.11814734 0.07502159 0.19058305 0.103451885 0.023082687 -0.062018223 -0.14305155 -0.001965704
-0.050668854 -0.11132225 0.08964726 -0.07310479 0.008152023 0.014093725 0.106530525 0.013139195
0.26175782 -0.03345356 -0.21332957 -0.07795216 0.09643602 -0.07045935 0.27482745 -0.21263723
-0.057926897 -0.064669356 0.07394528 0.052210044 0.27996975 0.15753806 -0.13269433 -0.2760165
-0.21370126 0.3115696 0.22632645 -0.116597794 0.021998733 0.11386576 -0.025007261 0.021798966
-0.109387666 -0.14089262 0.022505494 -0.17118225 -0.021415712 0.042242914 0.23774433 -0.017160296
-0.06396208 0.116976984 -0.17515461 0.0013077724 0.25720987 0.18493697 0.20904069 0.15762493
0.060401328 -0.005182496 -0.1188258 0.2206508 0.0016168016 0.33739296 0.074594736 0.16612308
-0.09776382 0.16279307 -0.323496 -0.34209388 0.10808989 -0.046258863 -0.20897725 0.06565918
0.16171992 0.14363055 0.4804115 -0.14491367 -0.2707967 0.10964619 0.0074740043 0.08144393
-0.098875366 -0.15522598 -0.23957597 0.015990805 -0.19601478 -0.040166415 0.11948092 -0.05389276
-0.03466947 -0.22790794 0.035731614 0.19797029 -0.018089842 0.23831579 0.017214563 -0.128022
0.010329679 -0.007099012 -0.40764448 -0.08642408 0.30593255 0.26261303 0.23563683 -0.12727214
0.13509928 -0.22750019 0.007964454 -0.012794995 0.21439494 0.32769305 0.29060453 -0.16407746
-0.13897255 -0.051718466 0.05817343 0.21823072 -0.19249089 0.09438673 0.16422738 0.018616961
0.3413868 0.0057639717 0.093130134 -0.06315351 -0.42699665 0.16656841 -0.038925193 0.08328678
0.15036908 0.05769499 0.18371719 -0.20987456 0.054404285 0.49669054 0.29711428 -0.015570585
0.07114091 0.09362842 0.051839303 -0.27358228 -0.15529178 0.13899267 -0.24151759 0.010392756
-0.25207764 0.032552138 0.061229926 0.014517537 -0.24760865 -0.08416038 -0.13330379 0.11312795

linears.5.bias f4 [50]
00000000: b109 eabd e738 72bd af08 bc3d da6b e13c
00000010: 2f86 bb3d 80a1 f9bd 0784 dabd 3c5c 683d
00000020: e253 1e3e 1d73 99bb 721b b3bc 182e 2ebe
00000030: 08fc 953e 7ac9 4bbe 9a99 703c 12df f23d
00000040: c93e 483d a311 39be 8ea0 7d3c 31b0 843d
00000050: 469b c23d 2461 e9bc 3757 6bbd 80cf 343e
00000060: e86e c53d 1979 3cbd 611b 94bd 643a 25be
00000070: ab14 623d c38c b63d 3d5d 9f3b 87b5 04be
00000080: 442a b6bc 0e5e 7c3d 4e12 213e d2c5 2c3d
00000090: 2833 a43d b6d2 1d3e bd47 173e 0521 3c3e
000000a0: 5797 6b3d 41b5 32bd 54ee 04be 6efe 09bd
000000b0: 03f1 c5bd b25b 193e b1bb 37bd 52d7 17ba
000000c0: 60e0 363d ee83 00be
-0.1142763 -0.059136298 0.09181344 0.027517248 0.09156453 -0.12189007 -0.106697135 0.056728587
0.15461686 -0.004682912 -0.021863673 -0.17009771 0.29293847 -0.19901076 0.014685059 0.118589535
0.048888 -0.18073134 0.015480174 0.06478918 0.09502272 -0.028488703 -0.05745622 0.1765728
0.09640294 -0.046013925 -0.072317846 -0.16135556 0.05519549 0.08913567 0.00486341 -0.12959872
-0.02223695 0.061613135 0.15729639 0.042180844 0.0801757 0.15412411 0.1477346 0.18371971
0.057517376 -0.04362989 -0.1298154 -0.03368991 -0.0966511 0.14976385 -0.04485673 -0.0005792278
0.044647574 -0.12550327
