Archived Code/Stan TPAMI/3D/stan_tune/3D_HTTP_stan_tune7_1.pt (torch, 90790 bytes, 20 tensors)

beta f4 [50, 9]
000000 ab 38 79 3f 42 1f 7d 3f 76 54 82 3f 31 6b 82 3f
       0.97352093 0.9887582 1.0182025 1.0188962
000010 79 55 82 3f 6b 15 7e 3f 1a bf 77 3f ae 12 81 3f
       1.0182334 0.9925143 0.9677597 1.0083826
000020 59 02 6e 3f a9 05 81 3f f6 2b 80 3f cf 4f 81 3f
       0.9297233 1.0079852 1.0013416 1.0102481
000030 54 99 7b 3f f4 05 7f 3f fe 24 79 3f 09 87 85 3f
       0.98280835 0.9961846 0.9732207 1.0431834
000040 e2 e7 7e 3f c7 80 77 3f 3b 56 7f 3f dc 83 88 3f
       0.99572575 0.96680874 0.9974095 1.066524
000050 62 fd 7e 3f 9e b7 78 3f d1 dd 71 3f f1 1f 80 3f
       0.9960538 0.9715518 0.9447909 1.0009748
000060 c9 d1 86 3f 3a 7c 80 3f 24 ac 7c 3f 29 d2 7b 3f
       1.0532771 1.0037911 0.98700166 0.98367554
000070 86 35 80 3f 00 1b 80 3f 18 6e 7b 3f 7c fe 81 3f
       1.0016334 1.000824 0.98214865 1.0155787
000080 43 55 87 3f 8b 22 82 3f 09 c0 74 3f 6d 2d 80 3f
       1.0572895 1.0166792 0.9560552 1.0013863
000090 ca 94 84 3f 5e 07 7d 3f a1 07 7e 3f f6 f2 6f 3f
       1.0357907 0.98839366 0.9923039 0.93730104
0000a0 63 8b 84 3f 26 41 88 3f c1 8a 84 3f 40 33 7a 3f
       1.0355037 1.0644882 1.0354844 0.9773445
0000b0 b5 3d 7b 3f 73 1a 7e 3f 2b 1f 81 3f ef bf 81 3f
       0.9814103 0.9925911 1.0087637 1.0136698
0000c0 75 c8 81 3f 6b e5 76 3f dd 14 79 3f 49 e2 80 3f
       1.01393 0.96443814 0.9729746 1.0069057
0000d0 dd 7b 8d 3f 4a 32 7f 3f 63 c8 6b 3f c5 56 81 3f
       1.1053425 0.9968611 0.9210264 1.0104605
0000e0 d5 5f 85 3f 7e be 72 3f 02 3b 74 3f 64 bc 7f 3f
       1.0419871 0.9482192 0.9540254 0.99896836
0000f0 01 f2 81 3f a3 4e 81 3f 15 44 81 3f 17 05 80 3f
       1.0151979 1.0102123 1.0098902 1.0001553
000100 07 1a 71 3f b5 13 72 3f 77 4b 78 3f 94 9f 7a 3f
       0.9418034 0.9456132 0.9699015 0.97899747
000110 6c a8 7c 3f 53 b0 79 3f 73 d7 7e 3f 0d 0a 82 3f
       0.9869449 0.97534674 0.995475 1.0159317
000120 44 13 7c 3f 1a 5b 7e 3f 43 95 78 3f 89 47 7b 3f
       0.98466897 0.9935776 0.97102755 0.9815603
000130 bd bc 80 3f 64 f5 76 3f 2c 26 7b 3f d2 69 82 3f
       1.0057598 0.96468186 0.9810512 1.0188544
000140 c0 8e 78 3f 6e 2c 80 3f af 2e 7e 3f a0 64 85 3f
       0.9709282 1.0013559 0.99289984 1.0421333
000150 17 7e 79 3f 40 be 78 3f 10 2b 8c 3f 23 65 79 3f
       0.9745802 0.971653 1.0950642 0.9741995
000160 a5 fd 81 3f f7 f9 7f 3f ba 28 82 3f 93 10 62 3f
       1.0155531 0.9999079 1.0168679 0.8830654
000170 28 78 7d 3f 29 ae 81 3f 4c ec 80 3f 19 44 7c 3f
       0.9901147 1.0131274 1.0072112 0.9854141
000180 7d 85 7f 3f b0 4c 7f 3f 26 e1 88 3f 80 f3 7d 3f
       0.9981306 0.9972639 1.069371 0.99199677
000190 70 ef 78 3f 65 6c 80 3f 7e 88 80 3f c1 13 80 3f
       0.9724035 1.0033079 1.0041654 1.0006028
0001a0 a0 7f 7b 3f 2d 63 89 3f 21 e2 7f 3f 43 d9 80 3f
       0.98241615 1.0733391 0.9995442 1.0066303
0001b0 31 a7 7d 3f 11 12 81 3f d4 c6 73 3f c8 9b 77 3f
       0.9908324 1.0083638 0.9522526 0.9672208
0001c0 cd d4 84 3f fd 94 7e 3f 1f fb 80 3f ce 82 7a 3f
       1.0377442 0.9944609 1.0076636 0.9785584
0001d0 3a 5b 82 3f fb 4f 82 3f 0f 6d 7c 3f 46 0a 7a 3f
       1.018409 1.0180658 0.9860391 0.97671926
0001e0 9f e8 85 3f 72 e1 7d 3f d1 69 7d 3f b7 65 7e 3f
       1.0461615 0.9917213 0.9898959 0.99373955
0001f0 0e 3b 80 3f b0 e0 5c 3f 57 0a 7d 3f 29 84 82 3f
       1.0018022 0.86280346 0.988439 1.0196582
000200 15 29 64 3f f2 a0 79 3f d6 04 80 3f 96 83 67 3f
       0.89125186 0.9751121 1.0001476 0.9043516
000210 c2 af 7d 3f 41 55 7e 3f ef ac 82 3f 74 23 80 3f
       0.9909631 0.9934884 1.0209025 1.001082
000220 c9 3a 74 3f cf f6 7d 3f 75 3e 81 3f 87 5a 75 3f
       0.954022 0.99204725 1.0097185 0.9584126
000230 04 76 8d 3f c0 d4 81 3f 2e ed 7c 3f 76 29 7e 3f
       1.105164 1.0143051 0.9879941 0.99282014
000240 7c 9c 7b 3f 82 22 7a 3f 52 5a 7b 3f a2 08 85 3f
       0.9828565 0.97708905 0.9818469 1.039326
000250 88 74 80 3f 2b be 6e 3f ec 58 85 3f 1c aa 82 3f
       1.0035563 0.93258923 1.0417762 1.0208163
000260 e6 52 80 3f bc bf 7a 3f 94 24 79 3f c8 e1 84 3f
       1.0025299 0.97948813 0.9732144 1.0381403
000270 40 6d 7e 3f eb 77 87 3f 52 48 7d 3f 56 8b 77 3f
       0.9938545 1.0583471 0.9893848 0.96696985
000280 85 82 81 3f 94 e3 84 3f 29 99 7f 3f 88 ec 7b 3f
       1.0117956 1.0381951 0.9984308 0.98407793
000290 0d 3a 85 3f ef ec 7b 3f ca 2a 7e 3f 4f c6 81 3f
       1.0408341 0.98408407 0.9928404 1.0138644
0002a0 20 be 7f 3f 0c cc 8c 3f 4a ca 7e 3f e9 86 7f 3f
       0.9989948 1.099977 0.9952742 0.9981523
0002b0 f7 47 7e 3f ac d6 80 3f 13 a9 82 3f d0 09 80 3f
       0.9932856 1.0065513 1.0207847 1.0002995
0002c0 99 0c 80 3f e2 9f 82 3f 54 e8 7e 3f 55 f0 7f 3f
       1.0003844 1.0205042 0.99573255 0.9997609
0002d0 36 dd 69 3f 18 14 80 3f db 9a 77 3f ca e7 7b 3f
       0.91353166 1.0006132 0.96720666 0.9840056
0002e0 b4 15 7c 3f f3 70 7f 3f c0 03 79 3f 14 b4 81 3f
       0.98470616 0.9978172 0.9727135 1.013308
0002f0 92 b5 7e 3f 3a 10 7e 3f 30 71 75 3f 1c e0 7e 3f
       0.99495804 0.9924351 0.95875835 0.99560714
000300 41 b0 7f 3f a6 d0 6e 3f 99 8a 7d 3f ed 50 7a 3f
       0.9987832 0.9328712 0.9903961 0.9777973
000310 b2 27 7b 3f ba 05 79 3f aa 16 77 3f ca a4 68 3f
       0.98107445 0.97274363 0.9651896 0.9087645
000320 8f d7 80 3f 6c f4 7b 3f 95 ce 79 3f 2c 2d 80 3f
       1.0065783 0.98419833 0.97580844 1.0013785
000330 2d f5 89 3f 86 d8 83 3f 77 aa 91 3f 1a 99 80 3f
       1.0777947 1.0300453 1.1380147 1.0046723
000340 fd 46 7c 3f 57 bc 7c 3f 1e 97 80 3f c1 cc 7c 3f
       0.9854582 0.98724884 1.0046117 0.9874993
000350 71 ca 81 3f a8 cd 82 3f 0d 3e 7b 3f c0 fd 7d 3f
       1.0139905 1.0219011 0.98141557 0.99215317
000360 8c 12 7d 3f e3 35 74 3f 73 1c 7b 3f d7 3d 75 3f
       0.98856425 0.95394725 0.98090285 0.95797485
000370 25 6f 7b 3f f8 57 76 3f a2 54 7b 3f 7c 99 7b 3f
       0.9821647 0.9622798 0.98176014 0.98281074
000380 ac 3f 79 3f 8a 67 7d 3f 6b 1d 7e 3f 88 f4 74 3f
       0.9736278 0.98986113 0.9926364 0.95685625
000390 c1 4e 7b 3f 7c b8 7c 3f 32 1e 74 3f e4 13 80 3f
       0.98167044 0.98719 0.95358574 1.000607
0003a0 94 e1 7f 3f 6b 4b 7d 3f de a9 7b 3f 43 80 83 3f
       0.9995358 0.98943204 0.9830607 1.0273517
0003b0 2a 06 85 3f 43 e9 84 3f fe 29 7c 3f 77 97 74 3f
       1.0392506 1.0383686 0.98501575 0.95543617
0003c0 63 85 80 3f 59 8b 7b 3f db 89 80 3f d5 df 80 3f
       1.0040706 0.982595 1.004207 1.0068308
0003d0 d2 1d 84 3f 47 23 7f 3f ef f2 7b 3f 16 45 79 3f
       1.03216 0.99663204 0.9841756 0.9737104
0003e0 d4 8b 7b 3f f6 cb 71 3f 92 d1 7e 3f 04 d1 81 3f
       0.98260236 0.94451845 0.9953853 1.0141912
0003f0 86 1d 81 3f da ca 7e 3f 83 52 79 3f e9 91 7d 3f
       1.0087135 0.99528277 0.9739153 0.99050766

linears.0.weight f4 [50, 3]
000000 30 5a 95 3e e5 41 c7 be 7e 58 4e be 46 dd 58 3e
       0.2917037 -0.3891746 -0.20150945 0.21178159
000010 99 4b d9 3d ac d8 86 3d 09 8a 82 3d 5d 58 b7 bd
       0.10610122 0.06584296 0.06373984 -0.08952401
000020 3f 92 58 be 98 d4 62 3e 77 f6 b1 3e 3c ed b1 bd
       -0.21149538 0.2215141 0.3475835 -0.08687827
000030 3c 16 b8 bd 0f aa 73 be 2a 3c 2b be 16 b8 44 be
       -0.08988616 -0.23795341 -0.1672217 -0.19210848
000040 56 17 ae 3d 8f 56 aa 3e 35 11 c7 be ac 01 a7 bd
       0.08500545 0.33269164 -0.38880315 -0.08154616
000050 bc 69 df 3d 0f 5e de 3d f3 c0 04 be 08 0e 74 bd
       0.10908839 0.10857784 -0.1296423 -0.059583694
000060 d6 e5 db bd ca d1 e6 3e 9d a1 29 3d 4e fa 32 be
       -0.10737197 0.4508193 0.041413892 -0.17478296
000070 e6 7c 59 bd b4 17 0f be e9 9c da 3d 61 be 62 be
       -0.053097628 -0.13973886 0.106744595 -0.22142936
000080 cf 02 ae 3c 60 44 46 bd cc 06 1e be cd 82 c6 bd
       0.021241574 -0.04840505 -0.1543228 -0.09692917
000090 1a 2b 7b 3d d1 54 0e 3e b7 0c a6 3e cd 32 71 3e
       0.0613204 0.13899542 0.32431576 0.23554535
0000a0 66 58 c5 3e ed a0 cb be 22 52 06 3e d7 27 e6 3e
       0.38544005 -0.39771214 0.13117269 0.4495227
0000b0 0c eb 18 3e c9 a4 b2 bd 9b 31 d7 bc a6 df 34 3d
       0.14933413 -0.087228365 -0.02626877 0.0441586
0000c0 0b 79 7a bd f1 61 e8 be 6b 70 49 bc e1 f5 23 3e
       -0.06115059 -0.45387223 -0.012294869 0.16011764
0000d0 7c bc da 3e 92 f9 2b be 97 c6 48 be 6b 06 d5 bc
       0.42721927 -0.16794422 -0.19607006 -0.026004037
0000e0 e4 94 f8 be 26 f6 2d 3c c9 3a 97 be 65 14 30 bd
       -0.48551095 0.010617768 -0.29537037 -0.0429882
0000f0 d0 83 cc bd 68 3d 2c bc 94 45 b5 3e 90 09 a6 bd
       -0.09986079 -0.010512687 0.35404646 -0.08107293
000100 f2 b8 96 be d6 87 f3 be 21 d9 68 be 6f 1a 09 3f
       -0.29437977 -0.47564572 -0.22739078 0.5355596
000110 d7 b8 e7 be 82 73 b7 3d b5 e1 24 be c7 c9 97 be
       -0.4525821 0.08957578 -0.16101725 -0.2964613
000120 c1 ee c1 bd da 95 21 3e 87 24 fe bd 2b 37 a9 ba
       -0.09469367 0.1577982 -0.12409311 -0.0012910118
000130 3d 07 fa 3c 9f db 6f 3d 68 ca 38 be 51 ec 4a 3e
       0.03052103 0.058559056 -0.18045962 0.1981671
000140 2e 33 96 3e df 94 80 bc 1d 55 22 3e 28 02 c7 be
       0.29335922 -0.015695987 0.1585278 -0.38868833
000150 2d 59 14 bd 75 7d 00 be 3d 95 8e be 75 df 22 be
       -0.036217857 -0.12547858 -0.27848235 -0.15905555
000160 91 c1 1c bc 7d c3 a4 3c 8c fd 8b 3e cf 88 21 3f
       -0.009567634 0.020112747 0.27341878 0.6309938
000170 f2 6d 4b be a5 3a ed bd e1 11 05 bf 70 b8 a0 3d
       -0.1986616 -0.11583451 -0.51980406 0.07847679
000180 1d a5 e6 3c 1b 83 8f 3e d0 2f e8 bd 6b 3f 71 3e
       0.028154904 0.28029713 -0.113372445 0.23559348
000190 2e e8 96 3e 22 24 df bd 73 d5 6e 3e 0c 04 2f 3d
       0.29474014 -0.10895564 0.23323612 0.04272847
0001a0 ff 91 03 be 9c 94 b8 3d 12 28 82 bd 7c 26 f0 3e
       -0.12848662 0.0901272 -0.06355299 0.4690436
0001b0 73 9b 28 be 07 cb 88 3d 03 c8 ff be dc ca dd be
       -0.16465549 0.066793494 -0.49957284 -0.43318832
0001c0 f7 92 4d bd a3 8d 0f be 69 bf b2 3d df d7 17 3f
       -0.050188985 -0.14018874 0.08727915 0.5931377
0001d0 ee fe 26 be 0d af a5 bd f6 2f dd be f8 ce 13 3d
       -0.16308185 -0.08090029 -0.43200654 0.036086053
0001e0 04 a4 e1 3d 9d e4 b4 3e 88 cb de 3d 95 f0 7f bd
       0.110176116 0.35330668 0.10878664 -0.062485296
0001f0 c4 43 a0 3e 54 91 da 3d ab 12 cb 3e f2 15 0d be
       0.313017 0.106722504 0.3966268 -0.13777903
000200 64 9c 82 bd e9 38 5b be bd 37 f4 be 94 db 54 be
       -0.063774854 -0.21408428 -0.47698775 -0.20786887
000210 2f 39 21 3e fb 49 d3 3d ae a4 72 bd 91 34 81 bd
       0.1574447 0.10316845 -0.059239082 -0.06308854
000220 a2 06 30 bc e7 40 56 bc 8d 66 ce bd 46 d8 da bd
       -0.010743769 -0.013076997 -0.10078154 -0.10685782
000230 e2 73 e4 be 82 82 8a 3e f7 96 86 3e 82 90 0c 3e
       -0.44619662 0.27052695 0.26287052 0.13727
000240 79 64 37 3c 7f 2c 12 3e b0 b0 f6 3d c5 6c 0a bc
       0.011193388 0.14274786 0.12045419 -0.008448784
000250 5e 04 9e 3e 2c 61 fb bb
       0.30862707 -0.007671496

linears.0.bias f4 [50]
000000 f5 9e 17 3e 18 7c 55 be c6 de 2f be 9f e8 cb 3e
       0.14806731 -0.2084812 -0.17174825 0.39825913
000010 ce 02 79 be dd 94 c7 3e de c3 c7 be f6 1f d0 3d
       -0.24317476 0.3898076 -0.39016622 0.10162346
000020 83 a7 4e 3f 36 c4 35 be 6c 09 8f 3e eb 91 90 be
       0.8072435 -0.1775063 0.27936876 -0.28236327
000030 e6 5e 50 3e 6e d0 80 be 6e 3c a2 3e 09 51 20 3e
       0.20348701 -0.2515902 0.3168673 0.15655912
000040 f9 e1 b9 be 18 b5 d6 3e d6 d1 3c be f5 b3 80 3e
       -0.36305216 0.4193504 -0.18439421 0.25137296
000050 d4 e4 70 bc 9a bf 32 be 02 51 8e 3d 2b 09 bf be
       -0.014702994 -0.17455903 0.06949045 -0.37311682
000060 6a a0 62 be df cd 3c 3d f8 57 bc bd 3f d1 a9 be
       -0.22131506 0.04609477 -0.09196466 -0.33167455
000070 cd 58 87 be 75 d3 a6 bd be 86 78 3e 36 65 85 3c
       -0.26434937 -0.08145801 0.2427015 0.016283613
000080 2a 56 cf bd c0 a2 06 be 63 79 ce 3d d5 6a 0f 3f
       -0.10123856 -0.13148022 0.100817464 0.5602239
000090 8f db bd be aa bb e5 be 7f f0 76 3f e8 42 82 be
       -0.37081572 -0.4486974 0.9646072 -0.2544167
0000a0 f8 fe 06 3f 77 79 8b 3e 75 c3 2a be 2c 9d 19 bf
       0.527328 0.27241108 -0.16676123 -0.6000545
0000b0 fa ba ef 3e 7a de bf be e6 2f 44 3d 36 0b 4c 3f
       0.4682234 -0.37474424 0.047897242 0.79704607
0000c0 fb ef 66 be f3 e8 c0 3d
       -0.22552483 0.094194315

linears.1.weight f4 [50, 50]
000000 8c 45 a2 bd b6 a0 b7 3c 9c cf ba 3d 75 91 54 3e
       -0.07923421 0.0224155 0.091216296 0.20758612
000010 bf 62 7e 3d b0 2a eb 3d c7 23 19 3d d0 20 48 bc
       0.06210589 0.11482751 0.037387636 -0.012214854
000020 91 4d 88 3d e0 12 37 bd 48 28 57 be f3 6f e5 3d
       0.066554196 -0.044695735 -0.2101146 0.11202993
000030 b2 5e d0 bd 0b b4 5f bd 48 e3 ee bd eb 39 29 3e
       -0.10174312 -0.05461506 -0.11664444 0.16526
000040 93 e9 59 bd 97 1b de bd cc 57 8d bd 77 53 33 3d
       -0.05320127 -0.10845106 -0.069015115 0.04378077
000050 00 81 dd bd 13 cd c1 bd 08 4c 26 bd 4d cc d7 3d
       -0.108156204 -0.09462943 -0.040599853 0.10537014
000060 63 1d 6a 3e bf 6a f8 3c 21 85 82 3d c1 9d 1c be
       0.22862773 0.030324338 0.063730486 -0.15294553
000070 a5 f4 32 be bb 77 9c be 2d d5 44 bd 82 31 95 bc
       -0.17476137 -0.30560097 -0.048054863 -0.018212084
000080 0c 8c 0a be 44 57 93 b9 f3 10 68 bd 83 6d 35 be
       -0.13529986 -0.00028103043 -0.05665679 -0.17717557
000090 57 8f 57 bd e8 12 b3 3e 43 4c 17 3e 74 d3 4b bc
       -0.052626934 0.34975362 0.14775185 -0.012440551
0000a0 e8 ce 11 be 47 bc 78 be 57 22 cf bc 0a 37 55 3e
       -0.14239085 -0.24290572 -0.02528493 0.20821777
0000b0 c9 9e 24 bd 10 2d eb 3d 1c 65 6b 3e 40 67 95 3d
       -0.04019049 0.11483204 0.22987789 0.07295084
0000c0 66 e8 17 bc 2f 6d a4 bd 37 e3 82 3e 1f f0 a6 bd
       -0.009271717 -0.080286376 0.25563976 -0.08151268
0000d0 12 f6 87 3e 81 43 39 bd 5c 2d 80 be 1c fb 01 3e
       0.26554924 -0.045230392 -0.25034606 0.12693447
0000e0 3b c8 54 3e f3 39 84 3e ff d2 07 bd ad 2b 9f bd
       0.20779507 0.25825462 -0.033160206 -0.07772002
0000f0 6c a8 88 3d b5 e8 04 3d a9 63 b4 3d 98 f1 de 3c
       0.06672749 0.03244849 0.08808071 0.02721481
000100 b0 b4 26 3e 2d fe 07 be 6b a2 67 3e 15 9a 3a 3e
       0.16279864 -0.13280554 0.22620551 0.1822284
000110 fb ec 5a bd a9 4b 45 bd ef 48 a7 3d 99 9c 3f 3e
       -0.05344866 -0.04816786 0.08168208 0.18712081
000120 e5 75 a1 bd 5f 4d 70 bb c6 c6 84 3e 0f a5 93 3d
       -0.07883815 -0.003666721 0.25932902 0.07209217
000130 bb 96 f1 bd 6b 59 d8 39 52 e7 04 3e 24 f6 c9 bd
       -0.11796328 0.00041265352 0.12978867 -0.09861401
000140 d7 1c 54 3e d8 5b 9b 3c 77 70 f0 bc 21 72 bb 3d
       0.20714127 0.018964693 -0.029350502 0.09152628
000150 9a a8 14 3e 1d 28 5a be 87 e7 1a 3d ee 87 a3 3d
       0.14517441 -0.21304365 0.037818458 0.07984911
000160 90 e2 07 3e b4 53 90 bd 04 2d 86 be 7c f4 cd bd
       0.1327002 -0.07047215 -0.2620622 -0.10056397
000170 f7 02 37 bd b5 57 3a 3e 43 b6 ed bd 1e 52 06 bd
       -0.044680562 0.1819752 -0.11607029 -0.032793157
000180 ca fa f4 bd e4 4e c9 bc 31 4f 01 3d 1d 21 67 be
       -0.11961897 -0.02457375 0.031569663 -0.22571225
000190 78 a6 a3 3b ac 72 5e 3e 80 07 df 3a 1a cd f1 3d
       0.00499421 0.21723431 0.0017015785 0.11806698
0001a0 0b 8a a2 bc 3f 9b 97 3e 06 cb 77 be 0a 1c 95 bd
       -0.019841215 0.2961063 -0.24198541 -0.07280739
0001b0 b5 93 4c 3e 78 d1 cd bd d7 2b a9 3e 0f dd 87 bd
       0.19978221 -0.100497186 0.3304126 -0.066339605
0001c0 10 29 35 be b3 32 c8 bc 03 84 22 3e 16 cb c5 3a
       -0.17691445 -0.024438238 0.15870671 0.0015090432
0001d0 73 08 48 3e 4c 45 55 be 16 5d 8a be 67 1d 9f 3d
       0.19534473 -0.20827216 -0.27024144 0.0776928
0001e0 55 c6 af bd c8 6b c5 be 35 0f d3 be b7 c7 5b be
       -0.08582751 -0.38558793 -0.4122254 -0.21462904
0001f0 31 4d 4f be 97 93 89 3e 24 77 8c be f7 05 b7 be
       -0.2024429 0.26870415 -0.27434647 -0.35746738
000200 b5 88 d8 be 79 33 7f be 40 6a de bd 7a f4 ca 3d
       -0.422918 -0.24921979 -0.10860109 0.099099115
000210 e6 1d 58 bd c8 f3 18 be 43 68 fc 3d 41 d9 b7 3e
       -0.05276289 -0.14936745 0.12324574 0.3590794
000220 f1 7a 94 be 25 52 4d be 67 7b ce 3d 6b 30 21 3e
       -0.29000047 -0.20050867 0.10082131 0.15741126
000230 75 48 9e 3e d6 23 18 3e a0 45 65 3d 69 2f cd be
       0.30914655 0.1485742 0.055974603 -0.40075234
000240 dc 65 0b 3d 58 bd 92 be 4c c4 b9 bd 80 0d 52 3e
       0.034032688 -0.28660083 -0.09070644 0.20512962
000250 e3 59 8b bc 73 ab eb ba 19 ba c3 bd f1 23 e6 bb
       -0.017010635 -0.0017980173 -0.0955698 -0.0070233275
000260 7f 63 87 be 91 f6 e3 3d 04 71 a0 be 92 6c 1c be
       -0.26443097 0.11131013 -0.31336224 -0.15275791
000270 a9 e2 d2 3d c8 79 7f be 07 3c 04 bd bd 37 5e be
       0.10297138 -0.249488 -0.03228381 -0.2170095
000280 6e 47 b9 3d 60 52 7f 3d 80 a9 cd bc 9a bf a7 3d
       0.09046827 0.06233442 -0.025105238 0.08190842
000290 0e 6a 47 3d 1f 95 15 3e 3b ca e3 bd cc 06 10 bc
       0.048685126 0.14607666 -0.11122557 -0.008790683
0002a0 c7 0e c2 bd 98 c1 82 be 69 95 d9 bd 3f 97 80 be
       -0.09475475 -0.25538325 -0.10624201 -0.25115392
0002b0 26 32 fb 3d d2 8e e8 bd a5 4a cf 3d 8c 5b 1c be
       0.122654244 -0.11355366 0.10121659 -0.15269297
0002c0 a3 eb 00 be 83 81 ba bd d0 32 7d 3d b2 9b 1c 3e
       -0.12589888 -0.09106734 0.061816037 0.15293768
0002d0 ea c5 0d be a6 30 89 be 9c 58 cd bd 31 fc 1c bd
       -0.1384503 -0.26794928 -0.100266665 -0.038326446
0002e0 ae fe 68 3e 03 a9 9c bd 62 6a 90 3e b2 c1 6a be
       0.22753403 -0.07649424 0.28206164 -0.22925451
0002f0 1d 95 35 be f0 60 a8 bd f6 90 a7 bd b0 cf 0f be
       -0.17732663 -0.08221614 -0.08181946 -0.1404407
000300 34 19 0e be d2 ff 5b 3d 20 e8 98 3b e5 a9 2c be
       -0.13876802 0.053710766 0.0046663433 -0.16861685
000310 7e d4 0c 3e c2 ce 25 bd b5 51 93 bc 96 a9 40 3e
       0.13752934 -0.040480383 -0.017983297 0.18814692
000320 9c 63 cb be e4 4e c2 bd 71 bf 87 3c 82 51 dc 3d
       -0.39724433 -0.094877034 0.016570779 0.10757734
000330 ab 63 0e bd 18 61 7a 3d b0 80 30 3e 2c 7e 8b bd
       -0.03476302 0.061127752 0.1723659 -0.06811175
000340 64 aa 97 be fa 1d 82 be 38 77 e6 3c 12 23 c7 bd
       -0.29622185 -0.25413495 0.02813302 -0.09723486
000350 da 71 82 3d df c0 3f be 94 35 d9 bd ed 5c 06 3e
       0.06369372 -0.18725918 -0.10605922 0.13121386
000360 57 00 cf bd e3 88 38 3c 9c 61 ce 3d 6e 61 64 3e
       -0.10107487 0.011263105 0.10077211 0.22302791
000370 7e 53 10 be d5 2d 71 bd e4 e8 22 bd 22 20 c1 bc
       -0.1409435 -0.0588816 -0.039772883 -0.023574892
000380 2b a4 93 bd b8 10 af be c7 9b 13 3e 44 a3 8a 3e
       -0.07209047 -0.34192443 0.14414893 0.27077687
000390 a5 d5 17 be 0b 48 bd bc 25 0a 8b bc d1 af 9f 3e
       -0.14827593 -0.023105642 -0.01697261 0.31188825
0003a0 02 31 22 be 73 4a b0 be 8f 3c 08 be 35 27 06 3d
       -0.15839007 -0.344318 -0.13304351 0.032752234
0003b0 c2 cc 97 bb 87 a6 f2 3d 44 25 aa bd 4b 8a 84 be
       -0.0046325633 0.11848169 -0.08307889 -0.2588676
0003c0 a4 1e 6a bd 76 68 e6 bd c1 b7 64 be 91 ff 30 3e
       -0.057158127 -0.11250393 -0.22335722 0.17284991
0003d0 c3 70 88 bd 5b b2 6a be a7 a0 ac bd c9 60 32 be
       -0.066621326 -0.229196 -0.084290795 -0.17419733
0003e0 f2 eb 9e 3d 51 0d 7f be 00 d4 37 3e f8 37 1e 3e
       0.07759847 -0.24907424 0.17951965 0.15451038
0003f0 e4 87 6f 3e fd 7c ad 3d 80 d4 59 bd cb 9b 7a bb
       0.23391682 0.08471105 -0.05318117 -0.0038239833

linears.1.bias f4 [50]
000000 f9 18 28 be 44 94 7d be 1d d1 57 3f cc f0 dc bd
       -0.16415776 -0.2476359 0.84303457 -0.10788116
000010 e5 1e 9d bd 1c 55 b1 be 91 a3 f1 bd 2f ef bb 3d
       -0.07671908 -0.34635246 -0.11798776 0.0917648
000020 04 7c 81 3e be 44 a6 3e 7c 0d df 3e c0 63 3b be
       0.2528993 0.3247432 0.43564975 -0.1829977
000030 5c 0e b8 3d bd 7d d5 be 3c 1f 4e be 8c 77 a4 bc
       0.08987114 -0.41697493 -0.20129102 -0.020076536
000040 14 a8 cc bd f4 c1 bd 3d 3e 8a 02 3e 0a 6a 01 be
       -0.09992996 0.09265509 0.12748048 -0.12638107
000050 fe b6 e5 3e 6f c6 b8 3d 49 02 d2 3e b9 da 18 be
       0.44866174 0.09022223 0.41017368 -0.14927186
000060 b8 de dd 3e 2e ec 8b bd 41 62 81 3e a2 09 6b bd
       0.43333983 -0.06832157 0.25270274 -0.057382233
000070 09 23 d4 3e 12 9e 1b 3e 3a a8 4d be c9 f7 03 bf
       0.4143298 0.15197018 -0.20083705 -0.51549965
000080 00 5e 21 3e 8a f1 bf be 63 06 2d be ce 28 3b 3d
       0.15758514 -0.37488967 -0.16896968 0.04569321
000090 5a c8 dd bd 29 e3 5c be 0c 3d 7d 3c 76 93 84 3d
       -0.1082923 -0.2157103 0.015456449 0.064734384
0000a0 46 eb 03 3f f8 50 47 3f 85 4d 23 be 45 a1 8f 3d
       0.51530874 0.77857924 -0.1594754 0.070131816
0000b0 cf 93 7a 3d 89 9e fb 3e c2 c4 66 3e 82 1b 78 bd
       0.061176118 0.4914439 0.22535995 -0.06057311
0000c0 fb 70 cd bd 84 45 0d 3e
       -0.10031315 0.1379605

linears.2.weight f4 [50, 50]
000000 83 15 0a be 7e 52 03 3e f5 77 20 be b0 a1 17 bd
       -0.13484769 0.12824437 -0.1567076 -0.03701943
000010 49 9b cd 3c d5 ed 29 3c 42 45 54 bc be 1e 58 3d
       0.02509846 0.010371645 -0.0129559655 0.052763693
000020 15 bc 86 3e 98 80 3c be e2 ef 78 be 62 26 db 3d
       0.2631537 -0.1840843 -0.24310258 0.1070068
000030 98 27 4d bd a1 b0 8b 3d f4 47 0d bd d6 96 c5 3b
       -0.050086588 0.06820799 -0.034492448 0.006029944
000040 11 a3 8f 3c 08 07 cb 3d 82 52 eb bd 23 be 96 bd
       0.01753381 0.099134505 -0.114903465 -0.073604845
000050 a8 28 ad 3c 7c 93 35 3e 65 ac 80 be ac fe 19 3e
       0.02113755 0.17732042 -0.25131527 0.15038556
000060 68 c9 de bc 2e 51 2a 3d 80 8a 90 be ab 81 c0 3c
       -0.027195647 0.041581325 -0.28230667 0.02349933
000070 d8 13 cc bd 83 11 4b be 31 4a 8a bd f6 82 13 3e
       -0.099647224 -0.19830899 -0.06752432 0.14405426
000080 2e 09 ce be 65 a1 bf 3d d3 f4 ea bc 10 5e b7 3d
       -0.4024138 0.093569554 -0.028681194 0.08953488
000090 16 4c 7b bd d2 39 60 3b 74 eb 2f be 83 86 89 3d
       -0.061351858 0.003421415 -0.17179662 0.06715109
0000a0 d7 34 ca be fb 19 90 be 37 88 4c 3d 07 b8 42 be
       -0.3949344 -0.28144822 0.049934592 -0.19015513
0000b0 a0 25 eb bd 90 41 d4 3d 14 79 93 3d 87 d2 92 3d
       -0.11481786 0.103640676 0.07200828 0.07169061
0000c0 6f 69 40 3e 34 36 85 bd 6d 83 11 be 6f f3 c2 3d
       0.1879022 -0.06504479 -0.14210291 0.095190875
0000d0 83 38 7d be dd 90 40 3e 21 99 32 3d b9 73 43 bc
       -0.24728589 0.18805261 0.043603066 -0.011929446
0000e0 85 bb f1 3c 10 27 90 bb 78 a5 6c be 12 e3 80 bd
       0.029508362 -0.004399188 -0.23109996 -0.0629331
0000f0 f2 e7 1d be a8 a7 96 3d 49 20 3d 3e 0c 34 e5 3d
       -0.15420511 0.07356197 0.18469347 0.11191568
000100 d0 2f a9 3e 13 95 92 3d 9b 62 b6 3e c2 c9 64 be
       0.3304429 0.0715734 0.35622105 -0.2234259
000110 a5 0d 1e 3d 78 dc 5e 3d b1 1d 93 3c 09 6e 33 be
       0.03858723 0.054409474 0.017958494 -0.17522444
000120 e1 9f 5e be ef a0 ff bd d2 e7 db 3d 8f 9f b6 bd
       -0.21740676 -0.124818675 0.107375756 -0.08917152
000130 20 87 03 3d ce a3 5d bc d3 50 15 bd c3 db a1 3b
       0.032111287 -0.013527824 -0.036454033 0.0049395277
000140 46 0b 81 39 da ce 59 3d 61 95 e0 3d 07 5f 5c 3e
       0.00024613197 0.053175785 0.10965992 0.21520625
000150 5a 62 20 3e e6 1b 66 3e b7 a8 3d bd 5a 23 e4 bd
       0.15662518 0.2247158 -0.046303477 -0.11139555
000160 d2 3e 22 3d 91 9c cf bd 35 eb dc 3c 54 52 06 3e
       0.03961069 -0.101372845 0.026967624 0.13117343
000170 74 fb 8c 3e b0 47 89 be 08 6e b0 bd ff a0 e3 bd
       0.27535594 -0.26812506 -0.08614737 -0.11114692
000180 8d 06 e2 3b 1c 25 2e 3c fd 54 af bd 56 6f 12 bd
       0.0068977536 0.010628965 -0.08561132 -0.03575071
000190 e7 1f 96 bc d8 57 5f 3e c2 f3 4a be f2 12 15 3d
       -0.01832576 0.21810853 -0.19819549 0.03639502
0001a0 1e ce e6 bd fe 8f c2 3d b6 34 1b be c3 7b 32 3e
       -0.112697825 0.095001206 -0.15156826 0.17430024
0001b0 1f b7 8e 3e 7c 4d 91 3e 90 1d 8e 3c 4a 46 66 3d
       0.27874085 0.28379428 0.01734808 0.056219377
0001c0 86 13 bb 3d 67 6e f7 be 7a 82 40 be bc b7 1d be
       0.09134583 -0.48326418 -0.18799773 -0.1540212
0001d0 ba 40 35 be d7 83 49 bd 22 ce fa bc 16 fd 06 bd
       -0.17700472 -0.049197998 -0.03061587 -0.032956205
0001e0 e5 d3 2d be 6c 8f 35 3d 62 9b 29 3b 4d 9d 08 3d
       -0.16975363 0.04432623 0.002587997 0.03335314
0001f0 61 72 6b be 4e 79 de 3d b0 49 24 3e 01 e1 b5 3d
       -0.22992851 0.10862981 0.16043735 0.08880807
000200 27 82 9c be d9 f1 71 3c 3d de f5 bd e5 32 c2 3d
       -0.30568048 0.014767134 -0.12005279 0.094823636
000210 2c 4d e5 3d c2 d1 3b bd 5e ff 25 be ea 52 cd 3c
       0.1119636 -0.045854338 -0.16210696 0.02506395
000220 9c 5f 1a bd 4c f2 fa bd 39 46 e3 bd fc 9e c8 3c
       -0.037688836 -0.12253246 -0.11097378 0.024489872
000230 10 ba 4f 3c 71 ea 9d bd ce ad b5 3d 62 7d 3a bd
       0.012678638 -0.07710732 0.08871041 -0.04552973
000240 c7 2f 58 3e ca e0 e6 bd ca 62 f2 bd a9 59 11 3d
       0.21111976 -0.11273344 -0.11835249 0.035485897
000250 94 90 33 3c 6d 9a 63 be ef c6 a2 bd ad 03 20 3e
       0.010959763 -0.22226878 -0.079481 0.15626402
000260 c4 f8 4e 3d 96 88 99 3d eb 99 10 3e 8f 8c 14 be
       0.05053021 0.07496755 0.14121215 -0.14506744
000270 38 7d 0e bd 54 07 c5 3d 04 a2 44 be d6 7b 10 3d
       -0.034787387 0.09620538 -0.19202429 0.03527435
000280 b9 b7 2e 3d 47 97 1c be 5e ae 33 be 58 94 d7 bc
       0.04265568 -0.15292083 -0.17546985 -0.026315853
000290 0c 8a 8b 3d 12 32 62 be dd 12 1f 3d 9f a8 61 be
       0.0681344 -0.22089413 0.03883635 -0.2203698
0002a0 70 6e 3b bd 7e e3 b9 3d ee 0f f1 3d ca d6 50 3c
       -0.04575962 0.09076594 0.117706165 0.012746522
0002b0 bc 10 03 bd 27 98 08 be 7f a8 3a bd a9 ba 78 bd
       -0.03199838 -0.13339292 -0.045570847 -0.060724888
0002c0 11 ba 04 bc 96 6c 2b 3d 5a 38 57 be 9a 9e 46 ba
       -0.008101002 0.041851602 -0.2101759 -0.0007576734
0002d0 08 82 b8 3d b5 db 6d bd 1b 76 92 3a 59 77 48 bd
       0.090091765 -0.058070857 0.0011174114 -0.048941944
0002e0 ac da ea bd 06 21 56 bd c1 fe 49 be 7c e3 24 3e
       -0.114674896 -0.052277587 -0.19726087 0.16102403
0002f0 4f 7b f1 3d 9d 78 e2 3d e0 fd 47 3e 70 82 02 be
       0.117910974 0.110581614 0.1953044 -0.1274507
000300 99 3a b2 bd 7f 61 4b 3e d8 ae 09 be d5 91 d6 be
       -0.08702583 0.1986141 -0.13445604 -0.41908136
000310 d3 62 27 bc 6a be aa bd a2 c9 0e be 91 8f bd 3d
       -0.010216433 -0.083371 -0.13944104 0.09255899
000320 c3 40 3e 3c e8 b0 31 be 8f d8 2a bb c0 b9 fe 3c
       0.01161212 -0.1735264 -0.002606902 0.031094432
000330 54 c2 68 3e dc c3 00 3e 78 10 25 3e d6 3c df 3d
       0.2273038 0.12574714 0.16119564 0.109002754
000340 4f a5 60 3e e6 11 6a 3d 73 91 b4 bc a0 ba 19 3e
       0.2193806 0.057145976 -0.022042012 0.15012598
000350 5d a8 a1 bd de 8b e5 3c 88 fa 62 be b4 30 88 bd
       -0.07893441 0.028020795 -0.22165883 -0.066499144
000360 ac c1 a5 bd 0a 96 17 bd 1e d7 e8 bc 33 46 03 be
       -0.080935806 -0.037008323 -0.028422888 -0.12819748
000370 45 e6 a5 3c 21 7b b9 be c8 f1 ff 3d 21 69 8a 3e
       0.020251403 -0.36226752 0.12497288 0.27033332
000380 36 64 10 be c7 cc 7c 3e 90 45 24 be 3a c9 90 bc
       -0.14100727 0.24687491 -0.16042161 -0.017674077
000390 47 06 94 bd 46 5f 97 bd a3 65 4c bd 4a 2e 2e be
       -0.0722776 -0.07391219 -0.049901616 -0.17009845
0003a0 10 af ae 3e 4a 51 6f 3c 47 e2 d6 bb 9c 65 fa 3d
       0.34117937 0.014606783 -0.006557736 0.12226412
0003b0 55 18 16 3d 44 6a ac 3c 83 26 32 be 8f 08 8d bd
       0.0366443 0.021046765 -0.17397504 -0.06886398
0003c0 3a 21 62 be d9 b5 e8 3a 07 7b f3 bd 20 82 0d 3d
       -0.22082987 0.001775439 -0.118887 0.034547925
0003d0 42 9e e7 3c 1b c1 e1 bc da 4a e6 3c c7 e1 63 bd
       0.028273705 -0.0275579 0.028111864 -0.05563524
0003e0 d8 24 5d bd 50 2e 93 bd 62 6a e4 3d 41 a5 0c 3e
       -0.053990215 -0.07186568 0.111531034 0.13734914
0003f0 60 1f 4a 3e c9 29 81 bd 12 cf 66 bc d7 61 3b 3d
       0.19738531 -0.06306798 -0.014087455 0.045747604

linears.2.bias f4 [50]
000000 ac 78 47 be 71 38 82 bd 38 76 c2 bd d8 f7 d3 3d
       -0.19479626 -0.063584216 -0.09495205 0.10350007
000010 0b b7 f6 3c ed 1f 21 bc f8 b4 29 3e 59 f4 e4 bd
       0.030116579 -0.009834272 0.1657294 -0.11179418
000020 66 83 1c 3e 64 70 cc be 96 9e 85 bd d2 8f 98 bc
       0.152845 -0.39929497 -0.065243885 -0.018623266
000030 3d 67 e6 bd df c1 01 be 64 c7 fe be 2b f8 0f 3e
       -0.1125016 -0.12671612 -0.49761498 0.14059512
000040 63 60 65 3d 3a 04 8d 3e 71 5a 16 3e 93 44 35 3d
       0.056000125 0.27542287 0.14682938 0.04425485
000050 0e c8 3f be 3e ef 14 3e cf 9b 57 bd 1e 91 86 be
       -0.18728659 0.14544389 -0.052638825 -0.2628259
000060 b5 bd 79 be e3 9d 97 3e a3 a5 37 3e f0 55 3d 3a
       -0.24388774 0.29612646 0.17934279 0.00072225835
000070 f1 34 98 be 90 06 4c be a1 0f 71 3f 96 10 23 be
       -0.2972789 -0.19924378 0.9416447 -0.15924296
000080 e9 d5 70 3c 58 73 7b 3d 52 ec 87 3e fb 19 6f 3e
       0.014699438 0.061389297 0.26547486 0.23349755
000090 b9 e9 81 bd 75 fc 0d 3f dc fe a7 be ef 98 f0 bd
       -0.06343407 0.55463344 -0.3281163 -0.1174792
0000a0 c3 a8 92 be 71 a5 b7 bd 13 fc a4 3e 40 5b 4d be
       -0.2864438 -0.08967102 0.32223567 -0.2005434
0000b0 d8 d5 db bd 20 2a 58 3d 57 bd 00 3d f9 9b 93 bd
       -0.10734147 0.05277455 0.03143057 -0.07207484
0000c0 ce 1f b2 3d 8d 76 97 3d
       0.086974725 0.07395659

linears.3.weight f4 [50, 50]
000000 59 ca 99 3e 55 dd 33 bc 36 04 a6 3e 3c 6f 7a 3d
       0.30037192 -0.010978063 0.32425088 0.061141238
000010 e4 b1 a0 bd b3 ce 89 bd 26 7f bb bc da 1d 7a 3e
       -0.0784643 -0.06728878 -0.022887778 0.2442545
000020 e1 f8 03 bc 96 fd 3b bd 61 89 b7 bd d6 78 1a 3e
       -0.008054943 -0.045896135 -0.0896175 0.15085158
000030 61 a0 aa 3d 03 d3 cf 3b a3 08 a6 be b6 a6 02 3e
       0.08331371 0.006342293 -0.32428464 0.12758908
000040 d8 31 7e bd ca 38 aa be 82 5c 2b 39 bc ef a3 3d
       -0.062059253 -0.33246452 0.00016342293 0.0800471
000050 6f 0d 1b 3e ec a9 a2 bd 04 a9 ae bd 63 d6 98 3e
       0.15141843 -0.07942566 -0.08528331 0.29851064
000060 57 eb e6 3d aa 31 e1 bd 01 d9 81 bd 27 1e dc 3d
       0.11275356 -0.10995801 -0.06340218 0.107479386
000070 12 30 64 be 22 04 04 3e 8f 07 38 be f1 bb cb bd
       -0.22283962 0.12892202 -0.17971633 -0.09947956
000080 db f8 a2 bd f9 96 35 3e 7f 65 30 3e 7c 63 41 bd
       -0.07957622 0.17733373 0.17226218 -0.047214016
000090 50 58 df 3d 43 26 0c be 3f 33 0e bd 19 ab 73 be
       0.10905516 -0.1368647 -0.03471684 -0.23795737
0000a0 f2 c1 38 be ea b3 04 3e 3f 50 00 be 17 0c 26 3e
       -0.18042734 0.12959257 -0.12530611 0.1621555
0000b0 f9 a4 e1 3d f6 b3 85 3d b3 55 a9 3d 65 cd d2 bd
       0.11017794 0.065284654 0.08268299 -0.10293082
0000c0 92 23 54 be 09 f6 6c 3d 46 d4 6d bd 63 61 03 3e
       -0.20716694 0.057851825 -0.058063768 0.12830119
0000d0 74 14 ee bb d6 7c 10 be ec 8f 0a be fb 6a 0b 3e
       -0.007265622 -0.14110121 -0.13531464 0.13615029
0000e0 2b 31 c8 bc 22 53 fe bd 22 78 36 3e 50 a5 6a bd
       -0.024437508 -0.124182 0.17819265 -0.05728656
0000f0 1d c3 58 bd 0c e8 af 3d c4 ff 31 bd 9a 7a 1d be
       -0.05292045 0.08589181 -0.043456808 -0.153788
000100 8e 5b f0 3d 5d 3c e8 3d 33 1a 4c 3d 82 4f 5e 3c
       0.11736213 0.113396384 0.049829673 0.013568761
000110 35 76 0c 3e 76 3d 70 3e 23 f5 89 bd c0 6c 07 bc
       0.13716967 0.23460945 -0.06736209 -0.008265674
000120 28 47 13 3d 3a 3f 72 be 10 ad 98 bc 12 21 d3 bd
       0.03595653 -0.23656932 -0.01863721 -0.10309042
000130 78 fe 1e be 1c ae 3c be bf b4 43 bd 78 9b 8b 3e
       -0.1552676 -0.18425792 -0.047779795 0.2726705
000140 5c 83 59 3e 9d b3 4e 3e 88 59 d6 bd 45 51 c4 3c
       0.21241516 0.20185705 -0.104662955 0.023964534
000150 a5 56 4f 3e da 33 09 3d c9 08 a7 bd 2e 5d f1 bd
       0.20247896 0.033496715 -0.081559725 -0.11785351
000160 96 63 7a bc ff 8f d0 bd a0 de 0e 3e f2 33 f7 bc
       -0.015282532 -0.10183715 0.13952112 -0.030176137
000170 c7 32 23 3e 87 76 2c be bf e3 24 3e 2e df 3b 3e
       0.15937339 -0.1684209 0.16102503 0.18346855
000180 7c 76 22 bc 87 5d 3b 3d 8a e1 0b be 78 c4 81 3d
       -0.009915944 0.04574349 -0.13660255 0.063363016
000190 ba da 70 bd 58 d9 0e 3c d1 68 22 bd f5 4b c3 bc
       -0.058802344 0.008718811 -0.039650742 -0.02383993
0001a0 08 ff 6e bc eb 54 1b 3e 6b 91 43 3d bb e1 93 bd
       -0.014587171 0.15169112 0.047746103 -0.07220789
0001b0 39 da 00 3c c1 09 2f 3e ea 32 45 3e 1d cc 3a bd
       0.007864528 0.17093565 0.19257703 -0.045604814
0001c0 81 07 3a 3e 44 cb 55 be f0 da 45 3e 0f 3c b9 3d
       0.18166925 -0.20878321 0.193218 0.090446584
0001d0 51 30 b8 3d 25 59 0a 3e 95 74 98 be 61 6d b8 bd
       0.089935906 0.13510568 -0.29776445 -0.09005237
0001e0 d5 16 19 be 16 a7 dc bd 96 f5 7e 3d 5a 7c 2c 3e
       -0.14950116 -0.107740566 0.062245928 0.16844311
0001f0 51 95 b8 3d 03 ce 76 bd ef 2f 15 3e c5 8b 70 3e
       0.09012855 -0.06025506 0.14569066 0.23490818
000200 ab dc c8 bd ac be 90 bd b4 ed 47 3e ae 95 b6 3e
       -0.09807714 -0.07067618 0.1952427 0.35661072
000210 25 8c 1f be 26 2d 6c bd 58 ac ac 3b 17 fe 32 be
       -0.15580805 -0.057660244 0.0052695684 -0.1747974
000220 14 d5 81 3e e3 97 a0 3e 4d 8a ec be 34 68 0c bd
       0.25357878 0.3136588 -0.46199265 -0.034279063
000230 43 ee fb bd 41 81 6d be 70 bc d5 bb 6d 87 6b bd
       -0.12301304 -0.23193838 -0.0065227076 -0.0575022
000240 b4 94 9a 3e 42 d6 fb 3d 52 89 ac 3b b2 80 c5 3c
       0.30191576 0.12296726 0.0052653933 0.024109218
000250 23 8d 03 3c 73 6f 88 3e d7 74 54 3e 05 5c 5a be
       0.008029255 0.2664753 0.20747696 -0.21324165
000260 98 cc 0c bd 2f de f6 bd 21 c0 0d 3e 14 25 3a 3e
       -0.034374803 -0.12054097 0.13842823 0.18178207
000270 4f 05 8b 3d 1e 0f fe 3d bf de 8a be ca dc 8d 3d
       0.06788122 0.12405227 -0.27123067 0.06926878
000280 b5 b8 1a 3e 55 eb 50 be 37 45 85 bd 07 aa e2 3d
       0.15109523 -0.20402272 -0.06507342 0.110675864
000290 7b dd 44 be d6 c4 b7 be 6b 4b cd 3d 7a ac e2 3d
       -0.19225113 -0.3589236 0.100241505 0.110680535
0002a0 b4 ac 53 3e ba db 61 3c 52 4a 99 3d c3 dd 4a bd
       0.2067135 0.013785297 0.074848786 -0.049527895
0002b0 6b ea 12 be 4f 56 b0 3d 37 1f 90 3d 15 7c 98 bd
       -0.14347236 0.08610212 0.07037204 -0.07445542
0002c0 f7 6b b8 bd 87 d4 d7 3d 4e 14 0c 3c 83 e7 50 3d
       -0.09004968 0.10538583 0.008549763 0.051002037
0002d0 26 a1 30 be d0 06 57 bd 45 e3 20 be f7 24 ce bd
       -0.17248973 -0.05249673 -0.15711696 -0.10065644
0002e0 d0 89 82 3d d8 d8 e3 bd 2b 82 d8 bd 37 d7 53 3d
       0.06373942 -0.11125344 -0.105717026 0.051718917
0002f0 50 86 ea 3e 04 4d 49 bc 2d 42 67 be c6 83 36 3d
       0.45805597 -0.012286428 -0.22583838 0.044559263
000300 fe 21 db 3c 8a 74 84 3d de 60 23 be c2 ef 1a 3d
       0.026749607 0.064675406 -0.1595492 0.037826307
000310 92 f3 fe bd 82 10 33 3d f3 22 a5 be a0 b2 98 bd
       -0.12448801 0.043716915 -0.32253227 -0.07455945
000320 03 3e 88 be 31 83 7c bd 6d 44 67 bd c4 60 bf 3d
       -0.2660981 -0.06164855 -0.05646174 0.093446285
000330 e2 75 a2 bd 0b f4 bb 3c 5c 4a a0 3e d1 69 0e bd
       -0.079326406 0.022943517 0.31306732 -0.034768883
000340 1c 66 af 3d 2d 8c 15 3e 8b ee 65 be 67 6c 26 3e
       0.08564398 0.14604254 -0.22454278 0.1625229
000350 56 18 7a 3e cd aa 92 bd 75 15 db 3d 25 c8 0a 3e
       0.24423346 -0.07161484 0.10697452 0.13552912
000360 dc 22 0c 3d fc 9d 41 bd 57 d7 b8 bd 69 7d ef 3c
       0.034212932 -0.047269806 -0.09025448 0.029234605
000370 ac 96 06 3e 71 05 78 bc c5 7f 54 be 1f cd f4 3d
       0.13143414 -0.015138016 -0.20751865 0.11953186
000380 51 8d 0e bd 77 31 c0 3d 8f d2 b2 bd b5 19 24 3e
       -0.03480274 0.09384435 -0.08731567 0.16025431
000390 e2 ec ee bc 39 84 89 bd 73 dd 32 3e 23 a2 07 3e
       -0.029165689 -0.067146726 0.17467289 0.13245444
0003a0 85 83 26 3e 54 ae ae bd 87 ba b1 bd 7c 74 97 3e
       0.16261108 -0.08529344 -0.086781554 0.29581058
0003b0 8a bd a9 be 8d bd d5 3e e2 a8 90 be 92 26 9f 3d
       -0.3315242 0.41746178 -0.28253847 0.077710286
0003c0 5c af 87 bc bc 26 74 bc 6f a6 91 3e df a4 7b be
       -0.01656311 -0.014901813 0.2844729 -0.24574612
0003d0 65 a9 37 bd 78 ca da bc 32 a1 4c 3e ed f8 8b 3e
       -0.04483928 -0.026707873 0.19983366 0.27338353
0003e0 04 91 46 3d 12 5f 1f bd 66 a2 21 be 7b 5b 47 3e
       0.04847814 -0.038909025 -0.15784606 0.19468491
0003f0 88 f7 1d 3c 4b 75 27 3e 09 4d 04 bd 7b 2f 81 be
       0.009641536 0.16353337 -0.03230003 -0.25231537

linears.3.bias f4 [50]
000000 e7 bf b6 bd 2d 91 66 3e 9e ea 0f 3d 9b be 0f be
       -0.08923321 0.22516318 0.035135858 -0.14037554
000010 fe c8 c0 3e e4 55 90 3e 54 7a cf 3d 10 4e 53 be
       0.37653345 0.2819053 0.10130754 -0.20635247
000020 3e 12 27 3e 0d 4f a0 bd 19 25 19 bd 27 28 45 bb
       0.16315553 -0.07827578 -0.037388895 -0.0030083747
000030 ce 43 ea bd c5 6f 26 3f 84 0c dd bd 81 c0 ad 3e
       -0.11438714 0.65014297 -0.10793403 0.3393593
000040 b1 f4 a1 bd 61 86 be bc d1 2f 99 3d 17 00 86 3e
       -0.07907999 -0.023257436 0.074798234 0.26171944
000050 76 2e 05 be 36 99 0e 3e 2c 40 d9 bc 5a 01 20 3e
       -0.13006005 0.13925633 -0.026519857 0.15625516
000060 9e 36 35 bc 5a ce c3 3b 05 a3 2d 3e 89 4c 51 3d
       -0.011060385 0.0059755268 0.16956718 0.05109838
000070 7b 22 8c be a2 5a 80 be b5 44 9d bd 60 bd ef 3e
       -0.27370057 -0.25069147 -0.076791205 0.4682417
000080 30 43 a1 bc 9f 4a 8f bd 58 0a 0f 3e 1a 48 44 3d
       -0.019685358 -0.06996655 0.1396879 0.047920324
000090 38 45 14 bc e9 b1 d6 3d 1c 74 c3 bd 33 1c 8f 3d
       -0.009049706 0.104831524 -0.095436305 0.069878004
0000a0 df 91 fb bd 8a 61 ef 3d 58 ce f6 bd 68 11 c5 bd
       -0.12283682 0.11688526 -0.12051076 -0.096224606
0000b0 76 e7 cd 3e 8a 83 3c 3d ea d2 ea 3e f7 23 8d bd
       0.40215653 0.046023883 0.4586404 -0.068916254
0000c0 bc 83 d8 bd d0 5b 39 3e
       -0.10572001 0.1810143

linears.4.weight f4 [50, 50]
000000 45 ab 23 be 25 f6 f1 3d 46 2b 25 be 71 f2 c7 3d
       -0.15983303 0.118145265 -0.16129789 0.09763039
000010 aa 5e d2 3d ee 91 d1 bd a2 76 e7 3d 4e 6a 2b 3e
       0.10271962 -0.10232912 0.11301924 0.16739771
000020 d1 0a d0 3c a1 7a 00 be b3 fb 90 3b 78 26 b0 3d
       0.025395783 -0.12546779 0.004424536 0.08601087
000030 ca 6e 8e bd 65 cc 85 3e 02 64 58 bc dd 23 b2 bd
       -0.06954725 0.26132503 -0.0132074375 -0.08698247
000040 00 1f 89 bc 1b 89 ef 3d 60 94 ac 3d 6d 2b 14 3d
       -0.016738415 0.11696073 0.08426738 0.036174227
000050 9c b4 13 3e f3 08 89 3c 63 b0 87 3d bd e3 0d be
       0.14424366 0.0167279 0.0662544 -0.13856407
000060 72 60 a0 bd f8 f7 7a 3e b9 57 4d bd 75 46 75 3d
       -0.078308955 0.24508655 -0.050132487 0.059881646
000070 7a 97 df bd 32 cb dd 3d 9d 30 81 be 45 f2 f0 3e
       -0.10917564 0.10829772 -0.25232401 0.47059837
000080 14 e6 0f bd b8 8c 38 3d c7 5d 82 be 3c c8 35 bd
       -0.03513153 0.045056075 -0.2546217 -0.04438041
000090 95 ff 6b bd 9c 61 41 be 28 bb c3 be a9 29 12 bd
       -0.05761679 -0.18884891 -0.38228726 -0.03568426
0000a0 25 6c 7a bc 4b 49 16 3e 1a 6a 8c bc 83 cc a7 be
       -0.015284573 0.14676397 -0.017140437 -0.32773218
0000b0 23 ba ee 3d 98 15 0c 3e ef da 19 3e 48 7b 41 bc
       0.116565965 0.13680112 0.15024923 -0.011809178
0000c0 3e 2d 3a 3e eb 07 6a be 21 63 9c 3e c7 02 14 3e
       0.18181321 -0.22854583 0.3054438 0.14454184
0000d0 21 b6 25 bd e1 75 24 3d dd a3 3f 3d 42 d2 fa 3d
       -0.040456895 0.04015148 0.04678713 0.12247135
0000e0 f7 24 ba 3d db 6c 4a 3e a1 b8 88 3e 0e b3 12 bb
       0.09089082 0.19768088 0.2670336 -0.0022384557
0000f0 06 53 3c 3e c3 d3 b4 bc bd f0 48 be f1 cc e4 3d
       0.18391046 -0.022073632 -0.19623084 0.11171902
000100 c8 cb 95 3c 94 71 fd 3d be 00 55 be 09 6d 13 3e
       0.018285647 0.12375179 -0.20801064 0.14397062
000110 d4 51 c5 be ec b6 bc 3d 06 f2 2a be 6f b3 db 3d
       -0.38538992 0.09214577 -0.16693887 0.107275836
000120 10 3f 24 3e ce 90 e6 3c cb 9b a4 3d 7c 5c 8b be
       0.16039681 0.02814522 0.08037528 -0.27218997
000130 23 2a 1b be 63 b7 8e be b0 81 f1 bd e6 0b cc 3c
       -0.15152793 -0.27874288 -0.11792314 0.024908017
000140 62 35 6d 3e 94 d3 b5 bd 20 2d d2 bd 6c a4 c0 3e
       0.23164895 -0.08878246 -0.10262513 0.37625444
000150 ed d8 10 be 18 cc 36 bd 0c e0 42 3d b5 bc 3a be
       -0.1414525 -0.044628233 0.04757695 -0.18236049
000160 2e 55 d0 be 2f 32 2b 3b 01 89 eb 3b 85 99 8c bd
       -0.40689987 0.002612244 0.007187963 -0.06865219
000170 d5 89 fb bd 40 76 5e 3e 89 14 0e bd fd fa 23 bc
       -0.12282149 0.21724796 -0.034687553 -0.010008571
000180 98 91 1a be 5a 13 2f 3d 00 6f 80 3e b2 0e 12 be
       -0.15094602 0.042743064 0.25084686 -0.14263418
000190 73 9c e2 3b 4d 4b ef bc 3e 82 8f 3d 1b e1 23 3c
       0.006915623 -0.02921071 0.070072636 0.0100024
0001a0 05 a0 05 3b 5c 87 b1 3d 16 a5 cb 3d f8 41 83 3d
       0.0020389569 0.08668396 0.09943597 0.06409067
0001b0 98 31 a8 3c a4 5f cb bd 41 1d 6b 3e 0f 2c ad 3d
       0.02053146 -0.099303514 0.22960378 0.08455669
0001c0 bd 81 d1 3e 41 2d 02 be e7 16 4f 3d 0b bc d7 3c
       0.40919295 -0.12712575 0.05055895 0.026334783
0001d0 55 b5 d7 3e fa e6 c8 3c 53 95 0d be d7 f6 d1 bd
       0.42130533 0.0245242 -0.13826494 -0.10252159
0001e0 14 4a 10 ba 6d 6e 37 bd 8e 5f bb bd 44 a8 a9 3d
       -0.00055042026 -0.044783045 -0.09149085 0.08284047
0001f0 3d e7 46 be ad c9 54 3d fc ed 17 be b0 00 82 3e
       -0.19424148 0.051950146 -0.14836878 0.2539115
000200 47 6b ca bc 54 57 58 3c 22 98 ea bd 77 d6 c3 be
       -0.024709357 0.013204414 -0.11454798 -0.3824956
000210 68 48 75 3e 01 e4 92 bb 5e 0e 50 3e c0 25 31 bc
       0.23953402 -0.0044827466 0.2031798 -0.010812223
000220 93 d0 1a be 41 dd c6 bd fb b0 14 be 2d e0 a8 bd
       -0.15118627 -0.097101696 -0.14520638 -0.08245883
000230 34 c6 6c 3d 99 e0 8b be 94 2f e1 bc 95 3b 86 3d
       0.05780621 -0.27319792 -0.027488507 0.06554333
000240 09 13 a6 bd 27 16 01 be 4b 90 00 be b3 40 00 3d
       -0.081090994 -0.12606107 -0.12555043 0.031311702
000250 9e b7 a5 bc a5 b5 b8 bd fb c4 94 3e a0 93 43 3b
       -0.020229157 -0.09019021 0.29056534 0.002984263
000260 72 93 eb 3d 8e 80 60 3e a7 ed 5b be f4 bd 24 bd
       0.11502732 0.2192404 -0.21477376 -0.040220216
000270 14 86 bb 3c 5e d0 8b 3e 26 33 7b 3c e2 f0 2e be
       0.022891082 0.2730741 0.015332019 -0.17084077
000280 ad ae 3c bc e2 a5 94 bd 80 1f cb 3e b0 69 28 be
       -0.011516255 -0.07258202 0.3967247 -0.16446567
000290 10 55 b2 3e 4f 4a 1b be fa 76 a2 bd c3 56 0a 3d
       0.34830523 -0.15165065 -0.07932849 0.03377415
0002a0 bf 50 3c 3e 2b c3 d7 bb e8 8b a6 bd 3e 46 31 be
       0.18390177 -0.006584545 -0.08132154 -0.17311952
0002b0 e0 d7 8e be a5 95 2a 3d 25 38 b8 bd 44 65 c4 3d
       -0.27899075 0.04164662 -0.08995084 0.095896274
0002c0 99 ce 94 be 52 e6 ac bd b4 fa bd be d1 b9 67 bd
       -0.29063872 -0.084423676 -0.37105334 -0.056573693
0002d0 3e 9a bd bd b4 91 1a bd 35 26 eb bc fa bd ba bd
       -0.09257935 -0.03773661 -0.028704742 -0.091182664
0002e0 9a b7 52 bd 63 1a 5c be f2 84 9d be 56 1a 12 be
       -0.051444627 -0.2149444 -0.30765492 -0.14267859
0002f0 2e 44 51 be 83 88 79 bd 6d 4d 21 be ee 68 da 3b
       -0.20436165 -0.060921203 -0.15752192 0.0066653406
000300 05 e3 e2 3c 0c 38 22 bd ad 32 aa be 42 0e 69 3c
       0.027696142 -0.03960423 -0.33241788 0.014224591
000310 41 7c d2 bc ba 5b 8c 3d 4b fc b8 3d 43 2a 1e be
       -0.025694015 0.06853433 0.09032496 -0.15445809
000320 50 cb 1f be 5e 31 96 bc 5d c3 0b bd b1 65 e4 bc
       -0.15604901 -0.018334087 -0.03412186 -0.027880521
000330 7a cc 72 bd 71 58 50 3e 50 02 2c 3e 87 1c 39 3d
       -0.059277035 0.20346238 0.16797757 0.04519322
000340 ef ad 66 3c fe 3e 07 bb 3f 4f 09 be 85 36 30 bd
       0.014079555 -0.0020636912 -0.13409136 -0.043020744
000350 54 77 ff bc 57 89 10 3e c2 10 40 3d 95 1d 21 3c
       -0.03118483 0.14114891 0.04689098 0.009833713
000360 3f 94 a6 bc 49 77 74 be c7 21 03 bd 71 d3 10 3d
       -0.020334361 -0.23873629 -0.032014634 0.035357896
000370 2f cd 20 3e 1a 6c 45 bd 13 87 48 3c 47 53 94 bd
       0.15703271 -0.048198797 0.012239235 -0.072424464
000380 39 1e 15 be a8 01 1f bc 50 29 4a 3e ac d3 70 bc
       -0.1456231 -0.009704985 0.19742322 -0.014698904
000390 3e 93 1d 3e f4 07 9b bd b6 4f c0 bd 50 0a f1 3e
       0.153882 -0.07569876 -0.09390204 0.4707818
0003a0 f4 81 5a be 17 13 49 3d 56 17 cf bc a3 13 12 3e
       -0.21338636 0.04909047 -0.025279682 0.14265303
0003b0 ac 81 10 3e 32 96 4e be 5d 5c 71 bd 2d 2c 45 be
       0.14111966 -0.20174482 -0.058925975 -0.19255133
0003c0 1d a6 66 bc 3a 40 44 3e ae e4 2d be 65 a3 9e be
       -0.01407769 0.19165125 -0.16981766 -0.30984035
0003d0 4a a0 eb 3d 88 d9 93 3b f4 09 89 3e 36 9f bb 3d
       0.11505182 0.0045120157 0.26765406 0.091612265
0003e0 e1 2b f5 3d 1f bd 0e 3d f8 c1 02 3e 4d 8c ce bd
       0.1197126 0.03484833 0.12769306 -0.10085354
0003f0 b7 ac 79 3e 93 fb 34 3e aa 5f c0 bb 21 ae 92 bd
       0.24382292 0.17674093 -0.005870779 -0.07162119

linears.4.bias f4 [50]
000000 d3 2a 32 bd 3c 6e dd 3c fd 19 3c be ca a4 a8 be
       -0.04349787 0.027030103 -0.18369289 -0.32938224
000010 0b 66 92 3d d6 ef 73 be 3e f9 4c 3e 8f a8 89 bc
       0.071483694 -0.23821959 0.20016953 -0.016804008
000020 9a f1 e0 3b 83 b9 91 3d f3 12 67 bd b2 8c 3f be
       0.0068647387 0.07115462 -0.056414556 -0.18706015
000030 8b 72 2f bd a6 ce 98 3e f3 c7 be bd dd 4c 82 3e
       -0.042833846 0.2984516 -0.09315481 0.25449267
000040 7f 3b 3a be a6 23 46 3e ef cf eb 3d 11 52 48 be
       -0.18186758 0.19349536 0.115142696 -0.19562556
000050 d9 f1 8c bc e3 e2 f9 bd 39 85 5a 3e 92 71 da 3e
       -0.017205166 -0.12201478 0.21339883 0.42664772
000060 cf bb d8 3c ae 1d 91 3d fb e3 09 be 07 cb ad 3d
       0.026456742 0.07085739 -0.13465874 0.0848599
000070 7e 1f bc 3c 8d 6c 02 3f bd c5 5e 3c dd e8 84 be
       0.022964235 0.50946885 0.013596949 -0.2595891
000080 3c cd e2 bd 89 5d c5 be 49 8b b9 ba 78 ec 03 bd
       -0.110743016 -0.38547924 -0.001415589 -0.032207936
000090 c2 cf 00 be 6d af bc 3d da 4d 26 bd 4d 61 85 3d
       -0.12579253 0.09213147 -0.04060159 0.06512699
0000a0 fe 62 b5 3e 77 40 de 3d f4 51 27 3e 02 42 3d bc
       0.35427088 0.108521394 0.16339856 -0.011551382
0000b0 ec 3f 29 3e a4 86 9a be bd 40 e0 3e 72 b9 e7 bb
       0.1652829 -0.30180848 0.4379939 -0.0070716674
0000c0 a9 02 44 be 74 d2 32 be
       -0.1914164 -0.17463094
