Archived Code/Stan TPAMI/3D/stan_tune/3D_HTTP_stan_tune2_1.pt (torch, 90790 bytes, 20 tensors)

beta f4 [50, 9]
000000 ac 42 02 3f c2 36 f8 3e e1 75 f3 3e 2b d6 f6 3e
       0.50882983 0.48479277 0.47550872 0.48210272
000010 e5 96 08 3f e9 00 f4 3e 8f 8f c9 3e af f2 fb 3e
       0.53355247 0.47656944 0.3936734 0.4920859
000020 71 51 a6 be d9 62 fc 3e 2d 2a 03 3f 1a f2 11 3f
       -0.3248401 0.49294165 0.5123623 0.5701004
000030 0b 41 de 3e 0c b2 ee 3e bc fe 0d 3f c1 40 01 3f
       0.43409 0.46620214 0.5546682 0.5048943
000040 4a 5d 01 3f 4b 2f 80 3e 66 8d 00 3f e6 22 03 3f
       0.5053297 0.25036082 0.50215757 0.51225126
000050 99 4d e5 3e e8 ab 00 3f c5 0c 05 3f 92 22 e1 3e
       0.44785765 0.5026231 0.5197261 0.43971688
000060 fa 38 03 3f e9 11 4a 3f d6 0d 01 3f 11 62 04 3f
       0.51258814 0.7893358 0.50411737 0.5171214
000070 5a 6c 09 3f 60 20 e9 3e 24 ef f8 3e 77 c6 f9 3e
       0.53680956 0.45532513 0.4861995 0.4878423
000080 13 ad 01 3f f2 a2 16 3f 0d 58 a0 3e 83 15 32 3f
       0.50654715 0.58842385 0.31317177 0.69564074
000090 aa eb 09 3f ff a2 02 3f 70 ae fa 3e 1c de 00 3f
       0.5387522 0.5102996 0.4896121 0.5033891
0000a0 dc bd 0b 3f 1c 8f 47 3f 24 ce 9e 3e ba d6 fd 3e
       0.5458658 0.7795274 0.31016648 0.49577886
0000b0 4f a0 c9 3e 0b 48 fc 3e 0f 23 ec 3e 68 be 00 3f
       0.39380118 0.49273714 0.46120498 0.50290537
0000c0 1a 91 04 3f 4f ab f3 3e 8e 61 5a 3e 9b cf 05 3f
       0.5178391 0.47591636 0.21326277 0.52269906
0000d0 df 8c 90 3f 04 fb 0b 3f 48 06 10 3f b5 2f 02 3f
       1.129299 0.54679894 0.56259584 0.50854045
0000e0 e6 ed 0b 3f 9a ca d3 3e e3 fa 0a 3f 4f 5a 01 3f
       0.5465988 0.4136551 0.5428907 0.50528425
0000f0 2e 3a ff 3e fc 9f 05 3f 87 26 15 3f 8c 9b 00 3f
       0.49849075 0.5219724 0.58261913 0.50237346
000100 bc 4a 00 3f d1 86 1f 3f 31 0c f2 3e 54 01 05 3f
       0.50114036 0.6231509 0.47274926 0.5195515
000110 3f 66 d1 3e 58 b0 f0 3e f4 07 e9 3e d5 88 45 3f
       0.4089832 0.4700954 0.4551388 0.77161914
000120 ea 95 e6 3e c9 54 01 3f 0a 7a f7 3e 6a 11 e2 3e
       0.4503625 0.50519997 0.48335296 0.4415391
000130 c4 34 16 3f 33 c5 f7 3e 55 68 03 3f 2b 03 08 3f
       0.58674264 0.4839264 0.51331073 0.53129834
000140 ea fc 8b 3e ea 3e 00 3f 0d e4 eb 3e ba f8 01 3f
       0.27341396 0.50096 0.46072426 0.5077015
000150 b4 75 fc 3e 99 8c f6 3e 2c f0 d5 3e 70 2e f3 3e
       0.4930855 0.48154142 0.417848 0.47496367
000160 61 d9 bd 3e c5 af fd 3e 7f b4 bf 3e 5a d8 01 3f
       0.3707991 0.49548164 0.37442395 0.5072075
000170 d3 e4 c9 3e 61 3c 01 3f b3 db 0a 3f 37 aa 02 3f
       0.39432392 0.50482756 0.54241484 0.5104098
000180 88 7b f7 3e 57 19 fa 3e db d5 55 3f 39 da 00 3f
       0.48336434 0.48847458 0.8352944 0.5033298
000190 b4 ee 01 3f 08 b6 05 3f a6 6d 07 3f c5 fb 04 3f
       0.5075486 0.5223088 0.52901685 0.5194667
0001a0 df 41 eb 3e d4 63 0f 3f 87 f8 e9 3e 2b f1 00 3f
       0.45948693 0.560117 0.45697424 0.50367993
0001b0 0d 67 00 3f ab 10 ef 3e 5e d5 f5 3e b9 87 f3 3e
       0.50157243 0.46692404 0.4801435 0.47564486
0001c0 79 94 02 3f 2c 85 fc 3e 3a 14 08 3f af 46 fd 3e
       0.510078 0.49320352 0.53155863 0.4946799
0001d0 6c e1 11 3f 88 f3 ef 3e 7b de e8 3e 75 a6 f4 3e
       0.5698459 0.46865487 0.4548224 0.47783247
0001e0 65 05 f6 3e 84 2a 07 3f c8 cb f8 3e 2a 5f 1a 3f
       0.4805099 0.5279925 0.48592973 0.6030146
0001f0 b2 fd f1 3e ab e0 74 3e 63 99 00 3f 05 fa 03 3f
       0.47263867 0.23913829 0.5023405 0.51553375
000200 11 e6 c3 3e c6 d2 fb 3e 3e 87 ff 3e f1 cf e2 3e
       0.38261464 0.49184245 0.4990787 0.44299272
000210 90 84 fc 3e 80 1e 01 3f 83 0a 4a 3f f9 ec fc 3e
       0.49319887 0.50437164 0.7892229 0.49399546
000220 7f f8 d9 3e 93 04 f3 3e 48 0d 06 3f 8a 64 00 3f
       0.425724 0.47464427 0.52364016 0.5015341
000230 a4 a5 0f 3f 21 ee f1 3e 3c ea 14 3f 94 63 4d 3f
       0.5611212 0.4725199 0.58169913 0.8023007
000240 92 42 0a 3f 05 a9 d8 3e 9a 90 00 3f df 83 f0 3e
       0.5400783 0.42316452 0.50220644 0.4697561
000250 a2 70 06 3f 78 ee e1 3e 85 19 0e 3f cc 45 00 3f
       0.52515614 0.4412725 0.5550769 0.501065
000260 34 14 f3 3e 9c ef 00 3f 70 39 08 3f 02 9a ff 3e
       0.4747635 0.50365615 0.5321264 0.49922186
000270 d1 96 09 3f bc b8 c2 3e aa 99 fe 3e 98 17 cc 3e
       0.5374575 0.38031566 0.4972661 0.3986175
000280 97 7d 04 3f cc 89 4b 3f 8a 15 10 3f 4d 33 ff 3e
       0.51754135 0.79507136 0.56282866 0.49843827
000290 b1 06 0a 3f 44 cc 00 3f 9b b7 fa 3e c0 2a 0c 3f
       0.5391646 0.50311685 0.48968205 0.5475273
0002a0 0e 4c 09 3f 7a 51 06 3f 7a cb d4 3e 6c aa ff 3e
       0.53631675 0.52468073 0.4156149 0.4993471
0002b0 7f c5 fd 3e cd 1f ca 3e 6b 76 00 3f ea fa fb 3e
       0.4956474 0.39477387 0.5018069 0.4921487
0002c0 ed a9 06 3f df 05 ff 3e f7 42 fa 3e 41 99 fe 3e
       0.52603036 0.49809167 0.48879215 0.49726298
0002d0 58 3c ee 3e 65 40 ee 3e 63 86 dd 3e fe 9d f9 3e
       0.46530414 0.46533504 0.4326659 0.4875335
0002e0 bd 2b ec 3e 92 61 fd 3e c2 9e 83 3e 17 76 00 3f
       0.4612712 0.49488503 0.2570706 0.5018019
0002f0 82 81 00 3f 66 4b ef 3e a7 73 04 3f 25 ad 02 3f
       0.50197613 0.46737212 0.5173897 0.5104545
000300 88 28 03 3f d3 9d ee 3e bb 01 12 3f 62 49 2d 3f
       0.5123372 0.46604785 0.5703389 0.676901
000310 76 d0 b5 3e ef 3e d0 3e a9 09 01 3f 87 49 f4 3e
       0.35510606 0.40673015 0.50405365 0.47712347
000320 8a ad 03 3f 85 20 f7 3e f7 33 e9 3e ba d9 17 3f
       0.51436675 0.48266998 0.4554746 0.593166
000330 86 37 0b 3f 69 80 03 3f 5e 13 71 3f 75 f6 08 3f
       0.543816 0.51367813 0.94170177 0.53501064
000340 99 b5 01 3f 6b ba 17 3f 8d 5a ff 3e 58 a5 e9 3e
       0.5066772 0.59268826 0.49873772 0.4563396
000350 6d 44 e5 3e 87 22 eb 3e b6 b1 a3 3e 52 78 b6 3e
       0.44778767 0.4592478 0.3197152 0.35638672
000360 1d 21 05 3f 12 fb fe 3e 63 71 f4 3e 6a 7b fc 3e
       0.5200365 0.49800926 0.47742757 0.49312907
000370 36 d9 f5 3e a5 6c 02 3f d1 6b 01 3f 48 32 02 3f
       0.4801728 0.5094703 0.5055514 0.50857973
000380 62 e5 d7 3e e5 88 f4 3e b1 d9 fa 3e a4 a6 cc 3e
       0.42167193 0.47760692 0.4899421 0.39970887
000390 80 d1 fe 3e c9 0f ff 3e c3 a9 c5 3e 43 f4 07 3f
       0.4976921 0.4981673 0.3860608 0.5310709
0003a0 5c 18 01 3f 35 d8 f1 3e a2 a9 e7 3e c7 6c f4 3e
       0.50427794 0.47235265 0.45246607 0.4773924
0003b0 41 31 03 3f 3a 5f e0 3e 6b 21 f8 3e 75 cb 16 3f
       0.5124703 0.43822652 0.48462996 0.589042
0003c0 bb 37 fa 3e 86 9e ef 3e 1e 26 00 3f d3 80 e1 3e
       0.48870644 0.4680063 0.5005816 0.44043598
0003d0 07 57 10 3f 1c ad f8 3e 1d 76 f0 3e cf fe 01 3f
       0.56382793 0.48569572 0.46965113 0.5077943
0003e0 c9 c7 06 3f 07 6d f6 3e a6 af e7 3e 9d 01 00 3f
       0.526486 0.48130056 0.45251197 0.5000246
0003f0 1e 79 f5 3e 4b e2 fd 3e bd c3 df 3e 8e 30 00 3f
       0.47943968 0.4958671 0.43704024 0.5007409

linears.0.weight f4 [50, 3]
000000 5c d1 46 3d a3 fb af be 61 6c 56 be d4 27 c4 3d
       0.048539504 -0.3437167 -0.20939781 0.09577909
000010 29 d1 74 bd 8b b6 83 3d 69 41 c5 3c 2f 95 d6 3d
       -0.059769783 0.06431302 0.024079042 0.10477673
000020 69 bb 93 3d 89 a8 99 be e5 b5 d2 bd 20 7e 9b 3c
       0.0721348 -0.30011395 -0.102886 0.01898104
000030 d8 df 83 3d 7f e0 a7 be 8c 00 7d be e9 e4 5b bc
       0.06439179 -0.32788464 -0.2470724 -0.013421276
000040 e7 6b cb 3d bf 0c a4 3e 55 c7 04 bf a8 e7 e9 be
       0.0993269 0.32040974 -0.51866657 -0.45684552
000050 6d cd 7d be 53 fd 13 bd 48 ed 25 3e ac 27 2d 3e
       -0.24785395 -0.03613026 0.16203797 0.16909665
000060 d8 33 24 be a1 c9 ab 3e 60 0c cd 3e b8 0e a6 bb
       -0.16035402 0.33552268 0.40048504 -0.0050676726
000070 ca 70 8a 3d 77 3e 14 be b2 d2 94 3d 43 a0 af be
       0.06759794 -0.14476953 0.072667494 -0.34301957
000080 34 58 b8 bd 0a bf 06 3e ec 06 79 be dc 9a 41 be
       -0.090011984 0.13158813 -0.24319047 -0.1890673
000090 cb 28 ba 3d 21 01 7a 3e 06 61 9a 3e b0 43 52 3d
       0.09089812 0.24414493 0.30152148 0.051334083
0000a0 31 9f 85 3e e9 82 80 be 66 ab 4a 3e 82 8f 83 3d
       0.26098016 -0.25099877 0.19791946 0.06423856
0000b0 1d ff 6b be 9f a6 31 bd 83 02 51 3e 10 d2 33 3e
       -0.23046537 -0.043371793 0.20411114 0.17560601
0000c0 4f 20 11 3e c9 79 0c bf 3a c5 ff bd 95 72 06 be
       0.14172481 -0.5487333 -0.1248879 -0.13129647
0000d0 69 da fb 3d cf 4c 54 be ff 7b e3 bd 66 aa ae bc
       0.12297518 -0.20732425 -0.11107635 -0.021321487
0000e0 30 3e d6 be f1 ba f0 bd 19 c9 84 3e b0 19 dd 3e
       -0.4184432 -0.11754406 0.25934675 0.4318366
0000f0 08 fc a7 bd 3b a3 21 be c7 e1 68 3e 84 6d 8d 3d
       -0.08202368 -0.15784924 0.22742377 0.06905654
000100 22 b7 a1 be 62 8d a5 be 60 66 97 be 3e d3 04 3f
       -0.31585032 -0.3233443 -0.29570293 0.5188483
000110 24 f8 e9 be 15 de b6 3d 8f 7f 48 be ca 30 93 be
       -0.4569713 0.089290775 -0.1957991 -0.2874816
000120 a6 17 63 bd cd 77 94 3e 1f 0a 2f be 7f 83 23 bb
       -0.055442475 0.2899765 -0.17093705 -0.0024950204
000130 af 62 ff bd 4a b9 ec 3e be f6 12 bd af 03 02 3e
       -0.12469994 0.46235114 -0.035879843 0.12696718
000140 3d 34 c1 3e 65 36 93 3e 6d 1a 59 3e 14 c6 0f bf
       0.37735167 0.28752437 0.21201487 -0.5616162
000150 84 20 46 be 0b 02 55 be ef 00 d6 bd 14 43 40 be
       -0.19348341 -0.2080156 -0.10449397 -0.18775588
000160 d2 c1 52 be f7 9a cf bd 90 8b 2e 3e 66 02 dd 3d
       -0.20581749 -0.10136979 0.17045426 0.10791473
000170 0a c0 d8 be a1 62 24 bd 11 92 f9 bd 6b 42 af 3e
       -0.42334014 -0.040133122 -0.12186063 0.3423036
000180 ad 77 ec bd a7 12 90 3e 4a 82 06 3e 29 03 cb 3c
       -0.11546264 0.2813923 0.13135639 0.02478178
000190 c4 54 b9 3b 7e 1e 1f be 43 cf 18 be b9 84 e7 bd
       0.005655857 -0.15538976 -0.14922814 -0.11304612
0001a0 33 65 85 3e f0 a5 29 be 51 c3 5d 3d 2f 99 11 3f
       0.2605377 -0.16567206 0.054141346 0.56874365
0001b0 a2 ee 28 3d 9f 16 96 3e 7e ce 88 be 84 20 b5 be
       0.041243203 0.29314134 -0.2672004 -0.3537637
0001c0 63 72 52 be 87 86 2b bc 88 64 e3 bd ac c6 94 3e
       -0.20551448 -0.010469086 -0.11103159 0.29057825
0001d0 fd d2 30 3e 06 ec 02 be 20 4f 88 be 87 bd 85 3e
       0.17267986 -0.12785348 -0.26622868 0.2612116
0001e0 12 95 06 3e 19 ad 6d 3d ea 94 9f 3e 8b f9 56 be
       0.13142803 0.058026407 0.311683 -0.2099363
0001f0 04 6a 4e 3e ed 93 76 3e 19 0c bd 3d 16 7f 83 be
       0.20157629 0.24079867 0.09230823 -0.25682896
000200 53 97 28 be 48 12 c6 bd 75 57 9a bf ba 64 ee 3c
       -0.16463976 -0.096714556 -1.205794 0.029100765
000210 fc 2a 0f 3d 74 ca 31 3c b3 ee d7 3d 46 83 03 3e
       0.034953102 0.010851491 0.10543575 0.12843046
000220 43 5e 10 3f fa ac eb bd b7 0a 45 be 30 75 77 bd
       0.5639383 -0.11507602 -0.19242369 -0.060414493
000230 23 bd d0 be 43 88 c0 bd 93 c9 26 3e 1d b8 da 3d
       -0.407693 -0.0940099 0.16287832 0.10679648
000240 6a 9a 1c 3d fe b0 a0 bd 45 4f 05 3e 52 35 da bd
       0.0382332 -0.078462586 0.1301852 -0.10654701
000250 8e 22 05 3f c4 37 b2 3e
       0.5200585 0.3480817

linears.0.bias f4 [50]
000000 dd eb 8e be 3b de 99 be 14 0c e2 bd 7e 61 9f be
       -0.27914324 -0.3005236 -0.1103746 -0.31129068
000010 b2 1d 13 3c ea 1a 03 3f d7 04 19 bf 40 27 6f 3e
       0.008979248 0.5121294 -0.5977301 0.23354816
000020 c0 0e a6 3e a2 5f 6a bc 74 51 ac be d8 be 5a bd
       0.32433128 -0.014305027 -0.33655894 -0.05340466
000030 54 90 ca 3e 86 2d 0c bf 50 27 33 be b4 f1 2c 3e
       0.3956324 -0.54756963 -0.17495465 0.16889077
000040 6f 39 fd bd ed bf 4b be 2c 45 79 be 79 5b 67 3e
       -0.1236447 -0.19897433 -0.24342793 0.22593488
000050 88 18 83 3e 2d f0 99 be 6c d5 51 bd 2d 83 88 be
       0.25604653 -0.30066052 -0.051228926 -0.2666258
000060 4b 07 c0 3e 43 bc ac 3e d4 cf b5 3e 72 1c 87 be
       0.37505564 0.33737382 0.35510123 -0.2638889
000070 1d c2 02 bf 29 b5 de be 8b e7 70 be d5 3c 40 3e
       -0.51077443 -0.4349759 -0.23525827 0.18773206
000080 20 4e 96 3d 04 01 96 be 3f bc e3 3d 1d 87 fa 3a
       0.0733912 -0.2929765 0.111198895 0.0019113753
000090 7f 40 92 bc 87 e1 83 be d3 90 a2 3e a1 73 ac be
       -0.01785302 -0.25758 0.31751117 -0.33681968
0000a0 c0 43 98 be 6e b3 cb bc e5 d3 76 be 39 1d cf bc
       -0.2973919 -0.024865832 -0.24104269 -0.02528249
0000b0 c7 52 aa 3e 55 d3 1d 3e f5 30 d7 3d d5 31 00 be
       0.3326628 0.15412648 0.10507385 -0.1251901
0000c0 b9 7c c8 3e 05 5a da 3e
       0.39157656 0.42646804

linears.1.weight f4 [50, 50]
000000 9e 60 1a be 98 46 8d 3d 9f b8 b5 3d 61 b1 6a 3e
       -0.15075919 0.0689823 0.08873104 0.22919227
000010 98 38 fc 3c 02 d8 41 3e 41 0e 16 3d 03 06 80 3b
       0.030788705 0.18930057 0.036634687 0.0039069667
000020 09 c7 da 3d 34 e7 68 bd 1e 59 82 be a8 d3 7d 3d
       0.10682494 -0.056861117 -0.25458616 0.06196943
000030 61 d5 5f bd a5 db d4 bd 49 d1 08 be 25 70 37 3e
       -0.054646853 -0.10393456 -0.13361086 0.17913873
000040 b9 65 89 bd 51 b7 18 be 2d cc 25 be 34 10 c6 3d
       -0.06708855 -0.1491368 -0.16191168 0.09671059
000050 1f d3 21 be ed 34 36 be 50 18 ae 3c df 52 38 3c
       -0.15803193 -0.17793627 0.021251827 0.011250227
000060 f2 49 88 3e 38 eb b5 3d ed 00 0d 3e 3a 4a 1e be
       0.26618916 0.08882755 0.13769884 -0.15458003
000070 53 c6 62 be 51 4f a7 be f4 d2 e7 bd 36 13 87 3b
       -0.22145967 -0.326777 -0.11319533 0.004122163
000080 f5 f2 b9 bd 10 f2 44 bd 6d a9 fe bc 1e 8a 2a bd
       -0.090795435 -0.04808241 -0.031086648 -0.041635625
000090 8f 1b c6 bc 07 07 b4 3e 58 3b 28 3e ec 92 35 ba
       -0.024183063 0.3516161 0.16428888 -0.0006926495
0000a0 37 f8 b8 bd 73 da 11 be ac d1 87 bd 57 55 0c 3e
       -0.09031718 -0.14243488 -0.066317886 0.1370443
0000b0 b3 b7 0c 3c 2d 78 0d 3e cf cb 09 3e 63 d2 92 3d
       0.008588719 0.13815375 0.13456653 0.07169034
0000c0 62 83 55 bd bd 9e 59 bc 45 5c 83 3e 3d 5c 6b bd
       -0.05212725 -0.013282475 0.25656334 -0.057461012
0000d0 64 b4 82 3e 7b 57 3f bc f5 b2 73 be a8 ed 3f 3e
       0.25528252 -0.011678572 -0.23798735 0.18743002
0000e0 19 3f 6e 3e 4f 73 8b 3e d9 ac fb 3c ed 23 bb bd
       0.23266257 0.2723641 0.030722069 -0.09137712
0000f0 97 37 b1 3d 9b 21 da 3c 98 1f 0f 3e c7 8d 8e 3c
       0.08653181 0.026627352 0.13976896 0.01740159
000100 5a f0 38 3e c9 dd f9 bd a9 c0 8d 3e d2 61 49 3e
       0.18060437 -0.12200505 0.2768605 0.19666222
000110 9c 70 a4 bd 7a a8 95 bc 61 c3 8a 3d 0d 98 33 3e
       -0.08029291 -0.018268812 0.06775547 0.17538472
000120 74 b4 32 bd f8 f6 8a bb 95 95 93 3e 56 14 cd 3d
       -0.043629125 -0.0042408668 0.2882506 0.100136444
000130 9a 84 ba bd 8c 5d 24 bc 19 dd da 3d 63 5b db bd
       -0.09107323 -0.010032069 0.10686702 -0.1071079
000140 7c 95 84 3e bf 8b 01 3d ed ae ca 3c a5 30 c3 3d
       0.25895298 0.031627413 0.024741614 0.095307626
000150 52 bc 20 3e b8 6f e5 bd 6c 34 d2 3c 80 3f 86 3d
       0.15696838 -0.11202949 0.025659762 0.065550804
000160 7c 54 5e 3e 09 74 72 bd 6a 4e 48 be 87 94 31 bd
       0.21711916 -0.05919269 -0.19561163 -0.043354537
000170 d5 20 04 bd b9 46 5b 3e f1 28 43 bd a0 5a 85 3c
       -0.032257874 0.21413697 -0.047646467 0.016278565
000180 8a 5d 06 be b9 6b 1d 3d 14 31 fa 3b 6c 00 46 be
       -0.1312162 0.03843281 0.007635245 -0.19336098
000190 54 b2 ba bc 48 4b cf 3d 38 2f a7 3c 22 9f 63 3d
       -0.022790112 0.10121781 0.020408258 0.055571683
0001a0 e9 7d 5a 3d 4c f7 80 3e ad bb 06 be dd c3 19 be
       0.053342734 0.25188673 -0.1315753 -0.15016122
0001b0 b9 94 c9 3c 42 70 8e bd a4 59 a8 3e a6 1a bf bb
       0.02460705 -0.06955005 0.3288089 -0.005832034
0001c0 d5 4d 83 be 55 88 58 bb 6a 54 e7 3d cd 00 4a bd
       -0.2564532 -0.0033040245 0.112953976 -0.04931717
0001d0 2b d1 47 3e 24 57 61 be 34 e2 47 be 7d 69 98 bd
       0.19513385 -0.22005898 -0.19519883 -0.07441995
0001e0 e0 63 7e bb 87 ff a9 be 33 59 de be 58 1a 34 be
       -0.0038816854 -0.33202764 -0.4342743 -0.17588174
0001f0 7d 08 5d be 80 f1 48 3e 68 1c 6e be b6 f7 af be
       -0.2158527 0.19623375 -0.23253024 -0.34368676
000200 17 0b a9 be 83 3d 2a be d9 2b 5a be cb 48 de 3d
       -0.33016273 -0.16625027 -0.21305789 0.10853728
000210 73 6b e5 bd b6 7b 24 be e5 a6 a8 bb f5 ec 9e 3d
       -0.11202135 -0.16062817 -0.0051468485 0.0776004
000220 27 2b 86 be ad 16 ac bd 05 eb 54 bd 60 c2 47 3e
       -0.26204798 -0.084027626 -0.051981945 0.19507742
000230 89 91 b8 3d b8 db 0e 3d e8 67 9c 3c 24 44 a4 be
       0.09012134 0.03487751 0.019092515 -0.32083237
000240 43 99 bc bd e1 54 b1 be c6 eb 7f bd 4f 15 d9 bb
       -0.0920892 -0.3463507 -0.06248071 -0.0066248546
000250 b9 b8 a2 3d 65 9f ba bd 08 67 54 bd d8 66 14 bd
       0.07945389 -0.09112433 -0.05185607 -0.036230892
000260 44 81 8c be 2a 63 94 3d f7 e9 84 be c5 78 3f be
       -0.27442372 0.072454765 -0.2595975 -0.18698414
000270 d9 38 d8 3d d2 24 81 be 9c de 96 bd 52 ee 58 be
       0.10557718 -0.25223404 -0.07366678 -0.21184662
000280 84 bb ed 3d 96 cc d3 3d 50 31 1c bd eb 67 c7 3d
       0.116080314 0.10341756 -0.038132966 0.09736618
000290 1d 2f 76 3d ff 95 04 3e 54 5e ad bd 1a 2b a4 3b
       0.060103524 0.12947844 -0.08465257 0.005010021
0002a0 c1 da 28 bd 5b 82 96 be d4 9f ae bd 81 f6 51 be
       -0.041224245 -0.29396328 -0.085265785 -0.2050419
0002b0 14 8f cc 3d c5 80 97 bd 44 2b b2 3d b6 35 4e be
       0.099882275 -0.07397608 0.086996585 -0.20137677
0002c0 3b c7 39 be 8a 3a 60 bd 2d c2 9d 3d 9a 4b 20 3e
       -0.18142407 -0.054743327 0.07703052 0.1565384
0002d0 0b 6b c6 bd a6 77 96 be e0 88 0f be 17 76 a3 bc
       -0.096883856 -0.2938816 -0.14017057 -0.01995377
0002e0 6e a5 5a 3e b6 5b 06 be ab a9 8e 3e 27 cd 84 be
       0.21352169 -0.13120922 0.2786382 -0.2593777
0002f0 ba 66 3e be 31 27 d8 bd 81 44 d9 bd 6a b4 64 be
       -0.18593875 -0.1055435 -0.10608769 -0.22334448
000300 85 bd d5 bd c3 4d ce 3d 47 5a 33 bc 64 4d 20 be
       -0.104365386 0.100734256 -0.010946817 -0.15654522
000310 ce a7 54 3e 4f 6f 0e bd d3 5d 46 3c 7d 1b f9 3d
       0.20767137 -0.03477412 0.01210733 0.12163446
000320 e1 4b 9c be c0 f4 3f bd 2a d0 9f 3b 3a 9b f4 3d
       -0.3052664 -0.04686427 0.00487711 0.119436696
000330 33 93 4f bc 02 61 06 bd 7d 4d 05 3e 3e 1e 4e bd
       -0.012669372 -0.032807358 0.1301784 -0.05032181
000340 41 c3 2f be 58 18 92 be ae a1 8a 3d c0 99 a9 bd
       -0.17164327 -0.28534198 0.06769119 -0.082812786
000350 fe 6e b2 3d 40 88 47 bd e3 2a 69 bd 78 45 0b 3e
       0.08712576 -0.048713923 -0.056925666 0.13600719
000360 c0 9f 8c bd 40 16 37 3d ec 05 cf 3d 39 cf 80 3e
       -0.068664074 0.044698954 0.101085514 0.25158098
000370 e8 a7 17 be cb 2f f4 bc 04 6b 02 bd fe 33 9a 3c
       -0.14810145 -0.029807946 -0.03184034 0.01882362
000380 25 a8 26 be be cc a8 be a0 4e 0b 3d 42 86 a3 3e
       -0.1627508 -0.32968706 0.03401053 0.31938368
000390 af 7f 21 be f9 4a 79 bd 1d 85 40 3e 42 a4 5f 3e
       -0.15771364 -0.060862515 0.18800779 0.21840003
0003a0 7b 8e 22 be b1 d8 8a be 79 03 9c bd 84 8b 4f 3c
       -0.15874664 -0.27118447 -0.0761785 0.01266754
0003b0 db 2a db 3d e0 23 f9 bc be a1 59 bd 1d cb a0 be
       0.107015334 -0.030412614 -0.053132765 -0.31404963
0003c0 48 17 bf 3d 21 d2 1b be 15 38 31 be 55 78 a2 3e
       0.093306124 -0.15216877 -0.1730655 0.3173243
0003d0 3a b6 b1 bc 6e 02 27 be b5 3a 79 bd b5 2d 5c 3c
       -0.021693338 -0.1630952 -0.060847003 0.013438632
0003e0 bb b6 8f 3d ba 48 93 be d6 e1 43 3e ef 86 6e 3e
       0.07017275 -0.28766423 0.19129118 0.2329366
0003f0 e9 0e 63 3e 9b 8a 16 3e cc 19 b3 bd e4 ff 00 bd
       0.22173657 0.14701311 -0.08745155 -0.031494036

linears.1.bias f4 [50]
000000 98 5d 7b 3e 88 8a e5 bd 4b cb 6b 3d aa a6 fc bd
       0.24547422 -0.11208063 0.057566922 -0.12336476
000010 65 c5 fc 3d d5 06 26 be 95 6f 1a 3e 6a b7 fc 3d
       0.123423375 -0.16213544 0.15081628 0.12339671
000020 84 bd e4 3c e9 fa 0c 3e b7 7b 8f 3e 65 44 9d be
       0.0279224 0.1376759 0.28024074 -0.30716243
000030 6f 2e c3 3d 8b f7 f8 bd 71 8e de bd 74 ed 99 bb
       0.09530341 -0.1215659 -0.10867012 -0.004697496
000040 e2 60 41 be 0e b2 b1 be fb 84 8b 3d e9 99 e0 3d
       -0.18884614 -0.34706157 0.068124734 0.10966856
000050 6c bb 42 3e 23 08 93 3d bf 82 0b bd 31 65 05 be
       0.19016808 0.07179286 -0.034060236 -0.13026883
000060 dd 7d 83 bd 0d 30 8a 3e 97 4f 75 3e 51 f4 8e be
       -0.06420491 0.26989785 0.23956142 -0.27920774
000070 ee b0 a1 bc c2 df 35 3d 15 c4 85 be 6b dd b5 be
       -0.019737687 0.044402845 -0.2612616 -0.3552049
000080 91 6d 8c be f9 4f 89 3d ae 93 96 bd 3a 9e 89 be
       -0.27427343 0.06704707 -0.073523864 -0.2687853
000090 10 f3 a0 be b3 83 bd be 35 17 17 be c0 fe 4a 3e
       -0.31435442 -0.3701454 -0.14754947 0.19823742
0000a0 d1 f3 f5 3e 81 e4 c1 be 31 93 e3 bd d7 a9 6f 3e
       0.4803758 -0.37869647 -0.11112059 0.23404633
0000b0 04 34 9d 3b d9 2a 58 3e 44 05 96 be 07 60 69 be
       0.0047974605 0.21110095 -0.29300892 -0.22790538
0000c0 37 c0 a2 3e 51 17 74 3d
       0.31787273 0.05959255

linears.2.weight f4 [50, 50]
000000 4d 14 22 be e2 cf fa 3d 33 f7 c3 3c c1 95 5b 3c
       -0.15828057 0.12246682 0.023921585 0.013402403
000010 e0 38 93 bd bc 91 b3 3c f8 78 3b bd 88 67 14 3e
       -0.071885824 0.021920078 -0.04576966 0.14492619
000020 4b 3f 89 3e 40 2f 3c be 33 96 ac bd 39 e1 15 3e
       0.268061 -0.183774 -0.08427086 0.14636697
000030 d5 e4 db bb 25 56 14 3c 20 8f 4f bd 79 03 6f bd
       -0.0067106285 0.009053742 -0.050673604 -0.05835292
000040 b4 17 f9 bc 6c f8 ed 3d 17 92 16 be 5b 76 8f bd
       -0.03040681 0.11619648 -0.14704166 -0.070049964
000050 76 5c cb 3d 82 9a 9d 3e 8f c8 22 be 97 9b c4 3d
       0.09929745 0.30781943 -0.1589682 0.09599989
000060 ea 95 96 3d 08 50 10 3e ba b1 72 be f4 85 2c 3e
       0.073528126 0.1409303 -0.2370061 0.16847974
000070 16 eb 27 3d 2d b3 14 be be 12 a3 bd b9 4c ab 3d
       0.04099568 -0.14521475 -0.07962559 0.08364243
000080 74 49 72 be 5e d5 bd 3d 95 cc 9c bc 4f f6 9e 3d
       -0.23660833 0.09269212 -0.019140521 0.077618234
000090 4b 50 ee bc 79 af 1e 3c 29 e5 94 bd 3d 12 0e 3e
       -0.029091021 0.009685391 -0.07270271 0.13874145
0000a0 63 8c ac be c1 61 1b bc fb 90 e3 3c f9 04 ce bd
       -0.33700857 -0.009483756 0.027779093 -0.10059542
0000b0 e7 4b 09 be 8e ed 0f 3e 30 79 3d 3d b5 a8 10 3c
       -0.1340786 0.14055464 0.04625815 0.008829285
0000c0 1e b3 9b 3e 0d 01 34 bd d3 cc 48 be 65 92 d3 3d
       0.30410093 -0.043946315 -0.19609384 0.10330657
0000d0 25 10 98 be ad 1e 12 3e d7 12 75 3c 34 13 f5 3c
       -0.29699817 0.14269514 0.014958105 0.029916383
0000e0 34 55 7f bb f3 b8 53 bd f6 ee 73 be d8 ad af bd
       -0.0038960697 -0.051690053 -0.23821625 -0.0857808
0000f0 0e 1d 37 be b9 bf 2f 3e e9 3f f6 3d e1 65 03 3e
       -0.17882177 0.1716298 0.12023909 0.12831832
000100 34 c4 8d 3e 4f a4 31 3c a0 57 b3 3e be 13 68 be
       0.27688754 0.010842397 0.3502779 -0.22663781
000110 c6 c2 9c 3d b0 af 87 3d bc 3a be 3b 45 81 47 be
       0.076543376 0.066253066 0.0058053415 -0.19482906
000120 c3 8f 98 be 41 7f 14 be 77 fd be 3d c5 78 9a bd
       -0.2979718 -0.14501669 0.09325688 -0.07542566
000130 2e d0 ba 3c 27 07 67 3c 9b bd 77 bd 1f ad f1 3c
       0.022804346 0.014100826 -0.060483556 0.029501496
000140 60 28 8e bb 31 c3 f2 3c 1b 8c c7 3c 33 09 73 3e
       -0.004338309 0.02963409 0.0243588 0.23733978
000150 5a d4 2f 3e 34 e5 26 3e 44 82 2b 3d f7 56 00 be
       0.1717085 0.16298372 0.041872278 -0.12533174
000160 c7 39 3d 3d 8f f8 05 be 33 46 9b bd a0 35 a5 3d
       0.04619768 -0.13083099 -0.07581749 0.08066869
000170 e1 59 89 3e 49 9a 69 be 77 e2 c1 bd 23 dd be bd
       0.26826385 -0.22812761 -0.09467023 -0.09319522
000180 5a 36 61 3d 98 85 a1 3d c4 20 06 be 73 04 dd bd
       0.054983474 0.07886809 -0.13098437 -0.10791864
000190 ae e8 f3 3b d0 43 65 3e 5e 68 5d be 99 df 41 3d
       0.007443509 0.2238915 -0.21621844 0.04733238
0001a0 e1 dd cd bd 7d 2b a6 3d cb 68 f9 bd 92 45 35 3e
       -0.10052086 0.081137635 -0.12178191 0.1770232
0001b0 ab 7f 80 3e f2 86 8e 3e 44 7d 38 3d e7 ad 2a 3d
       0.25097403 0.2783733 0.045041338 0.041669752
0001c0 19 8f 02 3e a2 6c c7 be fc f5 4e be 1b e6 b3 bd
       0.127499 -0.38950068 -0.20211023 -0.087841235
0001d0 6c 3d 36 be fe 0c f2 bc dc 17 28 bd 26 94 7e bc
       -0.17796868 -0.02954721 -0.04103838 -0.015538251
0001e0 9b fe 2a be c7 a9 44 3d 0d 7b 0c bc f5 de fa 3c
       -0.16698687 0.048013475 -0.0085742595 0.030623892
0001f0 62 82 6f be 31 a0 1f 3e a6 be 0b 3e 1b b2 dc 3d
       -0.23389581 0.15588452 0.13646945 0.107761584
000200 0b c9 8c be f8 4d 3d 3c f7 a6 ea bd c6 9e 0a 3e
       -0.27497134 0.011554234 -0.11457627 0.1353713
000210 6f 24 36 3e b9 65 77 bd e1 73 44 be 54 8a b2 3c
       0.17787336 -0.060399745 -0.1918483 0.021794476
000220 0d d1 78 bd c5 5a 05 be 17 d0 c6 bd 12 e0 c6 bb
       -0.06074624 -0.13022907 -0.09707659 -0.0060691917
000230 29 06 0e 3c ff 33 36 bb ba 5c bd 3d 21 5d 6b bd
       0.008668461 -0.0027801988 0.09246202 -0.05746186
000240 96 ba 2b 3e ab 8b 9d bd 7c 6f 0b be f8 5d 52 3c
       0.16770396 -0.07692655 -0.13616747 0.012839787
000250 43 8c 45 3d 0c 6b 45 be d1 d8 a2 bd 3b c8 0d 3e
       0.048229467 -0.19279116 -0.07951511 0.13845913
000260 e2 72 c2 3d 67 5e d1 3d 05 df fa 3d 11 47 26 be
       0.094945684 0.10223084 0.12249569 -0.16238047
000270 98 a2 98 bd 1c 6e 0c 3e 47 c6 3b be a1 70 38 3c
       -0.07452887 0.13713878 -0.18337356 0.011257322
000280 8a 80 f5 3d a7 78 1b be 9b c7 cf bd da cb 28 bd
       0.119874075 -0.15182744 -0.101454936 -0.041210033
000290 5f d5 ce 3d 5d 6e 85 be 9d 38 81 3d e3 5f 66 be
       0.10099291 -0.26060763 0.06309626 -0.22497515
0002a0 42 7a 8c bd a0 33 eb 3d ce 9e e5 3d a2 0b 96 3d
       -0.06859256 0.11484456 0.1121193 0.073264375
0002b0 d9 84 ca 3c 89 da 18 be a6 bc a5 bc 7b 6e b9 3c
       0.02472155 -0.14927115 -0.020231556 0.022635689
0002c0 43 d3 dc 3c d6 40 a4 3d ba 07 2d be a8 a8 f9 3c
       0.026956206 0.08020179 -0.16897479 0.03047593
0002d0 2f 0a 98 3d 6b 31 cb bd c6 33 9b 3d 72 f8 2c bd
       0.07423817 -0.09921535 0.075782344 -0.042229123
0002e0 d0 5e e4 bd 3b 1c 38 3c 32 23 65 be 55 f8 4b 3e
       -0.111508965 0.011237199 -0.22376707 0.1991895
0002f0 0c 03 c3 3d 27 c5 36 3e 2e 06 9d 3e 7e c5 70 bd
       0.095220655 0.17848645 0.30668777 -0.058782093
000300 ff a3 d2 bd cf 62 69 3e e5 9f 05 be 52 eb c0 be
       -0.10285186 0.22791599 -0.13049276 -0.37679535
000310 06 0c 1a bd 02 df 06 be fe af 7b bd 01 24 25 3e
       -0.037609123 -0.13171008 -0.061447136 0.16127016
000320 6a 64 85 3d 64 e5 13 be 81 df c0 3d aa 1e a5 bc
       0.06513293 -0.14442974 0.0941763 -0.020156223
000330 01 07 59 3e f7 38 d1 3d 16 53 42 3e 77 45 dd 3d
       0.21194078 0.10215943 0.18977007 0.10804265
000340 0f c5 72 3e 20 23 2a 3e 58 8c 40 3c 32 9e d6 3d
       0.23707984 0.16614962 0.011752211 0.10479392
000350 58 ff 0b be cd 96 5b bc 9a cf 92 be e7 f9 36 bc
       -0.13671625 -0.013402653 -0.28674012 -0.01116798
000360 67 20 29 be 65 32 09 bd 5a 1b 55 bc 81 72 db bd
       -0.16516267 -0.033495326 -0.013007009 -0.10715199
000370 bb e5 ae 3d 2d 51 cd be ac 9b 4c 3e b7 de 73 3e
       0.08539911 -0.40100995 0.19981259 0.23815428
000380 3d 79 e1 bd f2 f7 6e 3e 6c ff ea bd 47 fe 83 bd
       -0.110094525 0.23336771 -0.11474499 -0.06444984
000390 29 7f f5 bd 57 c3 a5 bd ad cd 86 bd ba 40 2c be
       -0.119871445 -0.08093899 -0.06582198 -0.16821566
0003a0 0d 07 a0 3e e9 31 c9 bb 1b 45 82 bd 2a e8 24 3e
       0.3125538 -0.006139983 -0.06360837 0.16104189
0003b0 f3 ef 8c 3c 99 5b 5b 3d ee 2a 28 be 27 82 77 3a
       0.01720426 0.05355415 -0.16422626 0.00094416965
0003c0 fb e5 20 be 96 f2 4e bd 5d 6c f6 bd dc e4 4d 3d
       -0.1571273 -0.050524317 -0.120323874 0.050267085
0003d0 50 32 82 3d 01 fc cb bd 8a 78 a9 39 63 c9 a7 bd
       0.063572526 -0.09960175 0.00032324 -0.08192708
0003e0 2a 7c fc bd 2f b1 c6 bd 46 94 e9 3d b0 95 2c 3e
       -0.1232837 -0.09701764 0.11405234 0.16853976
0003f0 9a e9 83 3e c6 90 be bd ed d2 fd bc 6d 7b 82 3d
       0.2576416 -0.09304957 -0.030984366 0.06371198

linears.2.bias f4 [50]
000000 7e 10 cb bd a3 67 14 be 94 f0 f7 bc b7 f5 7c 3e
       -0.09915255 -0.1449266 -0.030266084 0.24703108
000010 ca ca bd ba 42 8e c6 bd 31 32 a0 be b4 5e ff bd
       -0.0014479992 -0.09695102 -0.31288293 -0.12469235
000020 f4 9f 4d 3e 79 8b 0e bf bb 51 7c 3d 43 d0 8c bc
       0.20080549 -0.5568157 0.06160138 -0.01718915
000030 87 9a cb 3c 15 9e 85 bd 9f 37 29 be 98 14 bc ba
       0.024853958 -0.065242924 -0.16525124 -0.0014349399
000040 8b b3 2d be f1 cf b3 bc ef 12 0a 3e 3a 30 f4 3d
       -0.16963021 -0.02194974 0.13483785 0.11923261
000050 6d dd f7 ba d4 a3 b3 bd c0 b7 2b 3e 3e d6 85 be
       -0.0018910595 -0.08771482 0.16769314 -0.26140016
000060 00 f2 48 bd 70 b8 2a 3d 0b 64 a3 bd 5b 86 b3 bd
       -0.049058914 0.0416798 -0.07978066 -0.08765861
000070 43 8c 4e be ac 7f a5 bd 7a 55 55 bd 4b 70 4a be
       -0.20170693 -0.08080992 -0.05208347 -0.19769399
000080 88 23 f6 3d 64 7f 0a be 17 09 4d bd bb ff d6 3e
       0.12018496 -0.13525158 -0.050057497 0.41991982
000090 c6 51 a2 bd 79 d2 1b be ab dc a5 3c 5f 82 3d be
       -0.07925753 -0.15217008 0.020246824 -0.18506764
0000a0 8f 07 4a be 11 21 8b 3e 8f d3 a0 bd 74 10 2a be
       -0.19729446 0.27173665 -0.078528516 -0.16607839
0000b0 3e 0a 29 be 63 93 91 bd 7c 75 8a 3e 44 d9 28 be
       -0.16507813 -0.0710819 0.27042758 -0.1648913
0000c0 ff 54 fb 3d 43 d4 b6 bd
       0.12272071 -0.089272045

linears.3.weight f4 [50, 50]
000000 53 44 89 3e 94 11 95 bd 32 c5 a5 3e 79 a7 b7 3d
       0.2680994 -0.072787434 0.3237701 0.0896749
000010 23 bb 04 be 85 35 96 bd f5 d2 e8 3d d8 b7 4a 3e
       -0.12962012 -0.07334427 0.11368362 0.19796693
000020 e7 a3 f4 3c 64 02 c9 bd d4 62 23 be 51 af 38 3e
       0.029863311 -0.09814909 -0.15955669 0.18035628
000030 07 6e 96 3d 5a 09 ed bc 36 21 5e be b5 6f 35 3e
       0.07345205 -0.028935123 -0.21692356 0.17718394
000040 50 7f 88 bd ce 5c b8 be 14 6e 6f bd 6e 7e 05 3e
       -0.06664908 -0.36008304 -0.058454588 0.1303651
000050 7d a2 62 3e e1 63 c3 bd 82 0b b5 bd 86 e3 90 3e
       0.22132297 -0.09540535 -0.088400856 0.28298587
000060 be 68 6a 3d 69 a8 84 bd 5d 9b 7a bd d4 5a 92 3d
       0.057228796 -0.06477434 -0.061183322 0.0714623
000070 ec a7 55 be 02 7a 1a 3e ec a9 2c bd b4 b6 0a bd
       -0.20864838 0.15085605 -0.042154238 -0.033865646
000080 c4 f4 c0 bc b1 ce ea 3d 4a e1 4f 3e ae d9 f7 3c
       -0.023554213 0.114652045 0.20300785 0.030255165
000090 67 ce 6d 3d 28 4c e8 3d 2a b8 2f bd 51 ba 51 be
       0.05805817 0.11342651 -0.042900242 -0.2048123
0000a0 13 48 a7 bd db de 43 3e 91 7f 9e bd c7 e3 27 3e
       -0.08168044 0.19127981 -0.07739175 0.16395484
0000b0 61 c9 07 3e df a1 93 bc 9a 29 6b 3e 53 17 c8 bd
       0.13260414 -0.018021522 0.22965088 -0.09770074
0000c0 69 e8 da bd 2e 51 83 3d 73 65 ee bc 7f b4 37 3e
       -0.1068886 0.06411968 -0.02910111 0.17939948
0000d0 a5 51 15 bd 5c 08 22 bd 8a a1 0e be d1 04 24 3e
       -0.036454815 -0.039558753 -0.1392881 0.16017462
0000e0 8e 64 01 be 03 fb 19 bd 3d ff 7e 3e 72 08 93 bd
       -0.12636015 -0.0375929 0.24902053 -0.07179345
0000f0 d7 62 a1 3c b9 e9 d0 3c 6a ef 15 3d 2c 45 58 bd
       0.01970045 0.025502073 0.036605276 -0.052800342
000100 92 78 08 3d c2 dd d0 3d 58 a3 2d 3d 01 bc c3 3d
       0.03331811 0.10198547 0.042392105 0.09557343
000110 d9 5e 18 3e 06 76 87 3e 14 7e 44 be 6a 46 a5 3d
       0.14879932 0.26457232 -0.1918872 0.08070071
000120 b3 dc 9e 3d 12 78 76 be 23 ac 31 3c 43 db 21 3d
       0.07756939 -0.2406924 0.010844263 0.039515745
000130 2f e2 81 be 18 2d 31 be e5 08 82 bd dc 1e 8b 3e
       -0.25367877 -0.17302358 -0.06349353 0.2717198
000140 1d 44 cf 3d 8b 45 dd 3d 52 c8 05 be c7 eb db 3c
       0.101204135 0.1080428 -0.13064697 0.026845826
000150 81 6e 4d 3e 11 ff 24 3d 86 c9 b5 3c b0 61 88 be
       0.20061685 0.040282313 0.02219082 -0.2663703
000160 f3 07 d8 bc 8b ac ba bd f3 7c 25 3d 1f 98 cb 3c
       -0.026370978 -0.09114941 0.040402364 0.02485281
000170 40 cf f2 3d df 03 f7 bd 94 a1 04 3e df 21 6d 3e
       0.11855936 -0.12061285 0.12952262 0.23157452
000180 aa 9c 63 bd b7 91 90 3c 5c 4d 89 bd c2 9e 2c 3d
       -0.05556933 0.017647607 -0.06704208 0.04214359
000190 71 74 36 bd 2c b3 23 3d 8e aa 42 bd bd 10 64 bd
       -0.04454464 0.039965793 -0.047525935 -0.055680025
0001a0 32 04 ad 3c 9f 63 07 3e f4 d5 67 3d 4e 02 20 bd
       0.021120165 0.13221596 0.056600526 -0.039064698
0001b0 a2 0a e1 3b 07 4b 29 3e 90 fb 23 3e 51 21 f9 3b
       0.0068677226 0.16532527 0.16013932 0.0076028486
0001c0 f9 70 15 3e de fc 81 be 20 ae a1 3e cd e6 9a 3d
       0.14593877 -0.25388235 0.3157816 0.07563553
0001d0 27 ea db 3d 16 3d 8e 3c d9 78 ad be 2c 77 6d bd
       0.107380204 0.017363112 -0.33881262 -0.05797498
0001e0 be 6d d0 bd 09 ad 16 be 3f 74 5f 3d b4 d5 1f 3e
       -0.10177182 -0.14714445 0.05455422 0.15608865
0001f0 b6 73 fa 3d 23 c1 01 be c3 18 25 3e a9 44 34 3e
       0.12229101 -0.12671332 0.16122727 0.17604317
000200 65 cb ec bc ee b4 b9 bd 07 43 de 3c 8a b3 d5 3e
       -0.02890558 -0.09067713 0.02713157 0.4173854
000210 6e c9 d1 bd 15 7b 7a bd cf 36 5e bb 42 89 61 be
       -0.10243498 -0.061152536 -0.003390718 -0.22025016
000220 ad 37 97 3e 9c 70 22 3e 4c 38 dc be 3d 6f 87 bd
       0.29534665 0.1586327 -0.430117 -0.06613014
000230 64 b1 af bd 85 3d 89 be 9f d5 f3 bb 29 89 1d 3c
       -0.085787565 -0.26804748 -0.007441237 0.009615221
000240 99 b8 a0 3e 65 74 04 3e c3 36 3e 3c dd c9 64 3d
       0.31390837 0.12935026 0.011609736 0.055856574
000250 ef 5a bc bc bc c2 a6 3e cf 2f 5a 3e 8e 7c 78 be
       -0.02299258 0.32570446 0.213073 -0.24266264
000260 74 37 64 3b 4b 07 39 be c2 94 21 3e b0 b6 5c 3e
       0.0034823092 -0.18069188 0.15779403 0.21554065
000270 e6 58 aa 3d 9b 2a da 3d cd b3 86 be d4 ef ca 3d
       0.08317737 0.106526576 -0.26309052 0.09909025
000280 58 28 dc 3d 8d cb 65 be 71 52 5d bd 87 fe ac 3d
       0.107498825 -0.2244093 -0.0540337 0.08446985
000290 2f 56 31 be 98 dd be be d2 2d 13 3e df 1f c8 3d
       -0.17318033 -0.37278438 0.14372948 0.09771704
0002a0 d0 4c 61 3e 9d aa 3d bb 04 58 d1 3d c6 4c 0c bc
       0.22001958 -0.0028940805 0.10221866 -0.008563226
0002b0 a4 f1 05 be c9 95 de 3d 96 1b bc 3d 9c 9e b6 bd
       -0.1308046 0.10868413 0.09184949 -0.08916971
0002c0 da 97 8f bd 54 ac c6 3d 07 d7 d1 3c 39 42 8d 3d
       -0.07011385 0.09700838 0.025615228 0.068973966
0002d0 ac 0a cb bd 6b fc f4 bb f8 91 34 be e5 3b b5 bd
       -0.09914145 -0.0074763796 -0.17633808 -0.088493146
0002e0 72 cc 95 3b 8d f5 b0 bd 12 88 8f bd 86 68 49 3c
       0.004571491 -0.08640585 -0.07008375 0.012292987
0002f0 b2 77 f7 3e cb 98 78 bb 70 40 6f be f4 5a a3 3c
       0.48333508 -0.0037932869 -0.23364425 0.01994083
000300 44 a2 01 3d 74 4b 63 3d 5f be 25 be de 8e c6 3c
       0.03164889 0.05549188 -0.16185902 0.024238046
000310 57 3b 09 be 5b 43 50 3d 01 58 b1 be f1 cd 55 bd
       -0.13401543 0.050845485 -0.34637454 -0.052198354
000320 23 9b 52 be 96 55 0e 3c 5b bd 60 bd 73 40 f8 3d
       -0.20566992 0.008687397 -0.054868083 0.12121668
000330 80 fd 87 bd 68 54 ba bc fc 3a 9c 3e a8 06 24 3c
       -0.06640148 -0.022745326 0.30513752 0.010011353
000340 4f c4 8f 3d ac 25 37 bb f2 42 73 be 7f 55 86 3e
       0.07019865 -0.0027946038 -0.23756006 0.26237103
000350 59 ce 93 3e 91 d4 4e be d8 8e 57 3e 4e 99 4d 3e
       0.28868368 -0.20198275 0.21050584 0.20078012
000360 92 0f 3e bc 23 04 85 bd 49 08 62 be 6e 2b c8 3d
       -0.011600392 -0.0649493 -0.22073473 0.097739086
000370 74 bf 68 bc 10 08 0a bd 48 38 52 be 4c 75 45 3d
       -0.014205802 -0.033699095 -0.20529282 0.048207566
000380 b4 ba 71 3b dd 69 99 3d c0 96 a4 bd 95 8e 0c 3e
       0.0036884965 0.07490895 -0.08036566 0.13726266
000390 25 ee 9e 3c 3e 12 bf bd c8 7b 24 3e 40 b8 69 3e
       0.019400666 -0.09329651 0.16062844 0.22824192
0003a0 05 b4 bc bd b3 75 b9 bd 8a 6e 23 bd 72 d3 3b 3e
       -0.092140235 -0.090556525 -0.03990034 0.18342379
0003b0 b7 c1 ae be 1c a9 dd 3e 48 57 42 be 07 d8 e4 3d
       -0.34132168 0.43293083 -0.18978608 0.111740164
0003c0 db 0d 62 3d 81 eb 71 3b 24 f0 94 3e 03 9b 2a be
       0.055188995 0.0036914053 0.29089463 -0.16660695
0003d0 60 64 3b bb 29 ca 85 bd 14 32 93 3e 75 c9 89 3e
       -0.0028593764 -0.065326996 0.28749144 0.26911512
0003e0 e0 d4 99 3d 59 ee 9c bd 95 34 8f bd 9e 67 3d 3e
       0.07511306 -0.07662649 -0.06992451 0.18496558
0003f0 d5 e0 a2 bd 7d 7d eb 3d 86 aa 0b bc 3e 19 60 be
       -0.079530396 0.11498544 -0.008524543 -0.21884629

linears.3.bias f4 [50]
000000 5e 53 59 3d 36 be e5 3d 87 f7 6b be 74 67 f2 bd
       0.05305802 0.112179205 -0.23043643 -0.11836138
000010 89 87 44 3e 94 b7 a0 bd b7 37 63 3e ef d7 b5 bd
       0.19192328 -0.07847515 0.22189222 -0.08879077
000020 c8 d7 4a be 90 7d 7e be 29 a4 70 3b 25 ae 5e be
       -0.19808877 -0.24852586 0.003671894 -0.21746118
000030 94 41 1e 3e 63 1a b4 3d 17 60 8e 3d 9a 9a 6e 3e
       0.15454704 0.08794095 0.069519214 0.23301163
000040 77 35 35 bd 80 27 39 3e ac ec da 3c 16 78 18 3d
       -0.04424044 0.18081474 0.026724182 0.037223898
000050 9c 9b cd bc 1d fc 48 3e 81 51 0f bc c2 c6 36 be
       -0.025098614 0.19627424 -0.008747459 -0.17849258
000060 10 9a 19 3e 35 df 71 3d 38 54 b9 3d 76 7f ed 3a
       0.15000176 0.059050757 0.090492666 0.0018119651
000070 be c8 ab be 96 33 b3 be 6b a9 38 3c 70 81 3a be
       -0.33551592 -0.35000294 0.011270861 -0.18213439
000080 52 77 bc 3d 5a 15 0a be 60 c8 2a bd 87 4b 2a 3e
       0.09202446 -0.13484707 -0.041695 0.16630374
000090 50 26 50 be cc d8 48 3e c4 b0 1d 3b 09 d0 f4 3d
       -0.20327115 0.19613951 0.002406166 0.11953742
0000a0 12 6a 8a 3d b1 c0 1c 3e f6 5e 33 3e 26 d1 23 bd
       0.067585126 0.15307881 0.17516693 -0.03999438
0000b0 2e 48 df 3e 94 93 61 3e 57 73 8c 3e df 03 b3 bd
       0.43609756 0.22028953 0.27431747 -0.08740973
0000c0 8e c0 3e bd 50 f9 11 3e
       -0.046570353 0.14255261

linears.4.weight f4 [50, 50]
000000 b8 57 6c bd 1b 7d b3 3d e7 c5 25 be c9 4f 28 3e
       -0.057700843 0.08764096 -0.16188775 0.16436686
000010 28 57 96 3d f3 6f a2 bd 4f 16 0a 3d 18 e5 be 3d
       0.073408425 -0.07931509 0.03371268 0.0932104
000020 46 dd e8 3a 07 55 be bd a2 39 24 bc 03 bf c4 3d
       0.001776614 -0.092935614 -0.010023506 0.09606745
000030 14 c3 0f be e5 df 7f 3e 34 fa 9f bd 80 20 d5 bd
       -0.1403926 0.24987753 -0.07811394 -0.104065895
000040 6b ab 9c bd 33 4a 16 3e 77 24 31 3b da b8 8a 3d
       -0.07649883 0.14676742 0.0027029791 0.06773539
000050 5f 02 04 3e a0 a1 8c 3b fa b9 0a 3d 37 df 1e be
       0.1289153 0.004291728 0.033868767 -0.15514837
000060 a9 3b c6 bd 0c e0 7a 3e b5 6e a8 bd 98 ec d0 3d
       -0.09679348 0.2449953 -0.08224241 0.10201377
000070 e4 98 16 be fa b1 3f 3e 7f 6b 84 be ac 5f c2 3e
       -0.1470676 0.18720236 -0.25863263 0.37963617
000080 ea aa c7 bd dd 2e f1 3d 58 61 85 be 7a 76 1a 3c
       -0.09749396 0.117765166 -0.2605083 0.009427661
000090 a1 6c e4 bd 4d 11 83 be 34 3d cd be e1 23 87 bd
       -0.11153532 -0.25599137 -0.40085757 -0.0659864
0000a0 68 86 d7 bc 3c b5 25 3e cc 61 d7 3c 40 db a6 be
       -0.026309207 0.16182417 0.02629175 -0.3258915
0000b0 31 2e ef 3d 7a d2 09 3e af c7 ad 3d 2f 70 be bc
       0.11678732 0.13459197 0.08485352 -0.023246853
0000c0 3d ca d1 3d 36 a3 9e be 0e 7c a5 3e 99 00 ef 3d
       0.10243652 -0.30983895 0.3232121 0.11670036
0000d0 f3 05 f4 bc 30 f0 46 3d 91 ce 32 3d b3 64 89 3d
       -0.029787993 0.048568904 0.04365403 0.0670866
0000e0 5a 10 87 3d c5 b2 59 3e 34 6d 75 3e 85 cb 8c bd
       0.06594916 0.21259601 0.23967439 -0.06874756
0000f0 a2 bc 10 3e 7d a4 82 bb 98 2a 1d be 48 19 98 3d
       0.14134458 -0.0039868937 -0.1534828 0.07426697
000100 a1 4e d4 bc 68 22 03 3e 39 fc 4c be d8 ab 06 3e
       -0.0259164 0.12806094 -0.2001809 0.1315149
000110 14 04 bf be be a2 98 3d e7 00 b6 bd e1 37 d8 3d
       -0.373078 0.074529156 -0.08886891 0.10557533
000120 16 80 e6 3d dd bb 06 3d 1b a2 b6 3d 61 ff 7c be
       0.11254899 0.032894004 0.08917638 -0.24706794
000130 57 39 91 be 9c b3 8a be 17 bb 17 be 42 7c 2e bd
       -0.2836406 -0.27090156 -0.14817463 -0.04259897
000140 a4 6a 53 3e 44 4b e3 bd 1b ef 97 bd b5 36 bc 3e
       0.20646149 -0.1109834 -0.074186526 0.36760488
000150 76 54 22 be e4 53 b5 bd 23 8f 06 3d 65 42 5d be
       -0.15852532 -0.088538915 0.03285135 -0.21607359
000160 4a 9f ca be 78 33 27 3d 25 f0 0a bd 1c e0 85 bd
       -0.39574653 0.04082057 -0.033920426 -0.06536886
000170 e8 00 86 bd 9a 03 37 3e 76 82 50 bd 75 b8 58 3c
       -0.065431416 0.17872468 -0.050905667 0.013227572
000180 21 db 45 be 2a 7b 3b 3d 7e b2 a1 3e 69 aa ef bd
       -0.19321872 0.045771755 0.3158149 -0.11702425
000190 81 03 8d bc 4f 44 d9 bb b1 76 ca 3d 6f 26 1f bb
       -0.017213585 -0.0066304575 0.0988592 -0.0024284383
0001a0 d5 f2 de 3c a9 56 83 3d 2b 0d 04 3d 51 1e f5 3d
       0.0272154 0.064130135 0.03223912 0.11968673
0001b0 7e a0 c0 bc 25 21 8c bd 64 e7 1c 3e a8 41 95 3d
       -0.023514029 -0.06842259 0.15322644 0.072879136
0001c0 fa ea d9 3e 05 a3 07 be 9a 2d c4 3d 46 aa 9b bd
       0.42562085 -0.13245781 0.0957901 -0.076008365
0001d0 ca 2d cd 3e 09 ac de 3d 46 cd 9a bd f5 75 f9 bd
       0.40073997 0.10872657 -0.07558684 -0.12180702
0001e0 e4 8b 06 3c a6 89 92 bd 5c 52 79 bd 36 1f 88 3d
       0.008212063 -0.071551606 -0.06086956 0.06646578
0001f0 e5 7a 85 be e8 d6 53 3d bf 7b dc bd d5 df 78 3e
       -0.26070324 0.051718622 -0.1076579 0.24304135
000200 04 6d 04 3d 70 b0 4b bb 80 12 42 be 53 78 b3 be
       0.032330528 -0.0031080507 -0.1895237 -0.35052738
000210 87 22 78 3e 9a a1 3f bc 58 1c 34 3e d8 1e a4 bc
       0.24231921 -0.011696244 0.17588937 -0.020034239
000220 e5 9c 2c be a8 3d db bd 2a 3f 1a be 20 b3 e1 bd
       -0.16856726 -0.10705119 -0.15063158 -0.110204935
000230 60 23 f2 3d 97 4b a0 be 82 2a 33 bd 9f e1 bb 3d
       0.118231535 -0.3130767 -0.04374171 0.09173893
000240 f8 63 09 be cc 76 29 be b8 24 93 3b b7 74 9b 3c
       -0.13417041 -0.16549224 0.004490461 0.018976552
000250 2b 0d 6e bc 75 81 ec bd 70 52 82 3e 19 22 d2 bc
       -0.014529507 -0.115481295 0.2545352 -0.025651025
000260 c1 e5 c4 3d 5d 78 57 3e fa 6a 30 be d6 7c 81 3d
       0.096141346 0.21042009 -0.17228308 0.06322639
000270 c4 ad 30 3d 8c 2f 8b 3e 00 ea 76 3d 57 82 70 bc
       0.043134466 0.27184713 0.060281754 -0.014679513
000280 0a 7d b2 3d 5c 4e aa bd 5b a5 c3 3e 5d 2a c1 bd
       0.087152556 -0.08315727 0.38212094 -0.09431908
000290 75 86 bc 3e e0 b0 c9 bd 4d 7c 75 bd c4 ed 36 3c
       0.36821333 -0.09848189 -0.059932996 0.011165086
0002a0 a6 25 40 3e 50 0a 02 3c 24 62 dc bc d5 25 38 be
       0.18764362 0.007937029 -0.026902266 -0.17983182
0002b0 98 94 13 be ca 0f 90 3d ce 57 d0 bd 47 21 4d 3d
       -0.14412153 0.070342615 -0.101729974 0.050080564
0002c0 16 0c 43 be f4 13 10 be 08 f9 31 be 4f 1f f1 bc
       -0.19047579 -0.14070112 -0.17380154 -0.029433874
0002d0 48 8c a1 bb 6c 0d a6 3d 29 28 28 bd a1 94 d8 bd
       -0.004930053 0.08108029 -0.041053925 -0.10575224
0002e0 68 d2 a3 bd d1 69 f1 bc 1b e4 97 be 5d 2c fb bd
       -0.07999116 -0.029469403 -0.29666218 -0.12264321
0002f0 91 e6 fc bd e7 d5 84 bd bb 0c c0 bd 2a 1c 5b 3d
       -0.123486646 -0.06486111 -0.09377428 0.053493656
000300 4e 24 54 bc 9c 0d 02 bd 95 5c 56 be d4 9b bf 3c
       -0.012948109 -0.03175126 -0.20933755 0.023389734
000310 ed 5c da 3d e2 19 aa 3d 31 6b 3f 3d 2b 59 05 be
       0.106622554 0.08305718 0.046733085 -0.13022296
000320 9c bb 3b bd 56 f6 7f 3d 43 b9 75 3d da 5e 86 3d
       -0.045833215 0.062490784 0.059991132 0.0656106
000330 87 ce 2c be a7 dd ed 3d a2 25 79 3d 18 1a 1f 3e
       -0.16875659 0.116145425 0.060826905 0.15537298
000340 79 e6 17 3d f8 6e 9b 3d 5e 81 89 be 30 25 56 bd
       0.03708503 0.07589525 -0.26856512 -0.05228156
000350 ad 1c 2c bc f3 91 93 3d 8f b5 e3 3d 42 eb 42 be
       -0.010504884 0.07205572 0.11118614 -0.19035056
000360 80 8b 10 be 3e fe 08 be b6 da 57 ba 2f 99 b4 bd
       -0.14115715 -0.13378236 -0.00082341896 -0.0881828
000370 bf ad 53 3d ea ba 50 bc 4d 1c 5d bd 33 16 9a bd
       0.05167937 -0.012739876 -0.053982068 -0.075237654
000380 b9 22 9e bd 33 db 9d bb 09 e7 5b 3e cc 84 63 3d
       -0.077214666 -0.0048173903 0.21474852 0.055546567
000390 c7 10 15 3d 53 7a e0 bd d0 56 36 be 94 0f b1 3e
       0.036392953 -0.109608315 -0.17806554 0.34582198
0003a0 92 3c 62 be f1 09 0a 3e 3d b0 a2 3c 13 5a 0c bd
       -0.22093418 0.13480355 0.019859428 -0.03426559
0003b0 ff 7e 33 3a 9d 4f 82 be 09 bf 05 be cd 29 66 be
       0.0006847232 -0.25451365 -0.13061155 -0.22476883
0003c0 da 54 9b bd 31 1b f2 3c 9b ac 68 be 2e f2 47 be
       -0.075845435 0.029553981 -0.22722094 -0.19525978
0003d0 1b 34 92 bd fb 2b a7 bd 17 24 4f 3e bc 12 27 3e
       -0.071388446 -0.081626855 0.20228611 0.1631574
0003e0 b8 e3 4a 3d 35 28 e1 bd 91 ce e6 3d 0b 1f 1a be
       0.049533576 -0.10993997 0.11269868 -0.15050904
0003f0 5f ef 5c 3e 04 4a 1a 3e 66 6d 95 bc 2b ea e1 bd
       0.21575688 0.15067297 -0.018240642 -0.11030992

linears.4.bias f4 [50]
000000 13 ab fe 3b c3 7e c6 3c 4b 80 ce bd 84 a6 80 bd
       0.0077718585 0.024230367 -0.10083064 -0.0628176
000010 48 56 57 be 32 bf 88 bd 3b c9 a7 3e fa e4 10 be
       -0.21029007 -0.066770926 0.32770714 -0.14149848
000020 92 a4 45 3d 78 41 2c bd 95 5a 22 3d 6c 4d e4 bd
       0.04825265 -0.042054623 0.039637167 -0.111475796
000030 fa 51 ac 3d cc 51 0e 3e 45 d9 86 be 67 6e eb bd
       0.08414073 0.1389839 -0.26337638 -0.11495667
000040 b3 83 33 be a4 23 80 3d 1e 9f bf bd b9 e5 87 bb
       -0.17530708 0.06256798 -0.09356521 -0.004147258
000050 79 97 89 be 50 9e 4f be ac ac 3f 3e b0 6d 6e 3e
       -0.26873377 -0.20275235 0.18718213 0.2328403
000060 1e 41 c2 3e 5c ef 12 bc 5b 63 af bd b9 12 5c 3d
       0.37940305 -0.008968201 -0.085638724 0.053728793
000070 42 28 25 3e 12 43 a7 3e a3 2e 2e 3d f6 e8 1f 3c
       0.16128638 0.32668358 0.042524945 0.009760132
000080 54 97 60 3c f7 96 88 bd a7 91 93 3e 33 2b f7 bd
       0.013707954 -0.06669419 0.2882206 -0.120687865
000090 42 de d5 3b 06 35 12 3e 94 e8 0b be 7f e0 e0 bb
       0.0065267393 0.1427804 -0.1366294 -0.0068626995
0000a0 1a 7b 2c 3e c5 81 ce bd f1 55 07 3e a4 48 f4 bd
       0.16843835 -0.10083345 0.13216378 -0.119279176
0000b0 32 bb d8 3d 68 16 78 bd 81 37 7d 3e f2 96 a4 3d
       0.1058258 -0.060568243 0.24728204 0.08036603
0000c0 6a b3 89 be 58 08 00 be
       -0.26894695 -0.12503183
