Archived Code/Stan TPAMI/3D/swish/3D_HTTP_swish_5.pt (torch, 90790 bytes, 20 tensors)

beta f4 [50, 9]
000000 73 43 7b 3f aa 52 80 3f c4 67 7e 3f 36 94 76 3f
       0.98149794 1.0025227 0.99377084 0.963199
000010 ca 27 80 3f 19 0f 82 3f 7c 72 80 3f 03 0e 80 3f
       1.0012143 1.0160857 1.0034938 1.0004276
000020 1a 24 80 3f 80 e7 81 3f 68 80 7f 3f da 37 7c 3f
       1.0011017 1.0148773 0.9980531 0.9852272
000030 07 82 7c 3f c5 c8 80 3f f8 b1 86 3f 4a 1a 7f 3f
       0.98635906 1.006127 1.0523062 0.9964949
000040 bc f8 7f 3f 3d 9f 7f 3f f6 cf 67 3f cb 65 7d 3f
       0.99988914 0.99852353 0.905517 0.9898345
000050 44 93 80 3f b8 05 6b 3f 44 0f 83 3f 76 a7 80 3f
       1.0044942 0.918056 1.0239034 1.0051105
000060 43 ef 84 3f cb 54 81 3f 5a fc 7f 3f ee 06 7e 3f
       1.0385517 1.0104002 0.9999443 0.99229324
000070 39 23 7c 3f 1e db 7d 3f 08 16 a3 3f ee db 84 3f
       0.98491246 0.9916247 1.2741098 1.0379617
000080 17 fd 82 3f 49 ef 7c 3f c7 fd 7f 3f c3 c6 7b 3f
       1.0233487 0.9880262 0.9999661 0.9835016
000090 83 c0 85 3f 58 49 8d 3f 3a d6 7e 3f c0 2f 83 3f
       1.0449375 1.1038008 0.99545634 1.0248947
0000a0 b2 a4 81 3f f7 7e 76 3f 57 df 7c 3f 07 8a 80 3f
       1.0128386 0.9628748 0.9877829 1.0042123
0000b0 51 02 82 3f 36 ea 6f 3f d5 aa 83 3f e2 29 7d 3f
       1.0156957 0.9371675 1.0286509 0.98892033
0000c0 73 c0 88 3f de 64 7f 3f b4 cb 80 3f 53 bc 7d 3f
       1.0683731 0.99763286 1.0062165 0.99115485
0000d0 7d 48 87 3f 13 01 80 3f b6 61 61 3f 6b 76 7c 3f
       1.0568997 1.0000328 0.8803972 0.9861819
0000e0 cc ff 81 3f e7 90 83 3f eb d6 7e 3f 2c 28 81 3f
       1.0156188 1.0278596 0.9954669 1.0090384
0000f0 51 c2 80 3f aa 7f 6d 3f 2d ff 7f 3f 16 68 75 3f
       1.0059301 0.92772925 0.9999874 0.9586195
000100 55 00 7a 3f a7 b0 7f 3f 1b d7 76 3f a3 7a 84 3f
       0.97656757 0.99878925 0.96421975 1.0349926
000110 0f 43 80 3f e5 d6 72 3f 3a e1 7e 3f 0d f5 7f 3f
       1.0020465 0.94859153 0.9956242 0.9998329
000120 95 bd 79 3f 5c d1 7b 3f 4c 8c 83 3f 81 15 93 3f
       0.97554904 0.9836633 1.027719 1.1490937
000130 39 46 83 3f e0 d9 7d 3f 4b 80 7f 3f dc d6 82 3f
       1.0255805 0.99160576 0.99805135 1.022182
000140 fc 75 46 3f 45 52 82 3f 2b 90 80 3f a6 2f 7f 3f
       0.7752378 1.0181357 1.0043997 0.9968208
000150 2f a3 7e 3f 1f 9e 82 3f 04 24 80 3f a7 f0 7b 3f
       0.9946775 1.0204505 1.0010991 0.9841408
000160 10 41 25 3f b2 be 80 3f e0 e4 78 3f ac 5c 71 3f
       0.645524 1.0058196 0.97224236 0.9428203
000170 b8 2c 78 3f 6b 0e 82 3f d0 76 7e 3f 4e 5c 7e 3f
       0.96943235 1.016065 0.99400043 0.99359596
000180 94 cd 80 3f 58 2d 08 3f f4 36 80 3f 09 2a 85 3f
       1.0062737 0.5319419 1.001677 1.0403453
000190 db c4 7a 3f 1b 06 83 3f 45 97 82 3f 24 23 a6 3f
       0.9795663 1.0236238 1.0202414 1.2979474
0001a0 fb 18 81 3f a3 b3 8f 3f 3d 7d 7f 3f 7a 00 80 3f
       1.0085748 1.1226696 0.99800473 1.0000145
0001b0 b0 99 86 3f 5d b3 84 3f d8 dd 7a 3f 6b ce 7b 3f
       1.0515652 1.0367237 0.97994757 0.98361844
0001c0 8e fe 78 3f 4e 8d 7e 3f 9b c8 81 3f 05 91 81 3f
       0.9726342 0.99434364 1.0139345 1.0122381
0001d0 a1 fc 7f 3f 87 58 80 3f 4a c6 80 3f a4 d0 7a 3f
       0.99994856 1.0027016 1.0060513 0.9797461
0001e0 e0 c4 7e 3f 4c c0 76 3f 21 0e 82 3f 6d 91 7e 3f
       0.9951916 0.9638717 1.0160562 0.9944065
0001f0 49 a8 7f 3f 82 e5 7f 3f 8e 36 7d 3f 5d 2b 82 3f
       0.9986616 0.99959576 0.9891137 1.0169483
000200 f4 89 80 3f 4d 5d 80 3f 6f 5d 82 3f 93 a0 7d 3f
       1.00421 1.0028473 1.0184764 0.9907314
000210 b3 f8 7c 3f fe 34 80 3f 21 07 80 3f 12 92 81 3f
       0.98816985 1.0016172 1.0002176 1.0122702
000220 24 e4 8c 3f cd d0 83 3f 27 4e 83 3f a2 35 7d 3f
       1.1007123 1.0298096 1.0258225 0.9890996
000230 b2 31 79 3f b3 6b 7f 3f 99 3a 7f 3f 7e 1b 80 3f
       0.97341454 0.9977371 0.9969879 1.000839
000240 d9 bd 5d 3f 97 29 7d 3f aa 6a 74 3f d2 2b 85 3f
       0.8661781 0.98891586 0.95475256 1.0403998
000250 05 b9 85 3f 38 1e 7d 3f f5 1b 7f 3f c3 6b 81 3f
       1.0447088 0.98874235 0.99652034 1.0111011
000260 05 df 7f 3f cb 30 84 3f 67 d0 77 3f 08 42 74 3f
       0.99949676 1.032739 0.9680237 0.95413256
000270 76 87 74 3f a6 30 80 3f f1 45 77 3f 78 47 85 3f
       0.95519197 1.0014846 0.965911 1.0412436
000280 f6 5b 88 3f d5 02 80 3f ee 2e 82 3f fe ea 81 3f
       1.0653064 1.0000864 1.0170572 1.0149839
000290 c9 40 7e 3f 2f de 7a 3f e2 31 77 3f 45 af 81 3f
       0.99317604 0.97995275 0.9656049 1.0131613
0002a0 62 d4 82 3f f7 af 7f 3f 4c 02 80 3f ce 39 7f 3f
       1.0221064 0.99877876 1.0000701 0.9969758
0002b0 26 dc 64 3f 73 1c 8e 3f 16 af 7a 3f 17 3e 7f 3f
       0.8939842 1.1102432 0.9792341 0.99704117
0002c0 a7 f3 83 3f 47 de 7e 3f 87 5f 7f 3f fe 04 80 3f
       1.0308732 0.9955792 0.9975514 1.0001523
0002d0 37 54 4d 3f 5b 33 7f 3f 34 66 80 3f 0a 6b 81 3f
       0.80206627 0.9968774 1.003119 1.0110791
0002e0 5a 44 72 3f 38 6f 80 3f e6 36 7c 3f e1 10 80 3f
       0.94635546 1.0033941 0.9852127 1.0005151
0002f0 7b 01 80 3f 62 9f 5a 3f e9 83 7c 3f 72 73 7a 3f
       1.0000452 0.8539945 0.9863878 0.97832406
000300 55 a6 81 3f cb e5 80 3f 53 22 7c 3f 76 f6 7c 3f
       1.0128886 1.0070127 0.98489875 0.9881357
000310 2b 37 80 3f 1d 22 80 3f 47 74 75 3f 24 70 7e 3f
       1.0016836 1.001041 0.9588055 0.99389863
000320 97 9f 75 3f d1 67 80 3f 14 68 6c 3f b7 8b 77 3f
       0.9594664 1.0031682 0.9234631 0.9669756
000330 de 2b 81 3f 77 50 83 3f 3a 02 80 3f aa 08 6e 3f
       1.0091512 1.0258931 1.000068 0.9298197
000340 54 5d 7f 3f 8e 64 7a 3f 4b 69 84 3f 02 45 79 3f
       0.9975178 0.97809684 1.0344633 0.9737092
000350 a2 c3 79 3f 2b c6 7f 3f 8e 7f 7c 3f 9b 03 80 3f
       0.97564137 0.99911755 0.98632133 1.00011
000360 d2 f2 7f 3f ba ac b2 3f 8f e1 73 3f 12 d7 80 3f
       0.9997989 1.3958962 0.9526605 1.0065634
000370 b3 2b 7c 3f bf 30 7f 3f 9c c1 7f 3f 90 46 80 3f
       0.9850418 0.99683756 0.999048 1.0021534
000380 10 37 80 3f 3c 22 7f 3f 3f b0 80 3f 6b 8d 81 3f
       1.0016804 0.9966161 1.0053786 1.0121282
000390 2a 04 7d 3f 46 d2 7b 3f 01 00 82 3f c9 8b 85 3f
       0.9883448 0.98367727 1.0156251 1.0433284
0003a0 dc d8 67 3f e7 e6 83 3f 99 4f 7e 3f ab 6e 80 3f
       0.90565276 1.0304841 0.99340206 1.0033773
0003b0 a4 b2 7a 3f 56 ef 7b 3f 06 f9 6f 3f 9c 91 7f 3f
       0.97928834 0.9841207 0.93739355 0.9983156
0003c0 09 ac 7f 3f 48 3a 80 3f 4c 25 80 3f ef 56 7b 3f
       0.9987188 1.0017786 1.0011382 0.98179525
0003d0 93 03 9c 3f 15 ba 76 3f 25 87 80 3f 4e e8 7c 3f
       1.2188591 0.9637769 1.0041243 0.9879197
0003e0 93 4d 78 3f 90 bb 7f 3f a4 47 81 3f 3f 02 80 3f
       0.9699337 0.9989557 1.0099988 1.0000685
0003f0 85 f6 7c 3f 68 08 88 3f e0 a7 7a 3f 20 80 7e 3f
       0.9881366 1.0627565 0.97912407 0.99414253

linears.0.weight f4 [50, 3]
000000 b8 3d 73 3d a2 3a ab 3e a7 30 6c 3e 2e 0e 88 3e
       0.05938503 0.3344317 0.23065434 0.26573318
000010 b3 b4 26 3e 5e 43 4c 3e 3d ac 99 be 62 cd 17 c0
       0.16279869 0.19947574 -0.3001422 -2.3719106
000020 28 d2 8f 3e ee 29 b7 3e ce ce 47 3d 45 d4 ca bc
       0.28090024 0.35774177 0.04878121 -0.024759421
000030 04 2c 73 be 31 d8 c9 bf e4 c2 83 3e 03 16 41 be
       -0.2374726 -1.5769101 0.25734627 -0.18856053
000040 23 73 e2 bf df 7b 60 be dc 0f 04 bd aa 71 b5 3f
       -1.7691387 -0.21922253 -0.032241687 1.4175313
000050 4f 7a ae be a7 32 dc bd dd 3f dc 3f 88 62 c9 3c
       -0.3407769 -0.10751849 1.720699 0.024583116
000060 b0 71 66 3e 85 8f 30 3e bf 8b 61 be 9b b2 b4 be
       0.22504306 0.17242248 -0.22025965 -0.35292515
000070 c7 8f 2e bf 01 f9 8a be c6 9b be 3d c9 96 1a bc
       -0.68188137 -0.271431 0.09307055 -0.009435364
000080 96 a4 d4 3d 30 fa cf be 34 6b e2 be 35 b1 d8 be
       0.10382955 -0.40620565 -0.44222414 -0.42322698
000090 19 18 4a 3e f4 82 9e bf 39 7e 63 3e 6a ee e4 bd
       0.19735755 -1.2383714 0.22216119 -0.111782864
0000a0 0f 7c 40 3f 6a 8e d9 bd d0 54 55 be 40 82 34 bf
       0.751893 -0.106228665 -0.20833135 -0.70511246
0000b0 17 9a 45 be be 5b 4f be b4 2f 8d bf a7 24 85 bd
       -0.19297062 -0.2024984 -1.1030183 -0.065011315
0000c0 39 c3 d4 bb 2b 6f e5 3f 04 89 8f 3e 2c 62 c9 be
       -0.006492999 1.7924551 0.28034222 -0.39332712
0000d0 07 7e 22 3f 16 62 3c bf 44 2f 09 3f 96 51 b8 3e
       0.6347355 -0.7358717 0.53587747 0.35999745
0000e0 35 af 2a be a9 e7 42 be 11 f7 99 bd cf bb 13 3e
       -0.16668399 -0.19033684 -0.07517827 0.14427112
0000f0 63 c3 5b 3e 42 2d 8d 3f 60 68 33 bd 4e da 30 bf
       0.21461253 1.1029437 -0.04380071 -0.69083107
000100 3a 6c c6 bf dc 99 7f bf 76 33 69 be cb 69 7b bf
       -1.5501778 -0.99844146 -0.22773537 -0.982083
000110 41 6b e1 bd a6 bd 2a be d0 74 25 3f 02 e1 6c be
       -0.11006785 -0.16673908 0.64631367 -0.23132709
000120 1b 08 89 3e 4d 87 03 3f 87 a5 cf 3c df 9f 5f bd
       0.26763996 0.5137833 0.025347484 -0.054595824
000130 67 f4 6a be 8e 66 24 3d 42 ab db 3b e6 8e a4 3c
       -0.22944795 0.040136866 0.006703765 0.02008767
000140 29 ad d3 bc a1 4f ec 3b b6 b2 78 3f 1f 7c ed bd
       -0.025839405 0.007211641 0.9714769 -0.1159594
000150 9b 0b a9 be ef 9f 88 bf 40 4a cc 3d e1 52 cc 3d
       -0.33016667 -1.0673808 0.099750996 0.099767454
000160 58 6e 8b 3f f4 c9 f3 3e 31 5c 53 bc c4 03 f4 bf
       1.0893049 0.47615016 -0.012900398 -1.9063649
000170 39 8b 07 3e 3f dd 83 be f2 97 87 be 44 94 9e be
       0.13236703 -0.25754735 -0.26483113 -0.30972493
000180 75 58 80 bd 70 3f 25 3e 84 f6 53 3e c9 a8 3e bd
       -0.06266872 0.1613748 0.20699507 -0.046547685
000190 93 b0 bf 3e d4 d1 84 3e 63 11 9d 3d 82 c8 3a bc
       0.37439403 0.25941336 0.07669332 -0.011400344
0001a0 3f 55 21 3e 5e 03 50 bd 06 39 c2 be 73 90 4e 3e
       0.15755175 -0.05078446 -0.3793413 0.2017229
0001b0 70 2e 96 be ea 60 b1 be c1 6b 00 3e 0b c1 19 3e
       -0.29332304 -0.34644252 0.12541105 0.15015046
0001c0 b7 de 64 3f be 60 88 3d 7f be 96 bd 03 04 f8 be
       0.89402336 0.06659077 -0.07360553 -0.4844056
0001d0 b9 23 95 3d 4d 15 9c bd 07 bc 6c bd 47 dd 29 3d
       0.07282204 -0.0762125 -0.057796504 0.041470792
0001e0 74 20 2e 3e 5c 89 52 3f 03 bd 2e bd 56 a3 b4 bd
       0.17004567 0.82240844 -0.042660724 -0.08820216
0001f0 b3 61 00 be 5d 32 2f 3e cb 2b da 3c 82 8a cc bf
       -0.1253727 0.17109056 0.02663221 -1.5979769
000200 48 eb 4e bd 67 a6 92 bd 97 9d 63 3d a4 0b 5f bf
       -0.05051735 -0.07160645 0.05557021 -0.8712714
000210 dd 0f 33 be a9 d8 f1 3d d4 13 13 bf 98 9e 86 3e
       -0.1748652 0.11808903 -0.5745213 0.26292872
000220 ce 77 c6 be 43 00 56 be 57 00 35 be f0 e7 bb bf
       -0.3876328 -0.20898537 -0.17675911 -1.4680157
000230 2f 56 4e 3e 6a ea 44 3c 94 59 21 bf be 93 bc bb
       0.20150064 0.012018779 -0.6302731 -0.005754917
000240 66 03 a8 3e ec e0 93 3f 8d b9 c0 3e cb a7 85 3d
       0.32815093 1.1553016 0.37641564 0.065261446
000250 5c c4 b4 3e cd d5 c5 3d
       0.3530606 0.0965992

linears.0.bias f4 [50]
000000 ce b5 30 3e b1 4f 20 3d 8b fc 18 3e bc 86 dd 3c
       0.17256853 0.0391385 0.14940087 0.027041785
000010 5a 65 8c bc b2 f1 75 be 34 d6 81 3f 71 f4 68 3f
       -0.017138172 -0.2401798 1.0143495 0.9099799
000020 7f 92 3b be 40 06 8a be 2b 3e 18 be e7 72 2c bd
       -0.18317603 -0.26957893 -0.14867465 -0.042101767
000030 4c 0f d5 3d 4e 11 c5 3e a0 15 89 be 07 a9 96 be
       0.10403308 0.38489765 -0.2677431 -0.29425833
000040 96 a5 24 3f 9a 7c a2 3e 10 a8 e1 be f3 c2 f8 bd
       0.64315164 0.31735688 -0.44073534 -0.121465586
000050 41 86 6f bf fe 05 15 bf b9 e3 6e bd 18 1a b7 3d
       -0.9356423 -0.5821227 -0.058322642 0.08940524
000060 dc e2 05 be ad 00 99 3d 88 e8 68 3e 0f 41 a3 3e
       -0.13074821 0.07470832 0.22744954 0.31885573
000070 54 73 12 bd 17 54 fd bd 0d e4 71 3d b8 e4 c9 3d
       -0.035754517 -0.123695545 0.059055377 0.09858078
000080 65 02 15 3e 27 c5 f3 3d e2 c0 77 bd 97 ec 3e 3c
       0.14551695 0.11902838 -0.06048668 0.011653087
000090 a3 b5 14 bd 73 68 9e 3e 66 fa 7d be 4c 4f 09 3e
       -0.036306035 0.30939063 -0.2480255 0.13409156
0000a0 54 b3 18 3f 31 6f 20 be 79 ab cf bd 6a be 32 3e
       0.59648633 -0.15667416 -0.10140128 0.1745545
0000b0 e4 88 af 3d f8 6b bb bc cf 74 81 be 3b 1c f6 bd
       0.08571032 -0.022878632 -0.2528443 -0.12017103
0000c0 a6 ce 46 3e 06 10 e4 3d
       0.19414768 0.11135869

linears.1.weight f4 [50, 50]
000000 81 f6 e2 3d 66 ba 38 3e 01 1b 9e 3e 78 c3 da bd
       0.11082173 0.18039855 0.30879977 -0.10681814
000010 a7 45 5d 3e bf 57 68 3d af 9f 3f be 55 ee d4 be
       0.21608602 0.056724306 -0.18713258 -0.41588083
000020 30 69 9d 3d 2b 22 12 be e7 55 47 3d 03 70 17 be
       0.076860785 -0.14270847 0.048665907 -0.14788823
000030 d9 23 13 3e 18 80 6e be 54 bc c6 3c f6 3f f4 3d
       0.14369144 -0.23291051 0.024259724 0.11926262
000040 69 d6 db be 23 8a 24 be 56 71 02 be 97 1c 28 be
       -0.4293702 -0.1606832 -0.12738547 -0.16417156
000050 dd d0 18 3e 39 70 ab be ca 71 c0 bd ff 13 a6 be
       0.14923425 -0.33484057 -0.093967035 -0.3243713
000060 de fc 35 3e 32 c6 1b bd 8c b9 8c bc 6a d2 93 bc
       0.17772242 -0.03803081 -0.01717832 -0.01804467
000070 a0 5c 52 3d d1 aa 85 3d 41 bd f3 3e 83 0e 95 3e
       0.051357865 0.06526721 0.47605327 0.29112634
000080 a6 6a ff bd 80 59 d0 bb 81 e1 27 3d ab 5a 30 3e
       -0.124715135 -0.0063583255 0.04098654 0.17222087
000090 23 2f 10 3e 12 15 15 be d4 f4 9e 3d 86 dd 79 3c
       0.14080481 -0.14558819 0.07761541 0.015250569
0000a0 8b d3 b5 be 05 03 3c bd 09 cc 55 3e f1 dd c4 be
       -0.35512957 -0.045901317 0.20878614 -0.38450578
0000b0 ef 68 06 bf 74 ee 09 3e db 25 de 3e a0 b6 a1 3e
       -0.52503866 0.13469869 0.43388256 0.31584644
0000c0 31 60 29 be e3 42 1d bd 40 b3 82 be 4e b5 48 be
       -0.165406 -0.038393866 -0.25527382 -0.19600412
0000d0 7d 0d a7 bd e5 b8 a4 3c bf 4d 4e be b6 50 14 3e
       -0.081568696 0.020107696 -0.20146845 0.14483914
0000e0 3b 62 09 bd bf e2 6d bd 2d 2f 64 be 23 0e 5d bc
       -0.033540946 -0.05807757 -0.22283621 -0.01349214
0000f0 ac 8f eb bc 0c f9 d0 bd 21 10 93 3d 56 b8 91 bc
       -0.028755032 -0.10203752 0.07180811 -0.017788094
000100 d3 69 f8 bd aa 0a 4c 3e 4c 11 67 3e 37 7a 15 3d
       -0.12129559 0.19925943 0.22565192 0.036493506
000110 cb a3 5d 3d 13 d7 35 be ca b9 17 3e 83 60 62 be
       0.054111283 -0.17757826 0.14816967 -0.22107129
000120 b6 0b da bd ac fa dd 3d 25 b3 36 3e 86 2b b4 3d
       -0.10646765 0.108388275 0.17841776 0.08797364
000130 9d e1 90 bd ef ea e8 bd 85 38 58 3d 02 25 03 be
       -0.07074282 -0.11372935 0.052788276 -0.12807086
000140 02 53 42 3e b0 fa b5 bd 7f 9c 6e 3d 2f 19 3b bd
       0.18976977 -0.088857055 0.058254715 -0.045678314
000150 0d a0 03 3e b1 40 56 3d d9 48 d5 3c 3d 05 27 bd
       0.12854023 0.05230779 0.026035713 -0.04077648
000160 58 65 d5 bd 7d 16 c3 be bb ec f9 bd a7 53 32 3c
       -0.104197204 -0.38103095 -0.12203356 0.010884202
000170 b0 c7 3c 3e e8 20 e1 bd d4 bc 58 be 44 1d 01 bc
       0.1843555 -0.109926045 -0.21165782 -0.007880513
000180 b5 36 bb 3e b8 21 a5 bb 51 f9 3b bd 80 67 c4 3d
       0.36565176 -0.00503942 -0.045892064 0.095900536
000190 ab c8 c0 3d 39 5f 20 3d b4 72 71 bd 46 d8 8c bb
       0.094132744 0.03915331 -0.05894728 -0.0042982427
0001a0 1d 32 15 3e b5 12 40 3c 8a d1 4f bd ac ee 53 3e
       0.14569898 0.01172321 -0.05073694 0.20696515
0001b0 71 5a 53 3d bb e3 b6 bd d4 0c b2 be da 87 6f 3d
       0.051599924 -0.08930155 -0.34775412 0.058479168
0001c0 18 c2 94 be af ec da 3d eb 46 12 be c2 c7 d9 bd
       -0.29054332 0.10689675 -0.14284866 -0.10633804
0001d0 96 02 81 3e c0 32 26 3e c9 09 ca be 9c 79 78 3d
       0.25197285 0.16230297 -0.3946059 0.06066285
0001e0 9b b8 fe bd 16 78 33 bc 47 c6 8f 3d f9 d5 3c 3d
       -0.124375544 -0.010953924 0.0702024 0.046102498
0001f0 67 80 a8 bd 27 4e a2 3d b4 59 2e be cc 72 04 3e
       -0.08227616 0.079250626 -0.17026407 0.12934417
000200 a7 7f 35 bc 14 00 3c 3e d8 88 39 be de bb 88 3d
       -0.011077798 0.18359405 -0.18118608 0.06676458
000210 99 80 8b bd 20 4a b1 bc 12 3a 96 bd a4 03 a7 3d
       -0.068116374 -0.02164179 -0.07335295 0.08154991
000220 65 28 ef 3d c3 85 ba b9 1c 0e f7 3c ce da a8 bd
       0.116776265 -0.00035576345 0.030158095 -0.08244859
000230 cd 8d dd 3d 32 eb 21 bd fa 45 a6 bb c3 9b 90 3e
       0.10818062 -0.03953094 -0.00507426 0.28243837
000240 22 d9 19 3d 64 24 2d bd 9b 45 93 bd e4 99 88 be
       0.03756059 -0.042271033 -0.071910106 -0.2667991
000250 72 7d 8c 3d 6f d0 40 3e 34 c9 ef 3d bc 6b 9c bd
       0.06859864 0.18829511 0.11708298 -0.07637736
000260 ef b2 41 3d 2e 0b 10 3d 32 22 28 3e e1 cd f3 3d
       0.047289785 0.03516691 0.16419294 0.11904503
000270 34 d7 40 bd ef 39 af 3d 66 f6 33 be ee 69 c2 bd
       -0.047080234 0.08555972 -0.17574462 -0.09492861
000280 e6 f8 14 3e 7f c0 7c bc 91 be d9 bc ec ed d5 bd
       0.14548072 -0.015426754 -0.026580127 -0.104457706
000290 b1 d7 94 3c 10 6c 14 bd b2 7e 19 bb fd 0d 0c bc
       0.018169256 -0.03623587 -0.0023421464 -0.008548257
0002a0 9c a4 5b 3c 73 0d ea 3d 0c f2 21 bd 17 ca 61 bd
       0.013405945 0.114283465 -0.039537475 -0.05512437
0002b0 78 6a bb bd c4 75 a9 3e 72 2d 8d 3d 5a 46 db bd
       -0.09151167 0.3309766 0.06893434 -0.10706778
0002c0 04 69 ba be a2 5b dd 3d ba 47 7e bd f4 95 47 be
       -0.36408246 0.10808493 -0.062080123 -0.19490796
0002d0 11 b8 af be fb c9 5e be ca fb 78 be d6 13 5b 3e
       -0.3432012 -0.21756737 -0.243148 0.21394286
0002e0 67 ae 91 3c 2e 5d ac 3d fc 49 bc 3c 7d a3 9e 3d
       0.017783357 0.0841621 0.022984497 0.07746027
0002f0 d2 8b 39 bd 5a 82 8d 3e 6d d9 2c 3c 1d 6e b8 3c
       -0.04529936 0.27638513 0.010549885 0.022513444
000300 c5 18 71 3c 87 d9 b7 3c c6 88 53 3e 9f 04 8d be
       0.014715378 0.022442592 0.20657644 -0.27542588
000310 36 81 61 3e 9e 65 20 be df 48 23 be 40 65 26 be
       0.22021946 -0.15663764 -0.15945767 -0.16249561
000320 bd 27 33 3e 63 ba 6a bd 6b 99 6f be 17 73 a7 39
       0.17495628 -0.05730666 -0.23398368 0.0003193847
000330 47 6e 37 be 4a 2e 7d 3d 19 af 38 3e 47 cb 73 3e
       -0.17913161 0.061811723 0.18035544 0.23808013
000340 47 0c 66 3e ca 5a 93 bd cb 64 ce bd 89 ee 54 3e
       0.22465621 -0.07195051 -0.100778185 0.20794119
000350 69 fc 86 be 9e 21 90 3e 46 63 f1 bd db 7b 9c be
       -0.2636445 0.28150648 -0.11786513 -0.30563244
000360 48 0b 47 3e ef a4 09 3f 83 80 ff bb d6 c8 01 3d
       0.19437897 0.53767294 -0.007797302 0.031685673
000370 a8 50 d0 bb 32 1b 30 be d5 f4 b0 bd 08 a3 5f 3e
       -0.006357271 -0.17197874 -0.08640448 0.21839535
000380 cd 64 34 be ff a9 79 3d 1f a6 98 3d f0 62 d9 3e
       -0.17616577 0.060953137 0.0745356 0.42458296
000390 08 59 ea bd 7f 20 c0 3e c3 bd 05 bf 00 b1 92 3e
       -0.114427626 0.37524793 -0.5224268 0.28650665
0003a0 5a 4a dc 3d 98 6d 6f bc c1 89 59 be 4c 42 e8 bd
       0.10756369 -0.0146135315 -0.21243955 -0.1134077
0003b0 82 ba ad be 99 e9 1a 3e 57 27 b8 bd bb 79 9c bd
       -0.33931357 0.15128173 -0.089918785 -0.07640406
0003c0 a9 a5 34 3e 38 9e a7 be a5 bc 35 3e e1 1f be 3e
       0.1764132 -0.327379 0.17747743 0.37133697
0003d0 68 b5 bf 3e d0 99 f2 3c d2 7d ce bc 38 38 d4 bd
       0.3744309 0.02961436 -0.02520648 -0.103622854
0003e0 ad 3d 62 3e 69 5d 81 bc 46 b4 00 3e 4c 71 25 3e
       0.2209384 -0.015791612 0.12568769 0.161565
0003f0 57 c6 02 3c 89 95 55 be ee 64 f9 39 11 4d 55 bd
       0.007981858 -0.20857824 0.0004756818 -0.05207545

linears.1.bias f4 [50]
000000 d5 b5 ac 3c 2f 03 ae 3b 4e 2b ef bd 9a 55 e8 bd
       0.021082798 0.005310438 -0.116781816 -0.11344452
000010 01 9a 33 3f 07 a5 c0 bc 4c 0e 22 3e 0f 6f 86 3e
       0.70156866 -0.023516191 0.15825766 0.26256606
000020 d8 aa 7a bc 90 c5 ac 3c 58 db 8a 3d d3 6a d7 bd
       -0.015299521 0.021090299 0.06780118 -0.10518422
000030 2d f3 15 be 88 e3 11 bd 1a 29 8e bd 3b 04 74 3e
       -0.14643545 -0.03561738 -0.06941433 0.23829739
000040 a3 4d 87 be 3b 25 40 3e 4e 43 d3 be 8b f9 f8 3d
       -0.2642642 0.18764202 -0.41262287 0.121569715
000050 98 9f 8f be c0 af f8 3d 7a 67 2b 3d 4a 3a e0 3d
       -0.28051448 0.12142897 0.04184673 0.10948618
000060 76 8d 71 bf 44 29 62 bd 24 b1 b9 bd 76 23 82 3f
       -0.9435648 -0.055215135 -0.0906699 1.0167072
000070 4d 0f 04 be d7 04 5f 3d e7 fb e2 3c ab 3a ca 3d
       -0.12896462 0.054447975 0.027708007 0.09874471
000080 e0 32 56 3e 60 f2 90 bd 39 04 3c 3e 04 4f df bc
       0.20917845 -0.07077479 0.18360986 -0.027259357
000090 b0 84 7e 3d 82 37 c2 bd 06 b3 6a bd 3f 1c 3f 3e
       0.06213826 -0.094832435 -0.057299636 0.18663119
0000a0 13 3f d6 3d 20 a0 db bd 99 69 43 be 6b 22 d5 3c
       0.10461249 -0.10723901 -0.19083251 0.026017388
0000b0 d5 f9 37 3d 96 1a 91 bd da ba 87 be d1 c6 d5 bd
       0.044915993 -0.07085149 -0.26509744 -0.10438312
0000c0 bf 7c dd 39 c4 51 29 be
       0.00042245348 -0.16535097

linears.2.weight f4 [50, 50]
000000 1f 89 fa bd de 77 3c 3e 48 0c c7 3c 75 8e e8 bb
       -0.12233185 0.184051 0.024297848 -0.0070970603
000010 5c ef 2e be dd 5a 9b bc 32 62 f8 bd 9d 0f 11 be
       -0.17083496 -0.018964225 -0.12128104 -0.14166112
000020 47 92 1a bc e8 97 96 bd c5 c2 97 bd 88 70 14 bd
       -0.009434289 -0.073531926 -0.07410196 -0.03624013
000030 c8 45 8e 3d 03 e5 8b 3d c7 fb 97 3d fc ff c0 3b
       0.069469035 0.0683079 0.074210696 0.0058898907
000040 8a c9 25 3c 87 ca 97 3d 7f 81 26 be fa d9 d6 3d
       0.010118851 0.07411676 -0.16260336 0.104907945
000050 db ec 50 bc 7a 21 07 3d 25 51 b8 bb 5e 08 bc 3d
       -0.012751783 0.03299091 -0.0056249076 0.091812834
000060 90 85 f2 bd df 4b 3d bc 70 58 01 3e b3 a4 fe bd
       -0.11841881 -0.011553734 0.12631392 -0.12433758
000070 3c ba 63 3d 1b d0 39 be 2b bc 94 3e 4e 0e 11 be
       0.05559753 -0.18145792 0.2904981 -0.14165613
000080 bf 11 04 be fd 4a 68 3e 0d 94 82 be 11 e4 bd 3d
       -0.12897395 0.22684856 -0.2550358 0.09272016
000090 5d 28 5a bd cd 84 59 3c 48 e5 2d 3d 3d 57 46 be
       -0.05326115 0.013276291 0.042454988 -0.19369216
0000a0 49 27 9d bc 2f cc 48 3d a8 60 57 be 75 87 26 3d
       -0.019183772 0.04902285 -0.21032965 0.040656526
0000b0 73 66 d9 3c 83 3d 12 be 16 6d 83 bb 8f f2 4f bd
       0.02653811 -0.14281277 -0.004010807 -0.05076843
0000c0 6c 64 cb 3d b6 92 f0 bc 1c ad ac bb 08 e5 34 bc
       0.09931263 -0.029366832 -0.0052696597 -0.011040933
0000d0 97 d9 38 be 56 77 83 bd 2c c3 5e bd 9b af 87 3e
       -0.18051754 -0.06419246 -0.05438535 0.26501164
0000e0 8e 9f 87 be 62 07 b6 bd be d3 c7 bd 80 af 10 bd
       -0.26488918 -0.08888127 -0.097571835 -0.03532362
0000f0 83 16 b0 3d e3 b4 0e be 24 73 62 3d d6 f2 03 3e
       0.08598044 -0.1393619 0.055285588 0.12885603
000100 66 65 dc bd c4 31 49 3e 84 e2 76 bb bf 40 9a 3d
       -0.10761528 0.1964789 -0.0037671635 0.075318806
000110 94 02 5d bc b3 69 77 bd 24 90 52 3c 7b 3a cd bd
       -0.013489384 -0.060403537 0.012851749 -0.1002092
000120 e6 e5 81 3d 8a a1 5a 3e f2 89 5e 3e 48 60 cf bd
       0.06342678 0.21350685 0.2173231 -0.10125786
000130 6f 8d 6b be d5 08 86 be 0c a7 5b 3e b8 e0 1d be
       -0.23003171 -0.26178613 0.21450442 -0.15417755
000140 af d0 3a be 0b fe 7b bd 17 a9 7b be 83 ad 41 be
       -0.18243669 -0.06152157 -0.24576221 -0.18913846
000150 4c 87 5f 3e bb 9d 8e bd 1e 9c 69 3e 58 4d ae bd
       0.21828955 -0.069636784 0.2281346 -0.08510846
000160 15 d7 9e 3d f3 c5 19 bd d2 7a 4b 3d 86 1b 50 bd
       0.077558674 -0.037542295 0.049677677 -0.0508075
000170 ff 17 18 bc 45 27 38 be 86 59 60 be 50 cf fc bd
       -0.009283065 -0.1798373 -0.2190915 -0.12344229
000180 97 48 05 be 19 02 b7 bc d3 dc b9 3d a6 eb 33 3d
       -0.13015972 -0.022339867 0.09075322 0.043925904
000190 cd 46 0a be e4 b5 c2 3d 18 50 02 3e 5b e2 47 3e
       -0.13503571 0.09507349 0.12725866 0.19519942
0001a0 0b 7e ce bd 33 54 42 be fe d4 b0 3d 69 27 49 be
       -0.100826345 -0.18977432 0.08634375 -0.1964394
0001b0 dc c0 6d be b9 aa aa bc 38 f1 0c bd 97 25 45 be
       -0.23218101 -0.02083336 -0.03440973 -0.1925262
0001c0 03 5e 89 bd 50 7d 36 3e 6c a6 55 be 6a 83 0c be
       -0.067073844 0.1782124 -0.20864266 -0.13722005
0001d0 05 3e 8f bc 6b 5e 8d 3e 75 85 02 3e ec 5b 93 be
       -0.017485628 0.27611098 0.12746222 -0.28781068
0001e0 26 e6 56 be ad 11 ac be 0a 08 27 be 70 54 37 be
       -0.20986232 -0.33607236 -0.1631166 -0.17903304
0001f0 34 7f 35 3e 36 a7 7a bc 17 a2 54 3e 27 1f 50 be
       0.17724305 -0.015298655 0.20764957 -0.20324384
000200 ca 65 92 bc 54 f2 36 3e 26 2d 70 3d 67 06 ae 3c
       -0.017870802 0.17865878 0.058636807 0.021243287
000210 f6 af 90 3c a3 df 18 be 0b 6b d6 3c 78 97 b8 bd
       0.01766203 -0.1492906 0.026174089 -0.09013265
000220 2b 26 60 3c dd e7 e8 3d c5 65 b4 3d 37 4f d7 ba
       0.013680975 0.113723494 0.088084735 -0.0016426806
000230 f3 e9 7a bd 6b c4 27 bd d1 f3 78 bd fb 8a c4 bd
       -0.061258268 -0.040958803 -0.060779396 -0.09596821
000240 91 62 7b be fb 57 64 3d 0f 33 3c bd c1 cd 86 be
       -0.24549319 0.055747967 -0.04594713 -0.26328853
000250 d8 36 ac 3d a0 8a 2b 3d 74 7d 82 3e 76 eb bc 3d
       0.08408898 0.04188025 0.25486338 0.09224598
000260 95 36 b0 bd 15 24 06 3e 18 2b 88 bd 6f 5a 14 bd
       -0.08604161 0.13099702 -0.066488445 -0.036219057
000270 f9 e1 30 3d 08 01 5b 3e 51 1a 22 3e ad 16 8d bd
       0.043184254 0.21387112 0.15830351 -0.06889091
000280 38 9c a1 bd 60 cb 8f 3d ac 99 96 3d 05 9a 30 3d
       -0.078911245 0.070212126 0.07353529 0.043115634
000290 90 44 73 3d ca 73 01 3e 25 88 05 be fe 09 0e 3e
       0.05939156 0.12641826 -0.13040216 0.13870999
0002a0 5a 50 bf ba ba 3b 80 3e b4 f2 a9 3d a0 19 68 bd
       -0.001459609 0.25045568 0.08298245 -0.056665063
0002b0 f3 f5 30 bd f8 fd a5 3d f9 a8 3b be ad f7 31 3c
       -0.043203305 0.08105081 -0.18326177 0.010862273
0002c0 76 72 c3 bd 1b 54 ec bd d1 ab 52 3d 3b 4c a0 3c
       -0.09543316 -0.11539479 0.05143339 0.0195676
0002d0 d3 fb a9 3e 15 f1 f5 bb e4 7c 0e bd 15 6c ad bd
       0.3319994 -0.007505546 -0.034787074 -0.08467881
0002e0 e5 9d 1b 3d 13 a6 f8 bd ec 50 e3 3d 57 0d 4e bd
       0.037992377 -0.12141051 0.11099419 -0.05030569
0002f0 5a 0d 56 bd db fe 51 3d 0b fa fd 3d 43 8d 6e be
       -0.052258827 0.05126844 0.124012075 -0.23296075
000300 1e 80 8e 3e 0e 7c 91 3d f4 ba ac bc 57 77 75 3d
       0.2783212 0.0710374 -0.02108524 0.059928264
000310 25 2a ed 3d 25 04 95 bc 87 1d 59 be 00 84 f6 bb
       0.11580304 -0.018190453 -0.2120267 -0.00752306
000320 7f 01 3d 3e 5f c3 1d bd a3 b8 5b 3e 9f f2 ab bc
       0.18457602 -0.0385164 0.21457152 -0.020989714
000330 16 68 87 be 0f 25 b1 3c a0 c4 1e be c1 0a 86 3d
       -0.264466 0.021624116 -0.15504694 0.0654502
000340 29 f6 a0 bc 33 10 76 be 79 1e 3f 3d 56 1b 16 3e
       -0.019648628 -0.24029617 0.04665992 0.14658865
000350 b1 42 d1 3e 55 03 66 3c 95 8f 86 be 33 08 18 3e
       0.40871194 0.01403888 -0.2628142 0.14846878
000360 95 30 48 3d 09 4b 26 3e ba a7 4e 3e 88 54 ab be
       0.048874456 0.16239561 0.2018117 -0.3346293
000370 95 39 25 be 1b 18 65 3d 98 55 a4 3d f8 ad e9 bc
       -0.16135247 0.055931192 0.08024138 -0.028525338
000380 23 f4 ce bd 8c 23 97 bd b8 1d 7d bc ac d4 21 3d
       -0.10105159 -0.07379827 -0.01544898 0.03950946
000390 ce 57 0a bd 54 f6 ea 3c 5f fd 95 3d 33 fe 13 3e
       -0.033775143 0.028681912 0.07323717 0.14452438
0003a0 d9 d1 87 3d aa 1a 20 bd fb 53 39 be e2 26 6c 3c
       0.06631822 -0.03908793 -0.18098442 0.014413567
0003b0 e7 9c 9d 3d 79 1d 19 3e ad 71 7c be 9f 41 59 3d
       0.07695942 0.14952649 -0.24652739 0.053041097
0003c0 cb d2 4a bc f6 86 57 3e 82 dd 84 bd b1 b1 fd bd
       -0.0123793585 0.21047577 -0.06487562 -0.123874076
0003d0 1a 8d 0b 3e c3 03 07 bd a8 2a eb bd 56 af 05 be
       0.13628045 -0.03296257 -0.114827454 -0.13055167
0003e0 87 af e2 3c fc 1e 6c bd 73 41 1b be 9f 55 2b 3d
       0.027671589 -0.057646737 -0.15161686 0.0418297
0003f0 e9 7b 04 3c e6 0a c2 3d aa 09 44 be 91 72 df 3a
       0.008086183 0.09474735 -0.19144312 0.0017047693

linears.2.bias f4 [50]
000000 c1 21 90 bd fd ea 4a 3e b3 be 6a bd e2 56 b1 bd
       -0.07037688 0.19816203 -0.05731077 -0.0865915
000010 b8 28 06 bc 1f 28 6b 3d 09 8f 67 be 51 42 0f 3e
       -0.008188419 0.05741131 -0.22613157 0.13990141
000020 60 ee c8 be 94 ab 80 bd 62 c5 60 3e 51 2b 85 3e
       -0.39244366 -0.06282726 0.21950296 0.2600961
000030 d5 35 2d 3e 0b 90 f3 bd 77 27 7d be df de 98 be
       0.16915067 -0.118927084 -0.24722086 -0.29857537
000040 6f 77 0a 3e 5a ef de 3d d9 58 05 3e 38 06 bf 3e
       0.13522123 0.108854964 0.13022174 0.37309432
000050 4a 7d 35 bd 51 df 27 3e 4a b3 5c 3e da 02 c1 3d
       -0.044308938 0.16393782 0.21552768 0.09424372
000060 6c ec 2d be ec 6d d5 3e 4b f2 27 be 82 0c 9f 3e
       -0.16984719 0.41685426 -0.16401021 0.3106423
000070 a6 b2 8e 3c 42 02 11 3c 6a b8 1a 3e 14 6c d8 be
       0.01741917 0.008850636 0.15109411 -0.42269957
000080 f8 7a 45 be c2 ae 77 3e 9a d0 08 3f 00 bc 8c bd
       -0.1928519 0.24187759 0.534433 -0.06871796
000090 3e f7 82 be 93 1e 0b be e6 7a 67 3e a1 b8 c3 bd
       -0.25579256 -0.13585882 0.22605476 -0.095566995
0000a0 89 0f 5a bd 41 b7 bb 3e 3b 3c 62 3e 6c 59 ff be
       -0.05323747 0.3666325 0.22093289 -0.4987291
0000b0 9a 45 0f be 43 18 56 3e f3 5a 04 3f ba 5f 05 be
       -0.13991395 0.20907693 0.5170128 -0.13024798
0000c0 ec 1a 82 3e 2b 3c 8a be
       0.25411165 -0.2699903

linears.3.weight f4 [50, 50]
000000 5b 10 c5 3d 6b f8 23 3e 30 49 25 bd a4 fc 12 3e
       0.0962226 0.16012733 -0.040353 0.14354187
000010 80 b1 2e be 45 96 6f bd 03 8d fe 3d e4 ef 56 be
       -0.17059898 -0.058492918 0.124292396 -0.20989949
000020 4b b8 0c bd 0c 89 99 3e 58 e5 87 bc 65 2e 0e 3e
       -0.034355443 0.2998737 -0.016588852 0.13884886
000030 ea 0e 10 3e d0 71 69 3d 5e 7b 10 3e c6 5b ab bc
       0.1406819 0.056993306 0.14109561 -0.020917784
000040 18 1d d7 3d e5 60 93 3b 2e 48 2f be 0f ff 5b be
       0.10503596 0.0044976347 -0.17117378 -0.21484016
000050 79 fa 3e bd 8a 90 bd 3d 1a be 1f be 44 b7 a8 3e
       -0.046625588 0.09256084 -0.15599862 0.3295232
000060 d5 72 e2 3d 3a 90 26 bd ed d4 7e 3e 32 54 cf 3d
       0.11057059 -0.04066489 0.24885912 0.10123481
000070 19 c8 28 3d 50 90 c2 bd d1 3d ba 3d ad d5 0c 3c
       0.041206453 -0.09500182 0.09093822 0.008595866
000080 fa 5f bd bd 94 72 d3 3d a1 bf 31 3d b1 2e 0b 3e
       -0.09246822 0.103245884 0.043395642 0.1359203
000090 c8 a6 33 bd 27 6f 00 be e8 9e 36 be dd 19 c4 bd
       -0.043860227 -0.12542401 -0.17834055 -0.095752455
0000a0 5e 80 71 3d e0 9d a6 3d 46 6e de bd da 1a f8 3c
       0.05896031 0.08135581 -0.10860877 0.030286241
0000b0 d3 2c 92 3e 96 58 e4 3d 89 22 cd be a5 ae 52 3e
       0.28549823 0.11149709 -0.4006541 0.20574434
0000c0 41 9a b4 bc 71 d1 15 3e 36 10 28 3d fd 82 e1 3d
       -0.02204621 0.14630677 0.041031085 0.11011312
0000d0 3f 27 e9 bd 7e 5a 21 3d bf 26 dd 39 9f bb ec 3d
       -0.11384439 0.03939294 0.00042181273 0.115592234
0000e0 30 ef da bd d1 3e 1d 3e 31 c7 fb 3c 36 8b 55 be
       -0.10690153 0.15355994 0.03073463 -0.20853886
0000f0 2e 19 e7 bc 04 49 17 3c f8 f2 08 3e 12 2f a0 bd
       -0.028210249 0.009233717 0.13373935 -0.07821478
000100 c9 3b 2c 3e 7a 01 32 3d 98 c3 d6 bd 9f 09 62 3e
       0.16819681 0.04345844 -0.10486525 0.22073983
000110 b0 e6 5f bc 7d 41 b1 3d 8d 49 d7 3e f1 58 10 3d
       -0.01366584 0.08655069 0.42048302 0.03524107
000120 8e 37 1f 3d d2 a4 9b 3a d1 0a 0a be d7 8d d8 bd
       0.03887134 0.0011874682 -0.13480689 -0.10573929
000130 57 8e 80 be 62 e6 77 be b0 c6 95 3c c1 62 00 3d
       -0.25108597 -0.24208978 0.018283218 0.03134418
000140 4d af 84 bc 91 f9 00 bb 37 74 07 be a7 60 be 3d
       -0.016196871 -0.0019680003 -0.13227926 0.09295779
000150 05 d9 d1 bd f6 05 07 3b c7 69 64 3e 13 fb 3b bd
       -0.10246471 0.0020602918 0.22305976 -0.04589374
000160 60 00 0d 3e af 69 78 3d a6 5f f3 bd 93 f1 30 bd
       0.13769674 0.060647663 -0.11883478 -0.043199133
000170 d0 b3 14 3e f1 73 2d be fd 09 6f 3c a9 d2 a4 bd
       0.14521718 -0.1693876 0.014589784 -0.08047993
000180 92 05 26 3e 14 c0 a6 bd 80 3b bd bd 96 11 28 3d
       0.16213062 -0.08142105 -0.09239864 0.041032396
000190 1f 71 c0 3d 42 b3 8d be 1d b8 82 3d 43 b6 37 be
       0.09396576 -0.27675825 0.06382773 -0.17940621
0001a0 ee d1 51 3e 45 a4 ca 3d 8e 38 d1 3d fb 3c d9 bd
       0.20490238 0.09894613 0.10215865 -0.10607334
0001b0 7b 2c 45 3d 5a 2e aa 3c a3 2d 48 3e e6 15 7c be
       0.048138123 0.020774055 0.19548659 -0.24617729
0001c0 18 b2 f2 3d 7c aa 2a be 81 24 f0 3d 51 28 7c be
       0.11850375 -0.16666597 0.117257126 -0.24624754
0001d0 4a 17 9f bd b2 61 4a bd 6e e5 e3 bd 9a 41 c5 bd
       -0.07768114 -0.049409576 -0.111277446 -0.09631653
0001e0 1e e9 48 be 09 dc ae bd d2 cb e1 3d 1b 0d 36 bc
       -0.19620177 -0.08538062 0.11025204 -0.011111523
0001f0 96 70 85 be 57 58 98 3d 6b 94 24 3e 22 c7 39 3e
       -0.2606246 0.074387245 0.16072242 0.1814237
000200 4f 97 0b bd 98 74 34 3e 48 b1 52 bb 06 09 4e 3e
       -0.034079846 0.17622602 -0.0032149125 0.2012063
000210 2d 0b c8 3e 01 7c f7 3d a4 25 e1 bc 82 37 8e be
       0.39071026 0.12084199 -0.027483769 -0.27776724
000220 b5 6b 8f bd cd c9 90 3c aa 97 cb be 4f b1 04 be
       -0.07002965 0.017674351 -0.39764148 -0.12958263
000230 58 68 c3 3d f2 2b 3c 3e 5b 8f d1 bd 2c 46 1d be
       0.09541386 0.18376139 -0.10232421 -0.153588
000240 2b 8f f6 3d b4 08 a8 3e 25 34 98 be 34 62 4e be
       0.12039026 0.3281914 -0.29727283 -0.20154649
000250 28 d4 80 be 7a 23 82 3e d8 05 ff 3d 8f e7 1a be
       -0.25161862 0.2541769 0.124522865 -0.15127395
000260 92 27 d0 bd 5e 68 2b be 25 d5 1a be 29 45 83 3b
       -0.101637974 -0.16739032 -0.1512037 0.0040060473
000270 fc ef 17 bd b4 95 cf bd 95 9f 0a 3e 10 ad 00 3d
       -0.0370941 -0.101359755 0.13537438 0.031415045
000280 38 fe b1 3e 7d ae 34 bd fb 64 62 3e af 2d 73 be
       0.34764266 -0.044111717 0.22108833 -0.23747896
000290 37 f0 0e 3e 66 45 28 bd 8c 8a 03 bf 77 ec b9 3d
       0.13958822 -0.04108181 -0.5138328 0.09078305
0002a0 ad 1c 51 3d f5 8a 61 3e db 10 95 be a4 9b 6d be
       0.051052738 0.22025664 -0.29114422 -0.23203903
0002b0 9e cd 20 3f 26 a9 3c be 01 18 d0 be 82 0e 91 3d
       0.62813747 -0.184239 -0.40643314 0.07082845
0002c0 be 40 ba 3d 05 5e 80 3e e7 f4 98 3e 4d 72 8e be
       0.0909438 0.2507173 0.29874346 -0.2782158
0002d0 71 4d 92 3b ac c8 11 be 5b fe 6f be 73 44 bc 3e
       0.004464798 -0.14236706 -0.23436873 0.36770973
0002e0 9f f7 13 3f 29 51 d6 be 75 bc f3 3c e2 03 b4 3e
       0.57799715 -0.41858795 0.02975295 0.35159212
0002f0 e1 3e 8b bd d9 4d 11 3c b2 2d d9 bc cc a7 56 3e
       -0.067991026 0.008868658 -0.026511047 0.20962447
000300 a3 3c 16 3d f3 77 0e be a4 1b b2 bd f9 e3 fb 3d
       0.03667892 -0.13912944 -0.08696678 0.12299342
000310 6b 3d b2 3e 2f e5 44 be 7f a0 55 3d 80 ca c4 3d
       0.34812483 -0.19228052 0.052155014 0.09608936
000320 fc 0d dd 3d d0 84 1f be ad fa 3b 3e d4 c9 46 bc
       0.10793683 -0.15578008 0.18357344 -0.0121330805
000330 d5 c2 31 bd 2d 14 ca bd d4 60 49 bd 0e 2e 90 bd
       -0.043398697 -0.098671295 -0.049164608 -0.07040034
000340 63 ce 63 3d 74 35 db bc 27 55 37 3d 7b fe 18 bf
       0.055616748 -0.026758887 0.044758942 -0.59763306
000350 ca 7b 6f bd c4 2a 36 3e e8 b7 52 3e 7e 0b 05 be
       -0.058467664 0.17789751 0.20577967 -0.12992665
000360 bb a2 ac 3d 6b 2d c5 3c ad ea 44 be f6 d1 16 3d
       0.08429476 0.024069509 -0.19230147 0.036821328
000370 f8 7c 80 3e 67 c6 a5 bd ca 9d ac bc f1 d2 7b 3e
       0.25095344 -0.08094483 -0.021071333 0.24592187
000380 9c 99 f6 3d c8 87 32 3c 8a b9 05 3d b8 6b 63 bd
       0.120410174 0.010896631 0.032647647 -0.05552265
000390 a9 93 0b 3e 54 60 7c bd a0 3c 9a be a1 5c 42 3c
       0.13630547 -0.061615303 -0.30124378 0.011862905
0003a0 9a 9c 6e 3c c8 99 07 be f8 f9 07 3b 0e 0f c5 bc
       0.014563704 -0.13242257 0.0020748358 -0.02405503
0003b0 cf f6 6c 3d ee 2c 17 be ea 42 bc 3c 07 f2 77 3d
       0.057852563 -0.14763233 0.022981126 0.06053355
0003c0 cc c4 b0 3e 99 fa 67 3d 1e 51 ca 3d 85 6d ea bd
       0.34525144 0.056635473 0.09878753 -0.114466704
0003d0 70 40 86 3d 35 ea 4d be 8c ac 20 be a3 e2 25 be
       0.06555259 -0.20108874 -0.15690821 -0.16199736
0003e0 ac 8b 27 be dd 2c 2f 3d a2 75 e7 be e4 0c 3e 3c
       -0.16361874 0.042767394 -0.45206934 0.011599753
0003f0 aa 67 e0 bd ae ce d0 bd 69 90 29 bc 3b 69 ca bd
       -0.10957272 -0.10195671 -0.0103493715 -0.09883352

linears.3.bias f4 [50]
000000 6d e8 09 3e e7 a1 68 be f6 af 17 3f 70 39 d4 3e
       0.1346757 -0.22718011 0.5925287 0.4145007
000010 8b bd db bd 32 7e 28 3f da 77 ce be 7a 10 59 3f
       -0.10729512 0.6581756 -0.40325814 0.84790766
000020 91 be 9f 3e 52 78 16 3f e2 d2 58 bf be 5d 84 3d
       0.31200078 0.58777344 -0.8469678 0.064631924
000030 75 3c 0d 3f d1 5a c4 3d 07 9e 68 be 77 24 f4 bd
       0.55170375 0.09587634 -0.22716533 -0.119210176
000040 47 4b 2c 3e 53 c9 2c 3f 36 db 26 3d 3e 20 f4 be
       0.16825591 0.67494696 0.0407364 -0.4768085
000050 d8 94 40 be b2 5a 3c bf 0d cc bb 3e 5a ad 29 3f
       -0.1880678 -0.7357589 0.36679116 0.6628014
000060 40 75 2e be 83 78 87 be 64 b5 af bd 58 a4 48 be
       -0.17036915 -0.2645913 -0.085795194 -0.19593942
000070 f5 5a 98 bd 53 a7 bd 3d 09 f2 69 bf 8c 87 4c 3e
       -0.07439224 0.0926043 -0.9138494 0.19973582
000080 57 98 ed 3e 3e 3e 21 3e 23 d5 f3 3e c9 9f c9 be
       0.4640529 0.157464 0.47623548 -0.3937972
000090 a9 11 c3 be 9c 1c 16 bf b2 72 1a bf b8 31 c5 3d
       -0.3809941 -0.58637404 -0.6033126 0.09628624
0000a0 07 73 46 3e da e3 f9 3e fb be e9 be fc ca 92 3e
       0.19379817 0.4880665 -0.4565352 0.2867049
0000b0 0e f7 32 3e 08 89 b4 be c6 48 cc 3e ae 52 69 bf
       0.17477056 -0.35260797 0.39899272 -0.91141784
0000c0 bb e5 83 3e 47 69 ee be
       0.25761208 -0.46564695

linears.4.weight f4 [50, 50]
000000 71 82 3e 3e 70 d9 0d be 7e 80 26 be 6f 48 bd bd
       0.18604447 -0.13852477 -0.16259953 -0.09242331
000010 3c e0 a8 be 7b d2 47 be 98 d7 21 bd da b7 9e 3e
       -0.32983577 -0.19513886 -0.039512247 0.30999643
000020 77 83 ed 3c 94 b1 56 3e 0f c2 99 3d 8b d3 40 bc
       0.028993351 0.20966178 0.07507717 -0.011769186
000030 15 f9 a7 3d 43 eb 54 3d b6 04 08 bd 7a d8 2f 3e
       0.082018055 0.051982176 -0.033207618 0.17172423
000040 06 0f a3 be bd 05 69 bc 5a b4 a9 3c e4 fd eb bb
       -0.318474 -0.0142225595 0.020715881 -0.007201897
000050 1b e3 1a 3e 68 ae 4e 3e f0 3b 84 bd 6e f1 7f 3d
       0.15125696 0.20183718 -0.06456745 0.062486105
000060 32 d5 a8 3c 47 ec 01 bc b7 8f 3b be 78 d4 62 3c
       0.020609472 -0.007929868 -0.18316542 0.013844602
000070 24 3d f4 3c 00 61 56 3e 6b 24 a1 3d 35 ab 05 be
       0.02981431 0.2093544 0.07868274 -0.13053592
000080 d6 bb b7 bd c6 c2 e6 3c b1 9b f2 bc 05 0c 26 3c
       -0.08971374 0.028169047 -0.029615255 0.010134702
000090 78 12 e6 3d 4c 5f 46 be 77 3e c7 bd 2e bd e1 3d
       0.112339914 -0.1937229 -0.09728711 0.11022411
0000a0 a8 2a da bd c0 8e 64 3d bd 1f 37 be 6f b0 a7 bd
       -0.10652667 0.0558002 -0.17883201 -0.08187949
0000b0 a4 f7 15 3d dd 7f 1a bc 2f 8e 44 be 24 b8 39 3d
       0.03661312 -0.009429899 -0.19194864 0.045341626
0000c0 73 77 83 bd 64 43 00 3e 67 a3 42 3e c2 37 84 3a
       -0.064192675 0.12525707 0.19007646 0.0010087418
0000d0 4b 1c ff 3c b4 06 10 be 13 94 bc bd 73 b9 a3 3d
       0.03114142 -0.14065057 -0.092079304 0.07994356
0000e0 b0 40 b2 3d 0f 78 42 be f9 59 90 3e 1e bb d9 bd
       0.087037444 -0.18991111 0.28193644 -0.10631393
0000f0 67 69 c5 3e ce 38 24 be 37 c9 f3 be 79 4f 0b be
       0.38556978 -0.16037294 -0.47614452 -0.13604535
000100 7f 33 9b bd b6 9f b4 bd fa 3a ad 3e 54 8c 9a be
       -0.075781815 -0.08819525 0.33834058 -0.30185187
000110 82 0f 87 be cb c0 bb bd ec ea 84 be 2e f5 38 3e
       -0.2637902 -0.09167632 -0.2596048 0.18062279
000120 a7 44 4a be 03 3c c6 bd 3d 6e e0 bd 36 94 3b be
       -0.19752751 -0.09679415 -0.10958526 -0.18318257
000130 b5 f7 19 be cd a4 fc bb ed 0f bb bc 5a f4 b1 3e
       -0.15035899 -0.0077100755 -0.022834742 0.34756738
000140 d1 31 89 bc f1 fa af be a3 16 2d 3e 40 07 61 bc
       -0.016747387 -0.3437114 0.16903166 -0.013734639
000150 e3 b9 37 3d 64 8b e3 be 15 94 78 3e 16 00 09 3e
       0.04485501 -0.44442284 0.24275239 0.13378939
000160 8c 65 44 3d 9b c0 38 3d 6b 5f 04 3f b4 d5 e0 3d
       0.047948405 0.045105558 0.51708096 0.10978261
000170 7f 5e e3 3d 3a 34 2c 3e b4 cf fe bd 2d 7c 0d 3e
       0.11102008 0.16816798 -0.1244196 0.138169
000180 5f 55 ab be 66 6b ac 3d 17 d3 19 3e cc 1d af 3e
       -0.3346357 0.08418922 0.1502193 0.3420242
000190 d1 58 45 be f4 9d d4 3c ba be 8c bd bd 65 cd bd
       -0.19272162 0.025954224 -0.06872316 -0.10029171
0001a0 75 1c 23 bc 0e 22 27 be 19 a0 9a 3d 47 3f 3e be
       -0.009955515 -0.16321585 0.075500675 -0.18578826
0001b0 f6 13 a5 bd 54 23 ee bd ff b6 c3 3e 43 42 3e bd
       -0.08060448 -0.11627832 0.38225552 -0.04644991
0001c0 b2 bb 92 be fc c4 02 be 14 58 8a 3e 2e 0d 2b be
       -0.28658825 -0.12770456 0.27020323 -0.16704246
0001d0 dc e7 cb bc 2d 0e d2 bd df a5 53 be 45 b2 91 3d
       -0.024890833 -0.1025661 -0.20668744 0.0711408
0001e0 d2 91 0a 3e 32 c1 91 3b 76 38 86 bd e5 ec 7f be
       0.13532189 0.0044480795 -0.06553738 -0.24992712
0001f0 75 f4 10 be b4 d1 19 be 90 78 38 3e 36 68 37 bd
       -0.14155753 -0.15021402 0.18014741 -0.044777118
000200 7e 4e b5 bd 8b 1e 09 be 06 bf a7 ba f3 31 2d 3c
       -0.08852862 -0.13390557 -0.0012798018 0.010570991
000210 7b 8b ec bc 4d 74 2f 3e 73 7f f8 bd c7 04 1a be
       -0.028875103 0.17134209 -0.12133684 -0.15040885
000220 ff 0e c3 bd 5f 2f 15 3e 5b aa 8e 3d 2e f3 9c 3d
       -0.09524345 0.14568852 0.069660865 0.0766357
000230 15 99 45 3d 2f 3f 0d 3e 60 a4 83 3d 01 35 6a 3c
       0.048241694 0.13793634 0.064278364 0.014294864
000240 b8 d4 70 bc 65 2f 80 3e 77 3f 83 3d 1a 39 90 bd
       -0.014699154 0.2503616 0.06408589 -0.07042141
000250 42 f6 e1 3d a8 1b 98 bd 7d ef 7c 3e dd fd 07 3e
       0.11033298 -0.0742715 0.24700733 0.13280435
000260 77 aa 88 bd 42 c8 8e be 93 89 20 be 3c b5 8f be
       -0.066731386 -0.2788716 -0.1567748 -0.28067958
000270 7d e1 26 be e8 b7 a8 bd 33 2b c3 bb 0b 0f e6 bd
       -0.16296954 -0.08238202 -0.0059560775 -0.11233338
000280 a0 b3 39 3d 5f a2 5e 3e 48 27 95 3d 11 1d 9b be
       0.04533732 0.21741627 0.07282883 -0.30295613
000290 63 e8 b4 3d 94 82 57 be 02 5d 89 bd 2b b4 89 be
       0.08833387 -0.21045905 -0.06707193 -0.2689527
0002a0 5e a3 d9 bd 0a 26 d5 3c 7b 73 23 be 0c be b2 3d
       -0.10626863 0.026019115 -0.15962021 0.08727655
0002b0 55 ed ae bd 8b 6f 0c bd e0 4d 48 be 39 91 f4 3c
       -0.08541361 -0.034286063 -0.19560957 0.029854404
0002c0 f6 31 8c be 9a 90 6a bb 39 55 b5 bd 58 1d 8a 3b
       -0.27381867 -0.0035791756 -0.088541456 0.004214924
0002d0 85 03 82 bd fd c3 24 be 95 6f 06 bd b0 19 7e be
       -0.063483275 -0.16090389 -0.032821257 -0.24814487
0002e0 64 97 af 3c 8a 79 ea bc cc 62 2c be 90 ed 17 bc
       0.021434493 -0.028622407 -0.16834563 -0.009272948
0002f0 1c 4d de 3d ec ae 15 be d7 52 9c bd 4c 46 e9 ba
       0.10854551 -0.14617509 -0.07632988 -0.0017797439
000300 22 22 99 be 19 53 1b bc 8a 7b 41 bd e0 c4 c3 bd
       -0.29908854 -0.009480261 -0.047236957 -0.09559035
000310 f7 6e 6d bd 6f 0f 39 be 6d 77 63 3e 69 27 fa 3d
       -0.057967152 -0.18072294 0.22213526 0.12214548
000320 df be fe 3c 05 4d 2c be e7 fa 8e 3c 89 78 98 be
       0.031096874 -0.16826256 0.017453624 -0.2977946
000330 3a 87 03 bb 59 5c a8 3c 58 e5 4f 3e 58 fb 15 bd
       -0.0020069615 0.020551847 0.20302331 -0.036616653
000340 05 ff 86 3d 31 a4 2e be c3 85 63 3c 8c 3c be bd
       0.0659161 -0.17054822 0.013886872 -0.09288892
000350 93 62 87 bd b9 7d e2 3d f8 79 81 3c 8d 34 4f be
       -0.066105984 0.11059136 0.01580523 -0.2023489
000360 68 76 94 3e 15 7a 3a be d4 4e 85 bd aa 7c 72 3d
       0.28996587 -0.18210633 -0.06509176 0.05920092
000370 65 82 6b be 0d da 50 3e 5b 77 70 bd 6d e4 27 3e
       -0.2299896 0.2039568 -0.058707576 0.16395731
000380 cb 4d 0d be 1a 33 00 3c 6f 90 df bd 83 a9 a9 bd
       -0.13799207 0.007824684 -0.109162204 -0.08284285
000390 57 d7 63 be f9 d4 22 be 6a 10 6b bd e7 a5 12 be
       -0.22250114 -0.15901555 -0.0573887 -0.14321099
0003a0 35 85 6c bd f5 df 09 3e 37 ac f7 bc f4 23 13 be
       -0.057744224 0.13464339 -0.030233486 -0.14369184
0003b0 8e 62 86 3e f8 46 d8 3d 28 73 52 3d 2b a4 c2 bd
       0.26247066 0.10560411 0.051379353 -0.09503969
0003c0 43 54 73 bd 7f ac d2 3d cc 7e 90 bd 18 14 a5 bc
       -0.05940653 0.10286807 -0.070554346 -0.020151183
0003d0 13 52 07 3e bf 28 8c 3d 0c 34 11 3e 44 41 86 bd
       0.13214903 0.06843709 0.1418001 -0.06555417
0003e0 90 3e a7 bd ec 5c 60 3c 5c 1f a8 bc a5 db 1e 3d
       -0.0816623 0.013694029 -0.020522766 0.038783688
0003f0 c8 5f 32 3d a8 bd 14 bd 05 42 81 bd 5b 11 89 bd
       0.043548375 -0.036313683 -0.0631142 -0.066927634

linears.4.bias f4 [50]
000000 04 51 2d bd 43 f6 d6 bf a1 c9 14 bf 8d a7 b3 be
       -0.04231359 -1.6793903 -0.5812016 -0.3508877
000010 c2 d0 e8 be a5 7b 5f bf 3a ed 44 bf 45 f6 1f bf
       -0.4547177 -0.8729804 -0.7692448 -0.6248515
000020 16 9a 27 3e a3 7f d3 3d 32 2f 47 bc 4f 3d b0 3f
       0.16367373 0.10327079 -0.012157248 1.376871
000030 67 cc 05 bf 07 15 32 3f 91 1c dd bd c9 06 43 be
       -0.5226502 0.69563335 -0.10796464 -0.19045557
000040 d6 43 bd ba d5 3e 20 3f d0 e2 ab bf 61 22 ce 3f
       -0.0014439772 0.62595874 -1.3428593 1.6104242
000050 76 00 bd bf b5 62 35 bf 48 d5 8f 3f 6d 98 ec 3e
       -1.4765766 -0.7085374 1.1236963 0.46210042
000060 89 83 85 3d 84 4c f2 be bf 39 84 bd ab 46 00 3e
       0.06519229 -0.47324002 -0.06456327 0.12526958
000070 fd 0c 8c be 84 20 85 bf 2a eb 6f 3f e1 6a 22 bf
       -0.2735366 -1.0400548 0.93718207 -0.63444334
000080 3c ca 87 3c 28 c3 0e 3f 1f c2 12 3e b1 89 01 c0
       0.016575925 0.55766535 0.14331864 -2.024029
000090 e9 b5 35 3f 09 0c 94 bf d0 ba 19 3d 9f 95 10 3f
       0.709807 -1.1566173 0.037531674 0.56478304
0000a0 17 29 0f c0 99 59 d0 be ea 44 95 bf 1e 6b 24 bf
       -2.236883 -0.40693358 -1.1661656 -0.6422595
0000b0 0b b2 9c 3e 3d 09 4d 3f 82 cc b3 3f 60 fa c2 3e
       0.30604586 0.8009222 1.4046786 0.38081646
0000c0 74 9a 44 be 94 83 6a 3f
       -0.19199544 0.9160702
