Archived Code/Stan TPAMI/1D/SODE/tanh_tune/1D_SODE_Stan_tune0_7.pt (torch, 88297 bytes, 19 tensors)

linears.0.weight f4 [50, 1]
0	0x3e34b928	0.17648757
1	0xbebdd3c5	-0.3707563
2	0x3ebabad1	0.36470655
3	0xbe312fc8	-0.17303383
4	0x3dbe1ff7	0.092834406
5	0x3e1bc497	0.15211712
6	0xbd93657b	-0.0719709
7	0xbece47a4	-0.40289032
8	0x3ea26928	0.31720853
9	0x3d9d6d05	0.076868095
10	0x3ee2247f	0.4416847
11	0x3ce05d94	0.027388372
12	0x3e2f0946	0.17093381
13	0xbe426f3b	-0.18987744
14	0x3c199d74	0.009375919
15	0x3ea2bfe0	0.31787014
16	0xbe440611	-0.19142939
17	0xbdf8cef2	-0.12148847
18	0x3edd3b37	0.4320924
19	0x3e1217e9	0.14266934
20	0xbd4e034a	-0.050296105
21	0xbe018616	-0.12648806
22	0xbea14399	-0.31496885
23	0x3e8924cb	0.26785883
24	0x3da39f7a	0.07989402
25	0x3ef60055	0.48047128
26	0x3d2c8d0b	0.042126697
27	0x3d82e6dd	0.0639169
28	0xbcd39e17	-0.025832219
29	0x3e8db520	0.2767725
30	0x3e34a00f	0.17639183
31	0xbe36c3b7	-0.17848097
32	0xbc29d76d	-0.010366303
33	0xbeb1a0f8	-0.34693122
34	0xbdc4e1d6	-0.09613387
35	0xbe25d275	-0.16193564
36	0x3f068aa7	0.52555317
37	0xbecb8b2b	-0.39754614
38	0xbd90f5fe	-0.07078169
39	0x3e01e53d	0.12685104
40	0xbe64ffac	-0.22363156
41	0xbe96e46c	-0.29471147
42	0x3d77fc4f	0.060543355
43	0x3e9505d6	0.29106015
44	0xbe94d471	-0.2906833
45	0x3deda327	0.116033845
46	0x3c30eb82	0.010798337
47	0x3d6ef2b4	0.05833693
48	0x3d36c4fc	0.044621453
49	0x3e2ae6ab	0.16689555

linears.0.bias f4 [50]
0	0x3d6f0c71	0.058361474
1	0xbd601ddd	-0.05471598
2	0x3dcf81ca	0.10132177
3	0xbda8ca71	-0.08241738
4	0x3d189ecc	0.037260816
5	0x3d179e31	0.037016097
6	0x3c81fb42	0.01586688
7	0xbe188cf7	-0.14897524
8	0x3ddcd2cc	0.10782394
9	0x3cb50614	0.022097625
10	0xbc8179a1	-0.015805067
11	0xbd7e3694	-0.06206377
12	0xbd8db4d9	-0.069192596
13	0x3c538fc1	0.012912692
14	0xbcd7487f	-0.026279686
15	0xbd7f1c79	-0.062283013
16	0xbc41642f	-0.011803671
17	0xbd37f2f4	-0.044909433
18	0x3da809b8	0.08204979
19	0xbd0a423d	-0.033754576
20	0xbd106bf3	-0.0352592
21	0x3c967176	0.01836465
22	0xbe4a6151	-0.19763686
23	0x3de80f45	0.113310374
24	0x3cf337c9	0.029689686
25	0x3d701719	0.058615778
26	0x3d5da135	0.054108817
27	0xbda65152	-0.08120979
28	0x3d1d31c2	0.03837753
29	0x3c3fc4b7	0.011704615
30	0xbbb2cee2	-0.0054567913
31	0xbd24df88	-0.04025224
32	0x3c948713	0.018130815
33	0xbc34343b	-0.010998781
34	0xbc72ada0	-0.014811903
35	0xbd2a6a98	-0.041605562
36	0x3e2382ee	0.15967914
37	0xbd963141	-0.07333613
38	0xbd9087fa	-0.070571855
39	0xbdbe0fff	-0.09280395
40	0x3c85d35d	0.016336137
41	0xbda2813c	-0.07934806
42	0xbbfe821e	-0.007766976
43	0x3cfd552d	0.030924404
44	0xbdd59eac	-0.10430655
45	0x3ac6d801	0.0015170575
46	0xbc8cd419	-0.01719098
47	0x3d585fe9	0.052825842
48	0x3ce0e548	0.02745308
49	0x3d89207b	0.06695648

linears.1.weight f4 [50, 50]
0	0x3d2ed9d9	0.042688224
1	0x3dd05a95	0.10173527
2	0x3aee9e3c	0.0018205117
3	0xbe42ff80	-0.19042778
4	0xbce3149d	-0.02771979
5	0x3dd8da0c	0.10588464
6	0xbdd01604	-0.10160449
7	0x3e0cdc81	0.1375599
8	0x3d1ffcf6	0.0390596
9	0xbda6b1c7	-0.08139377
10	0xbe0329f5	-0.12808974
11	0x3e8ff91a	0.28119737
12	0x3e407fe5	0.18798788
13	0x3e974972	0.29548222
14	0xbe3bb8e8	-0.18332255
15	0xbe191bc3	-0.14951997
16	0xbe11a842	-0.14224342
17	0x3ddd9ff2	0.10821523
18	0xbd00c4b5	-0.031437594
19	0xbd2a9a43	-0.04165102
20	0xbe2eaf15	-0.17058976
21	0x3e1d193c	0.15341657
22	0xbc5d0513	-0.013489979
23	0x3d593d1f	0.053036805
24	0xbd848246	-0.0647016
25	0xbdbd4a4c	-0.09242687
26	0x3defc531	0.11707533
27	0x3ac381fa	0.0014916055
28	0x3d9f8fa5	0.0779107
29	0x3e244fb2	0.16046026
30	0x3d89a980	0.06721783
31	0xbddc80a4	-0.10766724
32	0x3e343eb6	0.17602047
33	0xbd168346	-0.036746286
34	0xbdbf3aa7	-0.09337359
35	0xbdc3ea69	-0.095661946
36	0x3ea11719	0.31462935
37	0xbe9a679b	-0.3015717
38	0xbc8ca959	-0.017170595
39	0x3affa510	0.0019504149
40	0xbd29ee19	-0.041486833
41	0xbe5edf41	-0.21764852
42	0x3e7480aa	0.23877206
43	0xbd58bdc0	-0.052915335
44	0x3da54445	0.08069662
45	0xbe291e2b	-0.16515414
46	0xbc9717f2	-0.018444035
47	0xbd8550ab	-0.06509527
48	0x3d74797b	0.059686165
49	0x3d39ecc7	0.045391824
50	0xbb7074ff	-0.003669083
51	0xbe021706	-0.12704095
52	0x3a30e98b	0.0006748668
53	0xbe4fcee5	-0.20293768
54	0xbe240ec7	-0.16021262
55	0xbd8f452f	-0.069956176
56	0x3d9eeb76	0.07759754
57	0x3e63c6cf	0.22243808
58	0xbdbbf837	-0.091782026
59	0x3d842e75	0.064541735
60	0xbe15bb1b	-0.14622156
61	0xbe46d4aa	-0.19417062
62	0xbddcd1d7	-0.10782211
63	0x3e0d7239	0.13813104
64	0xbd3451ef	-0.04402345
65	0xbd6dc164	-0.05804576
66	0x3d9222aa	0.07135518
67	0xbe996ea4	-0.29967225
68	0x3d938b0e	0.07204257
69	0x3ecf51eb	0.40492186
70	0x3dccb3ea	0.099952534
71	0xbd147ef0	-0.03625387
72	0xbdbf9289	-0.09354121
73	0x3cd14a22	0.025548045
74	0x3b12a5b9	0.002237661
75	0xbdb6fd0d	-0.08934984
76	0xbd97b41a	-0.074073985
77	0x3dc03ce7	0.09386616
78	0x3e80a351	0.251246
79	0xbdbff2c7	-0.09372478
80	0x3e581a8e	0.2110388
81	0xbde7c441	-0.11316729
82	0x3e35a344	0.17738062
83	0x3e6ebb56	0.2331365
84	0x3e830a70	0.255939
85	0x3dbda278	0.09259504
86	0x3e3da86b	0.18521278
87	0xbdb59e4e	-0.08868085
88	0x3d83b34f	0.06430685
89	0xbec5da02	-0.3864289
90	0xbe2adfa6	-0.16686878
91	0xbd33f9f3	-0.043939542
92	0x3d6be795	0.0575939
93	0x3e5d123a	0.21588984
94	0x3e0a970f	0.13534187
95	0x3d227c2d	0.039669205
96	0xbd4ad960	-0.04952371
97	0xbcfa1f53	-0.030532515
98	0xbd05b085	-0.032639045
99	0xbdc6ded2	-0.09710468
100	0xbb5128d2	-0.00319152
101	0xbe2a519d	-0.16632695
102	0xbe0b2f26	-0.13592204
103	0x3e5123d2	0.2042382
104	0xbd9733dd	-0.07382939
105	0x3ce00927	0.027348114
106	0xbc9c53fc	-0.019083016
107	0x3d97d225	0.07413129
108	0x3dfec346	0.12439589
109	0x3e171b46	0.14756498
110	0xbcd21686	-0.025645506
111	0xbbae116f	-0.005312137
112	0xbd0f21f7	-0.0349445
113	0xbe9ed6f3	-0.31023368
114	0x3e1c520c	0.15265673
115	0xbe4bd0d9	-0.19903888
116	0x3c61a087	0.013771183
117	0x3d4ce98f	0.050027426
118	0x3e4ec50c	0.20192355
119	0x3db3468a	0.08753689
120	0xbd60c4ea	-0.054875292
121	0x3d809f73	0.062804125
122	0x3db8d4e6	0.09024982
123	0x3e0b9c17	0.13633762
124	0x3e1305ae	0.14357635
125	0x3dbb4393	0.09143748
126	0x3e84cfd2	0.25939804
127	0xbd25a20d	-0.040437747
128	0xbd90181f	-0.07035851
129	0x3e51e785	0.20498474
130	0xbdb46305	-0.08807949
131	0x3e132689	0.14370169
132	0x3dbe584d	0.09294186
133	0xbc71c766	-0.014757013
134	0x3e47ecc7	0.19523917
135	0x3e2f8f12	0.1714442
136	0xbe47ba0a	-0.19504562
137	0xbdda87d1	-0.10670436
138	0xbdc559b1	-0.09636248
139	0xbdf6185f	-0.12016367
140	0x3d4e3db7	0.050351825
141	0x3da45091	0.08023179
142	0x3e0d67ef	0.13809179
143	0xbe93628f	-0.28786132
144	0x3eb02bd4	0.34408438
145	0xbe428fb8	-0.19000137
146	0x3db89454	0.09012666
147	0xbdc15c2c	-0.094414085
148	0x3e86a715	0.26299348
149	0xbddd8b28	-0.108175576
150	0xbe42491b	-0.189732
151	0xbe8e028e	-0.27736324
152	0xbd82db5f	-0.06389498
153	0x3dece11c	0.11566374
154	0xbd2e4571	-0.042546693
155	0xbe2733b7	-0.16328321
156	0xbd99603a	-0.07489057
157	0x3e918064	0.28418267
158	0x3d37d99d	0.044885267
159	0x3db02ecc	0.08602676
160	0x3e4cc239	0.19995965
161	0xbd071bdf	-0.032985564
162	0x3da04e35	0.07827417
163	0xbe63247b	-0.22181885
164	0x3cf9a4ef	0.030474154
165	0xbe008d8f	-0.12554
166	0x3d833daf	0.064082496
167	0x3da786b7	0.08179992
168	0xbe209fc6	-0.15685949
169	0x3e64f72d	0.22359915
170	0x3ca100a4	0.019653626
171	0x3e06354c	0.13106269
172	0xbd802aac	-0.06258139
173	0x3db05e45	0.086117305
174	0xbd898d52	-0.06716408
175	0xbd96423f	-0.07336854
176	0xbe26aea7	-0.16277562
177	0xbeb5721c	-0.3543862
178	0x3e32176d	0.17391749
179	0xbdc996be	-0.09843205
180	0xbde2d1da	-0.11075182
181	0xbe5fca21	-0.2185445
182	0xbab4a110	-0.001378091
183	0xbe76a5ac	-0.24086636
184	0xbc079b82	-0.008276822
185	0x3d99c95e	0.07509111
186	0x3ca60b3f	0.020269034
187	0xbe17eba5	-0.14835985
188	0xbe6f80ca	-0.23388973
189	0xbd9f5f61	-0.07781864
190	0x3d84cbd1	0.064841874
191	0x3e6408e9	0.22269024
192	0xbd830388	-0.06397158
193	0x3e81e88d	0.25372735
194	0x3e0cbf6c	0.13744897
195	0x3d2ff986	0.042962573
196	0xbdf6e696	-0.120556995
197	0x3d75c985	0.060006637
198	0xbe7e27fd	-0.24819942
199	0xbd4ab33e	-0.049487345
200	0x3ecd9351	0.40151456
201	0xbe77911a	-0.24176446
202	0x3e3bf3ef	0.18354772
203	0xbcf0fc50	-0.029417187
204	0xbcf8cafe	-0.030370232
205	0xbe967528	-0.29386258
206	0xbcfb8174	-0.030701376
207	0xbdb929c3	-0.090411685
208	0x3dfa95fa	0.12235637
209	0x3d8ea6df	0.06965422
210	0x3e46f627	0.19429837
211	0xbd902b8b	-0.07039555
212	0x3bc1aaed	0.0059102685
213	0xbd6999db	-0.057031494
214	0x3e5c9f47	0.21545134
215	0xbe63cfc9	-0.22247232
216	0xbce0ed57	-0.027456922
217	0x3db51ee1	0.0884378
218	0xbe8801cd	-0.26563874
219	0x3db9317b	0.09042641
220	0xbcb84c57	-0.02249734
221	0xbe878c1a	-0.26474077
222	0x3d133692	0.035940714
223	0xbb31294a	-0.0027032667
224	0x3e0842e0	0.13306761
225	0xbbaf8f8e	-0.005357689
226	0xbd2567ed	-0.040382314
227	0x3db0c510	0.08631337
228	0x3d36599d	0.044519056
229	0x3de99a4e	0.114063844
230	0xbec17b74	-0.377895
231	0xbdb8569c	-0.090008944
232	0xbe326dc8	-0.1742469
233	0x3d5d8a12	0.054086752
234	0xbd13384c	-0.03594236
235	0xbe812af0	-0.2522807
236	0xbdd17b6b	-0.10228618
237	0xbe66035e	-0.22462222
238	0xbdc6274e	-0.096754655
239	0x3e0442e0	0.12916136
240	0x3cdf5ecd	0.027266884
241	0xbe66f601	-0.2255478
242	0x3e37a8cd	0.17935486
243	0xbdd68894	-0.10475269
244	0x3d9290a0	0.07156491
245	0x3d9f50c3	0.07779076
246	0x3e4369de	0.19083354
247	0xbdd9c529	-0.106333084
248	0x3e6dd81c	0.2322697
249	0xbdbdc433	-0.09265938
250	0x3e162611	0.14662959
251	0xbe384c18	-0.17997777
252	0x3e87be6d	0.2651247
253	0xbd936746	-0.07197432
254	0xbe793fe7	-0.24340783
255	0xbcd0dff9	-0.025497423

linears.1.bias f4 [50]
0	0x3d0ce003	0.03439332
1	0x3c4ebd32	0.01261835
2	0xbc6c8bb1	-0.014437602
3	0xbd0ea17b	-0.03482197
4	0xbcfb06e7	-0.03064294
5	0x3d8905bc	0.06690547
6	0x3d79a316	0.060946546
7	0xbd2a61d4	-0.041597202
8	0xbdb41f56	-0.08795039
9	0xbc866b1a	-0.016408492
10	0x3dde43a7	0.108527474
11	0x3d8c7171	0.06857575
12	0x3d63367e	0.05547189
13	0x3dedb44b	0.11606654
14	0xbca390d7	-0.019966526
15	0xbd53e124	-0.051728383
16	0xbc6297c9	-0.013830134
17	0x3e18523d	0.14875121
18	0xbd05bcf7	-0.032650914
19	0xbd89d186	-0.067294165
20	0xbc3cc6b3	-0.011521983
21	0xbd4fc969	-0.05072919
22	0xbd011873	-0.031517457
23	0x3be4b5ed	0.006979695
24	0xbd8738b5	-0.06602613
25	0xbd320802	-0.043464668
26	0xbd8a5adf	-0.067556135
27	0x3d218a5b	0.039438587
28	0x3ca508ac	0.020145737
29	0x3b09ba3a	0.002101554
30	0xbddd7ce4	-0.108148366
31	0x3d8df428	0.06931335
32	0x3ca851e1	0.020546855
33	0xbb3f4f9e	-0.0029191743
34	0xbcb1a1ec	-0.021683656
35	0x3d75576c	0.059897825
36	0x3ce2176f	0.027599065
37	0xbd83958c	-0.06425008
38	0xbcc57ba9	-0.024106817
39	0xbd174e0c	-0.036939666
40	0x3cebd7cb	0.028789422
41	0x3af4ee59	0.0018686756
42	0xbc20a484	-0.009804849
43	0x3d9dfd3e	0.07714318
44	0x3d8aca20	0.067768335
45	0x3d616b8c	0.055034205
46	0xbbcfb7b4	-0.006339038
47	0xbcc7fbd6	-0.024412077
48	0x3d13bff9	0.03607175
49	0x3c0c88f7	0.008577577

linears.2.weight f4 [50, 50]
0	0x3cfaa1a2	0.03059465
1	0x3e16e542	0.14735892
2	0x3e073e68	0.132074
3	0x3e8b649f	0.27225205
4	0xbe2c2421	-0.16810657
5	0xbe291e73	-0.16515522
6	0x3df3a146	0.11895995
7	0xbc96cb06	-0.018407356
8	0xbd05d460	-0.03267324
9	0x3d200a05	0.039072055
10	0xbdd618b0	-0.104539275
11	0xbda0f48d	-0.07859144
12	0x3d956a1c	0.072956294
13	0xbcaee699	-0.021350192
14	0xbe3e92e8	-0.18610728
15	0x3d2a792e	0.041619472
16	0x3df3f838	0.11912578
17	0xba550566	-0.00081261096
18	0x3df38089	0.118897505
19	0x3e68bacb	0.22727506
20	0x3dd00980	0.10158062
21	0xbdd1c93a	-0.10243459
22	0xbdc2b3b0	-0.09506929
23	0xbcc3c4b8	-0.023897514
24	0xbdb410f7	-0.08792298
25	0xbe194852	-0.14968994
26	0x3e36b15d	0.17841096
27	0x3cd10933	0.025517082
28	0x3d90095e	0.07033037
29	0x3d9a268d	0.07526884
30	0x3e7d1910	0.24716592
31	0x3ce8569d	0.028361613
32	0xbe4d075a	-0.20022336
33	0xbde97b74	-0.114005
34	0xbca43ed3	-0.020049488
35	0xbd242eec	-0.04008381
36	0x3e0b7fc4	0.13622957
37	0x3ce6d2a4	0.028176613
38	0x3d4cbac3	0.049982797
39	0xbc50b630	-0.012738749
40	0xbe9aa2a5	-0.30202213
41	0x3dfc0897	0.12306326
42	0xbe92688a	-0.28595382
43	0xbd834c4c	-0.06411037
44	0xbd333cfa	-0.043759324
45	0x3de4a41b	0.11164113
46	0x3e1b8db9	0.15190782
47	0x3dce4d64	0.10073355
48	0xbe674acd	-0.22587128
49	0xbe7d3168	-0.24725878
50	0x3e32cd8d	0.17461224
51	0x3b93d640	0.0045116246
52	0xbde3897f	-0.1111021
53	0x3d80b744	0.06284955
54	0x3d16f0ac	0.036850616
55	0xbe04c6f4	-0.1296652
56	0x3e225b5f	0.15855168
57	0x3dec4112	0.11535849
58	0x3e45df10	0.19323373
59	0xbb051753	-0.0020308092
60	0x3d9f5d0d	0.0778142
61	0x3e885913	0.26630458
62	0x3e5ea31c	0.21741909
63	0x3c8d1cbe	0.01722562
64	0xbddf547a	-0.109047845
65	0x3ddc8c09	0.10768897
66	0xbddcec78	-0.1078729
67	0x3da69396	0.081336185
68	0xbeb61383	-0.3556176
69	0x3db2769a	0.08714028
70	0x3cfb49c0	0.030674815
71	0x3ee58c60	0.4483366
72	0x3d3bb3fa	0.045825936
73	0xbd8793f7	-0.06620019
74	0xbd626ee0	-0.05528152
75	0x3d99a337	0.07501834
76	0xbd28906e	-0.041153364
77	0xbdfe8b36	-0.12428896
78	0xbde035dc	-0.10947773
79	0x3eada847	0.33917448
80	0xbd32a28d	-0.04361205
81	0x3d9ac3c5	0.07556871
82	0x3d3e6b58	0.04648909
83	0xbd991e9d	-0.07476542
84	0xbe8de91e	-0.27716917
85	0x3e1d29e9	0.15348019
86	0xbea5a062	-0.32348925
87	0x3e8fb015	0.28064027
88	0x3e0cef97	0.13763271
89	0xbda74a13	-0.081684254
90	0xbd06450b	-0.03278069
91	0x3d940478	0.07227415
92	0x3cb34ec9	0.021888154
93	0x3decf85d	0.11570809
94	0x3d77c386	0.0604892
95	0x3e0e2582	0.13881496
96	0xbdd20ca9	-0.10256321
97	0x3d815f39	0.063169904
98	0xbe710804	-0.23538214
99	0x3ce5d540	0.028055787
100	0xbe2dfa83	-0.16990094
101	0xbcb0433a	-0.021516431
102	0xbd4723bc	-0.048618063
103	0x3e0d1580	0.13777733
104	0x3e1c27aa	0.15249506
105	0x3d588c04	0.052867904
106	0x3da22236	0.079166815
107	0xbc8099e0	-0.015698373
108	0xbe079881	-0.1324177
109	0x3e1eee58	0.15520608
110	0x3de58b82	0.1120825
111	0xbc8fe577	-0.017565472
112	0xbe5ec586	-0.21755037
113	0x3d417fb5	0.04724093
114	0xbe1d1a92	-0.15342167
115	0x3d4b45d5	0.049627144
116	0xbe8bb4f8	-0.27286506
117	0xbcd7631e	-0.02629238
118	0xbd8b5a2d	-0.06804309
119	0xbdf40786	-0.119154975
120	0x3c89d5de	0.016825613
121	0xbe7c6874	-0.2464922
122	0xbe348dfb	-0.17632286
123	0x3e2f3ea2	0.17113736
124	0x3d45c7c2	0.048286207
125	0x3dc88a44	0.09791997
126	0xbe535dd0	-0.20641255
127	0xbc5bb0dd	-0.013408867
128	0xbd3d90f2	-0.04628081
129	0xbdc6abe0	-0.09700751
130	0x3bc687ec	0.0060586836
131	0x3eb4e047	0.3532736
132	0xbd93c7e8	-0.072158635
133	0xbbc3a4a0	-0.0059705526
134	0xbd1f9a38	-0.038965434
135	0xbe9c7d68	-0.30564427
136	0xbd03bd94	-0.032163218
137	0xbe51f611	-0.20504023
138	0xbe3be313	-0.1834834
139	0xbdfd66a7	-0.12373095
140	0xbde9cfaa	-0.11416562
141	0xbd6690dd	-0.056290496
142	0x3c3d78e1	0.011564464
143	0x3e3b184e	0.1827099
144	0xbd252414	-0.04031761
145	0x3e5ddc4e	0.21666071
146	0x3dde2317	0.108465366
147	0xbdd12b61	-0.10213352
148	0xbc1b35f3	-0.009473312
149	0x3dfa5e2a	0.122249916
150	0xbcf8875b	-0.03033798
151	0x3e977257	0.29579422
152	0x3d21a00b	0.03945927
153	0x3de4b526	0.11167364
154	0xbe20c866	-0.15701446
155	0xbdc6c47e	-0.09705447
156	0x3db4d6bf	0.08830022
157	0xbe6e8b54	-0.23295337
158	0x3e9fb6f0	0.31194258
159	0x3ed98f3e	0.42492098
160	0x3e1c30ed	0.15253039
161	0xbdd25f36	-0.10272066
162	0xbe0b87d9	-0.1362604
163	0xbeaacfca	-0.33361655
164	0xbe52028a	-0.20508781
165	0x3cf8840a	0.030336399
166	0x3e83642a	0.25662357
167	0x3d358cef	0.044323858
168	0xbdd68dcc	-0.10476264
169	0x3c8dc678	0.017306551
170	0x3e13d658	0.14437234
171	0x3cfec78f	0.031101016
172	0xbda06887	-0.07832437
173	0xbd4178c8	-0.047234327
174	0x3dba9de4	0.091121465
175	0xbd3f52ea	-0.046709932
176	0xbd74c6c6	-0.059759878
177	0x3e299938	0.16562355
178	0xbdc5241e	-0.096260294
179	0xbd741e58	-0.05959925
180	0x3dc4f402	0.09616853
181	0x3e3693f3	0.17829876
182	0xbe36bfa1	-0.17846538
183	0x3e0cfa7f	0.13767432
184	0xbd98c9c1	-0.074603565
185	0xbc8049c7	-0.01566018
186	0x3c1fe946	0.009760207
187	0xbb83bc7b	-0.0040202714
188	0xbdd1d61c	-0.10245916
189	0x3d957593	0.07297816
190	0xbd2c0628	-0.04199806
191	0x3e55b9f1	0.20871712
192	0x3e788c16	0.24272189
193	0xbe4a8dbe	-0.19780633
194	0x3e84b714	0.25920928
195	0xbbeccdb4	-0.00722667
196	0xbe46aead	-0.19402571
197	0x3e238810	0.15969872
198	0xbe1c9bb5	-0.15293773
199	0xbdc9fafd	-0.09862325
200	0x3db25232	0.08707084
201	0x3dd53af8	0.10411638
202	0xbd128b54	-0.035777405
203	0xbe576dc0	-0.2103796
204	0xbdb3a56f	-0.08771788
205	0xbc9a0142	-0.018799428
206	0xbdfbf1e1	-0.12301994
207	0x3dd1e154	0.10248056
208	0xbe7202e1	-0.2363391
209	0x3e7d68b0	0.24746966
210	0x3d984156	0.07434337
211	0x3de2a67a	0.11066909
212	0xbe05f202	-0.130806
213	0x3e692583	0.22768216
214	0xbe8ad969	-0.27118996
215	0xbdde378c	-0.108504385
216	0x3ebf344d	0.3734459
217	0x3d325e22	0.043546803
218	0x3e18f68e	0.14937803
219	0x3d666e0e	0.0562573
220	0xbde00411	-0.109382756
221	0x3e017e1a	0.1264576
222	0x3df79a5d	0.12089989
223	0x3d025533	0.031819534
224	0x3dc22a8d	0.09480772
225	0xbcc1226c	-0.023575984
226	0xbdc9d7fd	-0.098556496
227	0x3da6c48d	0.08142958
228	0x3ea5e9d8	0.3240497
229	0xbdf65e40	-0.120296955
230	0xbd585dcd	-0.05282383
231	0x3d9e1fb5	0.077208914
232	0xbe0d79f4	-0.13816053
233	0xbcbe6c7d	-0.02324509
234	0x3d3c62b0	0.045992553
235	0x3d0f2283	0.034945022
236	0xbdc366a4	-0.095410615
237	0x3e0f4d43	0.13994317
238	0x3d7bf391	0.06151158
239	0x3d08b21e	0.03337299
240	0x3b9972c9	0.004682873
241	0x3e12b632	0.14327314
242	0x3e48e010	0.19616723
243	0x3bebb1df	0.0071928347
244	0xbe2f8eff	-0.17144392
245	0xbdff7576	-0.12473576
246	0x3e06b9db	0.13156836
247	0x3e0b6b5c	0.13615173
248	0xbd4d8a0e	-0.050180487
249	0xbede9a84	-0.4347726
250	0x3edd7374	0.43252146
251	0x3e08d615	0.13362916
252	0x3d83bd41	0.06432582
253	0xbd6d3ca9	-0.05791918
254	0x3d4b10db	0.04957662
255	0xbca96cbd	-0.020681733

linears.2.bias f4 [50]
0	0x3c2e0c37	0.010623029
1	0xbc10bf92	-0.008834736
2	0x3d401fc3	0.04690529
3	0x3d51d553	0.051228832
4	0xbcbdfea8	-0.023192719
5	0x3d06990f	0.03286081
6	0xba50c0ff	-0.0007963329
7	0xbd4f9c7d	-0.05068635
8	0xbd5c666a	-0.053808607
9	0x3cefd5eb	0.029276809
10	0xbd23b04a	-0.039963044
11	0x3be5d997	0.007014464
12	0xbd13507b	-0.035965424
13	0x3d8647fd	0.065566994
14	0xbd29738a	-0.041369952
15	0xbd6f2077	-0.05838057
16	0x3bd819d7	0.006594877
17	0xbcbab2ab	-0.022790274
18	0x3cc12745	0.023578295
19	0x3d13f766	0.03612461
20	0x3d4861dc	0.04892145
21	0xbdff1e4a	-0.12456949
22	0x3bbbf705	0.005736234
23	0x3bcf8424	0.006332891
24	0xbae46260	-0.0017424338
25	0x3b60feef	0.003433164
26	0xbbb88fd3	-0.0056323796
27	0x3bf247cb	0.0073938123
28	0xbdc22021	-0.09478784
29	0x3ca6d22f	0.020363895
30	0x3d30ae74	0.04313512
31	0x3d46272c	0.0483772
32	0xbc8c522a	-0.017129023
33	0xbd56df45	-0.05245902
34	0xbc5e22bc	-0.013558086
35	0x3ca24226	0.019806933
36	0x3ae33359	0.0017334028
37	0x3cb10b90	0.021611959
38	0xbcbdeb74	-0.023183562
39	0xbd058533	-0.03259773
40	0xbd4ffb0d	-0.05077653
41	0x3d91db35	0.071218885
42	0x3d027df5	0.031858403
43	0x3d92d9c2	0.0717044
44	0x3b4405f9	0.0029910787
45	0xbc8c67f0	-0.017139405
46	0xbc35481f	-0.011064558
47	0x3d33e916	0.04392346
48	0x3c20f4ff	0.009824037
49	0xbd1b7f5a	-0.03796325

linears.3.weight f4 [50, 50]
0	0xbe84a58e	-0.25907558
1	0x3d685536	0.05672189
2	0x3bfa837b	0.007645068
3	0x3e1eb8d8	0.155002
4	0xbd63daa2	-0.055628426
5	0x3e9561a3	0.29176053
6	0x3a94b3a2	0.0011345039
7	0x3d15559e	0.036458604
8	0x3df1f85e	0.118149504
9	0xbd2d143a	-0.042255618
10	0xbe14190a	-0.14462677
11	0x3e52511a	0.2053875
12	0xbe10e5cd	-0.14150162
13	0x3e0235ae	0.1271579
14	0xbe77a414	-0.24183685
15	0xbd8b92cc	-0.06815109
16	0xbbe6e1ec	-0.007045975
17	0x3e36ffa3	0.17870955
18	0xbe22af66	-0.15887222
19	0x3e101bc6	0.14073095
20	0x3d952f98	0.072844684
21	0xbe9f5df6	-0.31126374
22	0x3d786287	0.060640838
23	0xbec3b8de	-0.3822698
24	0xbd666ace	-0.0562542
25	0x3e8ee7c1	0.2791119
26	0x3b7dc6f7	0.0038723329
27	0x3dab616c	0.08368191
28	0x3dbe5c98	0.092950046
29	0xbd95d2c3	-0.0731559
30	0x3bbaf96f	0.0057060043
31	0x3d28a6ae	0.041174583
32	0xbc80bb86	-0.015714418
33	0x3de64003	0.11242678
34	0x3d1a516a	0.0376753
35	0xbc43eaff	-0.011957883
36	0xbd9acefe	-0.07559012
37	0x3de67865	0.11253432
38	0xbe785bae	-0.24253723
39	0xbe02d2fe	-0.127758
40	0xbe7cf91a	-0.247044
41	0xbe47df2c	-0.19518727
42	0xbef01b31	-0.46895745
43	0xbdc4d7ff	-0.096115105
44	0x3d24b41b	0.040210824
45	0x3e8cf84f	0.27533194
46	0x3e64405f	0.2229018
47	0xbdebbfcc	-0.11511192
48	0xbdd9ba8c	-0.10631284
49	0xbe3a2933	-0.18179779
50	0xbd4af9a6	-0.04955449
51	0x3d00e490	0.031467974
52	0xbe4b4708	-0.19851315
53	0xbde4cbe5	-0.11171702
54	0x3ca707cb	0.020389458
55	0xbe7a8a0d	-0.24466725
56	0xbca90c51	-0.020635756
57	0x3df5f2cc	0.120092005
58	0x3d1b4681	0.037909035
59	0x3eb6b8cc	0.35687864
60	0xbc54e16a	-0.012993196
61	0x3dbce4d9	0.09223337
62	0x3de64942	0.112444416
63	0xbd816ee4	-0.06319979
64	0xbe719b7a	-0.23594466
65	0x3d233ae2	0.039851077
66	0xbc8a9ccb	-0.016920468
67	0x3dc7a9eb	0.09749206
68	0xbd93cfe3	-0.072173856
69	0x3d1d417c	0.03839253
70	0x3e7bfb51	0.24607588
71	0xbdc8406f	-0.09777915
72	0xbe14888d	-0.14505215
73	0xbdaeb481	-0.08530522
74	0x3e81ae52	0.25328308
75	0xbddf48e6	-0.10902576
76	0x3e8852e1	0.26625732
77	0x3e291a11	0.1651385
78	0xbba237b0	-0.004950486
79	0xbd0f5776	-0.03499552
80	0xbd1875f0	-0.03722185
81	0x3c8be79a	0.01707821
82	0x3d3f7d00	0.04675007
83	0x3e58ff7e	0.21191213
84	0xbe17fddf	-0.14842938
85	0xbd3b70b7	-0.04576179
86	0x3e00a7d3	0.1256402
87	0x3e31a3eb	0.17347686
88	0xbd7a5fca	-0.061126508
89	0x3cf4d77a	0.029887903
90	0xbe30fb51	-0.1728337
91	0x3d00b137	0.031419005
92	0x3e3bb6aa	0.183314
93	0xbe34b1c4	-0.17645937
94	0xbd94a061	-0.07257152
95	0xbea0df31	-0.31420282
96	0xbdcc7302	-0.099828735
97	0xbd496735	-0.04917069
98	0x3df3dd10	0.11907399
99	0xbe156794	-0.14590293
100	0x3e00c0b9	0.12573518
101	0xbe970e5a	-0.29503137
102	0xbd40ac1b	-0.047039133
103	0xbeba55c6	-0.36393565
104	0x3d8c1464	0.06839827
105	0x3ea3b5b4	0.31974566
106	0xbeb59849	-0.35467747
107	0x3e8486e5	0.25884166
108	0x3e57dbdc	0.21079963
109	0xbe175cb9	-0.14781465
110	0xbd5fa347	-0.054599073
111	0xbe90f98e	-0.28315395
112	0x3e9a049a	0.30081636
113	0xbe603fc0	-0.21899319
114	0xbe256248	-0.16150773
115	0x3e367111	0.17816569
116	0xbdc800d4	-0.09765783
117	0xbc8fdfea	-0.017562825
118	0x3c03f48b	0.008053909
119	0x3ce2160e	0.027598407
120	0xbe0c27e7	-0.13687097
121	0xbaa621df	-0.0012674889
122	0x3d54c14c	0.051942155
123	0xbe66b68c	-0.22530574
124	0xbd5e7127	-0.05430713
125	0xbd8e7ed9	-0.06957788
126	0x3d460ecd	0.04835396
127	0x3d0f1c32	0.034939
128	0x3d03778d	0.032096434
129	0xbd5daf32	-0.054122157
130	0x3c81147c	0.015756838
131	0xbe0f6817	-0.14004551
132	0xbd773116	-0.060349546
133	0xbde2d4a7	-0.110757165
134	0xbdd9dba3	-0.106375955
135	0x3eadc156	0.33936566
136	0xbd672c51	-0.056438748
137	0xbb2fdce5	-0.0026834544
138	0xbd5c298b	-0.053750556
139	0xbe42a3d3	-0.19007806
140	0x3e8c8bc1	0.27450374
141	0x3dbb1221	0.09134317
142	0x3cd11076	0.025520544
143	0xbcd2828b	-0.025697013
144	0x3d54772e	0.05187147
145	0xbd4a1f81	-0.04934645
146	0x3ddb87d7	0.10719269
147	0x3e1ff662	0.15621331
148	0xbe88e8c1	-0.26740077
149	0xbe4152ba	-0.18879214
150	0xbea666bc	-0.32500255
151	0x3d6c2232	0.0576498
152	0x3e8ca526	0.27469748
153	0x3e7c1ce8	0.24620402
154	0x3a8e7189	0.0010867576
155	0xbe62ec70	-0.22160506
156	0xbdf0c426	-0.11756162
157	0xbd9d37f6	-0.07676689
158	0x3df1bad2	0.11803211
159	0xbe887e89	-0.2665904
160	0x3e0e17e6	0.13876304
161	0x3e0595fb	0.13045494
162	0xbddf073d	-0.108900525
163	0x3e6224d6	0.22084364
164	0xbed86775	-0.4226643
165	0xbd84b5d8	-0.064799964
166	0x3e26c116	0.16284594
167	0xbd815ef0	-0.06316936
168	0x3d33be59	0.0438827
169	0x3dbc1737	0.091841154
170	0xbc0affc7	-0.008483834
171	0xbdebc7cc	-0.115127176
172	0xbdce8bb1	-0.10085238
173	0x3ddc3bba	0.107535794
174	0x3c901cba	0.017591823
175	0xbe0dbfef	-0.13842748
176	0xbe3739f9	-0.17893209
177	0xbdd49785	-0.103804626
178	0x3edc58e0	0.43036556
179	0x3db81da0	0.089900255
180	0x3d852e22	0.0650294
181	0xbe0741d7	-0.1320871
182	0x3e1e6ccf	0.15471195
183	0xbd6c75c7	-0.05772951
184	0xbcc9cc56	-0.024633568
185	0xbd07d3ca	-0.033160962
186	0x3bfa1a27	0.007632512
187	0x3dd733c4	0.105079204
188	0x3de7d376	0.1131963
189	0xbce24e9f	-0.02762538
190	0x3e207146	0.1566821
191	0xbe7f3ae7	-0.24924813
192	0x3ea75062	0.32678515
193	0x3e9c9fa1	0.30590537
194	0x3d93142b	0.07181581
195	0x3e0631a3	0.13104872
196	0xbcea547c	-0.028604738
197	0x3d9fb9db	0.07799121
198	0x3e52737c	0.20551866
199	0x3e2c8992	0.16849354
200	0x3d85d75f	0.065352194
201	0x3b52bc5a	0.0032155723
202	0x3d22fafc	0.03979014
203	0x3de79da3	0.11309364
204	0xbe13a79d	-0.14419408
205	0xbd88e23c	-0.06683776
206	0x3da9737a	0.082739785
207	0xbc7cee39	-0.015437656
208	0x3dc506fe	0.09620474
209	0xbe29403f	-0.16528414
210	0x3e979812	0.29608208
211	0x3d8c4da5	0.06850747
212	0x3e212ce4	0.1573978
213	0xbeb2e1b3	-0.3493782
214	0xbdb1fc1d	-0.08690665
215	0x3e512ac2	0.20426467
216	0x3d7f730b	0.062365573
217	0x3e334cc7	0.17509757
218	0x3e03c648	0.12868607
219	0x3e2ad2af	0.16681932
220	0xbe8e38b3	-0.27777633
221	0x3e041b0f	0.12900947
222	0xbdf9748d	-0.121804334
223	0xbd450277	-0.048098054
224	0x3e33cebe	0.17559335
225	0xbda03807	-0.07823186
226	0xbd468772	-0.048469014
227	0xbd1dcc93	-0.038525175
228	0x3cf40e8f	0.029792098
229	0x3dbc6b76	0.09200184
230	0x3c574ad3	0.013140398
231	0xbe3f750f	-0.18696998
232	0x3ec44844	0.38336384
233	0x3e3b40aa	0.18286386
234	0xbdea4e4a	-0.11440714
235	0xbe3f84c3	-0.18702988
236	0xbe42868c	-0.18996638
237	0xbe8330ec	-0.25623262
238	0x3ce2a641	0.027667167
239	0xbcd95b5b	-0.02653282
240	0xbd74419b	-0.05963288
241	0xbdc90e63	-0.09817197
242	0x3d6bc2a2	0.057558663
243	0x3c2a482e	0.010393186
244	0x3ec621ff	0.38697812
245	0x3e937752	0.28801972
246	0x3e2a0ade	0.16605708
247	0x3d76bb30	0.06023711
248	0x39eaf5d3	0.0004481511
249	0x3db952f4	0.09049025
250	0xbcecf997	-0.028927607
251	0xbccfd660	-0.025370777
252	0xbe878322	-0.26467234
253	0xbde15647	-0.11002784
254	0x3e5f57d0	0.21810842
255	0xbdaee669	-0.08540041

linears.3.bias f4 [50]
0	0xbc8c2cf3	-0.017111277
1	0x3d203512	0.03911311
2	0x3ce3afd6	0.027793806
3	0x3d80da48	0.06291634
4	0xbd8b6cfa	-0.06807895
5	0xbcbfb175	-0.023400048
6	0xbd4c67a4	-0.049903527
7	0xba455c3d	-0.0007528698
8	0x3c925ed9	0.017867493
9	0xbc2f128d	-0.010685575
10	0x3d528018	0.05139169
11	0xbb8423a8	-0.004032571
12	0xbc5500ae	-0.01300065
13	0xbd3699b1	-0.044580165
14	0x3c1d7a83	0.009611729
15	0x3d1d2542	0.03836561
16	0xbbfd593b	-0.0077315844
17	0xbc0dcb13	-0.008654374
18	0xbc446015	-0.011985798
19	0x3d3c79f5	0.046014745
20	0x3d1727b6	0.036903106
21	0x3dae7030	0.08517492
22	0xbafe4809	-0.001940013
23	0x3d2ab84a	0.041679658
24	0x3ca76899	0.020435618
25	0xbc2964f0	-0.010339007
26	0xbbefb8bb	-0.0073157228
27	0xbd0e799c	-0.034783944
28	0xbc904693	-0.017611777
29	0x3d01aaf7	0.031657185
30	0x3d2fb3ab	0.042895954
31	0xbd10040a	-0.035160102
32	0xbc5b2030	-0.013374373
33	0x3d1d5253	0.03840859
34	0xbcf2bc55	-0.02963082
35	0x3c5cf547	0.013486213
36	0x3d1ab994	0.037774637
37	0x3b245a1f	0.002507813
38	0xbc16ac8a	-0.00919641
39	0xbcede41f	-0.02903944
40	0x3d16843b	0.0367472
41	0x3d3f09eb	0.046640318
42	0x3d365621	0.044515733
43	0x3d2b60cb	0.041840356
44	0xbcfc8d9b	-0.030829241
45	0xbd0ec289	-0.034853492
46	0xbd8c19ec	-0.06840882
47	0x3cdccd9f	0.026953517
48	0xbc029a67	-0.007971383
49	0x3ce5cddf	0.028052269

linears.4.weight f4 [50, 50]
0	0xbde22abf	-0.110433094
1	0xbc7b5caa	-0.015341917
2	0xbc06ce04	-0.008227829
3	0x3dd65c54	0.10466829
4	0xbed17169	-0.40906838
5	0xbe3fe6e1	-0.18740417
6	0xbe4c109c	-0.19928211
7	0xbf031cc0	-0.51215744
8	0xbdb84c4b	-0.08998927
9	0xbebe09a4	-0.3711673
10	0xbce01fdb	-0.02735894
11	0x3ea45063	0.3209258
12	0xbe4279bd	-0.18991752
13	0x3e86c4f0	0.26322126
14	0x3e483d9c	0.19554752
15	0x3e1b4855	0.15164311
16	0x3d990393	0.07471385
17	0x3e205de3	0.15660815
18	0x3c8811b3	0.016610002
19	0x3da921d5	0.08258406
20	0xbe18258d	-0.14858074
21	0xbdfc4040	-0.12316942
22	0x3d82fe13	0.06396117
23	0xbdcbd4ae	-0.09952675
24	0x3e84b997	0.25922844
25	0x3e1df3f2	0.15425089
26	0xbd70317d	-0.058640946
27	0x3cbca515	0.023027936
28	0x3dde14d8	0.108438194
29	0x3e195784	0.14974791
30	0x3eaf7eb6	0.3427636
31	0xbc4cb698	-0.012494706
32	0xbe2743f7	-0.1633452
33	0xbcf0e5a5	-0.029406378
34	0x3e47e3df	0.1952052
35	0xbcc94894	-0.02457074
36	0x3e1b0ca6	0.15141544
37	0x3e9ca0a1	0.305913
38	0x3da51a93	0.08061709
39	0xbdb1a090	-0.08673203
40	0x3e107f93	0.14111166
41	0xbe30d0f1	-0.17267205
42	0x3e26dd5d	0.16295381
43	0x3d8214fc	0.06351659
44	0x3d8897c9	0.06669576
45	0xbc267c97	-0.0101615405
46	0xbdd0272b	-0.10163721
47	0xbdd2517e	-0.1026945
48	0x3d9c2477	0.076241426
49	0xbd847609	-0.06467826
50	0x3e280a12	0.16410092
51	0x3dc35855	0.095383324
52	0xbe66e813	-0.22549467
53	0xbe391ff8	-0.18078601
54	0x3e3acaae	0.18241379
55	0xbd1a8e96	-0.037733637
56	0xbd8c13b7	-0.06839698
57	0xbe826de6	-0.2547447
58	0x3ddcebd3	0.107871674
59	0xbd1bb325	-0.038012642
60	0x3d585bb5	0.052821834
61	0xbd93738c	-0.07199773
62	0xbde615d3	-0.112346314
63	0xbdd38239	-0.103275724
64	0xbdf94c67	-0.12172776
65	0x3e0390e4	0.1284824
66	0xbc18a866	-0.009317493
67	0x3cb06fdd	0.021537716
68	0xbdb01ead	-0.08599601
69	0x3e1979b4	0.14987832
70	0xbe30ffc5	-0.17285068
71	0x3dd531e5	0.10409907
72	0x3e53e460	0.20692587
73	0x3d9be75a	0.07612486
74	0x3de4e6fe	0.11176871
75	0xbe72091d	-0.23636289
76	0x3e6eca8e	0.23319456
77	0x3e097f22	0.13427404
78	0x3d8b3e87	0.067990355
79	0x3cef88d2	0.029240046
80	0xbdbf215e	-0.09332536
81	0xb97e06b6	-0.00024225828
82	0x3c37d710	0.0112207085
83	0xbd4c9755	-0.04994901
84	0x3e0d3241	0.13788702
85	0xbdcfbdb1	-0.10143603
86	0xbe10cbe3	-0.14140277
87	0x3e776226	0.24158534
88	0xbd906648	-0.070507586
89	0xbcdc4970	-0.026890486
90	0xbeac7daa	-0.33689624
91	0xbe1fcf5f	-0.1560645
92	0xbe3bee45	-0.18352611
93	0xbca76f80	-0.02043891
94	0x3dea8032	0.114502326
95	0xbd9a9d34	-0.07549515
96	0x3e93964f	0.28825614
97	0xbce94bf1	-0.028478594
98	0x3dce6a00	0.10078812
99	0x3d22bd27	0.03973117
100	0xbdc4df51	-0.09612907
101	0x3d6002b4	0.054690078
102	0xbcb915a5	-0.022593329
103	0x3e03989d	0.12851186
104	0xbe1a04a2	-0.1504083
105	0x3e6e6cff	0.23283766
106	0x3d644b5f	0.055735942
107	0xbd85f048	-0.06539971
108	0xbcdef90d	-0.027218366
109	0xbd661f28	-0.056182057
110	0xbe961786	-0.29314822
111	0xbd3020d0	-0.043000042
112	0x3dd84c38	0.105614126
113	0xbdca6fcf	-0.09884607
114	0xbe4aeae0	-0.1981616
115	0xbd730839	-0.059334014
116	0x3e08de6d	0.13366099
117	0x3b8ad36c	0.004236629
118	0x3de35c08	0.11101538
119	0x3e06db98	0.13169706
120	0x3e14891a	0.14505425
121	0xbda14361	-0.0787418
122	0x3e75f6ab	0.24019878
123	0xbd945f70	-0.07244766
124	0x3dcc752b	0.099832855
125	0x3dc09548	0.09403473
126	0xbd20d802	-0.0392685
127	0x3e7913b1	0.24323918
128	0xbda4115f	-0.08011126
129	0x3e0ef854	0.13961917
130	0xbe0c6c51	-0.13713194
131	0xbcbd8383	-0.023133999
132	0xbd1879b2	-0.037225433
133	0x3c97d43d	0.01853382
134	0xbe5c2bd7	-0.21501099
135	0xbb3120c2	-0.0027027582
136	0x3e7db510	0.24776101
137	0xbe4d251e	-0.2003369
138	0xbd898e2a	-0.06716569
139	0xbe9db67b	-0.30803284
140	0x3e26dcd9	0.16295184
141	0xbda8cd7f	-0.0824232
142	0xbc4b484a	-0.012407372
143	0xbd600da9	-0.054700527
144	0x3e285b80	0.16441154
145	0x3e38dbf5	0.18052657
146	0xbabe5db2	-0.0014523773
147	0x3d3624e9	0.044468794
148	0xbdab9998	-0.08378905
149	0xbe4a62d4	-0.19764262
150	0xbe58c862	-0.2117019
151	0xbe1a44d8	-0.15065324
152	0xbbf0db8c	-0.007350391
153	0xbe350ae4	-0.17679936
154	0x3d4f5446	0.05061748
155	0x3de94e0e	0.11391841
156	0xbdfb6cc8	-0.12276608
157	0x3d5b046e	0.05347102
158	0xbe271238	-0.16315544
159	0x3da82ca1	0.08211637
160	0x3dfbab8d	0.1228858
161	0xbe7a3fad	-0.24438353
162	0xbdcde9cd	-0.100543596
163	0xbcfb2de1	-0.030661525
164	0xbcb66d75	-0.02226899
165	0xbd8eee63	-0.069790624
166	0x3d9de3a6	0.07709436
167	0x3c9c3386	0.019067537
168	0x3e6a0a32	0.22855452
169	0xbe7fabdd	-0.24967904
170	0xbd679d96	-0.05654677
171	0xbe17ac47	-0.14811812
172	0xbd32d283	-0.04365779
173	0xbe6dc18d	-0.23218365
174	0x3d795366	0.06087055
175	0x3c176773	0.009240973
176	0x3c7ecee4	0.015552256
177	0x3eb2d167	0.34925386
178	0x3d2292aa	0.03969065
179	0x3d2d73be	0.04234671
180	0x3e2fa0dd	0.17151208
181	0xbd1c0b81	-0.03809691
182	0x3eaee02d	0.34155408
183	0xbd0ce89a	-0.034401514
184	0x3db6a49c	0.089181155
185	0x3e999b81	0.30001453
186	0x3e0657ba	0.13119403
187	0x3d72fff1	0.059326116
188	0xbe414438	-0.1887368
189	0x3da80047	0.08203178
190	0xbd3d357f	-0.046193596
191	0x3e00237d	0.12513538
192	0xbc99f48d	-0.018793369
193	0x3e118563	0.14211039
194	0x3d4f8e00	0.05067253
195	0x3d2e3d12	0.04253871
196	0x3e302605	0.17202003
197	0xbddc0474	-0.10743037
198	0xbd77738c	-0.06041293
199	0xbe37d5c9	-0.17952646
200	0x3e5fb23e	0.21845338
201	0xbe83cc24	-0.25741684
202	0x3da072d5	0.078344025
203	0xbb8e42ab	-0.0043414435
204	0xbd0d77a6	-0.034537934
205	0xbd846627	-0.064647965
206	0xbc6ebee5	-0.01457188
207	0xbe21b1ff	-0.15790556
208	0xbe277567	-0.16353379
209	0xbdbdb2cd	-0.09262619
210	0xbd3ddefe	-0.04635524
211	0xbe08eebd	-0.13372321
212	0x3d07a95b	0.033120494
213	0x3e53a612	0.2066882
214	0x3e4e1149	0.20123781
215	0xbdefd059	-0.11709661
216	0x3db78ab8	0.089620054
217	0x3dbf24ff	0.09333228
218	0x3df00fb7	0.11721747
219	0x3d9e4d69	0.077296086
220	0x3daadb04	0.08342555
221	0xbe35b1fc	-0.17743677
222	0xbdf0a639	-0.117504545
223	0x3b99b098	0.004690241
224	0xba0fbaf1	-0.00054828735
225	0xbd4077a9	-0.046989117
226	0xbc481cea	-0.012213925
227	0x3d1d3401	0.038379673
228	0xbd45f923	-0.0483333
229	0xbe05fd17	-0.13084827
230	0xbd819fdd	-0.063293196
231	0xbde8cf8b	-0.11367711
232	0xbe4ad5bc	-0.19808096
233	0xbe8d45f7	-0.2759244
234	0x3da1465a	0.078747466
235	0xbe3a4db6	-0.18193707
236	0x3ccc2cf2	0.024923775
237	0x3d8499f9	0.064746805
238	0x3e8d377e	0.275814
239	0x3ebe6625	0.37187305
240	0x3d333bab	0.043758076
241	0xbe0b1411	-0.13581873
242	0xbd909721	-0.070600756
243	0xbe46fe64	-0.1943298
244	0x3e82c74d	0.2554268
245	0xbde6ddf3	-0.11272802
246	0x3ee5286e	0.44757408
247	0x3e53c46b	0.20680396
248	0xbe8c939c	-0.27456367
249	0xbc506462	-0.012719246
250	0x3e0d39e2	0.13791612
251	0x3e09bdaa	0.13451257
252	0xbe5679c3	-0.20944886
253	0xbd902187	-0.07037645
254	0xbd830e83	-0.06399252
255	0xbe142c28	-0.1446997

linears.4.bias f4 [50]
0	0xbd0300ea	-0.031983294
1	0xbd40aad1	-0.047037903
2	0x3bec51c7	0.007211897
3	0xbd17e875	-0.037086923
4	0xbd800401	-0.06250764
5	0xbb5020df	-0.0031757874
6	0xbd1cf690	-0.038321078
7	0x3cc5de8d	0.024153972
8	0x3cb8f455	0.022577444
9	0x3c1adb87	0.009451753
10	0xbc9f2b85	-0.019429931
11	0xbc2e7e9c	-0.010650303
12	0xbc6cbf97	-0.014449975
13	0xbc131f86	-0.008979684
14	0x3c5d4d34	0.013507176
15	0x3bd0cb1c	0.006371869
16	0x3d1f6049	0.038910184
17	0xbccc17d5	-0.024913708
18	0xbd314b11	-0.04328448
19	0x3b793dc9	0.0038031212
20	0xbd82bf83	-0.06384184
21	0x3cb4a77b	0.022052517
22	0xbc3b911b	-0.01144817
23	0xbccf41f8	-0.025300011
24	0x3d99f6d8	0.07517785
25	0x3b69e98f	0.003569219
26	0x3ce64537	0.028109176
27	0xbd345477	-0.044025864
28	0xbd84554f	-0.06461584
29	0xbd9f91ea	-0.07791503
30	0x3d912ff2	0.07089223
31	0x3ca19c5e	0.019727882
32	0x3b01a0ae	0.001977961
33	0xbb9eb805	-0.004843714
34	0xbcbeea54	-0.023305096
35	0xbda0a1a3	-0.0784333
36	0x3d16c282	0.03680659
37	0x3c9c2e24	0.01906497
38	0x3a55ab5b	0.0008150839
39	0x3d3d6c0d	0.046245623
40	0x3b8cfd88	0.004302684
41	0xbbd2cc49	-0.006433044
42	0xbd4acb33	-0.049510192
43	0x3bd40daf	0.006471358
44	0x3ca1d8f9	0.019756781
45	0xbd8977db	-0.06712314
46	0x3cb7670b	0.022388002
47	0xbbefbe13	-0.00731636
48	0x3c6890fe	0.014194725
49	0xbc66d6d0	-0.014089301

linears.5.weight f4 [50, 50]
0	0x3b890d68	0.0041825064
1	0xbd667100	-0.05626011
2	0xbd833811	-0.06407178
3	0xbe23f95f	-0.16013096
4	0xbdecbb96	-0.11559217
5	0xbcf7984c	-0.030223988
6	0xbe2890fd	-0.16461559
7	0x3d1c0cc7	0.038098123
8	0x3e637fd9	0.22216739
9	0xbeff504d	-0.49865952
10	0xbd843379	-0.0645513
11	0xbdf35cc4	-0.11882928
12	0x3de23a4e	0.11046277
13	0x3c4c3e9b	0.012466098
14	0xbd8433f7	-0.06455224
15	0x3dd24c59	0.102684684
16	0x3de4924c	0.111607164
17	0xbe9a9a5e	-0.30195898
18	0xbe019915	-0.12656052
19	0xbbea8fd9	-0.0071582613
20	0xbcd83549	-0.026392596
21	0xbc4a5726	-0.012349879
22	0x3d6ac323	0.057315003
23	0xbd8abd1e	-0.067743525
24	0x3e0d26fd	0.13784404
25	0x3e54b7f4	0.20773298
26	0xbdb9a35c	-0.090643615
27	0x3d0a8714	0.033820227
28	0xbe8f4825	-0.2798473
29	0xbe061c0c	-0.13096637
30	0x3d415e93	0.047209334
31	0x3c826be7	0.015920592
32	0xbdf74262	-0.120732084
33	0x3c471cbb	0.012152846
34	0xbc00c9b8	-0.0078605935
35	0x3e0ef37e	0.13960072
36	0xbe716f50	-0.23577619
37	0xbd109041	-0.03529382
38	0xbe6bd152	-0.23029068
39	0x3e4348b2	0.190707
40	0x3dbd087b	0.09230133
41	0xbcc367a5	-0.023853133
42	0xbdb3eaf1	-0.08785046
43	0xbe84127b	-0.2579535
44	0x3e59ef04	0.21282583
45	0xbdc18b58	-0.09450406
46	0x3e173f05	0.14770134
47	0xbdf2c6e9	-0.11854345
48	0xbe37ceb0	-0.17949939
49	0x3d128984	0.035775676
50	0xbda08d31	-0.0783943
51	0xbca44b42	-0.020055417
52	0x3e69e15e	0.22839877
53	0x3d2b871b	0.041876893
54	0x3dce564c	0.100750536
55	0x3e90b5e1	0.28263763
56	0x3c0ea028	0.008705176
57	0xbe11b99e	-0.14230964
58	0xbe9f5aac	-0.31123865
59	0xbb49537d	-0.003071993
60	0x3d42218d	0.047395278
61	0x3ddb8769	0.10719187
62	0x3e20bfaa	0.15698114
63	0x3db92e2e	0.09042011
64	0xbbc88a97	-0.006120037
65	0x3c7197e5	0.014745687
66	0xbd39527a	-0.04524467
67	0x3dcd3e7e	0.10021685
68	0xbda549ab	-0.08070692
69	0x3c963e5f	0.018340288
70	0x3d4cbf7c	0.0499873
71	0x3d966235	0.0734295
72	0x3d8f59f2	0.069995776
73	0xbebc1354	-0.36733496
74	0xbed006bd	-0.4063014
75	0x3d8f3ea3	0.06994369
76	0xbe370f84	-0.17877012
77	0xbde02c75	-0.109459795
78	0x3e14cbb2	0.14530829
79	0x3d1ad8c3	0.037804376
80	0xbe5ce68f	-0.21572326
81	0xbd664145	-0.05621459
82	0x3d475fa3	0.04867519
83	0x3e6bb8a2	0.2301965
84	0x3e077328	0.13227522
85	0x3b76a868	0.0037637
86	0xbe0669e1	-0.13126327
87	0xbe69c69e	-0.22829673
88	0xbb495f28	-0.0030726884
89	0x3df667f3	0.120315455
90	0x3e4804c5	0.1953307
91	0x3e54395d	0.20725007
92	0xbbd9a15f	-0.0066415514
93	0xbdb9af27	-0.09066611
94	0x3df8d3ba	0.12149759
95	0xbeae40e3	-0.3403388
96	0xbe63f135	-0.22259982
97	0x3e3ea3aa	0.1861712
98	0x3dcf64d9	0.10126657
99	0xbe45b32f	-0.19306634
100	0xbe3321de	-0.17493388
101	0xbe1ac68d	-0.15114804
102	0x3d875310	0.0660764
103	0xbcd36202	-0.02580357
104	0x3bde0b39	0.00677624
105	0x3a8ff956	0.0010984342
106	0x3e912455	0.28348032
107	0xbd3c917d	-0.046037186
108	0xbe0e922c	-0.13922948
109	0x3cddc97f	0.02707362
110	0x3c905d92	0.017622743
111	0xbe22e340	-0.15907001
112	0x3df3bd79	0.119013734
113	0xbe1b40fb	-0.15161507
114	0x3e0f4bb1	0.13993718
115	0xbe7c9e60	-0.2466979
116	0xbd7e8287	-0.0621362
117	0xbea368d7	-0.31915924
118	0xbc816b57	-0.015798254
119	0x3d1c85ef	0.038213667
120	0xbc91b0d0	-0.017784506
121	0xbc0d708f	-0.008632793
122	0xbd913c16	-0.070915386
123	0x3d2527ad	0.04032104
124	0x3e06e1f8	0.13172138
125	0x3ea3aedd	0.31969348
126	0xbd0f9e2a	-0.035062946
127	0xbddfea61	-0.10933376
128	0x3de3596d	0.11101041
129	0x3c94b23c	0.018151395
130	0x3dee77f0	0.1164397
131	0x3e3d5ce1	0.18492462
132	0x3d1c212d	0.038117576
133	0xbe582c86	-0.21110734
134	0xbdf85943	-0.121264
135	0xbe79d4b9	-0.24397554
136	0xbe94462e	-0.28959793
137	0xbd3fd239	-0.046831343
138	0xbe83d472	-0.2574802
139	0xbc554699	-0.01301732
140	0xbcf81734	-0.030284502
141	0x3cf27f0c	0.029601596
142	0x3bf49106	0.007463577
143	0x3d39c74b	0.045356076
144	0xbda7a350	-0.08185446
145	0x3d837c0e	0.06420146
146	0x3e763259	0.24042644
147	0x3d7cbe79	0.061705086
148	0xbda8c13d	-0.08239982
149	0xbcc00e82	-0.023444418
150	0x3dfbe3b8	0.12299293
151	0xbcc444de	-0.02395862
152	0x3e95cb5a	0.29256707
153	0x3d9c8d2d	0.07644115
154	0xbe5baf9a	-0.21453705
155	0x3e80ba79	0.25142267
156	0x3e0ec736	0.1394318
157	0xbd9ff264	-0.07809904
158	0xbe32a492	-0.17445591
159	0xbd3089a0	-0.0431
160	0xbe8b3189	-0.2718623
161	0x3dda69d7	0.106647186
162	0xbe0451a4	-0.12921768
163	0x3d3d11d5	0.046159584
164	0xbe684c4a	-0.22685352
165	0x3ce76812	0.028247867
166	0x3e203973	0.15646915
167	0xbe010cad	-0.12602492
168	0xbcb8cdd2	-0.02255908
169	0xbdb6c4b7	-0.08924239
170	0xbdf663b7	-0.12030738
171	0xbd9da8f6	-0.07698242
172	0x3c0bcbf3	0.008532512
173	0xbdef87cd	-0.11695824
174	0xbda8c976	-0.082415506
175	0xbe00f76d	-0.12594385
176	0x3e1c7a32	0.15280989
177	0x3e02b6d0	0.1276505
178	0xbe2643fc	-0.16236871
179	0x3e36110c	0.1777994
180	0xbdf6f8db	-0.12059184
181	0x3dbc30f9	0.09189028
182	0x3d9c0dc1	0.07619811
183	0x3e50518b	0.20343606
184	0xbcd64153	-0.026154196
185	0xbe11e62e	-0.14247963
186	0xbe45f8c6	-0.19333181
187	0x3ddb17f5	0.10697929
188	0x3e8545ef	0.26029918
189	0xbd953baf	-0.07286774
190	0x3e7f2796	0.24917445
191	0x3d294826	0.04132857
192	0xbdd1cbe0	-0.10243964
193	0x3d46c33e	0.04852604
194	0x3e23e1e5	0.1600414
195	0x3dc543d8	0.09632081
196	0xbe1a7e3f	-0.15087222
197	0xbe430c9c	-0.19047779
198	0x3d09430b	0.033511203
199	0x3d2157bf	0.03939032
200	0xbc28bae0	-0.010298461
201	0xbdc89bd6	-0.09795348
202	0x3e5b8bc7	0.2144004
203	0xbccc6596	-0.024950784
204	0xbe71e28f	-0.23621581
205	0x3cd953fb	0.026529303
206	0xbca8e079	-0.02061485
207	0xbe5a4235	-0.21314318
208	0x3e1bddf4	0.15221387
209	0xbe2dccb9	-0.16972627
210	0xbdff3a0f	-0.12462246
211	0x3e2adaa7	0.16684972
212	0xbe0f413e	-0.13989732
213	0xbc0cbd8c	-0.008590113
214	0xbde2f8d2	-0.11082615
215	0xbcec0cc0	-0.028814673
216	0x3d2607e1	0.040534858
217	0x3e22e6a1	0.1590829
218	0x3d0a5a8b	0.033777755
219	0x3e41977e	0.18905446
220	0xbe35f612	-0.1776965
221	0x3cc4076b	0.023929318
222	0xbdd17ec8	-0.1022926
223	0xbd060a65	-0.032724757
224	0xbb116264	-0.002218389
225	0x3e34bbfb	0.17649834
226	0x3d21b1d7	0.039476242
227	0xbe929704	-0.2863084
228	0xbe71fbe3	-0.23631243
229	0xbe020add	-0.12699457
230	0x3e5a2fe9	0.21307339
231	0xbd95c4e5	-0.07312945
232	0x3e550943	0.20804314
233	0x3e7f83b6	0.24952587
234	0xbe03389d	-0.12814565
235	0xbdd21b90	-0.102591634
236	0xbdc39e20	-0.09551644
237	0xbd3d16ab	-0.046164196
238	0x3ea6d820	0.32586765
239	0xbc7e6bfd	-0.015528676
240	0x3d724b8e	0.059154086
241	0xbddb9142	-0.10721065
242	0xbe73c87b	-0.23806946
243	0xbd9542d4	-0.07288137
244	0x3e4d6d6d	0.20061274
245	0xbe13fe4c	-0.14452475
246	0x3d2e51e8	0.04255858
247	0xbe26aa07	-0.16275798
248	0x3e0a1154	0.13483173
249	0xbe6e548c	-0.2327444
250	0xbd876a89	-0.06612117
251	0xbd4a7c29	-0.049434815
252	0x3cdb83ae	0.026796188
253	0x3daaa266	0.08331756
254	0xbcab885a	-0.02093904
255	0x3e6f1fa2	0.2335191

linears.5.bias f4 [50]
0	0x3d15ae4e	0.036543183
1	0xbd1dd7f9	-0.038536046
2	0x3cd62c91	0.026144298
3	0xbbd6e118	-0.006557595
4	0x3d16c835	0.036812026
5	0xbc56ffec	-0.01312254
6	0xbd264702	-0.040595062
7	0xbd24a824	-0.040199414
8	0xbd4dc87d	-0.05024003
9	0x3d14e0ab	0.036347073
10	0x3d0dacd1	0.03458864
11	0x3c270cbd	0.010195908
12	0xbba6ee08	-0.0050942935
13	0x3bc6decd	0.0060690404
14	0x3d16fa67	0.036859896
15	0x3bb6fdd5	0.0055844584
16	0x3ccaf4f7	0.024775011
17	0x390fa154	0.00013697642
18	0xbc8c04e7	-0.017092181
19	0xbd33d6fa	-0.04390619
20	0x3d0989d3	0.033578705
21	0x3b1fc169	0.0024376756
22	0xbb9afbaa	-0.0047297077
23	0xbc0900d4	-0.008362014
24	0xbc8c9152	-0.017159138
25	0xbd2fb9e9	-0.042901907
26	0x3d01d081	0.031692985
27	0xbba8a35b	-0.0051464266
28	0xbc153f30	-0.009109303
29	0x3d5c9df9	0.053861592
30	0x3ca8a671	0.020587178
31	0x3d09f38f	0.03367954
32	0x3cb72061	0.022354307
33	0xbd2f9c97	-0.042873945
34	0x3b2bf84a	0.002624052
35	0x3c965aac	0.018353783
36	0xbcb5ae9f	-0.022177992
37	0xbd82bd17	-0.06383722
38	0xbca21a82	-0.01978803
39	0xba2c84ca	-0.00065810664
40	0x3c143663	0.00904617
41	0x3cc892b3	0.024484014
42	0x3db62939	0.08894581
43	0x3d0808cc	0.033211514
44	0xbd870bfb	-0.06594082
45	0x3ca5f2c7	0.020257367
46	0xbb692861	-0.0035577046
47	0x39ed5f25	0.0004527505
48	0xbded155e	-0.11576341
49	0xbb9a19aa	-0.0047027664

linears.6.weight f4 [50, 50]
0	0xbdfffc20	-0.12499261
1	0xbe19f46d	-0.15034647
2	0x3e0ade68	0.13561404
3	0xbe6e6326	-0.2328001
4	0x3dc3574d	0.09538136
5	0xbe98a78a	-0.29815322
6	0x3e360808	0.17776501
7	0x3e4cb12a	0.19989458
8	0x3dc0d5a5	0.094157495
9	0xbe39062d	-0.18068762
10	0xbe0372cb	-0.12836759
11	0xbc31437e	-0.010819314
12	0xbe143ffe	-0.14477536
13	0xbe04b06c	-0.12957925
14	0xbda3ef04	-0.08004573
15	0xbd5e78d3	-0.054314446
16	0xbcbd8ec4	-0.023139365
17	0xbe7811ad	-0.24225493
18	0xbd936dd6	-0.07198684
19	0x3e0ae73f	0.13564776
20	0xbc964f43	-0.018348342
21	0xbe436250	-0.19080472
22	0x3df4f062	0.11959912
23	0x3d5c6a68	0.053812414
24	0x3977d205	0.00023633994
25	0x3ed3309c	0.41248024
26	0x3e3c3e9e	0.18383262
27	0x3e805ac3	0.25069246
28	0xbade23c5	-0.0016947916
29	0xbd30520e	-0.043047003
30	0x3eb49845	0.35272422
31	0xbe0b76fd	-0.13619609
32	0xbc409690	-0.011754647
33	0x3ea14c44	0.315035
34	0xbd9a7440	-0.07541704
35	0xbcbe00c7	-0.02319373
36	0xbddd96cf	-0.1081978
37	0xbe0d8386	-0.13819703
38	0xbd16c55b	-0.036809307
39	0x3e623cca	0.22093502
40	0x3b24472b	0.0025066833
41	0xbd122228	-0.035677105
42	0xbe708be1	-0.2349086
43	0x3cd6ecd4	0.026235975
44	0x3d60328c	0.054735705
45	0xbdd086c0	-0.101819515
46	0x3e25e7cb	0.16201703
47	0xbe07eb67	-0.13273393
48	0xbd4ac082	-0.049499996
49	0x3dd1527b	0.1022081
50	0xbd8f41c4	-0.06994966
51	0x3cc341d2	0.023835097
52	0xbec59d8b	-0.38596758
53	0xbdb7c22b	-0.089725815
54	0xbe8a8973	-0.2705799
55	0x3e1b5448	0.1516887
56	0x3eb3f421	0.35147193
57	0xbddf43e9	-0.10901625
58	0x3de642a9	0.11243183
59	0x3e88664f	0.26640555
60	0x3d8cc909	0.06874282
61	0x3c3cd92b	0.011526386
62	0xbb8764a9	-0.0041318727
63	0xbdd452fa	-0.10367389
64	0x3d6befe8	0.05760184
65	0xbe0cf4ed	-0.13765307
66	0xbd61756b	-0.05504362
67	0xbe131e31	-0.14366986
68	0x3e44169c	0.1914925
69	0x3df9eb50	0.122030854
70	0x3ddab170	0.10678375
71	0x3d2652be	0.040606253
72	0xbe54d664	-0.20784909
73	0xbd88a2fe	-0.06671713
74	0x3ea74a3a	0.32673818
75	0x3d7198cf	0.05898362
76	0xbdfc6e52	-0.123257294
77	0xbe0b55aa	-0.13606897
78	0x3e14917e	0.14508626
79	0xbce83e3c	-0.028349988
80	0x3c6a1dde	0.014289347
81	0x3d6ae844	0.057350412
82	0xbd927858	-0.0715186
83	0x3e5855f8	0.21126544
84	0x3e68d99b	0.2273926
85	0xbdc5e66d	-0.09663091
86	0x3cdc4b31	0.026891323
87	0x3d21b703	0.039481174
88	0xbe02b41b	-0.12764017
89	0xbc057784	-0.0081461705
90	0xbe2fb8e9	-0.17160381
91	0xbd7ae89d	-0.061256994
92	0x3d61d1fc	0.055131897
93	0x3dd4e9a9	0.1039613
94	0x3bdc98c9	0.0067320806
95	0x3dad130f	0.08450901
96	0x3e149b18	0.14512289
97	0xbe635b31	-0.22202756
98	0x3dbaf409	0.09128577
99	0xbc8ac0c6	-0.016937625
100	0xbe013293	-0.12616949
101	0x3951e69d	0.00020017703
102	0x3e48b423	0.19599967
103	0x3d38ee49	0.04514912
104	0x3c298a9b	0.0103479875
105	0x3e0392ee	0.12849018
106	0xbdf757ee	-0.12077318
107	0x3e015477	0.12629877
108	0xbdd87e13	-0.10570922
109	0x3d3fca32	0.046823688
110	0x3e438df7	0.19097124
111	0xbe66f5f3	-0.2255476
112	0x3e638a7c	0.22220796
113	0x3cf4d5e1	0.029887142
114	0xbda2c80f	-0.079483144
115	0x3ebaef14	0.36510527
116	0x3ddf5b4f	0.109060876
117	0x3df29e67	0.11846619
118	0x3cdffadb	0.027341297
119	0xbd7e425c	-0.062075004
120	0xbdc0cb85	-0.09413818
121	0x3db6bcba	0.089227155
122	0x3e1094d1	0.14119269
123	0x3dd455fb	0.10367962
124	0x3d59bf8c	0.05316119
125	0xbd42c1a0	-0.047547936
126	0x3d859dad	0.06524215
127	0x3d5cb910	0.053887427
128	0xbcbbacfd	-0.022909636
129	0xbdc55733	-0.096357726
130	0xbdb38bf5	-0.08766929
131	0x3e6101bd	0.2197332
132	0xbda7881c	-0.08180258
133	0x3db0edf8	0.08639139
134	0xbe96922f	-0.29408404
135	0xbd5613ec	-0.052265093
136	0xbde67bd0	-0.11254084
137	0xbd06cf05	-0.032912273
138	0x3d780fcb	0.060561936
139	0x3d2e3713	0.04253299
140	0xbc2442db	-0.010025705
141	0x3e10f30a	0.14155212
142	0xbdbaa8ea	-0.09114249
143	0x3e657c50	0.22410703
144	0x3cf64c13	0.030065572
145	0xbd271abe	-0.040796988
146	0x3e0e19df	0.13877057
147	0xbd84e50b	-0.06488999
148	0xbd0b8f0f	-0.03407198
149	0x3ea281a0	0.3173952
150	0xbe8e207f	-0.27759168
151	0xbde718dc	-0.112840384
152	0x3da14031	0.07873572
153	0xbd73333b	-0.05937503
154	0xbe091415	-0.13386567
155	0xbd1b4d2f	-0.037915405
156	0x3e1f2bca	0.15544048
157	0x3ec63bca	0.3871749
158	0x3e20b8e9	0.15695538
159	0x3d25ce4f	0.040479954
160	0x3d5d8103	0.054078113
161	0x3e56fa83	0.20994
162	0x3d6883d0	0.05676633
163	0x3d275602	0.040853508
164	0x3e7ada99	0.24497451
165	0x3cc58f43	0.024116164
166	0xbca8243a	-0.020525087
167	0x3e19480b	0.14968888
168	0x3e6d3836	0.23165974
169	0x3d716f8c	0.05894427
170	0x3c996e5e	0.018729385
171	0xbd858141	-0.06518794
172	0x3cb3d33a	0.021951307
173	0xbe367e4b	-0.17821614
174	0x3d659a11	0.056055132
175	0xbe53f75c	-0.20699829
176	0x3cc7c914	0.024387874
177	0x3b95bab2	0.004569375
178	0xbb4bbe77	-0.0031088868
179	0x3ccbd4ff	0.024881838
180	0xbd9a55fe	-0.07535933
181	0xbd98aca5	-0.07454804
182	0xbe042e5a	-0.12908307
183	0xbe3170ef	-0.17328237
184	0xbe2894e0	-0.16463041
185	0xbc4d5a21	-0.012533695
186	0x3e95de8a	0.29271346
187	0xbe490c10	-0.19633508
188	0x3daa807e	0.08325289
189	0xbdb434a5	-0.08799104
190	0xbdaaf56d	-0.083475925
191	0xbda04d4a	-0.07827242
192	0x3c93d3f2	0.0180454
193	0x3e8d3074	0.2757603
194	0xbcdd0289	-0.026978748
195	0xbea838b7	-0.3285577
196	0x3e550f2d	0.2080657
197	0xbe323083	-0.17401318
198	0x3e830ead	0.25597134
199	0xbb7dc8ab	-0.0038724344
200	0xbc6ac96e	-0.014330251
201	0x3dd25279	0.10269637
202	0xbdd13bac	-0.1021646
203	0x3dcbbe2b	0.09948381
204	0xbe0d1eb9	-0.13781251
205	0x3d91333f	0.070898525
206	0x3e331048	0.1748668
207	0xbd710ebb	-0.05885194
208	0x3d35e562	0.04440821
209	0xbe16169b	-0.14657061
210	0x3daee430	0.08539617
211	0xbdbab356	-0.09116237
212	0xbd7b83eb	-0.061405104
213	0x3bcbc8e0	0.0062190145
214	0x3d8ff917	0.07029932
215	0xbe7aa8e4	-0.24478489
216	0xbe673f3f	-0.2258272
217	0xbe06ea2a	-0.13175264
218	0xbdad9d4e	-0.08477269
219	0xbe201627	-0.1563345
220	0x3e2030d2	0.15643623
221	0xbd7c4e08	-0.061597854
222	0xbe430e8d	-0.1904852
223	0xbe734060	-0.23755026
224	0xbdfd0232	-0.12353934
225	0x3e7cc108	0.2468301
226	0xbd559b16	-0.052149855
227	0x3dd15f56	0.10223262
228	0x3e0d96b7	0.13827024
229	0xbe373772	-0.17892244
230	0xbcc9ecc6	-0.024649035
231	0x3d41926e	0.047258787
232	0x3d944624	0.07239941
233	0x3d065798	0.03279838
234	0x3dadbf09	0.08483703
235	0x3e0d3b3f	0.13792132
236	0xbe14cfa8	-0.1453234
237	0xbd32cc97	-0.043652143
238	0x3e4aebea	0.19816557
239	0xbcba5f89	-0.022750633
240	0xbe344a3c	-0.17606443
241	0xba5cf64f	-0.0008429037
242	0xbeb43ae7	-0.3520119
243	0xbe189bb4	-0.14903146
244	0x3da1f577	0.07908147
245	0x3e909a81	0.28242877
246	0xbdbe00a6	-0.092774674
247	0xbc5de767	-0.01354394
248	0xbe1bc3b3	-0.15211372
249	0x3d88bdfd	0.066768624
250	0xbd03c21b	-0.032167535
251	0x3ea653de	0.3248586
252	0x3ced4810	0.028965026
253	0x3e52cb06	0.2058526
254	0xbe6197da	-0.22030583
255	0xbd27fe51	-0.04101402
