Archived Code/Stan TPAMI/1D/SODE/atanh_tune/1D_SODE_Stan_tune21_2.pt (torch, 90406 bytes, 20 tensors)

alpha f4 [50, 9]
0.999582 1.0018985 0.99945563 1.0011371 1.0003886 0.99836385 1.0003179 0.9999197
0.9999795 0.99994725 0.9998358 1.0000026 0.99844795 1.0008031 1.0005621 1.0001596
1.0021607 0.99932754 0.99616987 1.000781 0.9988959 1.0013157 0.9979966 0.9998715
1.0001714 1.0009812 1.001069 0.9999864 0.9995455 0.99934614 0.99877155 0.9993983
0.9997408 0.99996156 0.99898773 1.000003 0.9999331 0.9992782 1.0000546 1.0006051
0.99998784 0.9998162 0.9997858 0.9992554 1.0000463 0.99901736 0.99917036 1.0012699
1.0006946 0.9998364 1.0000172 1.0007997 0.99984854 0.99983114 0.999595 0.99992985
0.9968261 0.99972934 0.9971341 0.9977069 1.0020508 1.0006288 0.9976646 0.997287
0.99944603 0.9991157 0.9992288 0.99874455 0.9996009 0.99860173 1.0001704 0.99919885
0.9986582 0.9961618 0.99941033 0.9986415 0.99893624 0.99919325 0.9992806 0.999534
0.99862707 0.998602 1.0004328 0.9987715 0.9991444 1.0000867 0.99998426 1.0000606
1.0000268 0.99824625 0.9960538 0.99843425 1.0008258 0.9986801 1.000107 1.0000306
0.9976954 1.0006528 1.0000068 0.9988134 1.0008075 1.0000241 1.0008466 1.0002156
0.99969083 1.0001084 1.0016605 0.9999132 1.0019274 1.0015224 1.0004526 0.9988995
0.9996473 0.9987971 0.99999815 1.0009298 0.99968857 1.0006983 1.0005714 1.0013903
0.9996414 1.0008893 1.0001146 1.0002706 0.99885124 0.9989176 0.9996408 1.0006316
0.99908054 0.99934894 0.99995536 0.99924314 1.00011 0.9974344 1.0002955 1.0001327
0.99939543 0.9989939 0.99928695 0.99933016 0.99889946 1.0000901 1.0005037 1.0000021
0.9971732 1.0014658 1.0001887 0.99960583 0.99769765 0.99913514 0.9991503 1.0009555
0.99997413 1.0000883 1.000782 1.0007373 0.99978185 0.99894375 0.99750155 0.9995724
0.9987401 1.0000793 1.0030837 0.9997447 0.99993074 1.000188 1.0007125 1.0000446
0.9995658 1.0008394 0.9995943 1.0013617 1.000571 0.99878263 0.99988353 1.0002563
0.999996 0.99940324 0.9990741 0.9997437 1.0014362 0.9994832 1.0004175 0.9999615
0.9999012 1.0011463 0.99884653 1.000292 0.9974278 0.9991328 0.99689823 1.00031
0.99877566 0.99981225 0.99882984 0.99737006 0.9993203 1.0002309 1.0010289 0.99864006
1.0014272 0.9997728 0.9998264 1.0001035 1.0000019 0.99777263 0.99961585 0.9999714
1.0006782 1.0009019 1.0000018 1.0001106 1.0001633 0.9989822 0.99841005 0.999482
0.99807906 0.9955494 0.99986255 0.999839 0.9999691 0.9993238 0.9992225 0.99978185
0.99979126 1.0019304 0.9990325 1.0000527 0.9998004 1.0001085 1.0003829 0.9999261
1.0007018 1.0000851 1.0002178 1.0007156 0.9991405 0.9991372 0.99928 0.9957032
0.9997052 0.99961865 1.0003886 0.9996989 0.9992116 1.0002089 0.99912214 0.9985163
0.99908787 0.9991379 0.9979624 1.0009345 0.9972489 0.99988323 1.0012968 0.9969385
00000000: 9be4 7f3f 363e 803f 53dc 7f3f 4325 803f
00000010: bc0c 803f c694 7f3f 6b0a 803f bdfa 7f3f
00000020: a8fe 7f3f 8bfc 7f3f 3df5 7f3f 1600 803f
00000030: 499a 7f3f 511a 803f 6b12 803f 3b05 803f
00000040: cd46 803f eed3 7f3f fd04 7f3f 9819 803f
00000050: a4b7 7f3f 1d2b 803f b57c 7f3f 94f7 7f3f
00000060: 9e05 803f 2720 803f 0723 803f 1cff 7f3f
00000070: 37e2 7f3f 26d5 7f3f 7eaf 7f3f 91d8 7f3f
00000080: 03ef 7f3f 7bfd 7f3f a9bd 7f3f 1900 803f
00000090: 9efb 7f3f b2d0 7f3f ca01 803f d413 803f
000000a0: 34ff 7f3f f4f3 7f3f f6f1 7f3f 34cf 7f3f
000000b0: 8401 803f 9abf 7f3f a1c9 7f3f 9d29 803f
000000c0: c316 803f 47f5 7f3f 9000 803f 341a 803f
000000d0: 13f6 7f3f eff4 7f3f 75e5 7f3f 67fb 7f3f
000000e0: ff2f 7f3f 43ee 7f3f 2e44 7f3f b869 7f3f
000000f0: 3343 803f 9b14 803f f266 7f3f 334e 7f3f
00000100: b2db 7f3f 0cc6 7f3f 75cd 7f3f b9ad 7f3f
00000110: d8e5 7f3f 5da4 7f3f 9505 803f 7fcb 7f3f
00000120: 10a8 7f3f 7604 7f3f 5bd9 7f3f f8a6 7f3f
00000130: 49ba 7f3f 21cb 7f3f dad0 7f3f 76e1 7f3f
00000140: 06a6 7f3f 61a4 7f3f 2f0e 803f 7daf 7f3f
00000150: edc7 7f3f d702 803f f8fe 7f3f fc01 803f
00000160: e100 803f 118d 7f3f 62fd 7e3f 6399 7f3f
00000170: 0f1b 803f 80a9 7f3f 8203 803f 0101 803f
00000180: f768 7f3f 6415 803f 3900 803f 3cb2 7f3f
00000190: 761a 803f ca00 803f be1b 803f 1107 803f
000001a0: bdeb 7f3f 8d03 803f 6936 803f 50fa 7f3f
000001b0: 283f 803f e331 803f d50e 803f e1b7 7f3f
000001c0: e3e8 7f3f 2bb1 7f3f e1ff 7f3f 781e 803f
000001d0: 97eb 7f3f e216 803f b912 803f 8f2d 803f
000001e0: 80e8 7f3f 241d 803f c103 803f de08 803f
000001f0: b7b4 7f3f 10b9 7f3f 76e8 7f3f b214 803f
00000200: bec3 7f3f 55d5 7f3f 13fd 7f3f 66ce 7f3f
00000210: 9b03 803f dc57 7f3f af09 803f 5904 803f
00000220: 61d8 7f3f 10be 7f3f 45d1 7f3f 1ad4 7f3f
00000230: e0b7 7f3f f402 803f 8110 803f 1200 803f
00000240: be46 7f3f 0830 803f 2f06 803f 2be6 7f3f
00000250: 1d69 7f3f 52c7 7f3f 50c8 7f3f 4f1f 803f
00000260: 4efe 7f3f e502 803f a019 803f 2918 803f
00000270: b4f1 7f3f c7ba 7f3f 435c 7f3f fae3 7f3f
00000280: 6ead 7f3f 9902 803f 0c65 803f 45ef 7f3f
00000290: 76fb 7f3f 2906 803f 5917 803f 7601 803f
000002a0: 8be3 7f3f 811b 803f 69e5 7f3f 9f2c 803f
000002b0: b612 803f 38b0 7f3f 5ef8 7f3f 6608 803f
000002c0: bdff 7f3f e4d8 7f3f 52c3 7f3f 34ef 7f3f
000002d0: 102f 803f 22de 7f3f ae0d 803f 7afd 7f3f
000002e0: 86f9 7f3f 9025 803f 68b4 7f3f 9109 803f
000002f0: 6e57 7f3f 2bc7 7f3f b934 7f3f 280a 803f
00000300: c3af 7f3f b2f3 7f3f 50b3 7f3f a553 7f3f
00000310: 75d3 7f3f 9107 803f b721 803f e0a6 7f3f
00000320: c42e 803f 1cf1 7f3f 9ff4 7f3f 6403 803f
00000330: 1000 803f 076e 7f3f d3e6 7f3f 20fe 7f3f
00000340: 3916 803f 8e1d 803f 0f00 803f a003 803f
00000350: 5a05 803f 4cbd 7f3f cd97 7f3f 0dde 7f3f
00000360: 1c82 7f3f 53dc 7e3f fef6 7f3f 73f5 7f3f
00000370: fafd 7f3f afd3 7f3f 0ccd 7f3f b4f1 7f3f
00000380: 52f2 7f3f 413f 803f 98c0 7f3f ba01 803f
00000390: ebf2 7f3f 8e03 803f 8c0c 803f 28fb 7f3f
000003a0: ff16 803f ca02 803f 2307 803f 7317 803f
000003b0: acc7 7f3f 75c7 7f3f d0d0 7f3f 68e6 7e3f
000003c0: aeec 7f3f 02e7 7f3f bc0c 803f 44ec 7f3f
000003d0: 55cc 7f3f d806 803f 78c6 7f3f c49e 7f3f
000003e0: 39c4 7f3f 80c7 7f3f 777a 7f3f 9f1e 803f
000003f0: b44b 7f3f 59f8 7f3f 7e2a 803f 5d37 7f3f

linears.0.weight f4 [50, 1]
-0.119587526 0.023498755 -0.52996874 -0.1255226 -0.03269255 -0.15229905 -0.029293176 0.102387816
0.0763288 0.22103292 -0.11339492 0.15647197 0.06438077 0.19942783 -0.09890994 0.07523927
0.3277255 -0.057600178 -0.29434165 -0.0887996 0.24437183 0.16128457 -0.2244547 -0.0909012
0.12896568 -0.1677174 0.18061152 -0.17750287 0.15320115 0.020078527 0.14707123 -0.19595301
-0.10167158 0.08074272 0.22634883 -0.09763915 -0.26803094 0.375712 0.10311559 -0.0064971754
0.2014237 0.050678488 -0.042976495 -0.10117996 -0.2844533 0.22942096 -0.14812854 0.046471287
0.07211608 0.012569003
00000000: 4eea f4bd 7680 c03c 08ac 07bf ff88 00be
00000010: a0e8 05bd 48f4 1bbe 3ef8 efbc b4b0 d13d
00000020: 4652 9c3d 7456 623e 993b e8bd 303a 203e
00000030: 11da 833d cf36 4c3e 4b91 cabd 0c17 9a3d
00000040: a3cb a73e 2aee 6bbd f3b3 96be 91dc b5bd
00000050: 9c3c 7a3e c827 253e 74d7 65be 692a babd
00000060: 940f 043e 1cbe 2bbe 3af2 383e 50c3 35be
00000070: c3e0 1c3e b97b a43c d799 163e e8a7 48be
00000080: 3039 d0bd 705c a53d fdc7 673e 09f7 c7bd
00000090: 5a3b 89be 535d c03e 442e d33d 42e6 d4bb
000000a0: 0442 4e3e 3f94 4f3d 1f08 30bd 7037 cfbd
000000b0: dda3 91be 54ed 6a3e 02af 17be ad58 3e3d
000000c0: 98b1 933d 38ee 4d3c

linears.0.bias f4 [50]
0.015974812 -0.003029965 -0.028559627 -0.016478239 0.0119475145 0.013829422 0.007691526 -0.0047379383
0.0033449875 0.024377435 0.019644685 0.009346156 0.04143621 0.021166956 0.013325584 0.055797707
0.005848169 0.002516619 -0.031024579 -0.0066204746 0.025255369 -0.03137692 -0.028324673 -0.019414268
0.008949505 -0.017749444 -0.04954527 0.017606273 -0.014817783 -0.0058123455 0.02113028 -0.020309074
-0.007657256 0.014639399 0.03423164 -0.006694405 -0.015474478 0.025722975 0.057878032 0.016128043
0.02213415 0.0009294687 -0.0072872387 -0.0066500567 0.01733409 0.011441786 -0.003856499 0.012184036
0.011102234 -0.022309963
00000000: 9cdd 823c 6192 46bb e1f5 e9bc 5ffd 86bc
00000010: 82bf 433c cd94 623c 3209 fc3b b540 9bbb
00000020: 9437 5b3b 30b3 c73c e4ed a03c 9f20 193c
00000030: 04b9 293d 5366 ad3c 8d53 5a3c 238c 643d
00000040: ffa1 bf3b dced 243b 4227 febc 91f0 d8bb
00000050: 59e4 ce3c 1685 00bd 2509 e8bc ac0a 9fbc
00000060: f2a0 123c 4867 91bc fbef 4abd 083b 903c
00000070: 49c6 72bc 7d75 bebb 6919 ad3c 375f a6bc
00000080: b8e9 fabb 17da 6f3c 7a36 0c3d bd5c dbbb
00000090: aa88 7dbc fdb8 d23c 8411 6d3d f51e 843c
000000a0: ad52 b53c 97a7 733a cac9 eebb b8e8 d9bb
000000b0: 3900 8e3c 5476 3b3c 51bd 7cbb 8d9f 473c
000000c0: 25e6 353c 62c3 b6bc

linears.1.weight f4 [50, 50]
-0.058710814 0.37971652 0.10361752 0.07490835 -0.018700799 0.018457716 -0.14191872 0.17759995
-0.40461826 -0.0037338766 -0.07681262 -0.21122311 -0.16499303 0.14510678 -0.07774203 -0.38097426
0.07103282 0.06732635 -0.07340611 0.096987195 -0.39071283 -0.05834326 -0.010129087 0.056932498
-0.047872636 0.060361262 -0.0719566 0.02878453 0.11504899 -0.037028786 -0.08758654 0.06868396
0.006907493 0.0017995734 0.18110771 -0.14100777 -0.10761385 -0.22918108 0.09927045 0.030652134
0.041290678 -0.11016855 0.11903693 0.22914238 -0.060032178 -0.022668784 -0.097771294 -0.12007892
0.10413266 -0.19116874 -0.26194245 0.040131327 -0.12063754 0.004392452 0.0055665937 -0.0011090006
0.11108389 -0.016439168 -0.3524335 -0.104575254 -0.21347211 0.06792141 -0.055346254 -0.011041607
0.07901959 -0.14961459 -0.15232371 0.081042506 -0.1232593 -0.008518707 -0.031913143 0.14267968
0.2340344 -0.002407393 -0.007633332 0.26019847 0.057301547 0.25211677 0.017241325 -0.14475268
0.02768735 0.13165404 0.17178208 0.22203746 -0.09166049 -0.1041743 0.23806685 -0.11160555
0.06825709 0.009026253 -0.09199445 0.032947604 -0.08279199 -0.06165718 0.07321656 0.19706199
0.14408194 0.22035523 -0.23490693 -0.10664524 0.049446955 -0.093418874 0.15743348 -0.26973337
-0.14630403 0.09414005 0.008300498 -0.021761646 0.034388177 -0.02218656 -0.0494985 0.03248783
0.15697823 -0.15322877 -0.1834799 -0.038041346 -0.05965078 0.022596436 0.104175135 -0.06118532
0.1911186 -0.05847874 -0.13924111 -0.16552801 0.13988106 0.010791365 -0.094497204 0.12689798
0.2925971 0.2894167 0.0704711 -0.41133267 0.24273309 0.11418048 -0.045041487 -0.029288176
0.2985063 -0.084864795 -0.13043717 0.013819618 -0.016046647 -0.058793023 -0.022676572 0.12343571
0.23910515 0.091353916 0.03235272 0.29434523 0.029276285 -0.025522627 0.062514596 0.26265317
0.06927645 -0.10336867 -0.20075126 -0.09801169 0.06367366 0.08894057 0.12295403 -0.024902334
0.0054723476 0.18898031 -0.06300507 0.019661747 -0.033427536 -0.19446872 0.1771478 -0.2349802
0.090574585 0.12950243 0.038154684 0.0776403 -0.21501505 -0.024470257 -0.045095704 -0.19036135
-0.1102303 -0.020484587 -0.21035448 0.043134764 -0.12992498 -0.084348015 0.058057573 -0.17405657
0.0033869988 0.0017779608 -0.087658875 0.01421803 -0.13064434 -0.16744767 -0.3219188 0.17479569
-0.06125273 -0.019038359 0.29779372 -0.07318362 -0.099614106 -0.10099037 0.05493691 0.19773822
-0.1232537 -0.044608798 -0.06580788 -0.2992049 0.11921327 -0.081677064 -0.18494245 -0.23058298
-0.16218546 -0.038952015 0.096791014 -0.055887256 0.06318117 0.0141501585 -0.09723051 0.31169087
0.0012398541 0.062434312 -0.10483153 0.107076794 0.0675845 0.31845254 0.21966244 0.0565626
0.035800833 0.03611969 -0.03137417 -0.16709624 -0.32876492 0.070636205 0.0009081775 0.06546887
0.004616042 -0.13209783 -0.08439578 -0.052719504 -0.18235703 -0.18728246 -0.16581225 -0.054146573
0.40619743 0.12765053 0.072887525 0.086017616 -0.08539632 -0.11327676 0.115828514 -0.123477794
-0.035774525 -0.06273352 0.1388889 0.021597283 0.14803526 -0.12089702 0.073075876 -0.044135943
00000000: c07a 70bd 346a c23e 6c35 d43d 8d69 993d
00000010: 6b32 99bc a334 973c 2453 11be c3dc 353e
00000020: 202a cfbe 0eb4 74bb ef4f 9dbd df4a 58be
00000030: eff3 28be df96 143e 3737 9fbd 0f0f c3be
00000040: a879 913d 66e2 893d f155 96bd 39a1 c63d
00000050: 830b c8be 58f9 6ebd 78f4 25bc 0d32 693d
00000060: 1916 44bd 5f3d 773d fb5d 93bd 89cd eb3c
00000070: ce9e eb3d 7fab 17bd 9260 b3bd 2daa 8c3d
00000080: 4058 e23b aadf eb3a 4d74 393e 5764 10be
00000090: a664 dcbd 72ae 6abe 4e4e cb3d 2f1a fb3c
000000a0: 6a20 293d 0ca0 e1bd a2c9 f33d 4da4 6a3e
000000b0: 4de4 75bd e3b3 b9bc 513c c8bd f0eb f5bd
000000c0: 8143 d53d bdc1 43be 521d 86be bf60 243d
000000d0: d110 f7bd 8fee 8f3b f967 b63b e35b 91ba
000000e0: f37f e33d 6fab 86bc 2a72 b4be 8d2b d6bd
000000f0: 6f98 5abe 611a 8b3d c1b2 62bd dbe7 34bc
00000100: 06d5 a13d 9134 19be bffa 1bbe 9df9 a53d
00000110: 5f6f fcbd 0c92 0bbc 5bb7 02bd 9f1a 123e
00000120: b7a6 6f3e 5ac5 1dbb 0821 fabb bc38 853e
00000130: 07b5 6a3d 7315 813e ae3d 8d3c 0c3a 14be
00000140: 95d0 e23c 51d0 063e a4e7 2f3e ca5d 633e
00000150: 7fb8 bbbd 5659 d5bd ccc7 733e 7391 e4bd
00000160: 60ca 8b3d d9e2 133c 9667 bcbd 11f4 063d
00000170: d98e a9bd 3d8c 7cbd 90f2 953d 9eca 493e
00000180: 378a 133e cda4 613e 718b 70be d268 dabd
00000190: e488 4a3d 6552 bfbd 3e36 213e 7e1a 8abe
000001a0: b9d0 15be 80cc c03d d0fe 073c 7b45 b2bc
000001b0: 9eda 0c3d 97c0 b5bc f0be 4abd f511 053d
000001c0: e7be 203e 01e8 1cbe 28e2 3bbe 3ed1 1bbd
000001d0: 6054 74bd 291c b93c c659 d53d 759d 7abd
000001e0: 98b4 433e 6787 6fbd 3995 0ebe 2d80 29be
000001f0: fb3c 0f3e 44ce 303c c087 c1bd 8bf1 013e
00000200: 49cf 953e 6d2e 943e 2753 903d 329a d2be
00000210: 068f 783e 75d7 e93d 6c7d 38bd c2ed efbc
00000220: d1d5 983e 98cd adbd 5291 05be ae6b 623c
00000230: 4274 83bc f4d0 70bd 38c4 b9bc ddcb fc3d
00000240: fbd7 743e c317 bb3d 4984 043d 6bb4 963e
00000250: d2d4 ef3c d414 d1bc a707 803d 7a7a 863e
00000260: d0e0 8d3d f4b2 d3bd bd91 4dbe 5aba c8bd
00000270: 5667 823d 7926 b63d 53cf fb3d fbff cbbc
00000280: 6151 b33b 0e84 413e cd08 81bd ac11 a13c
00000290: 50eb 08bd cf22 47be 3c66 353e a69e 70be
000002a0: 2b7f b93d 499c 043e 1648 1c3d e101 9f3d
000002b0: e82c 5cbe d975 c8bc 46b6 38bd 16ee 42be
000002c0: 6cc0 e1bd 4bcf a7bc 2a67 57be 14ae 303d
000002d0: 0e0b 05be a7be acbd c7cd 6d3d e33b 32be
000002e0: 69f8 5d3b 770a e93a 7f86 b3bd bdf2 683c
000002f0: a1c7 05be 6777 2bbe 8ad2 a4be a4fd 323e
00000300: 25e4 7abd 55f6 9bbc 6b78 983e 4be1 95bd
00000310: 7b02 ccbd 0ad4 cebd 8605 613d e37b 4a3e
00000320: 706c fcbd b7b7 36bd 48c6 86bd 6231 99be
00000330: 1626 f43d 4e46 a7bd 8e61 3dbe f21d 6cbe
00000340: f213 26be 268c 1fbd 5e3a c63d 09ea 64bd
00000350: 2165 813d 11d6 673c ca20 c7bd f295 9f3e
00000360: 9a82 a23a 1fbb 7f3d eab1 d6bd 144b db3d
00000370: be69 8a3d 360c a33e 31ef 603e 2fae 673d
00000380: e5a3 123d 3df2 133d 3482 00bd 471b 2bbe
00000390: e053 a8be b7a9 903d c312 6e3a 8b14 863d
000003a0: 2b42 973b a744 07be b2d7 acbd 68f0 57bd
000003b0: cdbb 3abe f9c6 3fbe b0ca 29be ccc8 5dbd
000003c0: 1cf9 cf3e d2b6 023e 0e46 953d 012a b03d
000003d0: 44e4 aebd a5fd e7bd 8037 ed3d ede1 fcbd
000003e0: 4f88 12bd 6f7a 80bd e438 0e3e c9ec b03c
000003f0: 8e96 173e db98 f7bd cea8 953d e4c7 34bd

linears.1.bias f4 [50]
-0.008963044 -0.0042644558 0.0052888794 -0.014455514 -0.00064622925 -0.008913418 0.0027483392 -0.0012573716
-0.00012313561 0.00802003 -0.01219473 -0.0084053185 -0.00842372 -0.016179085 -0.010168886 -0.00031939163
0.0001530899 -0.000703205 -0.004042463 -0.004294485 -1.761885e-05 -0.004976189 0.00436009 -0.012929065
-0.008083679 6.283952e-05 0.01462088 0.018173989 -0.0002563706 -0.008519325 0.005197066 -0.0069917124
0.009599254 0.0065916423 -0.0025627865 -0.006271451 -0.016022502 0.0029053907 0.0066892286 -0.008068898
0.0199102 0.0048818914 -0.008199857 -0.016411612 -0.005423843 0.008035347 -0.009952511 0.01340631
0.006157384 -0.0046804454
00000000: bbd9 12bc d9bc 8bbb 564e ad3b d2d6 6cbc
00000010: b667 29ba 9609 12bc 7b1d 343b 64ce a4ba
00000020: f71d 01b9 7266 033c 68cc 47bc 76b6 09bc
00000030: a403 0abc 008a 84bc 669b 26bc 0574 a7b9
00000040: c286 2039 4a57 38ba a376 84bb c0b8 8cbb
00000050: 31cc 93b7 4d0f a3bb 16df 8e3b 6ed4 53bc
00000060: 6871 04bc b6c8 8338 6a8c 6f3c 9ee1 943c
00000070: 7b69 86b9 a494 0bbc 264c aa3b bc1a e5bb
00000080: 3046 1d3c b4fe d73b 6cf4 27bb be80 cdbb
00000090: 9f41 83bc 5e68 3e3b 5131 db3b 6933 04bc
000000a0: b71a a33c 46f8 9f3b b158 06bc a571 86bc
000000b0: 7eba b1bb b0a6 033c db0f 23bc 24a6 5b3c
000000c0: e1c3 c93b 6c5e 99bb

linears.2.weight f4 [50, 50]
-0.079211056 -0.279219 0.028396625 0.15240584 0.0025382873 -0.04236765 0.022939399 -0.13354819
-0.0703466 0.16002817 0.10151861 0.148076 -0.23929748 -0.3051352 0.033212703 0.13957964
0.10966286 -0.25214472 0.050791953 0.029324958 0.15978013 0.039548434 -0.062496595 0.16707599
0.07751343 -0.08661946 -0.1822186 0.3136711 -0.24167037 -0.008942271 0.22403906 0.08308946
-0.04704129 -0.043920048 -0.020036755 -0.0069374586 -0.05186294 0.023737164 0.43433702 0.054614782
0.18431483 -0.08233697 -0.24232766 -0.12710425 0.030816393 -0.053371016 0.2476861 0.094984025
-0.27051687 -0.06625351 -0.05304916 0.04317992 0.012622331 0.1273479 0.0961371 0.058499537
0.121047415 0.023846747 0.099257715 0.15513328 -0.051866833 0.14095505 -0.22661494 0.10176518
0.09227301 0.055277936 0.014302799 -0.042949174 -0.123114 0.121762715 -0.045174956 0.011498225
-0.09505514 -0.105355464 0.14578538 0.20820361 -0.14896081 -0.07718494 -0.111266576 0.00020261398
-0.10650306 -0.1391222 -0.19869265 0.29321584 0.33071095 0.0936772 0.100730896 -0.071607746
-0.27909455 0.14589795 -0.026857132 -0.096844025 0.19022211 0.016586188 0.1216303 -0.07336889
0.061061382 -0.09848241 0.1511342 0.2030473 -0.051231336 0.08999104 0.04858794 -0.05172533
0.111184336 0.07878886 -0.0995405 0.051924303 -0.28828874 0.1477446 -0.25890896 0.025152821
-0.078815386 -0.17881018 0.09615463 -0.013631663 0.12695527 -0.06544628 -0.03276014 -0.116510384
-0.019400885 -0.05240384 -0.06527596 -0.14047523 0.11022349 0.025273122 0.1444637 0.10400902
0.14819549 -0.20716946 0.2199307 0.032550164 -0.08816225 0.142306 0.005161265 0.18007177
0.031782452 0.1314538 -0.05206033 -0.06451825 0.20317544 0.017697193 -0.20263997 0.2379476
-0.21627173 -0.018787052 0.1468397 -0.08681176 0.09775977 -0.12864819 -0.033134382 0.05815867
0.16501188 -0.11080263 -0.10647593 0.034946088 -0.1308713 -0.1777521 0.12561929 0.12639883
-0.049847234 0.11802789 -0.09974247 -0.12531562 0.19316463 -0.12795404 0.055958316 0.06684768
-0.033500552 -0.0965027 -0.03094572 0.040061872 -0.029755225 -0.20871416 -0.30390468 -0.05432888
-0.18652298 0.18111019 -0.035484243 -0.033418648 0.05551776 0.032206878 -0.0110645825 0.23359421
0.026446583 0.0034837904 0.16251259 -0.021496953 0.19441122 -0.06349401 -0.0042181714 0.115235515
-0.18444757 -0.24189202 -0.31279626 0.22520311 -0.06292521 -0.06509532 -0.308437 0.121536285
0.036129143 -0.047603797 0.15222318 0.06290873 0.10196268 -0.14985566 0.24089852 0.101594396
-0.1727275 0.036214933 0.0058189943 -0.024881596 0.020032061 -0.096883975 0.24776837 -0.015947586
0.04950075 -0.09759682 -0.028915947 -0.08510675 -0.13033323 -0.027570136 0.269428 -0.13546085
-0.29271823 -0.07827379 -0.03265685 -0.25049102 0.015587461 -0.0035872513 -0.019000098 0.30746877
0.0024992372 0.2139048 -0.14185059 0.05849403 -0.2906205 0.19561796 0.053805694 0.06328773
-0.04352418 -0.16014132 0.16045582 0.08644561 -0.00036608358 -0.3355554 -0.0463177 -0.17601533
0.0458915 0.023615107 -0.009402477 -0.08560316 -0.15972687 0.054876257 0.00092646887 -0.054118443
00000000: 6839 a2bd cbf5 8ebe 0aa0 e83c 4710 1c3e
00000010: 6559 263b b389 2dbd 68eb bb3c dbc0 08be
00000020: e111 90bd 6dde 233e fde8 cf3d 3ca1 173e
00000030: 660a 75be ae3a 9cbe 0b0a 083d f7ed 0e3e
00000040: ec96 e03d 1d19 81be 390b 503d e53a f03c
00000050: 679d 233e 8afd 213d 6efc 7fbd f815 2b3e
00000060: 5cbf 9e3d 8b65 b1bd 8397 3abe 8099 a03e
00000070: 7078 77be 9a82 12bc 7f6a 653e cf2a aa3d
00000080: 5eae 40bd 82e5 33bd 1f24 a4bc 9f53 e3bb
00000090: 3c6e 54bd 7174 c23c 6c61 de3e c0b3 5f3d
000000a0: 07bd 3c3e 49a0 a8bd be24 78be 9e27 02be
000000b0: a972 fc3c 919b 5abd 6da1 7d3e fc86 c23d
000000c0: 3081 8abe ecaf 87bd 134a 59bd 6edd 303d
000000d0: e5cd 4e3c 7d67 023e 87e3 c43d 369d 6f3d
000000e0: b5e7 f73d 415a c33c a147 cb3d 42db 1e3e
000000f0: 5172 54bd 8556 103e bf0d 68be 436a d03d
00000100: a2f9 bc3d 1e6b 623d 4956 6a3c 79eb 2fbd
00000110: 3123 fcbd bb5e f93d 6009 39bd 0d63 3c3c
00000120: 45ac c2bd 9bc4 d7bd c348 153e 5433 553e
00000130: 2f89 18be 2313 9ebd bbdf e3bd c774 5439
00000140: 471e dabd 0d76 0ebe 1676 4bbe 6320 963e
00000150: f252 a93e d5d9 bf3d 004c ce3d 15a7 92bd
00000160: 7be5 8ebe 4666 153e 7d03 dcbc 2956 c6bd
00000170: 96c9 423e c2df 873c 4f19 f93d 6e42 96bd
00000180: 801b 7a3d 25b1 c9bd ecc2 1a3e a2eb 4f3e
00000190: f3d7 51bd 394d b83d 2604 473d f1dd 53bd
000001a0: 9db4 e33d 0e5c a13d e4db cbbd 94ae 543d
000001b0: 959a 93be 5c4a 173e b78f 84be 4a0d ce3c
000001c0: f669 a1bd 041a 37be b8ec c43d 5757 5fbc
000001d0: 9000 023e b308 86bd 7f2f 06bd ff9c eebd
000001e0: 9bee 9ebc 69a5 56bd 67af 85bd bdd8 0fbe
000001f0: dabc e13d 9409 cf3c 4bee 133e ae02 d53d
00000200: 8fc0 173e 3b24 54be 8335 613e 5253 053d
00000210: 698e b4bd aab8 113e d41f a93b bc64 383e
00000220: 512e 023d d39b 063e 363d 55bd 2522 84bd
00000230: 390d 503e b4f9 903c da80 4fbe 89a8 733e
00000240: 5676 5dbe 4ee7 99bc 255d 163e 5dca b1bd
00000250: 4636 c83d 5abc 03be ebb7 07bd c937 6e3d
00000260: e0f8 283e 7dec e2bd 0d10 dabd a123 0f3d
00000270: 2003 06be a604 36be 58a2 003e b26e 013e
00000280: 9d2c 4cbd 9bb8 f13d c845 ccbd bd52 00be
00000290: f3cc 453e 6206 03be 8c34 653d 70e7 883d
000002a0: e037 09bd 35a3 c5bd e181 fdbc eb17 243d
000002b0: 3bc1 f3bc 2ab9 55be 6599 9bbe f687 5ebd
000002c0: e1ff 3ebe f374 393e ed57 11bd fee1 08bd
000002d0: 9766 633d 5ceb 033d 3948 35bc 5233 6f3e
000002e0: 81a6 d83c 4e50 643b b369 263e 611a b0bc
000002f0: bc13 473e 2609 82bd 9638 8abb 9900 ec3d
00000300: d3df 3cbe 8bb2 77be d526 a0be a59b 663e
00000310: efde 80bd b250 85bd 74eb 9dbe 04e8 f83d
00000320: 27fc 133d 33fc 42bd 65e0 1b3e 4bd6 803d
00000330: cfd1 d03d c373 19be 1aae 763e b910 d03d
00000340: 7adf 30be 1c56 143d 43ad be3b 7dd4 cbbc
00000350: 471a a43c 1b6b c6bd feb6 7d3e 83a4 82bc
00000360: 4cc1 4a3d d7e0 c7bd 23e1 ecbc 734c aebd
00000370: 1376 05be c4da e1bc 78f2 893e 40b6 0abe
00000380: 2adf 95be 024e a0bd 30c3 05bd 5c40 80be
00000390: 8d62 7f3c 1718 6bbb 18a6 9bbc 8c6c 9d3e
000003a0: 3eca 233b dc09 5b3e 4841 11be 7097 6f3d
000003b0: 36cc 94be 1350 483e 5c63 5c3d ff9c 813d
000003c0: 6946 32bd 16fc 23be 884e 243e 650a b13d
000003d0: e8ee bfb9 ebcd abbe a1b7 3dbd 5d3d 34be
000003e0: baf8 3b3d 7874 c13c d90c 1abc b650 afbd
000003f0: 718f 23be edc5 603d 46de 723a 4dab 5dbd

linears.2.bias f4 [50]
0.0010380631 -0.0042161387 -0.000464407 0.0075203204 0.0024716388 0.0034717347 -0.004986876 0.00062795397
0.008455499 0.0069812825 -0.0010744797 0.00018118329 -0.0010982861 0.00052759604 -0.0005033985 0.0035277659
-0.007111305 -0.009179838 0.00082500104 -0.002155954 -0.0014543906 -0.0034590971 0.0022727372 -0.007136063
0.0062196804 0.0021429802 0.001216602 0.002686092 -0.006150888 0.00015808096 -0.0009935118 -0.0029662945
0.001322627 -0.00016716037 -0.0054002777 0.0049119433 0.009365439 -0.0010416271 0.004856313 -0.0009157224
-0.007821563 0.00073357904 0.0035621282 -0.0030432402 0.00050921657 -0.003862576 0.0034949412 -0.003163711
0.0018165244 -0.0056061125
00000000: 9e0f 883a 8927 8abb a77b f3b9 056d f63b
00000010: 38fb 213b 0b86 633b f368 a3bb 479d 243a
00000020: ef88 0a3c 3ec3 e43b 8ed5 8cba 05fc 3d39
00000030: 5ef4 8fba 5f4e 0a3a 80f6 03ba 1732 673b
00000040: f305 e9bb 0867 16bc e244 583a e84a 0dbb
00000050: 40a1 beba 05b2 62bb 34f2 143b a3d5 e9bb
00000060: 76ce cb3b 3e71 0c3b 6476 9f3a 2509 303b
00000070: 638d c9bb 89c2 2539 b938 82ba 2a66 42bb
00000080: ff5b ad3a c547 2fb9 d0f4 b0bb 5ef4 a03b
00000090: 8071 193c 3587 88ba b521 9f3b 170d 70ba
000000a0: 0326 00bc a84d 403a 9872 693b 1971 47bb
000000b0: f27c 053a 4623 7dbb 620b 653b 4356 4fbb
000000c0: 7218 ee3a 7bb3 b7bb

linears.3.weight f4 [50, 50]
0.06350276 0.007546445 -0.035025176 -0.007489258 0.003437729 0.011743054 0.033888496 0.060635976
0.10592357 -0.14465955 0.08095329 0.05552331 -0.017791374 0.15820031 -0.0063116336 0.10298703
-0.061106596 0.080406606 0.06424528 0.11713636 -0.1575201 -0.14819983 -0.023411628 0.15589237
0.20634297 -0.12057368 0.09544785 -0.17180535 -0.0055009057 0.16627036 0.1578524 -0.13862245
-0.06389666 0.023169257 -0.118437216 0.0038918608 -0.21190296 0.06637564 -0.17890336 -0.3151814
-0.062651396 -0.046881028 -0.09203338 0.15119885 -0.13707696 0.02587482 -0.22920452 -0.26218382
-0.2859282 0.09299812 -0.08048619 0.038536824 0.14419933 -0.18803945 0.064214006 -0.061804004
-0.19192545 0.28345534 0.059241798 -0.098123714 -0.008374796 -0.12878868 0.21023533 0.024429016
-0.10356236 -0.162783 -0.11438878 -0.049850516 -0.11076922 -0.13168423 0.043761384 -0.20596477
-0.104641885 0.020753255 -0.1999783 -0.13564885 0.19463594 -0.041822493 0.101075396 -0.007710524
-0.016805736 -0.05109137 0.09258274 0.16935688 0.017787442 0.09727716 -0.004956681 0.06037198
-0.05697303 0.24633469 -0.057179708 -0.0130119305 0.07197761 -0.09199011 0.19198735 0.07738945
0.2091846 0.076861374 -0.0041211676 0.056911573 0.019571245 0.07082378 0.09284789 -0.31597224
-0.14157487 0.14195868 0.11269917 -0.22910006 -0.07767842 0.07444065 0.25692356 0.047439985
0.18569182 -0.1896464 -0.054563243 -0.07860203 0.16954674 0.025793973 -0.14474574 -0.21003449
0.04253122 0.051594354 -0.06865197 0.31798983 -0.038629163 0.25244796 0.032766096 -0.10107474
0.055375904 -0.009505297 0.026210776 0.07337453 0.05346243 -0.27288494 0.19434376 -0.21394311
0.04102415 0.020053571 -0.046182495 0.15822214 0.18426928 0.017511977 0.14792103 0.24052545
0.26839086 -0.15455717 -0.02968953 -0.09503084 0.13626218 0.111671165 -0.0111188935 -0.19611026
0.064288974 -0.16947824 -0.004858795 -0.17844144 0.08378084 0.06452523 0.12931389 -0.052132305
0.21173753 0.11787925 -0.015621649 -0.050619956 0.2240347 -0.023925591 -0.094557986 -0.24610253
-0.02881065 -0.097881645 0.12620518 0.04678202 0.17886725 0.09276057 0.16134176 -0.0018216377
0.1327622 -0.025279209 0.023236638 -0.2360793 0.11325293 0.09180206 -0.007890771 0.0011333082
0.036744244 -0.1356172 -0.3246521 -0.008361515 0.0134657 0.096378885 -0.065741315 0.085784435
0.1225968 0.055049203 0.28566828 -0.1698623 0.09082432 -0.11695025 -0.08506179 0.01410542
-0.17980796 0.15646447 0.107081905 -0.17287022 0.13037992 0.096185766 -0.12746114 0.077026
-0.13595152 0.12759742 0.04516285 -0.0028959475 0.048439424 -0.08790106 0.10577026 -0.091486864
0.00082238903 -0.09265589 -0.1740619 0.15177698 0.016961988 0.11984641 0.0125807235 0.072283626
0.017863864 -0.19227922 0.2785204 -0.1691338 -0.27181372 0.013629442 -0.1983927 0.008903139
0.15172085 0.088001184 -0.03166557 0.094843164 0.10080224 -0.050551895 -0.18239099 0.17407013
-0.07628421 -0.13337447 0.055009842 -0.0028356074 -0.02476318 -0.028970705 -0.14500092 -0.14075841
-0.13289906 -0.28790098 0.033525433 0.19638878 0.11665521 -0.26449236 0.065658495 0.15907352
00000000: bc0d 823d 2b48 f73b 8f76 0fbd 7368 f5bb
00000010: 864b 613b f065 403c aace 0a3d 6e5d 783d
00000020: 75ee d83d a221 14be d7ca a53d 696c 633d
00000030: 37bf 91bc 43ff 213e d2d1 cebb ddea d23d
00000040: e94a 7abd 38ac a43d 0893 833d 30e5 ef3d
00000050: f34c 21be b2c1 17be bec9 bfbc 40a2 1f3e
00000060: 924b 533e 55ef f6bd 2a7a c33d beed 2fbe
00000070: f140 b4bb c742 2a3e 0fa4 213e 0bf3 0dbe
00000080: 41dc 82bd 74cd bd3c 368f f2bd 970e 7f3b
00000090: 17fd 58be f4ef 873d 7132 37be 755f a1be
000000a0: 604f 80bd 5206 40bd ff7b bcbd dfd3 1a3e
000000b0: e75d 0cbe 6ef7 d33c 97b4 6abe f53c 86be
000000c0: 2e65 92be cc75 be3d f2d5 a4bd cad8 1d3d
000000d0: fda8 133e 6a8d 40be a282 833d 3226 7dbd
000000e0: 1b88 44be 0f21 913e 87a7 723d 16f5 c8bd
000000f0: 7136 09bc 2ee1 03be ee47 573e 5c1f c83c
00000100: 8118 d4bd 96b0 26be aa44 eabd 0e30 4cbd
00000110: f9da e2bd 3bd8 06be 233f 333d 6ee8 52be
00000120: 7c4e d6bd bb02 aa3c 1dc7 4cbe 88e7 0abe
00000130: a54e 473e 104e 2bbd 9e00 cf3d 90a8 fcbb
00000140: 2fac 89bc 2f45 51bd 059c bd3d e46b 2d3e
00000150: f8b6 913c 3f39 c73d a76b a2bb 9c48 773d
00000160: 8d5c 69bd 293f 7c3e 4535 6abd fe2f 55bc
00000170: ff68 933d 5065 bcbd 5598 443e 5c7e 9e3d
00000180: 7d34 563e 7f69 9d3d dc0a 87bb 1c1c 693d
00000190: e053 a03c 0f0c 913d 0927 be3d 1dc7 a1be
000001a0: 01f9 10be 9e5d 113e d3ce e63d 3599 6abe
000001b0: dd15 9fbd 5774 983d 7c8b 833e 6e50 423d
000001c0: ff25 3e3e aa32 42be b57d 5fbd 1afa a0bd
000001d0: a99d 2d3e e24d d33c 3a38 14be 4813 57be
000001e0: 3735 2e3d 9a54 533d 6799 8cbd 90cf a23e
000001f0: 9d39 1ebd dc40 813e be35 063d 4600 cfbd
00000200: d8d1 623d 1bbc 1bbc fbb7 d63c 6345 963d
00000210: 6cfb 5a3d 93b7 8bbe 0d02 473e e713 5bbe
00000220: f008 283d 6347 a43c db29 3dbd fc04 223e
00000230: 16b1 3c3e 4775 8f3c 9c78 173e 4e4c 763e
00000240: 876a 893e 3c44 1ebe 7537 f3bc 879f c2bd
00000250: 5088 0b3e dab3 e43d 052c 36bc 21d1 48be
00000260: f0a9 833d b48b 2dbe 8736 9fbb 5ab9 36be
00000270: 4a95 ab3d ce25 843d dc6a 043e af88 55bd
00000280: b9d1 583e ad6a f13d f2f1 7fbc df56 4fbd
00000290: 5a69 653e 9aff c3bc 9ea7 c1bd 4d02 7cbe
000002a0: 5004 ecbc 2c76 c8bd ee3b 013e 819e 3f3d
000002b0: fa28 373e 41f9 bd3d c636 253e 05c4 eeba
000002c0: d0f2 073e 5816 cfbc c35a be3c c6be 71be
000002d0: 27f1 e73d b802 bc3d 4b48 01bc 838b 943a
000002e0: 2281 163d 3cdf 0abe cd38 a6be bcfe 08bc
000002f0: 3d9f 5c3c 4b62 c53d 62a3 86bd c0af af3d
00000300: 0814 fb3d 467b 613d 1d43 923e 62f0 2dbe
00000310: 1a02 ba3d 9d83 efbd e034 aebd 6b1a 673c
00000320: 941f 38be 3938 203e c24d db3d e404 31be
00000330: 5082 053e 0bfd c43d 2c85 02be cfbf 9d3d
00000340: e036 0bbe e6a8 023e aefc 383d f0c9 3dbb
00000350: 6b68 463d 7905 b4bd 149e d83d 775d bbbd
00000360: 9895 573a 5fc2 bdbd 483d 32be 6d6b 1b3e
00000370: def3 8a3c 0972 f53d 611f 4e3c 7009 943d
00000380: 3d57 923c d8e4 44be 3a9a 8e3e 6931 2dbe
00000390: 2b2b 8bbe 064e 5f3c 7527 4bbe 79de 113c
000003a0: b65c 1b3e f739 b43d c2b3 01bd 223d c23d
000003b0: 6871 ce3d 810f 4fbd b4c4 3abe 713f 323e
000003c0: e53a 9cbd 5193 08be 0052 613d 99d5 39bb
000003d0: 27dc cabc f953 edbc 1f7b 14be f922 10be
000003e0: b116 08be c267 93be f751 093d 241a 493e
000003f0: ede8 ee3d 8b6b 87be f677 863d 2be4 223e

linears.3.bias f4 [50]
-0.0071682064 -0.0024975697 -0.0035159932 -0.0017633048 0.0021792043 -0.006716527 0.002307729 0.0012140694
0.0020636334 -0.0041472977 0.0005498177 -0.0012560161 0.0030396308 0.0017627984 0.00017401794 -0.0038436772
0.0010090712 -0.0015647082 -0.002583755 -0.0010355163 -0.0045297276 -0.0005507032 -0.0011227797 -0.00018988876
-0.0005412397 -0.0004874111 -0.0013420929 -0.0033675563 -0.00046951795 -0.0037908095 -0.00051438075 0.0017818417
-0.0010656988 0.0034099012 0.00029639906 0.0026375528 -0.0019694865 0.00043306284 -0.0025465614 0.0021863787
0.0061558452 0.0028521025 -0.0009126481 0.0004756169 -0.0025902044 -0.0003483854 -0.0016256779 -0.001243787
0.0025410242 0.001123106
00000000: 46e3 eabb 44ae 23bb 946c 66bb b11e e7ba
00000010: fbd0 0e3b 5016 dcbb 453d 173b 6921 9f3a
00000020: 063e 073b 0ee6 87bb a421 103a e8a0 a4ba
00000030: 8b34 473b b30d e73a 9678 3639 34e6 7bbb
00000040: d042 843a e516 cdba 3754 29bb 29ba 87ba
00000050: 1c6e 94bb 115d 10ba 3c2a 93ba e01c 47b9
00000060: fbe1 0dba 368b ffb9 2ae9 afba 38b2 5cbb
00000070: a229 f6b9 3b6f 78bb 82d7 06ba b08c e93a
00000080: ebae 8bba a678 5f3b 0266 9b39 cbda 2c3b
00000090: 8012 01bb b60c e339 36e4 26bb 5949 0f3b
000000a0: f9b6 c93b 57ea 3a3b c73e 6fba 385c f939
000000b0: 6bc0 29bb 7fa7 b6b9 b314 d5ba 9106 a3ba
000000c0: 5087 263b 2f35 933a

linears.4.weight f4 [50, 50]
-0.07987632 -0.24819823 0.026724435 -0.087456 -0.17890902 0.27664578 0.15524183 -0.01000764
0.14919661 -0.045159686 0.37921068 -0.0668062 0.14646214 0.030406518 0.026556017 0.078928895
-0.057634823 -0.05166829 -0.13432547 -0.0331826 -0.22633451 -0.1257654 -0.18565203 -0.3585393
-0.121051475 -0.04205151 0.1624395 -0.19529524 0.07663545 -0.14510636 -0.0037286454 -0.08636899
0.04541085 -0.056704868 -0.158112 0.004495642 -0.057029605 0.0019603018 0.051656555 0.3114811
0.07789859 0.25495028 -0.013521821 -0.10987421 -0.030820252 -0.052667376 -0.086409144 0.09670494
0.1938891 0.070545346 -0.1703313 -0.00912848 0.10070839 0.12757064 -0.06636626 -0.08261936
-0.03211801 0.105453506 0.12533554 0.035079654 -0.13478127 0.06329399 -0.12303501 0.09576835
-0.20783024 0.21208814 -0.032831877 0.19016948 -0.027502343 -0.06307021 -0.0066308016 -0.20970856
0.12037462 -0.04072043 -0.19102453 0.1099334 -0.13152538 -0.17208552 0.28184032 -0.04455584
-0.059524346 0.05865486 0.045728266 -0.021385826 -0.036989212 -0.04102924 0.12695989 -0.161731
0.16508774 -0.035832327 0.004185095 -0.16468133 0.0043766154 -0.14656906 0.2964162 -0.24582554
-0.05089091 0.2193531 -0.033211168 -0.058069542 -0.019291574 0.025536321 -0.020502623 -0.03613545
-0.044872124 -0.27923393 0.013514162 -0.2206852 0.0896937 -0.22939406 0.045943145 0.10366248
-0.25933686 -0.008176615 -0.16873378 -0.044193406 -0.027391767 -0.102248654 -0.2027489 -0.0084315315
0.1241103 0.11334655 0.036768075 -0.03578768 -0.026500385 0.044671267 0.02822871 -0.029137652
0.04291079 0.12045449 0.069776185 -0.2066011 -0.120419376 -0.06827373 0.25362366 -0.09625722
-0.007861449 -0.06170447 0.10904844 0.052331354 -0.2870451 -0.029443232 0.26261398 0.04623031
-0.037315685 0.059991173 -0.07987746 -0.11688513 0.18793651 -0.0046547037 0.10725141 0.26741466
-0.07468693 -0.071419574 -0.05958243 -0.1184679 0.05101185 -0.11785341 -0.1723836 0.06360859
-0.1282621 0.09717689 -0.21748336 0.04134445 0.31710365 -0.0049034036 -0.008857037 0.08435448
-0.14990465 0.1125574 0.110216886 -0.06803362 -0.08112661 0.3080247 0.2671491 -0.026208552
-0.027067887 0.17055665 0.10530725 0.24980202 -0.08133923 0.14037843 -0.029514853 -0.12449267
-0.12067221 -0.047447167 0.07444552 0.04434999 0.1123552 0.12924685 -0.15832113 0.06316318
-0.00094777945 -0.047063947 0.009801499 0.00081178424 -0.03389156 0.041012764 -0.10448801 0.17097543
0.043059394 0.111611634 0.013399273 -0.12878501 0.14492859 0.09496118 -0.19982487 -0.060346816
-0.2850639 0.16232412 -0.05004045 0.067851126 -0.032870084 -0.1093136 0.052587207 0.13600859
0.14015383 0.091438875 -0.027035743 -0.026618198 -0.31174028 -0.16149376 0.21254052 -0.119771756
0.036910497 0.056754537 -0.061349742 0.30968168 0.1410389 -0.019166516 0.12336951 0.2077779
-0.24519938 -0.15787636 -0.20813146 -0.31495062 -0.022840995 -0.08618822 -0.16901226 0.123439714
0.036896225 -0.042526577 -0.19803031 0.13096157 -0.07896575 0.029093811 0.21505769 -0.14420049
0.026475092 -0.0018878916 -0.17055269 0.08259409 -0.16545387 -0.30303568 0.14402862 -0.34835458
00000000: 3296 a3bd ad27 7ebe 34ed da3c 221c b3bd
00000010: ed33 37be 84a4 8d3e b7f7 1e3e 16f7 23bc
00000020: ffc6 183e 5df9 38bd e727 c23e b0d1 88bd
00000030: 2cfa 153e 1717 f93c 018c d93c 79a5 a13d
00000040: 7e12 6cbd 21a2 53bd 9e8c 09be 7aea 07bd
00000050: 3cc4 67be a5c8 00be 911b 3ebe 7792 b7be
00000060: d6e9 f7bd 343e 2cbd 8a56 263e 7afb 47be
00000070: 0cf3 9c3d c396 14be 4a5c 74bb 3ae2 b0bd
00000080: ba00 3a3d 5d43 68bd 1de8 21be 2e50 933b
00000090: e097 69bd 6878 003b d395 533d 737a 9f3e
000000a0: 4c89 9f3d d888 823e a18a 5dbc bb05 e1bd
000000b0: c17a fcbc bfb9 57bd 47f7 b0bd 3d0d c63d
000000c0: dd8a 463e 147a 903d 546b 2ebe 9f8f 15bc
000000d0: 3340 ce3d e1a1 023e 09eb 87bd 5734 a9bd
000000e0: 2d8e 03bd 02f8 d73d f657 003e afaf 0f3d
000000f0: 1a04 0abe 48a0 813d c8f9 fbbd 3222 c43d
00000100: 73d1 54be a22d 593e b87a 06bd cabb 423e
00000110: 984c e1bc f42a 81bd 3247 d9bb d7bd 56be
00000120: f886 f63d 77ca 26bd ef9b 43be c324 e13d
00000130: 97ae 06be 3037 30be 604d 903e 2f80 36bd
00000140: cdcf 73bd 1440 703d 904d 3b3d 5431 afbc
00000150: 0082 17bd 470e 28bd c601 023e d09c 25be
00000160: c30c 293e ebc4 12bd 1f23 893b 39a2 28be
00000170: b669 8f3b 3316 16be ddc3 973e b1b9 7bbe
00000180: fd72 50bd 199e 603e 6f08 08bd 54da 6dbd
00000190: 5d09 9ebc 8c31 d13c 1ef5 a7bc c402 14bd
000001a0: d5cb 37bd c0f7 8ebe 816a 5d3c 4dfb 61be
000001b0: 55b1 b73d 47e6 6abe e12e 3c3d ff4c d43d
000001c0: cdc7 84be 36f7 05bc 8cc8 2cbe 2504 35bd
000001d0: b364 e0bc be67 d1bd 689d 4fbe 6824 0abc
000001e0: 8a2d fe3d 3c22 e83d 1f9a 163d 1a96 12bd
000001f0: 5617 d9bc 38f9 363d e53f e73c 16b2 eebc
00000200: 39c3 2f3d d8b0 f63d d1e6 8e3d 3d8f 53be
00000210: 6f9e f6bd 19d3 8bbd f6da 813e 8122 c5bd
00000220: 4fcd 00bc d4bd 7cbd ca54 df3d 6759 563d
00000230: 93f7 92be ef32 f1bc 5775 863e fe5b 3d3d
00000240: 55d8 18bd 4eb9 753d cb96 a3bd 7961 efbd
00000250: 6e72 403e 7c86 98bb a1a6 db3d 93ea 883e
00000260: 76f5 98bd 6d44 92bd b50c 74bd 4c9f f2bd
00000270: cdf1 503d 215d f1bd 5485 30be 3845 823d
00000280: 2457 03be ad04 c73d f5b3 5ebe cc58 293d
00000290: 695b a23e bbac a0bb 1b1d 11bc 0bc2 ac3d
000002a0: 9b80 19be 7e84 e63d 64b9 e13d 3655 8bbd
000002b0: b525 a6bd 6ab5 9d3e c4c7 883e 51b3 d6bc
000002c0: 79bd ddbc 67a6 2e3e 54ab d73d 1acc 7f3e
000002d0: 2f95 a6bd 5dbf 0f3e 22c9 f1bc 03f6 febd
000002e0: fe22 f7bd f657 42bd e576 983d 56a8 353d
000002f0: 7c1a e63d 4959 043e ef1e 22be b35b 813d
00000300: 6774 78ba 20c6 40bd 7796 203c ebcd 543a
00000310: e0d1 0abd 00fd 273d cffd d5bd 2f14 2f3e
00000320: 0c5f 303d a494 e43d a088 5b3c 38e0 03be
00000330: 2968 143e 027b c23d e49e 4cbe 392e 77bd
00000340: e5f3 91be 4b38 263e 37f7 4cbd 88f5 8a3d
00000350: c8a2 06bd cfdf dfbd af65 573d d645 0b3e
00000360: 7c84 0f3e 4e44 bb3d 107a ddbc 680e dabc
00000370: 6c9c 9fbe 9f5e 25be 39a4 593e e54a f5bd
00000380: 762f 173d 7277 683d de49 7bbd 998e 9e3e
00000390: 806c 103e 1903 9dbc 27a9 fc3d bbc3 543e
000003a0: 8c15 7bbe 57aa 21be 6a20 55be 3541 a1be
000003b0: 0a1d bbbc 7383 b0bd 8d11 2dbe f6cd fc3d
000003c0: 7f20 173d 5930 2ebd 75c8 4abe ca1a 063e
000003d0: ccb8 a1bd 2556 ee3c 1538 5c3e 4ba9 13be
000003e0: 4be2 d83c 2173 f7ba 5da5 2ebe 1727 a93d
000003f0: bd6c 29be 7e27 9bbe 3d7c 133e 885b b2be

linears.4.bias f4 [50]
0.008509123 -0.0015047565 -0.0020647114 0.002037514 -9.3897484e-05 0.0012785932 0.0017972657 -0.0041897926
-0.00064574915 6.264273e-05 -2.9028432e-05 -6.9684764e-05 0.0026690383 -0.0029228642 -0.00016594293 -0.0042292196
0.0037368762 -0.0015880641 0.007765637 0.0018688004 0.00024425148 0.0008466414 -0.00014912222 9.101939e-05
1.0081206e-06 -9.605704e-05 -0.00025064466 0.0041529397 0.0011107349 -0.0023317945 0.0010176179 -0.00083425967
-0.00033741345 0.0015245635 0.0007871301 0.004229453 -0.005038402 0.0021176545 -0.001085792 -0.0008440352
0.005673875 0.0008017625 -0.00037762776 6.603536e-05 0.0011507577 0.00022739747 0.00030176973 0.0023873912
0.0009048165 -0.0001288804
00000000: d969 0b3c 403b c5ba 1c50 07bb d087 053b
00000010: d4ea c4b8 7896 a73a 3b92 eb3a 874a 89bb
00000020: 7e47 29ba 0f5f 8338 1582 f3b7 b923 92b8
00000030: 08eb 2e3b 868d 3fbb f700 2eb9 4495 8abb
00000040: 61e6 743b 9726 d0ba e276 fe3b 89f2 f43a
00000050: e10e 8039 24f1 5d3a b15d 1cb9 aae1 be38
00000060: c34e 8735 3b72 c9b8 f568 83b9 6215 883b
00000070: 1496 913a 05d1 18bb 9761 853a 38b2 5aba
00000080: dee6 b0b9 ddd3 c73a 6857 4e3a 3997 8a3b
00000090: 2e19 a5bb 59c8 0a3b 2251 8eba 3e42 5dba
000000a0: eaeb b93b 5f2d 523a 57fc c5b9 777c 8a38
000000b0: 05d5 963a 8b71 6e39 d936 9e39 c775 1c3b
000000c0: 3531 6d3a 1224 07b9

linears.5.weight f4 [50, 50]
-0.10878323 0.097770415 0.23905277 -0.024727304 0.11080344 0.08000777 0.113237694 0.071863
-0.15757163 0.1469266 0.06823267 -0.21581379 -0.15863408 -0.08438678 -0.2095378 -0.12837301
-0.0733766 -0.047445063 -0.0041314336 -0.030643519 -0.040807076 0.011593142 0.22688067 0.13801622
0.098603524 -0.20357223 -0.070784114 0.016219886 -0.035430975 0.08298548 0.117866546 0.18976507
-0.069418274 0.080137305 0.22057052 0.22060354 -0.05635132 0.21107174 0.015561586 -0.091088586
-0.08811918 0.19240601 0.26422238 0.0020508766 0.0074092443 -0.27849308 0.13590117 0.038586874
-0.13262741 0.094073646 0.058219887 -0.046035048 -0.12929378 0.010296318 0.12500545 0.1398986
-0.055474285 -0.031856176 0.14773783 -0.2800629 -0.030042278 0.068150625 -0.10339005 -0.108285055
-0.44214335 0.034941975 0.0035800522 -0.2003742 -0.12617657 -0.17437175 -0.1358117 0.13436782
-0.17212732 -0.23291868 -0.25650048 -0.043626033 -0.05169683 -0.18525101 0.016955778 -0.15520142
-0.12741607 -0.11184712 0.26145777 0.23423235 -0.06692112 0.085557275 0.096188426 0.20902191
-0.1643004 -0.16257547 0.12014767 -0.15612063 0.01047937 0.03926357 -0.10329322 -0.06239027
0.05418889 0.2317167 0.17292954 0.18807022 -0.05077184 0.21748722 -0.025264805 0.12316353
0.10053968 -0.09722576 0.17894177 -0.0959925 0.11529515 0.06205002 0.16957296 -0.16419981
-0.05220437 -0.022644002 0.5465304 0.2355518 0.033347387 0.4690426 0.13199277 0.057071067
0.2724891 0.18879505 -0.07772047 0.12600917 0.12050893 0.025156463 0.099653594 0.10912534
0.22280654 0.09431059 -0.15205674 -0.120004445 -0.026652377 -0.10417733 0.08027304 0.14691974
0.06905353 -0.015352252 0.08781688 0.10052854 0.14079064 0.1111882 0.029069223 -0.06426938
0.2791687 0.12764591 0.06879115 -0.11493595 -0.09491462 -0.013905379 0.33701023 0.12134698
-0.1842053 0.0021506448 0.09138839 0.08757942 -0.0047886474 0.028621688 0.015159854 -0.13451025
-0.030710626 -0.045206804 -0.2523807 0.03878959 0.016863493 0.021461478 -0.18142223 0.1044181
0.12991786 -0.0243809 -0.039523557 -0.12461844 -0.10870529 0.2003408 -0.053060237 -0.124072246
-0.009905184 -0.036282323 0.18659015 0.05875839 0.14770944 -0.061615467 0.010140868 -0.0062731155
0.10752051 -0.12190445 0.25171706 0.20621684 0.06770051 -0.32659578 -0.14388886 -0.42947182
-0.09351065 0.028613726 -0.14816777 -0.22797199 0.043485228 0.017075524 0.07517924 -0.20455782
0.06700517 0.22771464 -0.0058923797 0.18180726 -0.23597452 -0.030884363 -0.27662915 -0.09656694
-0.015391112 -0.13067158 -0.03489868 0.16659369 0.011941181 -0.11618573 -0.19818546 -0.1701013
-0.07951056 0.04566164 0.024958003 0.06277184 -0.1187756 0.22158118 -0.13879555 0.14476493
-0.09415769 0.20839345 -0.031313453 -0.2682178 0.23324792 -0.1298256 -0.18216728 -0.14240064
-0.0007107782 0.041204434 0.04567196 -0.068196766 -0.05355725 -0.24728219 -0.061717957 -0.03969182
-0.18340386 0.05775548 -0.04376065 -0.1291029 0.086718634 0.20444475 0.05839273 0.124949865
0.021629078 0.03920881 -0.008809713 -0.07520894 0.07830808 0.1426807 0.009865291 -0.12691031
00000000: bec9 debd db3b c83d 40ca 743e ea90 cabc
00000010: eaec e23d 1ddb a33d 2ae9 e73d e92c 933d
00000020: 755a 21be ed73 163e 92bd 8b3d 4afe 5cbe
00000030: f970 22be fad2 acbd 1491 56be 3774 03be
00000040: 7946 96bd c155 42bd fa60 87bb 1e08 fbbc
00000050: 5225 27bd 29f1 3d3c 6853 683e 2054 0d3e
00000060: a5f0 c93d 3d75 50be 43f7 90bd 91df 843c
00000070: 1220 11bd 4bf4 a93d 0464 f13d c651 423e
00000080: 2b2b 8ebd 071f a43d 3ddd 613e e5e5 613e
00000090: a4d0 66bd 3123 583e 06f6 7e3c a78c babd
000000a0: d477 b4bd 1506 453e 2848 873e 0068 063b
000000b0: 3fc9 f23b a596 8ebe ad29 0b3e 450d 1e3d
000000c0: 7bcf 07be afa9 c03d fa77 6e3d 3f8f 3cbd
000000d0: 9765 04be e3b1 283c 6e01 003e 9441 0f3e
000000e0: 0139 63bd 9f7b 02bd 9648 173e 6864 8fbe
000000f0: 391b f6bc 8e92 8b3d 2abe d3bd 8ec4 ddbd
00000100: 9d60 e2be 511f 0f3d 4f9f 6a3b e52e 4dbe
00000110: 6e34 01be 828e 32be 3912 0bbe b897 093e
00000120: 2542 30be 3c82 6ebe 0854 83be 36b1 32bd
00000130: 0ec0 53bd 71b2 3dbe d8e6 8a3c 1fed 1ebe
00000140: 5c79 02be 1a10 e5bd cbdd 853e 9bda 6f3e
00000150: f10d 89bd a738 af3d 70fe c43d d709 563e
00000160: 5d3e 28be 2f7a 26be fb0f f63d 16de 1fbe
00000170: aab1 2b3c d6d2 203d 658b d3bd f18c 7fbd
00000180: 2bf5 5d3d 2547 6d3e 7114 313e 7b95 403e
00000190: 22f6 4fbd f8b4 5e3e 23f8 cebc 293d fc3d
000001a0: bfe7 cd3d 4d1e c7bd 833c 373e b797 c4bd
000001b0: dd1f ec3d 2928 7e3d 89a4 2d3e ff23 28be
000001c0: 40d4 55bd ea7f b9bc 6be9 0b3f 7e34 713e
000001d0: 4597 083d 5a26 f03e 1d29 073e 5ac3 693d
000001e0: b183 8b3e 7d53 413e e92b 9fbd 8c08 013e
000001f0: 63cd f63d ed14 ce3c 2f17 cc3d 1b7d df3d
00000200: 6627 643e e925 c13d c3b4 1bbe e4c4 f5bd
00000210: 1656 dabc ed5a d5bd 3166 a43d 2172 163e
00000220: f06b 8d3d 0388 7bbc 56d9 b33d e8e1 cd3d
00000230: 6c2b 103e a4b6 e33d 9422 ee3c aa9f 83bd
00000240: 33ef 8e3e 9cb5 023e 60e2 8c3d 8a63 ebbd
00000250: 9962 c2bd 63d3 63bc 9b8c ac3e c484 f83d
00000260: 50a0 3cbe d5f1 0c3b d629 bb3d d75c b33d
00000270: 16ea 9cbb 0878 ea3c 0961 783c 0ebd 09be
00000280: da94 fbbc c52a 39bd 0b38 81be d5e1 1e3d
00000290: 4f25 8a3c fbcf af3c c0c6 39be 28d9 d53d
000002a0: 3009 053e 74ba c7bc 74e3 21bd f437 ffbd
000002b0: e1a0 debd 2426 4d3e b155 59bd 9719 febd
000002c0: 5a49 22bc c69c 14bd 7d11 3f3e a3ac 703d
000002d0: 2541 173e 8060 7cbd e225 263c b58e cdbb
000002e0: b733 dc3d 0aa9 f9bd 0fe1 803e 822a 533e
000002f0: 91a6 8a3d 9037 a7be 9a57 13be bbe3 dbbe
00000300: 8382 bfbd 5567 ea3c 4bb9 17be 7d71 69be
00000310: 911d 323d f8e1 8b3c 93f7 993d 9b77 51be
00000320: 023a 893d 072e 693e dd14 c1bb af2b 3a3e
00000330: 4ea3 71be 3401 fdbc 56a2 8dbe e3c4 c5bd
00000340: 012b 7cbc c5ce 05be ebf1 0ebd 8997 2a3e
00000350: f1a4 433c c9f2 edbd 21f1 4abe 092f 2ebe
00000360: 6fd6 a2bd b307 3b3d ba74 cc3c 868e 803d
00000370: 9f40 f3bd 2de6 623e 6c20 0ebe 423d 143e
00000380: bfd5 c0bd 1865 553e 8942 00bd d853 89be
00000390: 8bd8 6e3e 01f1 04be 0f8a 3abe 79d1 11be
000003a0: 8453 3aba fbc5 283d 8512 3b3d bfaa 8bbd
000003b0: d95e 5bbd 8b37 7dbe f8cb 7cbd e493 22bd
000003c0: 39ce 3bbe 0391 6c3d 5e3e 33bd 8d33 04be
000003d0: 8a99 b13d f759 513e 372d 6f3d b7e5 ff3d
000003e0: 772f b13c 6b99 203d 9d56 10bc 2507 9abd
000003f0: fd5f a03d e41a 123e 08a2 213c c7f4 01be

linears.5.bias f4 [50]
0.0032804767 -0.0011925229 -0.0011158264 -0.00234708 -0.0006669378 0.0005660673 -0.0021071925 -0.0056658047
0.00080098875 3.4868142e-05 -0.0012571166 -0.0017002732 -0.0014609549 -0.00048248278 -0.0035146717 0.003613832
0.0011216223 -0.00013397254 -0.00011503972 -0.0022907679 0.0037633576 0.0002643465 0.0002877285 -0.0023889106
-0.0029168457 0.0088871885 0.004275354 0.001851873 -0.0005022666 0.0025560039 9.393978e-05 -0.00013840717
0.0015887661 -0.006000993 -0.0034724548 0.0002704549 0.00032859572 -0.0026571346 -0.0017575552 0.0032196564
-0.00058434583 -0.005195348 -0.008337255 -0.00024694705 0.0008401771 0.002086167 0.005507182 0.0012974085
-4.250869e-05 -0.0042538964
00000000: 44fd 563b 6e4e 9cba ec40 92ba 78d1 19bb
00000010: 70d5 2eba 2264 143a d318 0abb 37a8 b9bb
00000020: 72f9 513a 623f 1238 d5c5 a4ba b4db deba
00000030: 837d bfba bef5 fcb9 6856 66bb 0ad6 6c3b
00000040: 6603 933a fb7a 0cb9 7b41 f1b8 b520 16bb
00000050: aaa2 763b fd97 8a39 44da 9639 458f 1cbb
00000060: 8d28 3fbb 929b 113c 4518 8c3b 8cba f23a
00000070: 8aaa 03ba a182 273b 8901 c538 6421 11b9
00000080: 253e d03a faa3 c4bb 2092 63bb d8cb 8d39
00000090: 5f47 ac39 5223 2ebb c45d e6ba df00 533b
000000a0: c92e 19ba bd3d aabb fb98 08bc ac78 81b9
000000b0: 553f 5c3a 13b8 083b 9775 b43b ce0d aa3a
000000c0: 5c4b 32b8 4564 8bbb
