Archived Code/Stan TPAMI/Regression/Discontinuous1/rowdy_tune/Regr_disc_rowdy_tune71_8.pt (torch, 35582 bytes, 12 tensors)

omega1 f4 [4, 1]
00000000: 806a 5140 ad3f 863f b022 5b40 2068 1640
3.2721252 1.0488182 3.4239922 2.3501053

alpha f4 [8, 4]
00000000: 3651 c4bf 0465 55c0 690f 0c40 de07 063e
00000010: 691f af3f 69bb bb3e 1eef 3740 22a2 6e3d
00000020: 93a8 2ec0 d657 61bf 5d30 3dc0 075d 6dbd
00000030: 3830 0dc0 6af0 e6be af01 3ebf 3eea eabd
00000040: d18a 0d41 fea2 d93f f4e3 6bbf aeee 363e
00000050: c4b1 b440 cc8e d83f 3111 f73d 9b86 d13e
00000060: fcb5 bcbe cb11 eec0 f8ff 3dc0 74ad ddbd
00000070: 1fcb 3b40 7398 87c0 2068 973e 5139 0d3e
-1.5337284 -3.3342905 2.1884406 0.13088939 1.3681461 0.3666642 2.8739696 0.05826009
-2.729039 -0.8802465 -2.9560769 -0.057950046 -2.206068 -0.45105296 -0.7422132 -0.114704594
8.846391 1.7002866 -0.92144704 0.17864487 5.6467 1.6918578 0.12063826 0.40923008
-0.36857593 -7.439672 -2.968748 -0.10824099 2.9342725 -4.2373595 0.2957163 0.13791396

omega f4 [8, 4]
00000000: 5d3b 9640 410d ddc0 bc68 56be dcc3 68be
00000010: 8d59 6c3f 4879 b8c0 4f69 5540 3f4a d63f
00000020: 86f9 0140 1b7c 8dbe c1e6 1a3f ccac b93f
00000030: 485a 8fbf f2a3 1240 f2d4 f23f 711e 84c0
00000040: 70c2 0141 5c76 59c0 245b aebf f366 963f
00000050: 8863 6e40 0435 b3bf 7e59 c93f 9c49 b5bf
00000060: 6deb 9bc0 8bda 9ac0 c4b7 9cc0 5544 6ebd
00000070: d04d 06c0 ca1c 3640 2d31 5bc0 b30c 5840
4.6947465 -6.907868 -0.2093839 -0.22730964 0.92324144 -5.764805 3.3345525 1.6741408
2.0308547 -0.27633747 0.6050835 1.4505858 -1.1199427 2.2912564 1.8971236 -4.128716
8.10997 -3.397849 -1.3621564 1.1750168 3.724825 -1.4000554 1.5730436 -1.4163089
-4.8724885 -4.8391776 -4.8974323 -0.058170635 -2.0984993 2.8455071 -3.4248765 3.375775

linears.0.weight f4 [50, 1]
00000000: 9f37 39be 1d60 00c0 93e9 663f 6b3e 113f
00000010: b4d2 fa3e eac7 c1c0 e038 f2bf e642 2640
00000020: 3161 ffbe 283e ddc0 70de 2a40 e38d 28c1
00000030: f9c5 9b40 4992 56c0 88d7 0f40 9df5 b440
00000040: b930 0441 451e 823f 81af 6640 9d70 1ebf
00000050: 7f7e 6640 c45c 293f 8498 b340 b1c6 94c0
00000060: 3bac fdbf 3953 5940 0405 813e dde1 8f40
00000070: 9e92 86be 3326 b040 4ee5 4340 00ea f23f
00000080: 75e8 d9c0 23ab 58c1 6a17 b1c0 2f7c 2540
00000090: 36c3 bcc0 f405 9c40 c15f 653f 3d7b c5bf
000000a0: af8c 0ac0 c810 0841 3cd5 cbbc 4924 8040
000000b0: 73e0 d5c0 6091 04c1 1e46 3fc0 f11a d13d
000000c0: d70d 07c0 4917 e03f
-0.18087624 -2.0058663 0.90200156 0.5673587 0.4898888 -6.0556536 -1.8923607 2.5978332
-0.4987884 -6.9138374 2.6698265 -10.53464 4.8679166 -3.3526785 2.24753 5.654982
8.261895 1.0165488 3.604462 -0.61890584 3.6014707 0.66157174 5.6123676 -4.6492543
-1.9818186 3.3957045 0.2519914 4.496321 -0.26283735 5.504663 3.0608706 1.8977661
-6.809626 -13.541781 -5.534108 2.5857046 -5.8988295 4.8757267 0.89599234 -1.5428234
-2.1648366 8.504097 -0.024881952 4.0044293 -6.6836486 -8.285492 -2.9886546 0.10210217
-2.1102197 1.7507106

linears.0.bias f4 [50]
00000000: 79ee 7ebf d5e3 abbf efe7 8d3e 3f57 2b3f
00000010: 50ed 84bf 4b4f 97c0 0303 01c0 ce28 4540
00000020: d384 89bf 8251 91c0 1166 9640 9b9e 27c1
00000030: 1cd9 a040 e893 03c0 b4ba 1840 c113 9e40
00000040: 8e50 2141 caf9 cbbe b9a6 9140 81b3 aebf
00000050: 76ac 9040 1d86 7ebe bc02 c740 0d47 90c0
00000060: 654a 19c0 2c59 5240 2030 bc3e 7fae 8c40
00000070: 0056 59bd 23c7 a140 e00f 3940 dad8 4240
00000080: 61c6 07c1 63b2 66c1 0b3a 9ec0 5e99 773f
00000090: 56dc 92c0 8726 c740 e913 913f aef5 0cc0
000000a0: 85cb 87bf d0f4 dd40 e9c4 273e d800 8440
000000b0: eaa4 d4c0 38ca 08c1 cb81 13c0 fc09 f33e
000000c0: 15f7 24c0 a2ee 6140
-0.9958263 -1.3428904 0.27716014 0.6693 -1.0384922 -4.7284293 -2.0158088 3.0806155
-1.074366 -4.5411997 4.6999593 -10.476222 5.0265026 -2.0559025 2.3863955 4.9399114
10.082167 -0.3983901 4.551602 -1.364853 4.5210524 -0.24855848 6.219084 -4.508673
-2.3951657 3.2866926 0.36755466 4.396301 -0.05306053 5.0555587 2.891594 3.0444856
-8.485932 -14.418551 -4.9445853 0.96718395 -4.5893965 6.223453 1.1334201 -2.202495
-1.0608984 6.9361343 0.16383709 4.125103 -6.645131 -8.54937 -2.304797 0.47468555
-2.5775807 3.53019

linears.1.weight f4 [50, 50]
00000000: 8d11 13c0 67b3 123f 19a2 2bbf 0164 16bf
00000010: fe01 2640 f950 0cc1 c524 ebc0 b53b 28c0
00000020: 09f0 e4c0 43c2 8040 b8bb 80c0 7696 50c1
00000030: cd2f ddbf 2a7a 8b3f 60f6 3ac1 04dc bb40
00000040: 5f1a b0c0 58f7 bfbe b9c1 35c0 54e8 0041
00000050: 75ce 0f41 4801 0ac0 829d 26c0 4321 29bf
00000060: 6d03 edc0 6267 86bf d4f2 19bf 7347 b7be
00000070: 7d68 5040 4ac2 4740 eb34 473e ecf9 7bbf
00000080: 67e2 f0c0 f9ff f240 d46a 2c3f 979e 04c0
00000090: b2e9 0cc0 f075 5140 5e82 adbf 27f8 3840
000000a0: 755c 0bc0 ec88 d1bf d556 0b3e f0a0 5b40
000000b0: 9c81 f540 2597 d9bf 6160 74c0 d189 50bf
000000c0: 8468 9c40 6d60 2e40 df40 e43f 4555 873c
000000d0: a290 14c0 feb7 9340 521c ae40 2407 3c3c
000000e0: 607e 1a3f 0877 1541 0d34 de3f 0d38 dd3f
000000f0: f9bd ea3d 9c81 2a41 db2c ea40 ac1d 3140
00000100: d79c 55c0 0e53 e8c0 9057 3240 adea c840
00000110: 1990 d13f 6cf1 4fc0 43fe 4ec0 cad5 cb3f
00000120: aab1 d8bf 0619 ee40 6680 ec40 462f 52bf
00000130: ac60 eb3f da75 7fbf 51be ae3f 7584 343e
00000140: bb83 3d3e 3d7f b4bf a044 0141 3544 8f3f
00000150: 9f37 69c0 5ef7 0f40 34fe 0441 b9ef 5a40
00000160: 07c6 d040 637a c4c0 189e 0fbf 75a7 6c3e
00000170: e95b 48c0 b802 52c0 3c6e 4940 fa59 1fbf
00000180: a908 24c0 9a24 a43f 3543 2c40 b156 f840
00000190: 26fc 3c40 e8e5 bec0 e734 af3f f062 1fbf
000001a0: 717e dd3f ff7e 8a3f a462 ca3f c431 bd3f
000001b0: 8897 5740 c762 82c0 9069 dbbe 6f13 bfbf
000001c0: 409c bd40 5e0c c7bf 295b 1941 71b6 b140
000001d0: eabd 9b40 4892 4ec0 b054 f5be 0bec b2c0
000001e0: da69 28c0 7904 e0c0 05f4 3c3d e527 60c0
000001f0: 2687 95c0 c490 2e41 0496 bdc0 db58 8040
00000200: a08f f6bf 2eaa 29c0 4db9 f9bf ee3e 0640
00000210: 6c73 6cc0 32fd bcbf e2f5 0ac0 3700 c4c0
00000220: 14c9 37c0 4b41 4fbf 5016 3940 ebba 57c0
00000230: 250f 19c1 cc02 68c0 0e70 a2c0 0d18 b140
00000240: 987b babf c614 153f df37 3d40 4242 42bf
00000250: 7ca4 0dc1 f818 4fbf 995c a83f b2c0 e53f
00000260: 65e5 1ec0 9d76 d4bf e517 81bf 055d 8fc0
00000270: a824 3bc0 27ff 0e41 5853 bf3f fe04 69bf
00000280: 878b adc0 69d1 ed40 8bb2 99c0 5f94 9b40
00000290: 9a48 da40 4902 d5bf 579e e7bf 5eb3 33c1
000002a0: 3c91 1e41 36b8 e23f 030b 28c0 a01a 87c0
000002b0: b533 6cc0 2d54 1741 042f 9bbf 5691 6540
000002c0: df19 44c0 a26f 2440 918a 02c0 5622 06c0
000002d0: 978b 70c0 af3a dc3f 475e b13f 7edf bdc0
000002e0: 92ce 853f 4681 c3c0 cb54 3d41 ed59 36c0
000002f0: c08d 3940 87ea a0c0 0a07 9ac0 ae92 5ec0
00000300: bd9b 2f40 544a c7bf 6e5f 81bf 1954 07c1
00000310: 317d 1ac0 ee2b f23e 7986 04c0 373a 573d
00000320: 9156 27c0 e678 dac0 1ae4 4fc0 73cc 5cc0
00000330: ac9d 4bc0 f4a6 8bbf 8cec 3ac0 6138 56c1
00000340: 5763 4040 6a81 3f3f 395e 12c0 d670 4040
00000350: ff73 f23c 7ddd b7bf d463 9c3f 071e cc3e
00000360: f87c 9ec0 d4ab 7e40 f186 523f ac72 ca40
00000370: 5c65 8cbd 9f43 ea3f a555 93bf bae2 74c0
00000380: 3a77 7440 8cbf 95c0 eaeb b340 2636 96bf
00000390: ad41 09c1 d0a9 9340 17d3 22c0 60a5 3bc0
000003a0: dc9a 13c1 427d 0840 00a6 8b3f 3e71 b2c0
000003b0: 7ccd 2640 96e1 a7bf 5c5b 7bbe bb4d 0640
000003c0: 71a4 edc0 c02b 9f40 1338 08c0 a4ee 6cc0
000003d0: d393 50c0 8d85 d83e 6933 12c1 6eee b5bf
000003e0: 8b93 da3f 58f2 2b40 9e61 a0c0 57d3 f03e
000003f0: b9e0 e4bf e776 0441 da8d 21c1 a507 0e41
-2.2979462 0.57304996 -0.67044216 -0.58746344 2.5938716 -8.769769 -7.3482385 -2.6286442
-7.154301 4.0237136 -4.022915 -13.036734 -1.7280213 1.0896657 -11.68515 5.8706074
-5.503219 -0.37493396 -2.839949 8.056721 8.987905 -2.1563282 -2.6033635 -0.6606638
-7.406668 -1.05003 -0.6013615 -0.357967 3.2563775 3.1212335 0.1945378 -0.98428226
-7.527637 7.5937467 0.67350507 -2.0721796 -2.2017636 3.2728233 -1.355541 2.890146
-2.1775181 -1.636991 0.13607343 3.4316978 7.6720715 -1.6999251 -3.8183825 -0.8146029
4.8877583 2.7246354 1.7832297 0.016520152 -2.3213277 4.61621 5.440957 0.011476312
0.6034908 9.34156 1.7359635 1.728273 0.11462016 10.656643 7.3179755 2.767436
-3.3376977 -7.2601385 2.7865944 6.278647 1.63721 -3.2491102 -3.234269 1.5924618
-1.6929219 7.4405546 7.3906736 -0.82103384 1.8388877 -0.997892 1.365183 0.17628653
0.18507282 -1.410133 8.079254 1.119269 -3.6440198 2.249473 8.312061 3.4208815
6.5241733 -6.13994 -0.56100607 0.23110755 -3.1306098 -3.281416 3.1473532 -0.6224667
-2.5630286 1.282367 2.691602 7.7605824 2.95289 -5.9655647 1.368802 -0.6226034
1.7304212 1.0820006 1.5811353 1.4780812 3.3686237 -4.074558 -0.42853975 -1.4927806
5.9253235 -1.5550649 9.584756 5.5535207 4.866933 -3.2276783 -0.47916174 -5.591314
-2.6314607 -7.000546 0.046131153 -3.502435 -4.6727476 10.910343 -5.9245625 4.0108466
-1.9262581 -2.651012 -1.9509674 2.097591 -3.6945448 -1.4764769 -2.1712575 -6.125026
-2.8716478 -0.80959004 2.8919868 -3.3707836 -9.566197 -3.6251707 -5.0761786 5.534186
-1.4568968 0.5823482 2.956535 -0.7588235 -8.852657 -0.80897474 1.3153259 1.7949431
-2.4827511 -1.6598698 -1.0085417 -4.480105 -2.9241123 8.937293 1.494731 -0.9102324
-5.423282 7.431813 -4.803045 4.8618617 6.8213625 -1.6641322 -1.8095196 -11.231291
9.910458 1.7712467 -2.625672 -4.222 -3.690656 9.458051 -1.2123723 3.5869956
-3.064079 2.5693135 -2.0397074 -2.0958457 -3.75852 1.7205409 1.3856896 -5.9335318
1.0453665 -6.1095304 11.833201 -2.8492386 2.8992767 -5.028629 -4.8133593 -3.4777026
2.7438805 -1.5569558 -1.0107248 -8.458032 -2.413891 0.4729914 -2.0707076 0.052545752
-2.6146586 -6.827258 -3.2482972 -3.4499786 -3.1814985 -1.0910325 -2.9206877 -13.388764
3.0060632 0.74806845 -2.287001 3.006887 0.029596327 -1.4364468 1.2217965 0.3986666
-4.952755 3.9792376 0.82237154 6.326498 -0.0685527 1.8301886 -1.1510512 -3.8263383
3.819777 -4.679632 5.622548 -1.1735275 -8.578534 4.614479 -2.544134 -2.9319687
-9.225307 2.1326451 1.0910034 -5.5763235 2.6062918 -1.3115718 -0.2454657 2.0984943
-7.4263234 4.9740906 -2.1284225 -3.7020655 -3.2590225 0.4228939 -9.137551 -1.4213388
1.7076277 2.6866665 -5.011916 0.4703624 -1.788108 8.279029 -10.097132 8.876866

linears.1.bias f4 [50]
00000000: a9d0 a840 9e49 f7bf d885 183f cd77 9a3f
00000010: 86df c63f ecfe 7bc0 ded3 f240 9858 8c3c
00000020: 5e07 17bc fc1d e93f 112b 68c0 a2c6 823f
00000030: 67cd 9d40 f7c3 7fbe 02f8 29c0 f333 45c0
00000040: 4aeb 3141 1867 3f3f e71e b4bf 2126 0540
00000050: 71f3 cb40 6cee 8a3f 1bcc 6e3f d2df 7b40
00000060: 4d79 8b3f cfbd 40bf dcd0 e43e 6bfe 28bf
00000070: b74e 393f 12a5 35c0 f482 133f 70ae ca40
00000080: 13d7 9ac0 71ff 7abf 0ecf d83f 1ac4 0b40
00000090: 05f4 0cc0 5a79 2f40 10ac 0ec0 fbb3 4b3f
000000a0: 3b11 87c0 d1bb 9fc0 41d4 80c0 89ea 67c0
000000b0: 8430 18c0 5b02 073f 66ed b1be 5525 bc3f
000000c0: a6a6 54c0 69a4 b4c0
5.275471 -1.9319341 0.5957923 1.206781 1.5536964 -3.9374342 7.5883627 0.017132089
-0.009218065 1.8212276 -3.6276286 1.0216868 4.9313235 -0.24977098 -2.6557622 -3.0812957
11.119944 0.74766684 -1.4071931 2.0804522 6.373467 1.085401 0.9328019 3.935536
1.0896393 -0.75289625 0.44690597 -0.6601321 0.72385734 -2.8382 0.57621694 6.3337936
-4.838754 -0.9804602 1.6938188 2.183844 -2.2023938 2.7417817 -2.2292519 0.79571503
-4.2208533 -4.991677 -4.02591 -3.62369 -2.3779612 0.5273797 -0.34751433 1.4698893
-3.3226714 -5.6450696

linears.2.weight f4 [50, 50]
00000000: 9faa 493f 48f1 b03d 7097 873f 633b 2240
00000010: 3b52 8d3f d2b5 4540 7341 eabd 7ab0 f4bf
00000020: c775 9b40 af73 1f40 d241 153f f2a3 8240
00000030: 3c33 343f deae 7d3f cdd7 123f 1fad 1140
00000040: 92f1 a140 52cf 9140 eab8 b63e 6baa be3f
00000050: 824d 57c0 e040 27be 328c 08be 9aaf 1b40
00000060: f272 5b3e dfb9 e13f bbe6 14c0 2d23 cc40
00000070: d1a1 f1be 367e 65bf 627d 5bbf e157 8bc0
00000080: bd02 c73f 5eae 7f40 41ba d03f 57ff 8740
00000090: 8a74 ba3f 9967 5140 c6e1 d540 05c4 24c0
000000a0: aaa8 2dc0 7304 a7bf ddbe 1540 8f4f 5240
000000b0: 4e5b b8c0 a654 6dc0 abfb 48bf 491c 5740
000000c0: 3887 c2be 226a 2ac0 17f9 11be f8e7 34c0
000000d0: c870 133f 176b a440 5b73 2340 d7bf c5c0
000000e0: 2c5a 9740 834f 95bf abd0 33be 442f bebe
000000f0: 8098 4d40 1982 e940 d6e6 c040 2fd4 69be
00000100: 371d 1140 561f d3c0 c137 c03f f035 bd40
00000110: f8fe 4240 a323 82c0 11ac 753e 03c8 4a40
00000120: 415e a3bf 953b 2040 b581 3cbf ae5e e93f
00000130: 4d95 4ebf 7216 9ec0 1b7d 11c0 31f6 b3c0
00000140: 68f8 9abf 0876 97bf 3526 82be 7c17 0ac0
00000150: a494 17c0 fd21 76c0 5304 24c0 389f a83f
00000160: aa8a 8340 81ac 1840 39a2 c940 0959 b5c0
00000170: e71c 49c0 a0fd 7140 7119 8f40 0e8e 54c0
00000180: efcb 39c0 e2c3 5340 e0fa 6abf 8cef 4b40
00000190: c835 94c0 5ca2 46c0 9093 6f40 a29e ff3f
000001a0: 0e38 b4c0 53d4 cc3f e3b4 9ec0 a127 6640
000001b0: 9c81 4640 b89b d0bd 64a1 e840 9d28 4bbd
000001c0: c159 09c0 a9aa 05bf 7ae0 7cbf 9646 c4bf
000001d0: cde2 b93f 803e 93bf 034f 6cc0 b98a 803f
000001e0: 0bb7 3940 6db5 d6c0 4696 8cc0 f3a1 bac0
000001f0: dc2c 1840 b34d 0bbf 22df 05bd 78f6 65c0
00000200: d780 8740 62d6 13c0 3c25 c1bf 5c6e b740
00000210: 929c 3e40 beb8 0e41 d579 6540 29be 7cc0
00000220: 0db1 50bf 69f9 22c0 21c1 bcbe b398 2940
00000230: 7a49 3640 95e9 e93f 6abe 09c0 ee7d 5dc0
00000240: 1c91 33c0 ea28 9a3f 4a56 51c0 114e b73c
00000250: 3bf3 ad40 cca3 9040 942e f63f 4c8d 02c1
00000260: 560b 3ec0 a333 043f 040d dbbf 0673 cd40
00000270: a090 33c0 7083 8b3f 9412 4c40 0ef3 08c1
00000280: 0f22 3e3f de2f 3240 f3d3 773f 89aa 93c0
00000290: 1bee 57bf 416b 2540 4e98 8140 8762 eabf
000002a0: 8c24 a440 e440 483f 87b0 f5be b07f c6bf
000002b0: fc30 86c0 9904 e33e 9f76 3bc0 7793 37c0
000002c0: f508 78c0 ff1f 9340 f149 11c1 04dc 523f
000002d0: de4c 03c0 1eff e73f a83e c140 a1b0 c53d
000002e0: 5996 d93f 248c 21bf 0ba2 7940 f2ad a6bf
000002f0: b3d2 babf f573 653e e927 a4c0 a045 7240
00000300: bf22 8540 05b2 883f f334 99c0 3d22 4a40
00000310: e66b 3d40 8ad6 ae3f 677b 2340 f3b2 b43f
00000320: 678d abbf f658 d540 7e46 b43e 1fc5 8340
00000330: d92d ba3f 5e3b 6a40 6f5e a9c0 4d53 8e40
00000340: e29c 2c40 559e a9c0 9cb8 a93f 1510 803f
00000350: f391 7cc0 98cb c6bf 98a4 afc0 6201 49c0
00000360: 39e2 c0bf 4c3f 95bf 5c36 b3c0 30fa c03e
00000370: 8ea0 dbbf 0653 d140 9a1e d33e 9d64 9140
00000380: a054 30c0 f15e 4cbf dcd9 0541 77ed 3f40
00000390: 55cd 9540 5184 7740 0c35 00c1 8781 1b40
000003a0: 27f0 7040 2cc4 2fbf 2be9 06c0 c131 603f
000003b0: bf65 703d dce9 59bf bc38 81c0 45a1 29c0
000003c0: 6d69 56be 8837 50c0 9e52 363f 3010 34bf
000003d0: e3b5 863f 0b59 7140 87f8 c940 b8c8 3a40
000003e0: b5ad 0d40 6c19 cdc0 054b 62c0 4cee aac0
000003f0: 9677 9f40 0f61 a0bf ed70 6a3f 57ae 04c0
0.7877597 0.08639771 1.059309 2.5348747 1.104072 3.0892224 -0.11438265 -1.9116356
4.858127 2.4914358 0.5830356 4.082513 0.7039068 0.9909495 0.57360536 2.2761915
5.0607386 4.5565577 0.35687953 1.4895757 -3.3641057 -0.16333342 -0.1333473 2.4325929
0.21430567 1.7634848 -2.3265827 6.379294 -0.4719377 -0.8964571 -0.85738194 -4.3544774
1.5547711 3.9950175 1.630684 4.2499194 1.4566815 3.271948 6.68381 -2.574464
-2.7134194 -1.3048233 2.3397744 3.2861059 -5.7611456 -3.7082915 -0.78509015 3.3611014
-0.3799379 -2.6627278 -0.14255176 -2.8266582 0.57593966 5.1380725 2.5539157 -6.179668
4.7297573 -1.166489 -0.1756007 -0.37145436 3.2124329 7.297131 6.028178 -0.22834848
2.2674081 -6.597575 1.5017015 5.912834 3.046812 -4.06685 0.2399142 3.1684577
-1.2763139 2.5036366 -0.7363542 1.8232019 -0.80696565 -4.94024 -2.2732608 -5.6238027
-1.2107058 -1.1832895 -0.25419775 -2.1576834 -2.3684473 -3.8458245 -2.562764 1.317359
4.110677 2.3855288 6.3010526 -5.6671185 -3.142389 3.781105 4.4718556 -3.3211703
-2.903072 3.3088307 -0.91789055 3.1864958 -4.631565 -3.1036596 3.7433815 1.9970286
-5.6318426 1.6002296 -4.959581 3.5961688 3.1016607 -0.10185951 7.269701 -0.04959928
-2.1461031 -0.5221353 -0.98780024 -1.5334041 1.4522339 -1.1503448 -3.6923225 1.0042335
2.901797 -6.7096467 -4.393344 -5.832269 2.377738 -0.54415435 -0.0326835 -3.5931683
4.2344775 -2.30996 -1.5089488 5.7322216 2.9783063 8.920103 3.585561 -3.9491065
-0.8152016 -2.5464728 -0.36866096 2.649945 2.8482347 1.8274409 -2.152247 -3.4608111
-2.8057318 1.2043736 -3.2708917 0.022376092 5.435941 4.5199947 1.9232965 -8.159496
-2.969442 0.5164129 -1.7113347 6.420291 -2.8057022 1.0899487 3.188634 -8.55934
0.7427072 2.7841716 0.96807784 -4.6145673 -0.84347695 2.5846713 4.049842 -1.8311318
5.1294613 0.78224015 -0.47986242 -1.5507717 -4.1934795 0.44339445 -2.929115 -2.8683755
-3.8755467 4.597656 -9.080552 0.8236697 -2.0515666 1.812473 6.0388985 0.0965283
1.6999007 -0.6310446 3.9005153 -1.3021834 -1.459555 0.22407515 -5.129872 3.7854996
4.1604915 1.0679327 -4.7877135 3.1583397 2.9597106 1.3659222 2.554407 1.4117111
-1.3402528 6.6671095 0.3521003 4.1178126 1.4545242 3.6598735 -5.2927775 4.4476686
2.6970754 -5.3005776 1.3259463 1.0004908 -3.946408 -1.5530882 -5.488842 -3.1407094
-1.5069038 -1.1659942 -5.6003857 0.37690878 -1.7158372 6.5413847 0.41234285 4.543532
-2.755165 -0.7983237 8.365688 2.9988687 4.681315 3.867451 -8.012951 2.4297807
3.7646577 -0.6865871 -2.1079814 0.8757592 0.058690783 -0.85122466 -4.0381756 -2.650468
-0.20938654 -3.2533894 0.71219814 -0.703372 1.0524257 3.7710598 6.311588 2.918501
2.2137272 -6.4093533 -3.5358288 -5.341589 4.983348 -1.252962 0.9157856 -2.0731409

linears.2.bias f4 [50]
00000000: a81b b8bd 3f78 0ac0 da3f 0b40 57ad 5f40
00000010: fc5a fa3e fbab 0c40 fbab 3340 152c a0c0
00000020: cd04 49c0 6524 213f 2467 d43f c72f 12bf
00000030: 1de1 6fc0 9cab 0a40 4aae dd3f 6c36 1fc0
00000040: 2045 27c0 d65e a7bf 33b2 9040 3955 d63f
00000050: aa10 c93f 4b52 953f 2463 70c0 d0c2 a9c0
00000060: dc73 0641 946a cfbe 1972 0d40 cc41 233f
00000070: 354b 3740 687d 8b3f 046a 2340 b059 bebf
00000080: 143f fcc0 c8e4 ca40 642a 91bf fe70 fe3f
00000090: ce78 8dbf 8111 8d40 bb8f 07bf 7033 1bc0
000000a0: c2ba 733f acbe 8bc0 a6ff 613f 0374 5ec0
000000b0: 708e c53f b1b7 2740 b44b 8b40 6100 d5be
000000c0: 3c67 02bf 2fd4 0b40
-0.0898965 -2.1635892 2.1757722 3.4949548 0.4889754 2.1979969 2.8073719 -5.005381
-3.140918 0.6294616 1.6593976 -0.5710415 -3.7481148 2.1667242 1.7318814 -2.4876966
-2.613594 -1.3075817 4.521753 1.6744758 1.570821 1.1665739 -3.756051 -5.305031
8.403286 -0.40511 2.210089 0.63772273 2.8639653 1.0897646 2.5533457 -1.487112
-7.8827 6.3404274 -1.1341062 1.9878232 -1.1052492 4.4083867 -0.5295369 -2.4250145
0.95206845 -4.3670254 0.88280714 -3.4758308 1.5434093 2.6205866 4.352991 -0.41601852
-0.50938773 2.1848257

linears.3.weight f4 [50, 50]
00000000: 994c 223f 3d99 4a40 899a d63f 3a8f 9c3d
00000010: 8503 8c3f 2782 983f 0a68 2abf 57e5 ec3f
00000020: 4ddc 6e40 9f4d 7cc0 9dbb e83e d3f6 653f
00000030: cc05 9cbf a0fb 803f 0cdc 2c40 7c61 10c0
00000040: 6124 04c0 ad28 cabd a9e4 59bf 5c85 773f
00000050: 7c4a 023f 2636 30c0 e03f a6bf f32d d4c0
00000060: 4089 de3e 06c1 2ac0 7865 c7bf 7040 4e3f
00000070: 07d7 27c0 8ee0 14c0 f2d1 ae40 1332 bebf
00000080: 71e1 4740 60d7 473f 9953 5b3f 57a5 06c0
00000090: 7ce0 36c0 ba16 39bf a002 9b3f b9e1 81bf
000000a0: bcf2 9e3f 9325 07c0 ed2a 6040 0f25 29c0
000000b0: 65de 803f d349 80c0 c2ac 683f 2ade 5bbe
000000c0: 31e8 4dc0 f79b d6bf d44d 9d3f 8f49 143e
000000d0: 6db9 d03f e8a3 4c40 7818 bd40 3f64 dcbf
000000e0: 6f6d debf f229 4bbf bd9d 39bf eb08 c6bf
000000f0: eecd 0a40 763a e0bf 5bb1 39c0 b436 893f
00000100: c553 07bf 675c d840 a0bb 8040 5094 46c0
00000110: 4ce6 b43f 2ec1 913d 53b9 be3f 7418 90c0
00000120: 1952 c5bf 326f 86c0 127d 5440 2d73 56bf
00000130: f0ec 0840 f67d 9c3f 8a77 e9be e057 9c3d
00000140: c403 35c0 ea6f a03f e5b3 6a3e 35c7 6ac0
00000150: ca59 d43f 81c0 1440 fac7 95c0 7ff3 6340
00000160: b98f b63e 3e2a 8640 edab 72bf 8edf 123f
00000170: ebff f63c 51c9 8140 4306 a3bf 436d 4f40
00000180: f9bc 02bf 2bcd 983f 1258 1ec0 ab4c 3840
00000190: 3093 5fc0 91c8 1dbf a3eb 6bbf cb17 f5be
000001a0: 7127 4ac0 7201 8abf 00a9 a83f 1634 a6bf
000001b0: 1ccf 10c0 8430 7ac0 eddb a43e 4015 a7bf
000001c0: 3269 523e 4584 6840 35ce a3c0 ec32 d53f
000001d0: 572d 7c3e 2b30 473e 49d4 7f3f ab02 71bf
000001e0: 555a cebe a0ee e6bf 773c 30c0 53b3 5f3f
000001f0: cfdd 0cc0 f5ae fe3f ee06 20c0 1334 7d3f
00000200: 9b19 d1c0 bc24 84bf 67af 89c0 c3e9 7540
00000210: 2c8c 4d40 48c1 52c0 4a89 3f40 2433 d2bf
00000220: 8922 4d3f b7a6 84bf 41cf d4bf a423 2940
00000230: 44d9 2940 a5f4 27bf 98ee 083e 7f86 7fc0
00000240: 2571 28c0 65f3 49be bed6 5ec0 6577 47c0
00000250: d14f 9a3f 01c7 21bf bcb6 34c0 010a 10c0
00000260: e196 a640 2e1a 82c0 85b9 02c0 d93e 2dbf
00000270: d919 1b40 9ed1 7abf 67d7 9840 f55e f33f
00000280: 200e 533f f40b e43f 85d9 f240 869b 40bf
00000290: bcaf 203e 8af6 443f dd4f 07c0 1bf2 6240
000002a0: 6482 6840 2e64 b63f c1d2 1f3e eece 28be
000002b0: 7692 16c0 c281 13bf 8b5a 823f 1831 b4c0
000002c0: 217c 09c0 1570 4d3f f904 6d40 f80c e9bf
000002d0: 29fc 96c0 d473 8540 07f9 eebf b8a2 c73e
000002e0: 6e71 b43f 5399 bf3f e360 3e40 13b6 bcbf
000002f0: 5dc2 9e3e f05e a03f b36f 2240 b869 293e
00000300: c56d 66bf e709 fc3f 5642 7840 01f2 8dbe
00000310: 1d84 ef3e 4bfe 9c3f cf10 4abe be55 3e3f
00000320: a6b4 2740 8fe1 2d40 e096 88bf 634d 3e40
00000330: a25b 0440 2824 f0bf 7aaa b340 2a1e fdbf
00000340: 74d1 f2bf 1bae c4bf f753 33c0 6b7f 2740
00000350: e5f5 61bf 807b eb3f 2275 aabf ac2f 1b40
00000360: a6b8 ca3f e57e 413f 890d b8c0 ec6c 8f3f
00000370: e1eb 3840 4abc 80be e8ca 9b40 af64 183e
00000380: faf4 443f 3224 a0c0 5d83 50c0 5f53 1bbf
00000390: 028d 1c40 6b39 2c40 5ad1 4a3e 9d87 b83f
000003a0: 3c98 3340 58d6 a73f f25d 07c0 20e9 bb3f
000003b0: 8210 83bf ca37 8dbf f9f1 173f db72 9340
000003c0: 397b 06bf 23bd 4fc0 1e0a 653f 1255 ebbe
000003d0: 2ebb 0640 6c13 9b3e 8d5e b23e ba17 06c0
000003e0: 038c c9bf b5e9 21c0 7bc6 8e3f 1cde 2ac0
000003f0: 7af9 40c0 36dc 30be 63ca a5bf 069e c83f
0.6339813 3.165603 1.676591 0.07644506 1.0938574 1.1914719 -0.66565 1.8507489
3.732196 -3.9422376 0.45455638 0.8982975 -1.2189269 1.007679 2.7009306 -2.25595
-2.0647204 -0.098710395 -0.8511453 0.96687865 0.50894904 -2.753305 -1.2988243 -6.630609
0.43464088 -2.6680312 -1.5577841 0.80567074 -2.6224992 -2.3262057 5.463128 -1.4859031
3.1231349 0.7806301 0.85674435 -2.1038415 -2.8574514 -0.72300303 1.2110176 -1.014701
1.2417827 -2.1116683 3.50262 -2.6428869 1.006787 -4.0090117 0.9088861 -0.21471468
-3.2172968 -1.6766347 1.2289376 0.14481185 1.6306587 3.197504 5.909237 -1.7218093
-1.7377146 -0.7936088 -0.72506315 -1.5471472 2.168819 -1.7517841 -2.90145 1.0719819
-0.528622 6.7612796 4.0229034 -3.1028023 1.4132781 0.07116924 1.4900306 -4.502985
-1.5415679 -4.2010736 3.3201337 -0.83769494 2.1394615 1.222594 -0.45599014 0.07633948
-2.8283548 1.2534153 0.22920187 -3.6684086 1.6589901 2.3242495 -4.680661 3.5617368
0.35656527 4.1926565 -0.9479359 0.5737237 0.030151328 4.0558248 -1.2736286 3.2410438
-0.510696 1.1937612 -2.4741254 2.8796794 -3.4933586 -0.61634165 -0.9215643 -0.47869715
-3.1586573 -1.0781691 1.3176575 -1.2984645 -2.262641 -3.9092112 0.3219904 -1.305336
0.20547941 3.633073 -5.1189218 1.6656165 0.24626671 0.19451968 0.99933296 -0.94144696
-0.40303293 -1.8041573 -2.7536905 0.87383 -2.2010381 1.9897143 -2.500423 0.98907584
-6.5343757 -1.032371 -4.3026614 3.8423927 3.2116804 -3.293047 2.9927545 -1.6421857
0.8013082 -1.0363377 -1.6625749 2.6428003 2.6538858 -0.6560767 0.13372266 -3.992584
-2.6319058 -0.19721754 -3.4818568 -3.1166623 1.2055608 -0.6319428 -2.8236532 -2.2506106
5.205918 -4.065696 -2.0425732 -0.6767402 2.4234526 -0.979761 4.776294 1.9013354
0.8244343 1.7816148 7.5890527 -0.7523731 0.15692037 0.7693869 -2.1142495 3.546027
3.6329584 1.4249322 0.1560774 -0.16485187 -2.3526893 -0.5761987 1.0183882 -5.630993
-2.1482012 0.8024915 3.7034285 -1.8207083 -4.7182813 4.170389 -1.8669747 0.38991332
1.4097116 1.4968666 2.9746635 -1.4743065 0.31007662 1.2528973 2.5380676 0.16544235
-0.90011245 1.9690522 3.8790488 -0.27723697 0.46780482 1.2265104 -0.19732974 0.7434958
2.620401 2.716892 -1.0671043 2.9734733 2.0680928 -1.8761034 5.61456 -1.977483
-1.897017 -1.5365633 -2.8019998 2.617152 -0.8826583 1.8397064 -1.3316996 2.4247847
1.58376 0.7558425 -5.7516522 1.1205115 2.889397 -0.25143653 4.868519 0.14882158
0.76936305 -5.0044184 -3.2580178 -0.6067409 2.4461064 2.6910045 0.19806424 1.4416386
2.8061666 1.3112288 -2.115109 1.4680519 -1.0239413 -1.103265 0.59353596 4.6077704
-0.5253177 -3.245919 0.8946856 -0.4596334 2.1051745 0.30288255 0.34837762 -2.0951982
-1.5745853 -2.5298893 1.1154321 -2.6698065 -3.0152268 -0.17271504 -1.2952389 1.5673225

linears.3.bias f4 [50]
00000000: cb5a f9bd 3c46 9240 8e41 c83f 84a8 7ebe
00000010: fd45 6abf b214 3dc0 914c c3bf a973 0240
00000020: 41a0 7ec0 de91 403f 0ad9 a73f f4bc 70c0
00000030: 91f1 ec3e d55f 903f 725d 503f aad8 863f
00000040: 2d72 be3f 8183 36c0 3924 3240 a145 ae40
00000050: ca23 d7bf 9f7d e7bd 318d 8fc0 c464 8540
00000060: ff5e cebf da15 f5bf 7d74 6f3f d27d 84bf
00000070: a476 edbe 84cb fe3e 0085 eabf 9f4a a13f
00000080: 8c62 993e b170 bdbf 314e 993f 9e1e 2340
00000090: c04d eebf e273 63c0 8cae 4f3c cfc6 dcbf
000000a0: 7d9d 9e3f 7d97 833e 27dd 58bf e950 27c0
000000b0: 00d9 163f 9a97 a93f 96d6 8a40 cb3f b03e
000000c0: 37f9 b3c0 af38 bb3f
-0.121755205 4.5710735 1.5645006 -0.24868971 -0.91513044 -2.9543881 -1.5257741 2.0383093
-3.9785311 0.75222576 1.311311 -3.7615328 0.4627805 1.1279246 0.81392586 1.0534871
1.4878594 -2.8517764 2.7834609 5.4459996 -1.6807797 -0.11303257 -4.4859853 4.1685505
-1.612274 -1.9147294 0.9353712 -1.0350897 -0.46379578 0.49764645 -1.8321838 1.2600898
0.29957998 -1.4800016 1.1976987 2.5487437 -1.8617477 -3.553948 0.012675893 -1.7248172
1.2391812 0.25701514 -0.8471245 -2.6143134 0.58924866 1.324939 4.3386946 0.3442367
-5.6241717 1.4626673

linears.4.weight f4 [1, 50]
00000000: 9318 afbf d3e5 2140 6fde cdbe 4346 0cc0
00000010: e0c8 99bf c1a0 42c0 cd35 d1bf deb7 a43f
00000020: d047 e0bf a28d b9bf 1f69 8fbb e5c8 fabf
00000030: 5ee6 f4be 16b5 c63f 7dbe 3440 368e 923f
00000040: 4a97 db3e 2872 a3bf fb7d fd3f c629 2340
00000050: 1f61 333f aed1 a43e c27f 32c0 93f6 e13f
00000060: 1fa5 b5bf 41cc 0ec0 28c3 823f e243 833f
00000070: cd8d 163f e530 74be 43e7 c3bf 4e52 d33f
00000080: de68 823f 64f9 613e 0a90 7d3f cdd7 9d3f
00000090: 4a2f b7bf 7f57 c9bf d3fa 7fbf 9853 90bf
000000a0: 1840 ae3f 80f9 d23e 8eb7 bbbf b292 d2be
000000b0: 3e39 fe3e 1140 6e3f b8fe ff3f d64b 573f
000000c0: 4830 01c0 5c0d 0840
-1.3679374 2.5296524 -0.40208766 -2.1917884 -1.2014427 -3.0410616 -1.6344544 1.2868612
-1.7521915 -1.4496348 -0.004376545 -1.9592558 -0.47832006 1.5524013 2.8241265 1.1449649
0.42888862 -1.2769213 1.9804071 2.5494246 0.7007007 0.32191223 -2.7890477 1.7653373
-1.4191016 -2.2312167 1.0215807 1.0255091 0.5881012 -0.23846777 -1.530495 1.6509492
1.0188253 0.22067791 0.9904791 1.2331482 -1.4311306 -1.5729827 -0.999921 -1.1275511
1.361331 0.41205978 -1.4665391 -0.41127545 0.49653047 0.9306651 1.9999609 0.8410009
-2.0185719 2.1258154
