Archived Code/Stan TPAMI/Regression/Discontinuous1/rowdy_tune/Regr_disc_rowdy_tune30_2.pt (torch, 35518 bytes, 12 tensors)

omega1 f4 [4, 1]
000000 f2 be 83 3f ec 32 84 3f 83 a6 84 3f 02 13 86 3f
       1.0292647 1.032804 1.0363315 1.0474551

alpha f4 [6, 4]
000000 3f cd f0 3c 21 d7 0b 3d 7f 64 30 3d 21 47 77 3d
       0.029394744 0.03414071 0.04306459 0.06037057
000010 5b 22 f1 3c 89 93 08 3d a1 57 10 3d df ec de 3c
       0.029435327 0.033343825 0.03523982 0.027212558
000020 56 b3 f1 3c ca 32 03 3d 84 9c c9 3c de 3d 26 bc
       0.02950446 0.032030858 0.024610765 -0.010146586
000030 ee 84 f2 3c 9c f6 f7 3c 30 70 8d 3c 2b b9 0d 3d
       0.029604401 0.03026896 0.01726541 0.034600418
000040 4e 9d f3 3c ab 29 e7 3c ff 71 75 3c e6 5d 32 3d
       0.029738095 0.028218111 0.014980792 0.04354658
000050 37 02 f5 3c 21 75 d4 3c 9e b7 4b 3c b3 c8 8b bc
       0.029908283 0.025934758 0.0124339145 -0.017063474

omega f4 [6, 4]
000000 f7 13 85 3f 45 c2 85 3f 2c e5 85 3f 1b 99 80 3f
       1.0396718 1.0449911 1.0460563 1.0046724
000010 17 18 85 3f 3a 5e 85 3f 27 7f 7c 3f 50 6e 75 3f
       1.0397977 1.0419381 0.9863152 0.9587145
000020 e1 1f 85 3f 5a 5f 84 3f 7c 34 7a 3f ee 12 7c 3f
       1.0400354 1.0341599 0.97736335 0.98466384
000030 2d 2d 85 3f 6d 9e 81 3f 3f 25 7d 3f 00 d7 84 3f
       1.0404412 1.0126473 0.9888496 1.0378113
000040 38 44 85 3f 76 a9 7c 3f ab fb 7d 3f 43 53 72 3f
       1.0411444 0.98696077 0.9921214 0.946583
000050 d4 57 85 3f af 98 79 3f 9c c5 7b 3f 79 95 79 3f
       1.0417428 0.974986 0.983484 0.974937

linears.0.weight f4 [50, 1]
000000 f3 80 10 bd dc 03 33 3d da 3a 35 3e 19 1c 0d 3e
       -0.035279226 0.043704852 0.17698231 0.1378025
000010 b1 b3 8d bd 2d a2 9a bd 03 33 26 3e 26 9f a1 3e
       -0.06919039 -0.07550464 0.16230397 0.31566733
000020 cd 2d 15 3e 1c 85 2b 3e de b9 44 be 42 71 91 3e
       0.14568253 0.16749996 -0.19211528 0.2840672
000030 cc 01 71 3d 6b 80 8d bd fc ed 5a bd 73 92 50 3d
       0.058839604 -0.069092594 -0.053449616 0.050920915
000040 59 d7 ed 3d f5 9c be bc d4 1c 3a bd ad 06 25 be
       0.1161334 -0.023268202 -0.04543765 -0.16115828
000050 fe 8a 18 be bd 77 58 3d 39 05 f0 bd 8f db 31 be
       -0.14896771 0.052848566 -0.11719746 -0.17368911
000060 e6 68 d8 3e 2f 14 fe bd 63 af 59 be ff df 1f 3e
       0.4226753 -0.124061935 -0.21258311 0.15612791
000070 69 84 04 be 6e c1 d6 be 91 55 66 3e a2 ad a3 bd
       -0.12941135 -0.4194445 0.22493578 -0.07992102
000080 9d e5 21 be 7b 31 ba 3d 22 b0 1b be 30 f0 76 3e
       -0.15810247 0.09091469 -0.15203908 0.24115062
000090 5e e5 87 3e 3e b1 16 bd 5e 8f ef 3d e4 b7 14 be
       0.2654218 -0.036790125 0.11697267 -0.14523274
0000a0 2a ff 4d be 86 fe c3 be a8 30 6b be da c2 9b 3e
       -0.20116869 -0.38280123 -0.2296778 0.30422097
0000b0 7d c6 6f be aa 4f ae 3c 67 6d d9 bd 64 26 fd bd
       -0.23415561 0.021278221 -0.1061657 -0.12360838
0000c0 f4 fe 3d 3e 4e 9d d6 be
       0.18554288 -0.4191689

linears.0.bias f4 [50]
000000 4c 4c 89 3c b0 a8 96 bc 3b bc ce 3c 94 cb 69 bc
       0.016760014 -0.018390983 0.02523624 -0.014269728
000010 fa 45 cd bc 4b 90 b6 bc a8 9f c6 3c 01 57 db 3c
       -0.025057781 -0.022285601 0.024246052 0.026774885
000020 e2 ca db 3c 8c 25 11 3d 97 04 66 3c c9 0e 0e 3d
       0.02683014 0.035436198 0.01403918 0.03468207
000030 95 e7 04 3d 9d 76 0b bd 0b 2a ef bc 8c cf 24 bc
       0.032447416 -0.034048665 -0.029194852 -0.010059249
000040 77 b9 df 3c de a2 d7 bc 7a 41 02 bd d6 7c 10 3b
       0.027310116 -0.026322778 -0.031800725 0.0022047064
000050 90 ae 02 bd 5e 49 cf 3c cf fd f1 bc c0 49 b5 bc
       -0.031904757 0.025303539 -0.02953997 -0.022129893
000060 92 04 da 3c cb 97 71 3c a6 68 ca bc b0 13 f1 3c
       0.026613507 0.014745663 -0.024708103 0.029428333
000070 d7 28 43 bb 98 ff cf bc d5 ca f7 3c 31 8f 00 bd
       -0.002977898 -0.025390431 0.030248085 -0.031386558
000080 4b 3e da bc f8 f5 00 3d 06 88 df bc 12 ae b1 3c
       -0.026641032 0.031484574 -0.02728654 0.021689449
000090 6a b9 ff 3c f6 bc ba 3c 56 f0 f6 3c d5 ac 7c bc
       0.031216342 0.022795182 0.030143898 -0.015422066
0000a0 14 c4 91 bc ba 3a f0 bc c1 ee 2d 39 8d f0 ad 3c
       -0.017793693 -0.029324878 0.00016587508 0.021232868
0000b0 7d 0f 09 bd e6 40 69 3c ef d7 03 bd d1 ff ef bc
       -0.033462036 0.014236664 -0.032188352 -0.029296787
0000c0 d4 96 01 3d 94 21 e1 bc
       0.03163798 -0.027481832

linears.1.weight f4 [50, 50]
000000 87 3e f3 3d 3b cb 35 be 9a 1e aa 3d 39 a2 2d 3d
       0.118771605 -0.17753308 0.08306618 0.042391036
000010 a0 ea bc bd 66 42 57 be d4 08 a8 3d 40 56 30 3d
       -0.09224439 -0.21021423 0.08204809 0.043051004
000020 e7 d8 66 3d 5a 91 b2 bd 83 70 8c 3d fc 41 26 3e
       0.056359198 -0.0871913 0.068573974 0.16236109
000030 43 eb f7 bb d3 6a 50 be c7 f6 91 3e 45 6e 9d be
       -0.007565887 -0.2035325 0.2850859 -0.3074819
000040 c0 fe 59 be a0 93 90 3d 74 3d 8a be 75 41 41 3d
       -0.21288586 0.07059407 -0.2700001 0.047181565
000050 4f e8 ee 3c e3 6b 7c bd 83 30 8f bd be bf a1 3c
       0.029163508 -0.061626326 -0.06991675 0.01974475
000060 ca 84 06 bd 77 e6 c0 3d 43 8c b1 bd f8 91 d4 bd
       -0.03284148 0.09418958 -0.08669331 -0.10379404
000070 0c 3f c9 bd 8b 4b 02 be 29 2b 8e 3d 99 67 80 3d
       -0.09826478 -0.1272413 0.06941826 0.0626976
000080 30 b9 f5 bd ea 67 d0 bc 6e 68 de 3d 7f 24 8b 3d
       -0.11998212 -0.025440175 0.10859762 0.067940705
000090 fd 53 4c 3d 34 57 0f be 1d bd 01 be cf d3 e8 bd
       0.049884785 -0.13998109 -0.12669797 -0.11368524
0000a0 3b 74 f3 bc a9 43 e8 bb 2f fc ee bc 65 88 f0 bc
       -0.029718509 -0.007088144 -0.029172985 -0.029361913
0000b0 1f f6 4e bd fc d2 a4 3c 23 81 a3 be 37 1f 4d 3c
       -0.050527688 0.020120136 -0.3193446 0.012519649
0000c0 10 5c 31 be f4 59 c3 3d 54 b6 9c bd c8 e7 3c be
       -0.17320275 0.095386416 -0.07651964 -0.18447793
0000d0 ec da 91 3d 18 75 a6 bc 57 b8 df ba 59 cf e6 3d
       0.07121834 -0.020319507 -0.0017068487 0.11270017
0000e0 c6 bc a1 3e bd b1 3c be 41 15 69 be c3 46 b3 3b
       0.31589335 -0.18427177 -0.22762014 0.005471082
0000f0 b1 69 3e be 95 7b 9b be cb de 02 3e 7a 14 3f 3c
       -0.18595006 -0.30367723 0.12780301 0.011662597
000100 03 01 52 3c 8d 7b 8b bc 9c 56 6b be f6 54 0c 3e
       0.012817624 -0.017026687 -0.22982258 0.13704285
000110 dc a6 0f be 84 4f 76 3e 54 6a 31 3e 07 77 a7 bd
       -0.14028496 0.2405377 0.17325717 -0.081769995
000120 32 cc 3b 3d 01 e4 f7 3d cc de 08 3e 37 9d 17 be
       0.045849033 0.12104035 0.1336624 -0.14806066
000130 54 97 18 be 88 a9 87 bd 7c 8e 74 3c 47 7f a0 3c
       -0.14901477 -0.066241324 0.014926549 0.01959194
000140 ab 5b b7 3b 70 de 87 3d 61 10 26 3e 4c 36 33 be
       0.0055956445 0.066342235 0.16217186 -0.17501181
000150 9f e1 3d be fc b8 3f be ec aa 53 bd 79 6f e2 3d
       -0.18543099 -0.1872291 -0.051676676 0.11056418
000160 5e 88 06 be 7b 16 80 bc c5 80 64 bd c3 2f 24 3e
       -0.13137957 -0.01563572 -0.055786867 0.16033845
000170 13 b8 7d bc c7 c9 13 be 97 01 3a 3e 39 89 82 be
       -0.015485781 -0.1443244 0.18164669 -0.25495318
000180 3c 71 43 3e 84 39 11 3d 8b 3a 70 3d db 26 8d bc
       0.19086164 0.03545524 0.05864958 -0.017230442
000190 fb 64 94 3d f4 83 37 3d 6c ad 76 be e8 c1 d9 bc
       0.07245823 0.044803575 -0.24089593 -0.02658172
0001a0 dc 98 9e be de c2 a3 3d 62 c1 1b 3d 81 11 92 be
       -0.30975997 0.07996152 0.03802622 -0.2852898
0001b0 6b b3 9d bc 65 a1 bd be b4 ea 43 bd ce e9 e5 3c
       -0.019250592 -0.37037197 -0.047831252 0.028065588
0001c0 9f 3e bf bd 3f 13 47 3e bc cc da bd 73 1f d1 bc
       -0.09338116 0.19440936 -0.10683581 -0.025527691
0001d0 0c 81 e2 3d a4 66 ba bd c2 11 9c 3c 39 b3 60 3d
       0.1105977 -0.091016084 0.019051436 0.05485842
0001e0 84 ed 18 3e ec 16 26 be 5d d7 0a 3e 47 40 5d 3e
       0.14934355 -0.16219682 0.13558717 0.21606551
0001f0 6e 04 8e 3d e8 dc 92 3d d0 c9 36 be d3 19 e7 bd
       0.06934439 0.07171041 -0.17850423 -0.112842225
000200 9f 1d ff bd 41 75 e6 3e 1a b4 70 bc f3 43 2c 3e
       -0.12456822 0.45011333 -0.014691377 0.16822796
000210 30 b8 04 bc 61 15 e9 3d a6 d6 95 3b 8b c8 69 bc
       -0.008100554 0.11381031 0.004572707 -0.014269005
000220 ca b1 51 3e ec 2f 06 be 6b 50 03 be 2c 19 45 bd
       0.20477977 -0.13104218 -0.12823646 -0.04811971
000230 98 b8 7b bd ec c1 10 be 2f c3 c8 bd a7 80 3c bc
       -0.06145534 -0.14136475 -0.09802853 -0.0115052825
000240 b5 03 07 3e fb fb 79 3d 21 2c cf 3d 8d 44 5d bc
       0.13185008 0.061031323 0.10115839 -0.013505113
000250 ad 70 7d 3e ad 8b 8b 3c 38 3e 96 be ef e5 2f 3d
       0.24750014 0.017034376 -0.29344344 0.04294389
000260 b7 be 21 3e e1 13 99 3d 2c 81 81 be b9 71 04 bd
       0.15795408 0.07474495 -0.25293863 -0.032335017
000270 1e 3f d1 3d f1 bc cc be e4 8a 37 3d 78 e8 d0 bd
       0.10217117 -0.399879 0.04481019 -0.1020059
000280 83 93 ed bd 3e 58 96 bd 7e 4c 63 bd d8 0e 46 3d
       -0.11600401 -0.073410496 -0.05549287 0.048354
000290 a0 39 de 3d 1e 58 07 be c3 c5 ec 3d d1 ce 8b 3e
       0.10850835 -0.13217208 0.115611576 0.27306226
0002a0 ef a4 6a 3e da c3 11 be b2 fe 03 be fa de a2 3d
       0.2291448 -0.14234868 -0.12890127 0.07952686
0002b0 1f ae a2 bc bf d1 30 be 12 f2 5b be 08 4a ec bd
       -0.019858418 -0.17267512 -0.21479061 -0.11537558
0002c0 c4 5c 17 3d a4 38 5f bd 2a db 87 bc 29 4c 67 3d
       0.036953703 -0.054497376 -0.016583998 0.056469116
0002d0 59 49 6c 3d 0d a3 21 3e e0 1e 04 3e 80 f8 ad bd
       0.057687137 0.15784855 0.12902403 -0.08494663
0002e0 6c ea 43 3c 26 59 b8 3c 21 c6 23 be a3 54 96 3d
       0.011957746 0.022503447 -0.15993549 0.07340362
0002f0 30 08 06 3e bd f4 82 3d da 2d eb bb c4 4d cf 3a
       0.13089061 0.063943364 -0.007177097 0.0015816023
000300 70 27 0a 3e 0e 61 43 3d 58 51 cd 3d 19 b1 01 be
       0.13491607 0.04769998 0.10025281 -0.12665214
000310 22 01 d8 3d 52 d5 1b 3d 71 18 9f be e3 54 11 be
       0.10547091 0.038045235 -0.31073335 -0.14192538
000320 d2 b2 33 be 41 57 4f 3e ee 1b 7f 3e f5 26 e7 bc
       -0.17548683 0.20248128 0.24912998 -0.028216818
000330 c7 04 9f 3e 51 b2 2c 3e 49 d4 34 3e cd 94 a2 be
       0.31058332 0.16864897 0.17659105 -0.3175415
000340 f0 54 2b 3e 5c 4c 54 be 4d d4 78 3b a0 b5 c1 bd
       0.1673162 -0.20732254 0.0037968338 -0.0945847
000350 b1 5e cc bd 0e dc ae 3e 3c 31 dd bc 2a d6 f8 bd
       -0.099789985 0.34152263 -0.027001016 -0.121502236
000360 4e 77 81 3d 00 2d 3a bd 62 53 97 3d c3 d6 fd bd
       0.06321584 -0.04545307 0.07388951 -0.12394478
000370 73 23 d2 bd bb bf 3e be 71 59 89 3d 5f 9b 31 3d
       -0.10260668 -0.18627827 0.06706513 0.043361064
000380 83 f3 29 3c 80 ca 16 bd 3b af 2c 3e 8b 50 28 be
       0.010372999 -0.036814213 0.1686372 -0.16436975
000390 5a 31 54 be c3 d9 74 3d b5 27 81 bc cd 02 1f bd
       -0.20721951 0.059777986 -0.015766004 -0.03882103
0003a0 07 b5 2a be 65 9e 6a be 0e 4e 35 bd 6f 3e 96 bd
       -0.16670619 -0.22911985 -0.044263892 -0.07336127
0003b0 48 1b 98 3d 1c 1c a6 bd 5a 2e 2d bd 08 21 88 bd
       0.074270785 -0.0811083 -0.042280532 -0.06646925
0003c0 d8 bb 41 bc 73 79 24 3e 65 c3 2e 3e 30 78 17 3e
       -0.011824571 0.16061954 0.17066725 0.14791942
0003d0 84 6b b4 3d 59 5f 3e be 6a 89 cc 3d cd 41 73 3d
       0.088095695 -0.1859106 0.09987147 0.059388924
0003e0 1d 3d 60 3e fa bb 25 3e 60 c3 a8 3c f9 74 d7 3d
       0.21898313 0.16184989 0.020600975 0.10520358
0003f0 75 90 d4 bd f9 e5 94 3d 69 ae 8d 3d 1e 7d a1 3e
       -0.103791155 0.07270426 0.06918032 0.3154077

linears.1.bias f4 [50]
000000 67 e6 b0 3c 01 30 12 bb af fc cc bc 04 56 ad bc
       0.02159424 -0.0022306445 -0.025022833 -0.02115918
000010 ec 51 1c 3b 61 3e 15 3b 3f 13 c9 bc d2 cf dd bc
       0.002385254 0.0022772776 -0.02454531 -0.027076636
000020 4e 5c b6 3c fd ed d9 3c 4c 67 a9 3c 21 cd b3 3c
       0.022260811 0.02660274 0.020679139 0.021948399
000030 52 b5 9b 3c 79 79 c2 3c be 52 9c bc 99 6c 21 bc
       0.019007359 0.023739563 -0.019082423 -0.009852552
000040 e0 93 94 bc 6e 7e 10 3d 5e 3d e1 3c 94 74 ac bc
       -0.018136919 0.035276823 0.027495082 -0.021051683
000050 a5 5d b4 3c ff 43 d1 39 68 1b 96 bc 61 ae 92 3c
       0.02201731 0.00039914247 -0.018323615 0.017905416
000060 60 38 c1 3c c6 82 cf 3c 9d 06 b2 3c 14 6d 86 bc
       0.023586452 0.025330912 0.02173167 -0.016409434
000070 61 8b c8 3c 13 78 a6 3c 40 9d eb 3c a0 5c c0 3c
       0.024480524 0.020320928 0.028761506 0.023481667
000080 02 fb bb 3b 9d 3b b9 bc 6d 33 3d 3c 5d 90 cd 3c
       0.0057367096 -0.022611434 0.011547905 0.025093252
000090 55 d6 ac bc 93 f5 e1 bc 7d 7c 99 bc 21 34 a4 bc
       -0.021098295 -0.02758292 -0.018736118 -0.020044388
0000a0 dc 52 6d bb ab 28 9e 3c 45 f6 b8 3c f9 1e 8d 3c
       -0.0036212718 0.019306501 0.022578368 0.017226683
0000b0 16 00 3e bc 90 9d ba 3c 08 55 7a bc a2 a4 c3 bc
       -0.0115967 0.02278021 -0.015279062 -0.023882214
0000c0 50 db 66 bc 94 76 a0 3c
       -0.014090374 0.019587792

linears.2.weight f4 [50, 50]
000000 ba 5c f4 bd 48 53 0d 3e ad 78 04 be 3e ac 54 3a
       -0.11931749 0.138013 -0.12936659 0.0008112824
000010 dd 63 26 be 69 87 05 3d fb e2 c1 bc 6c a6 24 3d
       -0.16249032 0.03259984 -0.023667803 0.040197775
000020 46 0d 4e 3d e9 5e 15 be 1f 1d bd 3d 32 54 b7 3d
       0.050305627 -0.14586987 0.0923407 0.08951606
000030 00 90 a9 3d e2 42 9b 3d 3e 57 5a bd ca a0 4e 3d
       0.08279419 0.07581116 -0.053305857 0.05044631
000040 12 81 57 3d 4a 36 c4 3c 54 02 05 be f0 01 11 be
       0.052613325 0.023951668 -0.1298917 -0.14160895
000050 86 35 c9 3d 86 54 07 3e 9d ee 4a 3e 61 9e 8e bd
       0.09824662 0.13215837 0.19817586 -0.06963802
000060 8f 66 a9 bd 67 93 cd bd 9d ca 57 3c 33 4f c6 bd
       -0.082715146 -0.100378804 0.013170865 -0.09683075
000070 2d db ab 3e a9 24 39 bb 29 c9 bc 3e 5e 48 84 bc
       0.33565655 -0.002825061 0.36872223 -0.016147789
000080 5b fe c0 3c 49 3c 11 3e a9 73 3f 3e 5d 58 10 bc
       0.023558786 0.14183153 0.18696465 -0.00881013
000090 d1 4d ea 3d aa 3f b3 bc e9 96 8c 3c 58 c2 fa bd
       0.114406236 -0.021880943 0.017161803 -0.122440994
0000a0 de 6d 35 bd cc 59 23 be 37 22 f0 bd ca eb 5c be
       -0.04429423 -0.15952224 -0.11725276 -0.21574321
0000b0 3a f8 6d bc 5c 90 7b 3e 5e f9 e2 bc d3 31 e1 bc
       -0.014524514 0.24566787 -0.027706798 -0.027489578
0000c0 5b a6 5d 3e 08 d1 5c 3e f2 02 91 bc f5 1f 46 bd
       0.21645491 0.21564114 -0.0177016 -0.04837032
0000d0 ec bb d0 3d 2e a7 02 3d 63 86 1e 3e 82 9b 1d 3e
       0.10192093 0.031897716 0.15480952 0.15391353
0000e0 ee 26 5b 3d 3a 0c 0a 3e 03 99 ce bd eb 84 88 be
       0.053503923 0.13481227 -0.100877784 -0.26663908
0000f0 dc 0e 90 3d ca 2e 44 3e 2b fd 18 be c2 11 ea 3d
       0.07034084 0.19158474 -0.14940326 0.11429168
000100 4c 60 55 bc 9d 89 49 be c5 2e 20 3e b9 01 58 be
       -0.013023447 -0.19681402 0.15642841 -0.21094407
000110 ad 33 91 3d f7 a3 1e 3e 48 bf 23 be a0 03 22 3c
       0.070899345 0.15492235 -0.15990937 0.00988856
000120 ca fb b0 3d 49 b6 f1 bd 8e 3c 98 3d b7 98 e7 bb
       0.08641775 -0.11802346 0.07433425 -0.0070677656
000130 58 ac 1e be 79 ae 4d 3d 23 3c 13 bd 88 89 2d be
       -0.15495431 0.05021522 -0.035946023 -0.16946995
000140 62 08 a1 3d 2b 4b 48 3d 61 a1 e8 bd 40 c6 1e 3d
       0.07862927 0.04889981 -0.113589056 0.038763285
000150 ab d4 e2 bd 61 da 7f bb 00 61 5f 3d be 56 40 3e
       -0.110757194 -0.0039040076 0.054535866 0.1878309
000160 72 81 10 3e 60 33 ae 3e bf e8 f8 bc d7 14 ad be
       0.1411188 0.3402357 -0.03038442 -0.33804962
000170 41 4d f6 bd e2 fa 08 be 9c 61 4c bd 5e a7 8e 3b
       -0.12026454 -0.13376954 -0.049897775 0.004353448
000180 30 bc 7c 3e 47 9e 3e 3e 92 f7 b7 bd 46 bf c8 bd
       0.24681163 0.18615066 -0.08982767 -0.098021075
000190 d2 9e 55 bd 28 30 d2 bc fa 78 39 bd f3 45 6e be
       -0.052153416 -0.025657728 -0.045281388 -0.23268871
0001a0 dc 36 af bd dd 20 9e 3c 88 2b b3 bd 0f 17 87 be
       -0.085553855 0.01930278 -0.08748537 -0.2638478
0001b0 c6 c6 57 be f0 36 de bd 12 33 33 3d 73 4a 0c be
       -0.2107192 -0.10850322 0.043749876 -0.13700275
0001c0 04 da 31 3d 65 e0 35 be 98 59 dc 3d 00 77 71 bd
       0.043420807 -0.17761381 0.10759276 -0.058951378
0001d0 78 83 44 3c ec 52 53 be fa 58 33 be 5b 6d 51 3e
       0.011994235 -0.20637101 -0.1751441 0.20451872
0001e0 26 19 4c 3e e0 b7 1c 3d f8 a0 02 3e b2 71 32 bd
       0.19931468 0.038261294 0.12756717 -0.04356546
0001f0 56 be d0 3c 28 2e a2 bd a1 e9 7c 3d 40 27 74 3e
       0.025481384 -0.0791896 0.061746243 0.23843098
000200 3b ac 3b bd fc 7e d9 3d 41 10 1e 3e 6a aa a8 3d
       -0.04581855 0.106199235 0.15435888 0.08235629
000210 19 37 51 3d 6d 65 c2 bc 39 dc 9d be 95 05 fb bc
       0.051077936 -0.023730004 -0.3083208 -0.03064231
000220 2a 15 01 3e c0 75 45 be c3 bf 3b 3e f8 7f 9d 3d
       0.1260573 -0.192832 0.1833487 0.07690424
000230 20 14 30 3e 4f bd 71 3e 0f 09 10 bd 4e 5c 38 be
       0.17195177 0.23607372 -0.03516489 -0.18003961
000240 a3 af 2b 3e ed fa 7c be 68 41 76 3d ef c5 01 3e
       0.16766219 -0.24705096 0.06012097 0.12673162
000250 33 58 89 3d 0b 14 a6 3d 8b cf 40 3d 6d b9 62 bd
       0.06706276 0.08109292 0.04707293 -0.055352617
000260 0f e6 b0 bd 1a 57 60 3a 42 dd 1e be d4 e8 15 3d
       -0.0863763 0.0008557901 -0.1551409 0.036598995
000270 8d 01 70 bc cf 21 84 3c 79 ad cd bc 5f 55 51 be
       -0.014648807 0.016129402 -0.025107132 -0.20442723
000280 d6 d0 0c be c4 7c 3d 3c 7e c5 d4 be 13 47 19 be
       -0.1375154 0.011565391 -0.41556925 -0.14968519
000290 7c 4a 54 3e f8 f3 a9 bd d2 24 eb 3d 6c c8 2b be
       0.20731539 -0.082984865 0.11481632 -0.16775674
0002a0 00 0a 9d 3d e8 cc 8f 3e 93 2f 25 be fa 62 3f 3e
       0.07667923 0.2808602 -0.1613143 0.186901
0002b0 11 a8 ac 3d 12 18 01 3e 00 d4 92 be e2 c9 b0 bd
       0.084304936 0.12606838 -0.28677368 -0.08632256
0002c0 38 e9 dc bc 5d 33 85 3e b8 fe 20 3d 39 3b ef 3d
       -0.026966676 0.2601575 0.03930542 0.11681218
0002d0 d7 d5 9e bd a6 50 94 bd f1 33 5f be 5a 11 f8 bd
       -0.077556305 -0.07241945 -0.21797158 -0.121126845
0002e0 7f ae 53 3c cd 9b 1b 3e 4a 5a 23 be 74 d0 10 be
       0.012920021 0.15196152 -0.15952411 -0.14142019
0002f0 71 0d 92 be cc e4 64 3d 1b 57 5e be ad 3c e7 ba
       -0.2852588 0.05588226 -0.21712916 -0.0017641984
000300 74 68 bf 3d 32 c7 00 be 72 95 53 3e 83 a3 0b be
       0.09346095 -0.12575987 0.20662478 -0.13636594
000310 d9 2f 9d bd c7 2c cf bd f3 f7 93 bd e6 97 0c be
       -0.07675142 -0.101159625 -0.07225027 -0.1372982
000320 ef 77 07 bd 1d 86 f4 bd fd 18 80 3e ec 38 1c 3e
       -0.033073362 -0.119396426 0.25019065 0.15256089
000330 5a 01 44 3d 80 c8 04 be 4e 95 f6 3d 6a eb 9c bc
       0.04785285 -0.1296711 0.12040196 -0.019155223
000340 10 0a a1 be f0 8f a7 bd 93 e2 ae bd ec 0e 76 3d
       -0.3145299 -0.08181751 -0.08539309 0.060072824
000350 e4 36 34 be 5b d0 4a be 72 23 f9 3d eb 7e 22 bd
       -0.17599064 -0.19806044 0.12164964 -0.03967182
000360 8d e9 39 be 3b 23 33 be 9d aa 0d bd 2b d6 54 be
       -0.18155499 -0.17493908 -0.034586538 -0.20784824
000370 1b 80 c0 3b bc 3a a0 3d fe c4 f1 bc 4f b5 f2 3c
       0.0058746464 0.07823703 -0.029512879 0.02962747
000380 af ec b0 3d d3 78 0d 3c 68 af 10 3b d8 c4 e0 3d
       0.08638894 0.008634764 0.0022077207 0.10975045
000390 36 5e c2 3d cc ee 6d bd fd cf de bc c1 ef d3 3c
       0.094906256 -0.058089063 -0.027198786 0.02587116
0003a0 20 55 31 be f6 83 06 be 3b 20 9f bc 1a 29 30 3e
       -0.17317629 -0.13136277 -0.019424548 0.17203179
0003b0 0e 40 ac 3d e1 15 bf bd a9 64 6c bd ee c8 a3 bc
       0.08410655 -0.09330345 -0.057713185 -0.019993272
0003c0 cd e6 53 3e 4d 81 98 bc 38 94 40 3c 22 48 7b 3e
       0.20693512 -0.018616343 0.011754088 0.24539235
0003d0 8a 20 1a 3e 2b d5 75 be 43 b4 75 3e 16 d7 36 ba
       0.15051475 -0.24007098 0.23994546 -0.00069747993
0003e0 4f de 1b 3e 48 58 82 bd 96 75 80 bd 93 90 bb bd
       0.15221523 -0.063644946 -0.06272428 -0.09158435
0003f0 f0 d1 6d bc 60 73 88 be 8c a8 1e 3d 2d e4 79 be
       -0.014515385 -0.26650524 0.038734958 -0.24403448

linears.2.bias f4 [50]
000000 9c 5f b0 3c 8f 62 4c bc fb 58 87 bc 3c d6 92 bc
       0.021529965 -0.01247467 -0.016521921 -0.01792442
000010 08 5d fa bb e3 66 76 3c be dd 92 bc 06 51 85 3c
       -0.0076404847 0.015039179 -0.017928 0.016273987
000020 e9 16 97 3c d7 04 89 bc c0 93 98 3c c9 70 cc bc
       0.018443542 -0.01672594 0.01862514 -0.024956124
000030 a5 03 a8 3c ab 56 50 3c 7b c5 ce bc 79 b6 b4 bc
       0.02050955 0.012715976 -0.02524065 -0.022059666
000040 1f 3e 96 bc c5 f9 29 3c c7 a5 3d ba 69 82 d5 bc
       -0.018340169 0.010374491 -0.00072344806 -0.026063161
000050 3c dd 90 3c a5 38 a9 bb fc 81 b0 bc c2 ab a1 bc
       0.017683618 -0.0051642233 -0.021546356 -0.01973522
000060 4b 7c 4d 3b 90 e4 7b 3c 07 0e a6 bc ec a5 b3 3a
       0.0031354602 0.015374318 -0.02027036 0.0013706065
000070 c1 e0 98 3c cb f7 ae 3c c2 a3 76 bc a4 e7 ca bc
       0.018661859 0.021358391 -0.015053691 -0.024768658
000080 42 b5 9e 3c 4d b4 a8 bc 19 35 af 3c fa 60 09 3d
       0.01937354 -0.020593787 0.021387624 0.03353975
000090 11 fd fb 3c 8c e4 cb bc e5 6e e8 bc 54 65 24 bd
       0.03076032 -0.024889253 -0.028373191 -0.040135697
0000a0 c2 fe 8c 3c 70 6a 97 bc 9a 92 c6 3c 8f 31 93 3c
       0.017211322 -0.01848337 0.024239827 0.017967967
0000b0 37 b9 40 3c 44 d7 99 bc 19 71 c9 3c 6d d8 9c bb
       0.011762909 -0.018779404 0.024590062 -0.004786542
0000c0 fc cc ca bc bd 86 87 bc
       -0.024755947 -0.01654374

linears.3.weight f4 [50, 50]
000000 ea 36 a2 3d 0d 7a d6 bd 3a fb 19 be 5d 0d 58 be
       0.0792063 -0.10472498 -0.15037242 -0.21098848
000010 87 42 d0 3d 15 f8 96 bc f0 0c 9c 3d 19 f1 33 3d
       0.10168939 -0.018428842 0.07619655 0.0439311
000020 43 6c b9 3c fc 16 83 bd 2f 55 51 3d ff 87 ed bc
       0.022634631 -0.06400868 0.051106628 -0.028995512
000030 4d cd 4f 3d 41 60 3d 3c 0b 97 be bd 93 8d b3 be
       0.0507329 0.011558593 -0.09306153 -0.3506895
000040 cd 4f 0d be e7 1b a7 3d 7b af 33 3e 8d 53 a5 be
       -0.13799973 0.08159619 0.17547409 -0.32290307
000050 b9 bb 1b bd b8 a2 2a 3e 71 14 1e be a9 11 d6 ba
       -0.038020823 0.16663635 -0.15437485 -0.0016332167
000060 d3 2f 16 3e 26 32 b5 bc 2d cc bc 3d 34 c4 ce 3d
       0.14666681 -0.02211864 0.09218631 0.100960165
000070 54 3e 2f be 26 95 34 bd a0 79 b2 3d 35 3a f0 3c
       -0.1711362 -0.04408755 0.087146044 0.02932463
000080 83 fd 1b bc 7b 23 99 bc 62 1e 4b bd bc 56 44 bc
       -0.009520891 -0.018693676 -0.049589522 -0.01198357
000090 0e 13 da 3d 6c e6 a1 bd b2 2c ee bc d3 ca ed 3c
       0.10648166 -0.079052776 -0.029074047 0.029027378
0000a0 7d 34 24 3e 09 c3 f1 bd ed 64 b2 3d 2c 2d 7b 3e
       0.16035648 -0.11804778 0.08710656 0.2452895
0000b0 b2 9a 22 bd 03 6b 42 3e 5a b2 e9 bd 8a 22 19 bc
       -0.03969831 0.18986134 -0.11410971 -0.009346614
0000c0 72 3a 4f 3d a5 3f a4 be 7d e9 7b 3d 66 af a2 bd
       0.050592847 -0.32079807 0.06150197 -0.07943611
0000d0 c6 e8 a4 be b9 13 84 bd 3f 68 05 be c1 38 83 3d
       -0.32208842 -0.06449074 -0.13028048 0.06407309
0000e0 54 9f 74 be 5c e0 d8 bc f9 7e 1c 3e a6 bb 6a be
       -0.23888904 -0.02647417 0.15282811 -0.22923145
0000f0 fd df bb bc c5 b9 3b be 7d 57 d1 bd 75 7b 28 3e
       -0.022933954 -0.18332584 -0.10221765 0.16453345
000100 d6 3e 09 3d 2d 59 e4 3b f5 2c b1 bd d6 63 48 3d
       0.03350719 0.0069686384 -0.08651153 0.048923336
000110 00 de 9f bd 77 88 04 be ac 52 77 3e 51 e2 38 be
       -0.07806015 -0.12942682 0.2415263 -0.18055083
000120 a7 d7 1b be 5d 22 3d be c4 43 af 3d 04 fb 28 3d
       -0.15218984 -0.1847014 0.08557847 0.041255012
000130 c2 f4 64 3e 70 c3 48 be 18 2d 4a 3d b4 8c bd be
       0.22358993 -0.19605803 0.04935941 -0.3702141
000140 c9 d7 0e 3d 0e 0c 83 bc 11 40 e2 bc 94 2f ef 3d
       0.034873758 -0.015996959 -0.02761844 0.11678997
000150 1f ea 8d 39 43 8a ce bd 1c 58 17 3e 37 c5 14 bc
       0.0002706805 -0.10084965 0.14779705 -0.009080223
000160 65 4d 26 3e 09 07 77 bc 8b 6c 68 bd b4 d8 47 bc
       0.16240461 -0.015077361 -0.05674414 -0.012197662
000170 4c ab 25 3e a9 42 5b 3e 66 1e 11 3e fb b6 06 bd
       0.16178626 0.21412148 0.14171752 -0.032889348
000180 2a 3f 89 3d 4e 6a ea bd 4a 37 f4 bd 2e 44 0f 3d
       0.06701501 -0.11446057 -0.11924608 0.03497713
000190 4d ff 04 3e 51 73 b3 bc 6c 51 e4 3c a1 48 cf bd
       0.12988015 -0.021905573 0.027870856 -0.10121275
0001a0 49 2f 14 bd 06 f5 2c bc bf 89 43 be f3 e7 ae 3d
       -0.036177907 -0.010556465 -0.19095515 0.085403346
0001b0 a1 7c 10 3d 47 61 4a bd ce 57 ce 3d 2e d0 8d bc
       0.035275105 -0.049409177 0.10075341 -0.017311182
0001c0 a5 d2 74 3d e7 a9 f5 3d b6 27 ce 3d 39 0e 38 be
       0.0597712 0.11995297 0.10066168 -0.17974176
0001d0 3d 81 b2 3e c4 96 b7 3d eb 81 07 3e 5b fe 6c be
       0.34864226 0.08964303 0.13233154 -0.23143904
0001e0 dc 26 8d bd 49 e0 45 3e 66 8e 0d be b9 98 a9 be
       -0.068921775 0.19323839 -0.13823852 -0.3312433
0001f0 af 4d 80 3d 71 24 cf 3d a3 e8 8e bd 0e ef 26 3d
       0.06264817 0.101143725 -0.06977966 0.040755324
000200 a9 27 02 be b9 92 9e bc 26 93 93 bd 6e 73 1c 3d
       -0.12710442 -0.019357072 -0.07205801 0.03819602
000210 ca f8 50 3e 49 53 5f be d8 e6 67 3c 61 f2 2b bd
       0.20407405 -0.21809115 0.0141541585 -0.041979197
000220 63 c1 37 be 17 9c 1e 3d c3 0b 36 bd 3a f7 a4 3e
       -0.17944865 0.038723078 -0.04444481 0.3221987
000230 26 9f d0 bc 4f 74 fb bd 56 8e 00 be b5 29 97 3d
       -0.025466513 -0.122780435 -0.12554297 0.07381002
000240 38 94 72 bd e5 f6 ca be 96 9f 2f 3e f4 c6 87 bd
       -0.059223384 -0.3964149 0.17150721 -0.06629744
000250 59 b2 ed 3c 70 96 39 3e 3c e8 54 3d 83 59 8f be
       0.029015707 0.18123794 0.05197929 -0.2799798
000260 f1 a3 2c be 3f 15 21 bd d5 73 13 be a3 cb b3 bd
       -0.16859414 -0.039326902 -0.14399655 -0.08779075
000270 e8 29 75 3e 4e d5 8c 3d b8 d7 26 3d 9e 9c 8b bd
       0.23941767 0.06876622 0.04073307 -0.06816982
000280 dc bd 66 3d 06 c9 50 be e0 8d 38 be 60 de f8 3d
       0.056333408 -0.20389184 -0.18022871 0.1215179
000290 d2 2f 80 be 85 96 1b be 18 d9 f3 bd 13 f5 13 3d
       -0.25036484 -0.15194137 -0.11906642 0.036122393
0002a0 8e 33 99 bd 67 f6 19 3d 29 3a 24 be 50 e9 3f 3d
       -0.074805364 0.037588503 -0.16037811 0.046853364
0002b0 14 94 eb bd 5d 92 ef 3d 93 08 2d 3a 9e fc 57 bc
       -0.11502853 0.116978385 0.0006600704 -0.013182787
0002c0 bf 5e b0 3c d1 8c 12 bd 14 1f ca 3e a5 d9 5a 3e
       0.021529553 -0.035778824 0.39476836 0.21372087
0002d0 90 b5 0b 3d e3 ac 87 3d a2 f6 06 be 21 dc 0c 3e
       0.0341087 0.066247724 -0.1318002 0.13755848
0002e0 65 32 41 3d 3f 04 a2 3c 38 64 0e 3e 35 12 68 bd
       0.0471672 0.019777415 0.13905418 -0.05665799
0002f0 4c d0 79 bd 0f 2c 07 be f5 55 34 be 9b 57 39 be
       -0.060989663 -0.13200401 -0.17610915 -0.18099825
000300 df dd a4 bb d0 57 a2 bd 1a 04 aa bd 31 5e 34 be
       -0.005031332 -0.07926905 -0.083015636 -0.17614056
000310 09 cb 88 3e d4 82 a2 be 0a 67 e4 bd 8f c1 13 3d
       0.26717404 -0.3174044 -0.11152466 0.036073264
000320 e4 6a 4b be 45 95 51 3e ad ef 0c be 29 fd b7 bd
       -0.19864994 0.20467098 -0.13763304 -0.08983833
000330 f0 8a c4 3d 88 35 40 3e 35 eb 5f 3b ae 5b d1 3d
       0.09596813 0.1877042 0.0034167294 0.10222565
000340 b9 78 43 bd 6f 91 d5 3d fc 7a 73 3d 75 0c 61 3d
       -0.047722552 0.1042813 0.05944346 0.05494352
000350 87 e6 30 3e 80 55 97 3d b2 cf 30 3e 11 4a 94 3d
       0.17275439 0.07389355 0.1726673 0.072406895
000360 cd bc 72 3d 3a 89 1c 3c f5 98 38 3e 9d 5c 98 3e
       0.059262086 0.009554202 0.18027098 0.29758158
000370 04 e5 0f be a7 9e 70 bd 4e 9c 69 3d 02 d6 57 bd
       -0.14052206 -0.058745053 0.05703383 -0.052694328
000380 a3 78 43 be 80 b5 87 bd 83 18 1a 3d d9 52 98 3d
       -0.19088988 -0.06626415 0.037621032 0.07437677
000390 02 10 84 bb 88 f1 16 3e 87 ff c2 3d a9 ad f9 bc
       -0.0040302286 0.14740574 0.09521394 -0.030478315
0003a0 50 41 68 3e b2 38 0a 3d d7 3c 30 be b8 d9 15 bc
       0.22681165 0.033745475 -0.17210709 -0.0091461465
0003b0 14 69 8b 3d a2 4e 11 3d 9d 57 b0 3e c3 04 ea 3d
       0.068071514 0.03547538 0.34441844 0.114266895
0003c0 c1 ac b3 bb a9 3d 82 3d dc aa 9b bc ff 5f 5e 3c
       -0.0054832404 0.06359417 -0.01900237 0.013572692
0003d0 c5 88 5f bd 3a 9b 85 3d 0f 91 2b 3e 8b e2 a3 3d
       -0.054573793 0.06523748 0.16754554 0.08002194
0003e0 57 d4 e9 3c b7 7d 80 be 45 27 61 bb 7c 4e 2e be
       0.028543634 -0.25095913 -0.0034355682 -0.17022127
0003f0 04 29 03 be 5d 53 b0 3c ad 1a 7a 3d 3e 25 93 be
       -0.12808615 0.021524126 0.061060596 -0.2873935

linears.3.bias f4 [50]
000000 1b 65 87 3c b7 d9 c9 3c d5 d7 93 3c 26 eb 0d 3d
       0.016527703 0.024639947 0.018047253 0.034648083
000010 0f cb e8 bc 68 d9 af 3c 04 0c 05 3d d2 83 00 3d
       -0.028417138 0.021465972 0.032482162 0.031375714
000020 c8 24 55 3c 78 f7 b3 3c 38 c1 1e bc 0d 4b b6 3c
       0.013009258 0.021968588 -0.009689622 0.022252584
000030 b6 a3 52 bc 14 78 93 3c 3e 42 7c 3c 0b 96 01 bd
       -0.012856415 0.018001594 0.015396653 -0.031637233
000040 c3 8c 09 3d c2 b1 7d bc 90 e0 b5 bc 24 02 11 3c
       0.033581506 -0.015484275 -0.022201806 0.008850608
000050 fb ed bd bc 51 e1 08 bd e5 82 13 3d 29 21 a0 3c
       -0.023184767 -0.033418003 0.036013503 0.019547062
000060 cf a4 f1 3c 16 db fe bc 82 a6 01 bd eb ad 85 3c
       0.029497532 -0.031110328 -0.031652935 0.016318282
000070 05 61 05 3d a4 88 7c bc 7a 4a b6 3c 62 74 75 3c
       0.03256323 -0.015413437 0.02225231 0.014981361
000080 9b c1 71 3c 5f a3 8a bc 30 24 10 3d 29 6a 93 bc
       0.014755632 -0.016923605 0.03519076 -0.017994957
000090 b9 ab af bc 98 97 1f 3d 17 2f 48 3c e8 16 25 3c
       -0.021444188 0.03896293 0.012218258 0.010076262
0000a0 a0 f9 ca 3c 2b 97 a8 3c 2b e3 b5 3c 13 eb d7 3c
       0.024777234 0.020579895 0.022203049 0.02635721
0000b0 27 1b 8a 3c e7 26 02 bd 80 f1 07 bd c7 ea 27 bc
       0.01685865 -0.03177538 -0.033189297 -0.010248846
0000c0 a3 5d 83 bc 96 fb f3 3c
       -0.01603586 0.029783051

linears.4.weight f4 [1, 50]
000000 9d 9a 12 3e 93 8d 95 3e ef ad ad 3d 51 97 7d 3d
       0.14316793 0.29209575 0.08480441 0.061911885
000010 33 6d a5 bc 13 c2 f0 3d f8 ae 05 3e 16 08 53 3e
       -0.020193672 0.11755767 0.13055027 0.20608553
000020 ee a4 cd 3d 88 0b a3 3e b8 4c 43 bd d2 72 45 3e
       0.100412235 0.31844735 -0.047680587 0.19282082
000030 b8 79 af be 76 5f 41 3e f1 7e e2 3e ba bd d4 bd
       -0.34272552 0.18884072 0.44237474 -0.1038775
000040 d2 d7 b3 3d 70 02 4e be ec 39 af be ca 78 76 3e
       0.08781399 -0.20118117 -0.34223878 0.24069515
000050 e0 00 50 be b0 ec f3 bd e9 1a eb 3d 57 40 c4 3e
       -0.20312834 -0.11910379 0.11479742 0.38330337
000060 4e 6b 48 3e f0 cd 71 be 9f c4 a8 bd 43 21 8d 3e
       0.19572183 -0.23613715 -0.082406275 0.2756444
000070 10 ed 0a 3e 2c 07 ae be 57 70 8a 3e f5 3e d4 3d
       0.13566995 -0.33989847 0.27038833 0.103635706
000080 69 53 a7 3e d0 0a 26 be 14 76 a7 3d 2c d0 59 be
       0.32680824 -0.16215062 0.081768185 -0.21270818
000090 39 a8 0b be 8d be b1 3d 6f 47 bf 3e c5 09 4a 3e
       -0.1363839 0.08678923 0.37359187 0.1973029
0000a0 c0 0e 0f 3e f9 18 37 3e 48 de da 3d 5e e2 f1 3d
       0.1397047 0.1788062 0.10686928 0.11810754
0000b0 64 08 71 3e 7a 3e 8a bd 42 40 bf bd 9a 05 d5 be
       0.23538357 -0.06750198 -0.09338428 -0.41605836
0000c0 3f 14 0a be 84 73 09 3e
       -0.13484286 0.13422972
