Archived Code/Stan TPAMI/2D/Klein Gordon/stan_tune/KG_stan_tune4_7.pt (torch, 90598 bytes, 20 tensors)

beta f4 [50, 9]
00000000: 9454 8ebd 8696 863b f908 81bc d4b5 bebd
00000010: 4deb 35bc d01b 113d 2230 833c 96b3 35bb
00000020: afd6 12bb e550 593e 6499 263e 31b7 bebd
00000030: 9e90 c1bd b09d 9f3c 27f0 f43c 7099 de3c
00000040: 99cc 5a3d 47e7 0e3d 8b1e 3d3d 297a 99bc
00000050: 0b09 68bd f257 7a3d 9182 e43c 413a 8fbd
00000060: bd6d b8bc 69b0 b63a 5421 71bc e3b7 103d
00000070: 0bdd 363e e8fb 903c 7cf9 fcbb 04de cc3c
00000080: e59d bd3c dda8 7e3a d5ad a0ba 153b 0c3e
00000090: 371b 953c a266 43bd 7df9 8d3c 9fb8 093c
000000a0: 23ff 4dbb a9f6 9aba bad3 9c3d 67aa 923d
000000b0: 19ea 07bc b403 cf3b 3c89 293d 1ac1 fd3b
000000c0: 3ee0 c6bc 6874 85bd 1db3 923c 0e70 d9bb
000000d0: 72fa 2f3c a379 67bb db50 0f3d d85d b7bd
000000e0: 94c1 2b3a 44c6 643c e8d9 4abd e90d c83d
000000f0: 271f c0bd c952 16bd 1131 75bc c728 65bc
00000100: 65b4 3fbd 59cc 11bc 29af 56bc 2c96 7e3d
00000110: 9d09 75bb dfc1 a7bd c037 4f3b 9cd2 f5bd
00000120: 5df9 ef3b 4a28 27be b452 283d f3df 013c
00000130: e61e 243c 5f5f 9cbc cbce 4e3c 45cc 413c
00000140: d13c e33b 2713 2ebd bec8 c73d 4153 c13c
00000150: b0d1 a73d 36b2 893d 22f3 5a3d 68c6 d13a
00000160: acbf e2bb 40dc f6b9 6a18 a13d c611 df3b
00000170: f1d6 173d b646 1abc bc67 06bc 69f0 143d
00000180: 16ae 5239 f145 793c 297e e6ba 16d8 b7bc
00000190: 3afd 1abc 3293 6b3e 0757 b8bd 7b10 753c
000001a0: bcab c4bc ab49 05bc 0b92 a83c ead2 7fba
000001b0: f065 853d 6dd3 c83d 130a febc 6b09 cbbd
000001c0: f8c7 f1bc 9f05 cebd d697 37bc e6b1 c0ba
000001d0: eabb 383b e82b db3d 0bd8 1abd a4c8 49bd
000001e0: b6d3 b43b 4c19 b93d 8024 f2bc 6a8a 3d3c
000001f0: 87f2 49bd 1ba4 993d 45f6 833d 509b d63c
00000200: 3526 923d 61d9 09bc 0984 a03c 0a97 fa3c
00000210: ee44 11bc 6670 ba3b 932e 173e 76cf 22be
00000220: a7c1 cabd d7db de3d 90fe 17bd 415c 393d
00000230: 13bd f4bb 87fa 4d3c 81a0 813c bdb2 713a
00000240: 38ce 623d 2866 a83c 943c 35bc 9a95 a83c
00000250: dfc7 f4bb 45f4 a8b9 9550 483c 5b09 f2bb
00000260: fe78 02bb 4864 9bbb 59e2 91bc a08e 66bc
00000270: c529 1ebd 7892 313c 3ef9 48bc 725b ec3b
00000280: 6c15 41bc 41fd 043a 7df3 d4bc 3dee 8abd
00000290: 9c5b e83c 626e 883c 3b07 723b 940b b03c
000002a0: c3fa 6e3b 7d4b c3bb 8cbb b63b 2b7a 65bb
000002b0: 1f0c 62bd f057 11be dd34 03bc d6e0 b03d
000002c0: 74cd 41bd f18d 763b 9031 00bd f1d3 a73d
000002d0: 573e f4bd 127e 9ebd c9f8 01be 969a 5cbc
000002e0: 6b50 d5bc 1150 1e3d 53b5 4bbc c4ee 15bb
000002f0: 5795 05bc ea17 a1bc 3638 d63c 3586 023d
00000300: 18e2 08bd e9a5 79bc e40a 593c 9bc3 56bc
00000310: 0f3e 933b 8c0b 25bd c1f8 fabd b94f b53c
00000320: f2fa 5c3d 4d34 563e dd18 d5ba af58 523c
00000330: 9ff3 2f3d ffd9 dc3c 2b4b 773a 4386 fabc
00000340: fc79 4c3c 16a5 c0bc c33f 88bc 1413 d43b
00000350: c0a2 a7bc f039 a7bc c323 313d 480c a239
00000360: 776e 913d 451c 4a3b b6b5 afba 1b0a 69bd
00000370: 28b6 f03c 31ba 0bbe 8682 113c bc63 9fbb
00000380: f1c8 423b c6fa adbc dcf4 d1ba 7476 973e
00000390: 1987 483e 79b4 813b 729e 3cbb 9450 67bd
000003a0: 642f 1a3c c12b 12bc c4eb 8e3e 9571 14bd
000003b0: cd64 7dbc 807d 323a 251b 28bc 4f18 d0bb
000003c0: bef8 54bd 73a6 22bd a6d4 1abe 86b9 cabc
000003d0: 87bb 7fbd e15a 85bc 423c 31be 05e1 d6bb
000003e0: 7390 da3b b46c cebb 1b0f a4bc 184e 75bc
000003f0: 973c bebc ca51 4b3d a58c 95bd 4f45 9cbc
-0.06949726 0.0041072993 -0.015751349 -0.09312025 -0.011103463 0.035426915 0.016014162 -0.002772545
-0.0022405793 0.21222265 0.16269451 -0.09312285 -0.09451412 0.019484371 0.02989967 0.027172774
0.053417776 0.034888532 0.046171706 -0.018735008 -0.05664925 0.061119027 0.02789429 -0.06993533
-0.022513265 0.0013938072 -0.014717419 0.035331618 0.17857759 0.017698243 -0.0077201705 0.025008209
0.023146579 0.00097144936 -0.0012258837 0.13694413 0.018201454 -0.0477053 0.01733088 0.0084058335
-0.003143259 -0.0011822778 0.07657571 0.07161408 -0.008295559 0.00631758 0.041390643 0.0077439668
-0.024276849 -0.06516343 0.017907673 -0.0066356724 0.010740863 -0.0035320304 0.03498922 -0.08953446
0.0006551978 0.013963286 -0.049524218 0.09768278 -0.09380942 -0.036700044 -0.014965312 -0.013986773
-0.046802897 -0.008898818 -0.013103285 0.062154934 -0.0037389763 -0.08191275 0.0031618923 -0.12003061
0.0073234276 -0.16323963 0.041094497 0.007926929 0.010017132 -0.019088445 0.0126225455 0.011828487
0.00693474 -0.042498734 0.097550854 0.023599269 0.081942916 0.06723444 0.053454526 0.0016004564
-0.0069198217 -0.00047084875 0.07865985 0.0068075387 0.03707022 -0.009416273 -0.008203443 0.036362085
0.00020092013 0.015214429 -0.0017585206 -0.022441905 -0.009459788 0.2300537 -0.09000974 0.0149575425
-0.02400767 -0.00813524 0.020577451 -0.00097589067 0.06513584 0.09805951 -0.031010663 -0.09913906
-0.029514298 -0.10059666 -0.011205634 -0.0014701455 0.0028188177 0.10701734 -0.03780369 -0.04926361
0.005518402 0.09038028 -0.02955842 0.011568645 -0.049303558 0.07502004 0.064434566 0.026197106
0.07136194 -0.008413644 0.01959421 0.0305896 -0.008866532 0.0056896685 0.1476386 -0.15899453
-0.099002175 0.10881775 -0.037108004 0.045253996 -0.0074688285 0.012571937 0.015823605 0.00092200545
0.055372447 0.020556524 -0.011061806 0.020579148 -0.0074701156 -0.00032225452 0.0122262435 -0.007386369
-0.0019908543 -0.004742179 -0.017808126 -0.01407209 -0.038614053 0.0108381435 -0.012266455 0.0072130496
-0.0117848925 0.0005073138 -0.02599501 -0.067837216 0.028363995 0.016654197 0.003693058 0.021489896
0.0036465384 -0.0059599266 0.0055765565 -0.0035015445 -0.05518734 -0.14193702 -0.008008209 0.08636634
-0.047315076 0.0037621225 -0.031297266 0.081947215 -0.11925953 -0.0773889 -0.1269256 -0.013464591
-0.026039323 0.038650576 -0.012433368 -0.002287791 -0.008153281 -0.019664723 0.02614985 0.03186627
-0.033418745 -0.01523731 0.013247225 -0.013108159 0.004493482 -0.040294215 -0.12254477 0.022132741
0.053950258 0.20918389 -0.001625802 0.012838527 0.042956945 0.026959417 0.0009433503 -0.0305816
0.012480255 -0.02351622 -0.016631966 0.006472001 -0.020463347 -0.020413369 0.043246996 0.00030908198
0.071011476 0.0030839604 -0.0013405595 -0.056894403 0.029383734 -0.13645245 0.008881217 -0.004864184
0.0029721821 -0.021237742 -0.0016018408 0.2958256 0.19582786 0.0039582816 -0.0028780964 -0.05647333
0.009410713 -0.008921565 0.2791425 -0.036241133 -0.015465927 0.0006808862 -0.010260378 -0.006350554
-0.05199503 -0.03970952 -0.15120181 -0.024746668 -0.0624347 -0.016278686 -0.17308143 -0.006557586
0.0066700517 -0.0062995795 -0.020026734 -0.014972232 -0.02322225 0.049638547 -0.073022164 -0.019076018

linears.0.weight f4 [50, 2]
00000000: 152b 58be 8aa3 98be 3d95 c53d 981d 89bf
00000010: 7932 82be 85ad 053f 5508 763e 8156 26be
00000020: bc42 de3e a388 d43e b424 8dbc 8b92 6fbd
00000030: 8d45 e43d 4580 fa3e 4e80 3d3e 1824 163f
00000040: 4424 6c3e c9e6 9f3e 2375 253d 6b62 b4be
00000050: 061b 2abc 8050 c33e e174 4439 f61c 373e
00000060: da8c fc3e 0a9c 333e 40d2 9bbe 2a90 673f
00000070: dc64 8cbe 8b76 013f c487 43be 2ea4 39bf
00000080: f5eb afbe 02ad d4bd dfb2 8bbd 4d49 eebd
00000090: f631 97bd cbd2 8f3d 0d75 a33d 1f20 6c3e
000000a0: 8052 7e3e 5640 17be 03d8 913c 6d29 3d3e
000000b0: f722 dabe 24f6 58bf 85b3 923d 70e6 4d3e
000000c0: ad90 bd3e b78e 113f 98dd 27bc 8d39 67be
000000d0: a868 cc3e c8c1 9ebf 6cbd d83e 78bc d43e
000000e0: 2da4 f8bd 64a9 b5be 3e5a 533d c5e5 803e
000000f0: 1a67 a03e bbe6 a73e 3a4c e6bc 8ac9 553e
00000100: c19f 523d 2251 5a3e 46bf 54be a75c a63e
00000110: a1a2 973d 8b1c a6be 6846 e9be 1f3f 3fbf
00000120: 5d6d 57bc e31c f73e c1d8 49be c9ae a73a
00000130: f74e 4d3e 1dce aebe 165d abbe 9b21 363e
00000140: 35d6 d3bc bfab 44bf 92c2 823e 56d0 4ebf
00000150: fd12 f23e 90a6 233f bc7a 253f 654e 8c3e
00000160: 0c40 95be c7f8 ef3e bf0c d73e 320f 823c
00000170: cb7b b3be b06c 833c 0ecc 9d3e 75b0 0a3f
00000180: 41cc 2f3e 6636 0a3e 5ecd 89be a30a 373f
-0.21110184 -0.2981227 0.096476056 -1.0712156 -0.25429133 0.52217895 0.24026616 -0.16243936
0.4341029 0.41510496 -0.017229415 -0.058489364 0.11146078 0.48925987 0.18505976 0.58648825
0.23060709 0.31230763 0.040394913 -0.35231337 -0.010382419 0.38147354 0.00018735557 0.17882141
0.4932621 0.17539993 -0.30433846 0.9045435 -0.274207 0.5057151 -0.19094759 -0.72516143
-0.34359708 -0.10384561 -0.06821226 -0.11635075 -0.07382576 0.070226274 0.0798131 0.23059128
0.24836159 -0.14770636 0.017803198 0.18472834 -0.426048 -0.8475058 0.07163147 0.20107436
0.3702444 0.5685839 -0.010245703 -0.22580548 0.39923596 -1.2402887 0.42332017 0.4155004
-0.12140689 -0.35480797 0.051599734 0.251753 0.3132866 0.3279322 -0.02811252 0.20877662
0.051421884 0.21320012 -0.2077609 0.32492563 0.07404066 -0.32443652 -0.45561528 -0.7470569
-0.013148633 0.48264226 -0.19711591 0.0012793179 0.20049654 -0.34141627 -0.33469456 0.17786257
-0.025858978 -0.76824564 0.2553907 -0.80786645 0.47280112 0.6392603 0.646404 0.2740356
-0.29150426 0.4686949 0.42001912 0.015876386 -0.35055384 0.016043037 0.30819744 0.541755
0.1716776 0.13497314 -0.26914495 0.71500605

linears.0.bias f4 [50]
00000000: 0502 183e 2fe6 1f3e b6ab aebe 0fdc 74be
00000010: 5107 803e c3dc 913e ee16 b7be 4f71 77be
00000020: ab3a a6bd 744c 8cbe 617c 03be 6f46 6c3e
00000030: 91d9 bfbe 375d 11bf ea30 7e3e 15fb 513d
00000040: 3208 a93b 858e 813e 29be e2bc daef 583e
00000050: ba02 3fbe 8c64 3e3d 7beb ce3f 3ca3 6cbe
00000060: 00bf 37bf 75da e9bd 3662 b2be b676 6ebe
00000070: 5f7c 84be 814f 613e 9594 d9be 8651 00bf
00000080: d84e 03be d08b a3bc 89dc bbbe dfad 1c3e
00000090: 4ad7 00be 323a e93d f150 333e 7542 013e
000000a0: 9769 ff3e d17c 103e a827 b7bc f2e3 933d
000000b0: fa06 9a3e 7343 4abf 9ecc 193f e159 ecbe
000000c0: 04bb ef3d 4943 433e
0.1484452 0.15615152 -0.3411538 -0.2391207 0.25005582 0.2848874 -0.3575968 -0.24164318
-0.08116659 -0.2740208 -0.12840416 0.23073743 -0.37470677 -0.5678286 0.24823347 0.05126484
0.0051584477 0.25304046 -0.027678566 0.21185246 -0.18653384 0.046482608 1.6165613 -0.23109144
-0.7177582 -0.114186205 -0.34840554 -0.23287472 -0.25876138 0.22002985 -0.42496172 -0.50124395
-0.12823045 -0.019964129 -0.36691692 0.15300702 -0.12582126 0.11388053 0.17511345 0.12623008
0.49885246 0.14110114 -0.022357777 0.072212115 0.30083448 -0.7900917 0.60077846 -0.46162322
0.11705592 0.19068636

linears.1.weight f4 [50, 50]
00000000: dea5 84bd d6fb 99bd 12e2 c6bd fe59 7d3d
00000010: 3d31 8f3e bfc3 6d3d d168 31be 3d34 8cbb
00000020: 8aa0 4f3e a289 aa3d 1e07 b2ba 1d5d 54bd
00000030: 9fd9 063e 40f4 c9bd 8861 243e 4221 95be
00000040: 517c 47bd 64c3 cfbb 870c 183e d109 e43d
00000050: 46c4 64be a4b2 f33d 29b4 503d 208c fcbd
00000060: d257 863e 5bd3 b53c 9d4c b53e 3043 43bd
00000070: e636 75be 83f5 b0bc 3082 823d fa36 92bd
00000080: 597d 113e bb2c b6bd 54b2 0c3e e3d5 443d
00000090: ee53 a43e 47e9 19be 0032 e3bd 259e a5be
000000a0: a12c 573c 3b35 453d 685e 973e c178 3dbe
000000b0: 0388 663c c21b 10be a0c6 9a3e 2508 e1bc
000000c0: b62c a13e a098 713d b2f7 4cbe f116 87be
000000d0: f8db 583e 8ab2 21bd ff8b fc3d a5bd 223d
000000e0: 5ba7 88bd a9ea 893e 37ef 913d 6654 ab3d
000000f0: 6e0d b3be e1ec 22be cb42 a03e bc04 2dbe
00000100: 63b2 083e 790f 25be 11f1 553d 5829 6a3d
00000110: aacb a8be 8198 cf3d 8889 59bd 6fdd fbbd
00000120: a026 a3bd 2b02 d43d 16cd 2ebd 925f 9bbd
00000130: 8297 81bc dbfe 3dbd bc26 283a 99af afbb
00000140: 4c10 c6bd b611 54be 3829 093b bbd3 8fbe
00000150: 695c 383e 15a0 1a3e 8197 063d d712 2f3e
00000160: 6265 90be 80af a2bd 2cac 223d 95b6 3e3e
00000170: 2ab2 973c 1bb5 2ebc 4082 8ebc 1582 be3d
00000180: 9331 8fbd 75f3 d53d ab61 76be 822e a5bc
00000190: a200 3abd a2f3 8ebd ff9e 993d 7978 25bd
000001a0: 7342 16bd 6d6a 8abe 15cb 45bd e5d9 e2bd
000001b0: ba77 973d 39f4 9b3e ada9 3fbd a4db 973e
000001c0: 69f2 f93c 6d3f 15bd a7f6 213e e4e7 25be
000001d0: 4b74 95bd 7b2f a93d 1b64 933e 2b5f 953d
000001e0: 123c cc3b d431 99be 7e62 a63c 7e21 d4bc
000001f0: c43c ccbe b5cb 843d 833c ce3d 5ea4 d9bd
00000200: 8f66 893d 95c5 373d 1579 cfbe 1c32 b9bd
00000210: 3633 38bd e830 26bc 8f76 00bb c06a 34be
00000220: 9095 efbd 96fb 5cbe 968c 10bd 13d1 063e
00000230: 99ca 71be a9f2 a5bd 39e6 80be 55c2 0dbe
00000240: e592 da3c ffbb 94bc 0724 3a3e a6cb 10be
00000250: 2a22 f2bd 2200 903d d37e 0a3d e8bf acbe
00000260: 2696 963e 7942 32bc c61f 8dbe 9588 f4bb
00000270: 1cbe 263d f18d febd d18f 74bd f5bf b4bd
00000280: 3d92 4abd 0346 e0bd 3cbf 54be be9b f23d
00000290: 46d2 a4be 41a1 efbd 9787 e33c 6aa0 82be
000002a0: 9fbb d3bd f8e3 04be 2f98 16be 50d8 01bd
000002b0: b830 14be 9569 b33d d38a 0bbe 7d37 263e
000002c0: 60d5 64be fb59 6b3e 885e 9c3e 8ccc 41be
000002d0: 0f3e 6f3c 6ee8 973c f7ad 9d3d be90 92bc
000002e0: b676 ae3d 6c79 823e cfcd 993e e4b8 03bd
000002f0: 36f6 f3bd 4b0a 103d 4923 37be fcbb 39bd
00000300: 64b5 883d 6042 0f3e 8a4e 4dbe ee72 2c3d
00000310: fea4 a83d d093 efbd 169d c3bd 3de3 2abe
00000320: 322e d13d 0ae2 a83c 8fb6 083d 49df 443d
00000330: 57cf 543d 632f 47bd 8fdd 1cbd 84fb 81be
00000340: 55f4 d4bd 3d24 9a3c ebcb ef3c 435f 3fbd
00000350: 0239 fe3d 1ecb 18be fc15 f0bc bf8f fa3d
00000360: 04fb bcbe 076f 0f3c edd0 053d 966c e93d
00000370: 9eaf bdbd 37d9 1d3e 8651 fb3d a482 a8be
00000380: 0806 fcbd c5cf b73b c79c 353d 302e b3bd
00000390: aee8 1cbe 8d50 56bd 5e7e 243e 979a 0fbd
000003a0: 031c 9d3d c84f 12be e24b 58bd dc39 553e
000003b0: 9ecd 6fbd ba0e 73be b7c1 6a3d c55e 2c3e
000003c0: 779b 333d 20fd 2a3d 56be 98bd a942 2c3e
000003d0: a8f0 563d 0da2 3bbc 1557 59bd a1ea 99bc
000003e0: 51ae 03be ccc5 1a3d 3744 853c 94ae 0fbd
000003f0: 42b2 b5bd 2b35 19be d8f0 be3d 34d6 a6bc
-0.06476949 -0.07518737 -0.09711088 0.0618534 0.27967253 0.058048006 -0.1732514 -0.004278688
0.20276085 0.083270326 -0.0013582443 -0.051846612 0.13168953 -0.0986104 0.1605283 -0.29126936
-0.04870254 -0.006340431 0.14848529 0.11134685 -0.22340497 0.11899307 0.050953064 -0.12331414
0.26238877 0.022195509 0.35410014 -0.047671497 -0.23946723 -0.021601444 0.063724875 -0.07139392
0.14207973 -0.088952504 0.13739902 0.04805554 0.32095283 -0.15030394 -0.11093521 -0.32347217
0.013133199 0.048146468 0.29564214 -0.18503095 0.014070514 -0.14073089 0.30229664 -0.027469704
0.31479424 0.058983445 -0.20016363 -0.2638469 0.21177661 -0.03947691 0.1233139 0.03973164
-0.066725455 0.26936844 0.07125705 0.08365707 -0.34971184 -0.15910675 0.3130096 -0.16896337
0.13349299 -0.16119184 0.052231852 0.057168335 -0.32967883 0.1013651 -0.053109676 -0.122980945
-0.079663515 0.10351976 -0.042676054 -0.07586588 -0.015819315 -0.046385627 0.0006414463 -0.005361509
-0.09671077 -0.20709881 0.002092911 -0.28091225 0.18004002 0.15100129 0.03285933 0.1709703
-0.2820235 -0.0794363 0.039714977 0.18624337 0.018517572 -0.010663296 -0.017396092 0.09302155
-0.069918774 0.10446826 -0.24060695 -0.020163778 -0.04541076 -0.06980063 0.07501029 -0.040398095
-0.036684465 -0.2703432 -0.048289377 -0.11076716 0.07395883 0.30459765 -0.046792675 0.2965976
0.030511098 -0.03643744 0.15816747 -0.1620174 -0.07297572 0.08261009 0.28787312 0.072935425
0.006232747 -0.29920828 0.020310637 -0.025894877 -0.3989011 0.064841665 0.100701354 -0.10627054
0.067090146 0.044866163 -0.40522066 -0.09042761 -0.044970714 -0.010143496 -0.0019601916 -0.17618847
-0.11698449 -0.21580347 -0.035290323 0.13165693 -0.23612441 -0.081029244 -0.25175646 -0.13843663
0.026681373 -0.01815605 0.18177806 -0.14140186 -0.118229225 0.07031275 0.033812355 -0.33740163
0.2941143 -0.010880106 -0.27563304 -0.007462571 0.040708646 -0.12429417 -0.059707467 -0.088256754
-0.04945587 -0.10950854 -0.20776075 0.11846112 -0.32191676 -0.117006786 0.027774615 -0.2551301
-0.1033852 -0.12977588 -0.14706491 -0.031700432 -0.1447171 0.087603725 -0.13627176 0.16232105
-0.22347021 0.22983544 0.30540872 -0.18925685 0.014602198 0.018543448 0.07699197 -0.017891284
0.08518736 0.25483263 0.30039832 -0.032158747 -0.119121954 0.035166066 -0.17884554 -0.04534529
0.066752225 0.13990164 -0.20049492 0.042101793 0.08234595 -0.11698115 -0.09551446 -0.16688247
0.10213889 0.020615596 0.033377226 0.048064504 0.051955547 -0.048629176 -0.038297232 -0.25387204
-0.10398165 0.018816108 0.02927204 -0.046721708 0.12413217 -0.14921233 -0.029307358 0.12234449
-0.3691026 0.008754498 0.03266995 0.11397664 -0.09262012 0.15414892 0.12271409 -0.3291217
-0.12305838 0.005609485 0.044338968 -0.08749044 -0.15323135 -0.052322913 0.1606383 -0.035059538
0.076713584 -0.14288247 -0.052806742 0.20822853 -0.0585457 -0.23736086 0.057313647 0.16833027
0.043849435 0.041745305 -0.07458179 0.16822304 0.0524756 -0.01145221 -0.053061564 -0.018788638
-0.12859465 0.03778629 0.016267879 -0.0350786 -0.088718906 -0.14961688 0.09323281 -0.020365812

linears.1.bias f4 [50]
00000000: 75e9 c0be 6d65 a3be 991c 223e 5883 63be
00000010: c639 f9bc 68cf 81be 238b bb3e 5a17 3a3c
00000020: d5b8 e83e 9ca2 33be 559d d33d 6ebe e9bd
00000030: 1379 c23c 2488 133e 9190 f5be 086a a53e
00000040: 8b48 173d 6718 8abe c592 9b3e 12b8 64bd
00000050: 2623 533c bd85 503e a044 1d3f 683b cd3d
00000060: f76b 1cbe a764 13be dc11 513e 0ef4 b7be
00000070: 096c b73d 06a2 21be 5041 a8bc f63f 32bf
00000080: da9f 143e eb44 eabe a9ad 293e 8685 e53e
00000090: 743c 113d c4a5 e6bd 29be b8bd 772b 51bd
000000a0: 9da8 91be 8c08 f73d 65aa 76be 350a 503f
000000b0: 3e0c d43c bac5 083e 67c4 813d ad8c 52bf
000000c0: c56b ee3d d7fd d13c
-0.37678114 -0.3191332 0.15831222 -0.22218072 -0.030423056 -0.2535355 0.3662959 0.0113581065
0.45453516 -0.175425 0.10332743 -0.11413275 0.023739373 0.14407402 -0.47961858 0.32307458
0.036934417 -0.26971743 0.30385414 -0.055839606 0.012886798 0.20363517 0.6143284 0.100210965
-0.1527556 -0.14393865 0.20416969 -0.35928386 0.08956153 -0.15784463 -0.020538956 -0.69628847
0.14514104 -0.45755705 0.16570152 0.44828433 0.035458043 -0.11262086 -0.09020645 -0.051066842
-0.28448954 0.12062177 -0.24088438 0.81265575 0.025884744 0.13356677 0.06336289 -0.82245904
0.11641649 0.025633736

linears.2.weight f4 [50, 50]
00000000: b045 4dbe 0698 06bd 6818 4ebc f26a 033e
00000010: c7e0 b1bd 625a 433d c16f fa3c b0f0 79be
00000020: 5777 07bd 75f5 413e 8962 dd3d 1b57 d63b
00000030: d31d d4bd 5e12 71bd d040 06be 662b edbd
00000040: 1ae4 8dbe fc08 e6bc 314f 89bd 2c53 26be
00000050: 93d8 323e f796 e0bd e4b3 11be bc50 053e
00000060: 8b1a a23d 2e5e f23d bf72 49be fedd f83c
00000070: 0725 053d 24f0 34be dd54 f7bd f588 dc3c
00000080: 0e03 41be 5dc1 57bc 7fe2 41bd 3ec3 97be
00000090: 1e3c 213e 4e8d 1f3d a548 aebd 9b2f 99be
000000a0: 11cc 10be 54fa 05bd 2b7d 08bd 0adf 553e
000000b0: edce 8d3d acda 4ebe 94a0 1bbe 0cfc aa3e
000000c0: d399 c73b 6b67 e93d 8ff7 cfbd 9dd2 6d3e
000000d0: 3054 a23d 456b 1cbd 54da b5be f368 1e3e
000000e0: 11df 353e 3bd3 9cbe a414 9b3e b7ee a93e
000000f0: de0d 153d b815 f93c dafe 4bbe 379d f63c
00000100: 5492 cbbd b7cd 63bd 8c06 8c3e 0b1b 7e3c
00000110: bf55 9d3e 8b30 64be 8894 743e 39b3 513e
00000120: e603 a8bd a910 10bd 936a 883d 70e6 003d
00000130: 2dc6 a03e e4ae bd3d a9c5 573d 13fe c23e
00000140: 1420 013e 0086 d13e 32d8 0cbf 7ecf fe3d
00000150: 9250 c53d 54d8 fabd ff5c 073e 9409 8b3d
00000160: 6562 073c a684 5f3d c9ea d6bc 40cd 713e
00000170: 2115 86be 88ee 4cbe 8fb6 7bbe 0e99 8bbd
00000180: 3be0 5abe 348e b83e 6108 ecbd ad2e f7bd
00000190: 2265 32bc 0427 83bc a823 aebe dd50 d5bd
000001a0: e340 e3bd d132 0bbd 9ab7 9abd fa27 bf3d
000001b0: 3cfb 3ebc 11db 13be f030 e7bc d85f 3b3e
000001c0: 0265 fcbd c5a1 443e 22b3 a5be fc6e 26bd
000001d0: d08e c7bd 4648 f1ba 66ae 3f3c e0c1 323d
000001e0: fd09 4ebc 5fef a23d d744 763e 662f 233d
000001f0: 5131 023d ebca 0fbc 0859 033e f289 723d
00000200: 346a 803e 83c7 5cbe 6db9 a0bc 03b8 52bd
00000210: e629 bf3e 835e 993e 32ea 023e fca9 26be
00000220: d5f5 aebd ff55 2b3e dce9 fd3d cd19 dfbd
00000230: 24ef 7c3d dbfd d43c aac5 69bd ab8f c0bc
00000240: 3e89 48be 6707 debd 4d7f 393e ab63 da3d
00000250: 8ffa 5abe 0185 1ebe 8b14 0f3d cb1c 0bbd
00000260: c029 e43d 4f4a 3fbe fa83 b1bc 3fde ebbc
00000270: b148 2f3e 3194 50be 87c0 723e 640c 99bc
00000280: 74c3 a6bd 44bb 423e 180b 203e bcff 3e3e
00000290: 449c 63bd 5ed0 04ba 5ab0 3e3e 3be2 89bc
000002a0: e94f a3bc f27f 25be 1429 1c3e 5ecb 933e
000002b0: c381 b13d 01d8 4c3d 3efe b2bc 52cd c13c
000002c0: e1b3 3b3e 162a 103e 8023 50bd 1de9 1d3e
000002d0: ab28 f53d 9610 df3d 1e47 fa3b bfc4 4fbd
000002e0: e96b b03d cd66 55be d6bf 1cbe 064a cb3d
000002f0: e432 1abe 6eda 56bd 4bb6 053e 8d4f 5b3d
00000300: 106c f1bc 8e44 a5bd 63bb 24be aac2 0f3e
00000310: 4cdc c5bc e084 633d edf9 a3bb 3fcb aabd
00000320: 3a7b 12be 8157 ce3d 7fb1 acbd 51eb 9bbd
00000330: 8ed9 be3d f249 9f3e 7990 b7bd 0883 423e
00000340: 04a9 62be aa32 8a3d ec21 ebbc ea4e fcbd
00000350: 26f6 083e aa22 94bd c3d7 23be 1df7 633e
00000360: 8b89 1f3d 39cb c0bd 306a 1b3e 64c4 953e
00000370: 6661 c7bd 858f 11bd 533d 843b b48b 8dbd
00000380: b19c 75be 51e8 74be 75b5 053e 811c 173d
00000390: ef0c 013e d90a 8abd 20b5 bbbd a474 12be
000003a0: 45fc 263d 60c6 3bbd 5abc 1d3e e5c2 19be
000003b0: cfd2 273e 908c d8bc 1c7f bbbc d130 033e
000003c0: 33a1 963b 1983 28bd d634 723d e387 813d
000003d0: 64c5 273d f5f7 bcbd 94bd 0cbc 9bae 67be
000003e0: 2770 c4bd b364 e1bd 3049 0cbe 9080 1ebc
000003f0: 5b42 ae3e e18b b7bd bde0 963e f622 cfbc
-0.20046115 -0.032859825 -0.012579061 0.12833765 -0.08685451 0.047693618 0.030570867 -0.24408221
-0.033072796 0.1894129 0.1080981 0.0065411455 -0.10357251 -0.058855407 -0.13110662 -0.11580543
-0.2771309 -0.028080456 -0.06704558 -0.16242665 0.17465429 -0.10966294 -0.14228779 0.13019079
0.07915219 0.118343696 -0.19672678 0.030379292 0.032506015 -0.17669731 -0.12076733 0.026920775
-0.18848822 -0.01316866 -0.047335144 -0.29641145 0.15745589 0.038953118 -0.085099496 -0.29919133
-0.14140345 -0.032709435 -0.033322494 0.20885864 0.069242336 -0.20200604 -0.15197974 0.33395422
0.0060913353 0.113966785 -0.1015464 0.23224874 0.07926214 -0.038188238 -0.35518134 0.15469722
0.17760874 -0.30629906 0.30289185 0.33189937 0.036390178 0.030405864 -0.19921437 0.030104263
-0.09940019 -0.055616107 0.27348745 0.015509377 0.30729482 -0.22284143 0.23884785 0.20478524
-0.082038686 -0.03517214 0.066609524 0.031469762 0.31401196 0.09261873 0.052678738 0.38084468
0.12609893 0.40922546 -0.5501739 0.1244192 0.09634508 -0.122482926 0.13219069 0.06788936
0.008263205 0.054569863 -0.026235001 0.23613453 -0.26187995 -0.20012867 -0.2458136 -0.06816302
-0.213746 0.36045992 -0.11525036 -0.120694496 -0.01088837 -0.016009815 -0.3401158 -0.10415814
-0.110963605 -0.03398401 -0.075545505 0.09333797 -0.011656579 -0.14439036 -0.028221577 0.1829828
-0.12323953 0.19202335 -0.3236323 -0.040633187 -0.09744036 -0.001840838 0.011699295 0.043641925
-0.012575624 0.07955813 0.24049698 0.039840125 0.031785313 -0.008776407 0.12826931 0.059213586
0.25081027 -0.21560483 -0.019619668 -0.05144502 0.37336653 0.2995492 0.12784651 -0.16275781
-0.085429825 0.16732024 0.12398121 -0.10893593 0.0617515 0.025999954 -0.057073273 -0.023506006
-0.19583604 -0.10841256 0.18114968 0.106635414 -0.21384643 -0.15480424 0.0349317 -0.033963006
0.11140776 -0.1868069 -0.021669377 -0.028792499 0.17117573 -0.2036903 0.23706256 -0.018682666
-0.081427485 0.19016749 0.15629232 0.18652242 -0.05556895 -0.00050664495 0.1862196 -0.016831508
-0.019935565 -0.16162089 0.15250045 0.28866094 0.08667328 0.050010685 -0.021849748 0.023657475
0.18330337 0.14078555 -0.050815105 0.15420957 0.119706474 0.108918354 0.0076378724 -0.05072474
0.08614332 -0.20839997 -0.15307555 0.09926228 -0.15058476 -0.052454405 0.1305782 0.053542662
-0.029470474 -0.080697164 -0.16087107 0.14039102 -0.024152897 0.05554664 -0.0050041587 -0.08339547
-0.1430482 0.10075284 -0.08432292 -0.076132424 0.09318839 0.31111103 -0.08963103 0.18995297
-0.22134787 0.06747945 -0.028702699 -0.12319739 0.13375148 -0.07233174 -0.16000275 0.22262235
0.03894953 -0.09413762 0.15177226 0.29251397 -0.09735374 -0.03553726 0.0040356307 -0.06911412
-0.23985554 -0.23916747 0.13057502 0.036892418 0.1260259 -0.0674035 -0.09165406 -0.14302307
0.040767927 -0.045843482 0.15403882 -0.15015753 0.16389011 -0.026434213 -0.022887759 0.1281159
0.004596853 -0.04114065 0.05913242 0.063247465 0.04095973 -0.092269816 -0.008590121 -0.226252
-0.09591704 -0.11005535 -0.13699794 -0.009674206 0.34035 -0.08962227 0.29468337 -0.025285225

linears.2.bias f4 [50]
00000000: 4338 45be b7e2 a4be 3c92 213e cb22 81be
00000010: 10fa 2c3e 0125 c6bd 05e3 25be 9f0a 893c
00000020: d5a2 5a3d 1b9b 8dbe 3457 45bb 3802 ecbe
00000030: a1fa 2ebe 3ff4 a03e 98f7 d5bd 0ae4 9ebd
00000040: 6891 b33d fc36 21be 8461 993e 94c1 3cbe
00000050: 90be f1bd b2c8 1cbd 3505 343d f83f 813c
00000060: 91ae ffbd 714b 143e 3e49 c73d 84bc 893e
00000070: 4f18 b63e b676 d43e b795 be3e 11cf 5c3e
00000080: 9f6b 4f3d 7df9 3b3d 8cae b83c 9fa7 f0bd
00000090: 0a00 343e 58a1 323e 490d 513e 313e 5ebd
000000a0: 77b5 593e 6656 8b3d b2d9 df3c 273c 2ebe
000000b0: 2a56 38be 2fa3 1fbd b6e9 1c3f 7217 5f3d
000000c0: 179e 5fbe 648f 13bf
-0.19259743 -0.3220422 0.1577844 -0.25221857 0.16892266 -0.09675027 -0.16199882 0.016728697
0.053377945 -0.276574 -0.0030111792 -0.46095443 -0.17087795 0.31436345 -0.104476154 -0.07758339
0.087679684 -0.15743631 0.2995721 -0.18433219 -0.11803925 -0.038277335 0.04395028 0.015777573
-0.12484468 0.14481904 0.09730767 0.26901639 0.3556542 0.4149682 0.37223598 0.21563365
0.050639745 0.045892227 0.022544168 -0.11750721 0.1757814 0.1744436 0.20415224 -0.05425853
0.2126063 0.068035886 0.027325485 -0.17015134 -0.18001619 -0.038973983 0.61294115 0.05446572
-0.2183765 -0.5764067

linears.3.weight f4 [50, 50]
00000000: a9a1 8d3d 7122 bebe 52d1 313d e4f0 b9be
00000010: 58d0 c73d da54 0a3d cb4e 8fbe f44a 233d
00000020: 2cb5 953e da9c 61be 37d1 24bc 3cab dfbe
00000030: fbb6 e5bc 07aa 11be 6fd4 a53d b1c7 39bd
00000040: 5afa 32be df38 7c3d 14ae 1d3d 8b29 763d
00000050: 2d16 373e 9d46 9d3d 5244 6a3e 4fd1 afbc
00000060: 986b e4bd a961 0bbe 2044 0b3d 51fd 2abd
00000070: 2228 613d 04b6 cd3d 5e2c 9ebc 5070 b5be
00000080: 0a67 29bd 059a fcbb 3848 d4bd aaf7 b53e
00000090: 44e3 2b3e 0229 ba3d 0d94 f03d e25c 7b3c
000000a0: 476b de3e 34c0 693e 3ee7 5c3d a46f 31bd
000000b0: 3bb6 55be f71b 3cbe f13c 283e b750 45be
000000c0: a60e 78be f3ee 89be 9f11 a3be 3f8e 1c3d
000000d0: 2a3e 63be 723a 85bd c3c7 dd3d 8760 cbbb
000000e0: 3ac5 eebd 248a cebd dd00 b03d 996c 89be
000000f0: c7d1 ccbb 7162 083e 8775 043f 7912 1abe
00000100: 6d26 0fbf 4509 4ebe 8c26 8f3e aa23 23be
00000110: 1fff 46bd 265a 1f3e 2835 9e3d 8a1a 4ebe
00000120: b4c3 e3bd 9aab 203e 88cc d6bc f33d b1be
00000130: 846b 8f3d 1243 f93d 6657 31bc 9018 7b3e
00000140: b795 8fbc cfd8 30bc 9a2c 1e3e 4b09 fabd
00000150: d8ea 833e f926 133e e7c1 07bc 25c7 0ebd
00000160: 25bd f2bc ceda e33d 4686 db3d 9ae4 5abe
00000170: f951 4cbd c87a c6bd 929a 9cbd ab52 3d3e
00000180: 1a37 1b3e d4f6 363e 8bf1 8a3e efa7 3d3d
00000190: b1d9 493d 0d62 8a3d 370c 91bd 67a1 4fbd
000001a0: 3832 d5bd d4de e0bd c3ea aa3d 4024 983a
000001b0: 1530 85bd 4871 d33c 088a 98bd 2b62 183e
000001c0: 1c39 fc3d 6fe1 89be c79f 37be acd9 b23d
000001d0: fd1a d43d bfac 29be 4368 2abd 85d2 5abd
000001e0: a33d 74be f809 303e 81d5 56be 291d 4e3d
000001f0: 4331 13bb a7cc bbbd 248b ad3d 2cb1 833c
00000200: 5a09 e83d c183 883d f540 4f3d ef78 49bd
00000210: 5704 d83d 2470 35be 1da7 3b3e b5f7 893e
00000220: c2e8 4ebe 0887 90be 8e98 b9bd 10aa 863d
00000230: b0b1 b8bd 94bf 3ebd e5bf b93d 7092 be3c
00000240: d68d a63e 23af b33e 599e 853e 63b7 373e
00000250: 0b6c 91bd 1c8e 2b3c 8817 ac3c fdbb 493e
00000260: 9c76 a6be 53d1 7ebd 6932 433e e085 20be
00000270: bf7e 273e fc6d 2b3e 3c3d 1b3e c33f 713e
00000280: eb6d 92be 9f80 3a3d 79b0 3f3d 7226 4d3d
00000290: 71b9 48be 5974 33be e055 563c 53d3 7c3d
000002a0: 06f6 453c 0710 693d 4534 6d3e f004 47bc
000002b0: d08a d9bc d371 963d 4e26 893d 2e88 99bc
000002c0: 2900 edbd 468e 813d f002 223d c843 453d
000002d0: 2c94 0a3d 90f8 f43d 74c0 0abd f40d 7ebe
000002e0: b9f3 4cbc 0d41 a7be 4e04 1d3e 0d78 633d
000002f0: 6d3a f2bd b367 0dbc 3d5f 2abe be69 41be
00000300: 5772 c5bb 1bbf d73d 250e 623e 23a2 eabc
00000310: ddff 353e 3979 fb3c 39f5 cdbd 5acb 8cbc
00000320: 526a 9fba b56b 283e 3d01 823d 2558 cfbd
00000330: ccbe 0c3e 72d6 923d e7c1 953d 2974 a9bd
00000340: 05d2 5cbd 6cb1 a03c bd6d 09be d8bf 9b3e
00000350: d16c 5dbd 5463 91be 5637 863c 6d6e b5bd
00000360: c4a2 0e3d de6f 6bbe ac6f 21bb 6c1f 2f3e
00000370: 754f ad3c 35d5 733e 05ba 3abd 40bb 40bc
00000380: 23ff 353e 4459 ddbd c861 7bbe cfa5 c83d
00000390: 5eb7 fd3c d48e 133e f4b6 b63d e3fb 5f3d
000003a0: 757a 76be a33d 003d 203a 54bd 32d9 bf3d
000003b0: 0b79 68bd 98f0 7f3e b019 09be 5989 5ebd
000003c0: 316a 1a3d 638f 39bd f40d 77bd 218d 79bc
000003d0: 516b 26bc 86c6 2dbc d89a 6e3e a702 c1bd
000003e0: ea9d 7d3c 04a5 2d3e 1b45 42bd c1ab 90bd
000003f0: 9dac bd3a c200 783e adcf 953e 2ab9 513e
0.069156 -0.37135652 0.043412514 -0.36316597 0.09756535 0.033772327 -0.27989802 0.039866403
0.29239786 -0.2203249 -0.010059646 -0.4368533 -0.028041353 -0.14225017 0.08097159 -0.045356456
-0.17478314 0.061577674 0.038496092 0.060098212 0.17879553 0.07679484 0.22877625 -0.02146211
-0.111533344 -0.13611473 0.034000516 -0.041745488 0.054969914 0.10044482 -0.019308265 -0.3543725
-0.04135803 -0.0077087902 -0.10365337 0.35540515 0.16785914 0.09089853 0.117469884 0.015341969
0.4344122 0.22827226 0.053931467 -0.04331936 -0.20870297 -0.18370043 0.16429497 -0.19269072
-0.24224338 -0.26940116 -0.3184938 0.038221594 -0.22191682 -0.06505288 0.10829117 -0.0062065753
-0.11658712 -0.10084942 0.08593915 -0.26840666 -0.0062505933 0.13318802 0.5174183 -0.1504611
-0.5591801 -0.20120724 0.27959096 -0.15931574 -0.048583146 0.15561733 0.077249825 -0.20127311
-0.11121312 0.15690461 -0.026220575 -0.34617576 0.07002929 0.12170996 -0.01082406 0.24521089
-0.017527444 -0.010793879 0.15446702 -0.12208804 0.2576511 0.14370336 -0.008285976 -0.034857888
-0.029631207 0.11125718 0.1071897 -0.21376267 -0.049882863 -0.096913874 -0.076466694 0.18488567
0.15157738 0.17867595 0.27137408 0.046302732 0.049279872 0.06756983 -0.07082408 -0.050691035
-0.10409969 -0.10980001 0.083455585 0.0011607483 -0.065033115 0.025810853 -0.07448202 0.14881198
0.1231558 -0.26929805 -0.17932044 0.08732924 0.1035671 -0.16569804 -0.041603338 -0.053423423
-0.23851638 0.17191303 -0.20979883 0.050320778 -0.0022459782 -0.09169894 0.084738046 0.016075693
0.11329909 0.06665755 0.050599057 -0.049187597 0.10547703 -0.1771856 0.18325467 0.26946798
-0.20205978 -0.2822802 -0.090623006 0.065754056 -0.09018266 -0.046569422 0.09069804 0.023263186
0.32530087 0.35094556 0.26097372 0.1794105 -0.07100686 0.010470893 0.021007314 0.19700618
-0.32512367 -0.062211346 0.19062199 -0.1567607 0.16356944 0.16741174 0.15160078 0.2355948
-0.28599486 0.04553282 0.046799157 0.050085492 -0.1960199 -0.17524852 0.013081998 0.061724972
0.012082582 0.05690005 0.2316447 -0.012147173 -0.026555449 0.07345929 0.06696759 -0.018741693
-0.11572296 0.06325965 0.039553583 0.048160344 0.033832714 0.11961472 -0.033874944 -0.2481001
-0.01250928 -0.32666817 0.15333673 0.05553441 -0.1182755 -0.008630681 -0.16637893 -0.18887994
-0.0060255933 0.10534497 0.22075708 -0.028641766 0.17773385 0.030697452 -0.10056538 -0.01718681
-0.0012162423 0.16447337 0.063478924 -0.10124234 0.13744658 0.071698084 0.073123746 -0.08274109
-0.053911228 0.019615851 -0.13420768 0.30419803 -0.054058854 -0.28396094 0.016383808 -0.08858953
0.034823194 -0.22991893 -0.0024633212 0.1710183 0.021156052 0.23811801 -0.04558756 -0.011763394
0.17773108 -0.10808042 -0.2454902 0.097972505 0.030971225 0.14409953 0.08921614 0.054683577
-0.24070151 0.03130878 -0.051813245 0.093675986 -0.05675606 0.24994123 -0.13388705 -0.054330204
0.03769893 -0.04530276 -0.06031604 -0.015231402 -0.010157422 -0.010606414 0.23301256 -0.09424334
0.015479544 0.1695748 -0.047429185 -0.070640095 0.0014470998 0.24219039 0.29260007 0.2048079

linears.3.bias f4 [50]
00000000: 7694 773e 4a1f 7c3d 8b73 88be 727b 84be
00000010: 9fc7 b6bd 3976 883c 5749 013e 3a9d 303e
00000020: 1d7e 293d 4d9e f23d 14fb bd3c be89 113e
00000030: 2fc3 db3d 16f6 5abe 9d19 81bb 23ab f13d
00000040: 2b13 b43a 243e 32bc b538 d73c caa9 093d
00000050: 376b aa3d 6902 823e 1efe 72be 5908 a53e
00000060: 6ffc f43e 1ddd 11bf 74a0 c7bd 5311 e33e
00000070: 2d4b e8bc 5e44 48bc 21ee 763e 4c29 91be
00000080: af47 713b 4569 713d 6df6 77be 85c0 6e3d
00000090: 53ce a43e deb1 dfbd 0c16 0fbd c75c 88be
000000a0: 44ad 053e 61ba 463d c724 f1bd 7633 b13c
000000b0: 6f7a d53d bc8a 0ebe d54b 42bd 800d c9bd
000000c0: ef3c 433e 2b70 92bd
0.24177727 0.061553277 -0.26650652 -0.2587543 -0.089247935 0.016657935 0.12625633 0.17247477
0.041380037 0.118466 0.023191012 0.142127 0.10730588 -0.21382937 -0.003939821 0.1180022
0.0013738623 -0.010879073 0.026272157 0.03360919 0.08321231 0.25392464 -0.2372975 0.3223293
0.47848842 -0.5697802 -0.09747401 0.44349155 -0.02835616 -0.012223331 0.24114276 -0.2835182
0.0036816408 0.058938283 -0.24215098 0.05828907 0.32188663 -0.10922597 -0.034933135 -0.26633283
0.13054377 0.04851759 -0.11774593 0.021630984 0.10423743 -0.1392011 -0.0474356 -0.09817028
0.19066213 -0.071503006

linears.4.weight f4 [50, 50]
00000000: 53cc babd f511 ff3d 6e59 92bb 2008 123e
00000010: b7f9 9fbe d29c b1bc 137e 433d b8d2 9a3d
00000020: 8360 d7bc 1b84 c4bd 026a 90be 08c5 6dbb
00000030: 0f06 30be ef59 0c3e c947 f2bc 91b1 803e
00000040: 9c7d 173e 0752 043d 0e8f 093e 8101 073e
00000050: 3c7a 423d ac67 79bc 2a63 c3bd bec0 2b3e
00000060: e431 963d a392 443d d99c e5bc 5475 783e
00000070: bb95 c7bd cfd9 4abe ebfc 823d e31b 26be
00000080: 960b e5bc 4325 533d cbaa 6ebe 13de 09bc
00000090: 9ceb f5bd 04a9 af3d 1e23 7f3e 4d90 83bd
000000a0: fa1e 3d3e bbbe a1bd 13b1 d0bc 0b12 cabd
000000b0: 6da5 3bbd 0815 8dbe a541 ae3c 868a 373e
000000c0: cebf 6cbd 77d8 47be ef5f 62be 33e9 15be
000000d0: a077 283e 33b2 873e 4184 f53b 23d3 72bd
000000e0: fa50 0ebe 6684 323d a6cc 29be 76a3 843d
000000f0: 0a7b ccbe 768e 9cbd 21b0 063e 727b 4c3d
00000100: 2fd6 76bc d20b 81bd 9a91 a53d ca80 113c
00000110: 146b ba3c 4158 473e 931c f7bd e310 2d3e
00000120: eea0 b2bc 6b4b 6fbe 6bed 803d 7e66 7a3d
00000130: 1596 b53d 4425 97bc 1e19 183e 1130 1b3e
00000140: 5d6f 363e 439f b9bc b104 b43e a6c7 0abd
00000150: cd6e 20bd 8b02 043d 9740 ba3b 874d a83d
00000160: a16f 3cbe ac33 8b3d 670c 01bd 08cd fa3d
00000170: 38a6 e1bd da3b a5bd 6f41 b83d 45d0 1b3d
00000180: 12d1 213e a8c4 b2bd fbfa 45bd 3f58 2dbe
00000190: 0fea cdbd 5941 f0bd 50d9 7cbc 897b c5be
000001a0: 95be 9abd 697f bebd c141 87bb 595e 10be
000001b0: 16b2 4ebd 458b 503e 30fc 603d 6aa2 c73d
000001c0: 2b09 70bd a310 713e a29b 1d3e d03b eebd
000001d0: c384 d0bd 8fe3 113e e30e 1b3e dec6 e4bd
000001e0: 528e 6b3d 3863 6cbe 0d59 02be c2ea c23c
000001f0: 2c49 13be 77f6 41be eb5f c13d ae17 13bd
00000200: 1024 e0bd 7e79 d8bd eb1d a3bd 8ba5 25be
00000210: 1abe 4a3e 4ca7 23be 1dc0 debd 10ac b73d
00000220: 242f 423d 2635 fa3d ed17 983e 2d4f e13e
00000230: 64d8 71be c062 413e 9f05 8e3c 5e15 85be
00000240: ca54 663e fa3e 29be f06e c23e 9c0f 343e
00000250: a07c 22be c760 2abd 0e70 183c 7db1 04bc
00000260: 5bd3 62be 0fc9 78bd a90f 96bd 4308 34be
00000270: 3e30 203e 1d53 eb3d d570 a83d 1ba3 2d3e
00000280: b474 053e ba5c c03d fce7 513d 9f2a 5c3e
00000290: 0fac 523d 7deb 31be 7245 d5be 492b 25bd
000002a0: 750c 37bd 4d30 e03d 976e 693d 3dab 223c
000002b0: ad08 45bd 4d3a 03bc deb6 603c c888 20bd
000002c0: bde3 94bd 0222 f0bc 2fc5 493d fe7c 1ebe
000002d0: 0e74 82be 8c4b dbbb 01ee 73bd 43fb 333d
000002e0: a7e3 2d3e e558 a73d b90e 4f3e 2697 13be
000002f0: 765f 8d3e 491e 3dbe 3957 43be 16e9 48bd
00000300: e469 afbe 27fc be3d d057 173d cca6 3cbe
00000310: ddb9 bdbd b09e 583d 417b 873d 4820 dbbd
00000320: 8012 07be fb1c 93be e9c2 f0bc 125d b03c
00000330: 34f9 683e 9e15 afbd 6867 03be 28d5 dc3d
00000340: 123a a93d 3ee0 873d 388f c33d acd8 09be
00000350: ef89 213e 7793 283d 538b 683e c1a8 443c
00000360: 2e66 a4bd ffd6 5ebe 0943 38bd 59ab 153e
00000370: abcb 263e b949 8d3c a743 c03e a68b fc3d
00000380: 22db 0bbe 54b3 0a3c 066f 22be 184c 1c3e
00000390: a47b d63d 33a5 683c 9c9e 3a3b 9a19 823d
000003a0: bd13 4d3d 7b9b fd3c 88e3 b23d 40b0 abbe
000003b0: c323 adbd c14d 08be 70f4 4fbe 84af a6bd
000003c0: f69f 5d3c 2172 7b3d 2d15 9fbd ab70 b23d
000003d0: c8d3 133e 30ad ccbd ff06 183e 03f0 fb3d
000003e0: a922 33be 644e dbbd 40f4 09be ebf6 f5bd
000003f0: b20b 403d 26cd ae3d 533c 643d ea48 493e
-0.09121003 0.12454597 -0.0044662273 0.14260912 -0.31245205 -0.021681223 0.047727656 0.07559723
-0.026291138 -0.095955096 -0.28205878 -0.003628077 -0.17189811 0.13706182 -0.029575245 0.25135472
0.1479401 0.03230479 0.13433477 0.13184167 0.047479853 -0.015222471 -0.095403984 0.16772744
0.07333735 0.047991406 -0.028028892 0.24263507 -0.09745356 -0.1980965 0.063958965 -0.16221575
-0.027959626 0.051549207 -0.2330734 -0.008414763 -0.120078295 0.08577159 0.2491574 -0.064240076
0.18468848 -0.07897707 -0.02547506 -0.09866723 -0.04581206 -0.27555108 0.021271536 0.17923936
-0.057800107 -0.19516169 -0.22106908 -0.1463974 0.16451883 0.26503143 0.0074925725 -0.059283387
-0.13898078 0.043583296 -0.16581973 0.0647649 -0.3993762 -0.0764436 0.13153125 0.049922414
-0.015065714 -0.06301083 0.08084412 0.008880803 0.022756137 0.1946726 -0.12065997 0.16900973
-0.021805253 -0.23368613 0.06295284 0.0611329 0.088665165 -0.018450387 0.14853331 0.15155055
0.17815919 -0.02265895 0.3515983 -0.033881806 -0.039168168 0.032228988 0.0056839692 0.08217912
-0.18401958 0.06796965 -0.03150597 0.12246138 -0.11018032 -0.080680564 0.089968555 0.03804042
0.1580241 -0.087289155 -0.048335057 -0.16928194 -0.10054409 -0.11731214 -0.015432671 -0.38570812
-0.07555882 -0.09301645 -0.0041277115 -0.14098491 -0.050462805 0.20365627 0.054928005 0.09747775
-0.058602493 0.23541503 0.153914 -0.11632502 -0.10181572 0.14246963 0.15142398 -0.111707434
0.057508774 -0.23084724 -0.12729283 0.023793582 -0.14383382 -0.18941675 0.09442123 -0.035911255
-0.109443784 -0.10570048 -0.07964691 -0.16176431 0.1979908 -0.15981787 -0.108764865 0.08968365
0.047408238 0.122171685 0.29705754 0.4400572 -0.23617703 0.18885326 0.017336665 -0.25992864
0.22493282 -0.1652793 0.37975264 0.1758408 -0.15867853 -0.0415962 0.00930406 -0.008098957
-0.22150938 -0.06073862 -0.07327206 -0.17581277 0.15643403 0.11490462 0.08224646 0.16956751
0.130328 0.09392686 0.05124663 0.21500634 0.05143362 -0.17374988 -0.41654545 -0.040324483
-0.044689614 0.10946713 0.056990232 0.009928522 -0.048103977 -0.008009505 0.013715474 -0.039192945
-0.0727 -0.029313091 0.049260315 -0.15477368 -0.25479168 -0.0066923555 -0.05955315 0.043940794
0.16981374 0.08171252 0.2022046 -0.14413127 0.27611893 -0.18468584 -0.19076242 -0.049050413
-0.34260476 0.09325438 0.03694898 -0.18423003 -0.09263966 0.05288571 0.06615306 -0.106995165
-0.13190651 -0.28733048 -0.029389815 0.021528754 0.22751313 -0.08549045 -0.12832415 0.10782844
0.08263029 0.06634568 0.09548801 -0.1346156 0.15775274 0.04115626 0.22709398 0.012003125
-0.08027302 -0.21761702 -0.044985805 0.14616145 0.1628863 0.017247068 0.37551615 0.12331323
-0.13657811 0.008465607 -0.15862665 0.15263402 0.10472801 0.014199543 0.0028475886 0.06352539
0.050067652 0.030957928 0.087348044 -0.33532906 -0.08454087 -0.13310911 -0.2030809 -0.08138946
0.013526907 0.06138814 -0.07767711 0.08712896 0.14436257 -0.099939704 0.14846419 0.12301638
-0.1749369 -0.10708311 -0.1347208 -0.120099865 0.046886154 0.08535223 0.055721592 0.19656721

linears.4.bias f4 [50]
00000000: 3a45 043e 5c0a f8bc 37d6 c73c 3b2a e13d
00000010: c334 223c 1537 d03c 68a2 023d 6a5d 66ba
00000020: ebfb de3d 1c35 04be 5013 cebc 8391 c23d
00000030: 6a5a 053b ae34 68be 381d 7c3c 6dbb 5c3d
00000040: 610d 863d 3fed 39bd 5c92 ea3d 8900 7ebe
00000050: 43b9 693d 1154 713d b5fc 203e 640b dbbd
00000060: 4a15 d93c 7b1e 2dbe 3383 18be 9932 8dbd
00000070: 4442 0cbe 6e62 2dbe 2518 83bc 6672 cc3d
00000080: 596a 9e3c 1b5c 133d 91f1 c13d 0f59 33bd
00000090: 38ba 9abd 4aaf 843d 0853 983d 77d7 653e
000000a0: aa58 823d dfa7 fa3d 1f29 b33e e0eb 1c3e
000000b0: 24e2 fdbd f8a5 fdbd b6b7 c73d 88e2 7ebe
000000c0: ed98 363e 1767 c73d
0.12917033 -0.030278377 0.024394138 0.10994383 0.009900275 0.02541689 0.031893164 -0.00087877235
0.10887893 -0.12910885 -0.025155693 0.095004104 0.002034808 -0.22676346 0.015387826 0.05388968
0.065455206 -0.04539227 0.11453697 -0.24804892 0.057061445 0.058918063 0.157214 -0.10695532
0.02649941 -0.16906159 -0.14893799 -0.06894416 -0.13697153 -0.16932079 -0.016002724 0.09982757
0.01933782 0.03597651 0.09469903 -0.043786105 -0.0755505 0.06478746 0.07437712 0.22445475
0.063645676 0.1223905 0.3499231 0.15324354 -0.123966485 -0.12385172 0.09751837 -0.24891102
0.17831774 0.0973646

linears.5.weight f4 [50, 50]
00000000: b69d eabd ec52 0ebe 71d0 fc3d 77d7 a2bd
00000010: 7e89 3abe 8677 19bd a482 00be 1d20 83bd
00000020: ae43 c3bd 9c22 48bd 26c5 5a3d 8a64 6dbe
00000030: f55a 3d3e 77f8 0c3d a57b 2e3d 242e 61be
00000040: 8963 02be fbff adbe afbe 36bb 7258 e2bd
00000050: c279 9b3e 70b6 033e e163 243e 7a73 aabd
00000060: efc7 f93d 613d c83e e442 96bd cf77 e7bd
00000070: 9bb9 93be 354d 2b3e b55d 84be 23c6 41bd
00000080: e6f0 453c bf5f 53be e33e f6bd c2d0 acbe
00000090: c506 133e 6247 673d bdf1 833e aa18 d83d
000000a0: 36e7 9ebd 41d1 c43d 08cf b73d db05 0a3e
000000b0: 1a05 a7bd 06e9 603e c0fb c3bd b0c0 edbe
000000c0: 2998 d5bd fcff 37bd 3171 1c3e 6f63 ed3c
000000d0: 676a de3d 7a14 8abd 2ccf c3be 6010 66bd
000000e0: b8a1 de3d 1dda 16be 17d2 09be a1cb cebd
000000f0: 8073 debc ee80 b5bc befa 0cbe 9ced 133e
00000100: 64ac 75be ff0b 14bd 4e63 0e3e 842d e7bd
00000110: baa3 05be 70c5 9fbe d45d 923d b5ab 43be
00000120: 2e57 e2bc 32b2 bbbd 567f adbd 19c4 96bd
00000130: f23f 90bd daa7 80be 82f6 3fbe 6a0c 63be
00000140: b244 e7bd e3d9 ec3d 6307 c23b b61f 6f3e
00000150: 35f8 d33c 2c5f febd fff1 fbbc 86c4 773d
00000160: a00a 993e 0bce 95bd 5c44 423e f109 0a3e
00000170: 9654 d73e d438 9a3e 4855 05be b92e 563d
00000180: 6e56 d2bd 275c 50be fd07 573d 59a4 083d
00000190: f5ad 19be d4a0 373c 67a2 36bc ccec d23d
000001a0: cea6 85be d941 e03c bd46 40bc 18d2 5cbe
000001b0: ea9f 503d 5d85 8dbe fcf3 bf3d d99a afbe
000001c0: 02a7 01be 099b cabb 24ce f8bd 50df d4bc
000001d0: 515c b63c 0f0b a43d 7589 b4bd 3d4e 5d3d
000001e0: bdcb 1ebe e15d 8b3d 58d1 c6bd 38d4 8dbc
000001f0: 7929 91bb 9073 9bbd 3541 b63d f024 28bd
00000200: 0686 5cbe 7550 11be 921d 3d3e 5a3f 62bd
00000210: f159 d6bd d4aa b93b 5ff2 113d 2576 513d
00000220: 038c ddbd c1cd 5cbc 85e6 a43e a6a4 75bd
00000230: 612a 673d d179 5abd 9634 87be a0f0 2f3e
00000240: e79b 383e a3e7 fdbd 7e30 cd3c 0bee 2cbe
00000250: c19a 22bd 91a6 263e 60eb 1f3e a8ae 5cbb
00000260: 2c9b 443c 23b5 c23d ff76 aebc b637 5f3e
00000270: abb3 b6bd 48ee 8e3d 7461 503c da50 293e
00000280: 33b0 a53d 742a 333d 7c2a 333e 579a b83d
00000290: 2007 d7bc 84d4 c1bd 6ac4 1f3e 32b1 9fbd
000002a0: 5fe3 443e 8ec0 9abd af59 ce3d 9a06 5cbe
000002b0: ce63 a23d 0f55 7dbe 1723 46be d8b3 5d3d
000002c0: 4a5b a23d 4de8 f53e df11 e5bd d7ba 163e
000002d0: eaab 003e 13f5 eabc ec8b 1cbe 963e 733c
000002e0: 2f00 573d 17be 073e 94d0 253d 1e33 9a39
000002f0: 7baa 1ebe d7c8 4cbd facb 073e 1cfd 783c
00000300: 8fe8 7abc 2dbb 66bd b1d7 d1bc 729e 483e
00000310: 3b8c 7cbd 1074 373d 0407 34bd fa08 3f3e
00000320: fbc1 2e3e 8db2 27be 34ad 1a3c 5109 4e3d
00000330: 2e83 893d 2c29 1c3e b2a9 f63d ebe8 1cbe
00000340: a32b acbc d905 4ebe 3475 f2bd d29e 2bbd
00000350: 65e0 8f3d 9b8b 053e c9cb 82bd 4008 0b3e
00000360: 8d3d 56be f9de 1c3e a6b4 813e 8721 af3b
00000370: 8d01 153d 4441 1abe af89 093d 2977 94be
00000380: b0e3 303e d0b0 52be 3145 7fbc 93f7 013e
00000390: 6e3c e7bd c2cc b13d 1e7c 9bbe 972a 3e3e
000003a0: 1931 59bd 69dd 6c3e 213d 1d3e ab93 91bd
000003b0: 274c 18bd a9e4 f53b ebc4 b83d 7eab c13d
000003c0: 8f1a 58be c2fd 823c 57d7 063e f3e2 96bc
000003d0: f1ce 10bd 35c4 2dbe 1281 69be 0eee 82be
000003e0: b951 8a3d 90bc 483d 9689 06be 5b0b 43bd
000003f0: d0be 0a3d ba45 90be ae2d 993e dddd 5bbc
-0.11455862 -0.1389882 0.123444445 -0.07951253 -0.18216512 -0.037467502 -0.12549835 -0.064026095
-0.09534393 -0.04886113 0.05341067 -0.23182884 0.18491729 0.034416642 0.042598385 -0.21990258
-0.12733282 -0.3398436 -0.0027884652 -0.11052026 0.3036633 0.12862563 0.16053726 -0.08322807
0.121963374 0.39109328 -0.07336977 -0.113021486 -0.28852543 0.16728671 -0.25852743 -0.0473081
0.01208136 -0.20641993 -0.120237134 -0.3375302 0.14358051 0.05646456 0.2577037 0.10551579
-0.07758944 0.096102245 0.08975035 0.13478796 -0.0815527 0.21963891 -0.09569502 -0.4643607
-0.10429413 -0.04492186 0.15277554 0.028978078 0.108601384 -0.06742187 -0.38243997 -0.05616796
0.10870689 -0.14731641 -0.13459049 -0.10097433 -0.027154684 -0.022156205 -0.13767526 0.1444611
-0.23991543 -0.036144253 0.13905069 -0.11287978 -0.13050738 -0.3120532 0.071468025 -0.1910847
-0.027629461 -0.091648474 -0.08471553 -0.073616214 -0.070434466 -0.2512806 -0.18746379 -0.22172704
-0.112923995 0.11564996 0.0059212907 0.2335194 0.02587519 -0.12420496 -0.030755041 0.060490154
0.2989092 -0.0731469 0.1897139 0.13480355 0.4205672 0.3012148 -0.13020813 0.052290652
-0.102703914 -0.20347653 0.052497853 0.03335986 -0.15007766 0.011207778 -0.011147118 0.10299072
-0.26103824 0.027375149 -0.011735615 -0.2156452 0.050933756 -0.2764081 0.09372708 -0.34297827
-0.12661365 -0.0061830324 -0.12148693 -0.02598539 0.022260817 0.08009922 -0.0881528 0.054029692
-0.15507407 0.06805015 -0.09707898 -0.017313108 -0.0044299928 -0.07590401 0.08899156 -0.04105085
-0.21535501 -0.14190848 0.18468311 -0.055236198 -0.10466374 0.0056661163 0.035631534 0.051138062
-0.10817721 -0.01347679 0.32207122 -0.059971474 0.0564369 -0.05333883 -0.26407307 0.17181635
0.18028222 -0.12397697 0.025047537 -0.16887681 -0.039698366 0.16274478 0.15617132 -0.003367344
0.0119998865 0.09507205 -0.021296976 0.21798596 -0.08920988 0.06979042 0.012718547 0.16534749
0.08090248 0.04374166 0.17496675 0.09013813 -0.026248515 -0.09464362 0.1560227 -0.07797469
0.1922736 -0.07556258 0.100756995 -0.21486893 0.079291925 -0.24739479 -0.19349323 0.05412659
0.07927568 0.48028794 -0.11185049 0.14719711 0.1256558 -0.028681314 -0.15287751 0.014846465
0.05249041 0.13256107 0.04048212 0.00029411254 -0.1549472 -0.049996223 0.13261405 0.015197065
-0.015314235 -0.05633085 -0.025615545 0.19591692 -0.06165717 0.04478842 -0.043952003 0.18655768
0.17066185 -0.16376705 0.009440709 0.050301854 0.06714474 0.15250081 0.120440856 -0.15323226
-0.021016901 -0.20119418 -0.11838761 -0.04189951 0.07025222 0.13041537 -0.06386525 0.13577366
-0.20921917 0.15319432 0.25333136 0.005344573 0.036378432 -0.1506396 0.03357857 -0.28997162
0.17274356 -0.20575261 -0.015580461 0.12692098 -0.11290823 0.086816326 -0.3036813 0.18570934
-0.05302534 0.23131336 0.1535535 -0.071082436 -0.037182 0.007504065 0.09021934 0.09456538
-0.21103881 0.015990142 0.13168083 -0.018418765 -0.035353605 -0.16969378 -0.22803143 -0.25572246
0.067538686 0.049007952 -0.13138422 -0.04761825 0.03387338 -0.28178197 0.29917663 -0.013419596

linears.5.bias f4 [50]
00000000: aa2a 1d3d 92bf b13b 9fd6 40bd 4c19 43bd
00000010: 526c 4b3c f34e 3abd e0ff bebd ba32 86bb
00000020: 5d3b 4ebc e913 aebd 3b2d a03d 4764 69bd
00000030: dcab 0a3e ff01 10bd 9296 2dbd d0e7 2d3e
00000040: eba0 4a3c f5bb 08be 0de7 2d3e 7baa b93c
00000050: b786 1cbd 0687 893d 5140 a7bc 30ad 223c
00000060: 21a3 cf3c 62aa 39be 89e9 e23d 2515 50bb
00000070: d62f 66bd b815 0c3d 778e 363d 89d3 503d
00000080: b598 783b a87e 2b3e b61f f6bd bd91 d23c
00000090: a24e ce3c 9a50 c73d e5c7 6ebe 0f58 7b3d
000000a0: fb59 133d 4813 c7bd 78b2 88bd fba4 ad3d
000000b0: f3e7 153e e35e 9dbd 9566 0ebe bddb aebb
000000c0: 2cf6 553e e39c 2e3e
0.038370766 0.0054244483 -0.04707968 -0.047631547 0.012415962 -0.045485448 -0.09326148 -0.0040954025
-0.0125873955 -0.08499891 0.07821127 -0.056980398 0.13542122 -0.035158154 -0.042379923 0.1698296
0.012367467 -0.1335295 0.1698267 0.0226643 -0.03821441 0.06715207 -0.02041641 0.009928986
0.02534634 -0.18131402 0.110796995 -0.0031750884 -0.056197964 0.0342004 0.04456946 0.050982986
0.0037932817 0.16747534 -0.12017767 0.025704259 0.02518398 0.097321704 -0.23318441 0.061363276
0.035974484 -0.097204745 -0.06674665 0.08478733 0.14639263 -0.07684114 -0.1390632 -0.0053362534
0.20894688 0.17052035
